models/snake_dqn_ep443_score20_20250303_093911.pt (torch, 871458 bytes, 44 tensors)

feature_layers.0.weight f4 [128, 24]
00000000: 8596 d9be c4f1 053f 0a83 f5be e0a8 313e
00000010: cd6c ce3e a1cd 21bf fe71 d7bd 4b31 b2be
00000020: 7f78 3cbd 1f01 09be 6e9a 45bd 3920 83be
00000030: 2651 003e 794b 083e 2b84 cdbe 7c4c 133f
00000040: 8ee3 2bbf d749 7a3f 6d09 ee3e 6a33 a6be
00000050: 87df 153f 09e8 e1bd 0158 bc3e ebfd 3a3d
00000060: df8a d3bc fea2 e13d 71af 7bbd 3aaa cfbe
00000070: ac92 4dbe 873b f7be 898a 8d3e a553 76bd
00000080: 77dd 43be 666f 8c3d 3a27 0e3e 9bbe 143f
00000090: e863 08bd 44d2 ad3e 2b12 8cbc 6767 35bd
000000a0: a757 7c3e c473 623f 22cd ba3d 9148 25bd
000000b0: 479b 2a3d 79e0 cb3b c578 e33e 061e c9bd
000000c0: d2b4 74be 7cd1 c3be 99be da3d c206 3abe
000000d0: c2c9 debd a898 a4be 174a 703e 6bd1 903e
000000e0: 9566 43be 9863 d7be 0abc 25be 0838 05bf
000000f0: d3c2 253e eaee 34be e536 c13e b2b0 7c3d
00000100: 27a9 efbe 38e8 e8bd 04e2 b1be 6d10 9bbe
00000110: 6240 0ebe f02d 6c3d 72c7 d73e c087 053c
00000120: def3 0a3e 7fd2 a23e 9daa 5d3f b996 053f
00000130: 7565 123e 4f04 a53e c4b3 9a3d bbaa 863e
00000140: 27a3 9e3e 0fc1 923e e53f 393e 8897 563f
00000150: 85f5 0c3e 470f a6bd fdbe 1abf 2f0e a83e
00000160: 8ed2 0fbc ebe4 aa3d 0362 c53d 6fe9 d7be
00000170: fbd8 df3e d286 3abe 2c59 0e3f 640f 60be
00000180: ae76 343d 791d 603f d04b 43be 40b3 a1be
00000190: d1a8 8b3e 42bf d83d e098 c7be a2a2 8bbd
000001a0: be00 debd 6b0c df3e 7e85 b23e c016 163e
000001b0: f9be 19bf 5294 0cbf 61c4 8dbe f97e 19be
000001c0: 5f70 1cbf a92b ca3e 9f1b 0f3f 5753 933e
000001d0: a4f4 d03e 7113 573e 0c43 8bbd faed 0ebe
000001e0: 9366 e73d c807 0b3e 3080 62be 7437 213e
000001f0: 84cb 49be 5ef4 973e e5c3 64bd 9ecf 8cbd
00000200: 0b36 bc3e 10a4 e53d 616c 17be 3a10 85bd
00000210: ee1e 18bf 8149 9e3c 696d bebe 8e33 473f
00000220: 3e79 9cbe daff a03e 262d 61be dc92 a4bd
00000230: 7271 f33e 6784 45be 017e 7b3e 3bca 70be
00000240: 58af 4cbe 4eec f73d 29e6 9fbe 7160 90be
00000250: 47cb 293e 5d58 d93e afa7 efbe 567a 553d
00000260: 9fd9 b23e 3157 003e c63c ef3c 0339 463d
00000270: 1d25 2d3e 4532 e7bd 4cf7 98be ac79 47bc
00000280: 8419 8bbe 2260 3dbe 8798 d1be 1c4b b63e
00000290: 13a7 c43d f50a 023f c003 ebbe 822f af3e
000002a0: 46a5 973b 6956 54bc b04a 82bc 8e18 67bd
000002b0: 1c8c 95be c50d 69be 96ec ad3e 2b05 803e
000002c0: c842 ff3e 18c7 94bd 401f 4e3d 683b 863e
000002d0: ae8a 92be 7aa3 ccbe c9a5 bfbe 1b81 6d3e
000002e0: f521 db3e d7e5 7b3e 98f5 02bc 3c51 acbd
000002f0: 8118 5f3e 6cb5 e9bb 896a 963e defa 073f
00000300: c9e1 15bc a006 1ebe a5ae 49be d348 a43e
00000310: 9290 e1bd 1792 703d 0988 0bbe 0a14 13bd
00000320: 880d e8bd 4619 563e 6526 673e ed6a f53e
00000330: 85cb b4be 44e4 333d c498 12be 073d 62bc
00000340: eb67 0d3e c65b 9d3e 705a 28be 25a0 c1be
00000350: 0a70 f3be 84c0 e73e cd9c 13be ad79 493e
00000360: a90c be3e bc8e 92be d9b6 c4bd 74df a23e
00000370: b7dc 473e f9fc 98be a553 403e 297a 27be
00000380: df5c c2be 5b50 a2be e1e4 df3e b868 33be
00000390: 7cca 6fbd bb01 1bbd 13a5 7cbe 6a84 a1be
000003a0: 9a06 3fbd 57b4 f2be 714a 903d 4213 f73c
000003b0: ac27 28be 97d4 ef3e b5e0 b4be 4936 ea3d
000003c0: a3cb 803e 4bd6 3d3e bd03 5b3e 5b52 81be
000003d0: 3eef 2fbe 4923 9c3c 21a1 a4bd f1de 71be
000003e0: dfcd 123e 9ca2 9f3e 39b6 a4bd dfd9 f53e
000003f0: 79db 35bf a7b3 6fbe a458 73be db60 bebe
-0.4249765 0.5232203 -0.47951537 0.17349577 0.40317383 -0.6320439 -0.10519789 -0.34803233
-0.04601335 -0.13379334 -0.04824298 -0.2561052 0.12530956 0.1331004 -0.401399 0.5753858
-0.67144096 0.9776892 0.46491566 -0.324611 0.585442 -0.11030585 0.36785892 0.04565231
-0.025823055 0.110174164 -0.06144661 -0.4055956 -0.20075482 -0.48287603 0.27644756 -0.060138363
-0.19127451 0.06857185 0.13882151 0.5810334 -0.033298403 0.33949482 -0.017098507 -0.044288065
0.24642812 0.88457894 0.09121157 -0.040352408 0.04165199 0.0062218276 0.44428077 -0.0982018
-0.23897102 -0.3824576 0.10680885 -0.1816664 -0.10878326 -0.32147717 0.23465763 0.28284773
-0.190821 -0.42068172 -0.16185012 -0.5203862 0.16187601 -0.17669263 0.37737194 0.061691947
-0.4680874 -0.11372417 -0.3474275 -0.3028597 -0.13891748 0.057660997 0.42144352 0.008150041
0.1356959 0.3180122 0.8658846 0.5218311 0.14296515 0.3222985 0.07553819 0.26302132
0.3098385 0.28662917 0.1809078 0.8382497 0.13765533 -0.08108383 -0.60447675 0.3282332
-0.0087782275 0.08344444 0.09637835 -0.42170283 0.4372023 -0.18215492 0.55604815 -0.21880871
0.044058494 0.8754497 -0.19071889 -0.3158207 0.27277234 0.105833545 -0.38983822 -0.06818129
-0.10839985 0.43564162 0.3486747 0.14657116 -0.60057026 -0.5491382 -0.27688888 -0.14989842
-0.61108965 0.39486435 0.5590152 0.2877452 0.40811646 0.2100351 -0.067998976 -0.13957968
0.11298861 0.13577187 -0.22119212 0.1574381 -0.19706541 0.29678625 -0.055850882 -0.06875537
0.36759982 0.11212933 -0.14787437 -0.064972356 -0.59422195 0.019322159 -0.37192848 0.7781304
-0.3056125 0.314452 -0.21989879 -0.08035824 0.4754749 -0.19288789 0.24559785 -0.23514645
-0.19988763 0.121056184 -0.31230286 -0.2819858 0.1658145 0.42450228 -0.4680762 0.05211862
0.34931657 0.12533261 0.029203784 0.048394214 0.16908689 -0.11288885 -0.29876173 -0.012175005
-0.27167904 -0.18493703 -0.40936682 0.3560418 0.096021794 0.5079797 -0.459013 0.34215933
0.0046278564 -0.012960055 -0.015904754 -0.0564199 -0.29208457 -0.22759159 0.33969563 0.25003943
0.49855638 -0.072645366 0.05032277 0.26217198 -0.2862143 -0.39968473 -0.37431172 0.23193781
0.42799345 0.24599396 -0.007993124 -0.08413932 0.21786691 -0.007132223 0.29378155 0.5311717
-0.00914807 -0.15432215 -0.19695528 0.3208681 -0.11013903 0.058733072 -0.13626112 -0.035907783
-0.11330706 0.20908079 0.2257324 0.4793314 -0.35311523 0.043918863 -0.14316088 -0.013808495
0.13809173 0.3073408 -0.16440749 -0.37817493 -0.47546417 0.45264065 -0.14415284 0.19675322
0.37119034 -0.28624523 -0.09605188 0.31811106 0.1951779 -0.29880503 0.18781908 -0.16355194
-0.3796148 -0.3170193 0.43729308 -0.17520416 -0.058542714 -0.037843447 -0.24672346 -0.31546336
-0.046637155 -0.47403213 0.070454486 0.03016055 -0.16421384 0.4684188 -0.35327688 0.11436135
0.25155362 0.18538778 0.21388145 -0.25258145 -0.17181107 0.019059794 -0.080385454 -0.23620202
0.14336346 0.3117875 -0.08042569 0.48017785 -0.71038014 -0.23408376 -0.23764282 -0.3718327

feature_layers.0.bias f4 [128]
00000000: 429d 3cbe cb0b 11be 06a7 2dbc d166 723e
00000010: 8dff 463e 06b6 7cbc ce23 5a3e 83ef 863e
00000020: b1c1 9d3e bcb3 793e 7751 493e 95dc d9bc
00000030: 9bb1 a43e 76da cabc 8fa1 b9bc 82e8 a53d
00000040: e387 0c3d 3c92 e13d 6c55 95bd 7b4a 35be
00000050: 56db b63d ad76 20bd 000b 8d3e c203 3cbe
00000060: 59bb 2abe f352 213d 2f7f 05be dfb2 e43d
00000070: 772b 1e3e 87b4 bd3e ee3c babd c89e 82be
00000080: 5288 8cbd 8da0 51bd 6bf3 1fbb 5ceb 613e
00000090: 9b3a aebc 1d21 04be a034 56be 6688 933e
000000a0: 6a28 9d3c 2a1f 0ebe dec8 87be 356d ba3e
000000b0: cd4d 7abe 6e9a f1bc bce4 60be 7ffa dcbc
000000c0: 4fa9 27be a37a 15be d908 dc3d 4d79 e4bd
000000d0: 8eaa 8dbb b352 533d e6be 983b 190c 34bd
000000e0: 426c 5bbe b186 17be cbb5 a9bd 263a 933e
000000f0: 2c6e 9cbd 9e6e 43bc 0070 31be 2bf5 573e
00000100: 0a4b 85bd a3ad fdbc 5241 0fbd d405 843e
00000110: c1f1 033e b25d 723e 6b4b c2bc d613 ba3d
00000120: 0e19 9d3e fb6e 863e 7c58 2b3e 49d9 7c3e
00000130: 6757 debd 3efe 713e b217 94be 7be4 65be
00000140: 03f1 63be 154d d73c 7712 bd3c a8b3 53be
00000150: b3de 4c3c ebfd 8e3e 7f68 b8bb 0a77 0d3e
00000160: 2909 b13c a908 9fbe 208b b7bd 306c 833e
00000170: 07ff 8b3d 15c7 ce3d 5395 e03d 9d73 3b3d
00000180: 8e54 193e 31b4 39be ad18 0a3d cd15 dbbc
00000190: 37f9 a7bd 51c9 943e 490f 093e c6d4 6bbc
000001a0: 6948 24bd c410 41be 7cd3 993e 1b3c 123d
000001b0: 7873 e4bc 7fd4 a9be 2b84 d4bd e16d 21be
000001c0: b4f7 babd 2e82 a73c d379 9d3d 0b28 543e
000001d0: 0395 a6be 6fde 89be ba3e 943e b772 103e
000001e0: 5e71 7bbe 99db ae3d 704c 44be 8340 2c3e
000001f0: 5bee 7e3d c110 23be 4beb 22bb bb3d e2bd
-0.18419364 -0.14164655 -0.0105989035 0.23672034 0.19433422 -0.015424257 0.21302721 0.26354608
0.30811837 0.2438497 0.19659983 -0.02659444 0.32166752 -0.024762373 -0.022660045 0.08100988
0.03430928 0.1101422 -0.072916836 -0.17704193 0.08928554 -0.039175678 0.27547455 -0.18360808
-0.1667303 0.039385747 -0.13036798 0.111669295 0.15446268 0.37051794 -0.09093653 -0.25511765
-0.068619385 -0.051178504 -0.0024406563 0.22062439 -0.02126818 -0.12903257 -0.20918512 0.28815
0.01918431 -0.13879076 -0.26520437 0.36411443 -0.24443741 -0.029492583 -0.21962255 -0.026974915
-0.1637318 -0.14597563 0.10743875 -0.11155949 -0.00432331 0.05159254 0.0046614287 -0.04395685
-0.21428016 -0.14797474 -0.082866274 0.287553 -0.07638201 -0.011928229 -0.17327881 0.21089618
-0.06508453 -0.030966586 -0.034974404 0.25785697 0.1288519 0.23668554 -0.023717603 0.09085815
0.30683178 0.26256546 0.16732973 0.24692263 -0.108565144 0.23632142 -0.28924328 -0.2245044
-0.22259907 0.026281873 0.023080094 -0.20674002 0.0125042675 0.279281 -0.0056276913 0.13814941
0.021610813 -0.31061295 -0.08962083 0.25668478 0.06835752 0.10096566 0.10965981 0.045764554
0.14973661 -0.18135144 0.03371494 -0.026743794 -0.08201831 0.29059842 0.13384737 -0.014393991
-0.04010812 -0.18854052 0.30044162 0.035701852 -0.027887091 -0.33169934 -0.103767715 -0.15764572
-0.09129277 0.020447817 0.07689252 0.207184 -0.32535562 -0.26927516 0.28954107 0.1410626
-0.24554965 0.08537979 -0.19169784 0.16821484 0.062239032 -0.1592436 -0.0024859484 -0.110469304

feature_layers.1.weight f4 [128, 128]
00000000: 8dcb 2bbd fc24 c83d 41e0 c83d ffe2 0bbe
00000010: 211c 6d3d 08af 67be a475 0f3e cc1f 063e
00000020: c9e2 113c ea09 c93d 2e26 5d3e f42f ad3e
00000030: 4788 403e 7a82 f93c 48d6 463d 87c2 51be
00000040: e914 a13e ce9a ff3d 04af c83d ce6c 82bd
00000050: eee4 123d 049e cfbe 5b78 ef3d 25ff a7be
00000060: 3151 1fbc 2a6e ebbd 8105 8ebd b7ce 2a3e
00000070: 4b03 103e eae4 573c 53e2 1ebd 98f4 4fbe
00000080: 86cd 043e 4802 e9bc f171 bdbd feab 323e
00000090: ed01 09be c64b b3bd 2bee f4bd 40ca 573e
000000a0: b100 56be cc79 b43d 6a0c 7bbe 789b 2c3d
000000b0: 119c b1bd 0414 0cbe c45f 0e3e 2031 5e3e
000000c0: 7275 5c3a d6ac cebe 2dcf 55be fe88 353d
000000d0: c953 163d 9b0a 15bd e212 423e f909 b738
000000e0: 85c3 0b3d 24bb 01be fc6c a9be b1a2 223e
000000f0: 0533 6cbd a4da 9c3d 5480 73bc fef5 2b3d
00000100: 940e 1cbe a334 7cbc 95d0 06bd b1fc fa3d
00000110: 8907 0d3e fae4 443d 26bf e3bb 6f42 7c3d
00000120: 79d2 453e a87d 143d a333 21bd 8c41 953e
00000130: 2beb ebbc 9ddf 1d3e 84e3 a43e f0ba a53d
00000140: 7fab 59be a4f6 04bd d87b 68bd d98a 613d
00000150: 5cb3 38be b5f7 6dbd 100f 4f3d 09a4 3cbe
00000160: 7529 003d d524 b2be fb80 6c3e 0989 763d
00000170: fef4 0dbe 700a 5fbd 726e 0a3d a984 4e3c
00000180: 7cd2 56bd 1264 153d ed6f adbe a79a 223e
00000190: 4d49 e1bd 81c5 393e 7e4a 7dbe c4b7 f6bd
000001a0: 8467 ebba d8be 3f3c 8204 833e 7e5c 77bd
000001b0: a478 c9bc 6ee6 2ebe ea7f a03e d2c6 a0bd
000001c0: b604 dd3d 3b44 5fbe 2871 203e 9ad9 023e
000001d0: 7b22 a4be c9c5 303e b228 bb3a 54c6 313e
000001e0: f9ce 903d 72a5 2abe 39e3 c13b 10f2 1bbb
000001f0: 2cc7 d83d 1dee d2bd 8dc2 b7bc 9429 43be
00000200: 441f 48be ffa2 203e 793b c13d c39b c4bd
00000210: 6623 f33d 253d 07bd 3c25 45bd 1637 723c
00000220: ce90 f0bd c7e3 0bbd 1ac5 463e 63db c2bd
00000230: 0f95 7e3e cb32 10be fe11 0cbe 7603 f5bd
00000240: 1f66 463d 30cf 8d3d 103a 88bc 1d4b 19be
00000250: 69ac 11be 8556 953d dc79 c3bd aa03 573c
00000260: 8abc fcbd 7f11 4c3e cf98 5abe 0c4a 7bbe
00000270: c092 583c 0983 e73d 3e42 fbbc fac9 ba3d
00000280: d259 243d dcf6 cc3d b009 40be 745f babb
00000290: 67b2 113e 35dd 493e f96d d13d 9692 df3d
000002a0: d952 bebc e82c 96bd 8351 3ebe d188 1b3d
000002b0: b91b d9bd e1fe 43be c66d cfbd 0a37 1ebc
000002c0: 9161 023e 3c4d 1fbe a450 e43c cbe1 68bd
000002d0: 9d5c 74be e9fd 3a3e e0a0 8b3e 9ff9 c7bd
000002e0: 8d7d f8bb e0b1 f6bd 6f31 58be c1e0 613e
000002f0: 00a4 1d3d 7b24 e8bd 4bc2 ffbd 5bd5 3a3e
00000300: 554d 8c3e 8ae7 98bd efdc eebd a8c7 a5bd
00000310: 38e2 553d 9810 2dbd 2b42 7ebe eb4f cc3d
00000320: 4258 af3d 131e 133e cbca adbd e412 303e
00000330: fcc9 78bd 51fd 87ba 5f33 dcbd ae16 99bb
00000340: 6744 093e 018b 23bd 246b cfbd c5c2 143f
00000350: 26d6 95be 9ba1 d2bd 1a32 2fbe 1bbc 8e3d
00000360: f0b9 04be 7772 09be 1e68 7fbd 1115 e63d
00000370: e857 53be 048a a43d 6960 fcbd a2e6 55bd
00000380: a0f5 c5bc c9de 48bd 80f5 2dbd 413d e0bc
00000390: 0bd0 49be 4d27 413e 7e5f 40be 9262 3a3e
000003a0: 3c81 86be 512f ebbd 1605 353e 4b85 053d
000003b0: 2b72 9c3c 473a 81bd 2de4 95bc 17f6 06bd
000003c0: c8e3 403e a8af a3bd 455d 54be ee5f 0ebe
000003d0: a82a 5fbd 7663 0f3d ae63 62bd 88d3 093e
000003e0: 28f5 e8bd 138e 0c3e a2c7 183e 893d 943e
000003f0: 20e3 40bc 98cf 17bc f8c9 b1bd 7ce1 4fbd
-0.041942168 0.09772679 0.09808398 -0.13660811 0.057888154 -0.22625363 0.1400972 0.13098067
0.008904167 0.09816344 0.21596596 0.33825648 0.18801986 0.030457724 0.0485442 -0.20484363
0.31461266 0.124806985 0.097990066 -0.06368409 0.035862856 -0.40550244 0.11692878 -0.32811847
-0.009723947 -0.114956215 -0.069346435 0.16680418 0.14063756 0.013177136 -0.03879006 -0.20308149
0.12969026 -0.02844347 -0.09250248 0.17448422 -0.13379641 -0.08754687 -0.119594894 0.21073246
-0.20898701 0.088122934 -0.24516454 0.042140454 -0.086723454 -0.1367951 0.13903719 0.21698427
0.00084098347 -0.40366238 -0.20879813 0.0443201 0.036700998 -0.036387067 0.18952516 8.7279775e-05
0.03412201 -0.12669045 -0.3309096 0.15882374 -0.057665844 0.0765889 -0.014862139 0.041982643
-0.15239936 -0.015393409 -0.032913763 0.12255228 0.13772406 0.04806993 -0.006950277 0.061586794
0.1931857 0.036252648 -0.039355885 0.2915157 -0.02879866 0.15417333 0.3220483 0.08092296
-0.21256827 -0.032461777 -0.05675873 0.055064056 -0.1803717 -0.05809756 0.050551474 -0.1842195
0.031289537 -0.34793726 0.23096077 0.06018928 -0.13862988 -0.054453313 0.033796735 0.012604871
-0.052446827 0.036472388 -0.33874455 0.15879308 -0.11000309 0.18141748 -0.24735448 -0.12046769
-0.0017959927 0.011703216 0.25589377 -0.06039094 -0.024593659 -0.1708009 0.3134759 -0.07850422
0.10791914 -0.21803372 0.15668166 0.12778321 -0.32057557 0.17262949 0.0014279096 0.17360812
0.07070727 -0.16664675 0.0059169796 -0.0023795404 0.10584864 -0.10299323 -0.022431636 -0.1905883
-0.19543177 0.15687178 0.09435172 -0.09600022 0.11871986 -0.033017296 -0.048131213 0.014783641
-0.11746369 -0.034152772 0.19411126 -0.09514501 0.24861549 -0.14081876 -0.13678738 -0.11963551
0.048437234 0.069242835 -0.016629249 -0.1497006 -0.14225926 0.07291893 -0.09544727 0.013123432
-0.123406485 0.19928549 -0.21347354 -0.24539965 0.013218582 0.1130429 -0.030671235 0.09120555
0.04012472 0.10008022 -0.18753695 -0.0056876484 0.14228211 0.1971329 0.10226054 0.10916631
-0.023232864 -0.07332784 -0.18585782 0.037972275 -0.10600991 -0.19140197 -0.101283595 -0.009656677
0.12732531 -0.15556806 0.027870484 -0.056855958 -0.23863454 0.18260922 0.27271175 -0.09764408
-0.007583326 -0.12045646 -0.21112607 0.22058393 0.03848648 -0.11335083 -0.1248823 0.18245451
0.2740275 -0.074660376 -0.116632335 -0.08094722 0.052217692 -0.042252153 -0.24829929 0.09976181
0.08561756 0.14366941 -0.08485945 0.17194706 -0.060739502 -0.0010375177 -0.10751986 -0.004671893
0.13405 -0.039927486 -0.10127857 0.58109695 -0.29264945 -0.1028473 -0.17108956 0.06969472
-0.12961555 -0.13422571 -0.062355153 0.11234487 -0.20639002 0.08034137 -0.12323076 -0.0522219
-0.024164975 -0.04904059 -0.042470455 -0.027372958 -0.19708268 0.18862648 -0.18786427 0.18201664
-0.26270473 -0.11483634 0.17677721 0.03259782 0.019097408 -0.06309944 -0.01829728 -0.032949533
0.18836892 -0.07992488 -0.20738705 -0.13903782 -0.05448404 0.035006963 -0.055270843 0.13459599
-0.11374885 0.13726072 0.14919904 0.28953198 -0.011772901 -0.009265803 -0.086811006 -0.050752148

feature_layers.1.bias f4 [128]
00000000: 285c 233d 7bb7 c43c a2a4 eb3c 1f71 5bbc
00000010: a77f 13be 21a9 9ebd aecf a9bc 9be6 e3bd
00000020: 188a 2d3e 7d28 54be d104 293d 8756 363e
00000030: 908d ae3c d41a a43d 3bbf 503e 03f6 4ebd
00000040: b156 d13d e341 d0bd 505f 5b3e c023 bd3d
00000050: f261 143d 848a 5d3c 1196 fc3d 5d8e c8bd
00000060: c913 ae3d e657 9fbd 8e93 f93c 9015 2d3d
00000070: 3c6e d5bd aec8 48bb df73 86bd d5ae c33d
00000080: 608a 753d 7cd9 753c 3f4d 093d 6e3b 18bc
00000090: 3a5c b73d 29fe 343e 23b3 143e a390 babd
000000a0: 18b1 b93d 6b25 e33d 0939 c7bd c9d0 0b3e
000000b0: 6eab 253e aa11 39bd 4484 823d 4c3d 393e
000000c0: 9fed 2a3e 4949 b83d cd20 5bbd 62f7 a7bc
000000d0: d61a b93d 804c dabd 18a3 44bd a6a9 7cbd
000000e0: 93d0 a03c 6868 983c c068 2a3d 4395 c0bd
000000f0: 6070 f93d ca55 4f3d eb74 03be 23d3 8e3d
00000100: 01d6 623e 26f4 9f3d e9ea 373e 3eeb a6bd
00000110: b36d c13d 1743 f43d 5e35 e13d 7ed2 7dbc
00000120: 3998 8fbd 4b06 3f3e 62e2 51bd f64e ebbc
00000130: b1ae f73d f950 c0bc 0613 81bb 809b 29be
00000140: ab5f 8cbc 0bd6 db3d 2e24 dcbd b61b c8bb
00000150: 329f d43d 70d5 49be 3bbd c5bd 6099 ecbd
00000160: 28d5 03be f8d5 1b3e a2bd 883d 3ab0 a93b
00000170: ca86 ee3d 6592 d43d cc98 273c 6864 16bd
00000180: 4c16 50be 511d 2b3e e1ff 8abd 0448 14be
00000190: 8c94 aebc 6fe2 e7bd 0166 92bd df91 f03a
000001a0: b156 3ebe 91a6 8fbd 649a f3bd 134c 18bd
000001b0: 62c0 98bd f5da bd3c 532e 86bc e5fd e9bd
000001c0: 160b 5a3e a5c3 963d 7e17 aa3d ed7b 843d
000001d0: 1621 ab3d d5d5 2d3e 1e00 3cbe d46d 873c
000001e0: a40a c5bd 4c19 173e 11e3 2abe e293 1fbd
000001f0: d940 133e b373 0c3b e7c8 ca3c 5aad e73c
0.03988281 0.024013272 0.028765026 -0.013393669 -0.14404164 -0.077471025 -0.020728912 -0.11127969
0.1694721 -0.2071857 0.04126436 0.17806445 0.021307737 0.080129296 0.20385449 -0.050527584
0.10221613 -0.10168817 0.21423078 0.092353344 0.03622622 0.013521794 0.123333104 -0.09792779
0.084998675 -0.07780437 0.030465867 0.04225689 -0.10421416 -0.0030637193 -0.065650694 0.09554831
0.059946418 0.015005466 0.033520933 -0.009291513 0.08953138 0.1767508 0.1452146 -0.091096185
0.09066981 0.11091121 -0.097276755 0.13653864 0.16178676 -0.04518286 0.06372884 0.18089789
0.16692208 0.08998353 -0.05349808 -0.020503704 0.09038322 -0.106591225 -0.0480071 -0.061685227
0.019630706 0.018604472 0.041603804 -0.094034694 0.12179637 0.050618924 -0.1283757 0.06973865
0.22151949 0.078102395 0.17960705 -0.08150338 0.094447516 0.11926859 0.10996507 -0.01549208
-0.07011456 0.18654744 -0.051241286 -0.028724175 0.120938666 -0.02347611 -0.0039390353 -0.16563225
-0.017135462 0.10734185 -0.10749088 -0.006106819 0.103819266 -0.19710326 -0.096552335 -0.115526915
-0.12874281 0.15218341 0.066767946 0.0051784785 0.11646803 0.10379485 0.010229301 -0.03671685
-0.20321006 0.16710402 -0.06787086 -0.14480597 -0.021311067 -0.11322486 -0.07148362 0.001835402
-0.18587758 -0.07014192 -0.11894682 -0.037181925 -0.07458569 0.023175696 -0.016379511 -0.1142538
0.21293291 0.07361535 0.08305262 0.064689495 0.0835592 0.16976102 -0.1835942 0.016531862
-0.0962117 0.14755744 -0.16688181 -0.03895939 0.14380206 0.0021431267 0.024754 0.028280903

value_stream.0.weight f4 [64, 128]
00000000: 7c70 a13d bd41 14bd c394 c43d e877 513e
00000010: d4cc 533b 01b0 17bc 9b7a 203d b8c4 06be
00000020: 61bc d63a 54f5 393e 6be4 d0bb cddd 7b3d
00000030: 6bfe 94bb 262c 1e3e e701 0cbd 9cb0 0fbc
00000040: 765c 89bd 0d35 00be 0313 5ebe 0844 cebd
00000050: cccf ca3d ac59 603d 95c5 60bc 4b12 413c
00000060: a8eb 6e3d d5f6 e83e a710 54bc c0d7 0ebd
00000070: 67cb a53b 82c2 acbd fba8 52bd c061 65be
00000080: 336f 373d ce4a bb3d 8228 c6bd f0d1 0e3d
00000090: d08f 4bbe f29c 66bd debb f9bd 7fa3 353e
000000a0: 086f 5b3e 4bb0 093e 646f 12be 2b24 893d
000000b0: a8c1 a23c 83dc b53d c4be 4cbd 62cf 3dbd
000000c0: 193d 20be 7cef 67bd b22f 6e3e 7fc1 463e
000000d0: 10b1 8ebd 93ba f23d b358 d03e b804 fdbd
000000e0: 11c5 8e3c 90ea 323d 4b69 893e a5b0 173d
000000f0: ab36 58be 80ec d03d 1274 a13d 8cff 7ebe
00000100: ba82 f6bd a5bd 11bc 561c 7fbd 5565 47bd
00000110: 0e6e 97bc 5a1e 1dbe 3d20 393c 3717 5fbe
00000120: b1ea bd3b 1d87 fbbd 773c 66be 64cb a6bd
00000130: 486a 483d 1200 4f3e 77de 00be acea fa3d
00000140: c8e5 2bbd 31b6 97be a055 fbbd ac98 863e
00000150: a5ca 573d 6772 8fbb 195b 8c3d 2431 1abe
00000160: b0dd 3d3e 5731 16be a992 4c3d 1110 053e
00000170: c5fb 5dbe ce51 9ebd 07c4 a2be 9d2e 393c
00000180: 044e e7bd b5ac 883d d73b 913e db09 ba3e
00000190: bc3a d73d b040 c03e bba3 cc3c 5c9f 35bd
000001a0: ccfe cc3e 63dc 873e da27 0f3e 3d04 173e
000001b0: 234d 14be 7478 513e 63d5 54bd 27f1 afbd
000001c0: 47a6 4d3e 5bc9 d8bd d711 a2be 4a31 5d3e
000001d0: 24ca ab3d 1187 2d3e 4378 2c3e f81f a03e
000001e0: 505c 573e 2d80 e13d f020 243e a226 f5bd
000001f0: e838 40bc f953 afbd 72b2 a6be b330 d7bd
00000200: 4ca2 a4bd df7e 7ebe fdfa 1e3e 9ca5 5dbc
00000210: d9ed 3dbe 19d8 2c3e 392b 0fbe 163b 643e
00000220: 15b2 313d 2aa0 b23d 0be0 e93d 75c9 be3b
00000230: b93b 34be 38f7 94be 9de1 39be 392b 86bd
00000240: d2e1 21be a0ff 6ebc 9b04 e5bc 094b 77bd
00000250: b78b 993d b22c bb3a dfe3 4fbe 72bf 583d
00000260: 5d5e 4ebe d5f1 ee3c 12a4 85be 7cd9 54be
00000270: 1d5a b73e 80ec a83c 1f6e 643e d342 0bbe
00000280: 5f0c d8bd 0947 0b3e 58ba 18bb 4576 413e
00000290: 747f 4ebe cff7 fbbd 70db 16be 52fa 543e
000002a0: 133e 0fbd 0c6c ffbd 985a 653e e199 27be
000002b0: 3f91 84be ca4c 993d 7827 31bd 02e4 3fbe
000002c0: a61d a6bd 5c24 99bc e26b 823d d3e2 023e
000002d0: 5a38 35bd f63d 203d 802c fabb d60a 9a3e
000002e0: b52e f13d e44f 9bbd 480e 58be 83cb d73d
000002f0: 1d26 673e 3206 803d 0bd1 c33d a05e 00be
00000300: 3614 1abd 4590 babd 2529 f73d 4d7c 55bd
00000310: 5e4a d63b 0e97 1fbe de56 933c 2d73 8f3e
00000320: 941c 543e d76e 9ebc 4e5c 0b3d aee5 453e
00000330: 9266 cebd b2da 63bd 57b9 0a3e aa7b cc3d
00000340: 691c 8ebd 7be5 dcbe 98ed 7c3e 4842 13be
00000350: 86fc c8be 6a61 20be 1a48 54be ec62 7d3e
00000360: c6fc f83d 8650 a6be c427 5cbc afc5 873d
00000370: 44c1 89be 315b cfbc 806c 0bbd 6a1b a1be
00000380: 4ad1 ac3e 8069 a4bd 90c3 823e 96a6 c73d
00000390: c609 4fbd 18b8 9d3d 002b d0bc 65f8 2f3e
000003a0: 6f3d 8d3c b90c 3a3e 125f fb3d 0f95 533e
000003b0: 61b4 19bb 64e8 33bc 6e4a eebc 505d 0e3d
000003c0: e858 f63c 67c6 083d 682d 7e3d ff2c 6bbd
000003d0: eb5c 8fbe af95 dfbd 8f5b 083d 9f89 da3d
000003e0: 163c 0ebe ab31 87bd 5e2a 8a3d 3a23 103e
000003f0: 4b8b 933b 5bd6 b33d 8ea8 93be 4b3e dd3c
0.07882783 -0.036195505 0.095986865 0.20455897 0.0032318132 -0.009258271 0.039179426 -0.1316098
0.0016383046 0.18159992 -0.006374886 0.061490823 -0.0045469305 0.15446529 -0.0341815 -0.008770134
-0.06707089 -0.12520237 -0.2168694 -0.1007157 0.09902915 0.054773018 -0.013718982 0.011784147
0.058330208 0.45500818 -0.012943423 -0.034873724 0.005059648 -0.08435537 -0.051430684 -0.2240057
0.044783782 0.09145127 -0.09675695 0.03486818 -0.19879079 -0.05630202 -0.12194036 0.1773815
0.21429074 0.13446157 -0.14300305 0.066963516 0.019867733 0.0887995 -0.049986616 -0.046340354
-0.15648307 -0.056624874 0.23260382 0.1940975 -0.06967366 0.118519925 0.40692672 -0.12354416
0.017427953 0.043680727 0.26838145 0.037033696 -0.21114604 0.10201359 0.07883467 -0.24902171
-0.12036653 -0.008895312 -0.062282883 -0.048680622 -0.018485095 -0.1534361 0.01129919 -0.217862
0.0057957997 -0.1228163 -0.22484003 -0.081442624 0.048929483 0.2021487 -0.12584864 0.12251791
-0.041967183 -0.2963119 -0.12272191 0.26288354 0.05268349 -0.0043776515 0.06853313 -0.15057808
0.18541598 -0.14667259 0.049944554 0.1299441 -0.21678074 -0.07730447 -0.31790182 0.011302617
-0.11294177 0.06673566 0.28365967 0.36335644 0.105092496 0.37549353 0.024980417 -0.04434143
0.40038145 0.2653533 0.13980046 0.1474771 -0.1448255 0.20456105 -0.051961314 -0.08590918
0.20082961 -0.105852805 -0.31654236 0.21600834 0.08388165 0.16946055 0.16842751 0.3127439
0.21031308 0.11010776 0.1602819 -0.11970259 -0.0117323175 -0.085609384 -0.32558018 -0.105073355
-0.08038768 -0.24853085 0.15525432 -0.013528254 -0.18547763 0.1687931 -0.13981332 0.22288164
0.043382723 0.08721955 0.11419686 0.0058223554 -0.17600907 -0.29094863 -0.18152471 -0.06551213
-0.158088 -0.014587313 -0.027956298 -0.060374293 0.074973516 0.0014280288 -0.2030177 0.05291695
-0.20153184 0.029168049 -0.26101738 -0.20786089 0.35810938 0.020620584 0.22307633 -0.1359971
-0.105492346 0.13601317 -0.002330443 0.18892772 -0.20165807 -0.12303125 -0.14732146 0.20798615
-0.034971308 -0.1247178 0.2239784 -0.16367294 -0.25892064 0.074853495 -0.04325053 -0.18739322
-0.08111124 -0.018694095 0.06368233 0.12781839 -0.044243194 0.03912159 -0.0076346993 0.30086392
0.11776487 -0.07583597 -0.21099198 0.10536864 0.22573133 0.06251182 0.09561356 -0.12536097
-0.03761693 -0.091095485 0.120683946 -0.052120496 0.006539627 -0.15584967 0.017985757 0.2801756
0.20714027 -0.019339962 0.034023575 0.19325897 -0.100781575 -0.055628486 0.13547264 0.099845245
-0.069390126 -0.4314383 0.2470001 -0.14380753 -0.3925516 -0.1566216 -0.2073063 0.24744767
0.12157588 -0.3248331 -0.013437215 0.06629502 -0.26905262 -0.025312038 -0.03403902 -0.31466228
0.33753425 -0.08027935 0.25539827 0.097485706 -0.05054643 0.07701129 -0.025411129 0.17184599
0.017241208 0.18168916 0.122739926 0.2066233 -0.0023453461 -0.010980699 -0.029088225 0.03475696
0.03007169 0.033392336 0.06205502 -0.05741596 -0.28000578 -0.10917222 0.033290442 0.106707804
-0.13890108 -0.0660127 0.06746362 0.14075938 0.004502689 0.087811194 -0.28839535 0.027007243

value_stream.0.bias f4 [64]
00000000: abde 3ebe 2e5a 13be 9172 08bd 080f dcbd
00000010: d02c 453e 294a cbbd 7604 34be d83c 9cbc
00000020: 0867 ee3d ce1d 0abe 1265 133d 13c8 263e
00000030: 2c6e 353e 6f68 e8bd bdc8 5b3e 3028 0d3e
00000040: c1a8 9c3d c4da 59be da4d 2ebe 0363 653e
00000050: 7524 3a3e 0f52 01be 37a5 033e 4c3c 3c3e
00000060: bed7 edbd f51f 52be 231c bd3d 96b2 163e
00000070: 76e5 83bd c670 bbbd 74cd d0bd ab3c 2ebd
00000080: 9783 753e 969c 47bd 127a 873e f6b0 73be
00000090: 1fe7 7abd 2082 9dbd 939c 37be 057e ebbd
000000a0: eb4a 63be 0a5c 78bd 745b 2c3e ad2e 1c3e
000000b0: edaa 1c3e 2db9 7ebc 0660 163e 40eb 653e
000000c0: 49a8 b0bc 51e7 0bbd 32cd c5bd 9419 013e
000000d0: 23be ec3d 1a2e f5bd 129a d8bc 3ff2 1fbe
000000e0: 26a9 63be 8229 a33d 0463 ea3d 4179 083e
000000f0: afa0 5e3e 58df 263e 738b 03be caef b8ba
-0.18639629 -0.1438987 -0.033312384 -0.107450545 0.19255376 -0.09926254 -0.17579827 -0.019071981
0.116407454 -0.13487932 0.03598506 0.1628726 0.17717808 -0.11348044 0.21463294 0.13784862
0.07649375 -0.21274859 -0.17021886 0.22401051 0.1817797 -0.12628959 0.12855993 0.18382376
-0.11613415 -0.20520003 0.09233882 0.14716563 -0.064402506 -0.09152369 -0.10195437 -0.042538326
0.23975979 -0.048733316 0.2646032 -0.23797974 -0.06125557 -0.07690835 -0.17930822 -0.11498646
-0.22196548 -0.06063465 0.16831762 0.1525218 0.15299578 -0.015547079 0.14685068 0.22453022
-0.02156462 -0.034156147 -0.096582785 0.12607414 0.11559703 -0.11971684 -0.026440654 -0.15619753
-0.22232494 0.07966901 0.11444667 0.13327505 0.21740983 0.16296136 -0.12846164 -0.0014109549

value_stream.2.weight f4 [1, 64]
00000000: ae5d fdbd b370 b9be f9af a03a 8aaf 2ebe
00000010: b412 ec3d 59e6 2fbe 7236 6ebd 0934 76be
00000020: 731f 973d f620 48bd 541f 8ebb 48ff 1f3e
00000030: 8f00 be3e d785 29bd f349 123f 67b5 b83e
00000040: bbdc 4b3e 5ac6 dfbd 748a b5bd b121 0b3f
00000050: a13d 043e 1b19 6ebe d387 543e 9d5b 333e
00000060: 757f 82be d7fc a3bd efe5 0d3e f3f0 bc3e
00000070: 194f 0fbe 841f 27be da18 9bbd 7314 e3bd
00000080: 1092 3b3e e6fb 7bbe c803 d93d 861a 20be
00000090: b236 69be f8c6 1bbd 3adc bdbe b7ef 73be
000000a0: d7cf c3be 85a2 fbbd 1877 da3e dae3 a93e
000000b0: ede9 da3e 661a 13be 865b 1a3e 89b0 6d3e
000000c0: 1bcd c3bd 4339 3fbd a8bb 8fbe 3727 7a3e
000000d0: 4ac7 2b3e 0757 71be 884d 11be 6fa0 b1ba
000000e0: 62d3 2fbe 9d64 c23d 71f1 e73d 3af0 583e
000000f0: 32cb d23e 9c90 ca3e cdc5 2ebe 9227 eebd
-0.123713836 -0.36218795 0.0012259475 -0.1705915 0.11527005 -0.17177714 -0.05815739 -0.24043287
0.07379045 -0.04885956 -0.0043372307 0.15624726 0.371098 -0.041387405 0.5714409 0.360759
0.1990842 -0.109265044 -0.088642985 0.54348284 0.12914135 -0.23251764 0.20754938 0.17515416
-0.25487867 -0.0800721 0.13857244 0.3690258 -0.13995017 -0.16320616 -0.075730994 -0.11087885
0.18317437 -0.2460781 0.10596424 -0.15635118 -0.22774771 -0.03803155 -0.37082082 -0.23821913
-0.38244507 -0.122868575 0.42668986 0.3318165 0.42756596 -0.14365539 0.15073976 0.23211874
-0.09560605 -0.04668547 -0.28072858 0.24429022 0.16775241 -0.23568355 -0.14189732 -0.0013551841
-0.1717048 0.09491847 0.11325348 0.21185389 0.4117065 0.39563453 -0.17067643 -0.11628641

advantage_stream.0.weight f4 [64, 128]
00000000: 5788 413d e22a 76bd b5b4 ce3d 4eea babe
00000010: 90ba 94be 5ff8 40bd f5b3 4c3e a0d1 4ebe
00000020: ce47 6c3d 0b23 f2bd a496 1d3e 7008 9d3d
00000030: 9d8c aabe 0103 a0bd 560e 463e ffd1 f4ba
00000040: f93f c53c 78bb 7abd 9237 0b3e 4b9f b43d
00000050: 1bd6 a5bd d5ea f53d 7d90 e73d 99f1 a03e
00000060: ce32 873d 8ce2 9b3d 6a61 6c3c a838 003e
00000070: 87bb 3d3d a19d 94be 51dd 0e3f d095 e5bd
00000080: bcf9 7ebe fa73 dfbe e43c abbe 2428 98bd
00000090: e7de 38be 8f66 59be 205c b93d 0b84 37be
000000a0: 9a5e 2c3d 8d1f fdbd 78e7 89bd f22c fd3d
000000b0: 7267 4d3e 7d73 9e3c bfe4 2fbe f567 69bd
000000c0: 0b2b e53d a038 acbe 94eb 573d abca 5c3e
000000d0: 3f8f b7bd b71d a13d 72df 82bd 005b 95bb
000000e0: 49bb aabd 0f84 253e d441 093d c058 45be
000000f0: 576c 18bd a4bc 9dbd 7b33 9a3e 2adb f7bd
00000100: c0e0 f4bd a003 f33c 1b83 7abd 1b5c 823d
00000110: af76 183e b1dc 403e 3171 a93d 17bb 1ebe
00000120: ccb8 68be d139 86bc 7954 b63c 3c66 573e
00000130: fe52 07be d6da 7a3e bbe7 5bbe 5b93 6bbd
00000140: dd5d 0bbc 9532 48be 8415 fc3d 5fab dbbd
00000150: 33ab c1bc 1524 48be 883b ddbd 3ade cdbd
00000160: 9146 853d dc24 8cbe 922b c63c 8a8a 23bf
00000170: 0d7c 5c3d f376 36be 1a61 c4be 5781 883b
00000180: fa2c ad3d 7b39 06be 0e7d 5c3d 643c ed3d
00000190: 52fc 303e 3014 d3bd 64f0 163e 0b38 c2bd
000001a0: bb91 e73d bdb8 333d 9d6e c5bd 0a7f 55be
000001b0: 3d82 d3bc 772c 1b3e 0a5e dabe 5107 ae3e
000001c0: 5133 9fbc ef0b 51be 1ee1 a93e c23e 55be
000001d0: e31f ff3d 1775 f0bd df92 353e 675e 31bc
000001e0: 51d8 773e 1ff7 283e dd3b e03e 4538 8cbe
000001f0: dff8 dcbb bb92 01be 05be 9fbe 06cd b23d
00000200: c402 5ebe 27a5 28be 4b27 a3bd dfcd 84be
00000210: 0069 1f3e 79bd 943d 25ec 14bc e499 d2bd
00000220: 81ac 6bbd f6c3 ba3b cae5 703e 1565 673c
00000230: 427f e0bc 3262 acbd a33b 4ebe b799 533e
00000240: f59c efbc f855 ea3e 795d 32bd fe0d 423d
00000250: cedf 77bd da4b 0cbe 053e 7c3d b34e aa3e
00000260: f85e aabc 8fa8 38be f006 b73b 43f6 b53e
00000270: 8abd d3bd e53d 103d cc7c cb3d 037b 2e3e
00000280: b758 45be f73c 873c ad3e 3fbe e23b 9fbd
00000290: 87b2 9fbd 8fb3 1a3e cad9 793e 556a febd
000002a0: 802e 82bc c06f 61bd b9fd f4bd 2619 923d
000002b0: 19fb 5dbd 8b95 753e 7305 a9bd 758f c13d
000002c0: 0a2e 1abe 8cfe 0cbe bf15 1e3f e613 c1bc
000002d0: cfe9 3fbc 2888 e13e 2a4c 473e d4d9 593e
000002e0: fca3 b53e 419d b8bd e354 003e 1233 f6bd
000002f0: 20e3 2f3d affd 5c3c 95a5 f73d 169e 49be
00000300: dcc8 76bd 0a05 60bd 35fd 11bd 117b 0ebb
00000310: d8f3 febd 129d f63d dabc 4ebd 41f2 e9bd
00000320: cf1c 413d adaa 003d af1e 1e3f 492a 0f3e
00000330: 4a0e f53b b814 ed3e 9024 973c bd11 8dbe
00000340: e097 63bc a328 113e bdfc 743e d5f3 bdbe
00000350: 8759 65be 450b 59be c7fd 003c 83fa 17bf
00000360: f725 243d 8de7 57be 9c15 763d 2c7e 6dbe
00000370: cd8c 823c 91e1 fabd f986 42be 641d 2b3d
00000380: 4b6c 203e 5eeb e93c 46f9 873e 0f6f 65be
00000390: 7e08 323e 6c69 12be ef94 b03d 7b2c 9cbe
000003a0: 8182 4e3c e224 96be 5777 08be 0e35 763e
000003b0: 01e1 06bc e27f 4cbd 1026 d9bd 2ad3 783f
000003c0: 8f71 d6bb 3c50 b2bd 9621 23bd 95c9 403b
000003d0: 1862 8c39 bb3b 243d cb6f e43d 3a96 5f3e
000003e0: 7db5 04be 0e2c 083e ce90 afbe 1497 713d
000003f0: 48d4 60bb d6a7 cbbd cf04 5abe 51dd 433e
0.047249164 -0.06009949 0.10093061 -0.36506885 -0.29048586 -0.047111865 0.19990523 -0.20197153
0.057685666 -0.1182309 0.15389496 0.07667625 -0.33310404 -0.07813073 0.19341406 -0.0018678306
0.024078356 -0.06121394 0.13595417 0.08819445 -0.08097478 0.12007681 0.11306856 0.31434324
0.06601487 0.0761157 0.014427522 0.12521613 0.046321418 -0.2902651 0.5580645 -0.11210215
-0.24899954 -0.4364317 -0.33444893 -0.07429531 -0.1805378 -0.21230529 0.090507746 -0.17921464
0.042082407 -0.123595335 -0.06733602 0.12362088 0.20058993 0.019342178 -0.17177103 -0.056983907
0.111898504 -0.3363695 0.0527149 0.21561687 -0.08962869 0.07866996 -0.06390275 -0.004557967
-0.08336503 0.16163658 0.033510044 -0.19272137 -0.037212696 -0.07701996 0.301174 -0.12102349
-0.1195693 0.029664814 -0.06116019 0.06365224 0.14889024 0.18834187 0.08273543 -0.15501057
-0.22726744 -0.01638499 0.022257077 0.21035093 -0.13215253 0.24497542 -0.21475117 -0.057513576
-0.0085062655 -0.19550546 0.12308791 -0.10726046 -0.023641204 -0.19545014 -0.1080237 -0.10052152
0.065076 -0.2737187 0.024190698 -0.6388327 0.05382924 -0.17818813 -0.38355333 0.004165809
0.08455844 -0.13107865 0.0538302 0.11583784 0.17283753 -0.10306585 0.14740139 -0.094833456
0.11307093 0.043877352 -0.096402384 -0.20849243 -0.025818938 0.1515368 -0.4264987 0.33989957
-0.01943365 -0.20414709 0.33179563 -0.20824721 0.12457254 -0.11741083 0.17731808 -0.01082573
0.24203612 0.16500519 0.43795672 -0.2738668 -0.006743535 -0.1265363 -0.3119966 0.08730511
-0.21680743 -0.1646925 -0.07966479 -0.25938317 0.15567398 0.072627015 -0.009089504 -0.102832586
-0.05753756 0.00569963 0.23525158 0.014123221 -0.027404431 -0.08417167 -0.20139937 0.20664106
-0.029249648 0.45768714 -0.043546174 0.047376625 -0.06051617 -0.1370081 0.061582584 0.33263168
-0.020797238 -0.1803305 0.005585544 0.35539445 -0.10338886 0.035215277 0.099359125 0.17039113
-0.19272123 0.016508562 -0.18676253 -0.077750936 -0.07797723 0.15107559 0.24399486 -0.12422625
-0.015891314 -0.055038214 -0.11962456 0.07133703 -0.054194544 0.23982827 -0.082529925 0.094511904
-0.15056625 -0.13768977 0.6175193 -0.023569059 -0.011713459 0.4404919 0.19462648 0.21274501
0.35476673 -0.09014369 0.12532382 -0.1202146 0.042941213 0.013488217 0.12092129 -0.19689211
-0.06025015 -0.054692306 -0.035641868 -0.0021740834 -0.12448853 0.120416775 -0.05047307 -0.114231594
0.047146615 0.03141277 0.6176557 0.13980974 0.00747851 0.4630487 0.018450052 -0.27552596
-0.01389119 0.14175658 0.23924537 -0.37100092 -0.22397433 -0.21195705 0.007873005 -0.59366626
0.04007527 -0.21084423 0.060079202 -0.23192662 0.01593628 -0.12250055 -0.189968 0.041776076
0.1566631 0.028554615 0.26557368 -0.22405647 0.17386052 -0.14298028 0.08622157 -0.30502686
0.012604357 -0.29325014 -0.13326775 0.24043676 -0.008232356 -0.049926646 -0.10602963 0.9719721
-0.006544299 -0.0870671 -0.039826952 0.0029417027 0.00026775966 0.040096026 0.11154135 0.2183465
-0.12959857 0.13298056 -0.34290165 0.05898197 -0.0034306217 -0.099441215 -0.21290897 0.19127394

advantage_stream.0.bias f4 [64]
00000000: 3712 ab3c 9f97 1f3b bd91 1abd eb93 86bc
00000010: bbaa 26bd 56e2 d5bd 4b37 12bd 6261 ddbc
00000020: e0a1 2ebd 03d9 3e3d 32d7 19bd bae2 c83d
00000030: 8e92 bfbc 269a a8bd 3cd9 ed3d 4af7 a2bc
00000040: a129 e73d 5b81 d5bc 0734 3fbd 04fd 42bd
00000050: 871a 1abc 77e7 d03d ea58 fb3c bcf5 b7bc
00000060: d9bc 813d a54d e43c 54eb 49bd 7f94 46bd
00000070: 80f1 0bbc fb3f ccbd 5e7e c23c 1422 1f3d
00000080: 76e3 3c3d 05e9 a2bd 391f 7dbd 94ab 803d
00000090: b5a8 2f3d 7650 2ebc 3e45 073d fd4a 163c
000000a0: cbd8 e03a e8f5 7fbd b780 a53c 4bd5 9b3b
000000b0: f0f9 03be 5cdc cabd f2de 763d 2246 43bd
000000c0: 3d5a 133e 1ded b03d 71db 79bc 924d ed3b
000000d0: 45c1 04be 3988 e73c 1a7d 983d 0b03 3cbd
000000e0: 548f 383d c894 10be d279 f03d f0fd b5bd
000000f0: 5479 46bd b40e 8ebd daa9 9f3b c9d5 873d
0.020882709 0.0024351848 -0.037736643 -0.016427955 -0.040690165 -0.10443561 -0.035697263 -0.027023975
-0.042634845 0.046593677 -0.037558742 0.0980887 -0.023385312 -0.082325265 0.116137 -0.019893307
0.11287237 -0.026062658 -0.046680477 -0.047604576 -0.009405739 0.102003984 0.030682046 -0.022456042
0.06334848 0.027869055 -0.049296692 -0.04848146 -0.008541465 -0.09973141 0.023741897 0.03885086
0.04611536 -0.07954601 -0.061797354 0.06282726 0.0428855 -0.010639301 0.03302502 0.009173152
0.0017154453 -0.062490374 0.020202978 0.004755651 -0.12888312 -0.099053115 0.06027121 -0.047674306
0.14389892 0.08638976 -0.015250073 0.007241913 -0.12964351 0.028263198 0.07445736 -0.04590134
0.045058563 -0.14119256 0.117419854 -0.08886325 -0.04845555 -0.06936398 0.004872543 0.06632573

advantage_stream.2.weight f4 [4, 64]
00000000: fce6 3a3e 1131 003e fde7 2f3f 800f e8bd
00000010: c92a 7e3e 97a6 663e 9602 91bd 9530 93bf
00000020: f674 9b3e c5fb 693e 60c3 a5be 5923 81bf
00000030: 873a c63d 02ec 35be eae1 c13e 9cee 963d
00000040: a89d be3e fce1 96bc 3dad d03c e290 85be
00000050: 74d6 493e 3c29 e6bd 4868 26be d85f 773e
00000060: bcc8 e9bc 3ab9 22bf 412f c93e 2e05 743d
00000070: 8021 aa3e 69fd 9c3e 1469 aabe ca4d c23e
00000080: 3a31 d83e e351 563e 4ec7 95bd 9238 313c
00000090: a101 503e efcc 553e 42b9 f9be 3974 fb3d
000000a0: e139 073d 723e 263e f557 69bf 43e2 d73e
000000b0: 5956 bd3e 6f4d e53e 4751 223f a6e8 16bd
000000c0: d245 8dbd 7b1b 0c3d e814 5abf 3524 8a3e
000000d0: 46a1 c63e 66a6 1cbe 97b4 073f cc17 5abd
000000e0: 7e48 da3e 6760 93be 43c6 1ebe 78e9 ffbd
000000f0: d0b5 dc3d ecc8 2cbd dd8b 9c3e e4bf 533e
00000100: 60d8 063e 3ae6 5a3d a942 0a3e 18d8 8ebe
00000110: e208 4fbf b5ad d8bd d3f5 7e3d 2b49 5a3e
00000120: 7a6c 7ebd 3855 8b3e 0774 58bf d6db 683e
00000130: 3c6b 69be 9ee9 49be 7d2e 8f3e d24e 383d
00000140: 384b 043d f07f 20bf 71fe dd3d 4d33 2d3e
00000150: 09bb 05bf 9e8e be3e 9b77 36bf 88fa 8cbf
00000160: 7dd4 30bf 6a7d 993d 59e2 453e ec22 7bbe
00000170: f504 893c c155 5abe 0c8f 1abf 5910 d83e
00000180: c1ac d53e a692 873e d6d2 a9bc fd38 9dbc
00000190: 5870 10bd dba7 793e bbb2 a63e 246c a23d
000001a0: 22a2 56bf 1c00 73be 6a05 773d ef01 4c3e
000001b0: a637 95be 7cac 7f3d 887a bd3e 4989 10be
000001c0: daf3 063f f356 b63e a373 4c3c 3e10 00bf
000001d0: 9d42 08bf 81a3 c33c e2ba 99bd 4e3b 123e
000001e0: e385 5d3e 6e5f 1cbe 0f2a 453f 3db5 19bd
000001f0: 9ccc 5e3e ab3a 403c b224 483e d175 a23e
00000200: 3ab1 803d c25a 01bf 5fd0 38bf 93ed f7bd
00000210: ef01 5ebd 0b33 22be f8cd 94bc 95f8 293f
00000220: 8df5 3abe 02c1 26be 04dd 243f 6527 ba3e
00000230: becb 34be 5f44 efbd b23b babe 217c b83e
00000240: 976d 973e f21c 00bd 97a7 6bbf cf61 9dbe
00000250: 2339 123f 552b 7e3b 45b5 f13e e2b6 aa3e
00000260: 9530 1b3e a668 a73e fda4 5cbe afb8 f83e
00000270: c3dd a43e b868 7fbe 2ff2 e33e 67ed ab3e
00000280: e959 1ebf 6e58 62bc a103 29be 348b 0e3f
00000290: 1869 76bd 263c 14bf dc15 9b3e e029 9f3d
000002a0: 143b 903e 91be 0c3e 45c0 da3e 9507 953d
000002b0: ee28 ba3d 2c1f 21be 2048 05be b702 07be
000002c0: c153 0abe e0ed b6be a040 b93d 22da a43e
000002d0: 7098 843e 427a 1fbf f9e4 85bd af6f 71be
000002e0: e87d 4bbf e6ff 273d a4e8 25bd caed 043e
000002f0: bc70 bc3b 7755 e23e 6c67 51be 4a7d 91be
00000300: 46d0 323d 68d0 243e e1b8 683e 309e babe
00000310: 29bf b5bd aae5 b03e 8917 8ebe 6007 ee3e
00000320: d952 313e d5cc a03e 5aa0 943e ab96 fb3d
00000330: a1fd 5b3e 36c5 403d adf2 0ebe c092 1bbf
00000340: eedb 42bf 4ad6 353e a90d a33e dd93 cf3e
00000350: ee26 ca3c a015 02bf 371d af3e 6731 023f
00000360: ca90 673e 8ae2 4b3e 9503 d8be 9003 4cbf
00000370: 3544 46be 9d7d 843d 3278 1d3e 68df a1bf
00000380: 2613 b3bc 1693 0c3e b2da f53c 029a 0cbd
00000390: 97ed 53bf 9c88 c8be ff23 0c3e e4d2 0ebc
000003a0: d1b4 133f ebb8 d13d afaf 1c3f 40aa 32bf
000003b0: 718c 1e3e f831 dabe 8249 26bb 251f 12be
000003c0: 68eb b2be a740 c2be 5426 883e f567 803e
000003d0: 600c e6bc a7b5 043f 7efb e6bd 0a74 883d
000003e0: 4ec2 123f e029 243e e1aa 93be 8fcf b23e
000003f0: 9d8c 203d 6691 153e 34a0 a3be b1e4 cbbe
0.18252176 0.12518717 0.6871336 -0.113310814 0.24821009 0.22524486 -0.07080571 -1.1499201
0.30362672 0.22849949 -0.32375622 -1.0088912 0.09679132 -0.17765811 0.3786767 0.0736973
0.37229657 -0.018418305 0.025473231 -0.260871 0.19710714 -0.112383336 -0.16250718 0.24157655
-0.0285381 -0.63563883 0.39293864 0.059575252 0.33228683 0.30662087 -0.33283293 0.37949973
0.42225057 0.20929675 -0.07313405 0.01081671 0.20313121 0.20878957 -0.48774153 0.12278027
0.033014182 0.16234758 -0.91149837 0.42164811 0.3697994 0.4478564 0.6340527 -0.036842965
-0.06898083 0.034205895 -0.8518815 0.2698075 0.38794917 -0.15297851 0.53009933 -0.05324535
0.42633432 -0.28784487 -0.15505318 -0.124957025 0.107768655 -0.0421838 0.30575457 0.20678669
0.13168478 0.053442217 0.13501991 -0.2789924 -0.8087293 -0.10580007 0.062246155 0.21316974
-0.06211517 0.27213454 -0.84552044 0.22740111 -0.22794813 -0.19718024 0.27965155 0.044997044
0.032298297 -0.6269522 0.108395465 0.16914101 -0.5223852 0.37218183 -0.71276253 -1.1013956
-0.6907423 0.07494624 0.19324626 -0.2452504 0.016725997 -0.21321775 -0.6037452 0.42199972
0.41733363 0.2647907 -0.020730417 -0.019192213 -0.03526339 0.24380438 0.32558236 0.079307824
-0.83841145 -0.2373051 0.060307898 0.19922613 -0.2914402 0.062420353 0.37007546 -0.1411487
0.5271584 0.35613212 0.012478742 -0.50024784 -0.53226644 0.023881676 -0.07506348 0.14280435
0.21633105 -0.15270779 0.770173 -0.037526358 0.2175774 0.0117327375 0.19545248 0.31730512
0.06283803 -0.5052911 -0.7219295 -0.121058606 -0.054201063 -0.15839784 -0.01816462 0.6639493
-0.18257733 -0.16284564 0.64399743 0.3635818 -0.17655846 -0.116829626 -0.3637367 0.36032203
0.29575798 -0.031277604 -0.92052597 -0.30738685 0.57118434 0.0038783152 0.4720861 0.33342654
0.15155251 0.32697028 -0.21547313 0.48578402 0.3220044 -0.24942291 0.4452071 0.3357956
-0.6185594 -0.013815029 -0.1650529 0.5568116 -0.06015882 -0.5790428 0.30290115 0.07771659
0.28170073 0.1374457 0.42724815 0.07276837 0.09089838 -0.15734547 -0.13015795 -0.1318463
-0.13508512 -0.3572836 0.09045529 0.32197672 0.2589755 -0.62295926 -0.06537814 -0.2357776
-0.7948899 0.04101553 -0.040505067 0.12981334 0.0057507437 0.4420583 -0.20449609 -0.284159
0.043655656 0.16095126 0.22726776 -0.36448812 -0.088743515 0.3455022 -0.2775233 0.46490002
0.1731676 0.31406274 0.2902859 0.12284597 0.2148347 0.047063075 -0.13959761 -0.607708
-0.76116836 0.17757526 0.3184636 0.40542498 0.024676766 -0.5081425 0.34201977 0.5085663
0.22613826 0.19910637 -0.42190233 -0.79692936 -0.19361956 0.06469271 0.15377882 -1.2646303
-0.021859717 0.13727984 0.030011509 -0.03432656 -0.8278441 -0.39166725 0.13685606 -0.008717272
0.5769778 0.102403484 0.6120557 -0.6979103 0.15483262 -0.42616248 -0.0025373404 -0.14269693
-0.34945226 -0.3793995 0.26591742 0.25079313 -0.028082073 0.5183968 -0.11278437 0.06662758
0.57327735 0.16031599 -0.28841308 0.3492398 0.0391966 0.14606246 -0.31958163 -0.39822915

advantage_stream.2.bias f4 [4]
00000000: a367 e53c 25c6 21bd 2969 12be 2a20 c7bd
0.02800352 -0.039495606 -0.14297928 -0.09722932

feature_layers.0.weight f4 [128, 24]
00000000: 7891 d9be 59ee 053f c57d f5be c367 313e
00000010: a850 ce3e d8cb 21bf 397c d7bd d64c b2be
00000020: 84f8 3cbd af25 09be 9732 46bd 632f 83be
00000030: 9616 003e 9625 083e f593 cdbe 0548 133f
00000040: 2be2 2bbf 054a 7a3f 6cec ed3e 5e42 a6be
00000050: a1d3 153f 7b80 e2bd 903c bc3e 5996 3a3d
00000060: 0c5d d2bc e30a e23d 2b4f 7cbd ccc7 cfbe
00000070: 8ad6 4dbe 0731 f7be 7d76 8d3e 654c 75bd
00000080: 54de 43be 75ae 8c3d 4f29 0e3e 85c5 143f
00000090: 5bf2 07bd adeb ad3e 368f 89bc a915 35bd
000000a0: c380 7c3e e57d 623f 8aaf ba3d 6f03 25bd
000000b0: 34b8 2a3d c8ee cf3b c184 e33e 3ffb c8bd
000000c0: 2a90 74be 63cb c3be 5031 db3d 1f18 3abe
000000d0: 005d debd 3198 a4be 8a7b 703e b3db 903e
000000e0: fb56 43be b842 d7be fe68 25be 9436 05bf
000000f0: 12d5 253e 4dbd 34be 6a65 c13e 4fe5 7c3d
00000100: 62ac efbe e167 e8bd d7e4 b1be 5821 9bbe
00000110: 9688 0ebe 2b0e 6c3d 79e9 d73e 758c 063c
00000120: c1cd 0a3e c3ca a23e 67b0 5d3f 319c 053f
00000130: e976 123e 3202 a53e 51db 9a3d c0a6 863e
00000140: d7a2 9e3e 2fbf 923e 651f 393e 6c9d 563f
00000150: bcf7 0c3e b611 a6bd 8acb 1abf 0df2 a73e
00000160: 29fd 0fbc 7f67 aa3d f132 c53d 95da d7be
00000170: 5dfc df3e 658d 3abe c65b 0e3f a5ed 5fbe
00000180: 62b4 333d 211b 603f d52e 43be 74a5 a1be
00000190: 18a8 8b3e 8eb5 d83d bb91 c7be bdb9 8bbd
000001a0: 1bff ddbd 4105 df3e 5471 b23e 4b2b 163e
000001b0: 1ebe 19bf 2296 0cbf 67d3 8dbe 5579 19be
000001c0: 7869 1cbf e405 ca3e 4d1e 0f3f 6f5f 933e
000001d0: 6c15 d13e b22c 573e 6c38 8bbd adc5 0ebe
000001e0: df2d e73d ac18 0b3e 8290 62be 4e2b 213e
000001f0: efd7 49be 32f3 973e 0e13 65bd dae9 8cbd
00000200: f125 bc3e e79a e53d ada5 17be b7ef 84bd
00000210: 1e22 18bf b193 9d3c 016d bebe 802e 473f
00000220: d68a 9cbe 98e6 a03e 6e3a 61be 8c9f a4bd
00000230: d281 f33e 31a5 45be 968c 7b3e 1299 70be
00000240: f3e0 4cbe 6fd0 f73d 43f7 9fbe 4c53 90be
00000250: a0ca 293e 9744 d93e 42ba efbe 1937 553d
00000260: 1cd2 b23e d02a 003e a642 ee3c 31c3 453d
00000270: 69fe 2c3e 444f e7bd 521f 99be 7346 49bc
00000280: ac1a 8bbe bd5f 3dbe 1ca4 d1be c753 b63e
00000290: 9307 c53d 2003 023f d708 ebbe 9238 af3e
000002a0: a397 923b aa27 55bc 63fc 81bc 5205 67bd
000002b0: e98c 95be 751d 69be 28ea ad3e 77fd 7f3e
000002c0: ad3b ff3e bdf1 94bd a94b 4d3d 8442 863e
000002d0: c090 92be 1ead ccbe 79c1 bfbe 8750 6d3e
000002e0: 2e24 db3e 12a3 7b3e 2556 04bc 6928 acbd
000002f0: f355 5f3e 51d1 e9bb 096d 963e b301 083f
00000300: 37b5 18bc 1b17 1ebe 27a2 49be 1350 a43e
00000310: d07f e1bd cc45 703d df81 0bbe 5c6f 13bd
00000320: 2c23 e8bd ca04 563e c3fc 663e ba6d f53e
00000330: e4d0 b4be 43bb 333d 85d3 12be 0326 65bc
00000340: 3a56 0d3e 453e 9d3e 6a6c 28be c59a c1be
00000350: 6e52 f3be a1bd e73e e99d 13be 9e8b 493e
00000360: 4503 be3e 9789 92be 5244 c4bd c0c7 a23e
00000370: 6fea 473e da1c 99be de58 403e c6a0 27be
00000380: be6c c2be b152 a2be 3ed3 df3e a35f 33be
00000390: d0f7 6fbd 3781 1bbd 13b7 7cbe 9694 a1be
000003a0: b1aa 3ebd c5c4 f2be a71e 903d c410 f73c
000003b0: 1a21 28be 09c8 ef3e 83e6 b4be 9918 ea3d
000003c0: 6dbb 803e d1ce 3d3e 7616 5b3e 2e48 81be
000003d0: f4e1 2fbe b8f2 9b3c 8196 a4bd afd7 71be
000003e0: 40c7 123e eca0 9f3e 7a0a a5bd cde5 f53e
000003f0: 12db 35bf 65bd 6fbe 0084 73be 446b bebe
-0.42493796 0.52316815 -0.47947517 0.17324738 0.4029591 -0.63201666 -0.105217405 -0.34824246
-0.04613544 -0.13393281 -0.04838809 -0.2562209 0.12508616 0.13295588 -0.40151945 0.5753177
-0.6714198 0.97769195 0.46469438 -0.3247251 0.58526045 -0.11059662 0.36764956 0.04555354
-0.025679134 0.11037233 -0.061598938 -0.4058212 -0.20101371 -0.48279592 0.27629462 -0.05988731
-0.1912778 0.068692125 0.13882945 0.5811389 -0.033190113 0.3396887 -0.016791921 -0.04421011
0.24658494 0.8847335 0.09115513 -0.040286478 0.041679576 0.0063456036 0.4443722 -0.098135464
-0.23883119 -0.3824111 0.10702765 -0.18173264 -0.10857582 -0.32147363 0.23484626 0.28292617
-0.19076149 -0.4204309 -0.16153333 -0.52036405 0.16194561 -0.17650338 0.37772685 0.061742123
-0.46811205 -0.11347938 -0.34744903 -0.30298877 -0.13919291 0.0576307 0.42170313 0.0082121985
0.13555051 0.3179532 0.86597294 0.52191454 0.14303173 0.32228237 0.075613625 0.26299095
0.30983612 0.28661487 0.18078382 0.83833957 0.13766378 -0.08108847 -0.60466826 0.32801858
-0.008788385 0.083205216 0.09628857 -0.42158952 0.43747225 -0.18218 0.55608785 -0.21867998
0.0438732 0.87541395 -0.19060834 -0.31571543 0.27276683 0.10581504 -0.3897837 -0.06822536
-0.10839673 0.43558696 0.34852087 0.14664952 -0.6005572 -0.54916584 -0.2770035 -0.14987691
-0.6109843 0.3945762 0.5590561 0.28783748 0.40836656 0.21013144 -0.06797871 -0.13942595
0.11288046 0.1358363 -0.22125438 0.15739176 -0.19711278 0.2967773 -0.055926375 -0.06880541
0.36747697 0.11211186 -0.14809294 -0.064910345 -0.5942706 0.019235464 -0.37192538 0.7780533
-0.30574673 0.3142593 -0.21994945 -0.08038244 0.47559983 -0.19301297 0.24565348 -0.23495892
-0.20007686 0.121003024 -0.31243333 -0.2818855 0.16581202 0.42435142 -0.4682179 0.0520545
0.34925926 0.12516332 0.029084515 0.048281852 0.16893925 -0.112944156 -0.29906708 -0.012284863
-0.27168787 -0.18493553 -0.40945518 0.35610792 0.09620585 0.5078602 -0.45905182 0.34222847
0.004473643 -0.013009945 -0.015867418 -0.05640156 -0.29209068 -0.22765143 0.3396771 0.24999033
0.49850217 -0.072726704 0.050120983 0.26222622 -0.2862606 -0.39975828 -0.37452295 0.2317525
0.4280104 0.24573925 -0.008077179 -0.08406145 0.21810131 -0.007135548 0.29380062 0.5312759
-0.009320549 -0.15438502 -0.19690762 0.32092342 -0.110107064 0.058660313 -0.1362376 -0.035994872
-0.113348335 0.20900264 0.22557358 0.47935277 -0.3531562 0.04387976 -0.14338501 -0.0139861135
0.13802424 0.3071157 -0.16447607 -0.37813392 -0.47523826 0.45261863 -0.14415707 0.19682166
0.3711187 -0.28620598 -0.095833436 0.31793022 0.19523023 -0.29904824 0.187839 -0.16369924
-0.3797359 -0.31703714 0.43715852 -0.17516951 -0.05858594 -0.037965026 -0.24679212 -0.31558675
-0.046549503 -0.47415748 0.070370965 0.030159362 -0.16418877 0.46832302 -0.35332116 0.11430473
0.25142995 0.18535925 0.21395287 -0.2525038 -0.17176038 0.019036636 -0.08036519 -0.23617433
0.1433382 0.3117746 -0.08058639 0.48026887 -0.710374 -0.23412092 -0.23780823 -0.37191212
