models/snake_dqn_ep200_score0_20250303_093911.pt (torch, 684770 bytes, 44 tensors)

feature_layers.0.weight f4 [128, 24]
0	0xbe78be7a	-0.24291411
1	0x3e375bbf	0.17906092
2	0xbe58248d	-0.21107693
3	0x3e059f2d	0.13049002
4	0x3f063214	0.52420163
5	0xbf3b888d	-0.73255235
6	0xbe498f62	-0.19683602
7	0xbe922c62	-0.28549486
8	0xbddca1c3	-0.10773041
9	0xbdf1384c	-0.11778316
10	0xbd9a5357	-0.07535427
11	0xbe808e1b	-0.25108418
12	0x3ec63d1d	0.387185
13	0xbd679235	-0.05653592
14	0xbea642b6	-0.3247277
15	0x3efca03d	0.49341002
16	0xbe49bf1e	-0.19701812
17	0x3f417603	0.75570697
18	0x3eff23d5	0.49832025
19	0xbeddad09	-0.43296078
20	0x3f10c6e4	0.56553483
21	0xbdea6a1c	-0.1144602
22	0x3ef39962	0.4757796
23	0x3e6e2c5d	0.23259111
24	0xbdc640a3	-0.09680297
25	0x3d97ffdc	0.07421848
26	0xbdd5ac9b	-0.104333125
27	0xbe8d9381	-0.276516
28	0xbeb59f4b	-0.35473093
29	0xbeca2bc1	-0.39486507
30	0x3e9e4faa	0.30920154
31	0xbe0a78cd	-0.13522644
32	0xbe93d0bf	-0.28870198
33	0x3d8de65e	0.06928705
34	0xbd26b67b	-0.04070137
35	0x3f1ea0ff	0.6196441
36	0x3e0f63ea	0.14002958
37	0x3e6a29b9	0.22867478
38	0x3d5071d0	0.05088979
39	0xbc1ebd1c	-0.009688642
40	0x3e4ae43d	0.19813628
41	0x3f378534	0.71687627
42	0x3d994338	0.07483524
43	0x3bc46c2e	0.0059943413
44	0xbc456083	-0.012046936
45	0x3d5980bd	0.05310129
46	0x3f1d4dd3	0.61446875
47	0xbda5a658	-0.08088368
48	0xbd778973	-0.060433816
49	0xbeb453b4	-0.3522011
50	0x3cffb8fd	0.031216139
51	0xbe4597aa	-0.19296136
52	0xbdc43155	-0.09579722
53	0xbea6fb25	-0.32613483
54	0x3e469e9b	0.1939644
55	0x3e92738b	0.28603777
56	0xbe505d94	-0.20348197
57	0xbebb532f	-0.36586902
58	0xbdaff0c5	-0.08590845
59	0xbf071a1a	-0.527742
60	0x3ca75700	0.020427227
61	0xbea01ee0	-0.31273556
62	0x3ec168b9	0.3777521
63	0x3df52337	0.11969607
64	0xbef320a7	-0.4748585
65	0xbdb04b7b	-0.08608147
66	0xbeafb493	-0.34317455
67	0xbe41492a	-0.18875566
68	0xbe1bbfa9	-0.15209831
69	0x3dc45fe8	0.09588605
70	0x3f016b82	0.5055467
71	0x3d87663f	0.06611299
72	0x3df0ac0b	0.117515646
73	0x3eace0db	0.337653
74	0x3f5246c4	0.8213923
75	0x3eead243	0.45863542
76	0x3e160ee4	0.14654118
77	0x3eaa6017	0.33276436
78	0x3dc619f0	0.09672916
79	0x3e7c92a3	0.24665312
80	0x3e5b01fd	0.21387477
81	0x3e8a02fc	0.26955402
82	0x3db61579	0.08890814
83	0x3f52d2b1	0.8235274
84	0x3eaadc58	0.33371234
85	0x3e015348	0.12629426
86	0xbf1cf5ad	-0.6131237
87	0x3ea6f71d	0.32610407
88	0x3b811c5b	0.003940148
89	0x3dd65589	0.10465533
90	0x3de4dfda	0.11175509
91	0xbede74d3	-0.43448505
92	0x3edf5050	0.4361596
93	0xbe3c93a0	-0.1841569
94	0x3f17c21b	0.59280556
95	0xbe3e8fec	-0.1860959
96	0xbd360eb5	-0.04444762
97	0x3f50c8f0	0.81556606
98	0xbe224d6c	-0.15849847
99	0xbe8fb00a	-0.28063995
100	0x3e86b920	0.26313114
101	0x3e2bc709	0.16775145
102	0xbeef352d	-0.46720257
103	0xbd2d6340	-0.04233098
104	0xbe885726	-0.2662899
105	0x3ee6d48f	0.45084044
106	0x3e56b467	0.20967256
107	0x3e31943c	0.17341703
108	0xbed42c75	-0.41440168
109	0xbee9c77c	-0.45660007
110	0xbec71818	-0.3888557
111	0xbdce41d2	-0.10071148
112	0xbf0dcd39	-0.5539127
113	0x3ea90257	0.33009598
114	0x3f12e1f1	0.5737601
115	0x3eb07ccd	0.34470215
116	0x3ef0c933	0.47028503
117	0x3e409358	0.18806207
118	0xbd2fa050	-0.042877495
119	0xbe12cfc6	-0.14337072
120	0xbc46533d	-0.0121048065
121	0x3d3fb71b	0.046805482
122	0xbe2595e6	-0.16170463
123	0x3e10f4a8	0.14155829
124	0xbe1be3f7	-0.1522368
125	0x3e644245	0.22290905
126	0xbd7aa9f4	-0.061197236
127	0xbd1a3594	-0.037648752
128	0x3e5fbb6b	0.21848838
129	0x3da709bd	0.08156154
130	0xbe77a052	-0.24182251
131	0xbe1570f4	-0.1459387
132	0xbed0faf8	-0.40816474
133	0xbde02262	-0.10944058
134	0xbe9e6a30	-0.3094039
135	0x3f335e23	0.70065516
136	0xbec8c969	-0.39216164
137	0x3e449cec	0.19200486
138	0xbe3f71c4	-0.18695742
139	0x3e1fb753	0.15597276
140	0x3ee1fa2f	0.44136187
141	0xbe51dff2	-0.20495585
142	0x3eb267b6	0.3484475
143	0xbdd9606e	-0.10614096
144	0xbe5a6ca0	-0.213305
145	0xbd26d399	-0.04072914
146	0xbe8d4b47	-0.27596495
147	0xbe7af6dc	-0.24508232
148	0x3e2499a3	0.16074233
149	0x3ed61b58	0.41817737
150	0xbf00bd36	-0.5028871
151	0x3d80fb2b	0.062979065
152	0x3e4ed920	0.20200014
153	0x3e1b6143	0.15173821
154	0xbdac974a	-0.084272936
155	0x3d50fccb	0.051022332
156	0x3ea86fc8	0.32897782
157	0x3a1da949	0.00060143
158	0xbe910574	-0.28324473
159	0x3856c14d	5.12016e-05
160	0xbe833ec6	-0.2563383
161	0xbdedeb74	-0.11617175
162	0xbebd1b6a	-0.36934978
163	0x3e883f61	0.26610854
164	0x3d9674f9	0.073465295
165	0x3f0e457e	0.55574787
166	0xbf062703	-0.5240328
167	0x3ec9be37	0.39402935
168	0xbd1994c9	-0.03749541
169	0xbd60a650	-0.054846108
170	0xbd6dc703	-0.05805112
171	0xbd302724	-0.043006077
172	0xbe973019	-0.29528883
173	0xbe3fb179	-0.18720044
174	0x3eb286b4	0.34868395
175	0x3e7e9ac5	0.24863727
176	0x3edc1476	0.4298436
177	0xbdd810f7	-0.10550111
178	0xbd5142c8	-0.05108908
179	0x3e82f270	0.2557559
180	0xbd7de528	-0.06198612
181	0xbe549b01	-0.20762254
182	0xbeccf9d3	-0.4003435
183	0x3e715cd3	0.23570566
184	0x3ed13b9c	0.4086579
185	0x3e6782d2	0.22608498
186	0x3da2ea07	0.079547934
187	0xbe0f7a49	-0.14011492
188	0x3e5faaca	0.21842495
189	0xbc540db5	-0.012942721
190	0x3eaeb31d	0.34121028
191	0x3f1bb39c	0.6082094
192	0xbd514312	-0.051089354
193	0xbe22b518	-0.15889394
194	0xbe719a34	-0.2359398
195	0x3e83df4a	0.25756294
196	0xbd33cc8e	-0.04389625
197	0x3ce8ef37	0.028434379
198	0xbdc3fcbf	-0.09569692
199	0xbdb79d12	-0.08965506
200	0xbe57b214	-0.21064025
201	0x3e28a669	0.1646973
202	0x3dcfdfdf	0.10150122
203	0x3eea8f2f	0.45812365
204	0xbe3001a0	-0.1718812
205	0x3e4cd70d	0.2000391
206	0xbe36f72f	-0.1786773
207	0x3d66e307	0.056368854
208	0x3dc9816b	0.09839138
209	0x3e8300be	0.25586504
210	0xbe20d8e1	-0.15707733
211	0xbed0f246	-0.4080984
212	0xbf135628	-0.5755334
213	0x3ee8dc5f	0.4548063
214	0xbde994a0	-0.11405301
215	0x3e3becda	0.1835207
216	0x3ec3b34c	0.3822273
217	0xbe7823c6	-0.24232396
218	0xbcfd88ac	-0.03094896
219	0x3e54b6dc	0.2077288
220	0x3e8e4074	0.2778355
221	0xbe59efce	-0.21282884
222	0x3dcb87dd	0.09938023
223	0xbe0f9eb1	-0.1402538
224	0xbef89f93	-0.48559245
225	0xbe84450c	-0.2583393
226	0x3eecaf04	0.46227276
227	0xbe5b4e12	-0.214165
228	0xbdb5ab41	-0.08870555
229	0x3e5a04fa	0.21290961
230	0xbea8e496	-0.32986897
231	0xbe5a5f46	-0.21325406
232	0xbde17c38	-0.11010021
233	0xbf08d9fc	-0.5345762
234	0x3d2e0803	0.04248811
235	0xbd317f15	-0.043334085
236	0xbe3c63c0	-0.18397427
237	0x3ee41b09	0.44551876
238	0xbea93ea6	-0.3305561
239	0x3c8334c0	0.016016364
240	0x3e775499	0.24153365
241	0x3e32dfaa	0.17468134
242	0x3e0e1526	0.13875255
243	0xbe850798	-0.25982356
244	0xbe34ff9f	-0.17675637
245	0x3ccb1c8d	0.024793888
246	0xbd80ece9	-0.06295187
247	0xbe7d65f9	-0.2474593
248	0x3bb55a76	0.0055344654
249	0x3eaa8fc8	0.3331282
250	0xbe75ed60	-0.24016333
251	0x3f03d885	0.5150226
252	0xbedfe68d	-0.43730584
253	0xbd57142d	-0.052509475
254	0xbe9501ab	-0.29102835
255	0xbe314854	-0.17312747

feature_layers.0.bias f4 [128]
0	0xbe48124d	-0.19538231
1	0xbe39c0d5	-0.18139966
2	0x3caf090f	0.021366624
3	0x3e3fa9d3	0.18717127
4	0x3e134ac2	0.14383987
5	0xbde20fbf	-0.110381596
6	0x3e2af975	0.16696723
7	0x3e5a4deb	0.21318786
8	0x3e750884	0.2392903
9	0x3e79271f	0.2433133
10	0x3e1daeb0	0.15398669
11	0xbd9bf472	-0.076149836
12	0x3e8d9f95	0.27660814
13	0x3d86fe43	0.06591465
14	0xbcc96e82	-0.024588827
15	0x3d91e9be	0.07124661
16	0x3d6184bc	0.055058226
17	0x3d53b165	0.05168285
18	0xbdbd46a8	-0.09241992
19	0xbe4ef3f7	-0.20210253
20	0x3daa58f7	0.0831775
21	0xbdde7204	-0.108615905
22	0x3e8b39ae	0.27192444
23	0xbe300a7c	-0.171915
24	0xbe2eebd4	-0.17082149
25	0xbc5ef96a	-0.01360927
26	0xbd8164ec	-0.063180774
27	0x3de84b6b	0.1134251
28	0x3dfdce0c	0.12392816
29	0x3e9d73f2	0.30752522
30	0xbdc2d907	-0.09514051
31	0xbe8d8f07	-0.27648184
32	0x3d4833cc	0.048877522
33	0xbd38a94d	-0.045083333
34	0x3d54f743	0.05199362
35	0x3dfed988	0.124438345
36	0xbd72f5f3	-0.059316587
37	0xbc5462c8	-0.012963004
38	0xbe719a96	-0.23594126
39	0x3e62aacd	0.22135468
40	0x3d801a06	0.062549636
41	0xbd8bfc61	-0.06835247
42	0xbe636729	-0.22207321
43	0x3ea0e013	0.31420955
44	0xbe3fe405	-0.18739326
45	0x3d3ba1bc	0.04580854
46	0xbe8ca01d	-0.27465907
47	0xbdb50f40	-0.08840799
48	0xbe3b1ba1	-0.18272258
49	0xbe30e5df	-0.17275189
50	0x3cf695cc	0.030100726
51	0xbda58610	-0.08082211
52	0xbc40204c	-0.01172645
53	0x3d616ac6	0.055033468
54	0x3d811e9d	0.06304667
55	0xbcb6fb94	-0.022336759
56	0xbe198689	-0.14992727
57	0xbe559144	-0.20856196
58	0xbd0f8cef	-0.035046514
59	0x3e68e289	0.22742666
60	0xbdf53225	-0.11972455
61	0xbd61a359	-0.05508742
62	0xbe2c46bc	-0.16823858
63	0x3e38187f	0.17978095
64	0xbd947020	-0.07247949
65	0xbdae9ffb	-0.085266076
66	0xbd4c5a67	-0.049890902
67	0x3e7898ba	0.2427701
68	0x3d759186	0.059953235
69	0x3e4f2458	0.20228708
70	0xbd5d534d	-0.05403452
71	0x3c7640dd	0.015030113
72	0x3e647e94	0.2231391
73	0x3e8755c9	0.26432636
74	0x3e095c57	0.13414131
75	0x3e4900a8	0.19629157
76	0xbe1a740a	-0.15083328
77	0x3e125864	0.14291531
78	0xbe3609c6	-0.17777166
79	0xbe39f4ab	-0.1815974
80	0xbe670c3f	-0.22563265
81	0xbd154426	-0.036441945
82	0x3cec8905	0.02887393
83	0xbe48087b	-0.19534485
84	0x3cc849c5	0.024449239
85	0x3e779ef9	0.24181737
86	0xbd1ea341	-0.03872991
87	0x3dcf59a6	0.10124521
88	0x3d0b9fc8	0.034087926
89	0xbe4dfda1	-0.20116283
90	0xbe014800	-0.12625122
91	0x3e694701	0.22780992
92	0x3d0357b2	0.032066055
93	0x3cbf6e4b	0.023368021
94	0x3d9f015a	0.0776393
95	0x3be06f2a	0.0068491893
96	0x3dc54510	0.09632313
97	0xbe263cf4	-0.1623419
98	0xbd8d2765	-0.068922795
99	0x3d60516c	0.05476515
100	0xbdd0c9af	-0.10194718
101	0x3e61ee38	0.2206353
102	0x3e048916	0.12942919
103	0xbd2f633f	-0.042819258
104	0xbdb91aa8	-0.090382874
105	0xbe22c705	-0.15896232
106	0x3e8af75e	0.2714185
107	0x3d7de0be	0.06198191
108	0xbc091d64	-0.008368824
109	0xbe933efc	-0.2875899
110	0xbd98672e	-0.07441555
111	0xbdc571d8	-0.096408546
112	0xbdd7e585	-0.10541824
113	0xbdb5fa48	-0.08885628
114	0x3cc9ea77	0.024647934
115	0x3e1344ec	0.1438176
116	0xbe6c1eee	-0.23058674
117	0xbe6490a2	-0.22320798
118	0x3e80265d	0.2502927
119	0x3db6c93a	0.089251
120	0xbe729a19	-0.23691596
121	0x3e1c971b	0.15292017
122	0xbe56b4c4	-0.20967394
123	0x3de2d7e7	0.11076336
124	0x3d0c8ea5	0.034315724
125	0xbdff14f7	-0.124551706
126	0xbcc408f5	-0.023930052
127	0xbd1d17bc	-0.038352713

feature_layers.1.weight f4 [128, 128]
0	0xbe034cca	-0.12822261
1	0x3d956b7f	0.07295894
2	0x3dc538c9	0.096299715
3	0xbe33c330	-0.17554927
4	0xbd0f9951	-0.035058323
5	0xbe1d1933	-0.15341644
6	0x3ddfc058	0.109253585
7	0x3d924a54	0.07143083
8	0x3c9ec7fc	0.01938247
9	0x3e0a686f	0.13516401
10	0x3e135431	0.14387585
11	0x3eb10050	0.3457055
12	0x3e303991	0.1720946
13	0x3d5df36e	0.05418723
14	0x3d3f54b2	0.04671163
15	0xbe1d1228	-0.15338957
16	0x3e967557	0.29386398
17	0x3d9631df	0.07333731
18	0x3dea87d0	0.114516854
19	0xbd3571b6	-0.044297896
20	0x3ac39ad5	0.0014923463
21	0xbe8e34cd	-0.2777466
22	0x3d56c3a1	0.05243266
23	0xbe99a334	-0.30007327
24	0xbbb0d1bb	-0.0053960956
25	0xbe056259	-0.13025798
26	0xbd454309	-0.048159633
27	0x3e4cad7d	0.19988056
28	0x3de29c36	0.11064951
29	0xbd2ac841	-0.041694883
30	0xbd536b62	-0.05161608
31	0xbe1bc515	-0.152119
32	0x3be71179	0.0070516434
33	0xbc010fc6	-0.007877296
34	0xbe2852f7	-0.16437899
35	0x3e1e1f10	0.15441537
36	0xbdd64ffb	-0.10464474
37	0xbd355b2d	-0.044276405
38	0xbcb770da	-0.022392679
39	0x3e037920	0.12839174
40	0xbe41cde6	-0.189262
41	0x3de8f881	0.11375523
42	0xbe83fd76	-0.25779313
43	0xbd295c23	-0.041347634
44	0xbdc04e73	-0.09389963
45	0xbe0e484b	-0.13894765
46	0x3e3287fa	0.17434683
47	0x3e6fd862	0.23422387
48	0x3d3832af	0.04497021
49	0xbe8c4864	-0.2739898
50	0xbe5b36ea	-0.21407667
51	0x3c2b6824	0.010461841
52	0x3daba4f3	0.08381071
53	0xbcff69d2	-0.031178389
54	0x3e305c1d	0.17222638
55	0xbcec3234	-0.028832532
56	0x3d223aa0	0.03960669
57	0xbdbec281	-0.093144424
58	0xbe040648	-0.12893021
59	0x3df6d6b1	0.12052668
60	0xbcdcda94	-0.026959695
61	0x3d901399	0.07034988
62	0xbd841aec	-0.064504474
63	0x3cb493ee	0.022043195
64	0xbe02f52a	-0.12788835
65	0xbcdc857a	-0.026919115
66	0x3ce8cf21	0.02841908
67	0x3daba6c8	0.083814204
68	0x3e0655a6	0.1311861
69	0x3d70afde	0.05876147
70	0xbc5e76be	-0.013578115
71	0xbd03fd57	-0.032224026
72	0x3e57aacf	0.21061252
73	0x3b932374	0.0044903103
74	0x3cd4705c	0.025932483
75	0x3e6d203b	0.23156826
76	0xbd1c29c3	-0.038125765
77	0x3deb7b24	0.114980966
78	0x3e9d89aa	0.30769092
79	0x3df3d3b9	0.11905617
80	0xbe2e3996	-0.17014155
81	0xbc8df589	-0.017328994
82	0xbcf99256	-0.030465286
83	0x3d41c22c	0.047304317
84	0xbe0d3fe0	-0.13793898
85	0xbd2dff00	-0.042479515
86	0x3e1e1b1a	0.15440026
87	0xbdd69a53	-0.10478654
88	0x3d3dd827	0.046348717
89	0xbea350e2	-0.31897646
90	0x3e2d1e69	0.16906132
91	0x3d010386	0.0314975
92	0xbe0c42dc	-0.1369738
93	0x3cfefcf2	0.031126473
94	0x3c8f0f74	0.017463423
95	0xbc824d82	-0.0159061
96	0xbd605c2c	-0.054775402
97	0x3e1b657a	0.15175429
98	0xbe5b0024	-0.21386772
99	0x3ddc21ec	0.107486576
100	0xbdb77e8c	-0.08959684
101	0x3e3aea3e	0.18253419
102	0xbd5b93a9	-0.053607617
103	0xbdb6d15b	-0.0892665
104	0x3c9858ee	0.018597092
105	0x3cd3f897	0.025875373
106	0x3e4b7a78	0.19870937
107	0xbd75b6bf	-0.059988733
108	0xbdb66b91	-0.089072354
109	0xbdecdb00	-0.115652084
110	0x3e997a88	0.29976296
111	0xbdc1d142	-0.09463741
112	0x3e25e18b	0.16199319
113	0xbe053240	-0.1300745
114	0x3ddc53a6	0.10758142
115	0x3e07f2f5	0.13276275
116	0xbea62ec3	-0.3245755
117	0x3dc81174	0.09768954
118	0xbb517158	-0.0031958427
119	0x3e22e375	0.1590708
120	0x3d51b261	0.051195506
121	0xbe2775c6	-0.16353521
122	0x3d11ed3a	0.035626628
123	0xbd587a62	-0.05285109
124	0x3dba35cb	0.090922914
125	0xbd9f51c9	-0.07779271
126	0xbd076d88	-0.03306344
127	0xbe151f5f	-0.14562748
128	0xbcc90cf3	-0.024542307
129	0x3de53b76	0.11192982
130	0x3db1f8d6	0.0869004
131	0xbd84101f	-0.06448387
132	0x3e08dc25	0.13365228
133	0xbd20bc2b	-0.03924195
134	0xbbafb3cf	-0.005362011
135	0xbc96f766	-0.018428516
136	0xbdb52989	-0.08845813
137	0x3d8efa4e	0.069813356
138	0x3db72719	0.08943004
139	0xbdf2ba01	-0.11851884
140	0x3e2cd426	0.16877803
141	0xbdc2f9b0	-0.0952028
142	0xbd95d86b	-0.07316669
143	0xbdaf9ea1	-0.08575178
144	0x3de259a8	0.11052257
145	0x3dabb949	0.0838495
146	0xbd047422	-0.032337315
147	0xbd81495c	-0.0631282
148	0xbdfc6c68	-0.12325364
149	0x3db04157	0.086062126
150	0xbdc158ad	-0.09440742
151	0x3bcf2c57	0.0063224244
152	0xbd188bd4	-0.037242725
153	0x3e2c1ad7	0.16807114
154	0xbe5bc8b0	-0.21463275
155	0xbe41f7fc	-0.18942255
156	0x3c45be2d	0.012069267
157	0x3cbb3afd	0.022855276
158	0xbce2b01b	-0.027671864
159	0x3d9a8715	0.07545296
160	0x3d8345fa	0.06409831
161	0x3dcbe09c	0.0995495
162	0xbe166b86	-0.14689454
163	0xbac70919	-0.0015185206
164	0x3e200856	0.1562818
165	0x3e340f83	0.17584042
166	0x3d229d84	0.039701
167	0x3de71023	0.11282375
168	0xbd483b26	-0.048884533
169	0xbd86c59f	-0.06580662
170	0xbe3394d3	-0.1753724
171	0x3b91029c	0.00442536
172	0xbdd82c68	-0.10555345
173	0xbe7fd19b	-0.24982302
174	0x3de8fa51	0.11375869
175	0x3c0e0186	0.008667355
176	0x3db34f03	0.08755305
177	0xbd85f2a3	-0.0654042
178	0x3d528f60	0.051406264
179	0x3d4697d7	0.04848465
180	0xbe2b9b0c	-0.16758364
181	0x3e199d06	0.15001306
182	0x3e67d91d	0.22641416
183	0xbd5b6a1a	-0.053567983
184	0x3dabaf1d	0.083830096
185	0xbd9c2132	-0.07623519
186	0xbe781041	-0.2422495
187	0x3e256821	0.16153003
188	0x3ddb18b1	0.10698069
189	0xbd9847cc	-0.07435569
190	0xbe23eab1	-0.16007496
191	0x3e423816	0.18966708
192	0x3e69dc57	0.22837959
193	0xbdac6d52	-0.08419289
194	0xbde0b8d6	-0.10972755
195	0xbde487fc	-0.111587495
196	0x3cefc8e8	0.029270604
197	0xbc0b1e2a	-0.008491078
198	0xbe3d0b64	-0.18461376
199	0xbcb623a7	-0.022233797
200	0x3dd81925	0.10551671
201	0x3e23b671	0.15987565
202	0xbd4b81fb	-0.049684506
203	0x3e4fd76b	0.20297019
204	0xbd71fda7	-0.059079792
205	0xbba945bf	-0.005165785
206	0xbdd84d6e	-0.105616435
207	0x3cb8d34c	0.022561692
208	0x3e3416f7	0.17586885
209	0xbc55e4be	-0.013055025
210	0xbd8458de	-0.064622626
211	0x3eca61df	0.39527795
212	0xbe1eec20	-0.15519762
213	0xbb8f9237	-0.004381444
214	0xbe00d410	-0.12580895
215	0x3e037e4f	0.12841152
216	0xbe1384ae	-0.14406082
217	0xbe030c3c	-0.12797636
218	0xbe55f212	-0.20893124
219	0x3d877c4e	0.06615506
220	0xbdd8ca7d	-0.105854966
221	0x3dea3770	0.11436355
222	0xbdc343d7	-0.09534424
223	0x3d4ffe8c	0.050779864
224	0x3c4cca53	0.01249941
225	0x3d016266	0.03158798
226	0xbd789b14	-0.06069477
227	0xbd3a9c28	-0.04555908
228	0xbd00c298	-0.03143558
229	0x3e3c0181	0.18359949
230	0xbe4eef9e	-0.20208594
231	0x3dc93784	0.09825042
232	0xbe68b112	-0.22723797
233	0xbdc7e7ff	-0.097610466
234	0x3e3ed41b	0.186356
235	0xbd32443c	-0.043522105
236	0xbce5d7f6	-0.02805708
237	0xbd28c9bb	-0.04120801
238	0xbd214a86	-0.03937771
239	0xbc967366	-0.018365573
240	0x3e85dd86	0.2614557
241	0xbbf5e21c	-0.007503761
242	0xbe64a1e9	-0.22327389
243	0xbe0963cc	-0.13416976
244	0xbe0119fe	-0.12607571
245	0xbd357623	-0.044302117
246	0xbc16a194	-0.009193797
247	0x3dc21bd6	0.094779655
248	0xbdc405b5	-0.09571401
249	0x3e503634	0.20333177
250	0x3e172a71	0.14762284
251	0x3e40a59d	0.18813176
252	0xbc85f111	-0.016350301
253	0x3d0cdacb	0.034388345
254	0xbdd75704	-0.10514644
255	0xbd603170	-0.054734647

feature_layers.1.bias f4 [128]
0	0xbc752ea2	-0.014964731
1	0x3c237a41	0.009977878
2	0x3d4a6112	0.04940898
3	0xbd420798	-0.047370523
4	0xbe05d3f7	-0.1306914
5	0xbcd27c6d	-0.025694096
6	0x3cf4a358	0.029863045
7	0xbdb80f43	-0.08987286
8	0x3dc3ea0b	0.095661245
9	0xbdfbc4f4	-0.12293425
10	0x3b1c0ecd	0.0023812533
11	0x3dc36a44	0.09541753
12	0x3cd18852	0.025577698
13	0x3cab53ba	0.020913947
14	0x3e02e70d	0.12783451
15	0xbdae83e5	-0.08521251
16	0x3d0ae88f	0.03391319
17	0xbe0336f4	-0.12813932
18	0x3e01cf2e	0.12676689
19	0x3d59495c	0.053048477
20	0xbc87e46e	-0.016588416
21	0xbc6a418c	-0.014297854
22	0x3d6b0e40	0.057386637
23	0xbddd0bed	-0.1079329
24	0x3cbd2e29	0.0230933
25	0x3c9ee57d	0.019396538
26	0xbd01e861	-0.031715754
27	0xbc933223	-0.017968243
28	0xbcfa002b	-0.030517658
29	0x3d0989c6	0.033578657
30	0xbd1be320	-0.0380584
31	0x3d2ea4ad	0.042637516
32	0x3d1327dc	0.035926685
33	0x3ca42c93	0.020040786
34	0x3dae92e8	0.08524114
35	0xbc41a47a	-0.011818999
36	0x3d2aff02	0.0417471
37	0x3e02a2ca	0.12757412
38	0x3e00af9e	0.12566993
39	0xbd94088e	-0.07228194
40	0x3d18b4ae	0.037281685
41	0x3d827894	0.06370655
42	0xbccbcd9c	-0.024878316
43	0x3d6f0ca3	0.05836166
44	0x3d9ba8ca	0.07600553
45	0xbda84b25	-0.08217458
46	0x3c909ee6	0.017653894
47	0x3dc87fbd	0.09789989
48	0x3dc38ae9	0.095479794
49	0x3d0559ad	0.032556225
50	0xbb58ec5c	-0.0033099866
51	0xbcdb2117	-0.026749177
52	0x3d8684b8	0.06568283
53	0xbd94b47a	-0.07260986
54	0xbb23a933	-0.0024972677
55	0xbc7d0ead	-0.0154453935
56	0x3d3bca5d	0.045847286
57	0xbbcecb83	-0.0063108816
58	0x3cbcc659	0.023043798
59	0xbdb48953	-0.08815255
60	0x3dbffe89	0.093747206
61	0xbc8f98ac	-0.017528854
62	0xbdba2636	-0.090893194
63	0x3a7d04dc	0.0009651908
64	0x3e170267	0.1474701
65	0x3d0866a5	0.033301014
66	0x3dcfea67	0.101521306
67	0xbdc2e402	-0.09516145
68	0x3daec9ef	0.085346095
69	0x3da9a142	0.082827106
70	0x3d845736	0.06461947
71	0x3c7daf3c	0.015483674
72	0xbd26c1ac	-0.040712044
73	0x3e0034d7	0.12520157
74	0xbd613bef	-0.054988798
75	0xbd2184a5	-0.03943314
76	0x3d4bae0a	0.049726523
77	0x3c2ff62f	0.010739847
78	0xbd85b69d	-0.06528971
79	0xbdb52801	-0.08845521
80	0x3d519c7f	0.051174637
81	0x3d3bf7b2	0.045890518
82	0xbdf84288	-0.12122065
83	0xbce5df51	-0.028060587
84	0x3cba2e3e	0.022727128
85	0xbdd8e70e	-0.10590945
86	0xbde4d6c0	-0.11173773
87	0xbdcf54bd	-0.101235844
88	0xbdfbe0b2	-0.122987166
89	0x3dea5f9e	0.11444019
90	0x3c9b17ce	0.01893225
91	0x3d11c0bb	0.035584193
92	0x3d2ba4b8	0.041905135
93	0x3d34088a	0.043953456
94	0x3c9c36ea	0.019069154
95	0xbd897b9f	-0.06713032
96	0xbe450709	-0.19240965
97	0x3dc5e6bc	0.0966315
98	0xbd081b57	-0.0332292
99	0xbd94d8d8	-0.07267922
100	0xbd4bcd02	-0.049756058
101	0xbd727d30	-0.05920142
102	0xbd9aadcc	-0.075526804
103	0x3d624f90	0.055251658
104	0xbdd24fbf	-0.102691166
105	0xbd72b9e1	-0.0592593
106	0xbd9a69e6	-0.0753973
107	0xbcc3410c	-0.023834728
108	0xbcae212e	-0.021256056
109	0xbcc19987	-0.023632778
110	0xbd1873c7	-0.03721979
111	0xbe036eb4	-0.12835199
112	0x3e14344d	0.14473076
113	0x3ce790be	0.02826726
114	0x3d21dec6	0.039519094
115	0x3d5dbe52	0.05413658
116	0x3c453c4f	0.0120383045
117	0x3dd08059	0.101807304
118	0xbde55a97	-0.11198919
119	0x3c6df736	0.014524272
120	0xbc30f7ab	-0.010801236
121	0x3dd39113	0.10330405
122	0xbdf92c90	-0.12166703
123	0xbca7936d	-0.02045604
124	0x3dca6912	0.09883322
125	0xbce1c100	-0.02755785
126	0xbbcff3ce	-0.0063462025
127	0xbb75d7e2	-0.003751271

value_stream.0.weight f4 [64, 128]
0	0x3dab075c	0.08351013
1	0xbd1b7248	-0.037950784
2	0x3e0cafaa	0.13738886
3	0x3e2b2e3f	0.1671686
4	0x3b535cd4	0.0032251375
5	0xbc31ee1d	-0.010859993
6	0x3d0420bf	0.03225779
7	0xbe298d7a	-0.16557875
8	0xbc40dc64	-0.011771295
9	0x3e369ab8	0.17832458
10	0xbd0f0c55	-0.03492387
11	0x3d2913e2	0.041278727
12	0x3d48ab70	0.04899162
13	0x3df2cc77	0.11855405
14	0xbcb058cd	-0.021526719
15	0xbd1da8b3	-0.038490962
16	0xbd9ba68e	-0.07600127
17	0xbe264a86	-0.16239366
18	0xbe52fc26	-0.20604
19	0xbdc2e4dc	-0.09516308
20	0x3d92f14d	0.07174931
21	0xbc270f90	-0.0101965815
22	0x3bce564c	0.0062969085
23	0x3c0dd3ce	0.008656455
24	0x3d5b06ff	0.05347347
25	0x3ea9ddd5	0.33177057
26	0x3c5f5ef0	0.013633475
27	0xbb8f6c35	-0.004376913
28	0x3cec5ac4	0.028851874
29	0x3d419db3	0.047269534
30	0xbc414aaf	-0.011797591
31	0xbde568d2	-0.112016335
32	0x3d93c69c	0.07215616
33	0x3de6ad62	0.11263539
34	0xbdde36cd	-0.10850296
35	0x3ce8b15b	0.028404882
36	0xbe4ca59a	-0.19985047
37	0xbd4dbd19	-0.050229166
38	0xbe19c28d	-0.15015621
39	0xbd3e0cbc	-0.046398863
40	0x3e459890	0.19296479
41	0x3d7ace56	0.061231934
42	0xbdd801e3	-0.10547235
43	0x3d956768	0.07295114
44	0xbc371f60	-0.011176914
45	0x3e22ad68	0.15886462
46	0xbd24f139	-0.04026911
47	0xbd8a2f66	-0.06747322
48	0xbe356c08	-0.17716992
49	0xbcd799e8	-0.026318505
50	0x3e0deb11	0.13859202
51	0x3e435fea	0.19079557
52	0xbd68e417	-0.05685815
53	0x3e261912	0.16220501
54	0x3eade6b1	0.33965066
55	0xbc91e86c	-0.017811023
56	0x3d634d90	0.05549389
57	0x3d6ab0a2	0.057297356
58	0x3e72df13	0.23717909
59	0xbca697af	-0.020336
60	0xbe21d06d	-0.15802164
61	0x3df6bbd5	0.12047545
62	0x3d8eb5e5	0.069682874
63	0xbe6059d9	-0.21909274
64	0xbe0f0681	-0.13967325
65	0xbd1eed89	-0.03880075
66	0xbd66b1fb	-0.05632208
67	0xbdd312ec	-0.103063434
68	0xbd2cd533	-0.04219551
69	0xbe010fc8	-0.12603676
70	0xbdb0fc79	-0.08641905
71	0xbe36555b	-0.17805998
72	0xba88f6ef	-0.0010449569
73	0xbdea1057	-0.11428898
74	0xbe199273	-0.14997272
75	0xbe204de8	-0.15654719
76	0x3d2bcf8f	0.04194599
77	0x3eb91a0d	0.36152688
78	0xbe5b55b0	-0.21419406
79	0x3e8718b9	0.2638605
80	0xbd07ea08	-0.033182174
81	0xbe81c283	-0.25343713
82	0xbe38e20d	-0.18054982
83	0x3e2b7dfa	0.16747275
84	0x3d62363b	0.0552275
85	0xba28b964	-0.0006436317
86	0x3d1f814b	0.038941663
87	0xbe2d026f	-0.1689546
88	0x3e4c44d4	0.19948131
89	0xbd9a1442	-0.07523395
90	0xbc37d9b7	-0.011221341
91	0x3cb8b81a	0.022548724
92	0xbe7152cd	-0.23566742
93	0xbdc93ac5	-0.098256625
94	0xbeae0578	-0.33988547
95	0x3dc3bdc2	0.09557678
96	0xbdeae402	-0.1146927
97	0x3d1f6370	0.03891319
98	0x3e2f2e8a	0.17107597
99	0x3ebc75e4	0.36808693
100	0x3da5eded	0.08102021
101	0x3e8e2f1f	0.27770326
102	0x3cd4ca5d	0.0259754
103	0xbc85a518	-0.016314074
104	0x3ec93094	0.39294875
105	0x3e90830c	0.2822498
106	0x3d2de35b	0.04245315
107	0x3e36ec9a	0.17863694
108	0xbd94defd	-0.07269094
109	0x3e6fc5cb	0.23415296
110	0xbd99b72d	-0.07505641
111	0x3cc68d95	0.024237433
112	0x3e36f559	0.1786703
113	0xbd70222a	-0.05862633
114	0xbe8347a6	-0.256406
115	0x3e010423	0.12599234
116	0x3d931324	0.07181385
117	0x3e38634b	0.18006627
118	0x3e313fab	0.17309444
119	0x3ea00c1a	0.31259233
120	0x3e55b0d7	0.2086824
121	0x3de70947	0.112810664
122	0x3b1b7c28	0.0023725126
123	0xbe1a987b	-0.15097229
124	0xbc2016a9	-0.009771028
125	0xbd2e9e14	-0.042631224
126	0xbe999681	-0.29997638
127	0xbdf0a716	-0.11750619
128	0xbd19f7f8	-0.037589997
129	0xbe5de57e	-0.21669576
130	0x3e45c7a0	0.19314432
131	0x3c40780e	0.011747373
132	0xbe5c7c35	-0.21531756
133	0x3e299c7c	0.165636
134	0xbe2d4b04	-0.16923147
135	0x3e0471f2	0.12934092
136	0x3dc17797	0.09446638
137	0x3cc9bb79	0.024625527
138	0x3dd3aa1e	0.10335182
139	0x3d4e2c7c	0.050335392
140	0xbe37a5fd	-0.17934413
141	0xbe75d4ec	-0.24007004
142	0xbe030802	-0.12796023
143	0xbe01b548	-0.1266681
144	0xbdf3d129	-0.119051285
145	0x3bac32cd	0.0052550794
146	0x3cccdee6	0.02500863
147	0xbd77ed05	-0.060528774
148	0x3dd44483	0.1036463
149	0xbc8a68ed	-0.016895736
150	0xbe341313	-0.17585401
151	0xb96b9b2e	-0.00022469155
152	0xbe2a7861	-0.16647483
153	0xbcfc7fc6	-0.030822646
154	0xbe61ecca	-0.22062984
155	0xbe299a86	-0.16562852
156	0x3ea567e3	0.32305822
157	0x3ddb7cf0	0.10717189
158	0x3e8a0dae	0.26963562
159	0xbdd3b0b4	-0.10336438
160	0xbdf1bf30	-0.11804044
161	0x3dce3047	0.10067802
162	0x3d019928	0.0316402
163	0x3e0a4f73	0.1350687
164	0xbe3caec1	-0.18426038
165	0xbd923c04	-0.07140353
166	0xbe160682	-0.1465092
167	0x3e4b2794	0.19839317
168	0x3ad98e35	0.0016598167
169	0xbde4dffd	-0.11175535
170	0x3e2d3f04	0.1691857
171	0xbde51761	-0.111861
172	0xbe4cb1ca	-0.19989696
173	0x3dfa6ccf	0.12227785
174	0x3b48b266	0.0030623912
175	0xbe1ca3c6	-0.1529685
176	0xbd6e6086	-0.05819752
177	0xbd3677fd	-0.044548023
178	0xbccdb6e7	-0.025111629
179	0x3db30587	0.08741289
180	0xbcafa47e	-0.02144074
181	0xbc72a3ec	-0.01480959
182	0xbbe489a8	-0.0069744177
183	0x3e8b4239	0.2719896
184	0x3da96f26	0.08273153
185	0xbd69f5f6	-0.057119332
186	0xbe48f617	-0.19625126
187	0x3d79891d	0.060921777
188	0x3e5e3ddf	0.2170329
189	0x3de0dd2a	0.10979684
190	0x3d19b039	0.037521575
191	0xbdbd0223	-0.09228923
192	0x3c500705	0.012696986
193	0xbce1af8e	-0.027549531
194	0x3e4532ec	0.19257706
195	0xbce26688	-0.027636781
196	0x3c3129c7	0.010813183
197	0xbe2027df	-0.1564021
198	0x3d6dc6b5	0.05805083
199	0x3e4d5298	0.20051038
200	0x3e09c679	0.13454618
201	0x3cabf1e0	0.020989358
202	0xbcca8be9	-0.024724917
203	0x3d99abd5	0.075034775
204	0xbd7382bb	-0.059450846
205	0xbc864c3c	-0.016393773
206	0x3debce33	0.11513939
207	0x3d518376	0.05115076
208	0xbdd6a1de	-0.104800925
209	0xbecce168	-0.4001572
210	0x3e813e39	0.25242785
211	0xbe132560	-0.14369726
212	0xbeaf457b	-0.34232697
213	0xbe757f10	-0.23974252
214	0xbe67693e	-0.2259874
215	0x3e234451	0.1594403
216	0x3db76b60	0.08956027
217	0xbe9c3a2d	-0.30513135
218	0x3d19d76b	0.037558954
219	0x3d7035fa	0.058645226
220	0xbe6542cf	-0.22388767
221	0xbc3e0929	-0.011598864
222	0xbdfe57f7	-0.12419122
223	0xbe8d7378	-0.27627158
224	0x3e8ff915	0.28119722
225	0xbd57c955	-0.05268224
226	0x3e493dd8	0.19652498
227	0x3d806b68	0.06270486
228	0xbe048ecb	-0.12945096
229	0x3d257a33	0.04039974
230	0xbd98d7ca	-0.074630335
231	0x3dade924	0.08491734
232	0xbd1ad71e	-0.037802808
233	0x3e33f66a	0.17574468
234	0x3bcd3fbb	0.006263701
235	0x3e4d0bcb	0.2002403
236	0x3d494ab0	0.049143493
237	0xbcbebc95	-0.023283282
238	0xbb2f3ce4	-0.0026739175
239	0xbca874e1	-0.020563545
240	0x3d8b4d01	0.06801797
241	0x3d7fe2f2	0.06247229
242	0x3dc204f8	0.09473604
243	0xbdcb91c6	-0.099399135
244	0xbe72ee4a	-0.23723713
245	0xbd987e0f	-0.07445919
246	0xbc4fae78	-0.012675874
247	0x3db4d9c5	0.08830599
248	0xbe3f070a	-0.18655029
249	0xbd1f9ac7	-0.038965967
250	0xbddf7d28	-0.109125435
251	0x3e089b7a	0.1334056
252	0x3d3874d9	0.04503331
253	0x3def6693	0.11689486
254	0xbe840921	-0.25788215
255	0xbca55ad5	-0.020184914

value_stream.0.bias f4 [64]
0	0xbde73147	-0.11288696
1	0xbd13dc79	-0.03609893
2	0x3ca96e50	0.020682484
3	0xbd42d9cd	-0.047570992
4	0x3dc1ae56	0.0945708
5	0x3c21f54e	0.009885145
6	0xbd688f25	-0.05677714
7	0x3d2b6229	0.04184166
8	0x3c397442	0.011319222
9	0xbd0774af	-0.033070263
10	0x3d16eb07	0.036845233
11	0x3d678d8c	0.056531474
12	0x3d8b6489	0.06806285
13	0xbc86aac8	-0.016438857
14	0x3dd6f9a7	0.10496836
15	0x3ce741b7	0.028229577
16	0xbce5a0f3	-0.028030848
17	0xbdd5c37b	-0.104376756
18	0xbd83e1fa	-0.06439586
19	0x3deaa0a3	0.1145642
20	0x3d98da27	0.07463484
21	0xbd80f638	-0.062969625
22	0x3d09df29	0.033660088
23	0x3d9a06a9	0.075208016
24	0xbd06db35	-0.032923896
25	0xbdbfb3b1	-0.09360445
26	0xbc7def2c	-0.015498918
27	0x3d1bfd24	0.03808321
28	0x3ca2f562	0.019892398
29	0xbd10a08a	-0.035309352
30	0xbca15f7e	-0.019698855
31	0x3c151eb3	0.009101558
32	0x3e0625f6	0.13100418
33	0x3c8d7254	0.01726643
34	0x3e21203a	0.1573495
35	0xbe05bd92	-0.13060597
36	0x3ca26249	0.019822257
37	0x3cfae569	0.03062697
38	0xbdbcd553	-0.09220376
39	0xbbae980a	-0.005328183
40	0xbde73714	-0.11289802
41	0x3c8bdb07	0.017072214
42	0x3d720bc8	0.059093267
43	0x3d31f6ab	0.04344813
44	0x3d359f83	0.044341575
45	0x3d54ce48	0.051954538
46	0x3d1fed47	0.039044645
47	0x3dea5aef	0.114431255
48	0x3d5ffb71	0.054683153
49	0x3d3063e1	0.043064002
50	0xbcee55fd	-0.029093737
51	0x3c8bab41	0.017049434
52	0x3bdf90fc	0.0068227034
53	0xbd9fc351	-0.078009255
54	0x3dad0298	0.0844776
55	0xbdea7607	-0.11448293
56	0xbde95b31	-0.113943465
57	0xbcdca343	-0.026933318
58	0x3be692c3	0.0070365383
59	0x3ccfbd8c	0.025358938
60	0x3ddc889c	0.10768244
61	0x3d709d47	0.05874374
62	0xbc4bd12a	-0.012440005
63	0x3d97d7b4	0.07414189

value_stream.2.weight f4 [1, 64]
0	0xbe3dc8a2	-0.18533567
1	0xbea9b13f	-0.3314304
2	0xbca8a9f9	-0.020588862
3	0xbe2e3885	-0.17013748
4	0x3dc2c4d7	0.095102005
5	0xbe19067b	-0.14943878
6	0xbd1abddd	-0.037778724
7	0xbe748337	-0.2387818
8	0x3d525a12	0.05135543
9	0xbcc5f45c	-0.024164371
10	0x3d8df71b	0.06931897
11	0x3e00cc74	0.12577993
12	0x3ea9cf46	0.3316595
13	0xbd6a0edf	-0.05714309
14	0x3f087ef6	0.53318727
15	0x3ea9863d	0.33110228
16	0x3e25e48a	0.16200462
17	0xbda52ca2	-0.08065154
18	0xbda4ef88	-0.080534995
19	0x3f01ea2b	0.50747937
20	0x3dd60ece	0.104520425
21	0xbe8d2c83	-0.27573022
22	0x3e2b4e41	0.1672907
23	0x3e10c985	0.14139374
24	0xbe931e16	-0.2873389
25	0xbd78eee5	-0.060774703
26	0x3de30320	0.110845804
27	0x3eaa8f02	0.3331223
28	0xbe31046f	-0.17286848
29	0xbe47f489	-0.19526877
30	0xbddd811a	-0.1081564
31	0xbdf56730	-0.11982572
32	0x3e15e4e5	0.14638098
33	0xbe36617d	-0.17810626
34	0x3d8ee246	0.06976752
35	0xbdf02170	-0.11725128
36	0xbe82c7fd	-0.25543204
37	0xbc4ea75e	-0.012613146
38	0xbec65cca	-0.38742667
39	0xbe589b64	-0.21153027
40	0xbeb83ada	-0.359824
41	0xbe2e67d1	-0.1703179
42	0x3ecbbe7c	0.39793766
43	0x3e9addfa	0.3024748
44	0x3ec9404b	0.39306864
45	0xbe11f8d7	-0.14255081
46	0x3df4b148	0.11947876
47	0x3e4add5c	0.19811004
48	0xbdf534f1	-0.119729884
49	0xbe1ebdbd	-0.15502067
50	0xbe843560	-0.25821972
51	0x3e571626	0.21004543
52	0x3e09fbe7	0.13475
53	0xbe455b5f	-0.19273137
54	0xbe605102	-0.21905902
55	0xbd2f30ba	-0.04277108
56	0xbe0d1987	-0.13779269
57	0x3d8c35a0	0.06846166
58	0x3db0fccb	0.086419664
59	0x3e32abc9	0.17448343
60	0x3ec102b2	0.3769737
61	0x3eb6ac58	0.35678363
62	0xbe1530d0	-0.14569402
63	0xbe036c4b	-0.12834279

advantage_stream.0.weight f4 [64, 128]
0	0x3d643a42	0.05571962
1	0xbd73ee9a	-0.05955372
2	0xbde44030	-0.11145055
3	0xbe9f1b77	-0.31075642
4	0xbe855f9d	-0.2604951
5	0xbd0181f3	-0.03161807
6	0x3e5f2341	0.21790792
7	0xbdf0fa46	-0.11766486
8	0x3d1f9435	0.0389597
9	0xbe0a8e7e	-0.13530919
10	0x3e13aa91	0.14420535
11	0x3dc85de7	0.097835355
12	0xbe653662	-0.22384027
13	0xbdcc9425	-0.09989194
14	0x3e4086dd	0.18801446
15	0xbd0df52e	-0.03465765
16	0x3c35d405	0.011097913
17	0x3d9f42de	0.07776426
18	0x3e00b576	0.12569222
19	0x3e4a11c0	0.19733334
20	0xbe15ee0e	-0.14641592
21	0x3e1c2440	0.15248203
22	0x3dab3e09	0.08361442
23	0x3eb35ed2	0.3503328
24	0xbdbfae40	-0.093594074
25	0x3d3766d0	0.044775784
26	0x3d733e01	0.059385303
27	0x3e3d9f08	0.18517697
28	0xbca4d354	-0.0201203
29	0xbdeb5a3a	-0.11491819
30	0x3e337dc3	0.17528443
31	0x3b359e46	0.0027712747
32	0xbe07ad42	-0.13249686
33	0xbe809b75	-0.25118604
34	0xbe8f6636	-0.28007668
35	0xbe003931	-0.12521817
36	0xbe0200cb	-0.12695615
37	0xbe222062	-0.15832666
38	0x3de22374	0.110419184
39	0xbd618675	-0.05505987
40	0xbc478e87	-0.012179977
41	0xbe047d6b	-0.12938468
42	0xbdc52963	-0.096270345
43	0x3dcba81a	0.09944172
44	0x3e31216f	0.1729791
45	0xbd986d63	-0.07442739
46	0xbe51a4d5	-0.20473035
47	0xbb7a9ccc	-0.003824043
48	0x3e240353	0.16016893
49	0xbd341b87	-0.043971565
50	0x3db38a71	0.0876664
51	0x3e8290e3	0.25501165
52	0xbe38311f	-0.17987488
53	0x3de95682	0.11393453
54	0xbd73c591	-0.059514586
55	0x3c93cdb7	0.018042428
56	0xbdeead93	-0.116542004
57	0x3dc78648	0.09742409
58	0xbc3d0517	-0.011536858
59	0xbdb8b264	-0.090184
60	0xbdcef49a	-0.10105248
61	0xbdf82432	-0.12116279
62	0x3c86c287	0.01645018
63	0xbd0e8273	-0.034792375
64	0xbdb424be	-0.087960705
65	0x3d9ea72b	0.077467285
66	0xbd9fd12f	-0.078035705
67	0x3dea9c6c	0.11455616
68	0x3d2313cb	0.039813798
69	0x3e60c248	0.21949112
70	0xb968f362	-0.00022215911
71	0xbde71fbf	-0.11285352
72	0xbe8f7aa6	-0.2802326
73	0x3ca74a40	0.020421147
74	0xba2a2221	-0.0006490071
75	0x3e95400c	0.29150426
76	0xbdf403ba	-0.11914773
77	0x3d3c23e9	0.045932684
78	0xbe1a9fad	-0.15099974
79	0x3d989e08	0.07452017
80	0x3bc568ec	0.0060244706
81	0xbe358dfd	-0.17729945
82	0x3e00db56	0.1258367
83	0xbe4068fa	-0.18790045
84	0x3c75585c	0.01497468
85	0xbd8d1762	-0.068892255
86	0x3e390a31	0.18070294
87	0xbd02e6eb	-0.0319585
88	0x3dbcb0ef	0.09213435
89	0xbe0531a5	-0.13007219
90	0x3d04deb9	0.032438967
91	0xbf0e0f8e	-0.55492485
92	0x3d6e59f5	0.05819126
93	0xbc26c3d3	-0.010178524
94	0xbd6666f3	-0.056250524
95	0x3e1b0424	0.15138298
96	0xbcd3123b	-0.025765529
97	0xbd90b514	-0.07065788
98	0x3d97838d	0.07398138
99	0x3d7765d4	0.060399845
100	0x3e7665f3	0.24062328
101	0xbda40f4e	-0.08010732
102	0x3e54d4c8	0.20784295
103	0x3dacb8e1	0.084337
104	0x3dd5ecf1	0.104455836
105	0xbdb3cd5a	-0.08779402
106	0xbd897214	-0.06711212
107	0xbe042de0	-0.12908125
108	0x3d369818	0.04457864
109	0x3e1343e6	0.1438137
110	0xbe59e499	-0.2127861
111	0x3e9a1c5e	0.30099767
112	0x3d4ac8c0	0.049507856
113	0xbd82f317	-0.06394022
114	0x3e643fb7	0.2228993
115	0xbdb86b8c	-0.09004888
116	0x3df6b2ac	0.12045798
117	0xbd955bec	-0.07292923
118	0x3e3eedf8	0.18645465
119	0x3bb0b7a3	0.005392985
120	0x3e5df7c4	0.21676546
121	0x3e2df278	0.16987026
122	0x3e562b69	0.20914997
123	0xbdf4036c	-0.11914715
124	0x3c882c19	0.01662259
125	0x3cc73ff8	0.024322495
126	0xbdeb3c9a	-0.11486168
127	0x3e0a3505	0.13496788
128	0xbdbd608c	-0.092469305
129	0xbe274619	-0.16335334
130	0xbd61e383	-0.055148613
131	0xbe11e345	-0.14246853
132	0x3d8a1388	0.067420065
133	0x3d171ab6	0.036890708
134	0xbd824d79	-0.06362433
135	0x3d210556	0.03931173
136	0xbda837d9	-0.08213777
137	0xbc9203e7	-0.017824126
138	0x3e8ed241	0.27894786
139	0xbc209466	-0.009801006
140	0xbd625d29	-0.055264626
141	0xbe012da4	-0.12615067
142	0xbe4bf2e1	-0.1991687
143	0x3e79f7a5	0.24410875
144	0xbdb77373	-0.08957567
145	0x3e94161c	0.28923118
146	0xbd26b24c	-0.04069738
147	0x3ce2874c	0.027652405
148	0xbdad0033	-0.084473036
149	0xbdc98a37	-0.098408155
150	0x3d75e1aa	0.060029663
151	0x3e99120d	0.29896584
152	0xbd1f5046	-0.038894914
153	0xbe23e4e7	-0.16005288
154	0x3cdab6f3	0.026698565
155	0x3eb0ce18	0.34532237
156	0xbdd729e3	-0.10506036
157	0x3d2ff2b1	0.042956058
158	0x3ca4bd87	0.020109905
159	0x3dcc5a0d	0.09978113
160	0xbd70c1b1	-0.05877847
161	0x3d5b784e	0.05358153
162	0xbe86e45b	-0.26346096
163	0xbd21a99b	-0.03946839
164	0xbd9e49af	-0.07728898
165	0x3dde64e7	0.10859089
166	0x3e3839d2	0.17990807
167	0x3d8bdfef	0.06829821
168	0xbbe4e47b	-0.006985245
169	0x3cb4fb51	0.022092493
170	0xbdf31c2f	-0.1187061
171	0x3d77dbdc	0.06051241
172	0xbd7f8c08	-0.062389404
173	0x3e03990e	0.12851354
174	0xbd7ac625	-0.06122412
175	0x3deae2ac	0.114690155
176	0xbe246e0f	-0.16057609
177	0xbe27c145	-0.1638232
178	0x3eea164a	0.4572013
179	0xbd5e0735	-0.054206092
180	0xbdc4b6af	-0.09605157
181	0x3eab94d9	0.33512
182	0x3e2db963	0.1696525
183	0x3d71200a	0.058868445
184	0x3eb4cba8	0.35311627
185	0xbe19fdee	-0.15038273
186	0x3e08b4ce	0.13350222
187	0xbcb90539	-0.022585498
188	0x3d5aed2c	0.05344884
189	0x3a3a532c	0.00071077305
190	0x3db18179	0.08667273
191	0xbe5b681a	-0.2142643
192	0xbd99e420	-0.075142145
193	0xbd3ec23e	-0.046571963
194	0x3c68ee97	0.0142170405
195	0xbc17bb0c	-0.009260904
196	0xbe2b63f0	-0.16737342
197	0x3da04bc6	0.07826953
198	0xbd41090e	-0.047127776
199	0x3d5fe92d	0.054665733
200	0xbd93ceac	-0.07217154
201	0x3d63b4b6	0.05559226
202	0x3ee33052	0.44372803
203	0x3e0403e6	0.12892112
204	0x3b8557bf	0.004069298
205	0x3e5b8dfb	0.2144088
206	0xbb441357	-0.0029918754
207	0xbd7ec811	-0.062202517
208	0x3c9e5f50	0.019332558
209	0x3e1851f8	0.14875019
210	0x3e0ae863	0.13565211
211	0xbe6d71ef	-0.23187993
212	0xbe58a056	-0.21154913
213	0x3e8d6617	0.2761695
214	0x3bf889e0	0.0075847954
215	0xbefbb892	-0.49164253
216	0x3d12b063	0.035812747
217	0xbe260214	-0.1621173
218	0x3c7ed7bc	0.015554365
219	0xbe5fb9de	-0.21848246
220	0xbb314a9d	-0.002705253
221	0xbda998ea	-0.08281119
222	0xbdf917b4	-0.12162724
223	0xbc1dffd7	-0.0096435165
224	0x3d9e4b40	0.077291965
225	0x3d29fb37	0.041499343
226	0x3e7e618e	0.24841902
227	0xbe7ba3ca	-0.245742
228	0x3e04bbd1	0.12962271
229	0xbcfd0ac0	-0.030888915
230	0x3d936d6a	0.071986035
231	0xbdca9707	-0.098920874
232	0x3b8d1320	0.0043052584
233	0xbe3ef295	-0.18647225
234	0xbdd29cbc	-0.10283801
235	0x3e644ff0	0.22296119
236	0x3dbf0a37	0.0932812
237	0xbd9fb3cd	-0.07797966
238	0xbd71a934	-0.058999255
239	0x3f465d97	0.77486557
240	0xbcc9e98c	-0.024647497
241	0xbe3b07c6	-0.18264684
242	0xbd5b0917	-0.053475466
243	0xbcab569d	-0.020915324
244	0x3b0b072c	0.0021213992
245	0xbb7cd8f0	-0.0038581453
246	0x3de3c5f6	0.111217424
247	0x3e346524	0.17616707
248	0xbde1106a	-0.10989459
249	0x3dc7bf73	0.09753313
250	0x3c752008	0.01496125
251	0x3af97514	0.0019032084
252	0x3a3e3fad	0.0007257413
253	0x3d1efe4c	0.038816735
254	0xbe186c27	-0.14885007
255	0x3e13882d	0.14407416

advantage_stream.0.bias f4 [64]
0	0x3d2e1990	0.042504847
1	0x3c833d74	0.016020514
2	0xbd244a0d	-0.040109683
3	0xbc80ce5f	-0.015723405
4	0xbd141038	-0.03614828
5	0xbd823cc8	-0.06359249
6	0xbd258173	-0.040406656
7	0xbd863760	-0.06553531
8	0xbcbfb2c5	-0.023400674
9	0x3d502cbb	0.05082391
10	0xbdbf611d	-0.09344695
11	0x3d9e6eac	0.07735953
12	0xbca5bd66	-0.020231914
13	0xbd7615af	-0.060079273
14	0x3ddb3c0a	0.10704811
15	0xbc8529d8	-0.016255304
16	0x3dd89c20	0.105766535
17	0xbd1f1678	-0.038839787
18	0xbd859d55	-0.06524149
19	0xbd37404a	-0.044739045
20	0xbcda0be9	-0.026617007
21	0x3d824d07	0.06362348
22	0xbba398d0	-0.004992582
23	0x3afca6a4	0.0019275737
24	0x3d83715b	0.06418105
25	0x3bc61714	0.0060452316
26	0xbdb37be6	-0.08763866
27	0xbd21bfb9	-0.03948948
28	0x3c4cf2ff	0.012509107
29	0xbda58768	-0.08082467
30	0xbc0bb67a	-0.0085273925
31	0x3cf10111	0.029419454
32	0x3c91c6a8	0.017794922
33	0xbd7ed439	-0.06221411
34	0xbc37fe21	-0.011230023
35	0x3d50c749	0.050971303
36	0x3d5aaeaa	0.05338923
37	0xbd761720	-0.060080647
38	0xbbbcd18c	-0.0057622846
39	0xbc9a91cf	-0.018868355
40	0xbac8a8e9	-0.0015309128
41	0xbd323e21	-0.043516282
42	0xbc146216	-0.009056589
43	0xbd304813	-0.043037485
44	0xbe01489c	-0.12625355
45	0xbdbb7823	-0.09153774
46	0x3d3a7518	0.045521826
47	0xbd5dc23a	-0.054140307
48	0x3dd22a22	0.102619424
49	0x3d9dd537	0.07706683
50	0xbd3902ad	-0.045168567
51	0x3cb82214	0.022477187
52	0xbe04cbf5	-0.12968428
53	0x3d204a07	0.039133098
54	0x3d956c3c	0.07296035
55	0xbd93b420	-0.072120905
56	0x3d29e380	0.041476727
57	0xbde6e3c2	-0.1127391
58	0x3dba6994	0.09102169
59	0xbd89d764	-0.067305356
60	0xbd36941d	-0.044574846
61	0xbd995280	-0.07486439
62	0xbd3aaae7	-0.04557314
63	0x3b98cdd9	0.004663211

advantage_stream.2.weight f4 [4, 64]
0	0x3e3e93c7	0.1861106
1	0x3dda398a	0.10655506
2	0x3f2aac87	0.66669506
3	0xbdc14005	-0.09436039
4	0x3dd62f93	0.10458293
5	0x3e20269d	0.1563973
6	0xbdc172a3	-0.09445693
7	0xbf6a1cd1	-0.9145022
8	0x3e55860e	0.20851919
9	0x3e35be1d	0.17748304
10	0xbe88f96c	-0.26752794
11	0xbf3f4915	-0.7472089
12	0x3d2dac6c	0.042400762
13	0xbdf7148f	-0.12064468
14	0x3eb2c293	0.34914073
15	0xbd0cbbb6	-0.034358703
16	0x3ea30e82	0.31847006
17	0xbc15d559	-0.009145104
18	0x3c1f4758	0.0097215995
19	0xbe6443e1	-0.22291519
20	0x3dc167ed	0.094436504
21	0xbd8c3a6b	-0.0684708
22	0xbdc4e31e	-0.09613632
23	0x3e100297	0.14063488
24	0xbd3a6d57	-0.04551443
25	0xbed179a5	-0.4091312
26	0x3ec15ef9	0.3776777
27	0xbd927442	-0.07151081
28	0x3e9e9fc9	0.3098128
29	0x3e831c31	0.25607446
30	0xbe8f4026	-0.2797863
31	0x3e709b43	0.23496728
32	0x3ece27a4	0.40264618
33	0x3e43e0b5	0.19128688
34	0xbdcfeb6b	-0.10152324
35	0x3cde718b	0.02715375
36	0x3da5978e	0.080855474
37	0x3e3b0d16	0.1826671
38	0xbe4edb4e	-0.20200846
39	0xbafacc7f	-0.0019134431
40	0x3d884e10	0.06655514
41	0x3dcfcf24	0.10146931
42	0xbf3c928f	-0.7366113
43	0x3ecac9ac	0.39606988
44	0x3ed4c11f	0.4155359
45	0x3e48dd0a	0.1961557
46	0x3f2001ac	0.6250255
47	0xbd814a3f	-0.063129894
48	0xbd8816fa	-0.066450074
49	0x3d4d6a2f	0.050150093
50	0xbf36598e	-0.712304
51	0x3e6b3903	0.22970967
52	0x3edcd68a	0.4313243
53	0xbe517c0d	-0.20457478
54	0x3f02d462	0.5110532
55	0xbd600ed0	-0.054701626
56	0x3ed79092	0.42102486
57	0xbd6ce1c4	-0.057832494
58	0xbdfffeb8	-0.124997556
59	0xbcaf4825	-0.021396706
60	0x3db3df80	0.087828636
61	0xbdc92922	-0.098222986
62	0x3e93f57c	0.28898227
63	0x3e3d5e73	0.18493061
64	0x3e03ca58	0.12870157
65	0x3c78a2c6	0.015175527
66	0x3dc59113	0.09646811
67	0xbe88131a	-0.26577073
68	0xbf05f892	-0.52332413
69	0xbd85ad90	-0.06527245
70	0x3dc96b78	0.09834951
71	0x3db8be18	0.090206325
72	0xbd6af609	-0.057363544
73	0x3e594374	0.21217138
74	0xbf34dbb3	-0.70647734
75	0x3ded8efd	0.115995385
76	0xbde662f6	-0.11249344
77	0xbdfc819c	-0.123294085
78	0x3e8a280e	0.26983684
79	0xbd33b7d8	-0.0438765
80	0xbd9423bb	-0.072333775
81	0xbe7de632	-0.24794844
82	0x3d2e52c9	0.04255942
83	0x3e0e2dc8	0.13884652
84	0xbe743b80	-0.23850822
85	0x3eb6947f	0.3566017
86	0xbf2536b6	-0.6453661
87	0xbe893a36	-0.26802224
88	0xbe96a7c9	-0.29424885
89	0xbac84436	-0.0015279118
90	0x3e4e2e47	0.20134841
91	0xbe8e4018	-0.27783275
92	0xbc8f32db	-0.017480304
93	0xbe214383	-0.1574841
94	0xbf07662d	-0.5289028
95	0x3e18d757	0.14925896
96	0x3ebfafa7	0.374387
97	0x3e8a4427	0.2700512
98	0xbcfbe5d0	-0.030749232
99	0xbb884a04	-0.004159214
100	0xbd89ddf5	-0.06731788
101	0x3e76df9a	0.24108735
102	0x3e522dfe	0.20525357
103	0x3e320df3	0.17388134
104	0xbf48aabd	-0.78385526
105	0xbcb77e97	-0.02239923
106	0xbacf7be7	-0.0015829772
107	0x3de84a6c	0.1134232
108	0xbe87cc39	-0.26522997
109	0xbdb01b68	-0.08598977
110	0x3eb97b2d	0.36226788
111	0xbe0e8551	-0.13918044
112	0x3eea30d9	0.45740393
113	0x3eb31575	0.34977308
114	0xbd419aa8	-0.047266632
115	0xbd8d2da0	-0.06893468
116	0xbe87c95a	-0.26520807
117	0xbb3f4686	-0.0029186322
118	0xbda75b6a	-0.08171733
119	0x3e0eb2f5	0.13935454
120	0x3e1623a6	0.14662036
121	0xbd219e57	-0.039457645
122	0x3f35f591	0.7107783
123	0x3d523aa4	0.051325455
124	0x3e8d3ff0	0.27587843
125	0x3d99d5b8	0.07511467
126	0x3e47ee1e	0.19524428
127	0x3ea40580	0.32035446
128	0xba323333	-0.00067977904
129	0xbead1b4b	-0.33809885
130	0xbf103cd0	-0.5634279
131	0xbd826444	-0.063667804
132	0xbe0361ac	-0.12830228
133	0xbe137021	-0.14398243
134	0xbdef9e16	-0.117000744
135	0x3f28ded2	0.65964997
136	0xbd785ab4	-0.060633376
137	0x3da2b764	0.07945135
138	0x3f1dfe32	0.61715996
139	0x3ea6d06a	0.32580882
140	0xbe19736b	-0.14985435
141	0xbe264014	-0.16235381
142	0xbeb3b976	-0.35102433
143	0x3e82dcd5	0.25559106
144	0x3e499eb8	0.19689453
145	0xbdde9bc6	-0.10869555
146	0xbf354b4d	-0.70818025
147	0xbe817899	-0.2528732
148	0x3f09349e	0.5359591
149	0xbca3db1c	-0.02000194
150	0x3eeb0889	0.4590495
151	0x3e13d58d	0.14436932
152	0x3d43e623	0.047826897
153	0x3e9e11bb	0.30872902
154	0xbe56a790	-0.20962358
155	0x3e7ca983	0.24674039
156	0x3ebbf026	0.36706656
157	0xbe25b9ed	-0.16184206
158	0x3ed33ec5	0.41258827
159	0x3d679c67	0.05654564
160	0xbeedbe59	-0.46434286
161	0x3a7ae712	0.00095711753
162	0xbe26afb5	-0.16277964
163	0x3f094532	0.5362121
164	0xbd39fea2	-0.045408852
165	0xbf1279ba	-0.5721699
166	0x3e95ff99	0.29296568
167	0x3cd40e9a	0.025885869
168	0x3e8c7d7f	0.27439496
169	0x3d84349a	0.064553455
170	0x3eda807b	0.42676148
171	0xbd49d718	-0.049277395
172	0x3dc26a83	0.09492972
173	0xbd6ae6a3	-0.05734886
174	0xbded3898	-0.1158306
175	0xbe087576	-0.13326058
176	0xbe1479ef	-0.14499639
177	0xbeadbc54	-0.33932745
178	0x3dd847d5	0.10560576
179	0x3e1e3f0e	0.15453741
180	0x3da9492f	0.08265912
181	0xbefbf74b	-0.49212107
182	0xbd3a9886	-0.045555614
183	0xbe22a11b	-0.1588177
184	0xbf14503a	-0.57934916
185	0xbd459376	-0.048236333
186	0xbdbf8f99	-0.09353561
187	0x3daed585	0.08536819
188	0xbd8314d6	-0.064004585
189	0x3f0022bf	0.5005302
190	0xbe4ffeba	-0.20312014
191	0xbe8c5374	-0.2740742
192	0x3dba75d7	0.091045074
193	0x3dd96f85	0.10616974
194	0x3e3690cf	0.17828678
195	0xbeee9b48	-0.46602845
196	0xbd8d97f6	-0.0691375
197	0x3eb8c4fd	0.3608779
198	0xbe24370c	-0.16036624
199	0x3ed78e1d	0.4210061
200	0x3e32590e	0.17416784
201	0x3e519a78	0.20469081
202	0x3e34d422	0.17659047
203	0x3d9d9db2	0.076960936
204	0x3e063b5c	0.13108581
205	0xbb6dd007	-0.0036287324
206	0xbdc13d33	-0.09435501
207	0xbe5c4623	-0.2151113
208	0xbecf9774	-0.40545237
209	0xbbd0060b	-0.0063483766
210	0x3e828d30	0.25498343
211	0x3eb868e9	0.3601754
212	0xbd88bb88	-0.06676394
213	0xbf0186bf	-0.5059623
214	0x3e8465ee	0.25859016
215	0x3e16aa31	0.1471336
216	0x3dbdfc95	0.09276692
217	0x3df95765	0.12174872
218	0xbed63f10	-0.41844988
219	0xbe7ccca6	-0.24687442
220	0xbe40a4db	-0.18812887
221	0xbbb89df3	-0.0056340634
222	0x3dbf4dde	0.09341024
223	0xbed33544	-0.41251576
224	0xbd81c9e4	-0.06337336
225	0x3e09e1a7	0.13464986
226	0x3d8331a6	0.06405954
227	0xbd3c9e6f	-0.04604953
228	0xbf23b9f9	-0.63955647
229	0xbeb67a13	-0.3564001
230	0x3d5b2509	0.053502116
231	0x3dbb8dad	0.09157882
232	0x3f059bcc	0.5219085
233	0x3d838376	0.064215586
234	0x3f0bdea2	0.54636586
235	0xbec39112	-0.38196617
236	0x3d9296bc	0.071576566
237	0xbdfd20d4	-0.12359777
238	0x3bcd19af	0.0062591652
239	0xbdeeb65c	-0.11655876
240	0xbe82418e	-0.2544064
241	0xbecfe140	-0.4060154
242	0x3e543ba2	0.20725873
243	0x3e01ddcf	0.1268227
244	0xbdb48138	-0.08813709
245	0x3efcb671	0.49357942
246	0xbdd9f5cc	-0.10642585
247	0x3c3caa5b	0.011515225
248	0x3f00a5d4	0.50253034
249	0xbd1d1435	-0.03834935
250	0xbe46e50a	-0.19423309
251	0x3e815b7b	0.25265107
252	0x3d9b42aa	0.075810745
253	0x3d84bc6e	0.064812526
254	0xbe982fbc	-0.29723918
255	0xbec35f10	-0.38158464

advantage_stream.2.bias f4 [4]
0	0xbd058867	-0.032600787
1	0xbd862a4d	-0.06551037
2	0xbde68717	-0.11256235
3	0xbd1e944c	-0.038715646
