models/snake_dqn_ep257_score7_20250303_093911.pt (torch, 713122 bytes, 44 tensors)

feature_layers.0.weight f4 [128, 24]
0	0xbe82e066	-0.25561827
1	0x3e6d174e	0.23153421
2	0xbe5e1869	-0.21688999
3	0x3e01c67b	0.1267337
4	0x3f0914c7	0.5354733
5	0xbf35eca2	-0.710642
6	0xbe19fa5e	-0.15036914
7	0xbea9fa40	-0.33198738
8	0xbd981be6	-0.07427196
9	0xbe04f4fb	-0.12984078
10	0xbd3cccf9	-0.046093915
11	0xbe8fca6c	-0.28084123
12	0x3eb657f7	0.35613987
13	0xbd93f8ad	-0.072251655
14	0xbea2fc6f	-0.31833217
15	0x3ef2f990	0.47456026
16	0xbed6fc98	-0.4198959
17	0x3f37ae19	0.71750027
18	0x3f00b513	0.502763
19	0xbedbbb6b	-0.42916426
20	0x3f0c8eae	0.5490521
21	0xbdde57dc	-0.108566016
22	0x3ed5706d	0.41687337
23	0x3e67f3dd	0.2265162
24	0xbd75b836	-0.05999013
25	0x3d743cfc	0.05962847
26	0xbdd26181	-0.10272504
27	0xbe8e3563	-0.27775106
28	0xbeb32e2e	-0.3499617
29	0xbed7dcf4	-0.4216076
30	0x3eb4e78f	0.35332915
31	0xbe129710	-0.14315438
32	0xbe8b2a6d	-0.27180806
33	0x3da270ad	0.079316474
34	0x3bac76d9	0.005263191
35	0x3f1fe2d6	0.624555
36	0x3daf8f30	0.08572233
37	0x3e66242c	0.22474736
38	0x3ca4214f	0.020035414
39	0xbb977c19	-0.004622948
40	0x3e36be2e	0.17845985
41	0x3f30ce18	0.69064474
42	0x3d9bbf45	0.07604841
43	0xbb28e44e	-0.0025770846
44	0xbcb49b64	-0.022046752
45	0x3d591249	0.052995954
46	0x3f18b2ac	0.5964763
47	0xbdb2bb68	-0.08727151
48	0xbdd9d173	-0.106356524
49	0xbeb630b8	-0.35584044
50	0x3d8cbd94	0.06872097
51	0xbe5224ca	-0.20521846
52	0xbde5265a	-0.111889556
53	0xbeaded0a	-0.3396991
54	0x3e528c0a	0.20561233
55	0x3e8f57ed	0.2799677
56	0xbe527454	-0.20552188
57	0xbebbebf6	-0.3670346
58	0xbdd1ecf0	-0.1025027
59	0xbf0433d8	-0.5164161
60	0x3d842a1d	0.06453345
61	0xbe9fa0b9	-0.3117731
62	0x3ec63f79	0.387203
63	0x3dbacbca	0.09120901
64	0xbef21c58	-0.4728725
65	0xbdf1c3e5	-0.11804942
66	0xbebe30ab	-0.37146506
67	0xbe6ce3ac	-0.23133725
68	0xbe1919a9	-0.14951195
69	0x3d979702	0.07401849
70	0x3f003ba6	0.50091016
71	0x3d5cb2a3	0.0538813
72	0x3de52614	0.111889035
73	0x3eab9afd	0.33516684
74	0x3f5176ae	0.81821716
75	0x3ef2e1f9	0.47438028
76	0x3e242380	0.16029167
77	0x3ea29784	0.31756222
78	0x3dbcd369	0.09220011
79	0x3e7a4448	0.2444011
80	0x3e7745a3	0.24147658
81	0x3e831ebe	0.25609392
82	0x3ddb44c5	0.10706476
83	0x3f502921	0.8131276
84	0x3e87b421	0.26504615
85	0x3e02ae76	0.12761864
86	0xbf22c8d5	-0.63587695
87	0x3ea6839d	0.32522288
88	0xbbbca30b	-0.005756741
89	0x3dd82a24	0.10554913
90	0x3de25d65	0.1105297
91	0xbedb965c	-0.42888153
92	0x3edb753e	0.42862886
93	0xbe4478f9	-0.19186772
94	0x3f122e06	0.57101476
95	0xbe42da5e	-0.19028613
96	0xbd2aaa9a	-0.041666605
97	0x3f5083d6	0.81451166
98	0xbe1be641	-0.15224554
99	0xbe930980	-0.28718185
100	0x3e8e1d50	0.2775674
101	0x3e388885	0.18020828
102	0xbeed170e	-0.46306652
103	0xbd3241e7	-0.04351988
104	0xbe608ff8	-0.2192992
105	0x3ede541c	0.43423545
106	0x3e5c93cb	0.21540754
107	0x3e32c2f0	0.17457175
108	0xbee556e3	-0.44792852
109	0xbee80a9e	-0.453206
110	0xbec3689f	-0.38165757
111	0xbdd00590	-0.10157311
112	0xbf12523e	-0.5715674
113	0x3eae96fa	0.3409956
114	0x3f1349bd	0.5753439
115	0x3eadb00d	0.3392338
116	0x3eed0e41	0.46299937
117	0x3e47b80c	0.19503802
118	0xbd3d52a4	-0.04622139
119	0xbe24b0cc	-0.16083068
120	0xbc476e27	-0.012172258
121	0x3db03bc2	0.08605148
122	0xbe4c744b	-0.19966237
123	0x3e34c7e4	0.17654377
124	0xbdf4f681	-0.119610794
125	0x3e7f72c6	0.24946126
126	0xbd882060	-0.066468
127	0xbc7c9d1a	-0.015418315
128	0x3e6cb0f0	0.23114371
129	0x3dce501d	0.10073874
130	0xbe566529	-0.20937027
131	0xbe0b5bac	-0.13609189
132	0xbedb95ea	-0.42887813
133	0xbdae7c3b	-0.08519789
134	0xbe9e4cfa	-0.30918103
135	0x3f36b53e	0.71370304
136	0xbee21eb5	-0.44164053
137	0x3e4b9f66	0.19885024
138	0xbe302f94	-0.1720565
139	0x3e032cff	0.12810133
140	0x3ed9cf06	0.4254076
141	0xbe40bb16	-0.18821368
142	0x3eb35b2b	0.35030493
143	0xbe0019e6	-0.1250988
144	0xbe5d8b02	-0.21635059
145	0xbbfc9246	-0.007707867
146	0xbe963329	-0.29335907
147	0xbe84ae0a	-0.2591403
148	0x3e2fc1a4	0.17163712
149	0x3ed1f945	0.4101049
150	0xbf018f1d	-0.50609
151	0x3d5c18b0	0.05373448
152	0x3e748c95	0.23881753
153	0x3e0599df	0.13046978
154	0xbd6ec5e2	-0.058294185
155	0x3d0d577f	0.03450727
156	0x3e8960ad	0.2683157
157	0x3a1cd4cd	0.00059826375
158	0xbe9b0072	-0.30273777
159	0xbd2140ff	-0.039368626
160	0xbe624613	-0.22097044
161	0xbdf39cdf	-0.11895155
162	0xbec6fa79	-0.3886297
163	0x3e9611ca	0.29310447
164	0x3d67d292	0.0565973
165	0x3f07bf8f	0.5302667
166	0xbf07f975	-0.53115016
167	0x3ebf71e2	0.37391573
168	0xbd1c98cf	-0.038231667
169	0xbcba2262	-0.022721473
170	0xbda11bfb	-0.07866665
171	0xbd583bc5	-0.052791376
172	0xbe8c9cb9	-0.2746332
173	0xbe6399d5	-0.22226651
174	0x3eb2240e	0.34793133
175	0x3e806bd2	0.2508226
176	0x3ee12dbd	0.43980208
177	0xbded8636	-0.11597864
178	0xbc93ac2f	-0.01802644
179	0x3e6b4003	0.22973637
180	0xbded66eb	-0.11591896
181	0xbe60e1d0	-0.2196114
182	0xbec5b35a	-0.38613397
183	0x3e579efb	0.2105674
184	0x3ecf57fe	0.4049682
185	0x3e4122b6	0.18860897
186	0x3d0bd4ef	0.034138616
187	0xbe017482	-0.126421
188	0x3e534ac2	0.20633987
189	0xbcd004b3	-0.025392866
190	0x3ea72e5d	0.3265256
191	0x3f13529a	0.57547915
192	0xbd5fa24e	-0.054598145
193	0xbe1dfa5c	-0.15427536
194	0xbe6f5205	-0.23371132
195	0x3e8b9105	0.2725908
196	0xbd6f77b2	-0.05846376
197	0x3c9fb9b5	0.019497732
198	0xbdf909e7	-0.12160092
199	0xbd9004e2	-0.07032181
200	0xbe352648	-0.17690384
201	0x3e1ecb39	0.15507211
202	0x3dec741c	0.115455836
203	0x3eeb2b3c	0.45931423
204	0xbe6e7b44	-0.2328921
205	0x3e544071	0.20727707
206	0xbe48faec	-0.19626969
207	0x3d1e8f02	0.0387106
208	0x3e10cda1	0.14140941
209	0x3e8e50e0	0.27796078
210	0xbe18386a	-0.1486527
211	0xbec0950b	-0.3761371
212	0xbf1229fa	-0.570953
213	0x3ee8abc3	0.45443544
214	0xbdd39b8c	-0.103324026
215	0x3e3ae394	0.18250877
216	0x3ebb0bdd	0.36532488
217	0xbdb5f3e7	-0.08884411
218	0x3b0675db	0.0020517025
219	0x3e484e74	0.19561177
220	0x3e6e045c	0.2324385
221	0xbe6d4970	-0.23172545
222	0x3e2b29e3	0.16715197
223	0xbe22d742	-0.15902427
224	0xbee48d46	-0.44639033
225	0xbe87d2fd	-0.2652816
226	0x3ef59930	0.47968435
227	0xbe6143e6	-0.21998557
228	0xbdcdd6e3	-0.10050752
229	0x3e549d8d	0.20763226
230	0xbe99ae9d	-0.30016032
231	0xbe61d709	-0.22054686
232	0xbe0a5c0f	-0.1351168
233	0xbefc2738	-0.49248672
234	0x3d1821a0	0.037141442
235	0xbd96de1c	-0.07366583
236	0xbe3cea38	-0.18448722
237	0x3edf82fc	0.4365462
238	0xbeb9f927	-0.363229
239	0xbc30be69	-0.010787585
240	0x3e6b0b0f	0.22953437
241	0x3e3c9db3	0.18419532
242	0x3e1e417a	0.15454665
243	0xbe639435	-0.22224505
244	0xbe26f14c	-0.16302985
245	0x3cc78b9b	0.024358561
246	0xbd79d3db	-0.060993057
247	0xbe6ad422	-0.22932485
248	0x3d392fe7	0.0452117
249	0x3eaaa9c2	0.3333264
250	0xbe55df68	-0.20886004
251	0x3f051b58	0.5199485
252	0xbf007498	-0.5017791
253	0xbd3b5ca5	-0.04574265
254	0xbe93e7fc	-0.28887928
255	0xbe3dd99e	-0.18540046

feature_layers.0.bias f4 [128]
0	0xbe496cb1	-0.19670369
1	0xbe2bd17f	-0.16779135
2	0x3ca2cd91	0.019873412
3	0x3e3f6f70	0.18694854
4	0x3e1638c8	0.14670098
5	0xbdba7918	-0.09105128
6	0x3e28f4a1	0.16499569
7	0x3e56ee6f	0.20989393
8	0x3e7b5abc	0.24546331
9	0x3e7f5d8e	0.24938032
10	0x3e2bbd5c	0.16771454
11	0xbdab3842	-0.0836034
12	0x3e97ddcb	0.29661402
13	0x3d34c0d8	0.044129223
14	0xbd09fa9c	-0.033686265
15	0x3db08c7f	0.086205475
16	0x3d18d168	0.03730908
17	0x3d6b6b92	0.057475634
18	0xbdad313c	-0.08456656
19	0xbe3ba891	-0.18326022
20	0x3dbb286d	0.0913857
21	0xbdc9d886	-0.09855752
22	0x3e86a863	0.26300344
23	0xbe2de074	-0.16980153
24	0xbe166d7b	-0.14690201
25	0x3c2d7f41	0.010589422
26	0xbdb07de1	-0.086177595
27	0x3dd27ceb	0.102777325
28	0x3e0512d2	0.1299546
29	0x3ea54332	0.32277828
30	0xbdb3b9af	-0.08775651
31	0xbe8d886d	-0.27643147
32	0x3cd7a51c	0.026323847
33	0xbd5c17f2	-0.053733774
34	0x3d03d079	0.032181237
35	0x3e0bddb4	0.13658792
36	0xbd4b0ab0	-0.04957074
37	0xbce3c90b	-0.027805826
38	0xbe6a7e55	-0.22899754
39	0x3e6475ff	0.22310637
40	0x3d69dfc6	0.057098173
41	0xbdaa727c	-0.083226174
42	0xbe6f4c3f	-0.2336893
43	0x3e9bba03	0.30415353
44	0xbe4b5558	-0.19856775
45	0x3d070d9b	0.03297196
46	0xbe8938fc	-0.26801288
47	0xbdbe20cc	-0.09283599
48	0xbe3b51c0	-0.18292904
49	0xbe34c1be	-0.17652032
50	0x3d2d4fbc	0.04231237
51	0xbdbe0382	-0.09278013
52	0xbc4ddaae	-0.012564344
53	0x3d0d6acd	0.03452568
54	0x3d85dc70	0.06536186
55	0xbcaf679b	-0.021411708
56	0xbe255193	-0.161444
57	0xbe573342	-0.21015647
58	0xbd2c3a64	-0.042047873
59	0x3e6f70e1	0.23382904
60	0xbddfa772	-0.109206095
61	0xbd5f8fb2	-0.054580398
62	0xbe21da56	-0.15805945
63	0x3e3688c4	0.1782561
64	0xbd9c268c	-0.0762454
65	0xbd8dea1a	-0.06929417
66	0xbd887136	-0.06662218
67	0x3e7a26ac	0.24428815
68	0x3d92b57a	0.0716352
69	0x3e508756	0.20364127
70	0xbd6765ab	-0.056493443
71	0x3d992939	0.07478566
72	0x3e7831fb	0.24237816
73	0x3e8336b1	0.25627664
74	0x3e0f4896	0.13992533
75	0x3e4a0e88	0.19732106
76	0xbe1f5787	-0.15560733
77	0x3e1e0416	0.15431246
78	0xbe43a66b	-0.19106452
79	0xbe462c53	-0.19352846
80	0xbe60b493	-0.21943884
81	0xbd1a11b6	-0.037614547
82	0x3cad175d	0.021129305
83	0xbe33edd2	-0.1757119
84	0x3c74d9c0	0.014944494
85	0x3e6b933d	0.23005386
86	0xbd32806e	-0.04357951
87	0x3deefa03	0.1166878
88	0x3d0e6463	0.034763705
89	0xbe53375b	-0.20626585
90	0xbdf9aaa4	-0.1219075
91	0x3e800911	0.25006917
92	0x3d412ea6	0.047163628
93	0x3cb5c6de	0.022189554
94	0x3d961602	0.073284164
95	0x3c4fe615	0.012689133
96	0x3dc11b49	0.09429032
97	0xbe2ef3a2	-0.17085126
98	0xbd698a6c	-0.057016775
99	0x3d13e26d	0.03610461
100	0xbdcd4638	-0.10023159
101	0x3e68381d	0.22677656
102	0x3e116cf0	0.14201713
103	0xbd1ba9d5	-0.03800376
104	0xbda1ef66	-0.0790699
105	0xbe2a0f0a	-0.166073
106	0x3e8b0c59	0.27157858
107	0x3d5c2b18	0.053752035
108	0xbc5d5024	-0.013507877
109	0xbe922449	-0.28543308
110	0xbd928522	-0.07154299
111	0xbddfa2c0	-0.10919714
112	0xbdde5f4d	-0.10858021
113	0xbd456941	-0.04819608
114	0x3cf7c154	0.030243553
115	0x3e27633c	0.16346449
116	0xbe9228ca	-0.28546745
117	0xbe7b0b9a	-0.24516144
118	0x3e817eb6	0.25291985
119	0x3dcb6040	0.099304676
120	0xbe6ae37d	-0.22938342
121	0x3e08d312	0.13361767
122	0xbe56cbf4	-0.2097624
123	0x3dfc14d8	0.12308663
124	0x3cfc3217	0.030785603
125	0xbe08d12d	-0.13361044
126	0xbd1548c3	-0.036446344
127	0xbd1c856f	-0.03821319

feature_layers.1.weight f4 [128, 128]
0	0xbdc0b3d0	-0.094092965
1	0x3dd9f586	0.10642533
2	0x3db8e1f2	0.09027471
3	0xbe3a54e8	-0.18196452
4	0xbc9c57d5	-0.01908485
5	0xbe35e1f0	-0.1776197
6	0x3dd38549	0.103281565
7	0x3d99a4a8	0.07502109
8	0xbb93f73e	-0.0045155575
9	0x3de98bcb	0.114036165
10	0x3e1fc699	0.15603103
11	0x3eac9d50	0.3371377
12	0x3e3382ec	0.17530411
13	0x3d6d5494	0.057941988
14	0x3d182fb0	0.037154853
15	0xbe2352db	-0.15949576
16	0x3e91fbe8	0.28512502
17	0x3d8e6d0a	0.06954391
18	0x3dc02607	0.09382253
19	0xbd609dd7	-0.054838028
20	0x3ca76de6	0.020438146
21	0xbe8ef9a7	-0.27924845
22	0x3d401c5b	0.046902042
23	0xbea8ed6b	-0.32993636
24	0xbc62876d	-0.013826233
25	0xbdec8ef8	-0.115507066
26	0xbd581f2d	-0.052764107
27	0x3e3a44c4	0.18190295
28	0x3de8d9b1	0.11369646
29	0xbcdd1f18	-0.026992366
30	0xbd14c00d	-0.036315966
31	0xbe2668e0	-0.16250944
32	0x3cb0d5b4	0.021586277
33	0xbc3a3727	-0.011365688
34	0xbe12172d	-0.14266653
35	0x3e149938	0.14511573
36	0xbe086696	-0.13320383
37	0xbd6d643c	-0.05795692
38	0xbca5c640	-0.020236135
39	0x3e02b9e8	0.1276623
40	0xbe54db00	-0.20786667
41	0x3ddbaaa8	0.107259095
42	0xbe6d4319	-0.23170127
43	0xbce219fc	-0.027600281
44	0xbdb6d8c6	-0.08928065
45	0xbe2394f4	-0.1597479
46	0x3e213879	0.15744199
47	0x3e7c7ffb	0.24658196
48	0x3cc23012	0.023704562
49	0xbe99e933	-0.3006073
50	0xbe644aed	-0.22294207
51	0x3cb190b0	0.021675438
52	0x3cd495f5	0.025950411
53	0xbcdbbd2e	-0.026823606
54	0x3e5427f5	0.20718367
55	0xbce97bda	-0.02850144
56	0x3ceeeded	0.029166186
57	0xbdc81c3d	-0.09771011
58	0xbe2f4223	-0.17115073
59	0x3de35f26	0.111021325
60	0xbd3ea085	-0.046539802
61	0x3d935403	0.07193758
62	0xbd9ac3f1	-0.07556904
63	0x3ca81759	0.020518946
64	0xbdee4a33	-0.11635246
65	0xbd0c8620	-0.0343076
66	0x3a9d1c98	0.0011986671
67	0x3db046d6	0.08607261
68	0x3e07165f	0.13192128
69	0x3d2f1452	0.04274399
70	0xbc72accf	-0.014811709
71	0x3d9fa5c8	0.07795292
72	0x3e5348e5	0.20633276
73	0xb9958460	-0.00028518122
74	0x3d11de84	0.035612598
75	0x3e7559be	0.23960015
76	0xbd41242d	-0.04715364
77	0x3df7ace3	0.120935224
78	0x3eb417fa	0.35174543
79	0x3df2a699	0.11848182
80	0xbe2db8f4	-0.16965085
81	0xbd0873f3	-0.033313703
82	0xbcc74ef6	-0.024329644
83	0x3dbc1d1d	0.091852404
84	0xbe1bd60a	-0.15218368
85	0xbd595493	-0.053059172
86	0x3e00ec74	0.125902
87	0xbe02d8dc	-0.12778038
88	0x3d79b481	0.060963158
89	0xbead0e70	-0.33800077
90	0x3e488fc5	0.19586094
91	0x3cfe1760	0.031017005
92	0xbe091282	-0.13385966
93	0x3d124a1a	0.0357152
94	0x3c550ce9	0.013003566
95	0xbc88ab7e	-0.016683336
96	0xbd8ade14	-0.06780639
97	0x3df6f8bb	0.1205916
98	0xbe541657	-0.20711647
99	0x3de08684	0.10963157
100	0xbd883f14	-0.06652656
101	0x3e31f8e5	0.17380102
102	0xbd752265	-0.059847254
103	0xbded9a5b	-0.116017066
104	0x3ba8fe50	0.0051572695
105	0x3ca4440c	0.020051979
106	0x3e4b68ce	0.19864199
107	0xbc5e81f8	-0.013580792
108	0xbd90e2ad	-0.07074485
109	0xbe087837	-0.13327108
110	0x3ea91281	0.3302193
111	0xbdcf34ea	-0.101175144
112	0x3e19fcca	0.15037838
113	0xbe047840	-0.12936497
114	0x3dea6176	0.114443704
115	0x3e259cd4	0.16173106
116	0xbe9c0f42	-0.3048039
117	0x3df61b42	0.12016918
118	0xbbe664f3	-0.007031077
119	0x3e19b454	0.15010196
120	0x3d9d8203	0.076908134
121	0xbe326736	-0.17422184
122	0x3d051228	0.03248802
123	0xbd72c076	-0.059265576
124	0x3db7cd9f	0.08974766
125	0xbdae6d82	-0.08516981
126	0xbd210167	-0.039307978
127	0xbe2dba14	-0.16965514
128	0xbd42ab18	-0.04752645
129	0x3e1d7641	0.15377142
130	0x3dbf18bb	0.09330889
131	0xbd9fca5f	-0.07802271
132	0x3e05cb42	0.13065818
133	0xbd83d462	-0.06436993
134	0xbce510cc	-0.027962111
135	0xb91a0ceb	-0.00014691397
136	0xbddab74a	-0.10679491
137	0x3da80d9e	0.08205722
138	0x3dd65163	0.10464742
139	0xbe038471	-0.12843491
140	0x3e642d46	0.22282895
141	0xbddf1340	-0.108923435
142	0xbdaa6643	-0.08320286
143	0xbdbc5c63	-0.09197309
144	0x3dc0a762	0.09406926
145	0x3da1130c	0.07864961
146	0xbd6238ea	-0.05523006
147	0xbdc156b5	-0.09440366
148	0xbdba8019	-0.09106464
149	0x3d99d9cb	0.07512244
150	0xbdc6f144	-0.097139865
151	0xbbd47f40	-0.006484896
152	0xbd336881	-0.043800835
153	0x3e6332f7	0.2218741
154	0xbe63a791	-0.2223189
155	0xbe3c0fd5	-0.18365414
156	0x3cac04a5	0.020998308
157	0x3d705bd0	0.05868131
158	0xbcc188a9	-0.023624735
159	0x3d70ab7e	0.058757298
160	0x3d74cf26	0.059767865
161	0x3db22d87	0.0870009
162	0xbe1c5898	-0.15268171
163	0xbc24e17e	-0.010063527
164	0x3e077df2	0.13231638
165	0x3e28d625	0.1648794
166	0x3d21bc16	0.039486013
167	0x3dadfd77	0.0849561
168	0xbd5903c9	-0.052982125
169	0xbda27b60	-0.07933688
170	0xbe320e3e	-0.17388245
171	0x3d301848	0.042991906
172	0xbdb95095	-0.09048573
173	0xbe861433	-0.26187286
174	0x3db1f709	0.08689696
175	0x3da3d5dd	0.079997756
176	0x3d8829ca	0.06648596
177	0xbdb40102	-0.08789255
178	0x3d38cec3	0.04511906
179	0x3cd1e2ff	0.025620935
180	0xbe47cc0d	-0.19511433
181	0x3e28ae38	0.16472709
182	0x3e883886	0.26605624
183	0xbd9609c8	-0.073260844
184	0x3d8b17d1	0.06791652
185	0xbdb84943	-0.089983486
186	0xbe5ad9f3	-0.21372204
187	0x3e24e0dc	0.16101402
188	0x3d9ceb20	0.07662034
189	0xbd998641	-0.0749631
190	0xbe427c5a	-0.18992749
191	0x3e3a0d32	0.18169096
192	0x3e89faf8	0.26949286
193	0xbdbfb6a1	-0.093610056
194	0xbe0da054	-0.13830692
195	0xbde94b6e	-0.1139134
196	0x3d6669aa	0.056253113
197	0xbcaf4e3f	-0.021399615
198	0xbe3d5de4	-0.18492848
199	0x3c942658	0.01808469
200	0x3da6a2b2	0.081365004
201	0x3e205b5f	0.15659855
202	0xbd03ade8	-0.03214827
203	0x3e551f24	0.2081266
204	0xbd879d63	-0.06621816
205	0xbb68d795	-0.0035528888
206	0xbd93e790	-0.072219014
207	0x3d430198	0.04760894
208	0x3e344a0f	0.17606376
209	0xbd05fa02	-0.03270913
210	0xbda83fae	-0.08215271
211	0x3f0482d6	0.5176214
212	0xbe2febc5	-0.17179783
213	0xbc5f644f	-0.013634755
214	0xbe1ce5e8	-0.15322077
215	0x3deea0c4	0.11651757
216	0xbe1d148e	-0.15339872
217	0xbe134838	-0.14383018
218	0xbe30d4bf	-0.17268656
219	0x3d626867	0.055275347
220	0xbe207382	-0.15669063
221	0x3e2619c2	0.16220763
222	0xbde99cd9	-0.114068694
223	0x3d24fc86	0.040279888
224	0xbbc22d26	-0.0059257923
225	0xbb19f1a9	-0.0023489988
226	0xbd883a8b	-0.06651791
227	0xbd4b8ad7	-0.049692955
228	0xbd6980f0	-0.05700773
229	0x3e35add0	0.17742085
230	0xbe4e4042	-0.201417
231	0x3e1c5438	0.15266502
232	0xbe8116e9	-0.25212792
233	0xbdca7cd8	-0.09887093
234	0x3e396c26	0.18107662
235	0xbcb1e557	-0.021715803
236	0xbd063333	-0.03276367
237	0xbd256a2d	-0.04038446
238	0xbc86c208	-0.016449943
239	0xbbbf8596	-0.005844782
240	0x3e7af55d	0.24507661
241	0x3b96750d	0.0045915903
242	0xbe4e0825	-0.20120294
243	0xbd61a2f3	-0.05508704
244	0xbdc12d27	-0.0943244
245	0xbcedb345	-0.029016146
246	0xbc54f153	-0.012996989
247	0x3daf75c0	0.08567381
248	0xbdf38ce6	-0.118921086
249	0x3e43a95e	0.19107577
250	0x3e2de5d6	0.16982207
251	0x3e178e7c	0.14800447
252	0xbc416319	-0.011803412
253	0x3c8fe4cb	0.017565152
254	0xbe101311	-0.14069773
255	0xbda9d857	-0.08293217

feature_layers.1.bias f4 [128]
0	0xbc856dc6	-0.016287696
1	0x3c17268d	0.0092255
2	0x3d481023	0.048843514
3	0xbd1e6f47	-0.03868034
4	0xbe0576cd	-0.130336
5	0xbd2b560f	-0.04183012
6	0x3cb01106	0.021492492
7	0xbdb195b2	-0.0867113
8	0x3dca55fa	0.0987968
9	0xbe0ec345	-0.13941677
10	0xbb081a56	-0.002076765
11	0x3dd25923	0.10270908
12	0x3ce52ef5	0.027976492
13	0x3d0199f3	0.031640958
14	0x3e063a2d	0.1310813
15	0xbda8a60e	-0.082347974
16	0x3d2986bc	0.04138826
17	0xbdf6c166	-0.120486066
18	0x3e0929f2	0.13394907
19	0x3d736dcd	0.059430886
20	0xbc379f7c	-0.011207458
21	0xbc9be72b	-0.019031128
22	0x3d7141f3	0.058900785
23	0xbddadfed	-0.10687242
24	0x3ca31620	0.019908011
25	0xbbcbcf3f	-0.006219774
26	0xbcf21de2	-0.029555265
27	0xbc6bcd6d	-0.014392239
28	0xbd0decbf	-0.034649607
29	0x3caabea0	0.02084285
30	0xbd13630b	-0.035983127
31	0x3d3e05bc	0.046392187
32	0x3d129661	0.035787944
33	0x3cbb0168	0.022827819
34	0x3d85f86b	0.065415226
35	0xbc1f019c	-0.009704974
36	0x3d2496b0	0.04018277
37	0x3e0ae73f	0.13564776
38	0x3e05183a	0.12997523
39	0xbd8d8b98	-0.06911391
40	0x3d19c2f0	0.037539423
41	0x3d7639dd	0.060113776
42	0xbceff58b	-0.029291889
43	0x3d832e7f	0.06405353
44	0x3daa2ffd	0.08309934
45	0xbd97c0a0	-0.07409787
46	0x3c8006b2	0.015628193
47	0x3ddcd9a3	0.107836984
48	0x3dd25064	0.102692395
49	0x3d30df9a	0.043181993
50	0x3c408ad1	0.011751846
51	0xbccb7f05	-0.024840841
52	0x3d86954d	0.065714456
53	0xbd9cf730	-0.07664335
54	0xbb7d974c	-0.0038694916
55	0xbcdc07c7	-0.026859177
56	0x3d2dac4f	0.042400654
57	0xbc3f6959	-0.011682832
58	0x3c9ac891	0.018894466
59	0xbdcd289c	-0.10017511
60	0x3db18d0c	0.08669481
61	0xbc8deaca	-0.01732387
62	0xbdb4ba36	-0.088245794
63	0x3c0f6c16	0.008753797
64	0x3e1fa41a	0.15589944
65	0x3d446f55	0.047957737
66	0x3df56dae	0.1198381
67	0xbdc39254	-0.09549394
68	0x3dab7efd	0.083738305
69	0x3db8c61d	0.09022162
70	0x3d927a3b	0.0715222
71	0x3be6973b	0.007037071
72	0xbd68fb38	-0.056880206
73	0x3e02237c	0.12708849
74	0xbd5fcda1	-0.054639462
75	0xbd26753a	-0.04063914
76	0x3d5c1a84	0.053736225
77	0x3c00bbe9	0.007857301
78	0xbd7965db	-0.060888153
79	0xbdd8d5fd	-0.1058769
80	0x3d30dff5	0.043182332
81	0x3d57ea0f	0.05271345
82	0xbdecd8ea	-0.115648106
83	0xbcf48e1c	-0.02985292
84	0x3ce4d42c	0.027933203
85	0xbe02f480	-0.12788582
86	0xbdf1045a	-0.11768408
87	0xbdd8afc3	-0.10580399
88	0xbe03b44e	-0.1286175
89	0x3df73b64	0.12071875
90	0x3cc1b870	0.023647517
91	0x3d0ec1ac	0.03485267
92	0x3d4b9fd6	0.04971298
93	0x3d45618c	0.04818873
94	0x3cf5e8f3	0.030018305
95	0xbd8658ae	-0.06559883
96	0xbe49497e	-0.19656941
97	0x3dcee217	0.10101717
98	0xbd342ee5	-0.043990035
99	0xbda0f5d9	-0.07859392
100	0xbd458233	-0.04821987
101	0xbd992315	-0.074773945
102	0xbd970b99	-0.07375259
103	0x3d2ddf3d	0.042449225
104	0xbddbe6e0	-0.10737395
105	0xbd684ffe	-0.05671691
106	0xbdc5754c	-0.09641513
107	0xbcc793ce	-0.024362471
108	0xbcb69aab	-0.022290548
109	0xbc7cfd84	-0.015441302
110	0xbd28cb03	-0.041209232
111	0xbe042a6f	-0.12906812
112	0x3e15cf1c	0.14629787
113	0x3d2caecf	0.042158898
114	0x3d25a9d3	0.04044516
115	0x3d4c6f1e	0.049910657
116	0x3c6d0984	0.014467601
117	0x3dd894b0	0.10575235
118	0xbde6f816	-0.112777874
119	0x3c4061e8	0.011742093
120	0xbc8f0795	-0.01745967
121	0x3dd3ef7c	0.103484124
122	0xbdde2645	-0.10847143
123	0xbcfeb910	-0.031094104
124	0x3dd0d3c5	0.10196642
125	0xbd02652e	-0.031834774
126	0x3b196352	0.0023405147
127	0x3a10808d	0.00055123196

value_stream.0.weight f4 [64, 128]
0	0x3dc554d8	0.09635323
1	0xbd5ab395	-0.05339392
2	0x3dfe3a3f	0.12413453
3	0x3e33e2cb	0.17566983
4	0x3c6cce31	0.014453457
5	0xbc1b8ac1	-0.009493531
6	0x3cdc5de5	0.026900241
7	0xbe022bea	-0.12712064
8	0xbbb3b5a5	-0.0054843
9	0x3e306907	0.17227565
10	0xbca67cd0	-0.020323187
11	0x3d883752	0.066511765
12	0x3d2b5329	0.041827355
13	0x3e03bf46	0.12865934
14	0xbcbec083	-0.023285156
15	0xbd1472d0	-0.036242306
16	0xbd827b91	-0.06371225
17	0xbe1eeb1a	-0.15519372
18	0xbe4b9840	-0.19882298
19	0xbd9523d2	-0.07282223
20	0x3da6d917	0.08146875
21	0xbc1de126	-0.009636199
22	0x3d03b18a	0.032151736
23	0x3c547a16	0.012968561
24	0x3d5ac892	0.053413935
25	0x3ebe05d8	0.37113833
26	0x3ce00113	0.027344262
27	0xbbc827c7	-0.0061082575
28	0x3c91d492	0.017801557
29	0x3d32d58b	0.04366068
30	0xbcc3cb86	-0.023900758
31	0xbe201623	-0.15633444
32	0x3d7dae46	0.06193378
33	0x3dffe239	0.124943204
34	0xbdcd7ee6	-0.100339696
35	0x3d046dfd	0.032331455
36	0xbe4bcc1d	-0.19902082
37	0xbd58dd88	-0.052945644
38	0xbe1f7be2	-0.15574601
39	0xbd362435	-0.044468123
40	0x3e5049ef	0.20340703
41	0x3d9f7d96	0.077876255
42	0xbdf6dd80	-0.120539665
43	0x3da75b30	0.081716895
44	0x3b8f21b1	0.00436803
45	0x3e38a8d5	0.18033154
46	0xbd2a75b9	-0.041616175
47	0xbd8ee47d	-0.069771744
48	0xbe240124	-0.1601606
49	0xbc1a58de	-0.009420602
50	0x3e066976	0.13126168
51	0x3e44e8b3	0.19229393
52	0xbd6115df	-0.0549525
53	0x3e341b22	0.17588475
54	0x3eb9a808	0.3626101
55	0x3b2fce89	0.0026825985
56	0x3d3ced1c	0.046124563
57	0x3d5beaeb	0.053690832
58	0x3e7354f2	0.23762873
59	0xbc3bf68c	-0.011472356
60	0xbe140f97	-0.14459072
61	0x3df00712	0.117200986
62	0x3da86a3b	0.08223387
63	0xbe5b5293	-0.21418218
64	0xbe056ed2	-0.13030556
65	0xbccd150d	-0.025034452
66	0xbda4d18b	-0.0804778
67	0xbdb9d311	-0.09073461
68	0xbd0e8ea1	-0.03480399
69	0xbdd17ffe	-0.10229491
70	0xbd8912f2	-0.06693067
71	0xbe31a3e1	-0.17347671
72	0x3cc9a2a4	0.024613686
73	0xbdde75ff	-0.1086235
74	0xbe25196a	-0.16122976
75	0xbe07045a	-0.13185254
76	0x3d4161e2	0.04721249
77	0x3ec2b627	0.38029596
78	0xbe4d8b28	-0.20072615
79	0x3e8d675d	0.27617922
80	0xbd47b423	-0.048755776
81	0xbe83dfbf	-0.25756642
82	0xbe23ad8f	-0.15984176
83	0x3e2e1cc7	0.17003165
84	0x3d9a6e63	0.07540586
85	0x3dfd15b6	0.12357657
86	0x3d4eb776	0.05046793
87	0xbe192f80	-0.14959526
88	0x3e4675f0	0.19380927
89	0xbdd74fee	-0.10513292
90	0x3b79314b	0.0038023766
91	0x3d1e986e	0.038719587
92	0xbe5bccbf	-0.21464823
93	0xbda4646f	-0.08026969
94	0xbeacace0	-0.33725643
95	0x3db16967	0.08662682
96	0xbddd3ac1	-0.10802222
97	0x3d34557f	0.044026848
98	0x3e3bb4d5	0.183307
99	0x3eb3ee4e	0.3514275
100	0x3dbbfd39	0.09179158
101	0x3e996636	0.29960793
102	0x3d33fe5c	0.043943748
103	0x3cef149a	0.029184628
104	0x3ec8dfe8	0.39233327
105	0x3e989981	0.29804614
106	0x3d7788f6	0.06043335
107	0x3e384a46	0.17997083
108	0xbdc775c8	-0.09739262
109	0x3e7ad789	0.24496283
110	0xbd9d4d32	-0.076807395
111	0x3c45053e	0.012025176
112	0x3e30bc8e	0.17259428
113	0xbda8751e	-0.08225463
114	0xbe833cc2	-0.25632292
115	0x3e1de64b	0.15419881
116	0x3da54bd7	0.08071106
117	0x3e3d46d9	0.18484057
118	0x3e2935b4	0.16524392
119	0x3ea481e4	0.3213035
120	0x3e52dd18	0.20592153
121	0x3df806c4	0.121106654
122	0x3cb7de12	0.022444759
123	0xbe0ce6f6	-0.1375998
124	0xbcb5f8bd	-0.022213334
125	0xbd06e3b6	-0.032932006
126	0xbe8af08c	-0.27136648
127	0xbddd721c	-0.1081278
128	0xbd37cae9	-0.044871245
129	0xbe65e048	-0.22448838
130	0x3e48ccf8	0.1960944
131	0x3c2ab689	0.010419496
132	0xbe680391	-0.2265761
133	0x3e1e4fc8	0.15460122
134	0xbe315145	-0.17316158
135	0x3e070480	0.1318531
136	0x3db56585	0.08857254
137	0x3d01ef80	0.031722546
138	0x3dbbf14f	0.09176885
139	0x3d3a20c9	0.045441423
140	0xbe37524d	-0.17902489
141	0xbe808fe0	-0.25109768
142	0xbe096d40	-0.13420582
143	0xbdf0eb5a	-0.1176364
144	0xbe022501	-0.12709428
145	0xbcd1b5f6	-0.025599461
146	0x3cd118d6	0.025524538
147	0xbd6d34cc	-0.05791168
148	0x3db3c5a4	0.08777931
149	0xbc987c49	-0.018613951
150	0xbe2fdae5	-0.17173345
151	0x3b418d7e	0.0029533799
152	0xbe2604b7	-0.16212736
153	0xbcc46ced	-0.023977721
154	0xbe5e1e84	-0.21691328
155	0xbe2c4d49	-0.16826357
156	0x3ea578a6	0.3231861
157	0x3da5dbba	0.0809855
158	0x3e6daeb6	0.23211178
159	0xbdd26897	-0.10273855
160	0xbe022820	-0.12710619
161	0x3dcc2ee7	0.099698834
162	0x3cacee74	0.021109797
163	0x3e1669dc	0.1468882
164	0xbe4268e6	-0.18985328
165	0xbda9f78f	-0.08299171
166	0xbe16c20a	-0.14722458
167	0x3e3525f4	0.17690259
168	0xbaff6b16	-0.001948687
169	0xbdd9ecae	-0.10640846
170	0x3e34cb93	0.17655782
171	0xbde5d810	-0.11222851
172	0xbe565821	-0.20932056
173	0x3de6ecfc	0.1127567
174	0xbaff3aa4	-0.0019472432
175	0xbe1d4980	-0.1536007
176	0xbd60f06d	-0.054916788
177	0xbd891665	-0.066937245
178	0xbcc0d8dd	-0.023540908
179	0x3db7e4ce	0.08979188
180	0xbd4547af	-0.048164066
181	0xbbce982f	-0.006304763
182	0xbb360a53	-0.002777715
183	0x3e901c55	0.28146616
184	0x3d91929b	0.07108041
185	0xbd7eed06	-0.062237762
186	0xbe3d5669	-0.18489994
187	0x3d84938d	0.064734556
188	0x3e64080b	0.22268693
189	0x3dd933f8	0.106056154
190	0x3d478dcc	0.048719212
191	0xbdbc0276	-0.09180157
192	0x3c20c5e2	0.009812804
193	0xbcf54019	-0.02993779
194	0x3e272c15	0.1632541
195	0xbcbd06f8	-0.023074612
196	0x3b295d40	0.0025842935
197	0xbe1c20ea	-0.1524693
198	0x3d651b78	0.0559344
199	0x3e664ac8	0.22489464
200	0x3e11d76f	0.14242338
201	0x3c9a4394	0.018831052
202	0xbc7fb88a	-0.015607962
203	0x3db55623	0.0885432
204	0xbd784660	-0.06061399
205	0xbcdad3ff	-0.026712416
206	0x3dee600a	0.11639412
207	0x3d005cc5	0.031338472
208	0xbdb51f25	-0.08843831
209	0xbecb48c2	-0.39703947
210	0x3e7acf23	0.24493079
211	0xbe2a3480	-0.1662159
212	0xbeb08c1f	-0.34481904
213	0xbe7fb73a	-0.24972239
214	0xbe5c5be9	-0.21519436
215	0x3e2489ce	0.16068193
216	0x3db3ec13	0.08785262
217	0xbea899ad	-0.32929745
218	0x3cc7f41d	0.024408394
219	0x3d3d0afe	0.04615306
220	0xbe768083	-0.24072461
221	0xbc7f91ef	-0.015598758
222	0xbdafe0a5	-0.085877694
223	0xbe948861	-0.290103
224	0x3e9175b7	0.28410122
225	0xbd3bc80c	-0.045845076
226	0x3e4d1505	0.2002755
227	0x3d89e26e	0.06732641
228	0xbe014386	-0.12623414
229	0x3d55897c	0.05213307
230	0xbd81943a	-0.063271
231	0x3db5d24c	0.088780016
232	0xbd03b4d7	-0.032154884
233	0x3e490992	0.19632557
234	0xbb215875	-0.0024619375
235	0x3e499de2	0.19689134
236	0x3d26d9a0	0.040734887
237	0xbcdfd7b1	-0.02732453
238	0x3b947d85	0.0045315647
239	0xbc6a4d2a	-0.014300624
240	0x3d85c6c3	0.065320514
241	0x3d1320cb	0.035919946
242	0x3db7d387	0.089758925
243	0xbdc3f209	-0.09567649
244	0xbe74164c	-0.2383663
245	0xbda2b465	-0.07944564
246	0xbc1c7b38	-0.009550862
247	0x3d924ec1	0.07143927
248	0xbe3964df	-0.18104886
249	0xbd223aaa	-0.039606728
250	0xbdc284f1	-0.09498013
251	0x3e0bc119	0.1364788
252	0x3d26560c	0.040609404
253	0x3de33380	0.11093807
254	0xbe864594	-0.2622496
255	0xbc56ebd8	-0.013117753

value_stream.0.bias f4 [64]
0	0xbde4bb90	-0.11168587
1	0xbd3deeda	-0.046370365
2	0x3c36dadb	0.011160578
3	0xbd533aca	-0.051569737
4	0x3dc34e5d	0.09536431
5	0xb928046e	-0.00016023379
6	0xbda45e32	-0.08025779
7	0x3cfd6a01	0.030934336
8	0x3c98833d	0.018617267
9	0xbd26d4b1	-0.040730182
10	0x3d18e5a4	0.037328377
11	0x3d83a13e	0.06427239
12	0x3d9e5a3d	0.07732055
13	0xbd1a03fa	-0.03760145
14	0x3dea1217	0.114292316
15	0x3d1b27fc	0.03787993
16	0xbcb9b7a4	-0.022670574
17	0xbde68bbf	-0.11257123
18	0xbda0a83d	-0.07844589
19	0x3dfd9b46	0.12383132
20	0x3da8b856	0.08238284
21	0xbd8ef8c0	-0.06981039
22	0x3d2d115a	0.042252876
23	0x3dac25a3	0.08405616
24	0xbd345b2b	-0.044032257
25	0xbdddc33d	-0.10828254
26	0xbbe15dcc	-0.0068776365
27	0x3d40c781	0.04706526
28	0x3c61f1c5	0.0137905525
29	0xbd132faf	-0.035934146
30	0xbcbad844	-0.022808202
31	0x3b8f092d	0.0043651075
32	0x3e0f3a77	0.13987146
33	0xba6b5361	-0.0008976963
34	0x3e28c50b	0.16481416
35	0xbe0d5d15	-0.13805039
36	0x3c27a6bf	0.010232626
37	0x3cb532b2	0.0221189
38	0xbddc58f4	-0.10759154
39	0xbc7c0e63	-0.015384289
40	0xbdfa2297	-0.12213629
41	0x3c8c6e2d	0.01714238
42	0x3d8bf2e0	0.06833434
43	0x3d579a7e	0.05263757
44	0x3d5c92cd	0.053850938
45	0x3d0f005e	0.03491246
46	0x3d429a73	0.047510576
47	0x3dff584d	0.12468014
48	0x3d246ac0	0.040140867
49	0x3d031287	0.03200009
50	0xbd130dac	-0.03590171
51	0x3cd54934	0.026035883
52	0x3c7e8aee	0.015536053
53	0xbd9ff8f2	-0.078111544
54	0x3d98df75	0.07464496
55	0xbdf3af4d	-0.1189867
56	0xbdfb23bc	-0.12262675
57	0xbc9bba98	-0.019009873
58	0x3c7d072f	0.015443607
59	0x3d09e774	0.033667997
60	0x3def73bf	0.11691999
61	0x3d8cd65a	0.06876822
62	0xbced6f35	-0.028983692
63	0x3d74f9ce	0.059808545

value_stream.2.weight f4 [1, 64]
0	0xbe3a8f2e	-0.18218681
1	0xbea8d853	-0.32977542
2	0xbbe6b57a	-0.0070406767
3	0xbe317a47	-0.17331801
4	0x3db8b804	0.09019473
5	0xbe1462b5	-0.14490779
6	0xbcfa91e7	-0.03058715
7	0xbe6b703a	-0.2299203
8	0x3d4655b9	0.048421595
9	0xbc9e46ac	-0.019320808
10	0x3d61baef	0.055109914
11	0x3dff535f	0.12467074
12	0x3eaa2940	0.33234596
13	0xbd2ddb39	-0.042445395
14	0x3f08cb33	0.5343506
15	0x3ea7dc39	0.32785204
16	0x3e26c887	0.16287433
17	0xbda97472	-0.08274163
18	0xbd89d55b	-0.067301475
19	0x3f01c3c9	0.5068937
20	0x3dc8a781	0.09797574
21	0xbe851109	-0.2598956
22	0x3e31c5b5	0.17360575
23	0x3e105487	0.14094745
24	0xbe902152	-0.2815042
25	0xbd53fce9	-0.051754866
26	0x3de08dcd	0.10964546
27	0x3eaab3d9	0.33340338
28	0xbe286e7f	-0.16448401
29	0xbe4913b8	-0.19636428
30	0xbde29161	-0.11062885
31	0xbde961d1	-0.1139561
32	0x3e163bef	0.146713
33	0xbe4e7f3f	-0.20165728
34	0x3d913435	0.07090036
35	0xbdfb5e26	-0.12273817
36	0xbe7b6e03	-0.24553685
37	0xbc0936a9	-0.008374848
38	0xbec7ca1a	-0.3902138
39	0xbe558f9d	-0.20855565
40	0xbeb83d59	-0.35984305
41	0xbe20f4f7	-0.15718447
42	0x3eca811c	0.39551628
43	0x3e9abdc4	0.30222905
44	0x3ec8b11c	0.39197624
45	0xbe07acdb	-0.13249533
46	0x3df6515b	0.12027236
47	0x3e4a2459	0.19740428
48	0xbdd78e61	-0.105252035
49	0xbe1a60a2	-0.15075925
50	0xbe85d07d	-0.26135626
51	0x3e555a2b	0.20835178
52	0x3e079be6	0.13243064
53	0xbe48bd7c	-0.19603533
54	0xbe59ae9c	-0.21258014
55	0xbd01c923	-0.03168596
56	0xbe0a01c2	-0.13477233
57	0x3d8734b0	0.06601846
58	0x3db0c59c	0.08631441
59	0x3e33c122	0.17554143
60	0x3ec03fcb	0.3754867
61	0x3eb92b53	0.36165866
62	0xbe104ddd	-0.14092202
63	0xbe024956	-0.12723288

advantage_stream.0.weight f4 [64, 128]
0	0x3da0c7d0	0.07850611
1	0xbb53e163	-0.0032330386
2	0xbdde2465	-0.108467855
3	0xbeb15ceb	-0.34641203
4	0xbe9ac692	-0.30229622
5	0xbd88f66e	-0.06687628
6	0x3e0d9ff5	0.1383055
7	0xbdd1fb6a	-0.102530316
8	0x3d51fb4e	0.051265053
9	0xbdfa492b	-0.12220987
10	0x3e09473b	0.13406079
11	0x3db7c79a	0.08973618
12	0xbe8e91bf	-0.2784557
13	0xbe164ad3	-0.1467698
14	0x3e540280	0.20704079
15	0xbce2156b	-0.027598104
16	0x3c960793	0.018314159
17	0x3d2a8bd1	0.041637246
18	0x3e0c3637	0.13692556
19	0x3e309466	0.1724411
20	0xbe640dbe	-0.22270867
21	0x3e1cdddb	0.15319006
22	0x3dbf9117	0.093538456
23	0x3e9d711b	0.30750355
24	0xbdba097e	-0.09083842
25	0x3d43ac9f	0.047772046
26	0x3d63d2ac	0.055620834
27	0x3e20effb	0.15716545
28	0x3ba4c6f6	0.005028601
29	0xbdafa9a9	-0.08577282
30	0x3f20bfcc	0.6279266
31	0xbc34c4cc	-0.011033248
32	0xbe1ea95d	-0.15494294
33	0xbea2afa3	-0.31774625
34	0xbea7c0d3	-0.327643
35	0xbdf4c772	-0.11952104
36	0xbdfd32ef	-0.123632304
37	0xbe39f08a	-0.18158165
38	0x3dfcb802	0.12339784
39	0x3c91c86b	0.017795762
40	0x3c17d725	0.009267603
41	0xbe198fef	-0.14996313
42	0xbde2a81a	-0.11067219
43	0x3db4ccc1	0.08828116
44	0x3e326269	0.17420353
45	0xbd8d0033	-0.068848036
46	0xbe36a30f	-0.1783564
47	0x3aa13cea	0.0012301479
48	0x3e2f74fe	0.17134473
49	0xbe0a7eb3	-0.13524894
50	0x3dc99823	0.09843471
51	0x3e5123a0	0.20423746
52	0xbe2030a6	-0.15643558
53	0x3d860a60	0.065449476
54	0xbdb4a9bc	-0.08821437
55	0x3db8bc70	0.090203166
56	0xbe081765	-0.13290174
57	0x3e0e2ac7	0.13883506
58	0x3da83b71	0.082144625
59	0xbe1b5f65	-0.15173109
60	0xbca2d818	-0.019878432
61	0xbddc49d0	-0.10756266
62	0x3c43a5e0	0.011941403
63	0xbd503342	-0.050830133
64	0xbda1dc6f	-0.079033725
65	0x3d848800	0.064712524
66	0xbcf9412f	-0.03042659
67	0x3db0ca5d	0.08632348
68	0x3cf82af2	0.030293915
69	0x3e4f488c	0.20242518
70	0x3d029d1d	0.031888116
71	0xbdfc23df	-0.12311529
72	0xbe8f22c0	-0.279562
73	0x3cadbc1d	0.021207863
74	0xbc687bde	-0.0141896885
75	0x3e768e20	0.24077654
76	0xbdf0a305	-0.117498435
77	0x3db369c1	0.08760405
78	0xbe3942d3	-0.18091898
79	0x3cd9700b	0.026542684
80	0xbcf760f6	-0.030197602
81	0xbe25a115	-0.16174729
82	0x3dcfac7c	0.10140321
83	0xbe77564e	-0.24154016
84	0x3c99ec3e	0.018789407
85	0xbdee5cce	-0.11638795
86	0x3db89c2a	0.09014161
87	0xbd3c4aa2	-0.045969613
88	0x3d6f82f2	0.05847449
89	0xbdd40108	-0.10351759
90	0x3a0b2691	0.0005308176
91	0xbf143941	-0.5789986
92	0x3b432df5	0.0029782031
93	0xbd4d236c	-0.05008261
94	0xbdd6d289	-0.10489375
95	0x3e244762	0.16042855
96	0xbc3a1ca3	-0.011359367
97	0xbda3338a	-0.07968815
98	0x3d67f00b	0.056625407
99	0x3d8bf38d	0.06833563
100	0x3e4ac63c	0.19802183
101	0xbdeebf20	-0.11657548
102	0x3e1924cd	0.14955445
103	0x3d88965e	0.06669305
104	0x3dc1afa7	0.09457331
105	0xbd92f853	-0.0717627
106	0xbd638ad4	-0.05555232
107	0xbe3ce871	-0.18448044
108	0x3d8bb4ef	0.0682162
109	0x3e3c962d	0.18416663
110	0xbeb11134	-0.34583437
111	0x3e936fa3	0.2879611
112	0x3d96a939	0.073564954
113	0xbde85400	-0.11344147
114	0x3e71ebd7	0.23625122
115	0xbda92cfc	-0.08260533
116	0x3e036252	0.12830475
117	0xbd6120f0	-0.054963052
118	0x3e3e8474	0.18605214
119	0xbccedbc7	-0.025251282
120	0x3e59d2ad	0.21271773
121	0x3e0c5098	0.13702619
122	0x3e66d0dc	0.22540611
123	0xbdf9a2d2	-0.12189259
124	0x3c38bd1d	0.011275557
125	0xbc56274e	-0.013070894
126	0xbe18df1c	-0.1492886
127	0x3db1f065	0.0868843
128	0xbdc9a254	-0.09845415
129	0xbe1ebe1f	-0.15502213
130	0xbd7d4d7c	-0.061841473
131	0xbe11bc83	-0.14232068
132	0x3d93ebc1	0.07222701
133	0x3d1f4c23	0.03889097
134	0xbdb12983	-0.08650496
135	0x3d1066fa	0.035254456
136	0xbd94fafc	-0.07274434
137	0xbc2fd92b	-0.010732929
138	0x3e8a3f58	0.27001452
139	0xbc248ad9	-0.0100428695
140	0xbd82932c	-0.06375727
141	0xbdfc1138	-0.12307972
142	0xbe4b5669	-0.19857182
143	0x3e880953	0.26569614
144	0xbdb74b8c	-0.08949956
145	0x3e932ad9	0.28743628
146	0xbd08b7d1	-0.033378426
147	0x3cbc8d6d	0.023016656
148	0xbdc2813d	-0.094973065
149	0xbdaa62f8	-0.08319658
150	0x3d713254	0.058885887
151	0x3e9094e0	0.28238583
152	0xbd341ed4	-0.043974712
153	0xbe3c6d5f	-0.18401097
154	0x3c9cb0be	0.019127246
155	0x3eb275be	0.34855455
156	0xbddb801c	-0.10717794
157	0x3d4aad90	0.04948193
158	0x3decb48d	0.11557875
159	0x3dd57d0e	0.10424243
160	0xbd59e84c	-0.05320005
161	0x3d742141	0.059602026
162	0xbe947653	-0.28996524
163	0xbd05aa2f	-0.032633003
164	0xbda6a28c	-0.08136472
165	0x3db91eb5	0.0903906
166	0x3e3c9725	0.18417032
167	0x3d3ee7e9	0.046607886
168	0xba57cf8c	-0.0008232526
169	0x3c3bfbd6	0.011473617
170	0xbde92248	-0.11383492
171	0x3d7d788a	0.061882533
172	0xbd408efb	-0.047011357
173	0x3de33fd9	0.11096162
174	0xbd502cd1	-0.05082399
175	0x3dd65c78	0.10466856
176	0xbe26e19c	-0.16297
177	0xbe3f1b05	-0.18662651
178	0x3ee6e5dd	0.45097247
179	0xbd931bca	-0.07183035
180	0xbd836865	-0.06416396
181	0x3e9bcf11	0.30431417
182	0x3e1fd30c	0.15607852
183	0x3d70f2c6	0.058825277
184	0x3eba5e21	0.3639994
185	0xbe0153a4	-0.12629563
186	0x3e1920e6	0.14953956
187	0xbd19e15d	-0.03756844
188	0x3d15b54a	0.036549844
189	0x3c0046e5	0.007829403
190	0x3dc11449	0.09427697
191	0xbe4ea585	-0.20180328
192	0xbd88490f	-0.0665456
193	0xbd5b7ec7	-0.0535877
194	0x3bd1773d	0.006392388
195	0xbc8814f4	-0.016611554
196	0xbe2038a0	-0.156466
197	0x3d8e909c	0.06961176
198	0xbd798179	-0.06091449
199	0x3d8bf490	0.06833756
200	0xbd822a1d	-0.06355689
201	0x3d5798ae	0.05263584
202	0x3ed7e80c	0.42169225
203	0x3de0989c	0.10966608
204	0x3b4f2c86	0.0031612231
205	0x3e4f8db6	0.20268902
206	0xbc0ba58d	-0.008523357
207	0xbd8d2f61	-0.068938024
208	0x3c9446f4	0.01810024
209	0x3e1d5e36	0.1536797
210	0x3e129409	0.14314283
211	0xbe6d4ecb	-0.23174588
212	0xbe56fcb9	-0.20994844
213	0x3e715c8f	0.23570465
214	0xbcebe75f	-0.02879685
215	0xbeffd363	-0.49965963
216	0x3c99fda2	0.0187977
217	0xbe256eb7	-0.16155516
218	0x3cd164c8	0.025560752
219	0xbe735e9a	-0.23766556
220	0xbbd5dbe9	-0.0065264595
221	0xbdd43f83	-0.103636764
222	0xbdff523a	-0.12466855
223	0xbc6f6120	-0.014610559
224	0x3d696414	0.056980208
225	0x3d2ee84b	0.042702
226	0x3e6a6145	0.22888668
227	0xbe72b082	-0.23700145
228	0x3df245db	0.1182973
229	0xbd945c8b	-0.07244214
230	0x3d6650c0	0.056229353
231	0xbde403e1	-0.11133552
232	0x38774a80	5.8958773e-05
233	0xbe3ac074	-0.18237478
234	0xbd90339b	-0.07041093
235	0x3e697878	0.22799861
236	0x3dd39e1e	0.10332893
237	0xbd992886	-0.07478432
238	0xbd6f0518	-0.058354467
239	0x3f4126f9	0.7545009
240	0xbb3433f0	-0.0027496777
241	0xbe3e9f0a	-0.18615356
242	0xbd528f34	-0.0514061
243	0xbcde039b	-0.027101329
244	0x3c1b420c	0.009476196
245	0xbba302a9	-0.0049746823
246	0x3deb2b3a	0.11482854
247	0x3e390d10	0.18071389
248	0xbdf6a363	-0.12042882
249	0x3dcd58c2	0.10026695
250	0x3c3c35ac	0.011487406
251	0x3c91a33f	0.017778037
252	0xbc319674	-0.0108390935
253	0x3cb001b1	0.021485182
254	0xbe08d660	-0.13363028
255	0x3e09fa16	0.13474306

advantage_stream.0.bias f4 [64]
0	0x3d31e11d	0.043427575
1	0x3c8a4116	0.016876739
2	0xbcfcc513	-0.030855691
3	0xbc1b79d9	-0.0094895
4	0xbd0f03dc	-0.03491579
5	0xbd944067	-0.07238846
6	0xbd6797d4	-0.05654128
7	0xbd885449	-0.06656701
8	0xbcd81515	-0.02637724
9	0x3d638327	0.055545
10	0xbdaa56b5	-0.08317319
11	0x3da5cd98	0.080958545
12	0xbcd0e50e	-0.025499847
13	0xbd888edb	-0.066678725
14	0x3dc7f015	0.09762589
15	0xbc8af893	-0.016964233
16	0x3dc41a9f	0.0957539
17	0xbd28d841	-0.04122186
18	0xbd861752	-0.06547417
19	0xbd1d49d7	-0.038400497
20	0xbd241f6f	-0.04006904
21	0x3d856b22	0.065145746
22	0xbb84511e	-0.0040379902
23	0xbbd7b591	-0.0065829237
24	0x3d8db1d4	0.06918684
25	0x3be253d7	0.006906967
26	0xbdbde07d	-0.09271333
27	0xbd536bd9	-0.051616523
28	0x3c4ae11c	0.012382772
29	0xbdb64e1b	-0.08901616
30	0xbc018558	-0.007905327
31	0x3bf8606a	0.007579853
32	0x3cc75ab3	0.024335241
33	0xbd738bca	-0.059459485
34	0xbc3e136e	-0.011601312
35	0x3d77619a	0.060395814
36	0x3d619d48	0.055081636
37	0xbd4cd75d	-0.050010074
38	0xbab571de	-0.0013843139
39	0xbbe8abd7	-0.007100563
40	0xbb3d7e63	-0.0028914444
41	0xbd2fc142	-0.042908914
42	0x3a2f9e2d	0.000669929
43	0xbd0c633a	-0.034274317
44	0xbdfe76d0	-0.124250054
45	0xbdaa223d	-0.08307312
46	0x3d3dcd1c	0.046338186
47	0xbd56ad65	-0.052411456
48	0x3dd26a4d	0.102741815
49	0x3d9e778b	0.07737645
50	0xbd040d22	-0.032239087
51	0x3c2166e6	0.009851193
52	0xbe04781e	-0.12936446
53	0x3d1a8b0f	0.037730273
54	0x3d8f82ed	0.07007394
55	0xbd91eb6f	-0.071249835
56	0x3d19411e	0.037415616
57	0xbde5eee4	-0.112272054
58	0x3dbe3132	0.09286727
59	0xbda86207	-0.08221822
60	0xbd32c452	-0.043644257
61	0xbda21897	-0.079148464
62	0xbd501095	-0.050797064
63	0x3c05c8d4	0.008165557

advantage_stream.2.weight f4 [4, 64]
0	0x3e5b4ef3	0.21416835
1	0x3dbd3c43	0.0924001
2	0x3f24aa16	0.6432203
3	0xbdbfd44c	-0.09366664
4	0x3e1abe93	0.15111761
5	0x3e224150	0.15845227
6	0xbdd5c669	-0.10438234
7	0xbf681e91	-0.9067164
8	0x3e75b8f9	0.23996343
9	0x3e6cd848	0.2312938
10	0xbe891420	-0.26773167
11	0xbf408d92	-0.7521602
12	0x3d522ca9	0.051312122
13	0xbde70485	-0.11280159
14	0x3eb07b06	0.3446886
15	0xbcb92380	-0.022599936
16	0x3e9cecfc	0.30649555
17	0xbd02fe9a	-0.03198109
18	0xbc048bf8	-0.008090012
19	0xbe66648b	-0.22499292
20	0x3d85038b	0.064948164
21	0xbd9f9ef8	-0.07793993
22	0xbdc3f6bf	-0.095685475
23	0x3dcef5a2	0.101054445
24	0xbd82aaf4	-0.06380263
25	0xbed85013	-0.42248592
26	0x3ebf3afe	0.37349695
27	0xbd995818	-0.07487506
28	0x3ea24bb4	0.31698382
29	0x3e7b0dfe	0.24517056
30	0xbe951059	-0.29114035
31	0x3e97256e	0.29520744
32	0x3ec3b3e9	0.38223198
33	0x3e4e3517	0.2013744
34	0xbdae4b80	-0.08510494
35	0x3ca5ddd2	0.020247374
36	0x3d9ea91d	0.077470995
37	0x3e32eb86	0.17472658
38	0xbe6612e8	-0.2246815
39	0x3d1cb57c	0.038259014
40	0x3d9fad8d	0.07796774
41	0x3dc9632c	0.09833369
42	0xbf3aaa01	-0.72915655
43	0x3ec3b479	0.38223627
44	0x3ec7e1b4	0.39039385
45	0x3eff5562	0.4986983
46	0x3f1e1611	0.6175242
47	0xbcf8c541	-0.030367495
48	0xbd7bcd51	-0.0614751
49	0x3d2ec2d5	0.042666275
50	0xbf3527d7	-0.70763916
51	0x3e422b56	0.18961844
52	0x3ed47b78	0.4150045
53	0xbe59dfd0	-0.21276784
54	0x3f04b239	0.51834446
55	0xbd62f8b0	-0.055412948
56	0x3eced4a0	0.40396595
57	0xbdb5cc2c	-0.08876833
58	0xbdf3291d	-0.11873076
59	0xbd0147b2	-0.031562515
60	0x3dbe9b58	0.09306973
61	0xbda8292b	-0.08210977
62	0x3e926c40	0.28598213
63	0x3e392d6d	0.18083735
64	0x3e1b3e8c	0.15160578
65	0x3c87b4bb	0.016565671
66	0x3dc008c4	0.09376672
67	0xbe81d5a2	-0.253583
68	0xbf06265f	-0.524023
69	0xbd6cfcf6	-0.05785843
70	0x3d81c7a6	0.06336908
71	0x3ddc75dc	0.107646674
72	0xbd18bd00	-0.03728962
73	0x3e6d2d19	0.23161735
74	0xbf31a81e	-0.6939715
75	0x3dfe9a68	0.124317944
76	0xbe0d6f9d	-0.13812108
77	0xbddb359e	-0.10703586
78	0x3e831c4b	0.25607523
79	0xbd80648a	-0.06269176
80	0xbd9e2eb7	-0.07723754
81	0xbe77a1d9	-0.24182834
82	0x3d51b275	0.05119558
83	0x3e07e7a8	0.13271964
84	0xbe6d86fc	-0.23196024
85	0x3eab7c35	0.334932
86	0xbf209c92	-0.6273891
87	0xbeb3c976	-0.3511464
88	0xbe906522	-0.28202158
89	0x3a098ee0	0.0005247425
90	0x3e3edd2e	0.18639061
91	0xbeae3442	-0.34024245
92	0xbcb787d2	-0.022403631
93	0xbe28574c	-0.16439551
94	0xbf00a37a	-0.50249445
95	0x3e43a0d6	0.19104323
96	0x3ebcb043	0.36853227
97	0x3e83f5c4	0.25773442
98	0xbc767603	-0.015042785
99	0xbce3ca0a	-0.0278063
100	0xbdc4bb94	-0.0960609
101	0x3e677819	0.22604407
102	0x3e62f4ef	0.22163747
103	0x3e663f24	0.22485024
104	0xbf469cb6	-0.7758287
105	0xbd00e0f8	-0.031464547
106	0x3ab521f4	0.0013819323
107	0x3dc5f393	0.09665599
108	0xbe8423db	-0.25808606
109	0x3d3a4c53	0.045482945
110	0x3eb2035c	0.34768188
111	0xbe18cce0	-0.14921904
112	0x3ee8d001	0.45471194
113	0x3eab991b	0.33515248
114	0xbd330e20	-0.043714643
115	0xbdb8dc3d	-0.09026382
116	0xbe82b7f4	-0.2553097
117	0x3ae473cc	0.001742953
118	0xbdc11e9f	-0.09429669
119	0x3df3b787	0.119002394
120	0x3e1f2742	0.1554232
121	0xbd4f99c2	-0.050683744
122	0x3f31ec75	0.6950143
123	0x3d46fd94	0.048581675
124	0x3e86b977	0.26313373
125	0x3d295500	0.041340828
126	0x3e3800e6	0.17969093
127	0x3e9d5721	0.30730537
128	0xbcc7825f	-0.024354158
129	0xbea07a0d	-0.31343117
130	0xbf08ceba	-0.5344044
131	0xbd9955c7	-0.07487064
132	0xbdfd8eae	-0.123807296
133	0xbe1209af	-0.14261506
134	0xbdab964d	-0.08378277
135	0x3f20eb91	0.62859446
136	0xbd8f6c55	-0.070030846
137	0xbdbdd349	-0.09268815
138	0x3f1dd719	0.6165634
139	0x3ea4a062	0.32153612
140	0xbe1feabb	-0.15616886
141	0xbe4b2a66	-0.19840392
142	0xbeaad8af	-0.3336844
143	0x3e8a2294	0.26979506
144	0x3e6ddb13	0.23228101
145	0xbdd51fb5	-0.10406438
146	0xbf31077f	-0.69152063
147	0xbe774a96	-0.24149546
148	0x3f0dcb81	0.5538865
149	0xbb1bcf23	-0.0023774586
150	0x3ee7adb7	0.4524972
151	0x3e54ab1d	0.207684
152	0x3d4a5082	0.049393184
153	0x3e96275a	0.29326898
154	0xbe4887ba	-0.19583026
155	0x3ec21f69	0.3791459
156	0x3eb5fd42	0.35544783
157	0xbe0538b7	-0.13009916
158	0x3ed7209f	0.42017075
159	0x3e0823dc	0.1329493
160	0xbedfdb28	-0.4372189
161	0xbc8ffba0	-0.017576039
162	0xbe405629	-0.18782867
163	0x3f0df93b	0.5545842
164	0xbc43a59f	-0.011941343
165	0xbf0ce2aa	-0.5503336
166	0x3e97909a	0.2960251
167	0xbd48a8de	-0.04898917
168	0x3e87ab30	0.26497793
169	0x3d976898	0.073929965
170	0x3ed29792	0.41131264
171	0xbcd66c8e	-0.02617481
172	0x3de47286	0.11154656
173	0xbe94f813	-0.29095516
174	0xbdb5c7a0	-0.08875966
175	0xbe098146	-0.1342822
176	0xbe141ef6	-0.14464936
177	0xbea687e1	-0.32525542
178	0x3db5c412	0.08875288
179	0x3e456070	0.19275069
180	0x3db9ad7d	0.090662934
181	0xbeefe0fe	-0.46851343
182	0xbd281c7a	-0.041042782
183	0xbe24b825	-0.1608587
184	0xbf102dd4	-0.5631993
185	0xbd030cf8	-0.03199479
186	0xbd9b285f	-0.075760596
187	0x3d958dec	0.0730246
188	0xbd810b55	-0.063009895
189	0x3efc53b5	0.49282613
190	0xbe4072d4	-0.18793803
191	0xbe8493f6	-0.25894135
192	0x3d876af0	0.066121936
193	0x3dc96a12	0.098346844
194	0x3e37abee	0.1793668
195	0xbeee7241	-0.46571544
196	0xbe014d85	-0.12627228
197	0x3eb3e191	0.3513303
198	0xbe162193	-0.14661245
199	0x3edabab5	0.4272057
200	0x3e0a1e68	0.13488162
201	0x3e965fa9	0.29369858
202	0x3e2a7328	0.16645491
203	0x3d9eb267	0.07748871
204	0x3e1d7712	0.15377453
205	0x3c78b6c9	0.015180298
206	0xbdb511c3	-0.088412784
207	0xbe6114a7	-0.21980534
208	0xbed814e9	-0.42203453
209	0x3be5f9b9	0.0070182947
210	0x3e811b5d	0.2521619
211	0x3eb75e66	0.35814208
212	0xbd75a9f0	-0.05997652
213	0xbef80048	-0.48437715
214	0x3e7fe244	0.24988657
215	0x3e5d4778	0.21609294
216	0x3dc4f7a6	0.09617548
217	0x3e16ac8f	0.14714263
218	0xbed09d96	-0.4074523
219	0xbea6bedc	-0.3256749
220	0xbe377ffd	-0.17919917
221	0xbc64a3bf	-0.013955056
222	0x3d934087	0.07190042
223	0xbf1985f5	-0.5997003
224	0xbd789a22	-0.060693868
225	0x3e1f9828	0.15585387
226	0x3d71066e	0.058844022
227	0xbcfd5007	-0.03092195
228	0xbf23af23	-0.6393911
229	0xbeb30efa	-0.34972364
230	0x3d5be74d	0.053687382
231	0x3d8ff692	0.070294514
232	0x3f041a8e	0.5160302
233	0x3d8abf7a	0.067748025
234	0x3f0da045	0.55322677
235	0xbebbf1eb	-0.36708006
236	0x3d93294e	0.071856126
237	0xbeb92938	-0.3616426
238	0x3bb23e60	0.0054395646
239	0xbe121588	-0.14266026
240	0xbe837e92	-0.25682503
241	0xbec89e4b	-0.39183268
242	0x3e5dbe5c	0.21654648
243	0x3e208be8	0.1567837
244	0xbdb4adbd	-0.088222004
245	0x3ef40894	0.47662795
246	0xbdd1f7f6	-0.10252373
247	0x3d127903	0.035759937
248	0x3eff4e42	0.49864393
249	0xbc8f5872	-0.017498229
250	0xbe4b32a9	-0.19843544
251	0x3e8d8ef6	0.27648133
252	0x3da7c155	0.08191172
253	0x3dba5bb2	0.09099521
254	0xbe9377d0	-0.28802347
255	0xbec01fc5	-0.37524238

advantage_stream.2.bias f4 [4]
0	0xbccba27a	-0.024857748
1	0xbd78044a	-0.060550965
2	0xbdfe2de6	-0.12411098
3	0xbd1f0071	-0.03881878
