models/snake_dqn_ep495_score30_20250303_093911.pt (torch, 945506 bytes, 44 tensors)

feature_layers.0.weight f4 [128, 24]
00000000: 33c3 f9be 46d1 103f 6161 efbe 16ae 233e
00000010: c727 ba3e ccc4 1fbf a605 adbd bd5c 98be
00000020: a738 63bd a951 fabd 115b 95bd d204 66be
00000030: dceb 143e e24f e43d 9524 e3be 3ca6 073f
00000040: 1a50 49bf bdff 863f daa9 f13e ae88 cebe
00000050: 1310 023f 4dda d2bd 5967 ac3e f9a2 3cbd
00000060: a460 16bc 5fe1 e63d a008 90bc 4a3f 07bf
00000070: 8569 47be 4cf2 f0be a26e 8e3e 12dd 1d3b
00000080: 243d 44be 6d00 983d 601a 143e 87f7 143f
00000090: adbd 81bc f79e b13e 369e debc 8e64 9ebd
000000a0: de71 833e 3271 6b3f 19b0 d13d 3b52 93bd
000000b0: 136a 043c 15dd 35bd 44ad c93e f63c 17be
000000c0: 495e 63be 9c21 c6be 3a40 3d3d d966 13be
000000d0: 4a36 1abe 931b a9be a14b 843e 134e 853e
000000e0: 26b9 24be f7d3 efbe 0bbf 26be 733f 0cbf
000000f0: e972 2d3e eb73 89be 8e84 c83e f1b2 783d
00000100: 270f f3be f9a4 eebd 0ac0 b1be 7856 92be
00000110: 4f8e 14be b876 9b3d b3be cb3e 3ed8 08bd
00000120: 12a5 073e 594b a23e d318 603f 15e8 053f
00000130: cc22 0f3e 718e a53e 1865 773d 284b 863e
00000140: e80c a13e 93c9 933e d2a7 413e f852 563f
00000150: a798 fc3d 3234 8bbc b3eb 21bf 5755 ac3e
00000160: d63c 33bc a9cd 983d 5c59 a63d cb06 d8be
00000170: 0772 d63e 8b0d 4bbe c623 0f3f 844c 67be
00000180: 697c 3c3d 08fe 623f 1d36 54be 94d9 9bbe
00000190: 61ef 863e 9e8a bd3d b60b b1be 942b b6bd
000001a0: 8f32 d2bd da0f df3e 798d c23e 775f fd3d
000001b0: 4067 21bf 231a f6be 001d 89be a54f 35be
000001c0: 674d 2cbf a46d c43e 1dda 083f 867f 743e
000001d0: 7354 b93e 64d0 493e e8cc bdbd 881e 29be
000001e0: b91d f53d b704 273e 9137 97be 950d 323e
000001f0: 4980 56be cdd0 893e a900 57bd 5127 ccbd
00000200: 1100 b83e ad27 ff3d 27d1 0fbe b97f 84bd
00000210: 30c7 10bf 909b d63d 0bd8 c7be ea6f 4e3f
00000220: 0277 91be 4487 9f3e 4866 73be fd79 f7bd
00000230: 0aa3 d63e 331b 6fbe 81d0 443e 71a5 b5be
00000240: 5d84 56be 8340 e93d dd4e 9bbe 98a2 93be
00000250: bd57 053e f445 da3e bffe f7be b47d 443d
00000260: cb30 aa3e a887 023e 563e de3c 447c 163d
00000270: 23a9 553e 7b28 a3bd f934 aabe 0bdb 1c3b
00000280: 0615 91be cb51 5bbe 0c75 c1be 0f87 ad3e
00000290: 5a53 0a3e e597 033f fbb2 e2be 9b96 a93e
000002a0: f719 9d3a ebc6 b5bc 88af 49bc 26ed 44bd
000002b0: 94f7 9bbe 3b87 71be 9dd4 a63e 55d7 793e
000002c0: dffe ff3e 9b94 98bd 1ba5 833d c63c 7e3e
000002d0: dac6 a8be c997 9fbe 2abe cdbe 4415 7e3e
000002e0: 3a90 db3e e04a 6e3e 7afe 9fbc 2299 bcbd
000002f0: 968e 413e b280 87bc 5875 8f3e 8187 033f
00000300: f448 54bb d409 12be 5311 53be a164 a53e
00000310: e9b9 e6bd 7519 823d 3107 23be f46d e3bc
00000320: 30f4 dbbd 2c27 593e 4732 693e 17e1 f83e
00000330: b269 bcbe 8073 d73d 38f2 19be 2b84 21bd
00000340: 5b4a f73d 397f 893e 1099 1bbe f71e c7be
00000350: 880a f0be ed12 e23e db7e 03be 4421 323e
00000360: e12e b53e 3a3a 90be 1a4c b7bd 9dbd 983e
00000370: b6bf 5d3e d969 b1be 72c6 2d3e 0e88 1bbe
00000380: a602 c8be ff48 adbe 77bd d83e 4552 48be
00000390: e745 3cbe 58d1 803c 85cb 5bbe 06f2 aebe
000003a0: 9f61 bfbd cf92 01bf dea0 6b3d 65b4 e0bb
000003b0: 1af4 3cbe 09bf e93e eaad afbe 8457 d03d
000003c0: 4162 733e 42ef 2d3e b0cb 673e 1ed1 6dbe
000003d0: f24b 34be d98d c63a c6c4 75bd 392e 8bbe
000003e0: b578 293e 534b 943e 992a 66bd ea7d ea3e
000003f0: 2d49 3ebf 33c9 0dbe 2c15 66be 7ea5 dcbe
-0.48781738 0.56569326 -0.46753982 0.15984377 0.36358473 -0.62409663 -0.08448343 -0.29758254
-0.05547395 -0.12222607 -0.0729276 -0.22462776 0.14543098 0.11148049 -0.44363847 0.5298803
-0.7863785 1.0546795 0.471999 -0.40338653 0.5080578 -0.10295544 0.33672598 -0.04605386
-0.009178314 0.11273455 -0.017582238 -0.52830946 -0.19473846 -0.47059858 0.2781878 0.0024088067
-0.19163948 0.07421956 0.14463186 0.58190197 -0.015837515 0.34691593 -0.02717505 -0.07734023
0.2567281 0.919696 0.10238666 -0.071934186 0.008081931 -0.044400293 0.39390004 -0.14769349
-0.22203936 -0.38697517 0.04620383 -0.14394702 -0.15059772 -0.3302885 0.2583895 0.26036128
-0.16086254 -0.46841404 -0.16283815 -0.54784316 0.16938366 -0.2684625 0.3916363 0.060717527
-0.47472498 -0.1165256 -0.34716827 -0.28581595 -0.14507411 0.07591003 0.3979393 -0.03340935
0.13246563 0.3169811 0.8753788 0.52307254 0.13978118 0.32335237 0.060399145 0.26229215
0.3145516 0.28864726 0.18911675 0.8372035 0.123338036 -0.016992662 -0.63250273 0.3365886
-0.010939797 0.074611016 0.08122513 -0.42192683 0.4188387 -0.19829385 0.5591396 -0.22587782
0.046017084 0.8866887 -0.20723768 -0.30439436 0.26354507 0.09254955 -0.34579247 -0.088950306
-0.102635495 0.4356678 0.3799856 0.12371724 -0.6304817 -0.48066816 -0.26779938 -0.17706163
-0.67305607 0.383649 0.53457814 0.23876771 0.36197242 0.19708401 -0.092675984 -0.16515553
0.1196856 0.16310392 -0.2953458 0.17387994 -0.20947374 0.26917115 -0.052490864 -0.099684365
0.3593755 0.124587394 -0.14044629 -0.06469674 -0.56553936 0.1047889 -0.39032015 0.8063952
-0.28411108 0.31157887 -0.23769486 -0.12083814 0.41921264 -0.2335022 0.19220163 -0.35477784
-0.2094893 0.11389258 -0.30333605 -0.28834987 0.13021751 0.42631495 -0.48436543 0.047971442
0.3324035 0.12747061 0.027129333 0.036739603 0.20865302 -0.079667054 -0.3324354 0.002393427
-0.28336352 -0.2141792 -0.37784612 0.33892104 0.13508359 0.5140365 -0.44277176 0.33122715
0.0011985888 -0.022189578 -0.012309916 -0.048077725 -0.30462325 -0.23586743 0.32584086 0.24398549
0.4999914 -0.07450219 0.06427976 0.2482787 -0.32964212 -0.3117049 -0.40184146 0.248128
0.42883474 0.2327075 -0.019530524 -0.09208895 0.18902048 -0.016540859 0.28019214 0.5137864
-0.0032392116 -0.14261562 -0.20612077 0.32303336 -0.11265928 0.06352512 -0.15920712 -0.02776239
-0.107399344 0.21206349 0.22773086 0.4860923 -0.3679939 0.10520077 -0.15033805 -0.039432686
0.12074729 0.26854876 -0.15195107 -0.38890812 -0.46883035 0.44155064 -0.1284136 0.17395502
0.35387328 -0.28169423 -0.08950062 0.29832163 0.21655163 -0.34651068 0.16970232 -0.1518862
-0.3906452 -0.33844754 0.4233205 -0.19562633 -0.1838604 0.015724823 -0.21464355 -0.34169024
-0.093447916 -0.5061464 0.05752646 -0.006857442 -0.18452492 0.4565356 -0.34312373 0.10172942
0.2376795 0.16985801 0.22636294 -0.23224303 -0.17607096 0.0015148475 -0.06000211 -0.27183703
0.16549952 0.28963718 -0.056192968 0.4579919 -0.7433041 -0.13846283 -0.22469014 -0.4309501

feature_layers.0.bias f4 [128]
00000000: f645 3abe 79e7 0dbe 1405 dcbc ef4d 763e
00000010: a622 4a3e b169 41bc 57ca 513e dacd 863e
00000020: ba4f a03e 791b 663e de76 473e e494 97bc
00000030: 259c b33e ea8f 823c 6917 d0bc 7eb4 8f3d
00000040: 7374 b43c 481a f23d 677f abbd 1257 33be
00000050: daa7 983d 0306 52bd 12fb 963e ad40 4dbe
00000060: 7494 29be d646 283d 402a 24be 2238 d23d
00000070: 4107 263e 5035 c63e ecc6 b8bd 3fff 8abe
00000080: 32e7 98bd 92a8 b1bd 62c3 6ebc 8171 6c3e
00000090: d513 96bc 0b7e 0abe 0d99 6cbe b236 983e
000000a0: 33d0 8a3c 6111 eebd abeb 8fbe 3c9f be3e
000000b0: a3a8 87be 63b6 3cbc ffd0 58be dd8b d6bb
000000c0: 3ff1 2ebe 6b2c 0ebe 0e59 f23d d998 e4bd
000000d0: 72de 6bba c184 373d d920 0f3b ea45 02bd
000000e0: 3f1d 6cbe 1d26 10be e179 bbbd 4b32 963e
000000f0: 31e1 8ebd 7e92 d3bb 1b12 35be f1b9 633e
00000100: eb6b 8fbd 9392 83bc da36 22bd 5ccc 7c3e
00000110: f05e 113e fae9 713e d624 60bc 2f6b b23d
00000120: 681b a33e 84d5 843e d0db 403e 4cad 813e
00000130: 1493 ebbd da21 793e e231 9cbe a54e 77be
00000140: e6c3 6abe 62a2 2d3d 43e4 363c b564 3cbe
00000150: a8c9 a63c f4c4 903e 1107 31bc dc1a 063e
00000160: 1754 463b 4ea4 a5be 9107 bbbd d7c2 843e
00000170: 5dd4 8a3d 1dbb e03d 7edd fc3d 46d3 393d
00000180: a340 1e3e b0c3 24be f237 9c3c 9874 d8bc
00000190: 0df1 92bd acc6 9b3e 2a70 fb3d 1793 3bbb
000001a0: 9ef8 49bd 1105 4ebe 4982 9d3e 9b22 2e3b
000001b0: 7323 c2bc e3b0 afbe b703 e2bd c170 25be
000001c0: cb1f cabd fdee 8d3c aac0 a53d 7520 5e3e
000001d0: 9e59 aabe 3bf1 92be 9d6b 903e 49ed 123e
000001e0: 659d 5fbe b503 8f3d a087 36be 98ad 453e
000001f0: 705c 8b3d 145c 1dbe 7fca 1e3c b2cc 0cbe
-0.1819075 -0.13857831 -0.02685789 0.24053167 0.1973978 -0.011804984 0.20487343 0.26328927
0.31310827 0.22471417 0.19478938 -0.018503614 0.35080066 0.015937764 -0.025401788 0.07016848
0.022028184 0.11821419 -0.083739094 -0.17513683 0.0745389 -0.051275264 0.29488426 -0.20044203
-0.16560537 0.04108318 -0.16031742 0.10264613 0.16213705 0.3871255 -0.09022316 -0.27147862
-0.07465972 -0.0867473 -0.01457295 0.23090173 -0.018320004 -0.13524644 -0.23105259 0.2972923
0.01694498 -0.116244085 -0.28109488 0.3723086 -0.26495847 -0.011518094 -0.21173476 -0.0065474347
-0.17084216 -0.13884132 0.11833392 -0.11161966 -0.00089976855 0.04480434 0.0021839647 -0.031804956
-0.23058031 -0.14077039 -0.09154106 0.29335245 -0.069765456 -0.006456672 -0.17682688 0.222389
-0.070030056 -0.016061103 -0.03960309 0.24687332 0.14196372 0.23624411 -0.013680657 0.0871185
0.31856847 0.2594415 0.18833852 0.25327528 -0.11502662 0.2432932 -0.30506808 -0.24151094
-0.22926292 0.04239119 0.01116282 -0.18397792 0.020359829 0.28275263 -0.010804907 0.13096184
0.0030262524 -0.32351917 -0.091323026 0.259299 0.06778786 0.10973189 0.12346934 0.0453675
0.15454344 -0.16090274 0.019069646 -0.026422784 -0.07174883 0.30425012 0.12277253 -0.0028621608
-0.049309365 -0.2011912 0.30763462 0.002657092 -0.023698544 -0.3431464 -0.11035865 -0.16156293
-0.09869345 0.017325873 0.080933884 0.21692069 -0.33271497 -0.2869967 0.28207102 0.1434833
-0.21837385 0.06983129 -0.17825174 0.19304502 0.068047404 -0.15367156 0.0096918335 -0.1374996

feature_layers.1.weight f4 [128, 128]
00000000: 2ddc 32bd 6995 c63d db22 d43d 1476 0cbe
00000010: c97f 6f3d c5ab 76be d15a 103e 1138 083e
00000020: b9be 34bc c507 db3d 731b 653e cc0e b33e
00000030: b01f 423e c4a3 d93c 2968 1e3d 68e9 53be
00000040: f104 9d3e e4b2 fe3d 802e bd3d 3906 86bd
00000050: 2fb1 363d 9efb d9be cec7 083e 520a a0be
00000060: 20ed 9ebc c774 e1bd 332b 8abd 1ef7 1f3e
00000070: 591e 0e3e 75c5 983c aa66 71bd e08b 72be
00000080: a592 1f3e cb47 55bc 41bd aebd 9adf 343e
00000090: a5c9 fcbd 6de0 99bd 214b dbbd 4891 693e
000000a0: 4f54 4cbe e638 ec3d c192 75be 03d9 df3c
000000b0: 6000 bebd f08a 00be 07e5 f73d cf21 583e
000000c0: 326d a53c 4b87 d9be d2bf 68be bccb 783d
000000d0: 730e 393d 7214 1bbd 6cd6 433e b2bd a93c
000000e0: 99e5 fc3c a1f8 00be 6445 b2be 6c8d 243e
000000f0: a9a8 80bd 3be3 8f3d 0c55 06bc c2e8 183d
00000100: 1588 35be 0b44 50bc 5e05 29bd 455c ed3d
00000110: d041 133e 00f8 403d f532 34bc 3bff 293d
00000120: 00d6 2f3e 1b10 123d 608a 63bd f5e5 923e
00000130: 5347 27bd e9c7 223e 3a14 9c3e 2a72 8e3d
00000140: a6b3 61be 013b 7abd dbc8 72bd d907 663d
00000150: 054c 3dbe 5efb 91bd e3e1 943c 3fbd 69be
00000160: 1310 e53c b78c acbe 038c 7b3e 9c0e 963d
00000170: 4a37 febd 6050 5dbd 8169 b43c 1356 843c
00000180: c664 81bd 85c7 bd3c 6789 b8be e875 1e3e
00000190: f2dc d5bd 60c0 313e 2546 84be cc2f b7bd
000001a0: 9fe6 42bc 666d 2abc e01f 823e c0a1 b2bd
000001b0: 6561 c4bc eb3d 42be 0b52 a33e e427 98bd
000001c0: dd98 ed3d 6dbc 79be df85 1a3e 52cd ee3d
000001d0: bae2 a2be c608 233e a17e debc 57f1 213e
000001e0: ea73 8f3d 3559 2dbe 80f2 b23b 5fee e8bb
000001f0: d5fc e53d 6ca2 e9bd e379 b6bc 87e1 3ebe
00000200: ddb9 48be ee64 423e fd02 c13d f6ea dfbd
00000210: 172b e13d 8fa5 b3bb b3af 6dbd 6d43 453d
00000220: 98c9 02be 4ec2 9dbc fb01 683e b425 b4bd
00000230: fb51 853e 8c74 0abe a828 0fbe 7724 11be
00000240: 9d2a 82bc b821 9e3d 75d7 80bc d0e6 1dbe
00000250: da32 19be b5b2 9e3d 418c 86bd 0409 df3b
00000260: 7e4b cebd c1d4 543e be00 31be 51bb 60be
00000270: 92c6 aa3c fa38 043e 68cd 70bc 12de f63d
00000280: 5935 c53d 8823 f53d 5474 4abe 8398 6d3c
00000290: 375a df3d 7f87 633e dc7d 083e 92bf d23d
000002a0: 2e90 b53b c028 75bd dad3 14be 03e8 6d3d
000002b0: db31 eabd b4f1 5bbe 38ca 94bd 9b5c e63c
000002c0: 9b94 083e 7626 0bbe 2321 a73c eb2c 6dbd
000002d0: d8f3 8fbe 698e 2d3e 209d 993e 5e0e d5bd
000002e0: bab9 493b e238 80bd 963e 4cbe 4403 5a3e
000002f0: dae3 983d 9c25 d9bd c0b1 06be 4545 403e
00000300: 639c a03e acee 88bd 7f93 f5bd 7da6 b9bd
00000310: d417 763d db8e b5bd 33e6 7abe d93f e93d
00000320: c795 853d 4488 073e cf1b a5bd 1949 2d3e
00000330: 3a95 50bd 241d 773c 4a78 b3bd fe0a 263d
00000340: e363 0e3e 70c7 7bbd 9e05 e0bd 3a6b 203f
00000350: 7d47 adbe ffea cebd fadd 51be 5a25 953d
00000360: 66df d5bd 38fc ecbd 12f3 12bd 1a97 1b3e
00000370: 5f6e 33be 145c fa3d c12f 09be 0ba2 6abd
00000380: 523e 61bd f245 a4bc c6d5 21bd 19a2 67bd
00000390: eaa7 1fbe 1f69 3d3e 6bdc 4dbe 4189 583e
000003a0: 6f44 71be f11a d4bd e946 2c3e 3997 be3d
000003b0: ff1c 80bb 67d9 87bd 4c44 09bd ed94 52bd
000003c0: 4bbe 573e a814 0bbe bb97 46be ca77 ffbd
000003d0: b259 d8bc 4abe c53d d0f6 6cbd 7067 ff3d
000003e0: 0afc f2bd 8ab0 0f3e 3e05 263e bf97 a93e
000003f0: 4e34 09bb 6322 3f3d 9a60 eebd 32ff eebc
-0.043667007 0.096964665 0.10358211 -0.13716918 0.058471475 -0.24088962 0.14097144 0.13302638
-0.0110318 0.10694841 0.22373752 0.34972227 0.189574 0.026567347 0.038673554 -0.20694506
0.30667832 0.124364644 0.09237385 -0.06544156 0.04460257 -0.4257478 0.1335747 -0.31257874
-0.01940018 -0.11008602 -0.06746521 0.15621611 0.13878764 0.018648842 -0.0589358 -0.2368617
0.15583284 -0.013017605 -0.08532191 0.17663422 -0.12343148 -0.07513509 -0.10707689 0.22809327
-0.19954036 0.1153429 -0.23981763 0.027325159 -0.09277415 -0.12553 0.121042304 0.21106647
0.02019367 -0.42486033 -0.22729424 0.06074117 0.045179795 -0.037861295 0.19124764 0.020720337
0.0308712 -0.12594844 -0.34818566 0.16069573 -0.06282169 0.07025763 -0.008198988 0.03733135
-0.17727692 -0.012711535 -0.041264884 0.11589865 0.14380574 0.04711151 -0.010998477 0.041503172
0.17171478 0.03565989 -0.055551887 0.28691068 -0.040839504 0.15896572 0.30484182 0.06955369
-0.22041187 -0.061091427 -0.059273582 0.056159828 -0.1848603 -0.071280226 0.018174117 -0.22826098
0.027961766 -0.33701107 0.24565129 0.07327005 -0.12412889 -0.05403173 0.022022964 0.016154325
-0.06318049 0.023166427 -0.3604233 0.15474665 -0.104425326 0.17358541 -0.25834766 -0.089446634
-0.011895805 -0.010402059 0.25414944 -0.087222576 -0.023972223 -0.18968932 0.3189853 -0.074294835
0.11601422 -0.24388285 0.1509013 0.116602555 -0.31813604 0.15921316 -0.02715999 0.1581472
0.07004531 -0.16928561 0.005461037 -0.007108494 0.112298645 -0.11407933 -0.022274917 -0.1864072
-0.19602151 0.18983814 0.09424398 -0.10933487 0.10994547 -0.0054823826 -0.058028888 0.048160005
-0.12772214 -0.01925769 0.22657005 -0.08796254 0.2603911 -0.13521022 -0.13980353 -0.14174066
-0.01588946 0.07721275 -0.015727738 -0.15420079 -0.14960805 0.077489294 -0.0656972 0.0068064947
-0.10072993 0.20784284 -0.1728544 -0.21946456 0.020846639 0.1291236 -0.01469741 0.12054075
0.09629316 0.11969668 -0.19770938 0.014501694 0.10905879 0.22219656 0.13329262 0.102904454
0.005540869 -0.059853315 -0.1453394 0.05808259 -0.114352904 -0.21478921 -0.07265133 0.02812033
0.13337938 -0.1358889 0.020401543 -0.057904165 -0.28115726 0.16948856 0.3000269 -0.10403131
0.0030780868 -0.062608495 -0.1994575 0.21290308 0.07465334 -0.106028765 -0.13153744 0.18776424
0.31369314 -0.06686148 -0.11991023 -0.09064958 0.060081318 -0.08865138 -0.24501877 0.11389131
0.065227084 0.13235575 -0.08061945 0.16922416 -0.050923564 0.015082631 -0.08763178 0.040537827
0.13905291 -0.061469495 -0.109385714 0.62663615 -0.33843604 -0.10103416 -0.20494834 0.07282515
-0.104430005 -0.115715444 -0.03587634 0.1519436 -0.17522572 0.12224594 -0.13397123 -0.057283442
-0.054991074 -0.020052884 -0.03951051 -0.056551073 -0.15591398 0.18497132 -0.20103614 0.21146108
-0.23561262 -0.10356701 0.16823925 0.09306187 -0.0039097066 -0.06633263 -0.0335124 -0.051411558
0.21068685 -0.13582098 -0.19393818 -0.1247402 -0.026409958 0.096554354 -0.057852566 0.12470901
-0.11864479 0.14032188 0.16212937 0.33123586 -0.0020935717 0.046663653 -0.11639519 -0.029174421

feature_layers.1.bias f4 [128]
00000000: 16d8 3d3d 90d6 fa3c dace 023d 7521 25bc
00000010: 70ea 1abe 708a c8bd c129 b4bc 4986 f7bd
00000020: ec4d 3b3e ce6c 64be 36c3 023d b59e 463e
00000030: da5c 6d3c fbf9 b53d 5f5f 5c3e f435 33bd
00000040: 2eff ef3d 9dc4 c2bd 2d67 6c3e b90d b63d
00000050: a9f4 6a3d 413a 063d 3478 093e ef39 bdbd
00000060: 5f02 cb3d 7a90 b9bd 351d 233d 25d0 513d
00000070: 7971 ebbd 28b3 b7bc 5088 8dbd 5062 cb3d
00000080: 03a6 843d ac3a 193c d98d 183d 3f9e 69bc
00000090: ec4a ba3d b628 3d3e 33de 1f3e e205 d4bd
000000a0: 725f c83d 3fb4 f83d 6ecf dbbd 36c7 193e
000000b0: c5dd 323e 9d07 28bd 2a29 903d b4e1 463e
000000c0: 0241 373e 3f00 ba3d f4da 67bd d7b0 87bc
000000d0: 909a c33d 7373 f2bd d644 9fbd 670f 81bd
000000e0: 3f77 573c bc01 7f3c 65d4 3f3d bd78 c2bd
000000f0: 3283 fd3d 36c1 7a3d b010 16be 384c 9f3d
00000100: b542 6d3e 3b7a c33d 1727 373e b87d b0bd
00000110: c0a9 cc3d 9bb5 003e cda5 f33d da0c 2bbd
00000120: 4a40 97bd e3f5 4b3e ff51 5dbd 49a8 8ebc
00000130: b6ed 093e 649a cbbc 5be9 863c 8b08 23be
00000140: ed02 05bd 7273 f33d e721 dcbd 2f10 41bc
00000150: 7ca7 f33d e4ef 4ebe 18e0 bcbd cb10 06be
00000160: 2efa 15be be83 263e 7d19 8e3d e6ef b93b
00000170: 4dc7 033e d71a f13d 148b aa3b c359 00bd
00000180: f877 68be 607d 353e be4a aabd 90a8 23be
00000190: b308 9abc 52c7 05be a048 93bd c1b5 edba
000001a0: 4629 4fbe 5aa8 88bd 8a08 03be fc47 2abd
000001b0: 2c39 a9bd bd4a 083d d847 8e3b 4ce3 e6bd
000001c0: a25e 663e 785c a43d 9aa3 c53d 6125 2b3d
000001d0: 2313 c63d d95c 353e 173a 49be 0129 be3c
000001e0: 6cf2 e7bd 6a95 183e 85c5 4cbe 9f41 05bd
000001f0: 9d9e 163e 2616 8139 03f2 063d 0c1a 223d
0.046348654 0.03061989 0.03193555 -0.010078778 -0.15128493 -0.0979203 -0.021992566 -0.1208616
0.18291444 -0.2230713 0.03192445 0.1939648 0.01448747 0.088855706 0.21520756 -0.043752626
0.117185935 -0.09510157 0.23086233 0.08889336 0.057362232 0.0327704 0.1342476 -0.092395656
0.099125616 -0.0906076 0.039822776 0.051223893 -0.114962526 -0.022424296 -0.06910765 0.09930861
0.06476977 0.009352367 0.03724465 -0.01425892 0.090963215 0.18472561 0.15612106 -0.103526846
0.0978383 0.12143754 -0.107329234 0.15017399 0.17467411 -0.041022886 0.070391014 0.19422036
0.17895892 0.09082078 -0.056605294 -0.016563816 0.09550965 -0.118384264 -0.07776801 -0.06301766
0.013150989 0.015564378 0.046833415 -0.09495685 0.12378539 0.061219417 -0.14654803 0.077782094
0.23169978 0.09544798 0.17886005 -0.08617729 0.09993315 0.12569277 0.11896858 -0.041760303
-0.07385309 0.19918017 -0.054033276 -0.017414229 0.13469586 -0.024853893 0.016468694 -0.15921228
-0.032473493 0.11887254 -0.10748654 -0.011783644 0.118971795 -0.20208699 -0.0922243 -0.13092344
-0.14646217 0.16261193 0.06938455 0.00567435 0.12868996 0.117726974 0.0052045677 -0.031335603
-0.22702014 0.17723608 -0.08315037 -0.1598227 -0.018802976 -0.13064316 -0.071915865 -0.0018135832
-0.20230588 -0.066727355 -0.12796226 -0.041572556 -0.08262858 0.0332744 0.0043420605 -0.11273822
0.22497037 0.080254495 0.09650345 0.041783694 0.09671619 0.177112 -0.19651066 0.023212912
-0.11325535 0.14900747 -0.19997223 -0.032533284 0.14708944 0.000246213 0.032945644 0.03957562

value_stream.0.weight f4 [64, 128]
00000000: dee2 b23d 521d fabc 3bd0 f23d 6a01 553e
00000010: 47f0 133c a0e7 cabc a25b 803d 2e8f 91bd
00000020: e66d e3ba 7b84 3c3e 68f5 b33c 967a 313d
00000030: be04 9e3b ed9a 1d3e ab9a 2ebd 7822 3e3c
00000040: 165a 9ebd e896 d3bd c84f 74be d680 99bd
00000050: 66b8 c93d 5f39 7b3d 8a02 2fbd af75 bf3c
00000060: c186 5c3d bb12 db3e 6677 29bd 69fb 55bd
00000070: 1145 ba3b 982b fabd 14ff 66bd 55ef 61be
00000080: 3b86 463d 31a0 da3d c22a f4bd 8caa 763d
00000090: 5006 4abe 0ab4 8cbd 3e3b 37be cf80 473e
000000a0: fb8b 413e 522d 193e 8b8b 15be 3418 643d
000000b0: 7d6c ee3b 1de0 a53d 4974 84bd d805 1ebd
000000c0: 2a2f 25be 24e8 acbd 58b1 583e 2165 423e
000000d0: 0400 8cbd e1f7 2f3e 8e2f ca3e 9216 00be
000000e0: 0866 983b a7a6 073d 015e 913e 4c47 203c
000000f0: 8206 73be 3f8f c23d 4a67 aa3d 60dd 8dbe
00000100: 080b f0bd 1d6f 9fbc 44ee 61bd 1eaf c83b
00000110: d0f7 14bc d9b4 3cbe 5705 27bc 3de3 29be
00000120: e91c b0bc 1439 02be b162 2cbe 2fcf 90bd
00000130: 6606 303d db08 233e aac5 f6bd 5564 463e
00000140: 5109 f4bc d793 9abe 2d66 84bd 68d3 8c3e
00000150: d554 223d 0cbc 883c e368 903d f213 1ebe
00000160: 72b2 483e 2a95 25be 2ee7 003d f0eb f03d
00000170: 0edf 66be 2455 babd 7da0 b2be 8971 a9ba
00000180: cd11 0cbe 1e17 8d3d 8a5d bb3e a263 c53e
00000190: a6b6 cd3d d048 b73e cda8 a23c b2ad 2a3c
000001a0: 8017 d13e 8705 823e e9bd 193e 7853 113e
000001b0: 43e7 21be 0b8d 483e 801b 1a3b ac76 17bd
000001c0: 23ed 513e bf87 06be eb74 b2be 39d5 7d3e
000001d0: ebd4 973d 6597 1b3e bfa8 3d3e 6ba8 9d3e
000001e0: e645 613e f80a ec3d b3ce 653e efcb 38be
000001f0: 891b 04bc e273 f8bd eaf0 c2be 022e ddbd
00000200: b693 9dbd 25de 7fbe a88c 1a3e 3612 1abb
00000210: 0b15 f4bd 3c81 463e b125 7cbd fdff 8b3e
00000220: e159 3c3d fefa ac3d dc2f 323e c64a 1b3c
00000230: 30ec 35be df4f 82be 762c 37be 4cee 5bbc
00000240: 26f6 07be 957e f3bb ce2a fcbc 459d f8bc
00000250: fb73 053e be7f 8a3a 33dd 4abe 2af9 ba3d
00000260: a227 30be 742b b73c 0996 84be 3799 51be
00000270: 31a8 b43e d13d 333b 9513 563e dfdc 09be
00000280: 5387 61bd fb6b 373e d2be 883c 8f3b 713e
00000290: 8174 37be 2311 e3bd 99b1 12be 1dcf ad3e
000002a0: b677 13bd 4961 f7bd a517 623e 3135 29be
000002b0: be38 7dbe 4eb5 003e c88c 4cbd f16f 38be
000002c0: 8718 9bbd 5fd7 74bc 6f19 ac3d 4b8c 033e
000002d0: 6052 8fbc c471 7c3d 1861 dd3c 3738 a23e
000002e0: 1a49 393e 0c83 80bd 483d 3dbe 45d4 493e
000002f0: 2b38 633e 9697 883d 328c e83d aabc fbbd
00000300: b511 20bd 059b a1bd 66f8 fb3d 834b 11bd
00000310: 9381 993c b335 dfbd 377d 823c 3806 a33e
00000320: da1d 6a3e 9770 8abc ff87 5b3d c720 773e
00000330: 80ef bfbd 5033 e7bc d57a 073e 595f 773e
00000340: 48c6 b5bd 6e50 dbbe 214d 8c3e 13bd 1cbe
00000350: 450f c9be c694 acbd 0d36 68be 885e 973e
00000360: 2f30 083e 6a57 a7be e964 933b b19f c33c
00000370: 743d 80be b4b0 8ebb d53d 97bc 9927 9fbe
00000380: 05e1 c03e 0daf 9abd 47b6 ae3e 0a04 b63d
00000390: c23c 94bc d6a6 4d3d a5f7 0d3c 458e 763e
000003a0: 4da2 703c 6bf0 163e 011f 553e efaf 803e
000003b0: 6335 6dbc cdae cb3c 5746 27bd 817f 603d
000003c0: 51f4 f93c acb1 303d f650 983d 4d35 31bd
000003d0: 38ea 91be d553 cbbd 3024 ee3c 9d52 273e
000003e0: 6cff 13be 79ea 44bd 7f9e f03d 954c f73d
000003f0: ad27 9a3a 7878 033e 2a32 90be d156 303d
0.08734678 -0.03053156 0.11856123 0.2080132 0.009029455 -0.02476865 0.062674776 -0.071073875
-0.0017351478 0.18409912 0.021967605 0.043329798 0.0048223427 0.15391131 -0.04262797 0.011604898
-0.07732026 -0.103315175 -0.23858559 -0.07495277 0.09849624 0.06133401 -0.04272703 0.023371546
0.05383945 0.42787728 -0.041373633 -0.052241717 0.005684503 -0.12215346 -0.056395605 -0.22063954
0.048467856 0.10675085 -0.11922218 0.06022124 -0.1972897 -0.06870277 -0.17893693 0.1948273
0.18901055 0.14958695 -0.14604013 0.055687144 0.0072761164 0.08099387 -0.06467492 -0.03857979
-0.16131273 -0.08442715 0.21161401 0.1898389 -0.068359405 0.17184402 0.39489406 -0.1250861
0.004650835 0.033117916 0.28392032 0.0097826235 -0.23732951 0.09499978 0.08320482 -0.27707958
-0.11720854 -0.019462163 -0.05515887 0.006124391 -0.009092286 -0.18428363 -0.010194144 -0.16590591
-0.02149816 -0.12717086 -0.16834523 -0.07070767 0.042974852 0.15921347 -0.1204942 0.19374211
-0.029789599 -0.30190918 -0.06464801 0.2750504 0.039631683 0.01669123 0.070512556 -0.15437296
0.19599321 -0.16170183 0.03147047 0.117637515 -0.22546026 -0.090982705 -0.34888068 -0.0012927513
-0.13678665 0.06889175 0.36594802 0.38552576 0.10044603 0.3579774 0.019855881 0.010417389
0.40838242 0.25394842 0.15013851 0.14191997 -0.15810876 0.19585054 0.0023514926 -0.03697841
0.20500617 -0.1313772 -0.34854826 0.24788369 0.07413658 0.15194471 0.18521403 0.30792555
0.2199932 0.115255296 0.2244213 -0.18046544 -0.0080632055 -0.12131478 -0.38074428 -0.10799791
-0.07694189 -0.24987085 0.15092719 -0.002350939 -0.11918076 0.19385237 -0.061559383 0.2734374
0.045984153 0.084463105 0.1740107 0.009478277 -0.1776588 -0.25451562 -0.17888054 -0.013423514
-0.13277492 -0.0074308612 -0.03078213 -0.03034843 0.13032524 0.0010566635 -0.19810943 0.091295555
-0.17202619 0.022359587 -0.25895718 -0.20468603 0.3528457 0.0027350078 0.20905907 -0.13463162
-0.055060696 0.17912285 0.016692553 0.23557876 -0.17915536 -0.11087253 -0.1432556 0.33947077
-0.036002837 -0.120791025 0.22079332 -0.16524197 -0.24728677 0.12569162 -0.049938947 -0.18011452
-0.075730376 -0.014943927 0.084032886 0.12846486 -0.017495334 0.061631933 0.027023837 0.31683514
0.18094292 -0.06274995 -0.18480408 0.1970988 0.22189395 0.06669538 0.11354865 -0.12291844
-0.039079387 -0.07890896 0.123032376 -0.035472404 0.018738544 -0.10898914 0.015928848 0.31840682
0.2286295 -0.01689939 0.053596493 0.24133597 -0.09371853 -0.02822271 0.1323045 0.24157466
-0.0887571 -0.428348 0.27402595 -0.15306501 -0.39269462 -0.08426814 -0.22676869 0.2956431
0.1329963 -0.3268388 0.0044981134 0.023879858 -0.25046885 -0.0043545607 -0.018462101 -0.31084898
0.37671676 -0.075529195 0.34123442 0.08887489 -0.018095378 0.050207935 0.008665 0.24077709
0.014687133 0.1474015 0.20812608 0.25134227 -0.01447806 0.024863625 -0.040838566 0.054809097
0.030512007 0.04313819 0.07437317 -0.043263722 -0.28499007 -0.09928099 0.02906999 0.16340108
-0.14452904 -0.048075173 0.11748981 0.12075154 0.0011761092 0.12838924 -0.28163272 0.043051545

value_stream.0.bias f4 [64]
00000000: 3d85 61be a582 26be 2cc1 19bd 2267 f4bd
00000010: dd3b 5e3e 2a5b febd a9e8 49be 8ed3 25bd
00000020: e97e 0e3e 6765 31be d53f 0f3d 09bb 403e
00000030: f783 503e 17d1 19be 81a6 763e 7a92 273e
00000040: cf9a d13d ea61 66be 4134 46be 975c 803e
00000050: 853e 533e d17f 19be f7b5 1c3e b993 553e
00000060: a599 06be f7c3 69be 9694 ef3d 75a9 313e
00000070: 85b7 d7bd 1b09 eabd 3ee4 04be db17 83bd
00000080: 949c 873e 50d9 5fbd a1c5 933e 25e7 88be
00000090: 648b d0bd 78a1 cbbd 7b09 4dbe 3fc8 0fbe
000000a0: f2c1 7dbe f621 cabd 46e4 463e 0f8d 363e
000000b0: b886 373e 665e 0bbd 04bb 2f3e a9ed 7f3e
000000c0: 12ea 46bd 465f 98bd abde f2bd ec8d 1c3e
000000d0: 1b6d 103e 0dd6 0bbe 23d3 51bd 16ec 1bbe
000000e0: e737 7dbe dd59 d33d 1772 0e3e 7993 223e
000000f0: 6f5f 793e 0be7 3e3e 2d1c 1dbe 9d01 97bc
-0.22023483 -0.16260774 -0.03753774 -0.119337335 0.21702524 -0.12419732 -0.19717659 -0.040484957
0.139156 -0.17323838 0.034972984 0.18821348 0.2036284 -0.15021168 0.24086954 0.1636447
0.102346055 -0.22498289 -0.19355871 0.2507064 0.20629318 -0.14990164 0.15303789 0.20857133
-0.13144548 -0.22828661 0.116982624 0.17349799 -0.105330504 -0.11427518 -0.12977692 -0.064010344
0.26486647 -0.054650605 0.28861716 -0.2673885 -0.10182837 -0.09942907 -0.20023148 -0.14041232
-0.24781016 -0.09869759 0.19423017 0.17827247 0.17922485 -0.034025572 0.17161185 0.24993004
-0.04856307 -0.07440047 -0.11858877 0.15288514 0.1410412 -0.13655873 -0.051226746 -0.15226778
-0.24728356 0.103198744 0.1391071 0.15876569 0.24352811 0.18642823 -0.1534278 -0.018433386

value_stream.2.weight f4 [1, 64]
00000000: d733 e5bd 8b24 babe c2b3 ff39 338b 30be
00000010: 8c6c dd3d 336a 29be 0cf4 47bd d185 60be
00000020: 7659 8d3d ff08 4dbd d6f0 00bb 21f4 1c3e
00000030: f582 bd3e 37a0 61bd 1f0b 123f bf95 b63e
00000040: 34b6 493e 11bf e4bd db4a a8bd 99c7 0a3f
00000050: c1c9 013e 38b0 77be 9dea 503e 3db5 2e3e
00000060: 6977 71be d6b4 99bd 8c88 0a3e a17f bc3e
00000070: 07c3 f7bd b91c 3bbe 6ba5 3cbd ac6e dbbd
00000080: dad0 393e bd13 78be 4674 d43d 7f1b 2abe
00000090: 20b4 49be cacb 10bd 26ad b9be 8989 70be
000000a0: 7b0f c2be 6323 06be 9f24 d93e 7864 a83e
000000b0: a084 d93e 8709 07be 3f9a 163e d0ac 6a3e
000000c0: 986a fcbd 5973 0dbd 6c83 8dbe e254 763e
000000d0: 3525 293e c480 70be fcb3 cbbd b0f7 1e3c
000000e0: 175d 2cbe e665 b93d 2fe9 de3d 0a70 573e
000000f0: a2ba d13e 992b c93e efd6 2abe b161 c1bd
-0.11191528 -0.36356005 0.0004877132 -0.172406 0.10811719 -0.16544418 -0.048816726 -0.21926047
0.06901829 -0.050057407 -0.00196748 0.15327503 0.37013975 -0.055084433 0.5704822 0.35661122
0.19698411 -0.111692555 -0.082174025 0.5421081 0.1267462 -0.24188316 0.20401998 0.17061324
-0.23580708 -0.07505195 0.13528651 0.36816123 -0.120977454 -0.18272676 -0.046056192 -0.10714468
0.18146077 -0.2422628 0.1037374 -0.16612051 -0.19697618 -0.0353506 -0.36264914 -0.23489965
-0.37902436 -0.13099436 0.42410752 0.32889152 0.42483997 -0.13187228 0.14707278 0.22917485
-0.12325019 -0.034533832 -0.2763933 0.24055818 0.165181 -0.2348662 -0.09946439 0.009702608
-0.16832386 0.09052639 0.1088432 0.21038833 0.40962702 0.39291075 -0.16683553 -0.09442461

advantage_stream.0.weight f4 [64, 128]
00000000: b3a3 813d 9b1d 31bd 351b 713e 87e7 e9be
00000010: fff9 9dbe 743b 5fbd 0e45 423e de26 7fbe
00000020: 202d 923d a882 f0bd ca40 053e 8647 bf3d
00000030: 0e3e 9ebe 251e c7bc 080c 513e 63f6 703c
00000040: 1ae9 d13c a45d 80bd aaea 163e 9766 3f3c
00000050: 1aee 26bd 73ed 583e dfff 103e 87c4 993e
00000060: d1d5 a23d 0cd5 a03d ebe4 b33c 04ba 0f3e
00000070: b83d 4e3d 76df 86be 179a ff3e e6f4 30be
00000080: 9d60 90be eddb fabe 6b82 dfbe ca97 87bd
00000090: 4b80 4ebe 2c13 55be 768a 2c3d 4f12 35be
000000a0: 09c2 8f3d b66e fabd 5e45 8bbd 9b2b 0b3e
000000b0: 0dd8 5e3e 4c4c 5c3d d265 14be 827c a5bd
000000c0: ceab ce3d 4f99 b9be 8c16 6c3d a261 4e3e
000000d0: b7f3 c6bd 3473 213d 0ed3 32bd a56c a1bd
000000e0: 8639 9bbd 8ff7 343e f4e4 113d fce3 88be
000000f0: c3c4 23bd 04ff 86bd 0965 c33e 7256 d7bd
00000100: 8538 e7bd 68fe 003d 4e3d 48bd d68b a9bc
00000110: 9d2e 073e 5202 263e c461 253e a889 30be
00000120: e401 87be 869b 51bd 53d4 313a 6224 493e
00000130: c15e 0dbe c664 653e efc9 68be c738 6fbd
00000140: fc15 58bb 393d 46be 664c e03d af75 26be
00000150: 2c74 bbbc f5e2 4ebe cc94 28be fbf7 1bbe
00000160: 60ae 123d 7951 92be 9a5b 9d3d 1949 21bf
00000170: 3f48 2b3d c2a5 63be b906 e6be 82d8 1abd
00000180: fbcf 7c3d 9eda 14be 216d fc3c f07f f43d
00000190: 2b48 1a3e 15af 90bd 084b 083e 47b1 05be
000001a0: da46 f23d 59ff 573e 012f cabd b5c7 45be
000001b0: 862b b2bd 20dd 183e 76a0 d3be e6c9 9e3e
000001c0: 4d0d 06bd 78b5 85be 0e05 b43e 3439 6abe
000001d0: 681e 083e 46ad 12be d406 303e bb70 62bd
000001e0: 19ac 793e a10b 3a3e 6b81 ed3e 8772 c2be
000001f0: 3cde e93c 6008 12be dc09 c2be 57a5 9a3d
00000200: 074a 4fbe a88c 19be 9419 b3bd b21d 80be
00000210: 1497 1a3e 9368 4d3d 742f 1e3d 5703 2cbe
00000220: 3f73 6abd 28c7 d03b 3fd9 603e 1baa 3c3c
00000230: d66f 22bd f666 c2bd 8980 4bbe fe4d 263e
00000240: 226c 1abd 6291 ef3e a836 14bd 449e a43d
00000250: fbf6 afbd 43dd 01be 50bf 983d a6d4 ab3e
00000260: dad2 59bc 2315 2cbe 7772 4f3c 42ea ba3e
00000270: aa0f dabd dc33 30bc 07b1 053e 9633 413e
00000280: eee3 26be 35c6 0dbd a972 22be 242a 0ebe
00000290: 9f14 b6bd 9271 193e 146b 883e 101d a9bd
000002a0: b175 54bc 9a6c 4fbd 08a7 f9bd 9a48 873d
000002b0: b2ea 52bd a969 833e 40e6 17bd 3bed c93d
000002c0: c31b 15be 5461 a8bd 3e6a 1e3f 073d ffbc
000002d0: 026b debb b69e f73e 7bbe 523e 6b6f 8f3e
000002e0: 7478 9d3e acef d2bd 7d66 d43d 5c40 0cbe
000002f0: 0fca 963d ff7d bb3c f1b4 0b3e ceba 46be
00000300: b47e 5ebd ba1c 00bd 9d27 30bd 82e9 bebb
00000310: 5f0d 1dbe 0f91 1b3e 4fc7 20bd 0361 0dbe
00000320: 56fe 69bb 45d1 4e3d b55e 253f 6f7b fd3d
00000330: b8da 063a 7fe6 fc3e 1b9e b63b 6a59 abbe
00000340: b90d 8cbb 5dd6 1c3e f81a 783e ba34 bcbe
00000350: 07e8 61be dcf1 82be 7004 ee3c 0fe7 23bf
00000360: d818 c53c c2ee 49be 8329 5c3d 57b4 86be
00000370: c4b8 613c bf3d d1bd 60ca 5fbe 68e6 7d3d
00000380: 9298 ef3d bfb4 c63c 90c8 913e 756b 61be
00000390: e744 303e 19ee 39be 6a4a c13d 0458 aabe
000003a0: d752 4d3c 78c6 89be 9b26 28be 4341 763e
000003b0: dacc b5bc 3f8f 26bd e4cc 12be d4fa 813f
000003c0: af31 a0bb 6bf9 63bd e23c 96bb e22f 5d3c
000003d0: 80a6 ddb9 35da 233d 1213 e53d b4d8 5f3e
000003e0: 2e0f 0abe c60a ea3d 1335 c0be eaa0 b73d
000003f0: 30ef aa3c 263d 54bd db29 75be d69a 4a3e
0.06330051 -0.043241125 0.23545535 -0.45684454 -0.30854794 -0.05450006 0.18971655 -0.2491717
0.07137513 -0.11743671 0.13012996 0.09339814 -0.3090672 -0.024306366 0.20414746 0.014707181
0.025623847 -0.062678605 0.14737955 0.011682174 -0.040754415 0.2118433 0.14160107 0.3003275
0.079509385 0.078531355 0.021959743 0.14035803 0.05035183 -0.26342362 0.4992225 -0.17280921
-0.2819871 -0.48995915 -0.4365419 -0.06620748 -0.20166127 -0.20808095 0.042124234 -0.17682765
0.07019431 -0.12228148 -0.0680034 0.13590853 0.21762104 0.0537837 -0.14491966 -0.080803886
0.10091363 -0.36249778 0.05763869 0.20154431 -0.09714454 0.039416507 -0.04365831 -0.078820504
-0.07579331 0.17672561 0.035618737 -0.26736438 -0.03998257 -0.06591609 0.3816302 -0.10514535
-0.11290077 0.03149262 -0.04888659 -0.020696562 0.13201375 0.16211823 0.16150576 -0.17240012
-0.2636863 -0.05117371 0.0006783653 0.19642785 -0.13805677 0.22401723 -0.22733282 -0.058403756
-0.0032972088 -0.19359292 0.10952072 -0.1625583 -0.022882544 -0.20203765 -0.16463012 -0.15231316
0.03581083 -0.28577784 0.07683487 -0.63002163 0.041816946 -0.222312 -0.44927004 -0.037804134
0.061721783 -0.14536521 0.030813755 0.11938465 0.15066592 -0.07064644 0.13309872 -0.13055907
0.1182992 0.21093501 -0.098722465 -0.19314463 -0.08699708 0.14928102 -0.4133336 0.3101341
-0.03272753 -0.26115012 0.35160106 -0.22873384 0.13292849 -0.14323911 0.17190105 -0.05528329
0.24382056 0.18168499 0.463878 -0.37978002 0.028548352 -0.14261007 -0.37898147 0.07551067
-0.20243083 -0.14995062 -0.08745113 -0.25022656 0.15096694 0.050148558 0.038619474 -0.16798149
-0.057238813 0.0063713975 0.21957873 0.011515166 -0.039657436 -0.094922945 -0.19873251 0.16240689
-0.03770078 0.46790606 -0.036184937 0.08037999 -0.0859203 -0.12682061 0.07458365 0.33560675
-0.0132949 -0.16804938 0.012661568 0.3650685 -0.10647519 -0.010754552 0.13055812 0.18867335
-0.16297886 -0.034612853 -0.15864052 -0.13883263 -0.08890652 0.1498473 0.26644194 -0.08257496
-0.012967513 -0.05064068 -0.12190062 0.066056445 -0.051493354 0.2566655 -0.037084818 0.09859701
-0.14561372 -0.08221689 0.6188086 -0.03115703 -0.0067876587 0.48363274 0.20580475 0.28014693
0.3075596 -0.1029962 0.103711106 -0.13696426 0.07362758 0.022887228 0.13643242 -0.19407198
-0.054320052 -0.031277396 -0.04300653 -0.005826176 -0.15337132 0.15192054 -0.039252575 -0.13806538
-0.0035704575 0.050492544 0.64597636 0.12377059 0.0005144286 0.49394605 0.005573047 -0.33466655
-0.004274097 0.15316148 0.24229038 -0.36758977 -0.22061168 -0.2557515 0.02905485 -0.6402444
0.024059698 -0.19719985 0.053750526 -0.26309463 0.013776962 -0.10216855 -0.21854544 0.06198731
0.11699022 0.024256108 0.2847333 -0.22013648 0.17213784 -0.18157233 0.094380215 -0.33270276
0.012531958 -0.26909232 -0.16420977 0.24048333 -0.022192407 -0.040663954 -0.14335972 1.0154672
-0.0048887352 -0.055657785 -0.0045848945 0.013500186 -0.00042276457 0.04000302 0.11185278 0.2186001
-0.13482353 0.11427836 -0.37540492 0.08966239 0.020866007 -0.05181613 -0.23941748 0.19785628

advantage_stream.0.bias f4 [64]
00000000: 5b5b c73c a4f7 ceba 43e8 bebc 8dac eebb
00000010: 46f3 ffbc 6809 e3bd 168e ccbc e4e5 91bc
00000020: 7eb9 21bd 29c6 053d e185 4fbc f652 ed3d
00000030: 362f acbc 8747 a7bd f994 f23d 40dd eabb
00000040: 367e 043e d3ac 36bc af96 23bd a98f 47bd
00000050: 218a 383c 3e00 d23d 02c1 273d b149 9b3a
00000060: 8586 ab3d 8da7 023d 8b88 0dbd ec6c 1ebd
00000070: 13b5 edbb d263 e3bd 6587 053d 10b3 623d
00000080: 0db2 673d 8c91 a1bd 01d5 9bbd d26c 953d
00000090: 4231 5b3d b6ff 063b 2e17 2e3d bba4 0b3d
000000a0: c150 693c c141 56bd fbd1 ea3c 0c82 de3c
000000b0: b6dd f8bd d71f e3bd 2fc3 5e3d f39d 35bd
000000c0: 6466 183e e006 a73d 6350 8fbc 515b f33c
000000d0: 46c8 e6bd 7584 e63c 9770 a23d 790f 2bbd
000000e0: dd70 383d e457 1dbe 76e2 043e fb2b bfbd
000000f0: 251a 97bd c999 66bd 714f 043c 7079 a73d
0.024335554 -0.0015790355 -0.02330411 -0.0072837532 -0.031243932 -0.110857785 -0.024970096 -0.017809816
-0.03948354 0.032659683 -0.012666197 0.11588089 -0.021018606 -0.0816794 0.118448205 -0.0071674883
0.1293877 -0.011149603 -0.039938625 -0.04872099 0.011263401 0.102539524 0.04095555 0.0011847523
0.08375267 0.03189807 -0.034554046 -0.038678095 -0.0072542517 -0.111030236 0.032599825 0.05534655
0.056566287 -0.07889089 -0.07608987 0.072961465 0.053513773 0.0020599193 0.042502575 0.034092646
0.014240445 -0.0523088 0.02866458 0.02716162 -0.12151663 -0.11090057 0.05438536 -0.044340085
0.14882809 0.08155608 -0.017494386 0.029706629 -0.11268668 0.028139332 0.07931631 -0.041762803
0.04502951 -0.15365559 0.12977013 -0.093345605 -0.073780335 -0.056299005 0.008075581 0.08177459

advantage_stream.2.weight f4 [4, 64]
00000000: 5568 3b3e c51d fb3d 9dd1 2e3f 8080 c8bd
00000010: fa64 7a3e 606b 703e 32fa 6bbd e53d 98bf
00000020: 104b 9c3e 4a93 533e 19de 9fbe a756 86bf
00000030: eb33 ba3d 8634 0dbe 6841 bd3e 26a1 d63d
00000040: d821 c33e 390f 1e3a 0b02 e43c ea84 7abe
00000050: 3a88 6e3e 7452 e5bd 7f9b 18be 09e9 863e
00000060: 1060 1b3b 02eb 28bf e104 c63e 88ef 9b3d
00000070: 3691 9e3e ebd5 993e f11d a4be 0d25 cd3e
00000080: 1e94 d63e e880 4c3e 7dd6 63bd 0e5d 253d
00000090: 3fe5 3e3e f971 4a3e f1b8 06bf b667 db3d
000000a0: 2903 0f3d 8b98 3a3e c90b 73bf 69c1 da3e
000000b0: a49f b63e 3798 f33e d4ef 1b3f 9f6b 76bd
000000c0: 29e0 81bd 69e9 de3c 534d 5dbf 4a98 973e
000000d0: d85a d43e 59ef 0bbe e089 073f 3813 6cbd
000000e0: dd16 dd3e a2f7 a3be db77 1dbe af02 a9bd
000000f0: 9aa9 c23d 1aed 443c 12dc 983e da71 483e
00000100: e4b7 0e3e cd15 933d 6fb9 143e 4d43 81be
00000110: 3cc8 5bbf 514a d4bd ce50 5a3d 0798 6a3e
00000120: 53f3 14bd 0c97 923e 64ea 5dbf 09f8 733e
00000130: fbd7 60be 308a 30be 7992 903e c1f4 7d3d
00000140: ba10 573d 899e 35bf 128e 073e e4f5 293e
00000150: 1c61 12bf b5fe bb3e aa2e 37bf 9b32 98bf
00000160: c91a 47bf e4f1 a23d be57 483e a2c2 56be
00000170: b981 283c 1889 69be 74c3 1ebf 1858 dc3e
00000180: f347 db3e cfd1 693e a58c b7bc adc5 64bc
00000190: d23a fdbc 02e3 7c3e 8f89 af3e 1e6c 673d
000001a0: 993b 57bf 2aff 94be 8c86 953d 9f62 5d3e
000001b0: 7d08 adbe a1ce 2b3d 4cd1 bb3e 9e1c f8bd
000001c0: 21bf 013f 2276 b43e 2c32 a53c 1750 15bf
000001d0: f2f5 21bf b136 023d 3ed4 bbbd 9df0 123e
000001e0: 6e79 703e c285 2cbe def7 3f3f 771b ddbc
000001f0: dd20 403e 55bf e73c 2ad0 453e 5d6b a43e
00000200: 6245 aa3d 7b54 07bf 7ebf 3cbf 28ec 12be
00000210: 2bb8 34bd 9abb 25be 3e9a 973c 18fa 293f
00000220: ed73 45be e3fe 27be ef9f 223f c90c b73e
00000230: 2aa8 38be 131a d7bd 5d66 b7be 0044 b53e
00000240: fe78 963e 3538 70bc de19 76bf 94e2 9cbe
00000250: cc22 0e3f 9ccc 873c 7d15 ed3e a69e b33e
00000260: 0fbb 263e 4305 a53e bd65 5fbe 9063 f23e
00000270: 43c2 a03e 674f 73be a8a4 df3e 0b19 b03e
00000280: deb8 24bf e41f 923c 8200 18be 0eba 003f
00000290: 3043 61bd bdf5 12bf ef0a 963e b943 e03d
000002a0: 1317 923e c152 0e3e a3db db3e 70fc a43d
000002b0: bbd7 ec3d 5561 3dbe 4574 babd 643f ebbd
000002c0: baff f6bd 6c00 b0be 7344 bc3d cf7f ab3e
000002d0: fef3 8d3e a87f 20bf 8611 46bd a5c6 61be
000002e0: 4ca5 56bf cfa6 813d 999b 06bd 16e9 f73d
000002f0: a518 6f3d f94b c23e 97cd 4ebe 8ab9 8ebe
00000300: 399e 943c f744 223e 19d7 6b3e 3f10 c3be
00000310: 2206 80bd 9e77 ad3e c80b aabe 41a8 f33e
00000320: 123b 1d3e 5529 a53e 625b 9e3e a2d6 153e
00000330: 7c95 5c3e 8e91 59bc 0a92 0abe 3482 2bbf
00000340: e5e4 4dbf 2b46 443e 07ea a13e 5e4d c93e
00000350: bdab 233d 8d17 04bf ab46 b13e b670 053f
00000360: afac 733e fa3b 5d3e 4873 d3be 9d48 5cbf
00000370: c864 17be 4731 9c3d 3852 2c3e ba82 a9bf
00000380: cf1b 6fbc bf1d 233e 0e50 003b 9274 8f3b
00000390: 1d40 51bf fba8 c4be 8306 213e c048 803a
000003a0: 5ce4 123f 594a ea3d 2568 1f3f 7619 3fbf
000003b0: bcc1 353e 3104 d5be 0c3c c2ba 9d90 1abe
000003c0: bed5 b0be 59ed c0be cc99 873e f3f0 843e
000003d0: 0562 64bc b6bc fe3e 418e e0bd 6f7d 6d3d
000003e0: 4f2f 133f 201f 2d3e 0570 8cbe a135 a43e
000003f0: 5c47 1b3d 7fcf 263e 2f97 9dbe aca9 c8be
0.18301518 0.122615375 0.68288594 -0.097901344 0.24452582 0.2347846 -0.05761165 -1.1893889
0.30526018 0.20661655 -0.31224135 -1.0495194 0.09091934 -0.13789567 0.36963964 0.104799554
0.38111758 0.000602949 0.027833005 -0.24464765 0.23294154 -0.11197367 -0.14903067 0.26349667
0.002370838 -0.65983593 0.38675597 0.07614046 0.30970162 0.3004602 -0.32054093 0.4006733
0.4190988 0.19971049 -0.055624474 0.040371947 0.18642138 0.1977004 -0.5262595 0.10713141
0.034915123 0.18222253 -0.9493986 0.42725685 0.3566867 0.47577068 0.60912824 -0.06016123
-0.06341583 0.027210908 -0.8644611 0.29608375 0.41475558 -0.13665523 0.52944756 -0.057635516
0.43181506 -0.32024866 -0.15377752 -0.08252465 0.09505005 0.01201942 0.298554 0.19574681
0.13937336 0.071818925 0.14523862 -0.2524666 -0.8585241 -0.10365737 0.053299718 0.22909556
-0.036364865 0.28630865 -0.86685777 0.23825087 -0.2195739 -0.17240214 0.2823675 0.062000994
0.052506186 -0.7094503 0.1323779 0.16597706 -0.5717943 0.36717764 -0.7155558 -1.1890444
-0.77775246 0.07956293 0.19564721 -0.20972684 0.010284835 -0.22806203 -0.6201699 0.4303596
0.4282833 0.22833942 -0.022405932 -0.013963145 -0.030911837 0.24695972 0.34284636 0.056499593
-0.84075314 -0.29100925 0.073010534 0.21619652 -0.3379554 0.041945104 0.36683118 -0.12114833
0.50682265 0.35246378 0.020165525 -0.5832533 -0.6326591 0.03179044 -0.09171341 0.14349599
0.23483822 -0.168479 0.7498759 -0.026990635 0.18762536 0.028289476 0.1931769 0.32113162
0.08314015 -0.5286328 -0.73729694 -0.14347899 -0.04412095 -0.16184846 0.018506166 0.6639724
-0.19282503 -0.16405825 0.6352529 0.35751942 -0.180329 -0.1050302 -0.35820284 0.35403442
0.29389185 -0.014661838 -0.9613322 -0.30641615 0.55521846 0.016577058 0.46305457 0.35081977
0.16282295 0.32230577 -0.21816154 0.47341585 0.3139821 -0.23760758 0.4368031 0.34394106
-0.64344585 0.017837472 -0.14843944 0.50283897 -0.054995716 -0.57406217 0.29305217 0.10950417
0.2853323 0.13898756 0.42941007 0.08055961 0.11564585 -0.1849416 -0.09104208 -0.114867
-0.12060495 -0.34375322 0.09192743 0.33495948 0.27725214 -0.6269479 -0.048356555 -0.22048433
-0.83845973 0.06330644 -0.032863233 0.121050045 0.058373112 0.37948588 -0.20195614 -0.2787593
0.018141853 0.1584662 0.23031272 -0.38098332 -0.0625117 0.33880323 -0.33212113 0.47589305
0.15354565 0.32258096 0.30929095 0.14632657 0.21541399 -0.013279332 -0.13532272 -0.6699555
-0.8042739 0.19167392 0.3162386 0.3931684 0.039958704 -0.51598436 0.34624228 0.5212511
0.23796342 0.2160491 -0.4129889 -0.860483 -0.14784539 0.076265864 0.16828239 -1.324302
-0.014594032 0.15929316 0.0019578966 0.00437791 -0.81738454 -0.38410172 0.1572514 0.0009787306
0.573797 0.11439962 0.62268287 -0.74648225 0.17749685 -0.4160476 -0.0014818921 -0.15094228
-0.34538072 -0.37681082 0.26484525 0.2596508 -0.013939385 0.4975335 -0.10964633 0.05798095
0.5749406 0.16906404 -0.27429214 0.32072166 0.03790985 0.16290091 -0.30779406 -0.3919195

advantage_stream.2.bias f4 [4]
00000000: c176 5e3d c262 51bd 941a 19be da71 dabd
0.05431247 -0.051119573 -0.14951545 -0.10666247

feature_layers.0.weight f4 [128, 24]
00000000: 77e9 f9be 3cd8 103f fc31 efbe 6ebc 233e
00000010: 0745 ba3e 29d3 1fbf ac17 adbd e46f 98be
00000020: 3c98 62bd a543 fabd f7ab 95bd 25ad 65be
00000030: 81d2 143e e072 e43d 7411 e3be 2ea3 073f
00000040: 7d43 49bf bc03 873f 7699 f13e e05f cebe
00000050: 6719 023f ccfe d2bd 2695 ac3e de68 3cbd
00000060: 91c9 14bc 3652 e73d a861 89bc 4533 07bf
00000070: a99b 46be 27ff f0be 0a6b 8e3e 55ce 473b
00000080: 5ea0 43be 271e 993d 19cb 143e 2b16 153f
00000090: e7ce 7cbc 7af8 b13e 7cee dbbc 3a80 9ebd
000000a0: ad85 833e b489 6b3f 5875 d13d d602 93bd
000000b0: 677d 093c 587a 35bd ffd9 c93e 8ff7 16be
000000c0: 2bbc 63be 1c2f c6be a904 3f3d a331 13be
000000d0: 77f2 19be a33a a9be 8a47 843e 905e 853e
000000e0: 5c90 24be 5ec7 efbe b382 26be 573e 0cbf
000000f0: 7b63 2d3e 1c44 89be a19d c83e dbf7 753d
00000100: a2f6 f2be 9ffc edbd e743 b2be d151 92be
00000110: 55cb 14be 9b38 9a3d 11f1 cb3e ca4c 0bbd
00000120: 0b42 083e 415c a23e f8f1 5f3f bfdf 053f
00000130: aaf9 0e3e 02aa a53e db6a 773d 2c52 863e
00000140: 890d a13e 93c0 933e 7393 413e 6753 563f
00000150: facc fc3d e50c 8ebc 36eb 21bf a99f ac3e
00000160: 962f 39bc bc25 983d 005b a83d d01c d8be
00000170: d98f d63e 6846 4abe c607 0f3f a4bc 66be
00000180: 9788 3e3d f80b 633f b1ba 54be 07e0 9bbe
00000190: 99dd 863e 9a5e be3d 1005 b1be a2f1 b5bd
000001a0: e790 d1bd 7d08 df3e 3d9e c23e 9492 fd3d
000001b0: ed5c 21bf 4628 f6be 8909 89be 2ab5 34be
000001c0: 8458 2cbf 5c4a c43e 6e1b 093f d623 753e
000001d0: 8e85 b93e 0baa 4a3e 7411 bebd aa59 28be
000001e0: d58f f43d 6f44 273e bc1b 97be 1edf 313e
000001f0: d365 56be b6c3 893e 88d7 55bd 6671 cdbd
00000200: 2217 b83e 2c99 fe3d f7db 0fbe a9b5 84bd
00000210: ffea 10bf 974a d63d 27be c7be 587c 4e3f
00000220: 8f3e 91be 7482 9f3e 3e27 73be 9542 f5bd
00000230: 25df d63e f6d9 6ebe 4cfa 443e bb5e b5be
00000240: 992a 56be 08fa e93d 0354 9bbe 44c0 93be
00000250: 8f67 053e 686f da3e b2fb f7be 74cc 453d
00000260: bf4d aa3e 85be 023e 8194 e13c 3ba2 163d
00000270: 99f1 553e c348 a3bd 56f9 a9be 6d49 203b
00000280: 94fe 90be fc89 5bbe 4010 c1be 3fc3 ad3e
00000290: 82b5 0a3e 06bc 033f 708d e2be 9de0 a93e
000002a0: f49a ea3a e758 b5bc f9d1 51bc d7cc 45bd
000002b0: 9a14 9cbe 0859 71be 9bdd a63e 2cca 793e
000002c0: 8102 003f 75c5 98bd a6a4 833d 592f 7e3e
000002d0: d2bf a8be 3eb8 9fbe 92a6 cdbe 399b 7e3e
000002e0: 8384 db3e 8005 6e3e 5dde 98bc 6f69 bcbd
000002f0: 76e0 413e d305 82bc 9b58 8f3e f2ae 033f
00000300: a73f 35bb b437 12be 756e 53be 974f a53e
00000310: 6327 e7bd 7058 823d 32fd 22be 073d e3bc
00000320: 1917 dcbd b90d 593e e22c 693e 2ecf f83e
00000330: c862 bcbe 9519 d73d 5d22 1abe e85b 1fbd
00000340: 425b f73d 0754 893e bc9c 1abe 1125 c7be
00000350: 2ff4 efbe 736e e23e 79eb 03be d9b3 323e
00000360: 2744 b53e 0c3b 90be c216 b7bd 5892 983e
00000370: d9d9 5d3e 9a62 b1be 1097 2d3e 3470 1bbe
00000380: c510 c8be 904a adbe b8ae d83e ef49 48be
00000390: 850a 3cbe 8fa7 7c3c 4ac0 5bbe 4f11 afbe
000003a0: 97c1 bfbd 999f 01bf de71 6b3d b114 eabb
000003b0: fad4 3cbe 8abb e93e c0a2 afbe 9fad d03d
000003c0: ffca 733e 58f8 2d3e ab65 673e 53f9 6dbe
000003d0: 87a5 34be b35b ee3a ea9e 75bd b614 8bbe
000003e0: db7d 293e 9942 943e 3669 66bd 107e ea3e
000003f0: 7942 3ebf 2111 0ebe 6811 66be 7463 dcbe
-0.48810932 0.5657995 -0.46717823 0.15989849 0.3638079 -0.6243158 -0.08451781 -0.29772866
-0.055320963 -0.122199334 -0.0730819 -0.2242933 0.14533426 0.11154723 -0.44349253 0.5298337
-0.78618604 1.0548015 0.47187394 -0.40307522 0.5082001 -0.10302505 0.3370754 -0.045998447
-0.00908126 0.11294977 -0.016770199 -0.52812606 -0.19395317 -0.47069666 0.2781604 0.0030487974
-0.19104144 0.07476454 0.145306 0.5823695 -0.015430189 0.34759885 -0.026847117 -0.07739301
0.25687924 0.92006993 0.1022746 -0.07178275 0.008391715 -0.04430613 0.3942413 -0.14742874
-0.22239749 -0.38707817 0.046635304 -0.14374404 -0.15033899 -0.3305255 0.2583583 0.26048708
-0.16070694 -0.46831793 -0.16260795 -0.54782623 0.1693248 -0.26809776 0.3918276 0.060050827
-0.4745379 -0.11620449 -0.3481743 -0.28578046 -0.1453069 0.07530328 0.39832357 -0.03400878
0.13306443 0.3171101 0.8747859 0.52294534 0.13962427 0.32356268 0.06040464 0.26234567
0.3145564 0.2885786 0.18903904 0.8372101 0.12343784 -0.017340133 -0.6324953 0.3371556
-0.011302849 0.07429072 0.08220482 -0.42209482 0.41906622 -0.1975342 0.55871236 -0.22532898
0.04651698 0.8869014 -0.20774342 -0.30444357 0.2634094 0.092953876 -0.34574175 -0.088839784
-0.10232716 0.43561164 0.3801135 0.12381473 -0.6303242 -0.480776 -0.26765087 -0.17647234
-0.67322564 0.38337982 0.5355748 0.23939452 0.36234707 0.19791429 -0.09280673 -0.16440454
0.11941496 0.16334699 -0.29513347 0.17370269 -0.2093728 0.26907128 -0.0522075 -0.10031395
0.3595515 0.12431559 -0.14048754 -0.064799614 -0.56608576 0.10463446 -0.39012262 0.80658484
-0.2836804 0.31154215 -0.23745438 -0.1197559 0.4196712 -0.23325333 0.19236106 -0.35423836
-0.20914687 0.11424643 -0.30337533 -0.28857625 0.13027786 0.4266312 -0.48434216 0.048290685
0.3326244 0.1276799 0.027536632 0.03677581 0.20892943 -0.079728626 -0.3319804 0.0024457828
-0.28319228 -0.21439356 -0.3770771 0.33938023 0.13545802 0.51458776 -0.44248533 0.3317918
0.0017898963 -0.022137119 -0.012806409 -0.048291054 -0.30484468 -0.23569119 0.32590947 0.24393529
0.5000382 -0.07459537 0.064278886 0.24822749 -0.32958847 -0.31195253 -0.40166146 0.248639
0.42874536 0.23244286 -0.018660719 -0.09199797 0.18933281 -0.015871918 0.27997288 0.5143882
-0.0027656348 -0.14279062 -0.20647605 0.32287285 -0.11286809 0.06364524 -0.15916899 -0.027739061
-0.10746593 0.21196641 0.22771028 0.48595566 -0.36794114 0.10502926 -0.15052171 -0.038906008
0.12077953 0.2682192 -0.15098852 -0.38895467 -0.46865985 0.4422489 -0.12882794 0.17451419
0.3540356 -0.2817005 -0.089398876 0.2979915 0.21665134 -0.3464554 0.16952157 -0.15179521
-0.39075294 -0.3384595 0.423208 -0.19559453 -0.18363388 0.015420808 -0.21460071 -0.34192893
-0.09363096 -0.5063415 0.05748164 -0.00714358 -0.18440619 0.45650893 -0.34303856 0.101893656
0.23807906 0.16989267 0.22597377 -0.23239641 -0.17641269 0.0018185287 -0.059966005 -0.2716424
0.16551916 0.2895706 -0.05625268 0.45799303 -0.7432018 -0.13873722 -0.22467577 -0.43044627
