models/snake_dqn_ep294_score11_20250303_093911.pt (torch, 738146 bytes, 44 tensors)

feature_layers.0.weight f4 [128, 24]
000000 78 ed 81 be 68 26 77 3e 3f 16 85 be 54 03 16 3e
       -0.25376487 0.24135745 -0.25993535 0.14649707
000010 ca 83 06 3f 0b cf 2b bf 85 51 0d be f9 86 b2 be
       0.52544844 -0.671128 -0.13800628 -0.348686
000020 41 0e 8d bd 1c f8 f9 bd dd 07 73 bc 47 0d 99 be
       -0.06887484 -0.12205526 -0.014833418 -0.29892942
000030 ac 80 93 3e d9 8b 95 bd 88 12 9d be 36 c0 00 3f
       0.28809106 -0.073020644 -0.306782 0.5029329
000040 73 fb db be 48 75 3b 3f 93 1c 04 3f 28 94 c1 be
       -0.42965278 0.7322583 0.516061 -0.37808347
000050 38 32 0f 3f 65 fb b8 bd 0b ee cd 3e 6d 8a 6c 3e
       0.55936 -0.09032325 0.40220675 0.2309968
000060 45 fb 18 bd be 05 4e 3d 8b 78 eb bd 06 33 91 be
       -0.037349004 0.050298445 -0.11497601 -0.2835924
000070 de 3a a6 be a2 5a dd be 66 b7 9a 3e 28 dd db bd
       -0.32466787 -0.4323321 0.30218047 -0.107355416
000080 d6 28 8b be 59 69 9e 3d e6 84 4b bc e8 2f 21 3f
       -0.27179593 0.07734937 -0.012421822 0.62963724
000090 b7 d7 3d ba 33 05 50 3e 21 46 2f bc 80 3e b1 3b
       -0.0007241922 0.20314483 -0.010697872 0.005409062
0000a0 8d a5 58 3e f5 34 3a 3f 70 24 bc 3d 37 f8 ec 3b
       0.21156903 0.72737056 0.091866374 0.007231738
0000b0 7e d8 f2 3b 05 82 98 3d b6 33 18 3f e5 4d 44 bd
       0.007411062 0.07446674 0.59453905 -0.04792585
0000c0 d4 55 3c be 09 0b bd be af 97 c9 3d 33 f4 59 be
       -0.18392116 -0.36922482 0.098433845 -0.21284561
0000d0 07 f0 d0 bd 50 8f 9f be f2 61 52 3e d8 88 8d 3e
       -0.102020316 -0.31164026 0.20545176 0.27643466
0000e0 e3 77 82 be ff 53 bf be aa 06 2d be bb 7d fe be
       -0.2548209 -0.3736877 -0.16897073 -0.497053
0000f0 54 40 e9 3d 4a 9d a0 be cc 28 d2 3e 94 1b d8 3d
       0.11389223 -0.31370002 0.4104675 0.10552135
000100 b6 36 ec be c5 79 cf bd 02 5b bd be 3a 8e 90 be
       -0.4613549 -0.101306476 -0.36983496 -0.2823351
000110 3b f0 12 be 14 ec 98 3d 59 18 fa 3e dc 15 25 3d
       -0.14349453 0.07466903 0.488467 0.04030405
000120 2d e5 fe 3d 61 fc a6 3e 14 da 57 3f 0f e1 00 3f
       0.124460556 0.32614425 0.84317136 0.5034341
000130 97 e8 1c 3e 2b 96 a7 3e 69 4f 93 3d f8 d4 86 3e
       0.15323101 0.32731757 0.07192881 0.26334357
000140 02 0e 8f 3e d9 7b 8b 3e 88 24 18 3e 84 98 53 3f
       0.27940375 0.27242926 0.14857686 0.82654595
000150 76 0f 46 3e 23 ff 19 3e ba a6 2c bf e8 6a a5 3e
       0.19341835 0.15038733 -0.67441905 0.32308125
000160 84 ea 48 bb d6 7f cb 3d ec cf f8 3d 7b fe d4 be
       -0.003065736 0.09936492 0.12149033 -0.41600403
000170 06 6b e0 3e fe cb 35 be 43 df 0f 3f 6d 5d 4b be
       0.43831652 -0.17753598 0.56200045 -0.19859858
000180 51 09 9f b9 a8 6b 55 3f ae 16 1f be 4d 17 90 be
       -0.00030333785 0.83367395 -0.15535995 -0.28142777
000190 bd 14 8d 3e 35 78 3e 3e ec 72 e3 be 27 dc 3e bd
       0.27554885 0.18600543 -0.44423616 -0.046596672
0001a0 cd 67 25 be 1e f9 e3 3e 39 69 82 3e 55 23 47 3e
       -0.16152878 0.44526 0.25470904 0.19447072
0001b0 25 79 02 bf 8d 6d d6 be 19 39 cf be 99 aa 03 be
       -0.509661 -0.41880456 -0.4047325 -0.12858047
0001c0 0a 57 1a bf 49 b0 b5 3e 8f 52 0f 3f c9 c3 a0 3e
       -0.6028906 0.35486057 0.5598535 0.31399372
0001d0 8c 88 e8 3e f2 0a 47 3e d6 83 86 bd e8 10 1b be
       0.45416677 0.19437769 -0.065681145 -0.15143168
0001e0 9b ce 61 3d 8d 43 cc 3d d7 86 51 be 9a 73 3c 3e
       0.055128675 0.09973822 -0.20461594 0.18403473
0001f0 50 58 09 be 31 bc 93 3e ba c2 08 bd 5d 84 28 bd
       -0.13412595 0.28854516 -0.03338883 -0.041141856
000200 32 0b 8a 3e 7f 8b 11 3e 71 3a 1a be 31 9a d2 bd
       0.26961666 0.1421337 -0.15061356 -0.10283316
000210 aa 3f 02 bf df f5 02 bd ba d2 b5 be fc fe 44 3f
       -0.50878394 -0.031972762 -0.35512334 0.76951575
000220 69 b9 d2 be 5e db 65 3e e8 5c 1a be b2 74 92 3d
       -0.41157082 0.22446963 -0.15074503 0.07151164
000230 08 cd db 3e 02 50 1f be b1 e5 a3 3e 9d 94 0b be
       0.42929864 -0.15557864 0.32011178 -0.1363091
000240 ba bb 53 be 91 48 6a 3d 91 9f 89 be aa d1 82 be
       -0.20677081 0.05719811 -0.26879552 -0.25550586
000250 f6 76 2f 3e e7 54 df 3e ba 95 f2 be 33 f1 41 3d
       0.17135224 0.43619463 -0.47379857 0.047349166
000260 2f ea 9b 3e 7c 30 21 3e ca df 8b 3c 4c 77 65 3d
       0.30452105 0.15741152 0.017074484 0.056021973
000270 ff 39 62 3e 86 42 65 3d 40 9c ad be 10 95 6b bd
       0.22092436 0.055971645 -0.33908272 -0.057515204
000280 98 71 38 be 4e 9b fe bd 78 50 cd be ee 2b a2 3e
       -0.18012083 -0.12431966 -0.40100455 0.3167414
000290 35 60 88 3d 98 f1 04 3f 17 f9 08 bf be 71 ba 3e
       0.06658975 0.5193114 -0.5350508 0.36414903
0002a0 f7 66 a7 bc cf bd 2d bb 2d f2 39 bd 5e 16 63 bd
       -0.02043484 -0.002651084 -0.045396972 -0.055441253
0002b0 5e b0 8f be e6 be 58 be b7 41 ae 3e d4 54 84 3e
       -0.28064245 -0.21166572 0.3403451 0.2584597
0002c0 7a 28 f7 3e 98 25 c8 bd 6f d7 9c 3c af c4 80 3e
       0.4827307 -0.097727954 0.019145695 0.25150058
0002d0 1a d9 5a be 63 83 50 be bd 22 e1 be 23 7b 4e 3e
       -0.2137188 -0.2036262 -0.43971816 0.2016416
0002e0 80 de ce 3e ea 44 62 3e cd 3d 38 3c 76 f0 e2 bd
       0.4040413 0.22096601 0.011245203 -0.110810205
0002f0 d2 31 64 3e d0 5f 17 bd 35 43 a1 3e 1d cb 11 3f
       0.2228463 -0.03695661 0.31496587 0.5695055
000300 7a f6 f9 bc ed 5e 1b be a5 1d 4c be 75 3e 9a 3e
       -0.030513037 -0.1517293 -0.19933183 0.30125776
000310 00 53 81 bd f7 b9 3c 3d 5f 4b 0b be 1e d9 2d bd
       -0.06314659 0.046075787 -0.1360297 -0.042443387
000320 6d 30 07 be fd f9 41 3e 81 07 3e 3e 80 16 f4 3e
       -0.13202067 0.18943019 0.1855755 0.47673416
000330 cb f7 98 be 0b 05 78 3e c4 a1 56 be d7 77 e7 3c
       -0.2987655 0.24220674 -0.20960146 0.028255386
000340 27 dc fe 3d 33 9a 8c 3e ca 5b 12 be 33 7c b4 be
       0.124443345 0.27461395 -0.14292827 -0.35251006
000350 3f c5 0a bf e6 7d ec 3e 03 72 d4 bd 60 02 3b 3e
       -0.54207224 0.46189803 -0.103733085 0.18262625
000360 68 7a b7 3e fb 8e 41 be 65 88 a4 bc 90 56 86 3e
       0.35835576 -0.18902199 -0.02008457 0.26237917
000370 10 5f 55 3e 68 09 4e be 32 6b 4d 3e de 0a 32 be
       0.20837045 -0.20120776 0.20060423 -0.17386958
000380 5d a1 da be 1b 18 8b be 45 56 f2 3e e2 a2 56 be
       -0.42701235 -0.2716683 0.47331443 -0.20960572
000390 9f 62 c3 bd a0 c2 38 3e c3 d5 90 be 93 99 75 be
       -0.09540295 0.18042994 -0.28288087 -0.23984365
0003a0 ff d2 df bd 46 a3 f5 be af 16 aa 3c ed 0a 71 bd
       -0.10928916 -0.4797613 0.02076277 -0.05884831
0003b0 0d 08 2b be 18 0d dc 3e 06 ac c3 be 83 a9 01 3c
       -0.1670229 0.4297874 -0.3821718 0.00791395
0003c0 f7 a8 72 3e 0f 9f 59 3e 44 20 40 3e bf 10 62 be
       0.23697267 0.21252082 0.18762308 -0.220767
0003d0 c9 aa 2b be 73 56 53 3d 92 c3 80 bd 67 1c 63 be
       -0.16764368 0.051596116 -0.06287302 -0.22178803
0003e0 0a 1b d5 3d aa 04 b1 3e d3 04 0e be da 41 07 3f
       0.10405548 0.3457387 -0.13869028 0.52834857
0003f0 2d 6c 19 bf ca 9f 8f bc 61 35 ae be 9d 24 68 be
       -0.5993069 -0.017532248 -0.340251 -0.22670217

feature_layers.0.bias f4 [128]
000000 af 85 40 be 76 49 2d be 07 4c 03 bb 18 ce 59 3e
       -0.18800996 -0.16922554 -0.002003433 0.21270025
000010 52 a9 34 3e 0c 5f 35 bd ab ba 57 3e b5 b5 75 3e
       0.17642716 -0.044280097 0.21067302 0.23995097
000020 0d 96 92 3e 42 72 80 3e 6b 6a 4c 3e eb 7c 94 bd
       0.28630105 0.25087172 0.1996247 -0.07250389
000030 5f 65 a5 3e 73 c8 19 3d 91 33 c3 bc 73 9f 9a 3d
       0.32303903 0.03754468 -0.0238283 0.07549944
000040 97 ba 52 3d c0 86 ae 3d 5f 07 91 bd e1 29 27 be
       0.051447477 0.08521795 -0.07081484 -0.1632457
000050 79 20 ce 3d 09 1b ae bd c8 5a 88 3e 95 40 2f be
       0.100647874 -0.0850125 0.2663176 -0.1711448
000060 4d e7 21 be 97 4a b6 3c 38 d5 d2 bd f3 bc f3 3d
       -0.1581089 0.022252364 -0.102945745 0.119012736
000070 78 ce 13 3e 0a 65 b3 3e 74 7e 9e bd 0c 27 89 be
       0.1443423 0.35038024 -0.07738963 -0.26787603
000080 0d be 2e 3c ab 82 98 bd fb e1 5c 3c 17 72 31 3e
       0.010665429 -0.07446798 0.013481612 0.17328678
000090 f3 b8 36 bd 77 a2 d1 bc b2 0e 5b be 85 dd 80 3e
       -0.044609975 -0.025590165 -0.21392325 0.25169006
0000a0 4f 19 4b 3d 4e 72 be bd cb 28 6d be be 46 ab 3e
       0.049584683 -0.09299146 -0.23160093 0.3345241
0000b0 66 71 49 be 74 3a 88 3c f6 9a 74 be 80 dd 7a bd
       -0.19672164 0.016629435 -0.23887238 -0.061246395
0000c0 5d dd 2f be 9c 22 2c be de 19 a4 3d 44 d1 b7 bd
       -0.17174287 -0.16810077 0.08012746 -0.08975461
0000d0 95 f5 1e 3c 6a 79 cf 3c 6f 25 6c 3d ee ce 02 bd
       0.009702106 0.02532645 0.057652887 -0.031935625
0000e0 14 5a 38 be 64 c4 3c be 2a aa 28 bd 7b 9d 84 3e
       -0.18003112 -0.18434292 -0.041177906 0.25901398
0000f0 86 56 af bd 99 44 73 bc 45 8c 28 be 40 56 4f 3e
       -0.08561425 -0.014847898 -0.16459759 0.20247746
000100 aa d6 80 bd b5 9f 73 bd 20 f9 5c bd 34 6c 81 3e
       -0.06290944 -0.05947848 -0.05394852 0.25277865
000110 85 d7 a6 3d 0c 4e 64 3e 3c a5 30 bd b3 75 af 3d
       0.08146576 0.22295398 -0.04312633 0.08567371
000120 df e7 83 3e bf 13 88 3e da 68 2f 3e bf 99 5f 3e
       0.2576284 0.26577565 0.17129841 0.21835993
000130 82 87 0d be e6 ab 48 3e 1e 78 7f be b9 fa 4d be
       -0.13821223 0.19596824 -0.24948165 -0.20115174
000140 3f 97 61 be 77 4e 90 bc 65 fb aa 3b f4 ab 32 be
       -0.22030352 -0.01761554 0.005217957 -0.17448407
000150 8b 2b e7 3b a0 fd 78 3e 45 df 5d bd 25 b6 11 3e
       0.0070547513 0.243155 -0.054168005 0.14229639
000160 43 dc 0a 3d 09 ba 75 be bd 34 d3 bd 0d 31 8c 3e
       0.033901464 -0.23996748 -0.103127934 0.27381173
000170 71 28 79 3d 68 a5 3b 3d 1e 5b bd 3d de bd 38 3d
       0.060829584 0.04581204 0.09245895 0.045102946
000180 c7 fb e5 3d bb ec 30 be 39 ae 14 bd c5 5b 79 3c
       0.11229663 -0.17277806 -0.036298964 0.0152196335
000190 9c 01 e2 bd fd e9 84 3e 73 8c 0f 3e d2 f9 a1 bc
       -0.11035463 0.2595977 0.14018421 -0.019772444
0001a0 e8 cf 81 bd 8b 44 45 be 51 0c 93 3e 09 26 82 3d
       -0.06338483 -0.19264428 0.28720334 0.06354911
0001b0 03 cf 8d bc e0 63 9f be 60 e9 4f bd 40 cb fd bd
       -0.017310625 -0.31130886 -0.050759673 -0.123922825
0001c0 91 f9 a2 bd c6 88 4e bd 04 95 70 3d 0c 2b 2f 3e
       -0.07957757 -0.050423406 0.058735862 0.17106265
0001d0 5c 07 9c be 73 09 85 be e6 80 8b 3e 7a ec fc 3d
       -0.30474365 -0.25983772 0.2724678 0.12349792
0001e0 f5 90 6a be 2c b5 cd 3d 3d 90 44 be 08 1d e6 3d
       -0.22906859 0.100443214 -0.19195648 0.11236006
0001f0 28 1b 4c 3d c7 57 03 be 6b 33 31 bc bd 59 7c bd
       0.049830586 -0.12826453 -0.010815482 -0.06160902

feature_layers.1.weight f4 [128, 128]
000000 1d 50 c4 bd 92 3f b6 3d a1 00 97 3d fd 4a 25 be
       -0.09585593 0.08898844 0.07373167 -0.16141887
000010 ce 52 5d 3c 5d dd 54 be 15 fb 05 3e 0e e6 b9 3d
       0.013508512 -0.20787568 0.13084061 0.090770826
000020 9a b1 a6 3c a9 e9 c2 3d c1 a4 4a 3e 3c ef ad 3e
       0.020348359 0.095172234 0.19789411 0.33971584
000030 0c c4 50 3e ce 1c 41 3d 37 75 1a 3d c5 aa 2e be
       0.20387286 0.04714661 0.03770944 -0.17057331
000040 68 60 95 3e e2 48 bd 3d 0f 61 c9 3d 0b 5b 72 bd
       0.29175115 0.09242417 0.098329656 -0.059168857
000050 0d 63 e2 3c c0 a0 9c be 46 aa 44 3d b0 bc af be
       0.027635122 -0.30591393 0.048013948 -0.34323645
000060 4e a3 ec bc aa 85 00 be 36 e6 96 bd bd 77 39 3e
       -0.028886463 -0.12550989 -0.07368128 0.18112083
000070 51 67 03 3e 46 45 9b ba b1 cf 22 bd af 09 3c be
       0.12832381 -0.0011846207 -0.03974885 -0.18363069
000080 3f 6d 33 3d bb 0d 04 bd a2 51 13 be ea 15 29 3e
       0.043805357 -0.032239657 -0.14386609 0.16512266
000090 84 1b 03 be 27 36 b4 bd 91 f3 12 bd e5 5e 29 3e
       -0.12803465 -0.08799391 -0.035876814 0.16540106
0000a0 fb 72 40 be 60 f5 d2 3d 40 6e 9a be ea e5 3f 3c
       -0.18793862 0.10300708 -0.3016224 0.011712531
0000b0 d2 c7 a4 bd 0c 70 16 be 76 f1 26 3e 1a ba 6c 3e
       -0.08045925 -0.1469118 0.16303048 0.23117867
0000c0 e8 eb a9 3c a8 c9 b1 be 19 8d 52 be af 68 2f 3c
       0.020742372 -0.34724164 -0.20561637 0.010706111
0000d0 c5 d7 3a bd 89 75 31 bc 3a ba 32 3e a8 c9 e5 bc
       -0.04561593 -0.010831245 0.17453852 -0.028050259
0000e0 ec 7a cf 3c 0c d1 c3 bd d1 a3 79 be d5 c7 17 3e
       0.025327168 -0.09561357 -0.24378897 0.14822324
0000f0 06 6d 28 bd 71 77 8e 3d 95 0d 6e bd 1c 2b 1c 3d
       -0.041119598 0.069563754 -0.05811842 0.03812705
000100 69 d3 0c be 4b 26 c0 bc 00 5b 59 3a be 46 d9 3d
       -0.13752522 -0.02345576 0.0008291453 0.10609196
000110 68 c2 0a 3e 6c 46 5b 3d 0a 1a aa b9 a5 4c e6 3d
       0.13550723 0.053533956 -0.00032444327 0.112450875
000120 72 81 5d 3e c4 9a 50 3c 4e eb a0 3b 4e f0 89 3e
       0.2163141 0.0127322115 0.004910863 0.2694115
000130 b1 cb 01 bd 39 1d 11 3e 13 8f ae 3e e4 86 a9 3d
       -0.031688396 0.14171304 0.34093532 0.082776815
000140 82 9d 3c be 97 24 e9 bc e1 1a 88 bc ef d3 9f 3d
       -0.1841946 -0.02845983 -0.01661438 0.07804095
000150 65 c5 27 be c9 87 44 bd 4d ce a6 3d 08 3c 05 be
       -0.16383894 -0.047981057 0.081448175 -0.13011181
000160 6a 5d 67 3d 7f 55 b8 be d7 15 59 3e 25 d8 86 3d
       0.05648557 -0.36002728 0.21199737 0.06584195
000170 f2 eb 07 be 0b ef 36 bc 07 ee f9 3c 69 d8 22 bb
       -0.132736 -0.011165391 0.030509008 -0.0024848229
000180 07 47 5f bd 39 cc e5 3d 18 c2 6f be c0 bb 05 3e
       -0.054511096 0.11220593 -0.23413885 0.13059902
000190 86 04 e3 bc 2d 10 3d 3e 6a f8 fc bd cd 48 1a be
       -0.027712118 0.18463202 -0.12352069 -0.15066834
0001a0 14 8d b2 3b 5b 5c 02 3c 9e d5 5f 3e e3 4e 93 bc
       0.0054489467 0.00795659 0.21858832 -0.017981952
0001b0 9b 6e 6f bd 32 6f 1c be ab dd 90 3e 03 01 ce bd
       -0.05845509 -0.15276793 0.2829412 -0.10058787
0001c0 46 bc 01 3e d0 f9 12 be 72 7e 02 3e a4 54 04 3e
       0.12669477 -0.14353108 0.12743548 0.12922913
0001d0 58 4e 99 be 43 83 e9 3d 75 09 42 3c b7 57 39 3e
       -0.29942584 0.11401989 0.011843075 0.18099867
0001e0 40 07 db 3d 57 17 43 be fa 0f c6 3b 35 61 9c bd
       0.10694742 -0.19051872 0.006044385 -0.07635728
0001f0 20 d9 d1 3d 7e d6 e6 bd e2 2a 9f bc d6 02 4c be
       0.102464914 -0.1127138 -0.019429628 -0.19922957
000200 ed da bc bd 7c a9 1a 3e 9b 5d a2 3d 8d 7a 86 bd
       -0.09221444 0.15103716 0.0792801 -0.065663435
000210 0a 9f 17 3e 3e d0 8f bd 19 81 ff bc 05 db 0e 39
       0.14806762 -0.07022141 -0.031189488 0.00013623766
000220 b5 6a 8d bd 9e 78 9c 3d 00 db 15 3e 07 ad fa bd
       -0.069051184 0.076401934 0.14634323 -0.122400336
000230 8d 05 7e 3e 79 9c 03 be ce 4a bc bd 36 20 bb bd
       0.24806805 -0.12852658 -0.09193955 -0.09137003
000240 93 c0 b4 3d cf e1 a2 3d 02 40 21 bd e1 13 f4 bd
       0.08825793 0.07953226 -0.039367683 -0.11917854
000250 8b 77 f0 bd 28 21 6a 3d 57 d4 06 be b2 f9 0a 3c
       -0.11741551 0.057160527 -0.13166939 0.008482384
000260 ee 14 57 bd 7f b3 5f 3e d1 46 64 be 7a f5 32 be
       -0.052510194 0.21845816 -0.2229264 -0.17476454
000270 dd c3 ed 3c 66 f1 b5 3d 9b 22 5b bc 15 f6 51 3d
       0.029024059 0.08883934 -0.01337495 0.051260073
000280 0c 2b 6e 3d 5e bb a9 3d 56 f1 3e be cb b6 6e bb
       0.05814652 0.082876906 -0.1864675 -0.003642487
000290 a5 6a 20 3e f2 3b 1a 3e ce 0e 7c 3d 35 50 d5 3d
       0.15665682 0.1506193 0.061537556 0.10415689
0002a0 81 7b 6b bd 4e 5c af bd 9c 2b 5d be da ad 30 3d
       -0.05749083 -0.085625276 -0.21598667 0.043134548
0002b0 64 83 c3 bd db cf 64 be 54 69 08 3d c4 45 1a 3d
       -0.09546545 -0.22344916 0.033303574 0.03766419
0002c0 8f 0e 76 3d 69 bd d9 bd 75 da 45 3d 50 5f 22 bc
       0.060072478 -0.1063183 0.04830404 -0.00991042
0002d0 bd 8b 72 be 72 80 49 3e 50 89 6c 3e 0d c7 b6 bd
       -0.23686118 0.19677904 0.23099256 -0.08924685
0002e0 07 af 87 3d 4b 00 db bd 6a 17 56 be 4d 4c 4b 3e
       0.06625181 -0.10693415 -0.2090737 0.19853325
0002f0 6d e3 86 3d 64 d5 85 bd 2b 5b 40 be 06 47 43 3e
       0.06586347 -0.06534842 -0.18784778 0.19070062
000300 f9 5b 89 3e 7c ed c9 bd 36 36 f2 bd b2 8d b1 bd
       0.26827982 -0.0985975 -0.11826746 -0.08669604
000310 52 33 2e 3d 0d f2 bc bc 94 1e 33 be db fe 07 3d
       0.04252941 -0.023064638 -0.17492133 0.033202033
000320 4e 70 bc 3d 75 10 26 3e 80 69 81 bd b6 78 6a 3e
       0.09201108 0.16217215 -0.06318951 0.2289761
000330 84 56 45 bd ed 3c 4b 3c 87 27 c7 bd aa 48 38 3d
       -0.04817821 0.012404663 -0.09724336 0.044991173
000340 3c 45 29 3e 85 50 87 bc 62 0a ae bd 9e b5 03 3f
       0.16530317 -0.016517887 -0.08498074 0.51449
000350 44 93 52 be 86 e5 39 bc 6e 07 44 be 1d 6c fc 3d
       -0.2056399 -0.011346227 -0.19143459 0.123253085
000360 9a 94 0f be 52 d0 15 be a5 d3 0a be c5 8b 94 3d
       -0.14021531 -0.14630249 -0.13557298 0.072532214
000370 ba e7 32 be e4 c8 0d 3e ee d6 f0 bd 17 40 02 3d
       -0.17471209 0.13846165 -0.117597446 0.031799402
000380 d8 c9 96 3a 34 0e ad bc 54 07 98 bd 83 a7 40 bd
       0.0011504246 -0.021124937 -0.07423273 -0.04703475
000390 aa 1b b1 bd 38 26 44 3e cc 4d 5a be 9b 23 26 3e
       -0.086478546 0.19155204 -0.2131874 0.1622452
0003a0 68 3f 8a be 89 68 bf bd 25 6f 3c 3e 0a 2a 67 bc
       -0.270015 -0.093461104 0.18401773 -0.014109144
0003b0 df a7 d4 bc 1e 67 66 bd 64 67 61 bc f2 60 36 bb
       -0.025958953 -0.056250684 -0.01375756 -0.002782878
0003c0 3d 91 6b 3e ef 44 3e 3c 6b 7b 4d be bd 71 e7 bd
       0.23004623 0.011613115 -0.20066611 -0.11300991
0003d0 09 cc 99 bd d7 f7 3c bd d9 33 74 39 32 a8 fe 3d
       -0.0750962 -0.046134796 0.00023288968 0.124344245
0003e0 64 4e 03 be 47 aa 2b 3e af 40 18 3e 28 b4 0a 3e
       -0.12822872 0.16764174 0.14868425 0.13545287
0003f0 3b f2 ad bb 9e ee 01 3c fe 07 06 be d3 3a cf bd
       -0.005308417 0.007930426 -0.13088986 -0.10118642

feature_layers.1.bias f4 [128]
000000 c3 b3 c1 3b 27 01 c5 3c c9 4d 21 3d ca 13 12 bd
       0.005911322 0.024048401 0.039380822 -0.035663404
000010 b1 b7 03 be 67 48 40 bd 92 b3 9f 3c 8f 70 b4 bd
       -0.12863041 -0.04694405 0.019494805 -0.08810531
000020 73 77 00 3e 30 9a 2a be a4 1c 6e 3c 2d f9 05 3e
       0.12545566 -0.1666038 0.014533196 0.13083334
000030 1e a3 2c 3d 53 a8 64 3d a3 eb 23 3e 23 85 5a bd
       0.04214775 0.05582459 0.16007857 -0.053349625
000040 69 41 83 3d 03 cc e5 bd f0 a7 26 3e 58 1f a6 3d
       0.0640896 -0.11220553 0.16275 0.08111447
000050 93 f6 7c 3c 4b ae 8e bb 17 50 ab 3d b8 b5 d0 bd
       0.015439647 -0.0043542734 0.08364885 -0.1019091
000060 ac 9d 45 3d 73 5e 08 bd 55 63 6a 3a e8 b0 49 3c
       0.04824607 -0.0332932 0.0008941193 0.012310244
000070 95 5f 81 bd 79 41 b0 3c e8 e7 81 bd de b1 82 3d
       -0.06317059 0.021515595 -0.06343061 0.06381582
000080 81 e9 5f 3d 47 03 99 3c 38 1b 68 3d 1d b0 09 3c
       0.054666046 0.01867832 0.056666583 0.008403805
000090 32 ff 87 3d b9 da 1f 3e 5f 39 15 3e 7e 1b 85 bd
       0.066404715 0.1561078 0.14572667 -0.06499384
0000a0 3a b8 7a 3d a7 aa a9 3d cc 6c 6a bd a5 e4 c0 3d
       0.06121085 0.082845025 -0.057232663 0.094186105
0000b0 10 76 ed 3d 5e 68 82 bd 08 62 18 3d 97 21 0c 3e
       0.11594784 -0.06367563 0.037202865 0.13684689
0000c0 dd 22 05 3e 0f ba 89 3d 87 2f f0 bb 74 f3 a7 bc
       0.1300158 0.06724941 -0.0073298845 -0.02050183
0000d0 53 a9 a4 3d ba 4a b7 bd 59 6d 84 bc 4f 5e 0b bd
       0.080401085 -0.089498 -0.016165422 -0.034025487
0000e0 5b cd 20 3d 7a 6f 13 3c ad 16 12 3d 05 b1 bd bd
       0.039258342 0.008998746 0.035666157 -0.092622794
0000f0 8b 0f bd 3d 43 2e 46 3c 0d 81 d8 bd 6e 8f 09 3d
       0.0923148 0.012095991 -0.105714895 0.03358405
000100 fa e6 39 3e be be 99 3d 32 d2 10 3e e7 e0 a8 bd
       0.18154517 0.07507084 0.14142683 -0.08246022
000110 3b ad ba 3d 8f 37 d7 3d 05 33 b9 3d 9f 2f 50 3c
       0.09115072 0.10508644 0.09042934 0.012706666
000120 49 3b 86 bd 58 cd 1b 3e 52 0a 67 bd eb 0b ce bc
       -0.065542765 0.15215051 -0.056406327 -0.025152167
000130 d4 b0 a6 3d d1 9a 83 3b 67 ab 2a bd 3d a3 e5 bd
       0.08139196 0.0040162583 -0.04166737 -0.11212776
000140 2f 64 11 3d 24 04 9a 3d 44 30 e8 bd a5 1c 64 bc
       0.035495933 0.07520321 -0.11337331 -0.013922845
000150 16 2b 63 3d 35 b5 0a be 95 b9 cc bd c9 d9 dd bd
       0.05546101 -0.13545687 -0.099963345 -0.10832555
000160 49 72 f5 bd 69 23 09 3e 24 ac 30 3d 1c 6b b6 3c
       -0.11984689 0.13392414 0.043132916 0.02226787
000170 31 c1 a6 3d f6 2b 8b 3d ee 53 3e 3d f1 52 51 bd
       0.08142317 0.06795494 0.04646676 -0.05110449
000180 07 ec 48 be ea 3b 02 3e 32 4b 49 bd 77 a2 d4 bd
       -0.19621287 0.12718168 -0.049143977 -0.1038255
000190 f3 90 27 bd 47 ee 9f bd e4 3e 8a bd 60 48 64 3d
       -0.04090972 -0.0780912 -0.06750277 0.055733085
0001a0 88 de 0c be 16 35 26 bd 90 67 c0 bd c4 98 b8 bc
       -0.13756764 -0.04057797 -0.09394753 -0.022533782
0001b0 16 64 21 bd 9c 40 11 3c de da 61 bd 6e ce 00 be
       -0.03940209 0.008865502 -0.05514037 -0.12578747
0001c0 37 13 30 3e ff fc 71 3d 82 dd 80 3d 24 23 55 3d
       0.1719483 0.059079167 0.06292249 0.052035466
0001d0 66 83 2a 3d 67 5d 0a 3e 80 82 0f be 9c b0 21 3c
       0.041629218 0.13512193 -0.14014626 0.009868767
0001e0 d2 83 3a bd 74 94 f9 3d b7 15 f3 bd 7d 6c fe bc
       -0.04553587 0.12186518 -0.11869376 -0.03105759
0001f0 75 a8 fc 3d 9d 5a b1 bc 81 9b a0 3c f3 3b 22 3c
       0.12336818 -0.021649653 0.0196054 0.009901988

value_stream.0.weight f4 [64, 128]
000000 57 f5 ac 3d dc d6 59 bd f4 cd db 3d 8c d5 40 3e
       0.08445232 -0.05318342 0.10732642 0.18831462
000010 fd e8 06 3d a5 f7 23 bc 06 ba 04 3d a3 5e d1 bd
       0.03293704 -0.0100077735 0.03240397 -0.10223129
000020 95 a2 62 bb 1b 59 33 3e 95 eb aa bc c1 24 92 3d
       -0.003458177 0.1751446 -0.020864287 0.071359165
000030 c4 7c b2 3c 4f 94 0d 3e d4 59 17 bd 15 41 16 bd
       0.021788009 0.13826106 -0.0369509 -0.03668316
000040 fc ff 65 bd d4 85 0a be f7 a9 4e be 4e ad ae bd
       -0.05615233 -0.13527614 -0.20182024 -0.08529149
000050 f2 46 b3 3d c7 f4 81 bb ed 85 26 3d 8f 54 83 3c
       0.08753766 -0.0039659473 0.040655065 0.016031532
000060 8e 1c 55 3d 86 d8 c0 3e 89 eb 84 3c 2a 7a 33 bc
       0.052029185 0.37665194 0.016225593 -0.010954419
000070 7e 90 62 3c a4 8d d5 3c 73 06 0d bd 89 64 4c be
       0.013828395 0.026068516 -0.03442998 -0.19960226
000080 7c 28 36 3d 26 1c 05 3e f4 97 d4 bd 25 12 f6 3c
       0.044472203 0.12999019 -0.10380545 0.030037949
000090 38 1a 4a be d1 44 19 bd 35 5b 1a be f9 0f f3 bc
       -0.19736564 -0.037419144 -0.15073855 -0.029670702
0000a0 1f 6c 51 3e 3c 96 ad 3d 4a 24 06 be 84 82 a3 3d
       0.20451401 0.084759206 -0.1309978 0.07983878
0000b0 73 b0 e9 3b 33 83 3b 3e 3a 22 3f bd 86 0e 90 bd
       0.00713163 0.18311767 -0.0466635 -0.0703402
0000c0 1c 7c 28 be dd d3 6c bc 07 b3 1a 3e f7 ed 43 3e
       -0.16453594 -0.014454809 0.15107356 0.19133745
0000d0 14 a7 4e bd 4a bf 3a 3e e4 7e b6 3e e9 b6 ea bb
       -0.050452307 0.18237033 0.35643685 -0.007162918
0000e0 7d 25 27 3d 73 82 42 3d 50 34 72 3e df 1e ae bb
       0.040807236 0.047487687 0.23652768 -0.0053137387
0000f0 b5 c3 19 be 3f 02 de 3d ac 3f be 3d 7c 47 5f be
       -0.15016063 0.10840272 0.09289488 -0.21804613
000100 4c 83 09 be 9c 83 b7 bc 0a 68 bb bd 89 69 b6 bd
       -0.13428992 -0.022401623 -0.09150703 -0.08906848
000110 aa ae 91 bc 2a 88 f3 bd 21 e7 71 bd b0 72 2c be
       -0.017783482 -0.118912056 -0.059058312 -0.16840625
000120 8c 2c 0b 3d b2 13 f5 bd 89 f5 23 be 21 51 02 be
       0.03397803 -0.11966647 -0.16011633 -0.1272626
000130 d8 29 3e 3d 1b dc ab 3e e1 a6 44 be fe 69 86 3e
       0.046426624 0.33566365 -0.19204284 0.2625274
000140 9c 18 59 bd 12 ac 91 be 9e c3 0f be 1a 50 3f 3e
       -0.053001985 -0.28451592 -0.14039466 0.186829
000150 e2 cd 92 3d d1 76 05 3e 59 22 63 3d bd f8 05 be
       0.07168175 0.13033606 0.05545268 -0.13083167
000160 04 85 39 3e 60 13 f6 bd 49 09 06 3c 22 af 3b 3d
       0.18117148 -0.12015414 0.008180925 0.045821317
000170 28 47 50 be 9e 70 c6 bd 98 cb a5 be 7e 32 83 3d
       -0.20339644 -0.09689449 -0.32381892 0.06406115
000180 6a df b7 bd 6f f9 34 3d 02 51 55 3e 70 59 b3 3e
       -0.0897816 0.04418319 0.20831683 0.35029173
000190 1e ce b4 3d 18 c0 9d 3e 33 b8 47 3d 33 d8 06 3d
       0.08828376 0.30810618 0.04875965 0.032921027
0001a0 58 21 cb 3e ca df 96 3e c0 f4 ac 3d 21 6e 35 3e
       0.39673877 0.29467613 0.0844512 0.17717792
0001b0 ba c7 d8 bd 53 5b 76 3e f0 7c 97 bd a4 d6 ed ba
       -0.1058497 0.24058275 -0.07396877 -0.0018145633
0001c0 31 ca 28 3e 93 9c ba bd a8 00 88 be 25 59 29 3e
       0.1648338 -0.091118954 -0.26563 0.16537912
0001d0 9e bf ab 3d 21 21 36 3e e3 61 2a 3e dd 0b a3 3e
       0.083861575 0.17786075 0.16638903 0.31844988
0001e0 6f 56 58 3e fa dd 03 3e 40 2f 93 3d 0d 73 ff bd
       0.21126722 0.12877646 0.071867466 -0.12473116
0001f0 9b c6 e0 bc 05 b0 4d bd 08 ab 83 be f5 3e d4 bd
       -0.027438452 -0.050216693 -0.25716424 -0.103635706
000200 ef 05 97 bd 63 b1 7f be 0f 38 3c 3e 24 51 97 39
       -0.073741786 -0.24970011 0.1838076 0.0002886142
000210 60 91 55 be 60 76 1e 3e 7d 65 27 be 0c 3c 27 3e
       -0.20856237 0.15474844 -0.16347308 0.163315
000220 54 26 77 3d 04 4f 82 3d 57 37 b9 3d d4 10 af 3c
       0.060339287 0.06362727 0.09043758 0.021370329
000230 ec 9e 25 be 9b 16 92 be d6 64 2a be dd 2a d4 bd
       -0.16173905 -0.28532872 -0.16640028 -0.10359738
000240 59 fd 1b be 98 ae 0b bd e8 cf 84 bb 7e fa 8e bd
       -0.15233363 -0.034102052 -0.0040531047 -0.06981371
000250 31 10 93 3d 4b bb 6f bc 23 11 42 be a6 98 ac 3c
       0.07180823 -0.0146320565 -0.1895185 0.021068882
000260 8d 1b 43 be 9e 37 d1 ba dc 83 78 be 4d 3a 44 be
       -0.19053479 -0.001596201 -0.2426905 -0.19162865
000270 00 f3 b0 3e bd 28 70 3d 53 80 80 3e 73 e3 fc bd
       0.34560394 0.0586326 0.25097904 -0.1234807
000280 a7 b8 00 be 60 19 e8 3d ec 3b 00 3c 5f ed 25 3e
       -0.1257044 0.11332965 0.0078267865 0.16203831
000290 ae 6a 54 be 2d 37 d8 bd 24 f6 27 be 2d 96 25 3e
       -0.2074382 -0.10557399 -0.16402489 0.16170569
0002a0 5c d8 c9 bc 38 0c fc bd f1 6c 4f 3e b9 77 10 be
       -0.024639301 -0.12307018 0.20256402 -0.1410817
0002b0 84 b1 79 be 38 7c e5 3d a9 af d4 bc a9 88 35 be
       -0.24384123 0.112053335 -0.025962668 -0.17727913
0002c0 22 b8 9f bd 0e be 5d bd 45 ce 5f bb 34 ba d7 3d
       -0.077987924 -0.05413633 -0.0034150046 0.10533562
0002d0 a7 96 92 bd 5c 1a 79 3c f5 36 57 bc 5a 73 8f 3e
       -0.07157641 0.0152040385 -0.013135661 0.28017694
0002e0 2a 1b 9d 3d 62 a8 b0 bd 59 a8 51 be f2 6f 75 3d
       0.07671197 -0.086258665 -0.20474376 0.059921212
0002f0 ae 3a 57 3e 95 92 9a 3d 6b dd 9d 3d c1 05 f0 bd
       0.21018478 0.075474896 0.07708248 -0.117198475
000300 2a 1e ad bc f0 ca 82 bd 5b 07 ff 3d 98 4b 55 bd
       -0.021132547 -0.063863635 0.12452575 -0.052074045
000310 ae cd 8e bb 4b 68 35 be 96 e2 09 3d df 5b 78 3e
       -0.004358015 -0.17715566 0.033663355 0.24253796
000320 de c9 2a 3e 86 a0 f0 bb ee 6b a1 3b c9 ee df 3d
       0.16678569 -0.0073433546 0.0049261963 0.109342165
000330 26 a8 ab bd bb 5d 24 bd 42 70 02 3e f1 b6 0a 3d
       -0.08381681 -0.04012845 0.12738135 0.033865873
000340 0c d4 75 bd bd 2b d8 be f4 98 78 3e 66 6e 41 be
       -0.060016677 -0.4222087 0.24277097 -0.1888977
000350 eb b3 be be 41 b4 77 be d6 e8 4d be 37 74 43 3e
       -0.37246642 -0.24189855 -0.20108351 0.19087301
000360 8d f4 c7 3d 99 da aa be 8f 34 24 bc 26 34 3a 3d
       0.09763441 -0.33369902 -0.010022297 0.04545989
000370 e7 37 89 be 02 47 1b bd 13 b3 17 bd d7 43 9d be
       -0.26800463 -0.037909515 -0.037036013 -0.3071582
000380 5b d3 99 3e 1c 4a 95 bd 00 84 6e 3e f6 3c ad 3d
       0.30044064 -0.07289526 0.23292542 0.08458893
000390 aa 47 e6 bd b2 d1 81 3d a9 33 3d bd 5e ee b5 3d
       -0.112441376 0.06338824 -0.046191845 0.088833556
0003a0 fc 54 4a 3a 77 6f 5e 3e 64 6c 86 3c 58 47 4b 3e
       0.0007718352 0.21722208 0.016409107 0.19851434
0003b0 ec 72 17 3d d2 c6 10 bd 99 79 84 3c d1 00 4f 3c
       0.036974832 -0.03534586 0.016171264 0.012634472
0003c0 1f 37 17 3d 25 83 09 3d 6f 92 89 3d a6 79 c8 bd
       0.036917802 0.033572335 0.06717383 -0.097888276
0003d0 3e 7b 86 be fd 65 d5 bd 2a 06 73 3c 63 48 87 3d
       -0.262659 -0.10419843 0.014833013 0.066056035
0003e0 24 f0 19 be ad 89 60 bd 09 bf 52 bd 36 5c 1d 3e
       -0.15033013 -0.054818798 -0.051451717 0.15367207
0003f0 68 e7 8a 3c 3f 71 ad 3d e6 65 92 be 32 b9 03 39
       0.016956046 0.084688656 -0.28593367 0.00012562124

value_stream.0.bias f4 [64]
000000 ce ff f8 bd 25 10 a0 bd 3a 5e 69 bc 9d e0 7b bd
       -0.12158166 -0.07815579 -0.014243657 -0.061493505
000010 31 82 02 3e 32 9c 04 bd 5a be e8 bd 66 14 a6 3c
       0.12744977 -0.032375522 -0.11364432 0.020273399
000020 d6 e7 57 3d c3 ff 9b bd 35 db 45 3d d1 cf c5 3d
       0.05271133 -0.07617142 0.048304755 0.096587785
000030 07 c1 df 3d a1 38 60 bd 92 5f 15 3e a9 9d 8e 3d
       0.10925489 -0.054741506 0.14587238 0.06963665
000040 9b 44 21 3c f9 96 12 be 19 3f d9 bd 9c 1c 1f 3e
       0.009843017 -0.14315404 -0.10607738 0.15538257
000050 85 e9 ec 3d 5a 89 9d bd b6 5a 95 3d 05 24 ef 3d
       0.11567978 -0.07692213 0.07292692 0.11676792
000060 14 48 74 bd 7b 77 10 be 9e ae d4 3c e0 8a a1 3d
       -0.05963905 -0.14108078 0.02596217 0.078878164
000070 74 5d 0f bb b9 f1 30 bd 4a 24 21 bd 54 fc 93 bb
       -0.002187577 -0.043199275 -0.03934125 -0.004516164
000080 38 be 30 3e 1c 3a 49 bc ca be 4b 3e d1 62 2e be
       0.17260063 -0.012281921 0.19896999 -0.17029883
000090 88 25 07 bc fb ff 04 bc af 7d fa bd 9d 40 42 bd
       -0.008248694 -0.008117671 -0.122310035 -0.0474249
0000a0 ec 78 1d be 20 91 6f 3c 23 ab cc 3d 96 e3 ac 3d
       -0.1537816 0.014622003 0.09993579 0.08441846
0000b0 b6 be ae 3d 73 4f b7 3c 20 4a a4 3d 5c a9 20 3e
       0.08532469 0.022376752 0.08021951 0.15689605
0000c0 5a 1a 9f 3c b6 cb d9 3c d2 39 54 bd 86 b3 6c 3d
       0.019421745 0.026586395 -0.051812954 0.057788394
0000d0 1e a5 45 3d 09 27 bf bd f6 fd 36 3d 51 d4 06 be
       0.04825317 -0.09333617 0.04467579 -0.1316693
0000e0 18 ff 1e be 16 93 71 3c 71 00 47 3d c6 78 86 3d
       -0.15526998 0.014744541 0.048584405 0.065660045
0000f0 e0 3d 18 3e 64 95 c8 3d 4b 7a 7c bd 24 cb 2b 3d
       0.14867353 0.09794119 -0.061640065 0.041941777

value_stream.2.weight f4 [1, 64]
000000 1f 01 2b be 04 46 b6 be bc df f4 38 1d 1c 42 be
       -0.16699646 -0.35600293 0.000116765004 -0.18956037
000010 84 41 eb 3d de e7 2d be 63 20 65 bd 2b 1a 74 be
       0.114871055 -0.16982982 -0.05593909 -0.23838107
000020 73 49 94 3d 16 cb 31 bd 06 11 15 3d db 77 1a 3e
       0.07240572 -0.04340657 0.036393188 0.15084784
000030 ff 7a b8 3e ac 47 39 bd 97 95 0f 3f 2d 54 b5 3e
       0.3603134 -0.045234367 0.5608763 0.35415784
000040 38 d7 45 3e 20 b2 d7 bd ff 08 bc bd 60 50 08 3f
       0.1932038 -0.105320215 -0.09181403 0.5324764
000050 86 08 02 3e 15 13 84 be 36 59 4b 3e 19 17 2d 3e
       0.12698564 -0.25795808 0.1985825 0.16903342
000060 a9 81 8e be 20 e8 a1 bd 30 e4 09 3e 2f 2f b8 3e
       -0.27833298 -0.079056025 0.13465953 0.35973498
000070 c8 14 19 be fd 03 47 be a4 e8 dc bd db 26 eb bd
       -0.14949334 -0.19435115 -0.1078656 -0.114820205
000080 3e a7 35 3e 31 22 5c be 6e 30 cb 3d 4f 08 16 be
       0.17739579 -0.21497418 0.099213466 -0.14651607
000090 6f f5 80 be f6 98 10 bd 5f 57 c0 be d8 ce 70 be
       -0.2518725 -0.035302125 -0.3756666 -0.23516405
0000a0 1e 8f c3 be 99 af 24 be 49 1f d7 3e 72 e7 a6 3e
       -0.38195127 -0.1608261 0.42016056 0.32598454
0000b0 0d eb d6 3e d8 bf 11 be 65 b8 14 3e cc eb 65 3e
       0.41976205 -0.14233339 0.14523466 0.2245323
0000c0 2c e7 bc bd 33 66 0e be 3b 1d 8d be 0b ee 70 3e
       -0.0922378 -0.13906173 -0.27561364 0.23528306
0000d0 3f 35 24 3e 87 85 52 be e1 fa 3e be 53 3d c8 bc
       0.16035937 -0.20558749 -0.1865039 -0.024443304
0000e0 a8 06 26 be e7 af ba 3d f7 86 e0 3d 94 8d 50 3e
       -0.16213477 0.09115582 0.109632425 0.20366508
0000f0 6b 81 ce 3e 5c e4 c6 3e 89 0e 2f be 3a 2b 06 be
       0.40333113 0.388461 -0.17095388 -0.13102427

advantage_stream.0.weight f4 [64, 128]
000000 16 ce 82 3d 04 77 dc bc 0c 82 ae bd f6 81 a9 be
       0.06386964 -0.02691222 -0.08520898 -0.33106965
000010 71 3d a0 be 4a c6 8a bd 6b 0f 2d 3e be 3d 23 be
       -0.31296876 -0.06776102 0.16900413 -0.15941522
000020 e8 8d 35 3d 9b e9 e1 bd 3b f6 29 3e 56 c5 b0 3d
       0.044324785 -0.11030885 0.16597836 0.08631389
000030 54 69 95 be 14 68 fb bd 6a 9e 55 3e 43 b4 cc bc
       -0.2918192 -0.12275711 0.20861211 -0.0249883
000040 f6 06 10 3a 12 14 ef bb f7 24 0f 3e 54 48 1d 3e
       0.00054942013 -0.0072960937 0.13978945 0.15359622
000050 80 85 33 be bd 71 05 3e b4 10 c7 3d 9e 54 a1 3e
       -0.17531395 0.13031669 0.09719983 0.3150987
000060 b3 9b ea bb a3 7d 39 3d 6b b5 5c 3d c8 19 1f 3e
       -0.007159674 0.045285832 0.05388395 0.15537179
000070 20 65 6f 3c b8 86 10 be 51 a1 1f 3f 98 df 87 bc
       0.014611512 -0.14113891 0.62355524 -0.01658611
000080 5c df 43 be 8e 4e be be 4d fd b3 be 20 53 e3 bd
       -0.19128174 -0.37169307 -0.3515419 -0.11099839
000090 be fa 09 be d1 1d 3c be 30 d3 fe 3d ba d3 aa bd
       -0.13474557 -0.18370749 0.124426246 -0.08341165
0000a0 d4 25 51 3c b4 c4 09 be 74 8d a3 bd d6 ae d0 3d
       0.012765367 -0.13453943 -0.079859644 0.10189597
0000b0 a0 50 30 3e c1 3c 9e bd e2 d6 43 be b6 0c 30 3b
       0.17218256 -0.07726432 -0.1912494 0.0026863045
0000c0 d0 37 20 3e 4a 48 6a be 1f b2 c3 3d ba 40 5c 3e
       0.15646291 -0.22879139 0.09555458 0.21509066
0000d0 e2 75 10 be 0e be bc 3d 2f 45 d7 bd 0a e0 b1 3d
       -0.14107469 0.092159376 -0.105112426 0.0868531
0000e0 e6 fa fe bd 6c b3 05 3e 04 50 ae 3d f7 f5 20 be
       -0.12450199 0.13056725 0.085113555 -0.15718828
0000f0 21 b2 d0 ba d8 ba bb bd c2 ac d9 3c e9 1f 9f bd
       -0.0015922227 -0.09166497 0.026571635 -0.07769758
000100 6e 77 b3 bd 1f b5 8c 3d 49 29 09 bd 27 bb 8e 3d
       -0.08763014 0.068704836 -0.03348664 0.0696929
000110 47 35 11 3d 6e 66 5b 3e ce d0 33 3d b4 2f 06 be
       0.0354512 0.21425793 0.043900304 -0.13104135
000120 94 fa 82 be 1b 9f e5 3b 8e 4f fd 3c fe 45 7d 3e
       -0.255818 0.0070074922 0.030921724 0.24733731
000130 cf 1d e3 bd e9 47 44 3e 71 fc 2c be bf 0a ef 3a
       -0.1108967 0.19168057 -0.16893174 0.0018237456
000140 5e 07 9e bb 87 78 21 be ba 96 ab 3d ca c7 60 be
       -0.0048226556 -0.15768634 0.08378358 -0.21951213
000150 73 dc ce 3b cf b6 28 be 15 f2 0b 3d ce d9 a8 bd
       0.0063129007 -0.16475986 0.034166414 -0.08244668
000160 15 db 9f 3d 23 dc 42 be 4f 6c 22 bc f8 8f 17 bf
       0.078054585 -0.19029288 -0.009913518 -0.59204054
000170 ce c5 bc 3c df e8 aa bd d8 6a 95 be 86 c6 05 3e
       0.02304354 -0.08345198 -0.29183078 0.13064012
000180 fd f2 f7 3c ac a9 b3 bd fc f5 70 3d e1 a2 c2 3d
       0.030267233 -0.08772597 0.05882834 0.09503723
000190 01 06 57 3e 86 42 0b be 0e 55 1b 3e c5 0d 96 3c
       0.20998384 -0.13599595 0.15169165 0.018317113
0001a0 ec e3 c5 3d 51 cf 10 bd 00 22 9d bd 9e f0 4e be
       0.09662613 -0.035353962 -0.076725006 -0.20208976
0001b0 4c 29 58 3d ec 2a 3e 3e ba 5c ab be 97 b7 ab 3e
       0.05277376 0.18571061 -0.33469182 0.33538505
0001c0 aa 8f 27 3d 05 92 33 be 28 e1 83 3e 22 a7 d3 bd
       0.040908493 -0.17536171 0.25757718 -0.103346124
0001d0 77 58 04 3e a8 83 82 bd 1d 80 39 3e 8b 20 25 bc
       0.12924372 -0.06372768 0.18115278 -0.01007856
0001e0 eb 6a 66 3e b3 07 0e 3e 45 04 78 3e 4d 98 25 be
       0.22501723 0.13870125 0.24220379 -0.1617138
0001f0 2c f9 90 3b 02 62 02 bd 3d bf 2e be 38 67 bb 3d
       0.004424235 -0.03183175 -0.17065139 0.09150547
000200 81 33 fd bd 32 0f 1f be e8 97 e0 bd cb 60 5b be
       -0.12363339 -0.1553314 -0.10966474 -0.21423642
000210 6b e7 ef 3d a1 55 0f 3d fb 06 1b bd 9e 13 e6 bb
       0.11714061 0.03499377 -0.037848454 -0.0070213815
000220 76 30 8d bd 65 99 58 bb 00 18 89 3e 77 0d 7d 3b
       -0.06894009 -0.0033050415 0.26776123 0.0038612762
000230 d3 2f 53 bd 2e f4 e0 bd 94 69 47 be 1c 89 85 3e
       -0.05155928 -0.109840736 -0.19473869 0.2608117
000240 d1 cc 75 bd 67 57 b0 3e b1 5a 14 bd 1f ee 17 3d
       -0.06000978 0.34441683 -0.036219303 0.037092324
000250 ac 3b 70 bd 6a c8 dc bd 7f 85 57 3d d8 ff 95 3e
       -0.058650658 -0.107804134 0.052617546 0.29296756
000260 cc d2 df bc be 38 39 be 54 1e b1 3c 22 66 bb 3e
       -0.027322195 -0.18088052 0.021620907 0.3660136
000270 99 f0 d6 bd 77 44 00 3d b7 2e 04 3e 0b f5 09 3e
       -0.10495109 0.031315293 0.12908445 0.13472383
000280 1b a1 97 bd f0 4e 76 3d 97 29 82 be 48 98 09 bd
       -0.07403775 0.060133874 -0.25422356 -0.033592492
000290 8a 53 9a bd 2e 12 0e 3e 7b 3c 3e 3e d7 0f 52 bb
       -0.07535465 0.13874123 0.18577759 -0.0032052898
0002a0 c1 6a 7b bc 87 38 e5 bb 3f 59 d4 bd fd 74 84 3d
       -0.015345276 -0.006995264 -0.10368585 0.06467626
0002b0 04 ae 52 bd b6 65 29 3e c7 80 ba bd 44 5c d0 3d
       -0.051435485 0.16542706 -0.091065936 0.10173848
0002c0 92 58 20 be ce 91 28 be 6d b7 fb 3e d7 5b 6f bd
       -0.15658787 -0.1646187 0.4916338 -0.058437195
0002d0 f5 46 12 bd 47 dc c6 3e 74 cf 24 3e 5f 88 fd 3d
       -0.0357122 0.38839933 0.16094762 0.12379526
0002e0 53 ab b8 3e f2 50 d5 bd 07 d8 12 3e d0 e7 76 bd
       0.3606821 -0.1041583 0.1434022 -0.060279667
0002f0 b1 49 12 3c 9b 5b bb 3c 40 9e d3 3d 30 e6 45 be
       0.008928702 0.02287083 0.10332918 -0.19326091
000300 fa b3 7b bd ec c9 8d bd 7f a9 42 bc 7c fa 82 bb
       -0.061450936 -0.06923279 -0.011881231 -0.003997145
000310 1f 25 1f be 92 9e dd 3d 52 b5 a7 bd 28 d6 a1 3c
       -0.15541504 0.108212605 -0.08188881 0.019755438
000320 4b 42 52 bc 23 b6 4f 3d b7 96 03 3f ed e5 07 3e
       -0.012833188 0.05071081 0.5140185 0.13271303
000330 eb e4 f6 3b 41 c2 92 3e 0a e9 1c 3b fc 38 66 bd
       0.0075346134 0.2866383 0.0023942613 -0.05620669
000340 f5 8e 63 3c 3e b7 1a 3e d3 68 58 3e 29 ce 8c be
       0.013889064 0.15108964 0.21133737 -0.27501038
000350 91 0f 5c be 16 c4 25 3e 8d 54 c0 bc 99 f8 08 bf
       -0.21490313 0.16188082 -0.023477817 -0.5350433
000360 1f 5c ab 3c b1 79 41 be 45 49 6d 3d 10 12 74 be
       0.02091795 -0.18894078 0.057931203 -0.23835015
000370 ca bd 7a 3c 9e 83 bc bd 29 32 1a be 8d 04 c9 3b
       0.015304038 -0.092047915 -0.15058197 0.0061345757
000380 6a ad b8 3d 9a 3f 47 3d b0 b0 8b 3e 32 44 6a be
       0.09017451 0.04864464 0.2728324 -0.22877577
000390 5a 3b 13 3e 54 cc 00 be ac 89 95 3d 30 22 45 be
       0.1437811 -0.12577945 0.073016495 -0.19251323
0003a0 bb 54 a8 b7 11 0c 62 be 9b 25 d2 bd 8a e1 66 3e
       -2.0066616e-05 -0.22074915 -0.10261079 0.22546974
0003b0 6a f3 d7 3d 0d 67 93 bd 46 4a b7 bd ec fd 59 3f
       0.105444744 -0.0719739 -0.089497134 0.8515308
0003c0 b4 11 c2 3a 39 b6 36 be a4 6e 59 bd fe fe 64 bc
       0.0014806301 -0.1784295 -0.05308403 -0.0139768105
0003d0 c8 ff a3 3b cf 88 70 3c 74 ff ea 3d 30 de 5b 3e
       0.0050048567 0.014681055 0.11474505 0.21471477
0003e0 b4 25 09 be 4d 3c e6 3d e6 c2 80 bc 97 f4 20 3d
       -0.13393289 0.1124197 -0.015717935 0.03929576
0003f0 36 90 0b bd a7 db b2 bc 6b 56 1a be 29 74 19 3e
       -0.034073077 -0.021833254 -0.15072028 0.14985718

advantage_stream.0.bias f4 [64]
000000 ff 78 28 3d b0 1e 6c 3c 04 3f 0d bd ad 6a 3c bc
       0.041131016 0.014411613 -0.034483925 -0.011500043
000010 c4 d8 1c bd 53 2d a0 bd 22 a5 5f bd 0f 78 5b bd
       -0.03829266 -0.07821145 -0.054600842 -0.053581294
000020 84 bf 2e bd 80 32 52 3d e3 78 80 bd 31 e4 a2 3d
       -0.042663112 0.05131769 -0.06273057 0.0795368
000030 3b 99 02 bd 30 9d 90 bd 1c af c2 3d 03 28 5e bc
       -0.031884413 -0.07061231 0.09506056 -0.013559344
000040 1d 35 d0 3d 98 5e 2d bd 67 b8 74 bd a3 9f 19 bd
       0.101663806 -0.04232654 -0.059746172 -0.037505757
000050 af 70 0b bd 8d cf 9e 3d 4c 22 b4 bb 49 80 8a bc
       -0.03404301 0.07754431 -0.0054972526 -0.016906874
000060 c1 95 5d 3d 1b 88 00 3c bf 6f b0 bd e4 8f 5a bd
       0.054097895 0.00784495 -0.08615064 -0.05335988
000070 08 bc cd 3b e5 c6 b5 bd 56 4e 24 bb b0 75 70 3c
       0.0062785186 -0.08875827 -0.0025071106 0.014676496
000080 7d 72 d6 3c b4 53 7c bd 3a 59 ab bc fc ce 82 3d
       0.02617764 -0.061603263 -0.02091657 0.063871354
000090 0b 53 52 3d b3 fd 13 bd be ee a4 ba 58 21 1e bb
       0.051348727 -0.03613062 -0.0012583358 -0.002412876
0000a0 2f ed cd 3b 41 4a 56 bd 6a 45 ec 3a 88 b3 d6 bc
       0.006284378 -0.052316908 0.0018026058 -0.026208654
0000b0 91 b5 f7 bd 23 55 c6 bd d5 b4 4f 3d bd 7a 8e bd
       -0.12095178 -0.09684207 0.050709564 -0.06957004
0000c0 6b 89 e8 3d e8 9d a9 3d 03 8b 02 bd 76 ce 23 3c
       0.113543354 0.08282071 -0.031870853 0.009997955
0000d0 48 e5 fc bd 29 4a 15 3d 15 6a 88 3d 06 00 8f bd
       -0.123484194 0.036447678 0.066608585 -0.06982426
0000e0 42 e0 20 3d 5f 70 f2 bd 50 88 d4 3d b4 b6 ba bd
       0.03927637 -0.11837839 0.10377562 -0.09116879
0000f0 60 72 1b bd c6 9f ad bd 93 9e 27 bd 78 de e6 3c
       -0.037950873 -0.0847774 -0.040922713 0.028182253

advantage_stream.2.weight f4 [4, 64]
000000 d3 b3 53 3e ed 72 ff 3d 11 e9 2c 3f d1 24 cb bd
       0.20674066 0.12473092 0.6754313 -0.099191315
000010 07 1b 3d 3e 04 3f 1b 3e 39 ee cd bd 93 75 81 bf
       0.18467341 0.15160757 -0.10055203 -1.0114006
000020 57 f5 8a 3e 9a 85 6b 3e 48 f9 9b be 50 5b 5c bf
       0.27140304 0.23000184 -0.30463624 -0.8607683
000030 af b3 86 3d 6b 56 27 be 2a e7 bc 3e 69 c4 c8 bc
       0.06577241 -0.1634156 0.36895114 -0.024507718
000040 ba c9 a4 3e 75 7a 34 bd b8 32 76 3c da 35 80 be
       0.32185155 -0.044062097 0.015026741 -0.25041085
000050 15 a0 5d 3d 50 b0 cd bd db 59 f4 bd 15 1f e6 3d
       0.054107744 -0.100433946 -0.11931201 0.11236397
000060 5f 71 aa bd 39 0d 05 bf 89 65 c8 3e 91 3f 28 bd
       -0.08322405 -0.519733 0.39139965 -0.041076247
000070 1b 4d 9b 3e bc bb 93 3e ef ff a4 be 21 6c a8 3e
       0.30332264 0.28854167 -0.32226512 0.32894996
000080 9c 7a d2 3e 56 52 4b 3e b7 8e 9c bd 4d a9 86 bc
       0.4110917 0.19855627 -0.07644408 -0.01643815
000090 b1 1e da 3d b1 cc 4c 3e 09 52 a9 be 9d 49 a8 3d
       0.10650385 0.19999959 -0.330704 0.082171656
0000a0 9b ee 91 3d c6 8e e8 3d 72 45 4c bf c9 01 d2 3e
       0.071255885 0.11355357 -0.79793465 0.41016987
0000b0 d3 9b b9 3e e6 33 0a 3f 1d 74 26 3f ec bf e4 bc
       0.36251697 0.5398544 0.65020925 -0.027923547
0000c0 53 10 80 bd 3a d3 26 3d 3e 63 46 bf c6 81 48 3e
       -0.062531136 0.040728785 -0.7749518 0.19580755
0000d0 97 11 c0 3e d1 52 40 be 17 ba 08 3f b0 3c 5d bd
       0.3751342 -0.18781592 0.5340895 -0.054012954
0000e0 d4 78 d8 3e 43 30 2b be 0c 6d 0a be c5 6d 94 bd
       0.42279685 -0.16717629 -0.1351816 -0.072474994
0000f0 00 d3 e7 3d d8 6a ac bd 3a f0 9c 3e 69 c6 4c 3e
       0.11319542 -0.08418816 0.30652028 0.19997562
000100 17 21 21 3e dc 9b fd 3c 00 b2 f2 3d f3 6f 81 be
       0.15735279 0.030958109 0.11850357 -0.25280723
000110 40 0a 14 bf 2d 99 9e bd 59 1a 53 3d 62 cd 1c 3e
       -0.5782814 -0.0774406 0.0515388 0.15312722
000120 fe 10 ee bc 63 2e 70 3e 43 30 3f bf 1a 8a 24 3e
       -0.029060837 0.23455195 -0.74683017 0.16068307
000130 b1 59 3d be 89 9f 14 be 24 98 89 3e 41 f3 8f bd
       -0.18491246 -0.14513983 0.26873887 -0.07028819
000140 6f e9 81 bd 4a 85 69 be 67 95 9a 3d 18 81 22 3e
       -0.06343352 -0.22804752 0.075480275 0.15869558
000150 64 4f 86 be 92 07 b9 3e a6 4a 2a bf 29 a4 e3 be
       -0.26232445 0.36138588 -0.66520154 -0.44461182
000160 b5 d9 9d be 62 0a a0 3c 42 7e 4a 3e 60 0e ab be
       -0.3083016 0.0195362 0.19774726 -0.33409405
000170 fd 33 9a ba 01 94 2d be 1f b1 09 bf c2 83 7b 3e
       -0.0011764761 -0.1695099 -0.5378589 0.2456198
000180 5b 49 cb 3e 65 69 85 3e bb 94 f3 bc 82 4d d6 bc
       0.39704403 0.26056972 -0.029734006 -0.026160005
000190 01 5e 4d bd 70 f5 72 3e 57 a2 81 3e a1 c0 53 3e
       -0.050138477 0.2372644 0.25319168 0.20678951
0001a0 7f 49 51 bf 2c f9 0e bd 92 01 aa 3c ee a7 e5 3d
       -0.8175277 -0.034905598 0.020752702 0.11213671
0001b0 1b 87 8a be ae f1 51 3d a6 da b7 3e 17 af 10 be
       -0.27056202 0.051255874 0.35909003 -0.14129291
0001c0 1f ec fc 3e d6 33 b6 3e 07 53 98 bc ee 76 02 be
       0.49398896 0.35586423 -0.018594278 -0.1274068
0001d0 9e e0 82 be f9 64 22 3c 48 3c bc bd 54 15 15 3e
       -0.25561994 0.009911769 -0.09191185 0.14558917
0001e0 46 22 3c 3e ae 11 ae bd f6 3b 3b 3f ce 25 a0 3c
       0.1837245 -0.08499466 0.7313837 0.019549277
0001f0 9a 8e 8a 3e 85 64 83 3b 23 2d 42 3e fb b4 a2 3e
       0.2706192 0.0040097856 0.18962531 0.31778702
000200 8f c1 22 3c 57 65 ce be a6 1a 21 bf 83 bc 97 bd
       0.009933843 -0.4031169 -0.6293129 -0.07409003
000210 b1 f0 18 be 17 48 fc bd 72 71 d0 bd 95 7b 24 3f
       -0.14935566 -0.123184375 -0.10177888 0.6425107
000220 b6 c8 00 be 9b 22 f1 bd 42 2d 24 3f 96 7e b5 3e
       -0.12576565 -0.117741786 0.6413156 0.3544814
000230 e9 0c 22 be 20 7c 25 be e4 fb b2 be 84 41 95 3e
       -0.15825237 -0.16160631 -0.34957802 0.29151547
000240 cd 9e 78 3e 12 b9 f6 bd 64 2f 4c bf 2b e1 8b be
       0.24279328 -0.12047018 -0.7975981 -0.27320227
000250 2c 4c 12 3f 1a db c6 bb 68 27 ee 3e 8c c8 65 3e
       0.5714748 -0.0060685994 0.4651444 0.22439784
000260 42 cf 69 3d af 37 a1 3e f9 01 54 be a2 cb e3 3e
       0.057082422 0.31487796 -0.20703878 0.44491297
000270 88 d6 b2 3e 91 90 57 be 32 23 e3 3e e7 6d 56 3e
       0.349293 -0.21051241 0.4436279 0.20940362
000280 5a c1 06 bf 30 78 d0 bc 87 18 3f be 59 7f 12 3f
       -0.5263878 -0.025447935 -0.186617 0.5722557
000290 d3 f3 08 bd d4 99 10 bf 7e f7 9d 3e b7 23 34 bc
       -0.033435654 -0.56484723 0.30852884 -0.010994843
0002a0 23 8d 8c 3e a4 d0 8e 3d c9 df d7 3e c3 8c 84 bc
       0.2745143 0.06973389 0.42162922 -0.016180402
0002b0 d9 42 f9 3d e6 bb 5f be 48 fe 0e be 33 0e 02 be
       0.12170953 -0.21849021 -0.13964188 -0.12700729
0002c0 e7 59 3a be a9 87 ad be ee 6a be 3d 28 20 44 3e
       -0.18198358 -0.33892563 0.09297739 0.19152892
0002d0 0e bd f6 3d b5 57 08 bf 2a 7e 56 bd 46 7b 49 be
       0.12047778 -0.5325883 -0.052366413 -0.19675931
0002e0 41 d6 2a bf 1e 66 14 bd 70 b0 c3 bd 00 f7 aa 3d
       -0.66733176 -0.0362302 -0.09555137 0.08347893
0002f0 d8 08 92 bd be fb 00 3f 34 5c 4c be 3a ac 89 be
       -0.07130593 0.5038413 -0.19957048 -0.2688921
000300 19 3c 10 3d 89 b1 f2 3d ab 82 45 3e 5a e3 eb be
       0.035213564 0.118502684 0.19288127 -0.46071893
000310 cb 54 ba bd 0a be b6 3e c5 9e fd bd dc bf e4 3e
       -0.09098204 0.35691863 -0.123837985 0.44677627
000320 e1 52 0c 3e 83 90 a0 3e 08 e4 54 3e 0a 90 ba 3d
       0.13703491 0.31360254 0.20790112 0.091095045
000330 00 49 3e 3e fe 9c 3a 3d 08 ec fb bd d6 e1 6e be
       0.18582535 0.045559876 -0.12300879 -0.23328337
000340 55 4c f2 be 5c b5 bd 3c ef 29 90 3e e2 eb c1 3e
       -0.47323862 0.023157768 0.28156993 0.37875277
000350 cd 7d 18 bd 55 b2 fc be e6 5b 91 3e 61 7c 87 3e
       -0.037229348 -0.49354807 0.28390425 0.2646208
000360 bd 18 02 3e 5c 38 37 3e 8a 06 df be 80 95 e6 be
       0.1270475 0.17892593 -0.43559676 -0.45035934
000370 a0 bd 34 be f2 0c 2a 3c f2 c4 ca 3d 7d bc 48 bf
       -0.17650461 0.010379063 0.099008456 -0.7841261
000380 23 24 58 bd 58 e0 28 3e 04 a8 7d 3d 8a 9a 7b bc
       -0.052768838 0.1649183 0.06192781 -0.015356669
000390 de 6a 35 bf ce c2 c4 be b5 dd b5 3d 11 ea a1 bb
       -0.7086619 -0.38429874 0.08880178 -0.004941233
0003a0 b6 00 0b 3f 18 2f 73 3d 51 64 13 3f 6d ce df be
       0.5429796 0.059371084 0.57574946 -0.43712178
0003b0 4c a2 d2 3d 71 e0 f5 be 3b 5a 41 3a d2 e6 26 be
       0.10284862 -0.48022798 0.0007375811 -0.16298988
0003c0 6b 7c 8a be 7c aa cf be a3 7c 74 3e 61 82 3f 3e
       -0.27048048 -0.40559757 0.2387567 0.1870208
0003d0 88 af 9a bd b3 bd fe 3e 95 1e e5 bd 1e 1a 0a 3d
       -0.07553011 0.49754104 -0.11187474 0.033716314
0003e0 b7 c1 06 3f e3 29 bc 3d 88 23 55 be 6e 80 a3 3e
       0.52639335 0.09187677 -0.20814335 0.31933922
0003f0 83 3b 77 3d 22 06 e8 3d 6f 89 a2 be 5b 79 cf be
       0.06035949 0.11329295 -0.3174548 -0.40522274

advantage_stream.2.bias f4 [4]
000000 39 5b 3b bc 9c b7 50 bd 7d e7 0a be 1a e5 4e bd
       -0.011435323 -0.050956354 -0.13564868 -0.050511457
