models/snake_dqn_ep182_score6_20250302_153403.pt (torch, 678498 bytes, 44 tensors)

feature_layers.0.weight f4 [128, 24]
0	0x3cf26b57	0.0295922
1	0xbf149d3b	-0.58052415
2	0xbe0ba05a	-0.13635388
3	0xbda52b72	-0.08064927
4	0xbe67fd55	-0.22655232
5	0x3eb0976f	0.34490535
6	0xbe640f56	-0.22271475
7	0x3ce26f99	0.027641105
8	0xbe4236a5	-0.18966158
9	0xbcab6772	-0.02092335
10	0xbea094f2	-0.31363636
11	0x3e2e93c6	0.17048559
12	0xbe0a6a6f	-0.13517164
13	0x3e953906	0.29145068
14	0x3dba376f	0.09092604
15	0x3e7ef898	0.24899518
16	0xbea8ec57	-0.32992813
17	0xbe8c9e47	-0.27464506
18	0xbf60d4e9	-0.87824875
19	0x3e396ebc	0.18108648
20	0x3e140ea1	0.14458705
21	0xbe3cc406	-0.18434152
22	0xbef70899	-0.48248747
23	0xbe917cf1	-0.28415635
24	0xbef8a2fb	-0.48561844
25	0xbeff516b	-0.49866804
26	0x3ccc8bb6	0.024968963
27	0xbea7b5c4	-0.32755864
28	0xbeac970d	-0.33708993
29	0x3f037090	0.5134363
30	0xbea17cee	-0.31540626
31	0x3cce6b5f	0.025197683
32	0x3dbc5ab2	0.09196986
33	0xbed41383	-0.41421136
34	0x3e031755	0.12801869
35	0x3ed57310	0.41689348
36	0x3e354015	0.17700227
37	0xbedfc7d7	-0.43707153
38	0x3e0b4b0f	0.13602851
39	0xbe451714	-0.19247085
40	0x3d8997a2	0.06718375
41	0xbe8d8cbc	-0.27646434
42	0xbe553e29	-0.20824493
43	0xbde4b755	-0.1116778
44	0x3e8249ed	0.25447026
45	0x3eb14ebd	0.34630385
46	0x3e2f522e	0.17121193
47	0x3f16dc8c	0.5893028
48	0xbf1886ec	-0.59580874
49	0x3f1146a1	0.56748396
50	0xbead207d	-0.3381385
51	0x3d7b607f	0.061371323
52	0x3d9ba3ae	0.07599579
53	0x3e6238c9	0.22091974
54	0xbda3d648	-0.07999855
55	0xbcae5f6e	-0.021285739
56	0xbeae426a	-0.34035045
57	0xbe602d38	-0.2189225
58	0x3ef1218c	0.47095907
59	0x3d8cd160	0.068758726
60	0xbd1193c0	-0.035541296
61	0xbeab09e3	-0.3340598
62	0xbe4f7f1c	-0.20263332
63	0x3f2f6835	0.6851838
64	0xbe0f6083	-0.1400166
65	0x3f03ae61	0.51437956
66	0x3da7c00e	0.081909284
67	0xbf09ae82	-0.537819
68	0x3eaef8eb	0.34174284
69	0x3f0fb4b3	0.561351
70	0xbef2175a	-0.4728344
71	0xbdd07acc	-0.10179672
72	0xbe5a4356	-0.21314749
73	0x3d4114ec	0.047139093
74	0x3d58765c	0.05284725
75	0x3d780250	0.06054908
76	0xbef8b35e	-0.48574346
77	0xbe0f8de9	-0.14018978
78	0x3d89764f	0.06712019
79	0xbec0b6c7	-0.37639448
80	0xbe790103	-0.24316792
81	0x3d558ab8	0.052134246
82	0x3e305a8c	0.17222041
83	0xbf0971d6	-0.53689325
84	0xbe9d533c	-0.30727565
85	0x3e1234dc	0.14277977
86	0x3dac2481	0.084054
87	0xbd04bd73	-0.032407235
88	0xbeddf318	-0.43349528
89	0xbf54f5bd	-0.83187467
90	0x3e258efb	0.16167824
91	0x3d07a000	0.033111572
92	0x3e153bc7	0.14573584
93	0x3e81215d	0.25220767
94	0x3d643b76	0.05572077
95	0x3e5be1ec	0.21472901
96	0x3d0b0704	0.033942237
97	0x3d23beb8	0.039976805
98	0x3d82ac6c	0.06380543
99	0xbc5cd008	-0.013477333
100	0x3e149e0c	0.14513415
101	0x3d90a631	0.070629485
102	0xbdd3e0b4	-0.10345593
103	0x3ea0a660	0.31376934
104	0xbd5b8350	-0.053592026
105	0x3eb06516	0.34452122
106	0xbec0ce83	-0.37657556
107	0x3de9ceb5	0.11416379
108	0x3ed16d47	0.40903684
109	0xbd124bb8	-0.035716742
110	0xbd0795e4	-0.03310193
111	0xbd906e74	-0.07052317
112	0xbf519980	-0.8187485
113	0xbd31883a	-0.043342806
114	0xbe03e73b	-0.12881176
115	0x3ea2170e	0.31658214
116	0x3dabe194	0.08392635
117	0xbd7b4d1a	-0.061352827
118	0x3f02021c	0.5078447
119	0xbed7d566	-0.42154998
120	0x3bfb5083	0.00766951
121	0xbd86201a	-0.06549092
122	0xbea6794f	-0.32514426
123	0xbd289407	-0.041156795
124	0x3d94c9b2	0.07265033
125	0xbcb3203a	-0.021865953
126	0xbe68cfc4	-0.22735506
127	0x3d8b33fe	0.06797026
128	0xbf12a068	-0.5727601
129	0xbecb1509	-0.39664486
130	0xbe8f809b	-0.28027806
131	0xbd1c9039	-0.03822348
132	0x3e407991	0.18796374
133	0xbed33e34	-0.41258395
134	0x3da0885b	0.07838508
135	0x3f0c57aa	0.54821265
136	0xbd11ce75	-0.035597283
137	0x3e6271bd	0.221137
138	0x3f2c5d65	0.6733001
139	0x3decc757	0.115614586
140	0xbcdb62a3	-0.026780432
141	0x3ef90084	0.48633206
142	0xbdb8ce98	-0.0902378
143	0x3eca841c	0.39553916
144	0x3e953ae4	0.29146492
145	0xbd3b37dd	-0.045707572
146	0x3e71e6de	0.23623225
147	0xbf01cd3e	-0.507038
148	0xbe1e1983	-0.1543942
149	0xbdee0d34	-0.11623612
150	0x3e969c77	0.29416248
151	0xbe63fe3e	-0.22264954
152	0xbcfa7a9c	-0.030576043
153	0xbcc93016	-0.024559062
154	0xbe17aca4	-0.14811951
155	0x3eba3207	0.36366293
156	0xbcf2756d	-0.029597009
157	0xbe817511	-0.25284627
158	0x3ecb9709	0.39763668
159	0x3ed717e3	0.42010412
160	0x3e101564	0.1407066
161	0x3e49a3d1	0.19691397
162	0xbe332c0a	-0.17497268
163	0x3ea9eccd	0.33188477
164	0xbf195579	-0.59896046
165	0x3eb852c5	0.36000648
166	0x3f50c9c3	0.81557864
167	0xbe4eb6a6	-0.20186862
168	0xbf047fc7	-0.5175747
169	0x3eed68f0	0.46369123
170	0xbec8c78c	-0.39214742
171	0xbe04eb13	-0.12980299
172	0xbdf55fc8	-0.119811594
173	0xbde35796	-0.1110069
174	0x3e02df03	0.12780385
175	0x3da8b94a	0.08238466
176	0xbdc19266	-0.094517514
177	0x3ed5d732	0.41765743
178	0x3e994c7e	0.2994117
179	0x3f18fe4b	0.5976302
180	0xbe028a9a	-0.12748185
181	0xbe9e0a45	-0.3086721
182	0x3df09b75	0.11748401
183	0xbe04cc53	-0.12968569
184	0xbf2881e2	-0.65823185
185	0x3e70b66e	0.23507091
186	0xbce7d2bf	-0.028298734
187	0x3cb4ee02	0.022086147
188	0xbdc178d0	-0.09446871
189	0xbe9d5b05	-0.30733505
190	0x3e5d0885	0.21585281
191	0x3b291c61	0.0025804269
192	0x3e5cf711	0.21578623
193	0xbe62ef90	-0.22161698
194	0x3ea0a585	0.3137628
195	0x3e282dd1	0.16423728
196	0xbddd2c9b	-0.107995234
197	0x3dfefab2	0.1245016
198	0x3e1d9dc6	0.15392217
199	0xbf08e1c1	-0.53469473
200	0xbe5f0f08	-0.21783078
201	0xbd377db6	-0.04479762
202	0x3e9216f1	0.28533128
203	0x3d0f64f5	0.03500839
204	0x3e895008	0.26818871
205	0x3def77a7	0.11692744
206	0x3ecf90ec	0.40540254
207	0x3e5666d0	0.20937657
208	0xbe31c107	-0.1735879
209	0xbcca793a	-0.024716008
210	0x3edc307a	0.43005735
211	0x3eeed238	0.4664476
212	0xbea986d4	-0.33110678
213	0xbe18e9c5	-0.14932926
214	0x3f0472a3	0.5173742
215	0x3e0bf3bc	0.13667196
216	0x3c6cee22	0.014461072
217	0xbea502f8	-0.32228827
218	0x3db16b10	0.08662999
219	0xbf0601f3	-0.52346724
220	0xbebd8df7	-0.37022373
221	0xbeebca25	-0.46052662
222	0x3ea0469d	0.31303874
223	0xbe66e4d0	-0.22548223
224	0x3d5d426b	0.05401842
225	0xbe0a2ca4	-0.13493592
226	0xbd9f8867	-0.077896886
227	0x3ac637f4	0.0015122877
228	0xbf1f7e78	-0.6230235
229	0x3e592a3e	0.2120752
230	0xbf1e3034	-0.617923
231	0x3b563b90	0.003268931
232	0xbef0387e	-0.469181
233	0x3e72de24	0.23717552
234	0xbe83246b	-0.25613722
235	0xbef4f2ef	-0.47841594
236	0xbe8666c9	-0.26250294
237	0xbe145d1c	-0.14488643
238	0x3e828d00	0.254982
239	0x3efb1d7e	0.49045938
240	0x3e41502d	0.18878241
241	0xbee067ef	-0.43829295
242	0x3ef7fdbc	0.4843577
243	0xbef882d4	-0.48537314
244	0xbcb39e89	-0.021926181
245	0x3dcacb84	0.09902099
246	0xbe456bb7	-0.19279371
247	0xbe29e62d	-0.16591711
248	0xbe9aee1b	-0.30259785
249	0x3e199e29	0.1500174
250	0x3c673e01	0.014113904
251	0xbde6ce7b	-0.11269852
252	0xbe82477b	-0.2544516
253	0x3db6eb1d	0.08931563
254	0xbe54f9b2	-0.20798376
255	0x3ee54ef9	0.44786814

feature_layers.0.bias f4 [128]
0	0x3e10bd7d	0.14134784
1	0xbdd22e1f	-0.10262703
2	0x3d842883	0.064530395
3	0x3e2958e1	0.16537811
4	0xbe0984be	-0.13429543
5	0x3af842b8	0.0018940782
6	0xbd05f81d	-0.032707322
7	0x3e3c9e50	0.18419766
8	0x3e649157	0.22321068
9	0x3e0ad737	0.1355866
10	0x3b834c7c	0.0040069204
11	0x3db8a631	0.090160735
12	0x3e3904d8	0.18068254
13	0x3d874455	0.0660483
14	0xbdcb7d81	-0.09936047
15	0xbdf074f2	-0.117410555
16	0xbd96793f	-0.073473446
17	0x3e86ae47	0.26304838
18	0x3e71d6f8	0.2361716
19	0xbde04b9d	-0.10951922
20	0x3df9a6ae	0.12189995
21	0x3d4a4ad0	0.049387753
22	0xbe16284f	-0.14663814
23	0x3cfea160	0.031082809
24	0xbe1890c0	-0.14898968
25	0xbc1c1f17	-0.009528897
26	0x3e27ceb1	0.1638744
27	0x3d482bc0	0.04886985
28	0x3d06085a	0.03272281
29	0xbd85c8e3	-0.06532457
30	0x3d197c7f	0.037472244
31	0xbe2bc033	-0.16772537
32	0x3e002dc4	0.12517458
33	0x3cc02610	0.02345565
34	0x3e3080dd	0.17236657
35	0xbe371f1d	-0.17882963
36	0x3dc03583	0.093852066
37	0x3e0f89be	0.14017388
38	0xbe34c2e6	-0.17652473
39	0xbe86a42e	-0.26297134
40	0x3e0001f1	0.1250074
41	0x3d9c88d1	0.07643283
42	0xbe395544	-0.18098933
43	0x3e2c4790	0.16824174
44	0x3e852865	0.2600738
45	0x3e79f56f	0.24410032
46	0x3d83fb2d	0.06444392
47	0x3da63223	0.081150316
48	0x3dee2bb5	0.1162943
49	0xbdcb2cc0	-0.09920645
50	0x3d9328ee	0.07185541
51	0x3dc26f1c	0.09493849
52	0x3d93c5a3	0.072154306
53	0xbdf468ba	-0.119340375
54	0x3e6cc4c1	0.2312193
55	0x3e31060e	0.17287466
56	0xbd9f764d	-0.07786236
57	0x3d22d32d	0.039752174
58	0xbe17d10e	-0.14825842
59	0x3c2cd2fa	0.010548348
60	0x3e705ca0	0.23472834
61	0xbe0c5444	-0.1370402
62	0xbd951b37	-0.072805814
63	0x3db14c6f	0.08657157
64	0xbda1ed41	-0.07906581
65	0x3de0094b	0.109392725
66	0xbe8a4b14	-0.27010405
67	0xbe2f5804	-0.17123419
68	0xbe505081	-0.2034321
69	0x3d93c22c	0.0721477
70	0x3d881bbd	0.06645916
71	0xbe85cd14	-0.26133025
72	0x3e8d7f0d	0.27635995
73	0x3e5014c5	0.20320423
74	0x3e3e3ba9	0.18577446
75	0xbe3c7cf5	-0.18407042
76	0x3dd97c98	0.106194675
77	0xbd69dd69	-0.05709592
78	0x3d86eff9	0.0658874
79	0x3e669dff	0.22521208
80	0x3e7d6543	0.2474566
81	0xbdf35117	-0.11880701
82	0xbe068a34	-0.13138658
83	0x3e22f9e9	0.15915646
84	0xbc71b2f4	-0.014752138
85	0x3d32c77f	0.043647286
86	0x3cb3882d	0.02191552
87	0x3dc8932c	0.09793696
88	0x3dcc2edd	0.09969876
89	0x3cef59fd	0.029217714
90	0x3cf11733	0.029430008
91	0x3e2b4952	0.16727188
92	0x3e3b5f02	0.18297961
93	0xbd2c9139	-0.042130683
94	0xbe5cb896	-0.21554789
95	0x3e23933b	0.15974133
96	0xbe12ffe2	-0.14355424
97	0x3e0da48c	0.13832301
98	0x3d87e972	0.06636323
99	0x3df7d9bc	0.121020764
100	0xbdf36781	-0.11884976
101	0x3e0780f5	0.13232787
102	0xbd8b6b2a	-0.06807549
103	0x3df5bd59	0.11999006
104	0xbdb82d5b	-0.08993026
105	0x3d6bfa57	0.05761179
106	0x3e0596c9	0.13045801
107	0x3dd058b7	0.10173171
108	0x3e65df0e	0.2244837
109	0xbd7c628b	-0.061617415
110	0x3e96017e	0.29298013
111	0x3e1638b3	0.14670067
112	0x3ce68150	0.028137833
113	0x3e68e109	0.22742094
114	0x3dc8772f	0.097883575
115	0xbc34786e	-0.011015041
116	0x3e288de9	0.16460384
117	0xbe1e0d19	-0.15434684
118	0x3e86143b	0.2618731
119	0xbc4a2db9	-0.012340003
120	0xbe020b0e	-0.1269953
121	0x3e5cc92c	0.21561116
122	0x3d03dce3	0.032193076
123	0xbe3e4cf2	-0.1858404
124	0xbd8b4322	-0.06799914
125	0x3e53f317	0.206982
126	0xbd3eea44	-0.04661013
127	0x3c85024d	0.016236449

feature_layers.1.weight f4 [128, 128]
0	0x3e2ab591	0.16670825
1	0x3d80a7ac	0.06281981
2	0x3e3d516a	0.18488088
3	0x3dd767ce	0.10517846
4	0xbd63e012	-0.055633612
5	0xbe5dd052	-0.21661499
6	0x3d0dca0e	0.034616522
7	0x3e2d22c3	0.16907792
8	0x3dc00a80	0.09377003
9	0xbbc29e29	-0.0059392643
10	0x3e89221b	0.26783833
11	0x3bb18e0a	0.0054185437
12	0xbe421e44	-0.18956858
13	0x3cdf367b	0.027247658
14	0x3df15beb	0.1178511
15	0x3e546404	0.20741278
16	0x3e04c69e	0.12966391
17	0xbcf4a05f	-0.029861627
18	0x3e36e142	0.17859367
19	0xbd11e4d9	-0.035618637
20	0x3de931c0	0.11386442
21	0xbe20dc98	-0.1570915
22	0xbe02c392	-0.12769917
23	0xbe2d407c	-0.1691913
24	0x3e181c14	0.14854461
25	0x3e77a11a	0.24182549
26	0xbe4cd907	-0.20004664
27	0x3e0435af	0.12911104
28	0xbb90f63b	-0.004423884
29	0xbbd05a90	-0.006358452
30	0x3c8ded25	0.017324993
31	0x3df3dd00	0.11907387
32	0x3dcf0809	0.101089545
33	0xbdd32d44	-0.10311368
34	0xbd71e6e5	-0.05905809
35	0xbe78accc	-0.24284667
36	0x3daf7bdd	0.08568547
37	0x3de048a3	0.10951354
38	0xbcc68a98	-0.024236009
39	0xbe97bb88	-0.29635262
40	0x3cddc7a8	0.027072743
41	0xbd461163	-0.048356425
42	0x3e471f18	0.19445455
43	0x3d222576	0.039586507
44	0xbd36590f	-0.044518527
45	0xbc49fbdd	-0.012328115
46	0x3d9c659d	0.07636569
47	0x3dbe19bb	0.092822514
48	0xbe80407e	-0.25049204
49	0xbd76592d	-0.06014364
50	0xbd755bc4	-0.059901968
51	0x3e43f722	0.19137242
52	0xbd012246	-0.031526826
53	0x3e39a8a1	0.18130733
54	0x3e67ea98	0.22648084
55	0x3bbb50c9	0.0057164175
56	0x3e1e201c	0.15441936
57	0xbdd63814	-0.10459915
58	0xbe254347	-0.16138946
59	0x3dd079ee	0.10179506
60	0x3e94a98f	0.29035613
61	0xbe956fc7	-0.29186842
62	0x3d997c14	0.07494369
63	0x3d8f3941	0.06993342
64	0x3cbaee71	0.022818776
65	0x3d581626	0.052755497
66	0x3d9bf2e8	0.0761469
67	0x3df965b6	0.12177603
68	0x3d45569f	0.04817831
69	0x3e16ff25	0.14745767
70	0x3d1d6dac	0.03843467
71	0x3dc5a257	0.096501045
72	0xbdc5cd33	-0.09658279
73	0x3e9d1024	0.30676377
74	0x3e569c9b	0.20958178
75	0x3d1d4921	0.03839982
76	0x3dbe1969	0.0928219
77	0x3df167fe	0.11787413
78	0xbd644c58	-0.05573687
79	0x3dbd787e	0.09251498
80	0x3c7e6c31	0.0155287245
81	0xbd9908b3	-0.07472362
82	0xbe33d079	-0.17559995
83	0xbe9073bc	-0.28213298
84	0x3dda2158	0.10650891
85	0xbe14205a	-0.14465466
86	0xbe13f433	-0.14448623
87	0x3e0662ea	0.1312367
88	0x3e09c7a0	0.13455057
89	0xbe017dfb	-0.12645714
90	0x3ddb6d4c	0.10714206
91	0xbdfff8cb	-0.12498625
92	0x3e2fb021	0.17157032
93	0xbd1a0692	-0.037603922
94	0x3d3cc756	0.04608854
95	0x3e695b2b	0.22788684
96	0x3da50ece	0.080594644
97	0x3e0ed15e	0.13947055
98	0x3e42dbc7	0.19029151
99	0x3c4b4a6c	0.01240788
100	0xbde13c58	-0.10997838
101	0x3e2ad65f	0.16683339
102	0x3e92cb3f	0.2867069
103	0x3c450d6f	0.012027129
104	0x3e1aab4b	0.15104406
105	0x3e098ea0	0.13433313
106	0xbe03a6bd	-0.12856574
107	0xbe1a8605	-0.15090187
108	0xbd826541	-0.06366969
109	0x3d2a6759	0.041602466
110	0x3e8fce3c	0.28087032
111	0x3babc5af	0.0052420716
112	0xbbfd1a40	-0.0077240765
113	0xbdb4795f	-0.08812212
114	0x3cec8dd2	0.028876219
115	0x3e61602c	0.22009343
116	0x3ded3129	0.11581642
117	0x3da3e175	0.08001987
118	0xbdb0c907	-0.08632093
119	0x3b8f2d4b	0.004369413
120	0x3db548a6	0.08851747
121	0x3c017d65	0.007903432
122	0x3dabf565	0.08396415
123	0xbe879aa1	-0.2648516
124	0xbe3075cf	-0.1723244
125	0x3de30655	0.11085192
126	0xbce8e154	-0.028427757
127	0x3e209b45	0.1568423
128	0xbe341346	-0.17585477
129	0xbdc1e0aa	-0.094666794
130	0xbe2aa645	-0.1666499
131	0x3e8c7c5f	0.27438638
132	0x3af0a019	0.001835826
133	0xbc018d12	-0.007907169
134	0xba5377cb	-0.0008066862
135	0x3dcef8ba	0.101060346
136	0xbdc6d66a	-0.09708865
137	0xbcbabcf2	-0.022795174
138	0xbcc4017a	-0.023926485
139	0x3d995dc8	0.074885905
140	0x3e3ebcf9	0.18626775
141	0x3e30c17f	0.17261313
142	0x3e190625	0.1494375
143	0x3c902330	0.017594904
144	0xbe3caec9	-0.1842605
145	0xbda5e3b6	-0.08100073
146	0x3d87da98	0.0663349
147	0xbe339242	-0.17536262
148	0x3e030e0e	0.1279833
149	0x3e3083d1	0.17237784
150	0x3d1ca701	0.038245205
151	0x3edf42b5	0.4360558
152	0xbd6db69b	-0.058035474
153	0x3d47cf57	0.04878172
154	0x3d336d66	0.043805502
155	0x3e34ff8b	0.17675607
156	0xbdb9fda6	-0.09081583
157	0x3d07fe35	0.033201415
158	0xbc3fc28b	-0.0117040975
159	0xbe26e821	-0.16299488
160	0x3de8a48f	0.11359512
161	0x3d0c7345	0.034289617
162	0x3d4b7eba	0.049681403
163	0xbc624562	-0.013810487
164	0xbe066222	-0.13123372
165	0xba5cf5df	-0.00084289716
166	0x3df88ee9	0.12136633
167	0x3da59768	0.08085519
168	0x3ce52c31	0.027975174
169	0xbd8ba04e	-0.06817685
170	0xbd55220e	-0.05203443
171	0x3e090abd	0.13383003
172	0x3ea130c2	0.31482512
173	0xbdc92726	-0.0982192
174	0x3da5cac1	0.08095313
175	0xbdc319d5	-0.095264114
176	0xbd94ab48	-0.07259232
177	0x3dad4b40	0.084616184
178	0xbbc325a8	-0.0059554167
179	0xbdba8831	-0.09108008
180	0xbafbdd07	-0.0019215652
181	0xbc54dabd	-0.012991604
182	0x3d95569a	0.072919086
183	0x3d0ff024	0.035141125
184	0xbdf2ab2c	-0.11849055
185	0x3cff6858	0.031177685
186	0xbd932666	-0.07185058
187	0x3e785cae	0.24254104
188	0x3e2d47d9	0.16921939
189	0xbde5a05e	-0.11212228
190	0x3de4961a	0.11161442
191	0xbd962a39	-0.07332272
192	0x3dcccc13	0.099998616
193	0xbbc13c12	-0.0058970535
194	0xbe49ff3b	-0.19726269
195	0x3e84139b	0.25796208
196	0x3d74f392	0.0598026
197	0xbd454a63	-0.048166644
198	0x3d07c6eb	0.033148687
199	0x3d13da39	0.036096785
200	0x3c9dce5e	0.019263443
201	0xbc596528	-0.013268746
202	0xbbc3aea5	-0.005971747
203	0xbe0a7574	-0.13521367
204	0x3d3d4161	0.04620493
205	0x3d96508c	0.07339582
206	0x3e9ec36a	0.31008464
207	0x3bd7b2cb	0.006582593
208	0x3decabe0	0.1155622
209	0xbdaa71e6	-0.08322506
210	0xbcca5337	-0.024697883
211	0xbcb4082f	-0.021976558
212	0xbd07afe8	-0.03312674
213	0x3da386d3	0.079847
214	0x3e02083e	0.12698457
215	0x3dd8f337	0.105932645
216	0xbe6e863c	-0.23293394
217	0xbe311d7a	-0.172964
218	0xbdd2a11a	-0.10284634
219	0x3cd93e17	0.026518865
220	0x3d4fb168	0.050706297
221	0xbd2ae54b	-0.041722577
222	0xbccd1ab8	-0.025037155
223	0xbd659334	-0.056048587
224	0x3cea3e0e	0.028594043
225	0x3e99741d	0.299714
226	0x3c90e2c8	0.017686263
227	0xbd34dda3	-0.04415668
228	0x3e098689	0.13430227
229	0xbd45ab65	-0.048259158
230	0x3dee5829	0.11637909
231	0xbdc5b75a	-0.09654112
232	0x3a0e5da7	0.00054308254
233	0xbdc3e203	-0.09564593
234	0x3d58a576	0.05289217
235	0x3d935d43	0.07195523
236	0xbdd31ec3	-0.10308602
237	0x3e0f64f2	0.14003351
238	0x3dfdc4f1	0.12391079
239	0x3dffba60	0.1248672
240	0x3d721a44	0.05910708
241	0xbc9d16ff	-0.019176004
242	0x3e06845d	0.1313643
243	0x3d4c154a	0.04982499
244	0x3d1b6afd	0.03794383
245	0xbdddb732	-0.10825957
246	0x3e4eaab9	0.20182313
247	0xbbf88ef4	-0.0075854007
248	0xbe3ebed2	-0.1862748
249	0x3d8a52b1	0.067540534
250	0x3bac5d86	0.0052601723
251	0x3e5f77b1	0.21823002
252	0xbae467b8	-0.001742593
253	0x3df8a093	0.12140002
254	0x3de8b6cd	0.113629915
255	0xbe42b0e9	-0.19012798

feature_layers.1.bias f4 [128]
0	0x3d74eb3d	0.059794653
1	0x3e20ccbb	0.15703098
2	0x3c065198	0.008198164
3	0xbdb72d82	-0.08944227
4	0x3d3684bb	0.044560175
5	0x3d96d1f3	0.073642634
6	0x3d307ead	0.043089557
7	0xbd0200be	-0.03173899
8	0xbc32e3dd	-0.010918585
9	0x3e0273ce	0.12739488
10	0xbd1b3d49	-0.037900243
11	0xbdd1dbc4	-0.10246995
12	0x3c2c9738	0.0105341
13	0x3cc58e02	0.024115566
14	0xbda8e085	-0.08245949
15	0xbd81a2c4	-0.06329873
16	0x3cc5340c	0.02407267
17	0xbd962c55	-0.073326744
18	0x3df83804	0.12120059
19	0x3dc12fd1	0.094329484
20	0x3dcad2ac	0.09903464
21	0x3d02941d	0.031879533
22	0xbe0bcb66	-0.13651809
23	0xbd6649c3	-0.05622269
24	0x3d611a7c	0.054956898
25	0x3cf245ee	0.02957436
26	0xbbe5b517	-0.007010113
27	0x3d81c94d	0.06337223
28	0xbdbbbe0b	-0.09167107
29	0xbe1c6970	-0.15274596
30	0x3cc51db0	0.024062008
31	0x3d5b4de0	0.053541064
32	0xbcab2361	-0.020890893
33	0xbd292327	-0.04129329
34	0x3dc21e12	0.09478392
35	0xbdfc5aa5	-0.123219766
36	0xbc907ead	-0.017638529
37	0xbd9a7b9d	-0.075431086
38	0x3c278fa7	0.0102271205
39	0x3d404604	0.046941772
40	0x3d2caccb	0.042156976
41	0xbd6457f2	-0.055747934
42	0xbc804d22	-0.01566178
43	0xbb2f4f2a	-0.0026750066
44	0xbdde7bfc	-0.10863492
45	0xbcd9a492	-0.026567731
46	0xbd34d764	-0.044150725
47	0xbdad50cc	-0.084626764
48	0x3d8f5d0b	0.070001684
49	0xbc0f638e	-0.008751763
50	0xbdd0292c	-0.10164103
51	0x3c5be8bf	0.01342219
52	0xbd2b41e7	-0.041810896
53	0xbd2001e5	-0.039064307
54	0xbcfa73b9	-0.030572759
55	0xbd47c4cf	-0.048771676
56	0x3d8a3d30	0.06749952
57	0x3caf03a2	0.021364037
58	0xbbbbd2a5	-0.005731898
59	0xbdb71519	-0.08939571
60	0xbdb0d99c	-0.08635256
61	0xbd4126e8	-0.047156245
62	0x3dc0d779	0.09416098
63	0x3dc64119	0.09680385
64	0x3d93fffe	0.07226561
65	0xbde30640	-0.110851765
66	0x3d9093e1	0.07059456
67	0x3dab5ad3	0.08366933
68	0xbe10f824	-0.14157158
69	0x3d88d910	0.066820264
70	0xbde9c1d9	-0.11413927
71	0xbe011581	-0.1260586
72	0xbd17dbb6	-0.037074767
73	0x3dff2119	0.12457485
74	0xbd1f9342	-0.038958795
75	0x3ca503fd	0.020143503
76	0xbc8fc9a3	-0.017552203
77	0x3d064c88	0.03278783
78	0x3d969fae	0.07354675
79	0x3dd73257	0.105076484
80	0x3cad6c3a	0.02116977
81	0x3df8e3a3	0.12152793
82	0xbe0942e4	-0.13404423
83	0x3c6b7639	0.014371448
84	0xbd76aaa1	-0.06022132
85	0xbd485158	-0.0489057
86	0xbb9c2cb9	-0.0047660735
87	0xbdd84d05	-0.10561565
88	0xbb8f9b77	-0.0043825465
89	0x3df07334	0.11740723
90	0xbdc664fa	-0.096872285
91	0xbd1ec9c4	-0.038766637
92	0x3dff2c2c	0.12459597
93	0xbd0ae69a	-0.033911325
94	0x3aafc236	0.001340932
95	0xbd8e3952	-0.06944527
96	0x3d9a3f23	0.075315736
97	0x3daba55f	0.083811514
98	0xbdda8009	-0.10668952
99	0x3ca53f5c	0.020171814
100	0x3c562b6d	0.013071877
101	0x3d5560be	0.052094214
102	0x3d98830b	0.074468695
103	0x3d8e57a1	0.06950308
104	0x3d82803d	0.06372116
105	0x3d86e4b3	0.0658659
106	0xbd84423f	-0.06457948
107	0x3d3dcc52	0.046337433
108	0xbdbb53a1	-0.0914681
109	0x3d27bdc0	0.040952444
110	0x3d84b69a	0.06480141
111	0x3cac577e	0.021037813
112	0xbdb1fff4	-0.08691397
113	0xbdd4613f	-0.10370111
114	0x3d59f19c	0.053208932
115	0xbc0dcc84	-0.008654717
116	0xba45cff9	-0.0007545944
117	0xbd48e6a6	-0.04904809
118	0x3d98513e	0.07437371
119	0x3d1811b8	0.037126273
120	0x3d0f9ba5	0.035060544
121	0xbd819dce	-0.06328927
122	0x3d1e80e5	0.038697142
123	0xbd22b444	-0.039722696
124	0xbd855aa7	-0.06511431
125	0xbd7467ca	-0.059669293
126	0xbdf6e2bf	-0.12054967
127	0x3a767748	0.00094019296

value_stream.0.weight f4 [64, 128]
0	0xbc447520	-0.011990815
1	0xbdcc0373	-0.099615954
2	0x3e59ef24	0.21282631
3	0xbd55d961	-0.05220926
4	0x3e544b89	0.2073194
5	0x3dae9507	0.085245185
6	0x3d31059a	0.043218233
7	0xbd5f73e6	-0.05455389
8	0xbc4652c9	-0.012104698
9	0xbda34483	-0.07972052
10	0x3ccfc9d0	0.025364786
11	0xbc6b4eaf	-0.014362021
12	0xbe178a10	-0.1479876
13	0x3cabb0c1	0.020958306
14	0xbe2b0707	-0.167019
15	0x3e1f8479	0.15577878
16	0x3e571c83	0.2100697
17	0x3e3c628e	0.1839697
18	0x3b4ca19c	0.0031224256
19	0xbdd9e286	-0.10638909
20	0x3d9775e6	0.07395534
21	0xbe1e07be	-0.15432641
22	0xbcced0fe	-0.02524614
23	0x3e37932c	0.17927235
24	0xbd52d2d1	-0.05147058
25	0x3e99a570	0.3000903
26	0xbc3e52d7	-0.01161643
27	0x3e6895c1	0.22713377
28	0x3d23ef97	0.040023413
29	0x3d3fe7a3	0.046851765
30	0x3e8fa40a	0.2805484
31	0x3cae1921	0.021252217
32	0xbd98719f	-0.074435465
33	0x3d67d543	0.056599867
34	0xbe851920	-0.2599573
35	0x3e527384	0.20551878
36	0x3e30fb2c	0.17283314
37	0x3d28fcba	0.041256644
38	0x3da6a1d5	0.08136336
39	0xbe558ba8	-0.20854056
40	0x3d539067	0.051651385
41	0x3e8774f9	0.2645643
42	0x3d886947	0.06660705
43	0x3e0dfe27	0.13866483
44	0xbb1a7974	-0.0023570927
45	0xbe3944d3	-0.1809266
46	0x3d13edad	0.036115337
47	0xbea95d88	-0.3307917
48	0x3df23063	0.11825635
49	0x3d337fd6	0.043823086
50	0x3e7a6486	0.24452409
51	0x3de40865	0.11134414
52	0x3e5554a5	0.2083307
53	0xbe0c8bc9	-0.13725199
54	0x3dc520e8	0.09625417
55	0x3e33e8ac	0.17569226
56	0x3db0f0d2	0.08639683
57	0x3e260ce7	0.1621586
58	0xbdcaa377	-0.0989446
59	0xbdee7d64	-0.1164501
60	0xbe61c4d9	-0.22047748
61	0x3e32efd7	0.17474304
62	0xbc13bd22	-0.009017261
63	0x3dd4f2b7	0.10397857
64	0x3e40d3ce	0.18830797
65	0x3e25218d	0.1612608
66	0xbdca997e	-0.098925576
67	0x3b76fb0f	0.0037686264
68	0xbd9b5a42	-0.07585575
69	0x3c420889	0.011842855
70	0x3e43e3ca	0.19129863
71	0x3eb74090	0.35791445
72	0x3d7fd968	0.062463194
73	0xbba8aa23	-0.005147235
74	0x3e2f394e	0.17111704
75	0xbd381c9e	-0.044949166
76	0xbe2e5ef0	-0.17028403
77	0x3e1db7fb	0.15402214
78	0x3dd860e5	0.10565356
79	0xbd60d8e5	-0.054894347
80	0x3d453b27	0.048152115
81	0x3d45cec6	0.048292898
82	0x3dca06e8	0.098645985
83	0xbe755de9	-0.23961605
84	0xbe2825df	-0.16420697
85	0xbdb22526	-0.08698492
86	0x3c08c702	0.008348228
87	0x3e005609	0.1253282
88	0xbaa45c06	-0.0012539632
89	0x3e88634a	0.26638252
90	0x3e5379c6	0.20651922
91	0x3ded2816	0.115799114
92	0xbd185262	-0.03718794
93	0xbcc4944d	-0.023996497
94	0xbd976abc	-0.07393405
95	0x3d57cb6a	0.052684225
96	0x3e1dfd79	0.15428723
97	0xbdef3ae5	-0.11681155
98	0x3e94ab28	0.29036832
99	0xbd39e48c	-0.045383975
100	0xbddb388a	-0.10704143
101	0x3c86987c	0.016430132
102	0x3dbb27e4	0.09138468
103	0xbcd0fa76	-0.025510054
104	0x3e22ab2d	0.15885611
105	0xbdb4e8b9	-0.08833451
106	0x3c8f1da1	0.017470183
107	0x3eab6d30	0.3348174
108	0xbe5f2b8a	-0.21793953
109	0xbd88c594	-0.0667831
110	0x3e404dfd	0.1877975
111	0x3d8697ab	0.06571897
112	0x3df9b56a	0.12192805
113	0x3e290899	0.16507186
114	0x3e55a7b1	0.2086475
115	0xbdeeb6c1	-0.11655951
116	0x3e525e54	0.20543796
117	0x3b270d7f	0.0025490222
118	0xbdb4e82a	-0.08833344
119	0x3d167a0d	0.03673749
120	0x3d93d19e	0.07217716
121	0xbe0e8402	-0.13917544
122	0xbc2ddcd5	-0.0106117325
123	0x3a5766f2	0.0008216939
124	0x3e5df119	0.21674003
125	0xbd1428fb	-0.036171895
126	0xbcca6273	-0.024705147
127	0x3e2b2a26	0.16715297
128	0xbe70912b	-0.23492877
129	0xbdae9edc	-0.08526394
130	0x3d8b2042	0.06793262
131	0xbe276ea6	-0.16350803
132	0x3cb937ca	0.02260961
133	0xbceadf26	-0.028670859
134	0xbd036119	-0.03207502
135	0xbe432003	-0.1905518
136	0x3dbbbe00	0.09167099
137	0x3cc54c6a	0.024084289
138	0x3d58d0ad	0.052933384
139	0x3e54a742	0.20766929
140	0xbc715f8c	-0.014732253
141	0xbd930e04	-0.07180408
142	0xbe067b97	-0.13133083
143	0xbcf3fa6f	-0.029782502
144	0xbd07ea08	-0.033182174
145	0x3d3c83a1	0.04602397
146	0xbd9bb0bc	-0.07602069
147	0x3cd100c9	0.02551307
148	0xbe23b3c7	-0.15986548
149	0xbd52cbdc	-0.051463947
150	0x3e791abe	0.24326608
151	0x3e6f6786	0.23379335
152	0xbe0d82c8	-0.1381942
153	0x3db35be8	0.08757764
154	0xbdab64b7	-0.08368819
155	0x3e1a3c8d	0.15062161
156	0x3ba475ad	0.005018911
157	0xba9e6402	-0.0012084248
158	0xbd55cfb1	-0.052200023
159	0xbd2ca62f	-0.042150673
160	0xbe110a9a	-0.141642
161	0xbd3b8c47	-0.045788076
162	0xbe01f355	-0.1269048
163	0xbd46ef86	-0.04856827
164	0x3d3a1a8c	0.045435473
165	0x3d066a87	0.032816436
166	0xbdf39bbe	-0.1189494
167	0x3d8afa66	0.06786041
168	0x3ecf37a9	0.40472153
169	0xbd8b6bc2	-0.068076625
170	0xbe8a9da6	-0.270734
171	0xbe66cd1f	-0.22539185
172	0x3e327617	0.1742786
173	0xbdae9a23	-0.08525493
174	0xbd6c0a49	-0.057626996
175	0xbd3e8ae4	-0.046519175
176	0x3dc6dbd6	0.09709899
177	0x3e1711e6	0.14752921
178	0xbe8566e2	-0.26055056
179	0xbe24b327	-0.16083966
180	0xbe8806b1	-0.26567605
181	0xbddd6324	-0.10809925
182	0x3de55c3a	0.111992314
183	0xbe70026d	-0.23438425
184	0xbdb2332a	-0.08701165
185	0x3dbc33bb	0.09189554
186	0x3e0f4cc9	0.13994135
187	0x3d9fb153	0.07797494
188	0x3d89101c	0.06692526
189	0xbe483f8c	-0.19555491
190	0xbcc96aeb	-0.024587115
191	0xbd3c46f9	-0.045966122
192	0xbcece60e	-0.028918292
193	0xbe843dc4	-0.25828373
194	0xbe0d1b9d	-0.13780065
195	0xbe0ab807	-0.13546763
196	0xbe8fb458	-0.2806728
197	0xbd7c0941	-0.061532263
198	0x3da4127d	0.08011339
199	0xbd3ffee4	-0.046873942
200	0x3dd0cbb1	0.10195101
201	0xbe337685	-0.1752568
202	0xbd87f9b6	-0.066394255
203	0xbd1532d8	-0.03642544
204	0xbe5e2211	-0.21692683
205	0x3e303512	0.17207745
206	0xbe665637	-0.22493826
207	0xbd6035ce	-0.054738812
208	0xbcfc96a8	-0.030833557
209	0xbd209bd9	-0.039211128
210	0x3e5cfcf0	0.21580863
211	0x3dd1f630	0.10252035
212	0x3d3ec725	0.046576638
213	0x3e8eb32c	0.27871072
214	0x3da942f4	0.082647234
215	0xbe16c38d	-0.14723034
216	0xbe354ee3	-0.17705874
217	0xbdc00629	-0.09376175
218	0x3d15e146	0.03659179
219	0x3d5adaf9	0.053431485
220	0xbd2c9536	-0.042134486
221	0x3e34cd86	0.17656526
222	0xbeb72791	-0.35772374
223	0xbd5b6c81	-0.053570274
224	0x3d2c1a0c	0.042017028
225	0x3e00dfb4	0.12585336
226	0xbd97db72	-0.07414903
227	0xbe0b1e62	-0.13585809
228	0xbe4968d1	-0.1966889
229	0x3d695dcf	0.05697423
230	0x3e316534	0.17323762
231	0xbdaf4d5a	-0.085596755
232	0xbcf1d640	-0.029521108
233	0x3e1d56ff	0.15365218
234	0xbe111700	-0.1416893
235	0x3db6997f	0.08915996
236	0x3cb234a3	0.021753615
237	0x3c5fae79	0.013652437
238	0xbda87537	-0.08225482
239	0xbcfb7296	-0.030694287
240	0xbd5709e8	-0.05249968
241	0x3d142100	0.036164284
242	0xbc508db5	-0.012729098
243	0x3c1292f9	0.008946174
244	0xbd1aa29b	-0.03775273
245	0x3d82b0b4	0.0638136
246	0xbdf25b60	-0.11833835
247	0xbdcbc117	-0.09948938
248	0xbdeeb06d	-0.11654744
249	0xbd62c4ee	-0.055363588
250	0xbe386ca0	-0.18010187
251	0x3d16debf	0.03683352
252	0xbc2f7688	-0.010709412
253	0xbe4f04c3	-0.2021666
254	0xbd2088fe	-0.039193146
255	0xbaa94f1c	-0.0012917253

value_stream.0.bias f4 [64]
0	0x3c653e29	0.013991871
1	0x3d2840d4	0.04107745
2	0x3d7ac9da	0.061227657
3	0xbdae01e7	-0.084964566
4	0xbc6513a3	-0.013981733
5	0xbd679f6e	-0.05654853
6	0x3dac58f0	0.08415401
7	0x3b8dedd8	0.0043313317
8	0x3c961ad4	0.01832334
9	0xbbeea3b3	-0.007282698
10	0xbc86d0f9	-0.016457068
11	0x3e049c41	0.12950231
12	0x3d5c5922	0.05379594
13	0xbc388c5d	-0.011263934
14	0xbe05701e	-0.1303105
15	0x3c94942c	0.01813706
16	0x3cb68108	0.022278324
17	0x3d72f73c	0.059317812
18	0x3d22e38e	0.039767794
19	0x3c0b5edd	0.008506504
20	0xbd81d440	-0.063393116
21	0xbcb31d25	-0.021864483
22	0x3de15591	0.110026486
23	0xbdba0473	-0.0908288
24	0xbcb0dc24	-0.021589346
25	0x3cf92e76	0.030417662
26	0xbc57e083	-0.013176086
27	0xbd916605	-0.07099537
28	0xb9dfa314	-0.00042655377
29	0xbd20d971	-0.03926987
30	0xbb883009	-0.004156117
31	0x3d299f35	0.041411597
32	0x3de88c70	0.11354911
33	0x3df4d9c8	0.11955601
34	0xbdb3d884	-0.087815315
35	0x3def6dcd	0.11690865
36	0xbd398ea9	-0.045302067
37	0x3d3760d8	0.04477009
38	0xbd45a547	-0.048253324
39	0xbcaf0537	-0.021364791
40	0x3e0fc300	0.1403923
41	0xbd8fda9b	-0.070241176
42	0xbcd732c6	-0.026269328
43	0xbd0cc1f4	-0.034364656
44	0x3d18b9d9	0.037286613
45	0xbbaefa32	-0.005339884
46	0xbc2fe518	-0.010735773
47	0xbd364b9d	-0.044505704
48	0x3d138db7	0.03602382
49	0x3d74ea07	0.0597935
50	0x3dc69a84	0.0969744
51	0xbdd4c3eb	-0.10388931
52	0x3d4bd440	0.049762964
53	0x3c917972	0.017758105
54	0x3b711029	0.0036783314
55	0xbd1243e8	-0.03570929
56	0x3ca561e4	0.02018828
57	0x3e1c9da0	0.15294504
58	0xbdb6c99c	-0.08925173
59	0x3c890e85	0.016730556
60	0xbb758240	-0.0037461668
61	0x3c11e5fc	0.00890493
62	0xbd39e4c2	-0.045384176
63	0x3da6f3c4	0.08151963

value_stream.2.weight f4 [1, 64]
0	0xbdc3ff0c	-0.09570131
1	0xbdfd4143	-0.12365963
2	0x3dc75ded	0.09734712
3	0xbe2b68ab	-0.16739146
4	0x3e24a102	0.16077045
5	0xbeabedec	-0.33579957
6	0x3df2f07a	0.118622735
7	0x3ddb864b	0.10718974
8	0x3e3b2982	0.18277553
9	0x3dffcbb8	0.12490028
10	0x3d5c91bb	0.053849917
11	0x3d8be3c8	0.06830555
12	0x3e0b1d17	0.13585316
13	0x3efffb1f	0.49996278
14	0xbd7c0895	-0.061531622
15	0x3eea6c9d	0.4578599
16	0xbdeef33a	-0.116674855
17	0x3ea59209	0.32337978
18	0xbdd63698	-0.10459632
19	0xbeb8f3a8	-0.36123395
20	0xbe8be00c	-0.27319372
21	0x3d47ef39	0.048812125
22	0x3e06879e	0.13137671
23	0xbdaa3321	-0.08310533
24	0xbe959fc2	-0.29223448
25	0xbe10cb59	-0.14140071
26	0xbe8dfbb1	-0.27731088
27	0xbe66b7ce	-0.22531053
28	0x3e80dedd	0.2517003
29	0x3e5c0927	0.21487866
30	0x3e03b703	0.12862782
31	0x3e6b65e9	0.22988094
32	0x3e1bf025	0.15228327
33	0x3d501d5d	0.050809253
34	0xbeacd3c2	-0.33755308
35	0x3dd94fee	0.106109485
36	0xbe3e835a	-0.18604794
37	0xbeb0792d	-0.3446745
38	0xbd76342a	-0.06010834
39	0x3dcfc8f6	0.10145752
40	0x3e152325	0.14564188
41	0xbd377d27	-0.04479709
42	0xbdf3852d	-0.11890636
43	0xbe28df34	-0.16491395
44	0x3e705f1b	0.2347378
45	0x3e111f44	0.14172083
46	0xbf08ba08	-0.5340886
47	0x3e4f37df	0.20236157
48	0xbdd00e8e	-0.10159026
49	0x3dd0d763	0.10197332
50	0x3e11a745	0.14223965
51	0xbe0623db	-0.13099615
52	0x3eee686a	0.46564037
53	0x3e2b10b0	0.16705585
54	0x3ecc60dd	0.3991765
55	0x3ebb7374	0.3661152
56	0xbe046bcc	-0.12931746
57	0x3de4f6fa	0.111799195
58	0xbea966d4	-0.33086264
59	0xbee3b3f2	-0.44473225
60	0xbdf0d23a	-0.117588475
61	0xbb2f3eed	-0.0026740388
62	0x3eabb398	0.33535457
63	0x3e30e198	0.17273557

advantage_stream.0.weight f4 [64, 128]
0	0xbc42abe4	-0.011881802
1	0xbc874c9a	-0.016516019
2	0xbe623264	-0.22089535
3	0x3eb0888e	0.34479183
4	0x3e079bba	0.13242999
5	0xbd84fb60	-0.064932585
6	0x3c1cc3a6	0.009568131
7	0x3e200e0b	0.15630357
8	0x3d836427	0.06415587
9	0xbc137cb1	-0.009001897
10	0x3c6a8b77	0.014315478
11	0x3d9036a1	0.0704167
12	0xbcb1c8e9	-0.021702247
13	0xbddd824b	-0.10815867
14	0x3f138c16	0.5763563
15	0xbcc514fd	-0.02405786
16	0xbd82a0b5	-0.06378309
17	0xbe48adf6	-0.19597611
18	0x3c69fbbf	0.014281212
19	0xbe108a50	-0.14115262
20	0xbe96f7da	-0.2948597
21	0xbe2f68c2	-0.17129806
22	0x3d55ecb5	0.052227695
23	0xbe9fbda5	-0.31199375
24	0x3d046faf	0.032333072
25	0xbe76f929	-0.24118485
26	0xbe3cd475	-0.18440421
27	0xbd3f6599	-0.04672775
28	0x3e8147df	0.25250146
29	0x3e876ad4	0.2644869
30	0x3d9b70b8	0.07589859
31	0xbd92d023	-0.07168605
32	0x3d4fe64d	0.05075674
33	0x3dc1bc72	0.09459771
34	0xbe4bf243	-0.19916634
35	0x3dc417b6	0.09574835
36	0xbdfce096	-0.12347524
37	0x3cf60a37	0.030034168
38	0xbbb06efa	-0.005384323
39	0x3e985d6b	0.29758772
40	0x3cd04bfa	0.025426853
41	0x3e06ccbe	0.1316404
42	0xbdd18745	-0.10230879
43	0x3e82a13e	0.25513643
44	0xbe5438c4	-0.2072478
45	0xbe2c172b	-0.16805713
46	0x3dd78840	0.105240345
47	0x3e9c273e	0.3049869
48	0xbc04a8e8	-0.008096911
49	0xbe2ad935	-0.1668442
50	0x3deaf083	0.11471655
51	0xbdc5a174	-0.09649935
52	0xbe17254b	-0.1476032
53	0x3e50cbad	0.20390196
54	0xbe7a1304	-0.24421316
55	0xbe565023	-0.20929007
56	0x3dd4b369	0.10385782
57	0x3e1623dd	0.14662118
58	0xbe878e0e	-0.26475567
59	0xbe432b5f	-0.19059514
60	0x3e6adc91	0.22935702
61	0x3bfdbf4d	0.007743752
62	0xbe4e0294	-0.20118171
63	0x3d257c41	0.0404017
64	0xbd433401	-0.047657017
65	0x3d938900	0.07203865
66	0x3e0534a0	0.13008356
67	0x3deecf80	0.11660671
68	0x3cf7d571	0.030253144
69	0xbda16370	-0.07880294
70	0xbde60582	-0.11231519
71	0x3e6cbbf4	0.23118573
72	0x3d8c7472	0.06858148
73	0xbe5ad8ac	-0.21371716
74	0x3e71554e	0.23567697
75	0x3ca36872	0.019947264
76	0x3cc61428	0.024179533
77	0xbd9d8274	-0.076908976
78	0xbc6f171c	-0.014592912
79	0x3dab2a47	0.08357673
80	0xbe090df8	-0.13384235
81	0xbdd58a0b	-0.1042672
82	0x3e0f50fe	0.1399574
83	0x3e3a5208	0.18195355
84	0x3eb9a350	0.3625741
85	0x3e23e400	0.16004944
86	0x3e230ede	0.1592364
87	0x3bc1461b	0.00589825
88	0x3ea24184	0.3169061
89	0xbe8195ce	-0.25309604
90	0x3ea682f8	0.32521796
91	0xbd56af40	-0.052413225
92	0x3b642bd4	0.0034816163
93	0x3ee84b76	0.45370072
94	0x3e0570b8	0.1303128
95	0xbdf4a827	-0.11946135
96	0x3b296785	0.0025849056
97	0xbdf943da	-0.12171145
98	0xbdd6528e	-0.10464965
99	0x3cbd9796	0.02314357
100	0xbe2bafb8	-0.1676625
101	0xbe92c92e	-0.28669113
102	0xbd8ea4ed	-0.06965051
103	0xbe114349	-0.14185824
104	0x3ce24254	0.027619518
105	0xbc9fe1d4	-0.019516863
106	0x3e33f044	0.17572123
107	0x3cf4dbdb	0.029889992
108	0xbda96c55	-0.08272616
109	0x3d085876	0.033287488
110	0xbe57ce1c	-0.21074718
111	0xbd9cea30	-0.07661855
112	0x3df2e19b	0.11859437
113	0xbc42ed38	-0.011897378
114	0xbd84dc40	-0.06487322
115	0x3cfb8e26	0.03070743
116	0x3e8f9d19	0.28049543
117	0x3f19f393	0.6013729
118	0xbddd2145	-0.10797361
119	0xbe19cde9	-0.15019955
120	0x3db4e1ec	0.08832154
121	0x3d05918d	0.03260951
122	0xbe87e5a0	-0.26542377
123	0xbd8b2c6d	-0.06795583
124	0x3e76bbf6	0.24095139
125	0xbe5f2281	-0.21790506
126	0xbb30490f	-0.0026899015
127	0x3d684a92	0.05671174
128	0x3df9a772	0.12190141
129	0xbd6bb77e	-0.05754804
130	0x3caa67f8	0.02080153
131	0xbd78b8b7	-0.060723033
132	0x3df8fda8	0.12157756
133	0xbd8683f9	-0.065681405
134	0x3e10b42e	0.14131233
135	0xbe161b87	-0.14658938
136	0xbd8d162f	-0.06888997
137	0xbe0c92ad	-0.13727827
138	0xbd910e11	-0.07082761
139	0x3e115c09	0.14195265
140	0x3e10e192	0.14148548
141	0xbdeaef3e	-0.11471413
142	0xbc691748	-0.014226742
143	0xbc923573	-0.017847752
144	0x3dc636f1	0.09678448
145	0x3e8dd6ea	0.2770303
146	0xbdba94e6	-0.091104314
147	0xbc5bd3fc	-0.01341724
148	0xbdf812b4	-0.12112942
149	0x3d8fbe94	0.07018772
150	0xbe2f2a82	-0.17106059
151	0x3e898d4a	0.26865608
152	0xbd8b4dd2	-0.068019524
153	0xba8d4655	-0.0010778407
154	0x3dcd9083	0.10037329
155	0xbde17e6b	-0.110104404
156	0x3d391084	0.045181766
157	0x3d63f630	0.055654705
158	0x3e271fa3	0.16320662
159	0xbd750227	-0.059816506
160	0xbe554814	-0.20828277
161	0xbd3f0349	-0.046633992
162	0x3da3756a	0.07981379
163	0x3e0ca7bb	0.13735859
164	0xbe1ff8d8	-0.1562227
165	0xbe918bbd	-0.28426924
166	0xbe878eb2	-0.26476055
167	0x3c59f066	0.013301944
168	0x3e3fe082	0.18737987
169	0x3cc0bff3	0.023529029
170	0xbde3db65	-0.111258306
171	0xbd6c427f	-0.057680603
172	0xbe315fc1	-0.17321683
173	0x3de74c2d	0.11293826
174	0x3e0cee52	0.13762787
175	0xbe386256	-0.18006262
176	0xbd099331	-0.03358764
177	0xbe75ecb9	-0.24016084
178	0xbb31c281	-0.002712399
179	0xbd0f11a2	-0.034928925
180	0xbd072524	-0.032994404
181	0x3e739c79	0.23790158
182	0x3e00b801	0.12570192
183	0x3d7d71ab	0.06187598
184	0x3d3ea65e	0.04654538
185	0xbd4d9fdc	-0.050201282
186	0xbe2ddffc	-0.16979975
187	0xbd095386	-0.03352692
188	0xbe335ca0	-0.17515802
189	0x3d3ef9fd	0.046625126
190	0x3e746e21	0.23870136
191	0x3e16aa64	0.14713436
192	0x3d9d36ec	0.07676491
193	0x3e268784	0.16262633
194	0xbd3073f2	-0.043079324
195	0xbba88ef3	-0.005143994
196	0x3bef7a4d	0.0073082806
197	0xbe8d3d54	-0.27585852
198	0xbd225157	-0.039628353
199	0xbd0e758f	-0.03478008
200	0x3e0506b1	0.12990834
201	0x3e93a60e	0.28837627
202	0xba8e3696	-0.0010850008
203	0xbcf75d96	-0.030195992
204	0x3c9a2bf6	0.01881979
205	0x3e50bfba	0.20385638
206	0x3d9d7927	0.076891236
207	0x3de322b3	0.11090603
208	0x3a690110	0.0008888403
209	0xbd65c048	-0.056091577
210	0x3e89315e	0.26795477
211	0x3d3d23dc	0.046176776
212	0x3da0c135	0.07849351
213	0xbc9b184e	-0.018932488
214	0xbe04e604	-0.12978369
215	0x3f1b0fd1	0.6057101
216	0xbdbef9d1	-0.093249924
217	0xbe2c50ce	-0.168277
218	0x3e7b5fa1	0.24548198
219	0xbc71b600	-0.014752865
220	0x3e017158	0.12640893
221	0xbd8d6538	-0.069040716
222	0xbe3d8f66	-0.18511733
223	0xbda00815	-0.078140415
224	0x3e939d3e	0.28830904
225	0xbcbc4b25	-0.02298505
226	0x3e9ca5da	0.30595285
227	0xbe05858e	-0.13039228
228	0x3d907616	0.07053773
229	0x3d0adb72	0.033900686
230	0xbcdda513	-0.027056253
231	0x3e8a6c01	0.27035525
232	0xbe809949	-0.25116947
233	0x3d44adf8	0.048017472
234	0x3dcd61d3	0.10028424
235	0x3cb65632	0.022257898
236	0xbd943eb6	-0.07238524
237	0xbe724b00	-0.23661423
238	0x3d1876a6	0.037222527
239	0x3e525dea	0.20543638
240	0x3d81badd	0.063344695
241	0x3e6825ad	0.22670622
242	0xbd9bc2ae	-0.076054916
243	0x3c8ba224	0.017045088
244	0x3e8a385a	0.26996118
245	0xbe8356e3	-0.25652227
246	0x3e12b4f9	0.14326848
247	0xbcd94c08	-0.026525512
248	0x3edbe1d6	0.42945737
249	0x3d908368	0.07056314
250	0xbcc4c453	-0.024019396
251	0x3ddb1510	0.10697377
252	0xbe1336bc	-0.14376348
253	0x3deed3f0	0.116615176
254	0x3d3a5f11	0.04550082
255	0x3e3c3db5	0.18382914

advantage_stream.0.bias f4 [64]
0	0xbdc4ecb1	-0.09615458
1	0x3ce75884	0.02824045
2	0x3d609c20	0.054836392
3	0xbd5f4967	-0.05451336
4	0x3d80f853	0.06297364
5	0x3d2684b2	0.04065389
6	0xbd60a109	-0.054841075
7	0xbde03f72	-0.10949601
8	0xbc1ad41d	-0.009449986
9	0xbd93b009	-0.072113104
10	0x3ce9697f	0.028492687
11	0xbd1c2016	-0.038116537
12	0xbdc62571	-0.0967511
13	0x3c3295fa	0.010900015
14	0xbb71c1bc	-0.0036889156
15	0x3d30acb9	0.04313347
16	0x3d27cb16	0.040965162
17	0xbda823d4	-0.08209959
18	0x3c3e8b09	0.011629828
19	0xbd306187	-0.04306176
20	0xbd37be20	-0.04485905
21	0xbd455155	-0.048173267
22	0x3c8a3d52	0.016874943
23	0x3d3f206c	0.04666178
24	0xbdb82c31	-0.08992804
25	0x39ad0a75	0.00033004922
26	0xbb8a870a	-0.0042275237
27	0xbd9a242c	-0.075264305
28	0xbda0d0f5	-0.078523554
29	0xbd99e42c	-0.075142235
30	0xbcc013d3	-0.023446953
31	0xbd750469	-0.05981866
32	0xbc9e112c	-0.019295298
33	0xbd6a3306	-0.057177566
34	0xbb688737	-0.0035480985
35	0x3dad098f	0.08449089
36	0xbcbce947	-0.023060454
37	0x3d656bbe	0.056010954
38	0xbd2e7509	-0.042592082
39	0x3d323853	0.043510746
40	0x3ce1c3da	0.02755921
41	0x3bab6633	0.005230689
42	0xbd2f5ed9	-0.042815063
43	0x3d13007a	0.035889126
44	0xbc92ef13	-0.017936265
45	0x3b240a83	0.002503068
46	0x3d298ca5	0.041393895
47	0x3cb628ed	0.022236312
48	0xbd683b79	-0.056697343
49	0x3cc5df71	0.024154397
50	0x3d0a2446	0.033726
51	0xbd07b0a0	-0.033127427
52	0x3d8be24a	0.068302706
53	0x3cd7edfc	0.026358597
54	0xba0c944e	-0.00053626753
55	0xbb978fb7	-0.0046252864
56	0xbd058fb0	-0.032607734
57	0x3c2d7625	0.01058725
58	0x3d8a464e	0.06751691
59	0x3d8360b8	0.06414932
60	0x3c797ee3	0.015228006
61	0xbc69ee82	-0.014278056
62	0xbd71f354	-0.059069946
63	0x3d93afc4	0.07211259

advantage_stream.2.weight f4 [4, 64]
0	0x3efc33a2	0.49258143
1	0xbe9cdee7	-0.3063881
2	0x3d43d6ef	0.0478124
3	0xbd5c6fa4	-0.053817406
4	0x3dd16f7a	0.102263406
5	0xbd06a04d	-0.03286772
6	0xbdfbf9b1	-0.12303484
7	0xbd5209ac	-0.051278755
8	0xbdde4179	-0.10852332
9	0x3dd61a79	0.10454268
10	0xbee32982	-0.44367605
11	0xbea5bcf1	-0.32370713
12	0x3eb16970	0.34650755
13	0xbf36a483	-0.71344775
14	0x3df7b863	0.12095716
15	0xbd69cd29	-0.05708042
16	0xbd60fbcd	-0.054927636
17	0x3eb00d67	0.34385225
18	0x3d95e874	0.073197275
19	0x3de3480b	0.110977255
20	0x3e53d325	0.20686014
21	0xbbad8f19	-0.0052965996
22	0x3e95ee71	0.2928348
23	0x3ea1aeff	0.31578824
24	0x3e186e5b	0.14885847
25	0xbcf45f1e	-0.029830512
26	0xbed90d8c	-0.42393148
27	0x3e42ef9e	0.19036719
28	0x3eccfdb9	0.40037325
29	0x3f08252f	0.5318174
30	0xbddae281	-0.106877334
31	0x3d5fdf6b	0.054656427
32	0xbeafdd81	-0.34348682
33	0xbe0b0e9e	-0.13579795
34	0x3e86f3a0	0.26357746
35	0xbeab40f6	-0.33448
36	0x3ec4109e	0.38293928
37	0x3de38099	0.111085124
38	0x3dee13d4	0.11624876
39	0x3e7ae04b	0.24499623
40	0x3eff66dc	0.49883163
41	0x3d61b9c9	0.05510882
42	0xbde29df3	-0.11065283
43	0xbd7d9632	-0.061910816
44	0xbebafd23	-0.36521253
45	0x3e1e2e0c	0.15447253
46	0xbe9a0861	-0.30084518
47	0x3e7f9431	0.24958874
48	0xbe9caa76	-0.305988
49	0xbe5c0097	-0.214846
50	0xbd50e9c5	-0.05100419
51	0x3e10f2cb	0.14155118
52	0x3dfa63d3	0.12226071
53	0xbdd0abe6	-0.10189037
54	0x3e27e02b	0.16394107
55	0x3d9c532f	0.076330535
56	0x3b5e3781	0.0033907595
57	0xbdc26ef6	-0.0949382
58	0xbde5899f	-0.1120789
59	0xbda286d8	-0.07935876
60	0xbe87ee16	-0.26548833
61	0x3f400b51	0.7501727
62	0x3d9fa5d0	0.07795298
63	0xbf0fa18c	-0.56105876
64	0x3e32dd58	0.17467248
65	0xbf224cb6	-0.633983
66	0x3ed74360	0.4204359
67	0xbe44d373	-0.19221286
68	0x3d8571da	0.06515856
69	0x3c9347d7	0.017978592
70	0x3ebd7865	0.37005916
71	0x3cc491dd	0.023995334
72	0x3e5b706b	0.21429603
73	0x3be4eeb3	0.006986463
74	0x3e85aaf6	0.26106995
75	0x3e4d9ae2	0.20078614
76	0x3c94bce6	0.01815648
77	0xbb94e9c5	-0.004544469
78	0x3dceb0d0	0.10092318
79	0xbd17ad14	-0.037030295
80	0xbdf9c6e4	-0.121961385
81	0x3e755f09	0.23962034
82	0xbed5e567	-0.41776583
83	0xbe9add73	-0.30247077
84	0xbbeb9a09	-0.0071899933
85	0x3c410949	0.011781999
86	0x3f209bff	0.6273803
87	0x3ebbb130	0.3665862
88	0x3e87315e	0.26404852
89	0x3e79a15b	0.24377958
90	0x3e72ffa8	0.23730338
91	0xbeb65a38	-0.35615706
92	0xbde3f0de	-0.11129926
93	0x3eb0a7e9	0.34503105
94	0x3e591cfe	0.21202466
95	0xbe8d6028	-0.27612424
96	0x3e9010d3	0.28137836
97	0xbdd4678d	-0.10371313
98	0x3e91406f	0.2836947
99	0xbf0086a9	-0.50205475
100	0x3e84b4cf	0.25919196
101	0x3f0bb03f	0.54565805
102	0xbe5caf80	-0.21551323
103	0x3ead65bc	0.3386668
104	0x3dbc7611	0.09202207
105	0x3e3d6571	0.18495728
106	0x3e6fdddd	0.23424478
107	0x3ec40438	0.3828447
108	0xbcf56feb	-0.029960593
109	0xbdc6f13d	-0.09713981
110	0xbdb5f39f	-0.08884358
111	0x3ece0a41	0.40242198
112	0x3ee6db5a	0.45089227
113	0x3d1dc285	0.038515586
114	0x3eaf3413	0.34219417
115	0x3d0f8bdf	0.0350455
116	0xbe13d47c	-0.14436525
117	0x3db5207a	0.08844085
118	0x3b18d40d	0.0023319751
119	0x3d743c4c	0.059627816
120	0x3d9365bb	0.07197138
121	0x3ee18d6b	0.44053206
122	0x3d95be9f	0.07311749
123	0xbe2131e0	-0.15741682
124	0x3e101ecd	0.1407425
125	0x3e659466	0.22419891
126	0x3e7cb0f7	0.24676882
127	0xbefc7a1b	-0.4931191
128	0xbe8e12f7	-0.27748844
129	0xbe307bb3	-0.17234688
130	0x3ceeac6d	0.029134953
131	0x3d41bf87	0.047301795
132	0x3e550751	0.20803572
133	0xbd8a5804	-0.06755069
134	0x3d9666ed	0.0734385
135	0xbe255d6f	-0.16148923
136	0x3f283c44	0.6571696
137	0x3d1391a7	0.036027577
138	0xbda8908c	-0.08230695
139	0x3ee4b4d0	0.446692
140	0xbd85146a	-0.06498034
141	0x3e22a988	0.15884984
142	0xbd1a94ba	-0.037739493
143	0xbe8c5e6a	-0.27415782
144	0x3e14eeff	0.14544295
145	0x3e4618d6	0.19345412
146	0xbee48cd1	-0.44638684
147	0x3d6864bc	0.056736693
148	0xbdb9b68d	-0.09068022
149	0xbea1169b	-0.3146256
150	0xbe3bf4f9	-0.18355168
151	0xbe76ca75	-0.24100669
152	0x3e020735	0.12698062
153	0x3e823209	0.254288
154	0x3dfc30c2	0.12313987
155	0x3dddddbd	0.10833309
156	0xbe4c83ab	-0.19972102
157	0xbea316b0	-0.31853247
158	0x3e59cd09	0.21269621
159	0x3dce0cfc	0.1006107
160	0xbd91f84f	-0.07127439
161	0xbdc57b8d	-0.09642706
162	0xbeea9911	-0.45819905
163	0x3efc2b4e	0.4925179
164	0xbe12b0ee	-0.14325306
165	0xbecf6b92	-0.40511757
166	0xbd218d2b	-0.03944127
167	0xbe98f856	-0.29876965
168	0x3e65def3	0.2244833
169	0xbec8fb71	-0.39254335
170	0xbc812e74	-0.01576922
171	0xbcbbe236	-0.022935014
172	0x3ec86359	0.39138296
173	0xbd059879	-0.032616112
174	0x3f1d9ca9	0.6156717
175	0xbed861e6	-0.4226219
176	0x3e2da242	0.16956428
177	0x3db7184d	0.08940182
178	0xbe8acf94	-0.27111495
179	0xbe1da485	-0.1539479
180	0x3dc35958	0.09538525
181	0xbe32db41	-0.17466451
182	0xbdb6c485	-0.08924202
183	0xbedbfee6	-0.4296791
184	0x3e5f62c9	0.21815027
185	0x3ed5366f	0.41643092
186	0xbbaf3cdd	-0.0053478316
187	0x3e40694e	0.1879017
188	0x3e1581d1	0.14600302
189	0x3ea64fd2	0.32482773
190	0xbe5572e8	-0.20844615
191	0x3f255e8a	0.6459738
192	0xbdca01f4	-0.09863654
193	0xbe18d04f	-0.14923213
194	0x3e383b03	0.17991261
195	0xbe7da913	-0.24771528
196	0x3dfa6131	0.12225569
197	0xbd2ff01c	-0.042953596
198	0xbd9883cc	-0.07447013
199	0xbe05bea3	-0.13061003
200	0x3df927a7	0.12165766
201	0xbe393489	-0.18086447
202	0x3e053024	0.13006645
203	0x3ee7ba17	0.45259163
204	0x3e993fd3	0.29931507
205	0x3ec7769a	0.38957673
206	0xbec31891	-0.3810468
207	0x3da9a1b6	0.08282797
208	0xbe322bfd	-0.17399593
209	0xbd95dfcb	-0.07318076
210	0xbdc10269	-0.09424288
211	0x3d59d158	0.05317816
212	0x3d27675c	0.040870056
213	0xb9319a7e	-0.00016937588
214	0xbeda5a46	-0.42646998
215	0xbddbcf8d	-0.107329465
216	0xbe109c2a	-0.14122072
217	0x3e9c50fe	0.30530542
218	0x3e46f52f	0.19429468
219	0xbe129a99	-0.14316787
220	0x3db3fc6e	0.087883815
221	0xbe012e08	-0.12615216
222	0xbeaa8e61	-0.3331175
223	0xbdc6d055	-0.09707705
224	0x3e8f1ea0	0.27953053
225	0xbcae3393	-0.021264827
226	0xbec2a2f0	-0.38014936
227	0x3f16bc01	0.5888062
228	0xbe11cec5	-0.14239033
229	0xbe7335a9	-0.23750938
230	0x3e28fa84	0.16501814
231	0xbd53d918	-0.05172071
232	0xbe21b883	-0.15793042
233	0x3d04bfb0	0.03240937
234	0x3d0e7ab6	0.034784995
235	0x3d9088a9	0.07057316
236	0x3eb2e1f9	0.34938028
237	0x3eb0b005	0.34509292
238	0x3eb4249a	0.35184175
239	0xbe5b5dfe	-0.21422574
240	0x3ec0bd83	0.37644586
241	0xbd230cfd	-0.03980731
242	0xbd976a19	-0.073932834
243	0xbcb78eb0	-0.022406906
244	0xbe976ee9	-0.29576805
245	0x3e4603dd	0.19337411
246	0x3ad4d6fe	0.0016238389
247	0x3e56d673	0.20980243
248	0x3dd1a9c3	0.102374576
249	0xbc9597c6	-0.018260848
250	0x3ec04575	0.37552992
251	0x3e34be94	0.17650825
252	0xbe48202f	-0.19543527
253	0xbe83ab94	-0.2571684
254	0xbe0db523	-0.1383863
255	0x3f04fe52	0.5195056

advantage_stream.2.bias f4 [4]
0	0x3ddcd6e5	0.107831754
1	0x3d3c8a3e	0.046030276
2	0x3df504d8	0.119638145
3	0xbdf9250e	-0.12165271
