models/snake_dqn_ep187_score7_20250302_153403.pt (torch, 682658 bytes, 44 tensors)

feature_layers.0.weight f4 [128, 24]
0.019395605 -0.577299 -0.14657845 -0.068809055 -0.22805694 0.34201613 -0.20835046 0.022422427
-0.20612043 -0.013443711 -0.32240856 0.17303544 -0.12312276 0.29198426 0.086983435 0.245214
-0.34733966 -0.30012545 -0.87566304 0.16889676 0.1452853 -0.15386075 -0.49430737 -0.28937015
-0.4705652 -0.50042015 0.03187848 -0.34024715 -0.34437412 0.52211434 -0.30276823 0.032197844
0.1042097 -0.41582233 0.13472354 0.41917804 0.17299631 -0.43325365 0.1443363 -0.1888525
0.069441035 -0.29838148 -0.19557148 -0.116761565 0.248547 0.34467652 0.16732335 0.5832027
-0.59631175 0.57568806 -0.35557824 0.056147486 0.07748602 0.21804926 -0.07519039 -0.02551985
-0.33787033 -0.22330455 0.46952286 0.06839306 -0.04061993 -0.33731458 -0.19966514 0.6966508
-0.14428344 0.5269291 0.08612368 -0.5480305 0.34896645 0.5658418 -0.4789085 -0.10899961
-0.19925317 0.048905984 0.03897775 0.05636552 -0.49098873 -0.14644551 0.062492587 -0.38012567
-0.24519977 0.050859258 0.17095459 -0.54010355 -0.3166942 0.14237997 0.089993976 -0.03657028
-0.43128756 -0.83654994 0.1561536 0.022485647 0.14198597 0.250026 0.04613307 0.21511063
0.038969617 0.035380628 0.053330295 -0.008697227 0.14203593 0.06609628 -0.10181199 0.30783823
-0.047155015 0.33791035 -0.37833554 0.11125405 0.40823868 -0.03662361 -0.020700065 -0.06763684
-0.82840043 -0.073319085 -0.13413665 0.3147007 0.07015886 -0.05836119 0.5099547 -0.45685336
0.007266966 -0.058047485 -0.33415496 -0.03957616 0.07395524 -0.015750049 -0.22302137 0.07039488
-0.5663185 -0.3989975 -0.27590638 -0.039431408 0.1849093 -0.41034377 0.081676215 0.562266
-0.027919495 0.25217593 0.67720526 0.11940778 -0.010867629 0.49014023 -0.09853546 0.39686882
0.28745154 -0.034624822 0.23960698 -0.5124949 -0.1480573 -0.115674004 0.30330497 -0.22577074
-0.022625484 -0.025332356 -0.1422124 0.36398634 -0.040572334 -0.25271368 0.40071678 0.43092903
0.14700952 0.20990962 -0.1692008 0.3289859 -0.5959272 0.36421183 0.81068003 -0.20617823
-0.5118101 0.46724388 -0.3882654 -0.1342664 -0.11611185 -0.11289797 0.12608573 0.0871873
-0.09130652 0.41997373 0.30048063 0.6032666 -0.13554658 -0.30463699 0.11265528 -0.14328094
-0.6529252 0.23280285 -0.03431175 0.023128359 -0.10206481 -0.30794612 0.21926825 -0.000471631
0.22048359 -0.23397553 0.32102326 0.1680791 -0.10866441 0.12389035 0.15412155 -0.5328936
-0.21504205 -0.04311915 0.29022497 0.03285535 0.25606316 0.11780554 0.40547752 0.21299812
-0.1795981 -0.032648224 0.42806736 0.46345967 -0.33490816 -0.15025924 0.5128182 0.13229224
0.011603435 -0.31624183 0.08857513 -0.5167477 -0.3664543 -0.4478466 0.316543 -0.22703777
0.054595936 -0.12966761 -0.07324329 0.0018984145 -0.63799167 0.21543097 -0.6136756 0.0075432537
-0.4786383 0.23876442 -0.25407857 -0.48302698 -0.2576488 -0.14800973 0.25430796 0.49240837
0.19196038 -0.43789715 0.486653 -0.4876158 -0.014704466 0.095239505 -0.17433266 -0.16643342
-0.30124614 0.15375867 0.01422401 -0.10574277 -0.2579199 0.09307181 -0.19598565 0.45826697
00000000: 88e3 9e3c dec9 13bf a918 16be c3eb 8cbd
00000010: c287 69be bd1c af3e d359 55be 3daf b73c
00000020: 3c11 53be 0343 5cbc bc12 a5be 3430 313e
00000030: c927 fcbd f67e 953e 5f24 b23d 6119 7b3e
00000040: 81d6 b1be 0baa 99be 742b 60bf 46f3 2c3e
00000050: abc5 143e ac8d 1dbe db15 fdbe 5328 94be
00000060: eced f0be 891b 00bf 0293 023d e034 aebe
00000070: ce51 b0be 49a9 053f 7004 9bbe e3e1 033d
00000080: e56b d53d aae6 d4be f8f4 093e 819e d63e
00000090: f225 313e 6cd3 ddbe e5cc 133e 8d62 41be
000000a0: 1a37 8e3d 75c5 98be e443 48be b020 efbd
000000b0: 1b83 7e3e 7179 b03e d056 2b3e c64c 153f
000000c0: e3a7 18bf 4b60 133f 5a0e b6be e8fa 653d
000000d0: feb0 9e3d 4e48 5f3e 6bfd 99bd 010f d1bc
000000e0: 57fd acbe f3a9 64be 4d65 f03e a911 8c3d
000000f0: 1561 26bd 7fb4 acbe 0575 4cbe b557 323f
00000100: 0abf 13be d3e4 063f 9d61 b03d ba4b 0cbf
00000110: bbab b23e 02db 103f 7f33 f5be 303b dfbd
00000120: 0609 4cbe a451 483d 22a7 1f3d 88df 663d
00000130: e062 fbbe d0f5 15be 3af8 7f3d d59f c2be
00000140: a615 7bbe cc51 503d b80e 2f3e 3a44 0abf
00000150: be25 a2be 0ecc 113e c34e b83d b8ca 15bd
00000160: b9d1 dcbe 2328 56bf bbe6 1f3e d233 b83c
00000170: c564 113e 6803 803e 08f6 3c3d f645 5c3e
00000180: 9b9e 1f3d 47eb 103d de70 5a3d d07e 0ebc
00000190: de71 113e 7d5d 873d ce82 d0bd f99c 9d3e
000001a0: 9e25 41bd 9602 ad3e 32b5 c1be 2ad9 e33d
000001b0: a904 d13e a302 16bd 2f93 a9bc 2f85 8abd
000001c0: 0d12 54bf 5128 96bd 1e5b 09be 7320 a13e
000001d0: 73af 8f3d 250c 6fbd 648c 023f afe8 e9be
000001e0: bb1f ee3b 33c3 6dbd 5c16 abbe 9d1a 22bd
000001f0: d875 973d 3f06 81bc b75f 64be 312b 903d
00000200: 40fa 10bf 6649 ccbe 9a43 8dbe d482 21bd
00000210: dd58 3d3e 9418 d2be dc45 a73d aaf0 0f3f
00000220: 6db7 e4bc 341d 813e 535d 2d3f 118c f43d
00000230: 240e 32bc a9f3 fa3e f6cc c9bd 6432 cb3e
00000240: d92c 933e c2d2 0dbd 885b 753e de32 03bf
00000250: 559c 17be 7ee6 ecbd ca4a 9b3e 7230 67be
00000260: 1459 b9bc cd85 cfbc 21a0 11be 6b5c ba3e
00000270: 2d2f 26bd b063 81be c02a cd3e bba2 dc3e
00000280: aa89 163e 8cf2 563e f942 2dbe d770 a83e
00000290: af8e 18bf f979 ba3e ba88 4f3f 6320 53be
000002a0: fd05 03bf 973a ef3e b9ca c6be 227d 09be
000002b0: 0dcc edbd 0d37 e7bd 9e1c 013e 418f b23d
000002c0: eafe babd cc06 d73e 99d8 993e ae6f 1a3f
000002d0: b9cc 0abe 61f9 9bbe d0b7 e63d 3db8 12be
000002e0: 1b26 27bf df63 6e3e 7a8a 0cbd af77 bd3c
000002f0: 5b07 d1bd 1dab 9dbe db87 603e 3e45 f7b9
00000300: 73c6 613e 4897 6fbe 295d a43e ed1c 2c3e
00000310: 728b debd 39ba fd3d 0ad2 1d3e b76b 08bf
00000320: fc33 5cbe b59d 30bd 5e98 943e 5593 063d
00000330: b61a 833e 0844 f13d c09a cf3e 2e1c 5a3e
00000340: 90e8 37be 25ba 05bd a52b db3e 964a ed3e
00000350: 1579 abbe 8fdd 19be 0e48 033f 9e77 073e
00000360: 551c 3e3c 73ea a1be e166 b53d 9449 04bf
00000370: e69f bbbe 264c e5be ed11 a23e 977c 68be
00000380: fd9f 5f3d 96c7 04be 9400 96bd 38d4 f83a
00000390: 6c53 23bf f099 5c3e d819 1dbf 662d f73b
000003a0: 1410 f5be a97e 743e 9616 82be 504f f7be
000003b0: 8bea 83be dd8f 17be a734 823e f31c fc3e
000003c0: 4391 443e 0e34 e0be 952a f93e c7a8 f9be
000003d0: 00eb 70bc ee0c c33d 4384 32be 866d 2abe
000003e0: ef3c 9abe ea72 1d3e d20b 693c aa8f d8bd
000003f0: 140e 84be 6f9c be3d 76b0 48be f8a1 ea3e

feature_layers.0.bias f4 [128]
0.1377562 -0.09790191 0.06338144 0.16343229 -0.13687211 0.0045975405 -0.028991545 0.18718234
0.22574246 0.13857423 0.0077445777 0.09533887 0.18256651 0.068076484 -0.09631006 -0.11963084
-0.0768046 0.26968658 0.23729278 -0.10199053 0.1273613 0.05344454 -0.14033084 0.034598425
-0.13819094 -0.012805815 0.16590874 0.058416605 0.04149705 -0.059959214 0.04488978 -0.17099437
0.12687106 0.029704463 0.16468327 -0.17912862 0.100264505 0.14266828 -0.1654657 -0.2616524
0.1346985 0.0782985 -0.18163282 0.16966096 0.2634187 0.23696806 0.05534914 0.0812748
0.1234965 -0.09254727 0.07136471 0.093205266 0.070399314 -0.12255125 0.23856717 0.17374028
-0.08167817 0.042394146 -0.15639205 0.015015003 0.24158531 -0.13304773 -0.078214176 0.078414015
-0.07697599 0.109662995 -0.27551556 -0.16584252 -0.2166878 0.08179363 0.05937075 -0.26529306
0.2773704 0.20265876 0.18538803 -0.19722156 0.10784623 -0.05399677 0.0779565 0.22748281
0.2501474 -0.11946253 -0.13325512 0.16293035 -0.012598226 0.050241597 0.02107722 0.09821527
0.09833792 0.027133897 0.028606605 0.17162685 0.18645526 -0.03387769 -0.21051283 0.1666498
-0.13885406 0.14179492 0.061298475 0.1311157 -0.11153426 0.13415697 -0.06349727 0.121132515
-0.087938845 0.059001353 0.13412113 0.10848006 0.22826567 -0.066011004 0.2988141 0.14985748
0.03205329 0.2290328 0.10388038 -0.0053792307 0.16645537 -0.1606329 0.2626239 -0.00467437
-0.12765673 0.22457343 0.022203473 -0.16930316 -0.07311857 0.2147518 -0.035508495 0.016830042
00000000: f60f 0d3e cc80 c8bd 21ce 813d cb5a 273e
00000010: 3428 0cbe f7a6 963b ad7f edbc baac 3f3e
00000020: 0829 673e 67e6 0d3e 3ac6 fd3b 0741 c33d
00000030: b7f2 3a3e af6b 8b3d 353e c5bd 0401 f5bd
00000040: bb4b 9dbd 5c14 8a3e e1fc 723e 69e0 d0bd
00000050: 006b 023e a9e8 5a3d e3b2 0fbe 14b7 0d3d
00000060: ed81 0dbe 7bcf 51bc fbe3 293e 4046 6f3d
00000070: d0f8 293d cb97 75bd 59de 373d 2619 2fbe
00000080: 7dea 013e c656 f33c bba2 283e 7e6d 37be
00000090: 7a57 cd3d a217 123e d76f 29be 4ef7 85be
000000a0: 67ee 093e f75a a03d f4fd 39be 9abb 2d3e
000000b0: d1de 863e c1a7 723e c8b5 623d 6773 a63d
000000c0: bceb fc3d 6c89 bdbd a927 923d 67e2 be3d
000000d0: 842d 903d 26fc fabd f44a 743e f9e8 313e
000000e0: e246 a7bd 7ca5 2d3d 3d25 20be 7d01 763c
000000f0: 2462 773e aa3d 08be c12e a0bd 8797 a03d
00000100: 96a5 9dbd fe96 e03d 6010 8dbe 9fd2 29be
00000110: 68e3 5dbe 6b83 a73d be2e 733d 7ed4 87be
00000120: 7e03 8e3e c785 4f3e 5cd6 3d3e 73f4 49be
00000130: 7cde dc3d b82b 5dbd a8a7 9f3d 41f1 683e
00000140: 5213 803e c5a8 f4bd 0874 08be 37d7 263e
00000150: ca68 4ebc 22ca 4d3d 22aa ac3c 1625 c93d
00000160: 6465 c93d e847 de3c 6658 ea3c f3be 2f3e
00000170: 21ee 3e3e 55c3 0abd ad90 57be 3fa6 2a3e
00000180: c22f 0ebe b032 113e 1c14 7b3d 3243 063e
00000190: 136c e4bd 7260 093e db0a 82bd 5314 f83d
000001a0: 4819 b4bd 67ab 713d 0d57 093e cb2a de3d
000001b0: 7abe 693e c730 87bd 29fe 983e 3d74 193e
000001c0: 504a 033d 9387 6a3e 3dbf d43d 4244 b0bb
000001d0: 4773 2a3e f37c 24be a476 863e 752b 99bb
000001e0: 72b8 02be 94f6 653e 0fe4 b53c cf5d 2dbe
000001f0: 30bf 95bd e5e7 5b3e 5b71 11bd 28df 893c

feature_layers.1.weight f4 [128, 128]
0.17234895 0.061523676 0.18480986 0.103925936 -0.057197608 -0.2236367 0.03196165 0.17018238
0.09480189 -0.009403894 0.26687703 0.0058134845 -0.18858697 0.029820383 0.11735933 0.20677695
0.12780021 -0.031358447 0.18364847 -0.033109516 0.11986805 -0.16534604 -0.13213004 -0.16390915
0.15184854 0.24006775 -0.19647911 0.12999882 -0.0006893753 -0.020809568 0.015604072 0.11491184
0.104718655 -0.09604276 -0.05927616 -0.24685748 0.0878224 0.11122783 -0.031619586 -0.2929058
0.035180368 -0.044243105 0.19481508 0.048212633 -0.0403848 -0.009165699 0.0799568 0.09595619
-0.24731916 -0.05800035 -0.05468071 0.18473499 -0.029440034 0.18513942 0.22459754 0.010026438
0.15201049 -0.104490265 -0.16206749 0.105259955 0.29479733 -0.29829738 0.076685645 0.06719451
0.02406822 0.050087158 0.074658066 0.12144498 0.04735336 0.15487505 0.035884667 0.08797281
-0.09010235 0.307954 0.21137412 0.039087143 0.09379233 0.120431684 -0.05039652 0.09873135
0.019012712 -0.073890544 -0.17232771 -0.28398648 0.10762745 -0.14961307 -0.14225885 0.13407317
0.13885371 -0.122534774 0.10626202 -0.1189645 0.17625871 -0.03210144 0.04974546 0.2331038
0.08418561 0.14058825 0.17699857 0.010420205 -0.10856847 0.17238589 0.2872962 0.01554785
0.15105516 0.13515021 -0.12277312 -0.14481533 -0.059299745 0.036087234 0.28572634 0.0110831605
-0.007345082 -0.08363467 0.0316873 0.21713492 0.11695401 0.07734238 -0.08544319 0.004319867
0.08201393 0.013852519 0.08834215 -0.27057338 -0.18179257 0.119715944 -0.026148524 0.15733771
-0.17709465 -0.09390436 -0.16869554 0.2729384 0.0022631623 -0.011450026 0.0013627863 0.1018083
-0.09381713 -0.02856322 -0.022134986 0.07693975 0.18582653 0.1792028 0.15512119 0.017920557
-0.18354584 -0.07926486 0.07077811 -0.17087823 0.13398637 0.1705837 0.035675567 0.44048718
-0.054379825 0.049485415 0.048553888 0.17371681 -0.08625183 0.023260891 -0.011969935 -0.16787393
0.11793946 0.042339683 0.050300848 -0.020625163 -0.12616025 0.0013694903 0.1195087 0.08326508
0.033453353 -0.064418554 -0.049481627 0.14113282 0.31919438 -0.096092306 0.08318426 -0.09232015
-0.070817254 0.08509105 0.00067981327 -0.09656277 -0.0013525377 -0.009087094 0.07246118 0.0395319
-0.1188035 0.030871185 -0.07100375 0.24561697 0.17257401 -0.11428194 0.11236427 -0.07504512
0.10214343 -0.005259408 -0.19744797 0.25987956 0.059579004 -0.038383666 0.030730713 0.03485715
0.026067788 -0.012384763 -0.0038157422 -0.13022783 0.047560647 0.072981454 0.31517762 0.011218701
0.11689833 -0.07945235 -0.018874777 -0.02770496 -0.029844562 0.07894122 0.13051364 0.11092569
-0.22928223 -0.16889496 -0.10224238 0.032816686 0.056590952 -0.041600175 -0.024503142 -0.04951247
0.03170297 0.3020664 0.004259595 -0.04440937 0.13614862 -0.0429272 0.11881927 -0.092046484
-0.0002137154 -0.09217208 0.06102363 0.07708936 -0.101213776 0.13429776 0.12679288 0.13110526
0.060438972 -0.01570672 0.1350491 0.048178896 0.038013715 -0.10930692 0.20194562 -0.0049815434
-0.18735911 0.069832884 0.010516973 0.21275346 -0.011279103 0.12943514 0.11841071 -0.18765938
00000000: 3e7c 303e 4000 7c3d cc3e 3d3e 1fd7 d43d
00000010: 0a48 6abd 0501 65be 38ea 023d 4a44 2e3e
00000020: 7e27 c23d ca12 1abc 1ba4 883e 0b7f be3b
00000030: f11c 41be e049 f43c 175a f03d 56bd 533e
00000040: 0fde 023e b771 00bd 580e 3c3e d89d 07bd
00000050: 617d f53d 7950 29be 194d 07be cdd7 27be
00000060: 2f7e 1b3e 52d4 753e d231 49be 691e 053e
00000070: 31b7 34ba d478 aabc 39a8 7f3c e656 eb3d
00000080: bc76 d63d 11b2 c4bd 8fcb 72bd 35c8 7cbe
00000090: 3bdc b33d 6bcb e33d 8a83 01bd c0f7 95be
000000a0: 4a19 103d 4238 35bd 9b7d 473e 9c7a 453d
000000b0: 886a 25bd ba2b 16bc 64c0 a33d ae84 c43d
000000c0: 3c41 7dbe c691 6dbd e1f8 5fbd 2b2b 3d3e
000000d0: 3a2c f1bc 3095 3d3e e6fc 653e ee45 243c
000000e0: a3a8 1b3e fefe d5bd 05f5 25be 8892 d73d
000000f0: adef 963e 6fba 98be 5d0d 9d3d 469d 893d
00000100: b72a c53c 3128 4d3d 54e6 983d 25b8 f83d
00000110: 99f5 413d 9197 1e3e cdfb 123d 172b b43d
00000120: 9587 b8bd 26ac 9d3e 7572 583e d719 203d
00000130: 3116 c03d e3a4 f63d 956c 4ebd a933 ca3d
00000140: 8cc0 9b3c ed53 97bd ad76 30be ad66 91be
00000150: c86b dc3d 2b34 19be 4eac 11be 7a4a 093e
00000160: ab2f 0e3e 83f3 fabd e79f d93d a9a3 f3bd
00000170: 2a7d 343e cd7c 03bd e5c1 4b3d c3b2 6e3e
00000180: 8169 ac3d 5ef6 0f3e 1d3f 353e 82b9 2a3c
00000190: 2559 debd ed85 303e 7d18 933e 69bc 7e3c
000001a0: 34ae 1a3e d164 0a3e 7970 fbbd 784a 14be
000001b0: 4ae4 72bd 35d0 133d b94a 923e 2596 353c
000001c0: 03af f0bb a748 abbd 8bca 013d 9e58 5e3e
000001d0: 9685 ef3d af65 9e3d d7fc aebd ac8d 8d3b
000001e0: ebf6 a73d adf5 623c bbec b43d 9888 8abe
000001f0: d527 3abe a22d f53d 6e35 d6bc 231d 213e
00000200: 4d58 35be ee50 c0bd 86be 2cbe 95be 8b3e
00000210: 9051 143b e498 3bbc 859f b23a df80 d03d
00000220: 3223 c0bd 6afd e9bc 6e54 b5bc 9692 9d3d
00000230: 4f49 3e3e f080 373e 17d8 1e3e 22ce 923c
00000240: 71f3 3bbe 9d55 a2bd 1df4 903d b4fa 2ebe
00000250: b933 093e 7ead 2e3e 8b20 123d 8987 e13e
00000260: 61bd 5ebd 38b1 4a3d 71e0 463d d2e2 313e
00000270: cda4 b0bd a08d be3c 8c1d 44bc 25e7 2bbe
00000280: 3e8a f13d 606c 2d3d 4308 4e3d 1af6 a8bc
00000290: 2730 01be 7880 b33a fac0 f43d e286 aa3d
000002a0: 6206 093d e0ed 83bd 3fad 4abd 1f85 103e
000002b0: 726d a33e 0bcc c4bd 825c aa3d 5912 bdbd
000002c0: a308 91bd 3744 ae3d 7f35 323a b4c2 c5bd
000002d0: a247 b1ba 09e2 14bc 8766 943d 34ec 213d
000002e0: 404f f3bd 91e5 fc3c 6a6a 91bd 0483 7b3e
000002f0: 3eb7 303e a60c eabd 3d1f e63d 42b1 99bd
00000300: 9330 d13d 1d57 acbb cd2f 4abe ef0e 853e
00000310: 1d09 743d 3138 1dbd fabe fb3c 5fc6 0e3d
00000320: 1d8c d53c 76e9 4abc 8811 7abb 725a 05be
00000330: f4ce 423d 4d77 953d f65e a13e a4ce 373c
00000340: 6468 ef3d eab7 a2bd 479f 9abc 83f5 e2bc
00000350: 957c f4bc efab a13d 5ea5 053e 022d e33d
00000360: f6c8 6abe cdf2 2cbe 7464 d1bd ca6a 063d
00000370: eacb 673d f264 2abd d0ba c8bc 96cd 4abd
00000380: f9da 013d 72a8 9a3e 1394 8b3b 99e6 35bd
00000390: 8b6a 0b3e 6fd4 2fbd 8457 f33d de82 bcbd
000003a0: ca18 60b9 b7c4 bcbd eaf3 793d 07e1 9d3d
000003b0: 2b49 cfbd 5a85 093e fed5 013e 7540 063e
000003c0: db8e 773d 61ab 80bc 504a 0a3e 3c57 453d
000003d0: 45b4 1b3d 4edc dfbd d5ca 4e3e 373c a3bb
000003e0: 11db 3fbe 8b04 8f3d 624f 2c3c 0bdc 593e
000003f0: fdcb 38bc a58a 043e 5081 f23d c829 40be

feature_layers.1.bias f4 [128]
0.0648451 0.16204071 0.010705245 -0.092006825 0.049042437 0.078221366 0.036074936 -0.02499207
-0.0066779177 0.13167356 -0.033938143 -0.09807141 0.016715068 0.029113092 -0.08568559 -0.05905189
0.027570011 -0.06784307 0.12579207 0.09775434 0.10199109 0.036784742 -0.14078991 -0.052668065
0.059757918 0.04025763 -0.008552164 0.067360446 -0.08520876 -0.14707641 0.02828793 0.05786829
-0.020049162 -0.037360903 0.1002214 -0.12813053 -0.010927945 -0.079272434 0.01550626 0.049535245
0.039655033 -0.059465446 -0.013124882 0.0022585082 -0.109463386 -0.021584688 -0.043982316 -0.089389935
0.07827981 -0.010496881 -0.10588196 0.017279178 -0.036962397 -0.041717537 -0.027599761 -0.04552525
0.06522005 0.025246128 -0.003162837 -0.08334018 -0.08596848 -0.04544786 0.09343502 0.09845622
0.073174134 -0.115296386 0.074932925 0.08750112 -0.14386374 0.066172235 -0.116105065 -0.1250671
-0.03320314 0.12960543 -0.036180384 0.025181783 -0.014297479 0.034075662 0.07870866 0.10893945
0.026019493 0.12412814 -0.12951848 0.013776707 -0.054586906 -0.053843036 -0.0026832973 -0.10644063
-0.0023015237 0.122665845 -0.08691107 -0.033775844 0.12744811 -0.037783355 0.0040957187 -0.06867063
0.07440937 0.0869057 -0.110632114 0.025614172 0.016625108 0.047267213 0.08094733 0.072783455
0.062269382 0.07048629 -0.062200695 0.047077585 -0.095232025 0.04501693 0.06444531 0.025671517
-0.088353604 -0.10061035 0.05660664 -0.0024482808 0.006522243 -0.050897688 0.07926225 0.040177595
0.032663066 -0.05970529 0.0444519 -0.034880776 -0.06638541 -0.057364695 -0.122260444 0.003778569
00000000: 82cd 843d 00ee 253e 0d65 2f3c 136e bcbd
00000010: b9e0 483d 8632 a03d 50c3 133d 2bbc ccbc
00000020: 6fd2 dabb 6fd5 063e b902 0bbd aad9 c8bd
00000030: 0aee 883c 947e ee3c ed7b afbd 65e0 71bd
00000040: 81da e13c 4ff1 8abd a3cf 003e 6d33 c83d
00000050: b4e0 d03d 99ab 163d 3b2b 10be 78ba 57bd
00000060: b8c4 743d 2fe5 243d 601e 0cbc 46f4 893d
00000070: ee81 aebd 339b 16be 17bc e73c 4d07 6d3d
00000080: 243e a4bc bf07 19bd e140 cd3d a634 03be
00000090: 200b 33bc 9659 a2bd f80d 7e3c 78e5 4a3d
000000a0: 516d 223d 0a92 73bd bf09 57bc 7b03 143b
000000b0: 572e e0bd 5fd2 b0bc cd26 34bd 1212 b7bd
000000c0: 2a51 a03d 1cfb 2bbc a4d8 d8bd 108d 8d3c
000000d0: e265 17bd 02e0 2abd e518 e2bc af78 3abd
000000e0: 1792 853d f8d0 ce3c 9947 4fbb 42ae aabd
000000f0: 3e10 b0bd 8927 3abd dc5a bf3d 6aa3 c93d
00000100: 52dc 953d 8320 ecbd 6f76 993d ca33 b33d
00000110: 0451 13be 4f85 873d 7ec8 edbd 9711 00be
00000120: 0400 08bd 49b7 043e e231 14bd 074a ce3c
00000130: f93f 6abc ec92 0b3d 0232 a13d a51b df3d
00000140: d526 d53c e536 fe3d 7ea0 04be b3b7 613c
00000150: 8596 5fbd 848a 5cbd 42da 2fbb 8cfd d9bd
00000160: 29d5 16bb 3b38 fb3d 6efe b1bd 8a58 0abd
00000170: c281 023e b8c2 1abd 6135 863b 30a3 8cbd
00000180: f163 983d 9efb b13d 1793 e2bd d0d4 d13c
00000190: 6131 883c 449b 413d b7c7 a53d 7e0f 953d
000001a0: 2e0e 7f3d 1e5b 903d 28c6 7ebd 6dd4 403d
000001b0: 0209 c3bd ac63 383d e7fb 833d 134d d23c
000001c0: bcf2 b4bd cd0c cebd 5ddc 673d 5673 20bb
000001d0: 8ab8 d53b 187a 50bd 3f54 a23d 4391 243d
000001e0: b5c9 053d 898d 74bd 3213 363d 25df 0ebd
000001f0: 13f5 87bd 3ef7 6abd af63 fabd dea1 773b

value_stream.0.weight f4 [64, 128]
-0.014943031 -0.10485036 0.20874481 -0.049020957 0.20000471 0.08367856 0.037433527 -0.058374945
-0.014824934 -0.084704705 0.022456795 -0.005386452 -0.15218441 0.01588886 -0.16353743 0.1541549
0.20851755 0.18975937 -0.0006684535 -0.10834113 0.071264245 -0.15812092 -0.026153224 0.18416053
-0.055503923 0.30490062 -0.008637407 0.22178744 0.043565076 0.049256876 0.27750096 0.017199837
-0.0780776 0.052892067 -0.26341638 0.20440342 0.1743045 0.04557545 0.07787781 -0.20540029
0.058637735 0.26960906 0.06148324 0.13535812 -0.005217442 -0.18520126 0.039085913 -0.32603753
0.11375573 0.05006845 0.24874352 0.10660709 0.20590448 -0.13167784 0.09112397 0.17102855
0.0831595 0.15678704 -0.10008002 -0.11705329 -0.2180863 0.17368917 -0.014919471 0.10105508
0.18619648 0.16577202 -0.102371275 -3.842817e-06 -0.07136865 0.012291212 0.19517457 0.35885638
0.058096953 -0.010429068 0.16976152 -0.049545158 -0.17334701 0.15006183 0.10087297 -0.057866458
0.044098627 0.04345 0.106194936 -0.24208242 -0.1598376 -0.08341371 0.012120529 0.12845154
0.0021259983 0.26281917 0.21058634 0.11115429 -0.041490335 -0.0109775355 -0.071984276 0.055627596
0.15681514 -0.12082817 0.2949679 -0.048654366 -0.11260632 0.017200388 0.08617043 -0.029137744
0.15084304 -0.092766024 0.027020585 0.3305036 -0.21452475 -0.070747934 0.18141598 0.05787299
0.130237 0.16431463 0.20780163 -0.11067887 0.20826575 0.0091622835 -0.090315565 0.040341824
0.08051651 -0.13653167 -0.016620945 -9.3224575e-05 0.22102703 -0.029904757 -0.02069623 0.1689113
-0.23843043 -0.09115484 0.06220207 -0.16125649 0.014732014 -0.029924272 -0.03885328 -0.1954172
0.088407554 0.01884123 0.048998393 0.21212119 -0.01909761 -0.077149816 -0.12872471 -0.031125002
-0.0344947 0.048012163 -0.080773205 0.023577798 -0.16291814 -0.056598257 0.24188615 0.2386246
-0.14205351 0.08630253 -0.082807 0.14549117 0.007840816 -0.0025748145 -0.056326587 -0.046253446
-0.14527637 -0.051226135 -0.13222118 -0.049594507 0.041377954 0.036446713 -0.1240055 0.062226806
0.42250344 -0.06414146 -0.2762467 -0.23066379 0.17306873 -0.09056343 -0.060518786 -0.04151784
0.09219016 0.15521473 -0.25633246 -0.16594307 -0.26938298 -0.106737174 0.106812246 -0.23888488
-0.09154129 0.086321756 0.13886286 0.0768607 0.06898472 -0.19647177 -0.031501565 -0.049555156
-0.0301324 -0.25373912 -0.14262435 -0.1400719 -0.27733856 -0.06323541 0.08481945 -0.045751724
0.101520434 -0.18041478 -0.06848913 -0.04001359 -0.22002985 0.16808823 -0.23063 -0.05601103
-0.03530368 -0.043861266 0.217724 0.09844745 0.04129084 0.28381753 0.087152325 -0.13010795
-0.18014035 -0.09703495 0.04058069 0.048431177 -0.045138463 0.1810532 -0.3552153 -0.050777756
0.040817726 0.122610055 -0.06957665 -0.13915561 -0.2021426 0.0586593 0.16693242 -0.08826095
-0.038131513 0.14846866 -0.13161038 0.081116244 0.025262194 0.009426382 -0.0823007 -0.03827802
-0.04398585 0.036034483 -0.014009718 0.008179271 -0.03803728 0.06290018 -0.12078758 -0.094293684
-0.1084722 -0.053239055 -0.18642375 0.03519177 -0.0041995523 -0.20333005 -0.0369446 -0.0013619581
00000000: 9dd3 74bc c9bb d6bd 33c1 553e 33ca 48bd
00000010: 09ce 4c3e aa5f ab3d e653 193d 911a 6fbd
00000020: 48e4 72bc a979 adbd 50f7 b73c d680 b0bb
00000030: 3bd6 1bbe 5b29 823c 5b76 27be c8da 1d3e
00000040: a085 553e 4850 423e 283b 2fba f4e1 ddbd
00000050: fdf2 913d 73ea 21be 493f d6bc 9494 3c3e
00000060: 1558 63bd ef1b 9c3e e983 0dbc 3f1c 633e
00000070: 4b71 323d 94c1 493d 9b14 8e3e ace6 8c3c
00000080: 26e7 9fbd 5aa5 583d 83de 86be 214f 513e
00000090: e17c 323e 53ad 3a3d 677e 9f3d 7454 52be
000000a0: 1f2e 703d 330a 8a3e dad5 7b3d 529b 0a3e
000000b0: 13f7 aabb 66a5 3dbe 8d18 203d 64ee a6be
000000c0: c4f8 e83d 9314 4d3d 9fb6 7e3e d154 da3d
000000d0: a0d8 523e 8ed6 06be 349f ba3d 1c22 2f3e
000000e0: 874f aa3d c88c 203e c1f6 ccbd a3b9 efbd
000000f0: 0452 5fbe 93db 313e cc70 74bc f7f5 ce3d
00000100: 4aaa 3e3e 24c0 293e 08a8 d1bd 8cf1 80b6
00000110: ba29 92bd 1461 493c d8db 473e 06bc b73e
00000120: 12f7 6d3d aede 2abc f7d5 2d3e ddef 4abd
00000130: e181 31be cfa9 193e 7d96 ce3d 6105 6dbd
00000140: c3a0 343d a1f8 313d bb7c d93d 74e4 77be
00000150: 78ac 23be cfd4 aabd 2f95 463c cd88 033e
00000160: 5554 0b3b 3c90 863e f2a3 573e dca4 e33d
00000170: c5f1 29bd 1fdb 33bc 7e6c 93bd c3d9 633d
00000180: 2694 203e c274 f7bd 0806 973e cd49 47bd
00000190: 249e e6bd d4e7 8c3c 1f7a b03d 47b2 eebc
000001a0: 9976 1a3e 1dfc bdbd 465a dd3c c537 a93e
000001b0: 60ac 5bbe 4be4 90bd 1cc5 393e 3a0c 6d3d
000001c0: d95c 053e 1842 283e f3c9 543e 9aab e2bd
000001d0: 9e43 553e 671d 163c 5ef7 b8bd 783d 253d
000001e0: d7e5 a43d f5ce 0bbe a628 88bc 9081 c3b8
000001f0: e954 623e d2fa f4bc 248b a9bc 15f7 2c3e
00000200: 1b27 74be 64af babd 99c7 7e3d 6c20 25be
00000210: 8c5e 713c bf23 f5bc 9e24 1fbd 721b 48be
00000220: 050f b53d ec58 9a3c 8ab2 483d 4c36 593e
00000230: 9772 9cbc b900 9ebd 69d0 03be dcf9 febc
00000240: 514a 0dbd 67a8 443d 6c6c a5bd 3a26 c13c
00000250: 03d4 26be 93d3 67bd 01b1 773e 025a 743e
00000260: 7a76 11be 61bf b03d b796 a9bd a3fb 143e
00000270: c476 003c 38be 28bb b5b6 66bd 4174 3dbd
00000280: 54c3 14be 7fd2 51bd fd64 07be 9c23 4bbd
00000290: ee7b 293d 2649 153d 98f6 fdbd 89e1 7e3d
000002a0: 5f52 d83e 995c 83bd 3570 8dbe 2133 6cbe
000002b0: ee38 313e 5279 b9bd 8ce2 77bd 9c0e 2abd
000002c0: 32ce bc3d 9cf0 1e3e 023e 83be fbec 29be
000002d0: 91ec 89be 0599 dabd 61c0 da3d 3d9e 74be
000002e0: 007a bbbd 76c9 b03d 1132 0e3e 2569 9d3d
000002f0: dc47 8d3d e52f 49be c907 01bd 59fa 4abd
00000300: 39d8 f6bc 18ea 81be 1e0c 12be 026f 0fbe
00000310: 52ff 8dbe 9181 81bd d2b5 ad3d 2966 3bbd
00000320: f2e9 cf3d a7be 38be 0744 8cbd 4ae5 23bd
00000330: 814f 61be 521f 2c3e 452a 6cbe d26b 65bd
00000340: 979a 10bd dfa7 33bd 0af3 5e3e d19e c93d
00000350: 9520 293d 8850 913e eb7c b23d 053b 05be
00000360: b676 38be 43ba c6bd f037 263d c55f 463d
00000370: 1ce3 38bd 0366 393e c8de b5be 56fc 4fbd
00000380: 7d30 273d fb1a fb3d 347e 8ebd cf7e 0ebe
00000390: 78fe 4ebe bc44 703d 55f0 2a3e 28c2 b4bd
000003a0: ca2f 1cbd 2b08 183e dfc4 06be 4620 a63d
000003b0: a9f2 ce3c 1d71 1a3c 458d a8bd 6ac9 1cbd
000003c0: 822a 34bd e598 133d 0489 65bc 5902 063c
000003d0: fbcc 1bbd cfd1 803d 7b5f f7bd 0c1d c1bd
000003e0: ac26 debd 3211 5abd dee5 3ebe 3f25 103d
000003f0: 669c 89bb c135 50be 3953 17bd bb83 b2ba

value_stream.0.bias f4 [64]
0.008756847 0.034886416 0.06749606 -0.087942116 -0.008123004 -0.059837885 0.09008388 0.0105529055
0.024610916 -0.0016767564 -0.010510427 0.1344913 0.059716806 -0.005339411 -0.13622524 0.024008008
0.016677117 0.06525248 0.037515257 0.0054138727 -0.06931831 -0.017172504 0.11595106 -0.08980155
-0.025866302 0.028151864 -0.017892675 -0.074459 0.0057169273 -0.033330232 0.001756055 0.043654785
0.11977884 0.12558347 -0.085791424 0.12284765 -0.051062487 0.039547015 -0.05371676 -0.015511127
0.14624119 -0.076118805 -0.03228182 -0.04024533 0.04321343 0.00057057844 -0.008987416 -0.038556278
0.035219785 0.06554026 0.10302404 -0.10484928 0.055688854 0.023734424 0.009607865 -0.02971649
0.021560583 0.1591548 -0.08947089 0.011000912 -0.0041892044 0.007704427 -0.03945536 0.08787375
00000000: e178 0f3c 0fe5 0e3d 603b 8a3d ff1a b4bd
00000010: 5916 05bc 9218 75bd e67d b83d 18e6 2c3c
00000020: d59c c93c 9cc6 dbba ed33 2cbc 16b8 093e
00000030: 9c99 743d 3af6 aebb a17e 0bbe 71ac c43c
00000040: 739e 883c 18a3 853d 99a9 193d db66 b13b
00000050: c2f6 8dbd 5aad 8cbc c077 ed3d e0e9 b7bd
00000060: 91e5 d3bc bd9e e63c a993 92bc f67d 98bd
00000070: 1055 bb3b 4885 08bd 6e2b e63a 5ccf 323d
00000080: 9c4e f53d f498 003e 6ab3 afbd 8c97 fb3d
00000090: e626 51bd 0dfc 213d 1b06 5cbd 6222 7ebc
000000a0: 40c0 153e 2de4 9bbd f139 04bd 4ad8 24bd
000000b0: 9100 313d df92 153a f43f 13bc 30ed 1dbd
000000c0: 9f42 103d f939 863d 45fe d23d 38bb d6bd
000000d0: ff19 643d b26e c23c 4e6a 1d3c ff6f f3bc
000000e0: d29f b03c 7af9 223e 843c b7bd 2b3d 343c
000000f0: 9845 89bb 6b75 fc3b f29b 21bd 27f7 b33d

value_stream.2.weight f4 [1, 64]
-0.0920961 -0.12885506 0.10130352 -0.17342673 0.1634108 -0.34317887 0.12337099 0.110892534
0.18734258 0.1303153 0.058587708 0.07294823 0.14014436 0.50425166 -0.06603578 0.46237877
-0.119727515 0.327871 -0.11294533 -0.36518115 -0.2772373 0.052029945 0.13592477 -0.09406484
-0.28890988 -0.141858 -0.2781563 -0.2295644 0.25612935 0.2194633 0.13240181 0.23110981
0.15692723 0.055277135 -0.33290166 0.111130625 -0.18992403 -0.34286338 -0.058230367 0.10576088
0.1500913 -0.04872645 -0.115530685 -0.16763714 0.2395155 0.14550951 -0.53464574 0.20653291
-0.103447184 0.10725991 0.14660606 -0.13612008 0.47011375 0.17097966 0.40382716 0.37054014
-0.13625504 0.11677103 -0.33747244 -0.44899943 -0.11996443 0.001320826 0.3400951 0.17618006
00000000: e19c bcbd 95f2 03be 3878 cf3d c796 31be
00000010: 2955 273e 24b5 afbe eea9 fc3d a01b e33d
00000020: bcd6 3f3e 6071 053e aaf9 6f3d e265 953d
00000030: 0182 0f3e a316 013f c43d 87bd e9bc ec3e
00000040: b333 f5bd b5de a73e e24f e7bd 06f9 babe
00000050: 0cf2 8dbe 5a1d 553d dd2f 0b3e 11a5 c0bd
00000060: ffeb 93be 3943 11be 816a 8ebe ee12 6bbe
00000070: 6323 833e fdba 603e 5794 073e 0da8 6c3e
00000080: 88b1 203e 476a 623d 1672 aabe 7498 e33d
00000090: 727b 42be ca8b afbe f782 6ebd 2999 d83d
000000a0: 89b1 193e 6395 47bd 5a9b ecbd 12a9 2bbe
000000b0: 8d43 753e 7200 153e 8bde 08bf 5d7d 533e
000000c0: 1edc d3bd 15ab db3d e61f 163e 1063 0bbe
000000d0: c0b2 f03e 4b15 2f3e 6fc2 ce3e 70b7 bd3e
000000e0: 7186 0bbe a625 ef3d 30c9 acbe 41e3 e5be
000000f0: e9af f5bd 911f ad3a f220 ae3e 8c68 343e

advantage_stream.0.weight f4 [64, 128]
-0.009905248 -0.01233078 -0.21273123 0.33712146 0.12897849 -0.07221921 0.005215392 0.16004215
0.07169009 -0.0008680748 0.009281248 0.08524958 -0.013616016 -0.103641525 0.57504004 -0.021787563
-0.059355646 -0.19673075 0.011397421 -0.14114423 -0.29998216 -0.17062125 0.050896443 -0.31083697
0.031869736 -0.24834584 -0.1714175 -0.048169482 0.24986242 0.2700091 0.082777984 -0.0728214
0.052252807 0.09351871 -0.19952415 0.09766629 -0.121143565 0.029457431 -0.008885186 0.3067896
0.010640117 0.12466762 -0.10615667 0.25687674 -0.21686949 -0.16327856 0.11478395 0.30123004
-0.00075795094 -0.17758402 0.10573989 -0.09828319 -0.14418241 0.21254109 -0.24319789 -0.21450369
0.114639 0.14213009 -0.26366842 -0.19323355 0.2208971 0.007779453 -0.20227389 0.040122584
-0.043644805 0.063679725 0.13319305 0.117849104 0.027415657 -0.08107771 -0.11330236 0.22459291
0.07696691 -0.21182269 0.23014003 0.015935963 0.029342696 -0.06457429 -0.014968778 0.076000735
-0.1341788 -0.10608287 0.1356876 0.18779454 0.37568378 0.153182 0.15253435 0.0066853887
0.32923985 -0.25758567 0.32850677 -0.050237544 0.0018206242 0.4648395 0.12683487 -0.106010504
0.010756585 -0.11828946 -0.103394665 0.028252972 -0.15491101 -0.2955246 -0.06277151 -0.14423281
0.02127404 -0.02493082 0.16236742 0.033431266 -0.07038813 0.029925417 -0.22070037 -0.08407151
0.1231845 -0.010753987 -0.066141166 0.037202686 0.28067577 0.6137448 -0.09684976 -0.1467712
0.08676191 0.042456187 -0.26418418 -0.06865401 0.23806977 -0.21957158 -0.0013134002 0.06485024
0.12094983 -0.055412352 0.017517151 -0.0736833 0.12735738 -0.081520416 0.14334977 -0.15677232
-0.081612945 -0.13805665 -0.07975137 0.15539718 0.14500447 -0.12057949 -0.027074005 -0.025176115
0.11725343 0.28980303 -0.09677833 -0.010611709 -0.13199112 0.067463554 -0.17231551 0.28265515
-0.06303847 0.0098249335 0.11676487 -0.111895025 0.038552724 0.06512021 0.15947825 -0.06253696
-0.20197076 -0.048767064 0.07519497 0.1580378 -0.154746 -0.28591368 -0.2767 0.009328999
0.18988313 0.009551279 -0.11530929 -0.06373956 -0.11664753 0.11294066 0.14873852 -0.18162483
-0.027721575 -0.24778588 0.00049310457 -0.038335275 -0.02458674 0.25750455 0.12087834 0.056528986
0.05340021 -0.050228663 -0.20625427 -0.039923277 -0.18262276 0.05244117 0.24912792 0.14580889
0.07912459 0.16558418 -0.039346367 -0.006870624 -0.003906764 -0.28284943 -0.04038405 -0.048969112
0.15072106 0.29015183 -0.01542028 -0.024405744 0.020513818 0.21699621 0.07086395 0.116545096
0.0025923762 -0.050812233 0.271086 0.03943461 0.07896161 -0.016575934 -0.13612427 0.6772249
-0.09124823 -0.17103502 0.25906342 -0.012641227 0.1273446 -0.07381468 -0.2007111 -0.062757544
0.30532074 -0.020783788 0.3143041 -0.13351884 0.07587873 0.040428784 -0.02838164 0.2565826
-0.25066644 0.049693074 0.10589715 0.015933948 -0.05729852 -0.24488091 0.053971272 0.20983894
0.07239583 0.24414162 -0.078999855 0.026784603 0.2696325 -0.25383848 0.14622265 -0.002757515
0.43313998 0.09211306 -0.024129087 0.10422516 -0.14631991 0.09817618 0.036763478 0.1885599
00000000: 9f49 22bc 0a07 4abc 37d6 59be 2f9b ac3e
00000010: f012 043e aae7 93bd e1e5 aa3b 17e2 233e
00000020: 41d2 923d 848f 63ba 6010 183c 5597 ae3d
00000030: b615 5fbc 0242 d4bd d335 133f d57b b2bc
00000040: e81e 73bd c973 49be 40bc 3a3c 1d88 10be
00000050: 4397 99be 56b7 2ebe ca78 503d 0626 9fbe
00000060: d789 023d 5f4e 7ebe 1288 2fbe 5d4d 45bd
00000070: efdb 7f3e a23e 8a3e 8187 a93d 6323 95bd
00000080: 0a07 563d bd86 bf3d 0f50 4cbe 4405 c83d
00000090: 1e1a f8bd b650 f13c 2c93 11bc 8713 9d3e
000000a0: e353 2e3c bd51 ff3d ab68 d9bd 5985 833e
000000b0: 0913 5ebe 7f32 27be d913 eb3d d33a 9a3e
000000c0: 3ab1 46ba 96d8 35be 288e d83d b248 c9bd
000000d0: 8ea4 13be 5fa4 593e de08 79be dba6 5bbe
000000e0: dac7 ea3d 8d8a 113e 8cff 86be 04df 45be
000000f0: d932 623e c8ea fe3b e320 4fbe 9457 243d
00000100: e5c4 32bd 846a 823d c263 083e df5a f13d
00000110: cd96 e03c 120c a6bd 110b e8bd affb 653e
00000120: d4a0 9d3d 0ce8 58be d4a9 6b3e 238c 823c
00000130: 1860 f03c 863f 84bd 9b3f 75bc 46a6 9b3d
00000140: 2b66 09be fa41 d9bd b1f1 0a3e 364d 403e
00000150: a059 c03e bedb 1c3e f731 1c3e 1b11 db3b
00000160: 2092 a83e 45e2 83be 0a32 a83e e2c5 4dbd
00000170: 03a2 ee3a 71ff ed3e 00e1 013e 091c d9bd
00000180: 633c 303c bf41 f2bd 95c0 d3bd c772 e73c
00000190: fea0 1ebe 004f 97be 598e 80bd c4b1 13be
000001a0: e546 ae3c b83b ccbc a543 263e 39ef 083d
000001b0: a727 90bd 2626 f53c 47ff 61be af2d acbd
000001c0: 2848 fc3d 7e31 30bc 0575 87bd d861 183d
000001d0: bcb4 8f3e 611e 1d3f 2b59 c6bd 304b 16be
000001e0: 3ab0 b13d 8ae6 2d3d 2643 87be 799a 8cbd
000001f0: 90c8 733e 5fd7 60be 6626 acba 34d0 843d
00000200: 8bb4 f73d 10f8 62bd 2180 8f3c 45e7 96bd
00000210: f969 023e 2df4 a6bd 48ca 123e ec88 20be
00000220: b024 a7bd b95e 0dbe b054 a3bd 7020 1f3e
00000230: 0d7c 143e 61f2 f6bd 4eca ddbc 243e cebc
00000240: 9122 f03d 1061 943e b833 c6bd bcdc 2dbc
00000250: ae28 07be 552a 8a3d 7a73 30be 2db8 903e
00000260: 501a 81bd c2f8 203c 6c22 ef3d 3829 e5bd
00000270: 76e9 1d3d bf5d 853d 444e 233e 6113 80bd
00000280: 6cd1 4ebe f9bf 47bd d2ff 993d a9d4 213e
00000290: bc75 1ebe 4763 92be 9fab 8dbe a8d8 183c
000002a0: b970 423e f87c 1c3c 4727 ecbd e389 82bd
000002b0: e6e4 eebd 6f4d e73d e94e 183e dcfb 39be
000002c0: 5b18 e3bc 95bb 7dbe b043 013a 7305 1dbd
000002d0: 226a c9bc a3d7 833e 108f f73d f08a 673d
000002e0: 2eba 5a3d 92bc 4dbd 5234 53be 9786 23bd
000002f0: 7601 3bbe 8dcc 563d 641b 7f3e ed4e 153e
00000300: 130c a23d e68e 293e a829 21bd f922 e1bb
00000310: 5004 80bb a4d1 90be bf69 25bd d693 48bd
00000320: 9f56 1a3e c88e 943e 58a5 7cbc 8eee c7bc
00000330: 980c a83c 4134 5e3e 1e21 913d 32af ee3d
00000340: dbe4 293b 7d20 50bd c9cb 8a3e 3086 213d
00000350: a0b6 a13d 41ca 87bc 2964 0bbe 9c5e 2d3f
00000360: 5ae0 babd ce23 2fbe f6a3 843e 261d 4fbc
00000370: 9f66 023e 272c 97bd 3687 4dbe 0787 80bd
00000380: 0053 9c3e c342 aabc 78ec a03e 2ab9 08be
00000390: 4f66 9b3d a798 253d 9d80 e8bc cb5e 833e
000003a0: 5a57 80be f78a 4b3d 9be0 d83d e987 823c
000003b0: dab1 6abd 10c2 7abe fb10 5d3d 05e0 563e
000003c0: 4444 943d 4300 7a3e adca a1bd 626b db3c
000003d0: 450d 8a3e 1ef7 81be 64bb 153e 6db7 34bb
000003e0: 86c4 dd3e c6a5 bc3d 5daa c5bc 0074 d53d
000003f0: e3d4 15be 9810 c93d 4d95 163d d915 413e

advantage_stream.0.bias f4 [64]
-0.09163931 0.029434174 0.053493194 -0.054082084 0.066317484 0.034642357 -0.057090785 -0.11417286
-0.0037686576 -0.07926186 0.031240307 -0.03527885 -0.097705364 0.012035927 -0.0024244983 0.04358063
0.038321 -0.08300481 0.015448389 -0.04400439 -0.040731806 -0.04920053 0.018031575 0.048155528
-0.09143783 0.004210233 -0.0017293806 -0.07432687 -0.073929384 -0.06827519 -0.026193287 -0.060005464
-0.016690468 -0.05445455 0.0024600625 0.09106192 -0.014928206 0.05800974 -0.045364313 0.04680336
0.032924667 0.007191717 -0.043258622 0.034138765 -0.012532849 0.0067612706 0.0410711 0.026232544
-0.052142464 0.025997791 0.033431154 -0.03656399 0.07071163 0.024807116 -0.004578051 -0.002521581
-0.030431978 0.010340734 0.06872387 0.065286204 0.014652579 -0.014570777 -0.060707737 0.07786255
00000000: 64ad bbbd f01f f13c ae1b 5b3d 2d85 5dbd
00000010: 76d1 873d 25e5 0d3d 07d8 69bd 76d3 e9bd
00000020: 95fb 76bb 0b54 a2bd aceb ff3c 8e80 10bd
00000030: c019 c8bd 5632 453c 55e4 1ebb 9a81 323d
00000040: 7bf6 1c3d 6dfe a9bd 3d1b 7d3c f23d 34bd
00000050: 65d6 26bd 7f86 49bd f4b6 933c bb3e 453d
00000060: c243 bbbd fff5 893b 62ac e2ba b038 98bd
00000070: 4a68 97bd ddd3 8bbd 4e93 d6bc 4ac8 75bd
00000080: 73ba 88bc bc0b 5fbd 0039 213b ac7e ba3d
00000090: 6f95 74bc 9f9b 6d3d eecf 39bd e1b4 3f3d
000000a0: 04dc 063d 7fa8 eb3b f42f 31bd 17d5 0b3d
000000b0: 9456 4dbc a68d dd3b 2b3a 283d a2e5 d63c
000000c0: 5693 55bd 52f9 d43c 1bef 083d 1fc4 15bd
000000d0: 42d1 903d 4b38 cb3c 7a03 96bb 1c41 25bb
000000e0: 7c4c f9bc 2f6c 293c 1abf 8c3d c6b4 853d
000000f0: 5f11 703c 45ba 6ebc ada8 78bd 6776 9f3d

advantage_stream.2.weight f4 [4, 64]
0.49765256 -0.28960466 0.053542245 -0.05274853 0.10502966 -0.027722549 -0.120056145 -0.03826095
-0.10793606 0.1121736 -0.44969633 -0.32300302 0.3594671 -0.7135413 0.128394 -0.053193234
-0.06010117 0.33810154 0.08524883 0.12644313 0.20342909 -0.0064651086 0.30526215 0.321112
0.16094172 -0.027706917 -0.42444482 0.19452482 0.40373057 0.5370249 -0.10872873 0.06393818
-0.34264693 -0.13315345 0.27316687 -0.3324934 0.38815922 0.11809183 0.13490951 0.25230005
0.50255233 0.06371335 -0.11319764 -0.061815623 -0.36344278 0.15968418 -0.29790613 0.25713038
-0.30833063 -0.23145124 -0.054521702 0.13902548 0.13094164 -0.10403907 0.17152992 0.08576207
0.008875051 -0.097113594 -0.11312636 -0.08066466 -0.26680252 0.75031817 0.075565144 -0.5599284
0.17879274 -0.68257135 0.42106974 -0.19254228 0.054983392 0.01682325 0.37136248 0.035672028
0.2075582 0.016229207 0.2618353 0.20186952 0.004984708 -0.012485643 0.10179769 -0.036788568
-0.12502164 0.24232352 -0.4376026 -0.34064907 -0.003676571 0.008326473 0.6248756 0.36955228
0.26415172 0.23715481 0.23614322 -0.35785833 -0.10813977 0.3490393 0.22497314 -0.29523787
0.28378096 -0.10941928 0.28410247 -0.51709354 0.26294413 0.5474716 -0.29292828 0.34234655
0.10475826 0.1820181 0.23634338 0.3854257 -0.039787363 -0.10636504 -0.0993399 0.4038756
0.4522525 0.04684061 0.34311792 0.03127031 -0.14967284 0.08502996 0.007705258 0.053458646
0.06781824 0.44172767 0.0696092 -0.1622235 0.14408496 0.23829769 0.24816075 -0.5084499
-0.2856744 -0.16178219 0.022321906 0.04792813 0.21368566 -0.07211785 0.08208339 -0.1744486
0.6600461 0.03699831 -0.08514526 0.4470204 -0.058468826 0.15844761 -0.04168133 -0.28408793
0.15169513 0.19737373 -0.45481345 0.060825795 -0.0918103 -0.31700295 -0.18623392 -0.24795246
0.12745209 0.25225714 0.12004958 0.10664963 -0.2016365 -0.3280888 0.21055526 0.11164473
-0.077809185 -0.10008326 -0.4642471 0.49358112 -0.1503625 -0.4123578 -0.011093055 -0.31031135
0.23020244 -0.39468175 -0.017137656 -0.024748724 0.39117646 -0.03678445 0.61880326 -0.42927644
0.1660205 0.09599654 -0.27073377 -0.1513413 0.096152194 -0.17234607 -0.09944953 -0.4683954
0.21821709 0.41629064 -0.0013248815 0.19204925 0.14864933 0.33405468 -0.20989236 0.6470024
-0.10153085 -0.13560687 0.18082896 -0.24921182 0.12331942 -0.043145806 -0.08845659 -0.14533378
0.12423693 -0.2016154 0.13600904 0.4508112 0.29232666 0.3969533 -0.38739157 0.08783191
-0.17334683 -0.07319521 -0.07648721 0.069628194 0.042417884 0.0067514163 -0.43605173 -0.11064147
-0.15642975 0.31140333 0.19831873 -0.14448866 0.083246656 -0.12775089 -0.34218758 -0.10439763
0.2822958 -0.013995954 -0.38647598 0.59974486 -0.14612554 -0.24110134 0.17615235 -0.053515404
-0.18281068 0.02789452 0.036865257 0.069768384 0.35676682 0.35385987 0.35450342 -0.21871455
0.3798928 -0.04041616 -0.071422644 -0.01833121 -0.30038565 0.19660199 -0.0017940765 0.24279736
0.10071584 -0.017448055 0.3758227 0.17801681 -0.19996671 -0.28634217 -0.13573708 0.5316305
00000000: 51cc fe3e 1047 94be 1d4f 5b3d d80e 58bd
00000010: ca19 d73d 661a e3bc ffdf f5bd 84b7 1cbd
00000020: 950d ddbd 46bb e53d 993e e6be a760 a5be
00000030: 120c b83e a5aa 36bf b779 033e 26e1 59bd
00000040: a52c 76bd a51b ad3e f096 ae3d 4f7a 013e
00000050: b74f 503e 43d9 d3bb 524b 9c3e cb68 a43e
00000060: e8cd 243e 9ef9 e2bc d550 d9be 8431 473e
00000070: c6b5 ce3e 777a 093f 2bad debd 05f2 823d
00000080: 6b6f afbe 6159 08be 87dc 8b3e 933c aabe
00000090: cebc c63e 21da f13d b825 0a3e 792d 813e
000000a0: 45a7 003f 257c 823d 2ad4 e7bd 6132 7dbd
000000b0: 2c15 babe 4084 233e 2787 98be 98a6 833e
000000c0: 83dd 9dbe 8e01 6dbe 2652 5fbd b25c 0e3e
000000d0: 9115 063e 7012 d5bd 8aa5 2f3e 06a4 af3d
000000e0: a968 113c 7ee3 c6bd cbae e7bd 8333 a5bd
000000f0: 579a 88be da14 403f e6c1 9a3d 7857 0fbf
00000100: 7215 373e ffbc 2ebf 7496 d73e ce29 45be
00000110: 4436 613d ead0 893c 3923 be3e d51c 123d
00000120: 238a 543e 1df3 843c 470f 863e e2b6 4e3e
00000130: c356 a33b 9590 4cbc 4f7b d03d 9caf 16bd
00000140: ac05 00be a823 783e 730d e0be 8e69 aebe
00000150: a0f2 70bb c26b 083c d9f7 1f3f f535 bd3e
00000160: e53e 873e b6d8 723e 87cf 713e 3539 b7be
00000170: 6278 ddbd 47b5 b23e 5c5f 663e 6b29 97be
00000180: bd4b 913e 3717 e0bd e175 913e 3e60 04bf
00000190: 9da0 863e 1927 0c3f b2fa 95be 0c48 af3e
000001a0: 808b d63d f462 3a3e 0004 723e 8456 c53e
000001b0: 13f8 22bd ead5 d9bd b872 cbbd c8c8 ce3e
000001c0: a48d e73e f1db 3f3d 27ad af3e 4c15 003d
000001d0: d643 19be 3024 ae3d 647c fc3b 74f7 5a3d
000001e0: 4ae4 8a3d 212a e23e 458f 8e3d eb1d 26be
000001f0: 028b 133e 4f04 743e da1d 7e3e c629 02bf
00000200: ea43 92be 3baa 25be 6edc b63c 4950 443d
00000210: 6ad0 5a3e 86b2 93bd 561b a83d a7a2 32be
00000220: c8f8 283f 8a8b 173d a360 aebd dcdf e43e
00000230: 027d 6fbd 1740 223e 0bba 2abd f973 91be
00000240: f855 1b3e 571c 4a3e 4fdd e8be 7824 793d
00000250: 0a07 bcbd 364e a2be 1bb4 3ebe 40e7 7dbe
00000260: cd82 023e d927 813e 8edc f53d 1f6b da3d
00000270: cc79 4ebe 41fb a7be cc9b 573e fea5 e43d
00000280: 6c5a 9fbd 74f8 ccbd ccb1 edbe aab6 fc3e
00000290: a1f8 19be 9020 d3be a5bf 35bc 21e1 9ebe
000002a0: 30ba 6b3e ba13 cabe 4564 8cbc d6bd cabc
000002b0: 4848 c83e 4bab 16bd e469 1e3f 1fca dbbe
000002c0: 4701 2a3e d599 c43d 9e9d 8abe 37f9 1abe
000002d0: 71eb c43d 7d7b 30be 32ac cbbd 86d1 efbe
000002e0: 4d74 5f3e 0c24 d53e a5a7 adba 8fa8 443e
000002f0: 8837 183e 3709 ab3e 06ee 56be f3a1 253f
00000300: 68ef cfbd 87dc 0abe 3a2b 393e 6231 7fbe
00000310: e48e fc3d a8b9 30bd bb28 b5bd 61d2 14be
00000320: ee6f fe3d 4474 4ebe f445 0b3e bad0 e63e
00000330: d7ab 953e 773d cb3e 3058 c6be 37e1 b33d
00000340: d581 31be 5fe7 95bd 54a5 9cbd 3a99 8e3d
00000350: 60be 2d3d fc3a dd3b 2c42 dfbe ff97 e2bd
00000360: 1f2f 20be 4270 9f3e 1114 4b3e d6f4 13be
00000370: 397d aa3d 21d1 02be 3633 afbe 6dce d5bd
00000380: 1389 903e 494f 65bc 2ee0 c5be e188 193f
00000390: efa1 15be 45e3 76be 4861 343e f832 5bbd
000003a0: b932 3bbe 0c83 e43c 0600 173d bae2 8e3d
000003b0: 24aa b63e 1f2d b53e 7981 b53e b5f6 5fbe
000003c0: 4f81 c23e 6a8b 25bd 0946 92bd 552b 96bc
000003d0: 26cc 99be 0852 493e 3827 ebba df9f 783e
000003e0: 1b44 ce3d 39ef 8ebc d56b c03e 0a4a 363e
000003f0: 13c4 4cbe 719b 92be a9fe 0abe f018 083f

advantage_stream.2.bias f4 [4]
0.10774692 0.044369057 0.121228434 -0.1215362
00000000: 6baa dc3d 54bc 353d 9d46 f83d f9e7 f8bd

feature_layers.0.weight f4 [128, 24]
0.019484375 -0.5770979 -0.14672743 -0.06902802 -0.22790492 0.34183913 -0.20835742 0.022301465
-0.20614512 -0.0135945575 -0.32249084 0.17292836 -0.123321235 0.29184034 0.08690396 0.24523969
-0.3472013 -0.29993236 -0.87554514 0.16900036 0.14516775 -0.15381306 -0.49440917 -0.28965643
-0.47061494 -0.49998233 0.031619906 -0.34001887 -0.3446176 0.52224284 -0.302652 0.032135293
0.10439269 -0.41593525 0.13494739 0.41904518 0.17302296 -0.4332044 0.1443382 -0.18887323
0.06911836 -0.29822728 -0.19569093 -0.1170119 0.24828385 0.3443314 0.16719922 0.5831094
-0.5963275 0.5755568 -0.35538876 0.05625017 0.07749968 0.21794973 -0.07515574 -0.025573347
-0.33789787 -0.22327118 0.469552 0.06835295 -0.040637333 -0.33729848 -0.19991928 0.69648606
-0.14398317 0.5270774 0.08608483 -0.5478575 0.3489077 0.56574196 -0.47870302 -0.10932246
-0.19936024 0.04899972 0.039155472 0.056163836 -0.4908775 -0.1463601 0.062369924 -0.3801295
-0.24527183 0.050823182 0.17089075 -0.540147 -0.31656292 0.14230669 0.09018074 -0.036225464
-0.4314507 -0.83670086 0.15605082 0.022231858 0.14177594 0.24995832 0.046185046 0.21516728
0.03894805 0.03543623 0.05333168 -0.00876853 0.1419789 0.06602855 -0.101914324 0.30785847
-0.047262732 0.33793128 -0.3783137 0.11117608 0.40813324 -0.036677852 -0.020761687 -0.06763432
-0.8283513 -0.073352985 -0.13402526 0.3146724 0.070055 -0.058380887 0.509861 -0.4570209
0.007334163 -0.05811031 -0.3341541 -0.039667763 0.074002035 -0.01605746 -0.22302929 0.07030434
-0.5663548 -0.39903963 -0.27586198 -0.039624956 0.18476829 -0.41038653 0.08139108 0.5620513
-0.027928768 0.25258756 0.67718565 0.119414605 -0.010863727 0.49010864 -0.09849733 0.3965657
0.2874354 -0.034964003 0.2396801 -0.51232046 -0.14825238 -0.115639746 0.30319038 -0.22577025
-0.022778599 -0.025344884 -0.14228202 0.36388785 -0.04053405 -0.25279844 0.40057594 0.43080828
0.14703241 0.20952159 -0.16928416 0.32910523 -0.59573746 0.36426854 0.8109314 -0.20618275
-0.51173735 0.46713415 -0.38827246 -0.13410962 -0.1161251 -0.11267476 0.12611327 0.08719757
-0.09123741 0.42000782 0.3006025 0.60320944 -0.13540025 -0.30456722 0.11296805 -0.14287893
-0.6529101 0.23257585 -0.034155942 0.023222622 -0.10213686 -0.30778718 0.21961336 -0.00017868823
0.22061631 -0.23380801 0.32114115 0.16796654 -0.10874339 0.124206424 0.1541278 -0.5328239
-0.21499033 -0.042975176 0.2902997 0.032995164 0.25622874 0.11795465 0.40595084 0.21313293
-0.17941968 -0.03261811 0.42803752 0.46362177 -0.33495322 -0.15013105 0.51329565 0.13265646
0.011628405 -0.31640548 0.08868819 -0.5166832 -0.36647815 -0.44778162 0.3165598 -0.22705516
0.054771803 -0.12976053 -0.07305703 0.0018241887 -0.6377532 0.21559037 -0.6136288 0.00748609
-0.47860825 0.23867927 -0.2542634 -0.48308527 -0.2578431 -0.14804904 0.25436464 0.49246755
0.19189876 -0.43817845 0.4863337 -0.48759753 -0.015039809 0.095232055 -0.17454548 -0.16645871
-0.30146328 0.15353848 0.014054327 -0.10603245 -0.2579892 0.09281289 -0.19628097 0.4581539
00000000: b29d 9f3c b0bc 13bf b73f 16be 905e 8dbd
00000010: e85f 69be 8a05 af3e a65b 55be 90b1 b63c
00000020: b517 53be b5bb 5ebc 851d a5be 2214 313e
00000030: d88f fcbd 196c 953e b4fa b13d 1d20 7b3e
00000040: 5ec4 b1be bc90 99be ba23 60bf 6e0e 2d3e
00000050: dba6 143e 2c81 1dbe 3323 fdbe d94d 94be
00000060: 71f4 f0be affd ffbe e083 013d f416 aebe
00000070: b871 b0be b5b1 053f 34f5 9abe 4ca0 033d
00000080: d6cb d53d 77f5 d4be a62f 0a3e 178d d63e
00000090: ee2c 313e f8cc ddbe 65cd 133e fc67 41be
000000a0: ed8d 8d3d 3fb1 98be 3463 48be efa3 efbd
000000b0: 1f3e 7e3e 354c b03e 4636 2b3e a846 153f
000000c0: eba8 18bf b157 133f 84f5 b5be 9466 663d
000000d0: 27b8 9e3d 372e 5f3e 41eb 99bd 327f d1bc
000000e0: f300 adbe 33a1 64be 1f69 f03e a2fc 8b3d
000000f0: 5573 26bd 63b2 acbe a4b7 4cbe e94c 323f
00000100: 5370 13be 8bee 063f 3e4d b03d 6440 0cbf
00000110: 08a4 b23e 77d4 103f 9018 f5be 74e4 dfbd
00000120: 1725 4cbe eeb3 483d 7d61 203d 0d0c 663d
00000130: 4c54 fbbe 6cdf 15be 9b77 7f3d 55a0 c2be
00000140: 8a28 7bbe f82b 503d fcfd 2e3e 1347 0abf
00000150: 8914 a2be d8b8 113e aeb0 b83d 2761 14bd
00000160: 1be7 dcbe 0732 56bf c9cb 1f3e 961f b63c
00000170: b62d 113e 13f5 7f3e 882c 3d3d d054 5c3e
00000180: fe87 1f3d 9525 113d 5272 5a3d e1a9 0fbc
00000190: eb62 113e fa39 873d 75b8 d0bd a09f 9d3e
000001a0: 9196 41bd 5405 ad3e 55b2 c1be 49b0 e33d
000001b0: d7f6 d03e 843b 16bd 6a14 aabc dd83 8abd
000001c0: d50e 54bf 173a 96bd eb3d 09be be1c a13e
000001d0: ff78 8f3d cc20 6fbd 4086 023f a5fe e9be
000001e0: 6b53 f03b 1405 6ebd 3f16 abbe aa7a 22bd
000001f0: 618e 973d ef8a 83bc ca61 64be b9fb 8f3d
00000200: a1fc 10bf ec4e ccbe c83d 8dbe c74d 22bd
00000210: e633 3d3e 2f1e d2be 5eb0 a63d 98e2 0f3f
00000220: dfca e4bc 2853 813e 0a5c 2d3f a58f f43d
00000230: c6fd 31bc 85ef fa3e f8b8 c9bd a90a cb3e
00000240: bc2a 933e 6a36 0fbd b36e 753e 6f27 03bf
00000250: 79cf 17be 88d4 ecbd c53b 9b3e 5130 67be
00000260: 2f9a babc 13a0 cfbc 61b2 11be 824f ba3e
00000270: 0807 26bd cc6e 81be 4a18 cd3e e792 dc3e
00000280: aa8f 163e d48c 563e d458 2dbe 7b80 a83e
00000290: 4082 18bf 6881 ba3e 3399 4f3f 9221 53be
000002a0: 3801 03bf 352c ef3e a6cb c6be 0854 09be
000002b0: ffd2 edbd 06c2 e6bd d623 013e a494 b23d
000002c0: aeda babd 440b d73e 92e8 993e ef6b 1a3f
000002d0: 5da6 0abe 3cf0 9bbe cb5b e73d db4e 12be
000002e0: 1e25 27bf 5d28 6e3e 1ae7 0bbd 5e3d be3c
000002f0: 212d d1bd 4896 9dbe 53e2 603e 425e 3bb9
00000300: 3ee9 613e 5e6b 6fbe 9d6c a43e 6cff 2b3e
00000310: dbb4 debd f05f fe3d aed3 1d3e 2667 08bf
00000320: 6d26 5cbe bd06 30bd 2aa2 943e f025 073d
00000330: 6a30 833e 3592 f13d cad8 cf3e 853f 5a3e
00000340: cbb9 37be 919a 05bd bc27 db3e d55f ed3e
00000350: fd7e abbe f4bb 19be 5867 033f 18d7 073e
00000360: 1185 3e3c e6ff a1be 27a2 b53d 5a45 04bf
00000370: 06a3 bbbe a243 e5be 2014 a23e 2681 68be
00000380: 6658 603d f2df 04be ed9e 95bd 9e19 ef3a
00000390: cb43 23bf b9c3 5c3e c716 1dbf e04d f53b
000003a0: 240c f5be 5768 743e d02e 82be f456 f7be
000003b0: 0304 84be 2b9a 17be 153c 823e b524 fc3e
000003c0: 1c81 443e ed58 e0be bb00 f93e 62a6 f9be
000003d0: 8869 76bc 0609 c33d 0dbc 32be 2774 2abe
000003e0: 6559 9abe 3139 1d3e 1f44 663c 8b27 d9bd
000003f0: 2917 84be af14 be3d e1fd 48be 2693 ea3e
