models/snake_dqn_ep354_score18_20250303_093911.pt (torch, 785122 bytes, 44 tensors)

feature_layers.0.weight f4 [128, 24]
000000 7e 6a 7f be a2 95 8b 3e 2e a2 b6 be d3 9a 41 3e
       -0.24942967 0.27262598 -0.35670608 0.18906717
000010 2b fa 03 3f 45 f1 27 bf f8 b7 01 be a8 65 c1 be
       0.515536 -0.65602523 -0.12667835 -0.3777287
000020 da bb 4f bd 04 fa df bd fc 14 fd bc 74 03 7f be
       -0.05071626 -0.109363586 -0.030893795 -0.24903661
000030 8b 03 57 3e 99 db 39 3c c2 cb a9 be b7 12 0c 3f
       0.20997445 0.01134386 -0.33163267 0.54716057
000040 d6 7c f1 be da 52 45 3f b5 47 04 3f b9 e6 b2 be
       -0.47165555 0.77079546 0.51671916 -0.34941652
000050 70 c8 13 3f 54 68 a0 bd fe 5e c6 3e 2d 81 42 3e
       0.5772772 -0.07832399 0.38744348 0.18994589
000060 b0 5a 0e bd 8d 8e 5d 3d e0 6e d5 bd 2d 78 a0 be
       -0.034754455 0.054091025 -0.10421538 -0.31341687
000070 24 8f a3 be f4 2c dd be e7 88 9a 3e eb 76 e0 bd
       -0.31945145 -0.4319836 0.30182573 -0.10960182
000080 8b 49 80 be ab 7e 88 3d cc b3 0b bc 63 01 21 3f
       -0.2505611 0.06664785 -0.008526754 0.6289274
000090 fc 80 59 bd 6f a9 3c 3e 5b fe 2a 3c 31 d2 ae bc
       -0.053101525 0.18424009 0.01043662 -0.021340461
0000a0 95 f6 7d 3e 23 b3 3b 3f 23 a3 88 3d 8d 86 c5 3b
       0.24801095 0.73320216 0.06671741 0.0060280026
0000b0 43 d1 05 3d fe 89 70 3d bd 18 0f 3f 11 bb 0a bd
       0.03267027 0.05872535 0.5589712 -0.033869807
0000c0 72 18 84 be 96 51 c1 be 65 9b fd 3d f8 51 46 be
       -0.257999 -0.37757558 0.12383155 -0.19367206
0000d0 f4 5e cd bd b7 3f 98 be a9 4c 39 3e 9d 72 9a 3e
       -0.100278765 -0.2973611 0.1809565 0.30165568
0000e0 da e0 6f be 9f 9b ca be 48 d2 33 be c2 b2 01 bf
       -0.23425618 -0.39571854 -0.17560685 -0.5066339
0000f0 ba 63 11 3e 05 eb 84 be b4 99 c9 3e d9 dd df 3d
       0.14198199 -0.25960556 0.3937508 0.10930986
000100 2f 5b ec be 1c c3 cc bd 74 b4 bc be 65 bd 9c be
       -0.46163318 -0.09998152 -0.36856425 -0.30613247
000110 e8 a2 d4 bd 00 70 20 3d aa b0 e4 3e a5 40 95 3d
       -0.103826344 0.03916931 0.44666034 0.072877206
000120 90 91 05 3e 64 b5 a6 3e b5 ee 59 3f 01 ba 03 3f
       0.13043809 0.32560265 0.85129863 0.51455694
000130 3f 33 1e 3e 88 3f a6 3e 22 6e a4 3d 14 fb 85 3e
       0.15449236 0.32470345 0.08028819 0.2616812
000140 19 cf 97 3e bb 0d 8f 3e 7d e0 24 3e 20 47 56 3f
       0.2965019 0.27940163 0.1610126 0.8370228
000150 a6 d1 11 3e 3e 3c 82 3d 67 76 28 bf 23 2b a4 3e
       0.14240131 0.063591465 -0.6580567 0.3206416
000160 62 ab 21 bc 71 63 be 3d e2 e7 f0 3d 0c 4f d5 be
       -0.009867521 0.09296311 0.11762978 -0.4166187
000170 9a 08 e0 3e b1 52 39 be 95 13 0e 3f 16 78 52 be
       0.43756562 -0.1809795 0.5549863 -0.20553622
000180 3a ae 01 3d 90 6f 57 3f 2f 6f 2c be ce 0e 97 be
       0.031660296 0.84154606 -0.16839288 -0.29503483
000190 5e ed 88 3e f9 10 2a 3e 95 f5 d5 be 26 d2 6d bd
       0.26743597 0.16608037 -0.41788927 -0.05806174
0001a0 df 3f 04 be 88 8b e1 3e ca d3 91 3e 23 74 42 3e
       -0.1291499 0.44051766 0.28481895 0.18989615
0001b0 ca 8e 11 bf 7c 2c f5 be f9 fe c7 be 8d cd 10 be
       -0.56858504 -0.478855 -0.39061716 -0.14140911
0001c0 81 de 1e bf bf e9 b4 3e 11 49 0e 3f ba b0 93 3e
       -0.62058264 0.35334584 0.5558024 0.2884577
0001d0 d3 6a de 3e 48 2b 46 3e e0 58 90 bd 31 70 f5 bd
       0.43440875 0.19352448 -0.070482016 -0.119842894
0001e0 48 13 bc 3d 07 d8 b1 3d 98 ec 40 be 89 87 30 3e
       0.09183365 0.08683782 -0.18840253 0.17239203
0001f0 c3 98 28 be 71 77 9e 3e 3c b9 99 bd d5 5d 19 bd
       -0.16464524 0.30950502 -0.07506034 -0.037443
000200 c7 17 9e 3e 98 8b 0a 3e 78 ce 26 be 24 b1 97 bd
       0.30877516 0.13529813 -0.16289699 -0.07406834
000210 20 69 18 bf 03 00 de bc 79 33 cb be 91 56 48 3f
       -0.5953541 -0.027099615 -0.39687708 0.7825709
000220 c9 0f b7 be bb 97 87 3e de bb 16 be 35 c9 1a 3c
       -0.3575423 0.2648295 -0.14720103 0.009447386
000230 43 40 ee 3e d8 6a 0a be bd e2 8f 3e 45 a4 14 be
       0.46533403 -0.1351732 0.28102675 -0.14515789
000240 55 86 57 be 3a 1d b1 3d f0 e1 97 be a4 38 84 be
       -0.21047337 0.08648153 -0.29664564 -0.25824463
000250 8f 09 2f 3e 34 1d dd 3e bf 5e f0 be 74 d3 13 3d
       0.1709349 0.43186343 -0.46947286 0.03609033
000260 82 b6 a1 3e cb 82 14 3e 3a 74 20 3c 7a c2 69 3d
       0.31584555 0.14503019 0.009793336 0.057070233
000270 f9 04 3a 3e 18 cb 3d bd b7 68 ba be ed b4 88 bd
       0.1816596 -0.046336263 -0.36408016 -0.06675134
000280 6d 2b 69 be 77 ee 17 be bb 28 de be 04 c1 9f 3e
       -0.22770472 -0.14837061 -0.4339045 0.31201947
000290 d4 32 7a 3d 16 68 fb 3e 92 bd 09 bf 1b a3 b2 3e
       0.06108363 0.4910285 -0.53804886 0.34890065
0002a0 47 36 81 bc c2 fb d3 3b 8e 0f 04 bd fa 65 79 bd
       -0.015772952 0.006469221 -0.032241397 -0.060888268
0002b0 46 d5 95 be b2 41 58 be 8e 49 b0 3e 92 b5 81 3e
       -0.29264277 -0.21118811 0.34431118 0.2533384
0002c0 29 b8 fb 3e db d2 b4 bd ee ab c7 3c e5 46 87 3e
       0.4916394 -0.0882928 0.024373975 0.26421276
0002d0 bd 08 8c be 55 fa 98 be f8 f1 e0 be 01 fe 4f 3e
       -0.27350417 -0.29878488 -0.43934608 0.20311739
0002e0 83 e9 d0 3e 2f 8f 72 3e 4c a2 d9 bb b9 78 cd bd
       0.40803155 0.23687433 -0.0066416617 -0.10032792
0002f0 23 97 67 3e a4 03 ad bc d2 5f 9e 3e 9f c6 0e 3f
       0.22616248 -0.0211199 0.3093248 0.5577182
000300 c3 8b a8 bc 0c 6b 1a be af b6 4a be 29 a8 a0 3e
       -0.020574456 -0.15079898 -0.19796251 0.31378296
000310 8a 74 a5 bd 32 1d 63 3d d4 1f 0e be c2 15 2c bd
       -0.08078869 0.055447765 -0.13879329 -0.042012937
000320 6a 0e fe bd 92 3b 50 3e 28 9d 55 3e cb 87 f5 3e
       -0.12405093 0.20335224 0.20860732 0.47955164
000330 34 a6 af be d3 1b 29 3e cf e1 41 be 1c 9a 0f 3b
       -0.3430649 0.1651452 -0.18933795 0.0021911925
000340 1d a5 12 3e 22 a5 94 3e 71 c6 21 be fd a3 b7 be
       0.14320798 0.29032236 -0.15798356 -0.358673
000350 1a 97 00 bf 57 df e9 3e c6 21 f9 bd 7c db 5c 3e
       -0.5023056 0.45678207 -0.12164645 0.21568102
000360 02 22 b3 3e d2 b7 94 be 15 18 33 bd 04 61 9b 3e
       0.34986883 -0.29046494 -0.04372414 0.30347455
000370 ca 60 3a 3e bb 49 5b be 79 df 52 3e e8 7a 33 be
       0.18200985 -0.21414845 0.2059306 -0.17527354
000380 b1 80 d8 be 29 e1 93 be 8e 82 ea 3e f8 b8 57 be
       -0.42285684 -0.2888272 0.4580273 -0.21066654
000390 61 05 1e bd 50 b6 97 3d cd 5b 7e be e0 9d 99 be
       -0.03857935 0.0740782 -0.24839707 -0.30003262
0003a0 56 fe bb bd f0 b0 e6 be fe 7a 98 3c 37 e2 79 bd
       -0.0917937 -0.45056868 0.018613335 -0.06100675
0003b0 0c 5e 28 be ab db e2 3e 6c 41 c6 be 61 09 c4 3b
       -0.16442126 0.44308218 -0.38721788 0.0059825634
0003c0 ad 88 72 3e f8 7d 51 3e 79 f2 5b 3e 33 03 6f be
       0.2368495 0.2045821 0.21479215 -0.23341064
0003d0 6c 25 32 be 90 a0 5f 3d 1e 05 ab bd a6 58 56 be
       -0.17397088 0.054596484 -0.083505854 -0.20932254
0003e0 99 4d 04 3e 81 94 ac 3e 40 b0 01 be 88 77 07 3f
       0.12920226 0.3370705 -0.1266489 0.52916765
0003f0 08 d1 2e bf 14 c1 e5 bd 68 13 a4 be 66 0d 8c be
       -0.68287706 -0.11218467 -0.32046056 -0.27353972

feature_layers.0.bias f4 [128]
000000 57 55 2c be 92 5f 2c be 22 22 31 bc 4d b7 66 3e
       -0.1682943 -0.16833332 -0.010811361 0.22530861
000010 91 37 40 3e a7 63 f5 bc d8 11 55 3e 87 2a 80 3e
       0.18771197 -0.029954745 0.20807588 0.25032446
000020 e4 19 99 3e b7 04 76 3e 06 89 52 3e 4d 89 65 bd
       0.29902565 0.24025236 0.20560083 -0.056039143
000030 e5 47 a5 3e a6 28 6f bc d1 bc ba bc 4e bb 96 3d
       0.32281414 -0.014597094 -0.022795113 0.07359944
000040 e5 60 34 3d 79 1b bf 3d cc 75 92 bd 0a 38 1a be
       0.04403772 0.09331412 -0.07151374 -0.1506044
000050 6c 08 e1 3d 5b 11 ab bd fc 8f 92 3e 35 28 39 be
       0.109879345 -0.0835292 0.28625476 -0.18081744
000060 1b 80 2b be ec c3 fe 3c 44 3a e3 bd bf 6f f9 3d
       -0.16748087 0.031099282 -0.11095098 0.12179517
000070 09 b3 1d 3e 6e 42 b9 3e e4 65 b3 bd e3 44 8d be
       0.15400328 0.36183494 -0.087596685 -0.2759162
000080 b0 d4 9d bc b5 bc 93 bd af 1f 4a 3c 1c 13 3c 3e
       -0.019266456 -0.072137274 0.0123366555 0.18366665
000090 35 51 1f bd da 7c 97 bd 77 05 59 be c2 15 8a 3e
       -0.038895804 -0.073968604 -0.21193491 0.26969725
0000a0 68 2a 0c 3d 4a 6a db bd d5 19 81 be f8 34 b3 3e
       0.03422013 -0.107136324 -0.2521502 0.3500135
0000b0 65 9f 64 be 19 30 46 3c b0 5b 6d be 66 64 14 bd
       -0.22326429 0.012096428 -0.23179507 -0.03622856
0000c0 12 bc 38 be 2a ab 3b be 37 ea bf 3d 7c 2d d5 bd
       -0.18040493 -0.18327013 0.09370845 -0.10409066
0000d0 a3 6f 5a 3c a4 f6 e7 3c d7 eb 1b 3d e6 0b 76 bd
       0.01333228 0.02831585 0.03806671 -0.06006994
0000e0 50 ac 4c be 06 5d 34 be fe d0 87 bd b0 d2 8b 3e
       -0.19987607 -0.1761361 -0.06631659 0.2730918
0000f0 18 8e 93 bd 3f 65 4b bc c2 52 23 be 80 5e 54 3e
       -0.072048366 -0.012414276 -0.15949538 0.20739174
000100 1d c0 96 bd 70 3e 50 bd 47 ab 3b bd a1 94 83 3e
       -0.073608615 -0.050840795 -0.04581764 0.25699332
000110 c0 9e c7 3d 63 ec 69 3e e6 ed 09 bd 13 61 bb 3d
       0.09747076 0.2284408 -0.033674143 0.09149375
000120 fa 29 8c 3e 7b 2b 87 3e e3 e8 2d 3e 0d 77 6c 3e
       0.27375776 0.2640036 0.1698337 0.2309229
000130 ba 0f 02 be 2a 09 5d 3e 9f ad 97 be 6b 5e 50 be
       -0.12701312 0.21585527 -0.2962465 -0.20348518
000140 93 6b 5b be 8a f3 28 3c d5 cd 3d 3c a7 2f 3e be
       -0.21427755 0.0103119705 0.011584719 -0.18572865
000150 59 6f 25 3c c2 28 87 3e 59 dc 5c bc 7e 93 16 3e
       0.010097348 0.26398283 -0.013480269 0.14704701
000160 42 10 07 3d 7f 28 8c be f3 e8 c2 bd 86 ec 88 3e
       0.03297449 -0.27374646 -0.09517088 0.26742953
000170 e5 96 49 3d 02 a6 84 3d 3a e3 cf 3d 68 c8 56 3d
       0.04921617 0.06476976 0.10150762 0.052437216
000180 f5 e4 03 3e 54 88 20 be b3 3b 18 bc c5 f2 f7 3b
       0.12880309 -0.15677005 -0.009291577 0.007566782
000190 b5 4e fd bd dc 42 8c 3e 02 49 00 3e d6 6b 5b bc
       -0.12368528 0.2739476 0.1252785 -0.013392409
0001a0 0a 66 62 bd 29 ee 4d be dc 35 94 3e 73 1b 7b 3d
       -0.055273093 -0.20110382 0.2894734 0.061305474
0001b0 c8 da f1 bc 7d a8 ab be e1 3e 8c bd 7c 92 1b be
       -0.029523268 -0.33526984 -0.06847931 -0.15192598
0001c0 21 4f 9c bd 49 a0 da bc 97 9f 94 3d 00 e0 38 3e
       -0.0763228 -0.026687758 0.07257002 0.18054199
0001d0 59 0d 93 be aa 79 7d be cb ca 92 3e 0e 89 03 3e
       -0.2872112 -0.24753442 0.28670344 0.12845251
0001e0 9b a5 6c be 3e ad a9 3d f0 34 53 be 71 8d f1 3d
       -0.23110048 0.082849964 -0.20625663 0.11794556
0001f0 b9 84 27 3d 6e f0 1c be 9a 84 4e 3b c0 16 a0 bd
       0.04089806 -0.15326092 0.0031512142 -0.07816839

feature_layers.1.weight f4 [128, 128]
000000 e8 87 82 bd 41 46 b5 3d aa 5e a4 3d d2 76 17 be
       -0.06373578 0.088512905 0.08025868 -0.1479142
000010 c8 a4 f7 3c 31 64 4e be 87 2c 1c 3e a6 8f e7 3d
       0.030229941 -0.20155407 0.15251361 0.11306696
000020 d7 24 d6 3c 0f 46 cc 3d 85 e2 65 3e 97 38 ac 3e
       0.026140613 0.099743 0.22449692 0.33636925
000030 d9 33 51 3e 19 be 01 3d 33 4d 27 3d 4b 4f 3a be
       0.20429935 0.031675432 0.040845107 -0.1819431
000040 30 06 98 3e ca 63 e2 3d 73 2a d7 3d bb 9c 64 bd
       0.2969222 0.110541895 0.105061434 -0.055813532
000050 ae 1c 02 3d 4a e7 ad be cd 32 83 3d 1a 81 ab be
       0.031765632 -0.33965522 0.06406174 -0.33496934
000060 02 0b e4 bb f0 ad 00 be 1a 7b 99 bd 82 72 34 3e
       -0.00695932 -0.12566352 -0.07494183 0.17621806
000070 d8 c0 06 3e 00 6e 87 3b cd 99 0d bd 1c c5 3e be
       0.13159502 0.004132986 -0.034570504 -0.18629879
000080 08 60 98 3d 94 c2 15 bd 4e 1c 0e be f8 3d 2e 3e
       0.074401915 -0.036562517 -0.13877985 0.17015827
000090 8d 35 0c be d8 86 bc bd 41 95 8c bd df 8e 3b 3e
       -0.13692303 -0.09205407 -0.068644054 0.1831622
0000a0 58 29 57 be 85 45 b7 3d 55 5d 93 be 2c 15 c9 3c
       -0.21011865 0.08948807 -0.28782144 0.024546228
0000b0 fe a0 98 bd 62 bf 10 be 41 2d 1d 3e bc e6 5c 3e
       -0.07452582 -0.14135507 0.15349294 0.21572393
0000c0 c5 0b 13 3c 04 25 b7 be de 7b 4d be 64 40 fc 3b
       0.008974974 -0.35770428 -0.20066783 0.0076981056
0000d0 e7 9c 0a bc aa 8d a2 bc bb 77 33 3e 62 dd e2 bc
       -0.00846026 -0.019842941 0.17526142 -0.027693454
0000e0 ad bd 00 3d 50 39 ce bd c6 7d 96 be 54 2a 24 3e
       0.03143089 -0.10069525 -0.29392833 0.16031772
0000f0 c0 4e 5e bd 17 15 93 3d 69 b8 18 bd 0a f7 26 3d
       -0.05427432 0.07181757 -0.037285242 0.04076294
000100 3c 49 0f be cc ae b1 bc 48 78 04 bc c9 0a f2 3d
       -0.1399278 -0.021689795 -0.008085318 0.11818463
000110 b3 8d 02 3e b8 e3 4e 3d 20 d3 bb ba ab 4c f7 3d
       0.12749366 0.05051014 -0.0014329888 0.1207517
000120 5b 7b 5a 3e ad 1a c0 3c 1e c4 51 bc 30 2b 90 3e
       0.21336119 0.02345022 -0.012803106 0.2815795
000130 6a a3 d9 bc 47 d7 18 3e 8f 00 c1 3e c6 c0 af 3d
       -0.02656718 0.14925872 0.3769574 0.085816905
000140 ef 88 50 be 2d 62 bd bc b1 87 ba bc 30 c7 a1 3d
       -0.20364736 -0.023118103 -0.02276978 0.0789932
000150 71 77 34 be 0d 35 3d bd e9 24 a5 3d 93 09 14 be
       -0.17623688 -0.04619317 0.08063681 -0.14456777
000160 cb 23 5e 3d 19 d2 b8 be 20 df 5f 3e 18 99 93 3d
       0.054233354 -0.36097792 0.21862459 0.07206935
000170 e3 25 0b be bc 23 ec bc c2 7d 07 3d 49 97 86 3a
       -0.13588671 -0.028825633 0.033078916 0.0010268475
000180 3d d6 48 bd 70 7d a2 3d 79 3e 85 be 9c ce 0d 3e
       -0.04903244 0.079340816 -0.26024225 0.13848346
000190 ec 4b 88 bd cd 7a 41 3e 68 2a 48 be e3 f7 17 be
       -0.06655106 0.18894501 -0.19547427 -0.14840655
0001a0 e3 21 71 bb 37 63 d8 3b 9f 29 71 3e 03 98 d7 bc
       -0.003679388 0.006603624 0.23551033 -0.026317602
0001b0 db c3 6b bd d8 ba 24 be 26 b8 92 3e c5 16 e2 bd
       -0.05755983 -0.160869 0.2865612 -0.11039499
0001c0 fb c8 e8 3d c2 63 23 be 1d 81 11 3e 27 cc fa 3d
       0.11366459 -0.15956023 0.14209409 0.1224597
0001d0 54 e5 93 be 0a 57 0d 3e bb 1f 99 3c b8 cd 3f 3e
       -0.288859 0.13802734 0.018691888 0.18730819
0001e0 73 06 d9 3d 04 3b 40 be ae 0d 8c b8 25 53 17 bd
       0.10596933 -0.18772513 -6.678268e-05 -0.036944527
0001f0 e2 5c da 3d 24 73 d7 bd 44 1d bd bb 07 e5 3f be
       0.10662247 -0.10520008 -0.005771311 -0.18739711
000200 30 77 d6 bd 6f d1 16 3e ad 8b bf 3d ed 78 9a bd
       -0.10471952 0.1472833 0.09352813 -0.07542596
000210 8b 6f 18 3e a1 b6 8d bd 1b 42 02 bd 8f 4c 95 ba
       0.148863 -0.06919599 -0.031801324 -0.0011390614
000220 e5 59 98 bd 64 ec be 3c c3 3b 35 3e 8c 78 06 be
       -0.07439021 0.02330608 0.17698579 -0.13131922
000230 50 74 7c 3e a5 fc 18 be ca 75 ce bd f3 5b c8 bd
       0.24653745 -0.14940126 -0.1008106 -0.09783163
000240 40 bf a0 3d df a0 91 3d ad 36 0f bd 22 3b d8 bd
       0.07848978 0.07110762 -0.034964252 -0.10558154
000250 96 aa 01 be 6d 65 88 3d 50 4e 08 be 02 e0 c0 3b
       -0.1266273 0.066599704 -0.13311124 0.005886079
000260 84 7c 91 bd ed 75 6b 3e 30 c1 70 be 0c ec 5e be
       -0.071038276 0.22994204 -0.23511195 -0.21769732
000270 52 c1 ec 3c 7b 9f b5 3d 8d f7 dd bc 26 15 8a 3d
       0.028900776 0.08868309 -0.02709558 0.06742315
000280 aa c0 41 3d af 21 ab 3d a1 fc 54 be 46 e6 bf bb
       0.04730288 0.08356034 -0.20799495 -0.005856308
000290 ab 75 09 3e 4f 12 19 3e 12 f5 bb 3d c8 ea da 3d
       0.13423793 0.1494839 0.09177603 0.10689312
0002a0 12 fb 5b bd 03 da aa bd 1e ba 56 be cc 92 31 3d
       -0.053706236 -0.08342364 -0.20969436 0.043352887
0002b0 c1 50 e0 bd dd e9 5a be bd 24 12 bd 55 5a 41 bc
       -0.109529026 -0.21378274 -0.035679568 -0.011801322
0002c0 6d a6 ba 3d 6c 39 1b be 39 69 ee 3c 79 7d 70 bc
       0.091137744 -0.15158623 0.029102908 -0.0146783525
0002d0 70 bb 80 be 30 60 46 3e e1 42 74 3e ae 7c a6 bd
       -0.25143003 0.1937263 0.23853637 -0.081292495
0002e0 ea f1 5b 3d 26 a8 17 be 27 57 73 be a4 c9 58 3e
       0.053697504 -0.14810237 -0.23763715 0.2117067
0002f0 b2 22 8a 3d 7e bc a3 bd ba d4 0e be 34 06 3d 3e
       0.06744899 -0.079949364 -0.13948336 0.18459398
000300 60 89 6f 3e d1 73 e0 bd 45 ac 05 be 07 69 9d bd
       0.23392248 -0.1095959 -0.13053997 -0.07686048
000310 ce 76 33 3d 8c 16 e0 bc 94 07 4f be ec 72 68 3d
       0.043814473 -0.027354501 -0.20217735 0.056750223
000320 7e 04 bb 3d 46 d6 1b 3e 91 9f 82 bd 2b dc 5a 3e
       0.09131716 0.15218458 -0.06378091 0.2137305
000330 65 28 51 bd fa 8f 3f 3a e9 b3 cd bd bb 8b 0c 3c
       -0.051063914 0.0007307526 -0.10044081 0.008578236
000340 0d b3 21 3e 4b c9 97 bc 1a e9 99 bd 22 49 09 3f
       0.15790959 -0.018528601 -0.07515164 0.53627217
000350 8d 52 7c be 7c 9f 7b bd fe 67 53 be eb 1c d0 3d
       -0.24640866 -0.061431393 -0.20645139 0.10161766
000360 09 b9 09 be 95 31 17 be d9 ab f2 bd a1 62 a3 3d
       -0.13449492 -0.14765008 -0.118491836 0.07977796
000370 2f e3 41 be 5a 3b ab 3d 6c dd fe bd 6e 14 53 bb
       -0.1893432 0.0836093 -0.124445766 -0.0032208222
000380 f8 8b 36 bc d0 e2 48 bd b0 f6 1f bd 39 5a e0 bc
       -0.01114177 -0.04904443 -0.03905362 -0.027386772
000390 45 0b 1f be ef 5c 37 3e 3d 79 64 be ad 34 2d 3e
       -0.15531643 0.17906545 -0.22311874 0.16914625
0003a0 5e 6d 8f be 50 56 c0 bd e1 43 3e 3e fd 16 7e bc
       -0.28013128 -0.09391463 0.18580581 -0.0155084105
0003b0 1d 68 a4 3b e1 12 5b bd 4b 76 93 bc 45 e8 7b bc
       0.005017294 -0.0534848 -0.018000742 -0.015375202
0003c0 a7 ec 72 3e de 36 43 bc 45 23 5e be 82 01 01 be
       0.23723088 -0.011914937 -0.21693142 -0.12598231
0003d0 d7 65 72 bd 62 3d 4e bd 30 f3 7b bc e5 de 05 3e
       -0.059179153 -0.050351508 -0.015377805 0.13073309
0003e0 e7 03 02 be 8c 9d 1a 3e 3f 71 18 3e 2c 39 4d 3e
       -0.12696801 0.15099162 0.1488695 0.2004134
0003f0 21 8d cd bc 3d 8c e5 bb ac 81 ea bd 16 48 c8 bd
       -0.02509171 -0.007005243 -0.11450514 -0.09779374

feature_layers.1.bias f4 [128]
000000 8a 30 b0 3c 5b d0 b7 3c c1 40 02 3d da bc e1 bc
       0.02150752 0.022438219 0.031800035 -0.027555872
000010 85 c3 13 be 40 e9 89 bd d9 a9 43 3c 69 bb c7 bd
       -0.14430054 -0.06733942 0.01194235 -0.097525425
000020 37 88 14 3e 33 14 3b be 86 a4 b7 3c a8 50 1a 3e
       0.14505087 -0.18269424 0.022417318 0.1506983
000030 e6 fa f0 3c bb 24 7e 3d 9b 4e 39 3e 3a 40 51 bd
       0.029416513 0.062046748 0.18096392 -0.05108664
000040 0c c8 a0 3d dc e6 d7 bd cd e1 3c 3e 6a ef be 3d
       0.07850656 -0.1054208 0.18445511 0.09323008
000050 13 a6 bf 3c 71 24 f0 3a 25 5d d2 3d 0d 92 ca bd
       0.02339462 0.0018321407 0.10271672 -0.09891138
000060 91 00 81 3d b9 65 66 bd ad 0c 51 3c 6a 21 c8 3c
       0.06298936 -0.056249354 0.01275937 0.024429996
000070 cb cc a9 bd f1 09 2d 3c cf a2 70 bd 95 b4 9c 3d
       -0.08291014 0.010561452 -0.058749016 0.07651631
000080 01 d4 56 3d c2 67 75 3c 47 bb 2f 3d 99 2d e7 3b
       0.052448276 0.014978351 0.04290321 0.007054996
000090 1b 95 a1 3d cf a1 25 3e 2f b5 0d 3e 47 aa ad bd
       0.07889768 0.16175006 0.13838647 -0.084797435
0000a0 6a 1e 93 3d 9c 7b c0 3d 7e 18 9b bd 7b 8f e8 3d
       0.071835354 0.093985766 -0.07573031 0.11355492
0000b0 7f 63 0b 3e dc f3 86 bd dd b8 4b 3d 01 6d 1f 3e
       0.13612173 -0.06589481 0.049736846 0.15568925
0000c0 8c 2d 16 3e ab 43 98 3d 69 52 02 bd b9 2d ab bc
       0.14665812 0.07434782 -0.031816874 -0.020895826
0000d0 cb 87 a4 3d c7 63 d3 bd 99 2a e7 bc bb e2 4a bd
       0.08033713 -0.103217654 -0.028218554 -0.049532633
0000e0 35 7a 17 3d 24 95 8c 3c 9d 38 1d 3d e9 e3 c0 bd
       0.03698178 0.01716096 0.03838407 -0.094184704
0000f0 e7 5b cd 3d a5 de ff 3c d1 6b d6 bd 01 6a 4b 3d
       0.100272946 0.031234095 -0.10469783 0.04966164
000100 69 6c 4e 3e 85 3e 8a 3d 86 bf 26 3e a6 40 b4 bd
       0.20158543 0.06750206 0.16283998 -0.08801393
000110 17 da bb 3d aa 40 e4 3d aa 57 c4 3d 86 15 3d 3c
       0.09172457 0.11145146 0.09587033 0.011540776
000120 bf b6 87 bd f1 88 2b 3e c4 81 8f bd 05 cd b9 bc
       -0.06626653 0.16751458 -0.07007173 -0.022680769
000130 53 94 cb 3d 3c 30 12 bc 9c 12 04 bd 30 a5 01 be
       0.099404 -0.008922633 -0.03224431 -0.1266067
000140 27 bb 68 3c e9 b1 b2 3d f3 cf e4 bd 24 5d 0d bc
       0.014204777 0.0872534 -0.11172476 -0.0086281635
000150 16 35 9c 3d bd 50 2f be 75 29 c6 bd ae 34 f8 bd
       0.07627313 -0.17120643 -0.09675876 -0.12119423
000160 3b db 00 be eb 73 0b 3e 1c 08 60 3d 99 b8 8e 3c
       -0.1258363 0.13618438 0.054695234 0.017422007
000170 a2 3e c7 3d 92 87 a9 3d e9 24 06 3d 86 92 1b bd
       0.09728743 0.08277811 0.032750044 -0.037981533
000180 93 5a 47 be 0a 53 14 3e ee 67 81 bd cd a4 f9 bd
       -0.19468145 0.14484802 -0.06318651 -0.121896364
000190 51 6c 0d bd 68 85 cd bd d0 30 89 bd 91 31 43 3d
       -0.034527127 -0.10035211 -0.06698763 0.047654692
0001a0 a5 28 22 be b1 59 65 bd 58 dd d3 bd 4c dc fe bc
       -0.15835817 -0.05599374 -0.10344952 -0.031110905
0001b0 86 aa 5f bd 46 33 5d 3c 6c 72 33 bd ea a4 01 be
       -0.054605983 0.013500994 -0.043810293 -0.12660566
0001c0 b2 f7 44 3e 80 a7 7a 3d 93 54 8f 3d 7b ce 6a 3d
       0.19235113 0.061194897 0.06998553 0.05732582
0001d0 ca 90 76 3d 7c 48 1a 3e a8 04 24 be d1 c7 8b 3b
       0.060196675 0.15066713 -0.16017401 0.0042657633
0001e0 63 78 89 bd 72 e2 08 3e 49 07 03 be c6 1e 10 bd
       -0.06712415 0.13367632 -0.12795748 -0.035185598
0001f0 95 86 0a 3e dd cb b8 bb 69 ef a1 3c 73 e2 a0 3c
       0.13527901 -0.005639537 0.01976748 0.01963923

value_stream.0.weight f4 [64, 128]
000000 e6 b6 93 3d 35 f0 22 bd 03 c2 98 3d 4b e9 56 3e
       0.072126195 -0.03977986 0.0745888 0.20987432
000010 46 59 b2 3c 76 fb 77 bc 0c b9 f0 3c 7b a8 ef bd
       0.021771085 -0.015135637 0.029385112 -0.11702057
000020 32 3c 0f bc 35 88 3e 3e 0f a0 15 bd 92 63 85 3d
       -0.008742379 0.18606646 -0.036529597 0.06513132
000030 29 f9 53 bc f4 6b 15 3e 30 f1 2a bd 4b 02 00 bd
       -0.012937822 0.14591962 -0.04173392 -0.031252187
000040 6e 73 86 bd de 9e 04 be 52 86 56 be 0c 74 d7 bd
       -0.06564985 -0.12951228 -0.20949677 -0.10520181
000050 2d 60 b4 3d 67 c9 24 3d 05 3e df 3c 26 b4 59 3c
       0.088074066 0.040231135 0.027251253 0.01328758
000060 30 44 1a 3d e5 04 ca 3e 5d 4c 58 bc fd 0d 50 bc
       0.037662685 0.3945686 -0.0132018 -0.012698648
000070 c8 2a b6 3c c6 e1 a8 bc c6 3d 66 bd f8 a4 65 be
       0.022237197 -0.02061547 -0.056211255 -0.22426212
000080 20 a7 03 3d c2 d6 ef 3d 46 15 fd bd ed f0 07 3d
       0.032141805 0.11710884 -0.12357573 0.03318875
000090 72 01 53 be da 24 47 bd 79 84 0a be f3 25 20 3d
       -0.2060602 -0.04861913 -0.13527097 0.03909869
0000a0 aa 41 51 3e 85 53 b4 3d ca 66 f8 bd 6d 4a 92 3d
       0.20435205 0.088049926 -0.121289805 0.07143102
0000b0 29 1f 47 bb 42 b6 22 3e 13 78 77 bd 92 2c 79 bd
       -0.0030383563 0.15889838 -0.060417246 -0.06083352
0000c0 84 95 1d be 7b 4b ff bc b5 4b 55 3e 40 86 44 3e
       -0.15389067 -0.031163922 0.20829661 0.19191837
0000d0 e7 89 71 bd 32 6d 31 3e f9 95 ac 3e af 8e 11 bd
       -0.058969405 0.17326811 0.3370817 -0.035536464
0000e0 e4 34 9f 3c 61 c5 3d 3d 20 8e 79 3e 19 40 43 bc
       0.0194344 0.046330813 0.24370623 -0.011917138
0000f0 38 57 35 be 84 1b c6 3d 2a 89 e9 3d fe 53 62 be
       -0.17709053 0.09673217 0.11403115 -0.22102353
000100 3c b7 0f be a7 4a 00 bd ab 19 ca bd 1c 85 88 bd
       -0.14034742 -0.031321194 -0.09868177 -0.066660136
000110 e4 90 5b bc d3 c9 dc bd 65 52 59 bd 9f 2d 24 be
       -0.013401244 -0.107806824 -0.053057093 -0.16033028
000120 7d 3a de 3c 21 01 08 be 2e df 2a be de 44 ea bd
       0.027127499 -0.1328168 -0.16686699 -0.114389166
000130 48 46 3d 3d c8 10 71 3e 5d f3 2c be 57 22 59 3e
       0.046209604 0.23541558 -0.1688971 0.21204506
000140 59 74 46 bd 50 a8 9b be 02 52 03 be e2 49 5b 3e
       -0.0484508 -0.3040185 -0.12824252 0.21414903
000150 7d c8 72 3d 87 aa fb 3d 88 a8 8d 3d b1 c4 09 be
       0.05927323 0.12288385 0.069169104 -0.13453938
000160 05 2a 35 3e 3e 01 1f be c6 6c 74 3c e4 5f 72 3d
       0.1769181 -0.15527818 0.014918512 0.05917348
000170 80 71 5b be 7e dd ab bd a7 ec a4 be 52 7f 1d 3d
       -0.21430016 -0.08391856 -0.322118 0.0384515
000180 08 5c ad bd 8f 6d 58 3d 5b df 8e 3e db 72 b7 3e
       -0.08464819 0.05283886 0.27904782 0.35829815
000190 7f dc c6 3d 81 db 95 3e 1f 38 3c 3d b8 f4 03 3c
       0.09710025 0.2926903 0.04595196 0.008053951
0001a0 61 72 cd 3e 80 a9 8d 3e be a0 a5 3d 53 aa 23 3e
       0.40126327 0.2766838 0.080873 0.15982942
0001b0 ba b7 d0 bd 28 11 63 3e 05 40 35 bd 28 7d fb bc
       -0.10191293 0.22174513 -0.044250507 -0.030699328
0001c0 b8 d6 32 3e 76 80 c8 bd 9f 4b 8e be d4 ac 36 3e
       0.17464721 -0.09790127 -0.2779207 0.17839366
0001d0 b2 d9 9f 3d f4 6d 2e 3e 8e 7c 33 3e 4b c2 a0 3e
       0.07805194 0.17034131 0.17527983 0.31398234
0001e0 17 f5 65 3e a1 8c f8 3d 7f 72 67 3d 87 6e c6 bd
       0.22456776 0.12136198 0.056505676 -0.0968905
0001f0 0a cc 8d bc 98 90 2e bd b1 81 89 be e3 21 c7 bd
       -0.017309207 -0.042618364 -0.2685676 -0.0972326
000200 b2 ad ab bd b8 f1 7d be 74 e2 2b 3e db 37 0c bc
       -0.08382739 -0.2479924 0.16785604 -0.008558239
000210 34 b0 4c be 7d 34 15 3e 49 dd 20 be 8a f9 45 3e
       -0.19989091 0.14570804 -0.15709414 0.19333473
000220 b7 ad 43 3d aa e5 9f 3d 55 56 af 3d 58 ff 24 3c
       0.04777309 0.07807477 0.085613884 0.010070644
000230 2a 20 20 be 36 ba 98 be e2 22 35 be c3 cc bf bd
       -0.1563727 -0.29829568 -0.17689088 -0.09365227
000240 e0 2d 2b be a7 ab 21 bd e5 71 8d bc 08 3c a4 bd
       -0.16716719 -0.03947034 -0.017266223 -0.080192626
000250 cf 73 4a 3d 3f e1 9b 38 34 73 48 be b3 83 e5 3c
       0.04942685 7.432931e-05 -0.19575197 0.0280169
000260 c3 4c 56 be eb 6f af 3b 57 9c 83 be d1 c0 4f be
       -0.2092772 0.005353918 -0.25705215 -0.20288397
000270 c8 7e b6 3e 3e b3 5d 3d cd bd 70 3e 10 1e 06 be
       0.356436 0.054126017 0.23509903 -0.13097405
000280 1b a9 07 be 02 73 f2 3d 39 61 38 bb d8 c1 2f 3e
       -0.13248102 0.11838342 -0.002813412 0.1716379
000290 84 13 58 be b2 12 fa bd d3 51 27 be a5 b5 27 3e
       -0.21101195 -0.12210597 -0.16339807 0.16377886
0002a0 79 b6 0c bd 39 90 04 be e1 38 5f 3e 53 ce 1d be
       -0.034353707 -0.12945642 0.21799041 -0.15410738
0002b0 c9 01 85 be f3 3a c8 3d c0 55 0e bd f9 4d 3c be
       -0.25977924 0.09776869 -0.034749746 -0.18389119
0002c0 81 04 a7 bd 8e ee 49 bd 2a 17 85 3c b0 37 ea 3d
       -0.08155156 -0.04929977 0.016246397 0.11436403
0002d0 f1 00 85 bd 6f 8c d7 3c dd 85 be bc 74 3b 8f 3e
       -0.0649432 0.026312081 -0.02325719 0.27975047
0002e0 35 57 92 3d bd 5e bc bd cc 8a 5b be e6 a8 3f 3d
       0.0714554 -0.091977574 -0.21439666 0.046791933
0002f0 40 30 4e 3e 92 2e 81 3d 14 cb cd 3d 7c aa fb bd
       0.20135593 0.06307711 0.100485 -0.12288377
000300 23 cd 07 bd d9 1a ab bd 91 cf f2 3d d1 9c 48 bd
       -0.033154618 -0.0835473 0.118559964 -0.048977677
000310 04 09 e7 3a 6f 6e 35 be 04 5f a9 3c 66 f8 90 3e
       0.0017626588 -0.17717908 0.02067519 0.28314513
000320 bc fc 3e 3e 6e 55 8e bc b2 67 c2 3c f5 f5 02 3e
       0.18651098 -0.01737472 0.023731086 0.12789138
000330 f9 99 c0 bd 29 36 67 bd 2b c8 f9 3d b8 d7 12 3d
       -0.09404368 -0.056448136 0.12196382 0.035850257
000340 78 2f 87 bd be ad db be a6 a5 6d 3e a9 2f 32 be
       -0.06600851 -0.42905992 0.23207721 -0.17400993
000350 30 bb c4 be bc 96 63 be 26 ed 4b be 17 63 63 3e
       -0.38424063 -0.2222547 -0.19914684 0.22205769
000360 6d 52 d3 3d 07 91 ab be a7 9c a6 bc e2 ce 97 3d
       0.10318456 -0.33509085 -0.02033837 0.07412507
000370 eb d9 8e be 00 29 31 bd 01 71 2d bd 1a 17 9e be
       -0.27900633 -0.04325199 -0.042344097 -0.30877
000380 7a 63 a4 3e 57 cd a0 bd 7d 5d 7b 3e 90 c0 be 3d
       0.32107145 -0.078516655 0.24547382 0.09314072
000390 bb ec c2 bd e8 35 4b 3d aa 07 2f bd be 1f e3 3d
       -0.09517809 0.049611956 -0.04273192 0.11090039
0003a0 da 9d 62 3c be 8e 66 3e 8b 30 62 3b b1 c2 44 3e
       0.01383158 0.2251539 0.0034513797 0.19214894
0003b0 2a d1 a3 3c 34 ed f9 bc af 71 98 bb 05 1b f9 3c
       0.019997198 -0.030508615 -0.004652224 0.030408392
0003c0 25 53 ec 3c a5 99 0c 3d 93 86 7f 3d 29 af bc bd
       0.02884824 0.034326214 0.0623842 -0.09213097
0003d0 a2 bc 8c be 69 f7 e4 bd 9d 61 e1 3c 97 ec 8e 3d
       -0.27487665 -0.11180002 0.027512366 0.0697872
0003e0 f2 90 0c be 75 18 88 bd c8 69 35 bd b5 d2 1c 3e
       -0.13727167 -0.0664529 -0.044290334 0.15314753
0003f0 b6 ca bf 3b d7 2c b1 3d 9e ff 96 be 86 fd 2f 3c
       0.0058530224 0.08651131 -0.29491895 0.010741597

value_stream.0.bias f4 [64]
000000 93 4f 16 be ca 9e d9 bd 62 90 b4 bc 0b 1c aa bd
       -0.14678793 -0.1062599 -0.022041503 -0.0830613
000010 d5 32 1e 3e 54 ce 76 bd a8 f1 0f be 0b 58 cc 3b
       0.15449078 -0.060255364 -0.14057028 0.0062360815
000020 92 e2 a3 3d 5e 41 d2 bd 7c 3a 5b 3d de b9 fd 3d
       0.08002199 -0.10266374 0.053522572 0.12388967
000030 fa b1 0c 3e 8b 78 a6 bd 63 3d 32 3e 73 2e c8 3d
       0.13739768 -0.081284605 0.1740623 0.097744845
000040 bf cd 16 3d 8a 12 30 be 55 55 08 be fd f7 3b 3e
       0.03681731 -0.17194572 -0.13313802 0.18356319
000050 28 dd 12 3e 2b b9 d0 bd e9 c7 c5 3d 91 34 14 3e
       0.14342177 -0.10191568 0.096572705 0.14473177
000060 8a 3f ab bd 46 6b 2c be 64 2f 5c 3d fd 21 db 3d
       -0.083617285 -0.16837797 0.053756133 0.10699842
000070 ed ec 8e bc 56 21 92 bd 1e fb 81 bd a9 27 9e bc
       -0.01744696 -0.071352646 -0.06346725 -0.01930602
000080 f3 67 4d 3e ce 8b c5 bc 56 1f 68 3e e8 6a 4a be
       0.20059185 -0.024114516 0.22668204 -0.19767344
000090 13 64 a4 bc f3 ce 14 bd e4 f4 14 be e4 6f 9a bd
       -0.02006725 -0.036330175 -0.14546543 -0.07540873
0000a0 b7 34 3a be b0 fa d0 bb fa 23 03 3e 67 62 e6 3d
       -0.18184172 -0.0063775405 0.12806693 0.112492375
0000b0 c8 47 e8 3d 5d 5e 2e 3c 4e 47 dd 3d 26 62 3d 3e
       0.11341816 0.010642615 0.10804616 0.18494472
0000c0 35 24 06 3b 73 cd bb 3b 70 3a 85 bd 7a b1 af 3d
       0.0020468358 0.0057312786 -0.06505287 0.08578773
0000d0 3f 18 9c 3d b3 1b c9 bd 32 27 8e 3c e9 fe 1d be
       0.07621812 -0.09819736 0.017352674 -0.15429272
0000e0 9f a4 3b be ed f6 2c 3d 46 ea 9b 3d 9e 99 bf 3d
       -0.18324517 0.042227674 0.076130435 0.09355472
0000f0 bb 0f 35 3e a2 f9 fa 3d 03 45 b7 bd d7 12 f7 3c
       0.17681782 0.12254645 -0.0894871 0.03016035

value_stream.2.weight f4 [1, 64]
000000 22 db 0c be be 13 ba be 8d 5b 35 ba 04 40 3e be
       -0.13755468 -0.36343187 -0.0006918244 -0.18579108
000010 aa ca f5 3d 55 da 34 be 9f 76 81 bd 83 90 7f be
       0.12001546 -0.17661412 -0.06321453 -0.2495747
000020 a3 e3 a1 3d e8 21 4d bd c7 ed 1a 3c 8d 34 21 3e
       0.079047464 -0.050081164 0.009456105 0.15742703
000030 6d 05 bd 3e 8d 46 26 bd d4 e3 11 3f 60 79 b9 3e
       0.36918202 -0.040594626 0.56988263 0.36225414
000040 1b af 4d 3e e1 23 e0 bd 4e 2f c3 bd ff 9d 0a 3f
       0.20086329 -0.10944343 -0.09530507 0.5414733
000050 41 4b 08 3e 3a 36 71 be c5 fa 53 3e b8 e8 35 3e
       0.13309957 -0.23555842 0.2070113 0.17764556
000060 31 a9 8c be 48 29 ae bd 3b 3a 12 3e 02 95 bc 3e
       -0.27472833 -0.085039675 0.14280026 0.36832434
000070 85 46 14 be 31 c8 34 be 57 84 d2 bd 37 4b f1 bd
       -0.14480026 -0.17654492 -0.10279148 -0.11781924
000080 58 02 3e 3e f3 ad 6a be 1c 0d db 3d 7f 33 1c be
       0.18555582 -0.22917919 0.1069586 -0.15254019
000090 52 b6 83 be 29 90 23 bd ac 82 b5 be 8e 0a 77 be
       -0.25725037 -0.039932404 -0.35451257 -0.2412512
0000a0 9e 33 c6 be be 1e 0b be 2f 29 db 3e d3 c7 aa 3e
       -0.38711256 -0.13585946 0.42804858 0.3335558
0000b0 d5 54 db 3e fe 18 1e be f2 99 1b 3e 03 9b 6e 3e
       0.4283816 -0.15439221 0.15195444 0.2330132
0000c0 08 ba 9a bd 22 4a d4 bd 85 da 90 be 4e 4e 7a 3e
       -0.07555014 -0.10365702 -0.28291717 0.24443933
0000d0 4c 32 2d 3e 75 a5 62 be 67 94 29 be 0f 41 34 bc
       0.16913718 -0.2213343 -0.16560517 -0.011001839
0000e0 dd 3f 30 be 8c 96 c8 3d 0d e8 eb 3d 07 17 58 3e
       -0.17211862 0.097943395 0.115188695 0.21102534
0000f0 ff cb d2 3e 94 ec ca 3e 0b 6c 34 be 97 95 03 be
       0.41171262 0.3963362 -0.1761934 -0.12850033

advantage_stream.0.weight f4 [64, 128]
000000 b7 b0 40 3d b6 19 b1 bc 0d e7 a1 3b 88 ae b6 be
       0.04704353 -0.021618705 0.0049408735 -0.35680032
000010 e4 12 99 be b2 71 62 bd fa 81 3c 3e 98 66 22 be
       -0.29897225 -0.05528421 0.18408957 -0.15859449
000020 a7 b8 37 3d fe 2a ca bd df 5d 32 3e 84 8f a5 3d
       0.044853833 -0.09871481 0.17418621 0.08084014
000030 9d 38 b3 be f3 90 0d be 59 c6 4c 3e 92 c5 8d bb
       -0.3500413 -0.13824825 0.19997539 -0.0043265307
000040 7c c2 dd 3b 43 3a 45 bd 96 a7 0d 3e 04 0c f6 3d
       0.006767569 -0.048151266 0.1383346 0.120140105
000050 5b f9 17 be fa 08 09 3e 55 5d bf 3d ef 93 a2 3e
       -0.14841215 0.1338233 0.093439735 0.3175349
000060 7c dc b3 3c b5 3b 6a 3d b7 e1 1c 3d 81 75 07 3e
       0.021955721 0.057185847 0.038301196 0.13228418
000070 5b 0b eb 3c a2 c4 49 be c1 14 23 3f 54 db 25 bd
       0.028691938 -0.19703916 0.6370354 -0.04049237
000080 ab bd 61 be 84 0f cd be 25 58 a8 be f6 98 c2 bd
       -0.22045009 -0.400509 -0.3287975 -0.09501831
000090 c2 81 1e be 38 1b 58 be c0 ee 10 3e 8b ac 13 be
       -0.15479186 -0.21104133 0.14153576 -0.14421289
0000a0 a3 ba 87 3c 8d 73 0a be 18 a1 85 bd a1 f4 de 3d
       0.016568488 -0.13520642 -0.06524867 0.10886503
0000b0 94 94 35 3e 73 5a 29 bd 1a b6 39 be f5 d2 b4 bc
       0.1773246 -0.041346025 -0.18135872 -0.022073248
0000c0 15 87 0b 3e 09 e1 92 be 4a d9 17 3d dc 5c 60 3e
       0.13625748 -0.28687313 0.037072457 0.21910423
0000d0 71 fa b5 bd fe ec ba 3d 23 74 ba bd 44 98 20 3d
       -0.088856585 0.09127234 -0.091041826 0.03920771
0000e0 5f 3d a8 bd 69 b0 14 3e 2a 06 dd 3d eb 52 37 be
       -0.082148306 0.1452042 0.10792191 -0.17902724
0000f0 66 13 ee ba 10 6c b1 bd 40 f8 06 3e d2 d8 d8 bd
       -0.001816374 -0.086631894 0.13180637 -0.1058823
000100 cb af cf bd fd 76 6c 3d c9 bd 28 bd 5a 40 c1 3d
       -0.10140952 0.057730664 -0.04119662 0.09436102
000110 a9 f9 d4 3d 72 69 4c 3e ce 5e 1a 3d a9 c8 04 be
       0.103991814 0.19962099 0.03768807 -0.12967171
000120 f9 0e 52 be 6e a3 40 3b 71 1c 03 3d 4f ef 6f 3e
       -0.20513524 0.0029394287 0.032009546 0.23431133
000130 c2 17 f5 bd e7 41 73 3e d0 b6 4a be 7d 06 31 bd
       -0.11967422 0.23755608 -0.197963 -0.04321908
000140 d3 c1 8d 3c 84 e1 2b be 88 6b 7c 3d 34 dc 14 be
       0.017304337 -0.16785246 0.061625987 -0.14537126
000150 ba 5b 3f bc 2b 37 3d be 8f 78 38 bd 76 b2 96 bd
       -0.011679584 -0.18478076 -0.04503685 -0.073582575
000160 1a 75 a6 3d 9c 5e 61 be 20 b3 b5 bc 65 c6 22 bf
       0.08127804 -0.22008747 -0.02218014 -0.63583976
000170 47 16 18 3d 8c aa 0c be 1a ae c3 be c8 b6 a9 3d
       0.03713062 -0.13736933 -0.38218766 0.08286816
000180 64 8e a4 3d 5e 2e e3 bd b6 d0 76 3d ba 0f f3 3d
       0.08034971 -0.11092828 0.060257636 0.11868234
000190 35 24 4f 3e 3f e9 0b be e8 37 16 3e 15 74 f5 bc
       0.20228656 -0.13663195 0.14669764 -0.029962579
0001a0 80 07 d7 3d ef 2b aa bd 39 f0 c5 bd ed 37 5a be
       0.104994774 -0.08309161 -0.096649595 -0.21310396
0001b0 4f 6f 10 3d ed 03 2a 3e 85 33 c6 be 82 d9 ae 3e
       0.035262402 0.1660306 -0.3871118 0.3415032
0001c0 bc 41 82 3c 36 24 3f be 53 20 92 3e 5a 46 1f be
       0.015900485 -0.18666157 0.28540286 -0.1555418
0001d0 49 ed 02 3e 9c e3 97 bd 1b e4 39 3e 72 94 8c bc
       0.1278583 -0.0741646 0.18153422 -0.017160628
0001e0 2a a6 74 3e 27 fa 15 3e 3b 14 81 3e 97 a3 43 be
       0.23891512 0.14646207 0.25210747 -0.19105373
0001f0 73 87 42 3a 4b c4 c9 bd 4e ef 5f be 28 de b3 3d
       0.0007420696 -0.09851893 -0.21868631 0.08782607
000200 ce ab 2a be bd 44 11 be ec 49 a8 bd b5 e9 7a be
       -0.16667101 -0.14186378 -0.082172245 -0.24503215
000210 74 81 11 3e e9 91 c3 3c 43 80 f8 bb cb 31 58 bd
       0.14209539 0.023873286 -0.0075836494 -0.05278186
000220 01 fb 8d bd e3 61 01 3c 6b 8a 83 3e f7 97 fb 3b
       -0.06932641 0.007896873 0.25691542 0.0076780277
000230 82 8a 02 bd 2b 3f ce bd ad 08 4a be 25 ab 7b 3e
       -0.031870373 -0.10070642 -0.19729872 0.24577005
000240 e5 1a 31 bd 65 9e ce 3e 4c 7d 43 bd c0 28 0f 3d
       -0.04323854 0.4035522 -0.047726914 0.03495097
000250 2c 1e 7b bd 03 42 e9 bd 8f 68 4e 3d 6b 75 9b 3e
       -0.06130807 -0.11389544 0.050392684 0.3036302
000260 bd 53 39 bc bf e2 39 be a4 fd 50 3c 29 5c bb 3e
       -0.011311469 -0.18152903 0.012755785 0.3659375
000270 32 0d cd bd fb fc 9a 3c 10 81 14 3e 89 ee 1d 3e
       -0.100122824 0.018919459 0.14502358 0.15423025
000280 7c 66 f0 bd d9 1f 63 3d 8e e1 78 be 6f 20 5b bd
       -0.11738297 0.055450294 -0.24304792 -0.053497728
000290 00 8e 9f bd e1 df 1d 3e d4 9c 4e 3e c4 73 8e bd
       -0.07790756 0.15417434 0.20177013 -0.06955674
0002a0 55 f9 48 bc 5f 89 e5 bc e7 31 c6 bd e6 47 86 3d
       -0.012266477 -0.028019605 -0.09677487 0.06556682
0002b0 be 76 52 bd df 20 2c 3e d6 dd d3 bd 8a 58 c1 3d
       -0.051382773 0.16809414 -0.10345046 0.094407156
0002c0 81 08 24 be 37 2c 19 be 44 54 0b 3f 0e 66 45 bd
       -0.16018869 -0.14958273 0.54425454 -0.04819303
0002d0 c1 d6 92 bc 3c 89 d9 3e 74 0e 3d 3e 73 ad 18 3e
       -0.017924668 0.42487514 0.18462545 0.14909916
0002e0 7d a4 ac 3e c7 8a e2 bd 1c e4 07 3e b2 d3 a9 bd
       0.33719245 -0.11061626 0.1327061 -0.08292331
0002f0 fd ea 1d ba bf 3e b3 3c 26 f3 f9 3d 7b 2a 43 be
       -0.00060240907 0.021880506 0.1220458 -0.19059174
000300 06 bc 81 bd e7 3b 6f bd 99 c9 9e bc 2b d2 81 bc
       -0.06334691 -0.058406737 -0.019383239 -0.015847286
000310 ab 20 25 be 56 8a f3 3d 42 bf b4 bd 59 36 3f bb
       -0.16125743 0.1189162 -0.08825542 -0.002917668
000320 ad bf 11 3c da 53 12 3d 12 3a 10 3f c4 e0 16 3e
       0.008895797 0.0357245 0.5633861 0.14734179
000330 ea 4f f8 3b 45 41 ba 3e 00 02 ae 3a f1 57 19 be
       0.007577886 0.36377922 0.0013275743 -0.14974953
000340 d1 88 de 3b 09 38 1a 3e 3b 10 80 3e 8a 21 95 be
       0.006791212 0.15060438 0.25012383 -0.2912715
000350 5d 46 5e be 68 cd 88 bc 57 de d9 bc 30 ea 10 bf
       -0.21706529 -0.016699508 -0.026595278 -0.5660734
000360 9b 0e d0 3c b5 e0 51 be c0 9a 99 3d f8 e0 91 be
       0.02539759 -0.20495875 0.07500219 -0.2849195
000370 c9 e6 d0 3c d6 4d f3 bd a2 44 28 be d7 66 77 3c
       0.025500672 -0.118800804 -0.16432431 0.0151002025
000380 35 46 e0 3d 7f da 02 3d 80 70 93 3e a1 df 5d be
       0.10950891 0.031946655 0.28796768 -0.21667339
000390 29 20 1f 3e af 0a 17 be 2f 11 ae 3d 91 c3 92 be
       0.15539612 -0.14750169 0.08499371 -0.2866483
0003a0 b2 15 e1 3b b3 dd 8a be c8 0d d3 bd ed 25 64 3e
       0.0068690414 -0.27122268 -0.10305363 0.22280093
0003b0 52 48 9c 3d 85 5d 83 bd 8b 5e bb bd cb b4 66 3f
       0.076309815 -0.06414322 -0.09148892 0.9011962
0003c0 02 29 4b 39 93 81 18 be 39 4f 44 bd 5a 82 80 bc
       0.00019374865 -0.14893179 -0.047927115 -0.015687156
0003d0 84 cc 86 3a e1 6d 9a 3c b4 6b eb 3d b1 06 5f 3e
       0.0010284339 0.018851222 0.11495152 0.21779896
0003e0 11 5f 08 be fc 87 f6 3d 1e 55 99 bd 3c ac 23 3d
       -0.13317515 0.12037656 -0.07486938 0.039959177
0003f0 b7 1c e2 bc e0 47 a2 bd 68 64 42 be 7b 5f 23 3e
       -0.027601583 -0.07923865 -0.18983614 0.15954392

advantage_stream.0.bias f4 [64]
000000 fe df ef 3c 84 01 ab 3b 43 c5 1c bd a3 f2 bd bc
       0.029281612 0.0052186865 -0.03827406 -0.023186987
000010 4f 51 33 bd cd 77 c0 bd 33 b5 29 bd 9b 8d 2a bd
       -0.043778714 -0.0939785 -0.04143257 -0.04163895
000020 7d 79 4a bd 73 c4 55 3d 6b 18 68 bd f6 bb b5 3d
       -0.049432267 0.0521893 -0.05666391 0.08873741
000030 52 1b 07 bd bb 58 74 bd 0d 47 ca 3d 8c 97 b7 bc
       -0.03298504 -0.059654932 0.09876833 -0.02241113
000040 da 43 d8 3d 75 4b f7 bc 39 b6 6f bd 26 28 08 bd
       0.10559817 -0.030187348 -0.05852339 -0.033241414
000050 6d 23 04 bd 45 47 a9 3d 4c 30 bc 3a 71 b4 cb bc
       -0.032260347 0.08265547 0.0014357655 -0.024866315
000060 c6 71 5b 3d 86 bd a5 3c c3 68 a3 bd eb ca 60 bd
       0.0535753 0.020231973 -0.07978966 -0.054881018
000070 08 a8 15 3a 0f 4f bf bd 82 62 e3 3b 48 83 e9 3b
       0.00057089375 -0.09341251 0.0069392333 0.0071262456
000080 33 3e e6 3c 10 f9 7e bd 3c 82 2f bd db 4d 7f 3d
       0.02810583 -0.062249243 -0.04284881 0.062330108
000090 3d 32 38 3d 4f b9 d7 bc ef 64 c7 3b b9 ac ea 3a
       0.044969786 -0.02633348 0.0060850303 0.0017904259
0000a0 76 44 56 bb be 41 85 bd 58 e3 7a bb 5b a8 ea bc
       -0.0032694614 -0.0650668 -0.003828248 -0.028644731
0000b0 97 09 0b be 0a 54 cb bd 8d 75 44 3d 6c 9b 8e bd
       -0.13577877 -0.099281386 0.047963668 -0.06963238
0000c0 7c 8b 03 3e ff 40 ae 3d 06 46 83 bc 91 1e 0e 3b
       0.12846178 0.08508491 -0.0160246 0.00216857
0000d0 29 09 14 be 32 4b 13 3d 63 94 7d 3d 11 67 65 bd
       -0.1445662 0.035960384 0.06190909 -0.056006495
0000e0 03 f1 2b 3d 4d 6b f7 bd 62 61 db 3d b3 de a4 bd
       0.041977894 -0.12081013 0.10711934 -0.08050289
0000f0 28 e6 01 bd 81 a8 aa bd f7 9d e9 bc 86 93 21 3d
       -0.031713635 -0.08332921 -0.028517706 0.03944733

advantage_stream.2.weight f4 [4, 64]
000000 cb 4b 47 3e 07 c0 04 3e 06 86 2f 3f 00 97 c8 bd
       0.19462506 0.12963878 0.6856388 -0.09794426
000010 7e b9 56 3e 17 17 36 3e fa f6 cb bd a3 c2 89 bf
       0.20969197 0.17782246 -0.099592164 -1.0762523
000020 9e 4d 90 3e e1 0a 75 3e 53 a8 a7 be 48 56 6f bf
       0.28184217 0.23929931 -0.3274561 -0.9349103
000030 cc cc ab 3d 9f b9 41 be 37 06 c1 3e 84 9c b8 3b
       0.08388671 -0.18918465 0.37700054 0.0056338925
000040 08 5b b0 3e 9f f6 b3 bd 1a c6 ca 3c df 14 88 be
       0.3444445 -0.087872736 0.024752665 -0.26578423
000050 85 2a c8 3d 52 68 fc bd fc de 0e be b1 e0 10 3e
       0.09773735 -0.12324585 -0.1395225 0.14148213
000060 db ec b0 bd 10 e4 16 bf 59 fc ca 3e ad a0 ed bb
       -0.086389266 -0.58941746 0.3964565 -0.00725182
000070 02 c1 a4 3e 6d 59 97 3e 04 4f ac be bf d4 b5 3e
       0.32178503 0.29560414 -0.33654034 0.35513875
000080 89 a0 d5 3e 5c 01 49 3e 79 41 a1 bd 83 a8 8d bc
       0.4172404 0.19629425 -0.07873816 -0.017292267
000090 44 36 1f 3e dd 19 57 3e 49 69 d0 be 7a af bb 3d
       0.15548044 0.2100596 -0.40705326 0.09164329
0000a0 35 6d 75 3d 98 68 01 3e c0 b3 58 bf e6 fd d5 3e
       0.0599186 0.12637556 -0.84649277 0.41795272
0000b0 79 2c af 3e ec e9 02 3f 99 02 28 3f 38 a0 d9 bc
       0.34213617 0.51138186 0.65628964 -0.026565656
0000c0 1a d1 9e bd be 98 08 3d a7 8b 51 bf 81 1e 6a 3e
       -0.07754727 0.03334879 -0.8185372 0.22863199
0000d0 cd 95 b9 3e 49 a2 34 be 37 25 0c 3f 67 0a 6b bd
       0.362471 -0.17640032 0.54744285 -0.057382967
0000e0 5e d2 d9 3e d3 5d 72 be 30 fe 1e be 08 6a 04 be
       0.4254331 -0.23668604 -0.15526652 -0.12931073
0000f0 2c c9 d4 3d 2e 9d d4 bd d0 46 a0 3e 1a 62 53 3e
       0.10389933 -0.10381542 0.31304026 0.20642892
000100 a3 21 1a 3e e3 45 04 3d 1e 14 01 3e 6b 89 8b be
       0.15051894 0.03229321 0.1260533 -0.2725328
000110 8e 11 29 bf fa 4f 95 bd 45 59 62 3d cd b2 3c 3e
       -0.6604241 -0.07290645 0.055260915 0.18427582
000120 79 a8 3f bd 24 a1 7f 3e 27 c2 4c bf cc 79 41 3e
       -0.046791527 0.24963814 -0.7998375 0.18894118
000130 4d d4 4e be fe f6 24 be c1 31 8d 3e 7a 5d 7f bd
       -0.20198174 -0.16109845 0.27577022 -0.062345006
000140 a1 4f bc bc 67 95 82 be 7d 3d aa 3d dc c9 25 3e
       -0.022987189 -0.2550461 0.08312509 0.16190284
000150 07 bd ba be 3c d0 bf 3e 24 6b 33 bf b1 40 2c bf
       -0.3647234 0.37463558 -0.7008536 -0.6728621
000160 44 61 d3 be 7f 88 31 3d 70 b4 49 3e 3a 13 99 be
       -0.41285145 0.043343063 0.19697738 -0.2989748
000170 8c 8d 33 3b fe 88 24 be e0 9f 12 bf c1 89 b2 3e
       0.00273976 -0.16067883 -0.572752 0.34870723
000180 2b 37 d0 3e e1 5e 83 3e 77 9a 02 bd f6 09 d8 bc
       0.4066709 0.25658324 -0.03188559 -0.026371937
000190 1c 1c 23 bd b0 2e 78 3e 6f c3 8e 3e f9 15 2f 3e
       -0.03982173 0.2423656 0.2788348 0.17098226
0001a0 2a 3d 57 bf 19 6f 75 bd b8 bc 1b 3d e4 7e 18 3e
       -0.84077704 -0.059920404 0.038021773 0.14892155
0001b0 94 0c 89 be 18 85 8d 3d 67 ef b7 3e cc cc 0b be
       -0.2676741 0.06910151 0.35924837 -0.13652343
0001c0 fa cc 05 3f 5c c9 ba 3e 77 ba 2d bb 87 1d 52 be
       0.52265894 0.3648175 -0.0026508847 -0.20519076
0001d0 37 c6 8c be 8e 03 69 3c f2 ec c2 bd a7 e2 17 3e
       -0.27494976 0.014222039 -0.0951785 0.14832555
0001e0 30 68 48 3e 41 2f 16 be 3d f0 42 3f fa 58 b5 3b
       0.19570994 -0.14666463 0.76147825 0.0055342885
0001f0 27 0e 89 3e 02 c6 b9 bc 4d 2f 41 3e 45 d3 a3 3e
       0.2676861 -0.022677425 0.188657 0.31997123
000200 58 60 d2 3c 98 c7 e3 be db 67 2d bf 84 29 dc bd
       0.025680706 -0.44488215 -0.67736596 -0.10750106
000210 3e d3 dc bd 3d 3c 0d be 3e 29 b4 bd e9 a8 27 3f
       -0.10782479 -0.1379251 -0.08796929 0.6549211
000220 d3 e9 1b be a0 3e 14 be c6 e8 26 3f b2 1f bc 3e
       -0.15225916 -0.14477015 0.65198934 0.36742932
000230 fd 67 31 be bd 73 11 be 8f 14 b2 be 6d 79 99 3e
       -0.17324825 -0.14204307 -0.3478131 0.29975453
000240 9f 72 78 3e 6d d3 b6 bd c7 91 59 bf 07 e8 92 be
       0.24262474 -0.08927045 -0.84988064 -0.28692648
000250 ca 80 13 3f c6 8b 21 bc cf 69 f3 3e 5a 40 8a 3e
       0.5761839 -0.009859985 0.47541663 0.2700222
000260 5f dd a6 3d bc 9a a5 3e 2f b0 51 be 7d 2d ec 3e
       0.08147692 0.32344615 -0.20477365 0.46128455
000270 10 a4 a9 3e f8 60 76 be 65 75 e8 3e 1c b9 80 3e
       0.33132982 -0.24060428 0.45402065 0.25141227
000280 06 8b 11 bf 0e 73 92 bc 9e a3 34 be e0 1f 0e 3f
       -0.5685276 -0.017877128 -0.1764054 0.5551739
000290 e6 3b 8c bd c0 b2 11 bf 9a bb 9f 3e 2a 8f 80 3d
       -0.06847362 -0.56913376 0.31197816 0.062773064
0002a0 13 d3 90 3e f8 6a c0 3d 3e b1 d8 3e 06 b2 2e 3c
       0.28286037 0.09395403 0.42322725 0.010662561
0002b0 9c 03 0b 3e 20 3f 57 be 2b 88 19 be 3e 8b 10 be
       0.13575596 -0.21020174 -0.1499335 -0.14115617
0002c0 69 a4 3c be b7 24 b0 be d9 a6 bd 3d 47 cd 69 3e
       -0.18422092 -0.3440301 0.09260339 0.22832213
0002d0 40 8b 0a 3e 7c 95 12 bf f2 b1 42 bd d0 55 62 be
       0.13529682 -0.57259345 -0.047532983 -0.22103047
0002e0 aa f9 38 bf 14 97 1f 3c 4b 41 a2 bd a8 4b d1 3d
       -0.7225596 0.00974061 -0.0792261 0.102195084
0002f0 c9 84 51 bd 7f d5 00 3f 75 56 49 be 8e 72 8a be
       -0.051152024 0.5032577 -0.19661887 -0.27040523
000300 2b c4 26 3d 45 20 0f 3e 64 0e 55 3e c2 54 d1 be
       0.040714424 0.13977154 0.20806271 -0.40884978
000310 bd 24 c0 bd 1c 79 ae 3e ef c3 11 be 4b 2b e7 3e
       -0.09382007 0.34076774 -0.14234899 0.45150217
000320 e7 cc 24 3e e5 1c 9f 3e 48 8f 80 3e 94 9e d3 3d
       0.16093789 0.31076732 0.25109315 0.10332981
000330 3a 46 4c 3e 6e d2 64 3d 67 f7 17 be 8e 6c 91 be
       0.19948664 0.055864744 -0.1484047 -0.28403133
000340 52 5c 10 bf 89 d5 5f 3d 48 42 99 3e 7b 9c cc 3e
       -0.5639087 0.054647002 0.2993338 0.39963135
000350 a9 1d 5c bb 0c 06 f8 be b8 69 a0 3e 0b 82 be 3e
       -0.0033587015 -0.48442113 0.31330657 0.3720859
000360 df 2f 35 3e 52 3c 4c 3e ad a6 e3 be fa f8 12 bf
       0.17694043 0.19944885 -0.444631 -0.5741116
000370 98 06 35 be f1 61 8d 3c 20 01 fe 3d ab cd 7f bf
       -0.17678297 0.017258616 0.12402558 -0.999232
000380 3a 7c 22 bd de 92 27 3e ca 73 67 3d 27 61 66 3b
       -0.039669253 0.16364619 0.05650691 0.0035153122
000390 28 cc 3c bf c3 21 ce be 44 45 eb 3d ca 27 4d bd
       -0.7374902 -0.40260133 0.11487821 -0.050086774
0003a0 df 1a 0f 3f ea d3 3e 3d 2a c2 17 3f 70 07 09 bf
       0.5590038 0.046588816 0.59280646 -0.53526974
0003b0 92 d7 d6 3d af 49 f2 be f0 14 18 3b 90 f0 21 be
       0.104903355 -0.4732184 0.002320584 -0.15814424
0003c0 96 c5 92 be 6e 6f cf be 21 c1 82 3e 91 ab 38 3e
       -0.2866637 -0.40514702 0.2553797 0.18034197
0003d0 28 5a 6f bd bd 2c 03 3f ea f5 03 be 97 f1 59 3d
       -0.05843559 0.5124014 -0.12886778 0.053208914
0003e0 c3 86 0c 3f 25 d2 19 3e 9a bc 72 be 5c d0 b3 3e
       0.5489313 0.1502157 -0.23704758 0.35119903
0003f0 8d 8c 52 3d 35 3a 1b 3e f0 6f a8 be b8 69 d5 be
       0.05140357 0.15158923 -0.32897902 -0.4168222

advantage_stream.2.bias f4 [4]
000000 38 26 74 bc 2d ff de bc 0c 74 15 be f8 17 6f bd
       -0.01490169 -0.027221287 -0.1459505 -0.058372468
