models/snake_dqn_ep115_score2_20250303_093911.pt (torch, 655714 bytes, 44 tensors)

feature_layers.0.weight f4 [128, 24]
0	0xbe824983	-0.2544671
1	0x3de51b57	0.11186855
2	0xbdd8cca2	-0.105859056
3	0x3e0cc347	0.13746367
4	0x3f007ab9	0.5018726
5	0xbf386e5b	-0.7204339
6	0xbe877ac6	-0.26460856
7	0xbe8fc3c4	-0.28079045
8	0xbdfa8961	-0.12233234
9	0xbdbe0c1a	-0.09279652
10	0xbd9f20ce	-0.07769929
11	0xbe5ed7ea	-0.21762052
12	0x3eb6cbd4	0.35702384
13	0xbd06bc73	-0.032894563
14	0xbea6b57c	-0.32560337
15	0x3f023d53	0.50874823
16	0xbdeeb85f	-0.1165626
17	0x3f47c394	0.78032804
18	0x3eff0d37	0.4981477
19	0xbed4b109	-0.41541317
20	0x3f179524	0.59211946
21	0xbdea906b	-0.11453327
22	0x3f18fceb	0.5976092
23	0x3e82e98e	0.25568813
24	0xbde32298	-0.110905826
25	0x3d558dee	0.052137308
26	0xbd7a93b7	-0.061176028
27	0xbe59af82	-0.21258357
28	0xbeb3972f	-0.3507628
29	0xbebd4972	-0.36970097
30	0x3e9a7283	0.3016549
31	0xbe0b6584	-0.13612944
32	0xbe738b3f	-0.23783587
33	0x3db710f0	0.089387774
34	0xb984ae1e	-0.0002530673
35	0x3f24dc72	0.6439887
36	0x3e358961	0.17728187
37	0x3e93e4b5	0.28885427
38	0x3d8bff07	0.06835752
39	0x3b1e47ae	0.002415161
40	0x3e4e3bfe	0.20140073
41	0x3f35927c	0.7092664
42	0x3dd3d5a0	0.1034348
43	0x3904cf81	0.00012665802
44	0x38ad1e84	8.254967e-05
45	0x3dabb135	0.08383409
46	0x3f299f43	0.6625864
47	0xbd854fca	-0.06509359
48	0xbd41167d	-0.047140587
49	0xbeb45012	-0.3521734
50	0x3c8f55f3	0.017497038
51	0xbe32e964	-0.17471844
52	0xbdc54f25	-0.09634236
53	0xbea5a47e	-0.3235206
54	0x3e37e9a7	0.17960225
55	0x3e9c2a52	0.30501038
56	0xbe4922dc	-0.19642204
57	0xbebacf86	-0.36486453
58	0xbdca232a	-0.09869988
59	0xbf023acd	-0.5087097
60	0x3cf38179	0.029724823
61	0xbe9d6299	-0.30739287
62	0x3eb5fa29	0.3554242
63	0x3e276b3a	0.16349497
64	0xbef3125a	-0.4747494
65	0xbd23b5b5	-0.03996821
66	0xbe97cbe5	-0.29647747
67	0xbe38ef9b	-0.18060152
68	0xbe112a6a	-0.14176336
69	0x3e051ce3	0.129993
70	0x3f078add	0.52946264
71	0x3da6cc59	0.08144445
72	0x3e020a6d	0.1269929
73	0x3eac7e14	0.3368994
74	0x3f55f05f	0.835699
75	0x3eee745b	0.46573147
76	0x3e152e11	0.14568354
77	0x3eb13241	0.34608653
78	0x3dc6c3ff	0.09705352
79	0x3e81d0c0	0.25354576
80	0x3e635907	0.2220193
81	0x3e926080	0.2858925
82	0x3de8025d	0.11328576
83	0x3f5453da	0.8294045
84	0x3ea8ae86	0.3294565
85	0x3e0b28c2	0.13589767
86	0xbf1574a4	-0.58381104
87	0x3eb30074	0.34961283
88	0x3ca62783	0.020282513
89	0x3ddb9851	0.107224114
90	0x3dfeaae5	0.12434939
91	0xbee8727e	-0.4539985
92	0x3ee2f33a	0.44326192
93	0xbe4070fa	-0.18793097
94	0x3f1ba6a8	0.6080117
95	0xbe3aaed2	-0.18230751
96	0xbd0dce46	-0.034620546
97	0x3f4f9265	0.81082755
98	0xbe29c62e	-0.16579506
99	0xbe8b4fc2	-0.27209288
100	0x3e89df0d	0.26927987
101	0x3e1c9430	0.15290904
102	0xbeec1f92	-0.46117836
103	0xbd46b697	-0.048513975
104	0xbe8da347	-0.27663633
105	0x3eeb0c2c	0.45907724
106	0x3e7026c0	0.23452282
107	0x3e25127b	0.16120331
108	0xbee3e6be	-0.4451198
109	0xbeee9863	-0.46600637
110	0xbec8f21e	-0.3924722
111	0xbdbd5439	-0.0924458
112	0xbf0d97e4	-0.5530989
113	0x3e9df8c7	0.30853865
114	0x3f131839	0.57458836
115	0x3eab80ee	0.33496803
116	0x3ef5002e	0.478517
117	0x3e2b3e98	0.16723096
118	0xbd1ef8a2	-0.038811333
119	0xbe238cc6	-0.1597167
120	0x3b21cfbd	0.0024690472
121	0x3d32bdfd	0.04363822
122	0xbdea0e07	-0.11428457
123	0x3e27469a	0.16335526
124	0xbdf169af	-0.11787736
125	0x3e6e5989	0.23276342
126	0xbcb975ff	-0.022639273
127	0xbd1d97c9	-0.03847483
128	0x3e778736	0.24172673
129	0x3df65873	0.12028589
130	0xbe48a61b	-0.19594614
131	0xbdf20086	-0.11816506
132	0xbec242d7	-0.3794162
133	0xbda82c96	-0.08211629
134	0xbe8cc881	-0.27496722
135	0x3f3f7abe	0.74796665
136	0xbea68a19	-0.32527235
137	0x3e46cb2d	0.19413443
138	0xbe14932d	-0.14509268
139	0x3e55aae4	0.20865971
140	0x3eed38b3	0.4633232
141	0xbe2680ab	-0.1626002
142	0x3ecc74a1	0.3993273
143	0xbda18387	-0.07886415
144	0xbe56c9dd	-0.20975442
145	0xbd6c4ac2	-0.057688482
146	0xbe6f000e	-0.23339865
147	0xbe76ef4f	-0.24114726
148	0x3e14123a	0.14460078
149	0x3edf3c83	0.43600854
150	0xbf015646	-0.5052227
151	0x3da0c307	0.078496985
152	0x3e5143f4	0.20436078
153	0x3e322a79	0.17399015
154	0xbd91ece5	-0.07125262
155	0x3d8abcb6	0.06774275
156	0x3eb416fc	0.35173786
157	0x3c353346	0.011059588
158	0xbe87187a	-0.26385862
159	0x3d0ca5bc	0.034337744
160	0xbe8597a1	-0.26092246
161	0xbde52547	-0.11188751
162	0xbeb83b4e	-0.35982746
163	0x3e64b131	0.22333218
164	0x3daed219	0.08536167
165	0x3f0fa261	0.56107146
166	0xbf07f414	-0.5310681
167	0x3ed340f7	0.41260502
168	0xbd2e8ac8	-0.04261282
169	0xbd4ceda2	-0.05003131
170	0xbd1878a9	-0.037224445
171	0xbd1f83c2	-0.038944013
172	0xbea2a56e	-0.31766838
173	0xbe30fd71	-0.1728418
174	0x3eb9a5b5	0.36259237
175	0x3e773598	0.24141538
176	0x3ee24e97	0.44200584
177	0xbdc805e8	-0.097667515
178	0xbd36a70a	-0.044592895
179	0x3e88d38b	0.26723894
180	0xbdb66f65	-0.089079656
181	0xbe4ee748	-0.20205414
182	0xbed0b4f5	-0.4076306
183	0x3e89bf20	0.2690363
184	0x3ec4566a	0.3834718
185	0x3e6d6e2b	0.23186557
186	0x3e0008ae	0.12503311
187	0xbe24c0cc	-0.16089171
188	0x3e613d28	0.21995986
189	0xb97c05bb	-0.00024034728
190	0x3ead7f85	0.33886352
191	0x3f1e899f	0.61928743
192	0xbd34ca89	-0.044138465
193	0xbe0bb502	-0.13643268
194	0xbe6da55d	-0.23207612
195	0x3e8401ce	0.25782627
196	0xbd12326e	-0.035692625
197	0x3d20bff6	0.03924557
198	0xbda858ea	-0.08220084
199	0xbda3d8ca	-0.080003336
200	0xbe45d21a	-0.19318429
201	0x3e33bb2f	0.17551874
202	0x3dfddf73	0.12396135
203	0x3eee49cc	0.46540678
204	0xbe2b6f63	-0.1674171
205	0x3e534324	0.20631081
206	0xbe1cca6c	-0.15311593
207	0x3d9e1a43	0.07719853
208	0x3df6aecb	0.12045058
209	0x3e79e27c	0.24402803
210	0xbe1ab059	-0.15106334
211	0xbeb945aa	-0.36185962
212	0xbf1e11bc	-0.6174581
213	0x3ee5c5e5	0.44877544
214	0xbdaefde5	-0.0854452
215	0x3e1f1888	0.15536702
216	0x3ec3172c	0.38103616
217	0xbe874edd	-0.26427355
218	0x389b2896	7.398536e-05
219	0x3e5b8968	0.21439135
220	0x3e9c3b0b	0.30513796
221	0xbe2702cf	-0.16309665
222	0x3d772f6e	0.060347967
223	0xbe0aaa4e	-0.13541529
224	0xbefc16f7	-0.4923627
225	0xbe7e6984	-0.24844939
226	0x3ee67f22	0.4501887
227	0xbe421998	-0.18955076
228	0xbdb1e221	-0.08685709
229	0x3e6d94ed	0.23201342
230	0xbea9f568	-0.33195043
231	0xbe489618	-0.19588506
232	0xbdb49dd8	-0.08819169
233	0xbf10de7c	-0.56589484
234	0x3d68f036	0.056869708
235	0xbc9a1740	-0.018809915
236	0xbe695e55	-0.22789891
237	0x3eee3681	0.46525958
238	0xbea29e19	-0.31761244
239	0x3d103fbe	0.03521704
240	0x3e83036b	0.25588545
241	0x3e390248	0.18067276
242	0x3e114778	0.1418742
243	0xbe89a111	-0.26880696
244	0xbe2bb17b	-0.16766922
245	0x3ca76cfa	0.020437706
246	0xbd267784	-0.040641323
247	0xbe839caa	-0.25705463
248	0x3c9e40a8	0.01931794
249	0x3eadec60	0.33969402
250	0xbe570c57	-0.21000801
251	0x3f03027e	0.5117568
252	0xbedf380d	-0.4359745
253	0xbd2cf570	-0.042226255
254	0xbe99c218	-0.30030894
255	0xbe01a02c	-0.12658757

feature_layers.0.bias f4 [128]
0	0xbe356bf8	-0.17716968
1	0xbe173cdf	-0.14769314
2	0x3cc75c85	0.024336109
3	0x3e4e7015	0.20159943
4	0x3e1582b3	0.14600639
5	0xbd9410f2	-0.072297946
6	0x3e3bc7f9	0.18338002
7	0x3e64b033	0.2233284
8	0x3e81e092	0.25366646
9	0x3e803918	0.2504356
10	0x3e27747b	0.16353028
11	0xbd9447b0	-0.07240236
12	0x3e8fed12	0.28110558
13	0x3d6857a8	0.05672422
14	0xbc5da727	-0.013528622
15	0x3d8bf273	0.06833353
16	0x3dad18d7	0.084520034
17	0x3d588cc6	0.052868627
18	0xbdb40319	-0.08789653
19	0xbe4c2801	-0.19937135
20	0x3dab799e	0.08372806
21	0xbde30710	-0.110853314
22	0x3e93e82c	0.2888807
23	0xbe2ec107	-0.17065822
24	0xbe2b9f34	-0.1675995
25	0xbc11a1e5	-0.008888696
26	0xbcebef32	-0.02880058
27	0x3e02fc4e	0.12791559
28	0x3e035a6d	0.12827463
29	0x3e9c9c1c	0.30587852
30	0xbdaad7a6	-0.08341913
31	0xbe6f8ea1	-0.23394252
32	0x3d8653bc	0.0655894
33	0xbcf687de	-0.030094083
34	0x3d4f6a0f	0.050638255
35	0x3e04527e	0.12922093
36	0xbd98fa55	-0.07469622
37	0x3aa4889f	0.0012552923
38	0xbe6f4414	-0.23365813
39	0x3e6d60b4	0.2318142
40	0x3d87cff3	0.0663146
41	0x3ac82a46	0.0015271388
42	0xbe4b4600	-0.19850922
43	0x3ea41af2	0.32051808
44	0xbe3d5b36	-0.18491825
45	0x3d3793db	0.04481874
46	0xbe85074b	-0.25982127
47	0xbdaa12dd	-0.08304379
48	0xbe1e4ca5	-0.15458925
49	0xbe110eaa	-0.1416575
50	0x3d49673f	0.04917073
51	0xbd90ce1c	-0.07070562
52	0xba13edae	-0.0005643022
53	0x3d85e1fa	0.06537242
54	0x3dad3ff9	0.084594674
55	0xbd20b75e	-0.039237373
56	0xbe076f6c	-0.13226098
57	0xbe3b7982	-0.1830807
58	0xbb8a13a7	-0.0042137685
59	0x3e65602f	0.22399972
60	0xbdf3c6ef	-0.11903178
61	0xbcd4801b	-0.025939992
62	0xbe1a5b58	-0.15073907
63	0x3e3acdf7	0.18242632
64	0xbd88e797	-0.06684797
65	0xbdb66091	-0.08905137
66	0xbcdeb1c2	-0.02718437
67	0x3e7a8313	0.24464063
68	0x3d4b15bb	0.04958127
69	0x3e4d4a1e	0.20047805
70	0xbd54cc76	-0.0519528
71	0x3c22c446	0.009934491
72	0x3e548616	0.20754275
73	0x3e8cde18	0.27513194
74	0x3e18751b	0.14888422
75	0x3e4ee274	0.20203573
76	0xbe1b455f	-0.15163182
77	0x3e17e413	0.14833097
78	0xbe2ed0aa	-0.17071787
79	0xbe31e042	-0.17370704
80	0xbe52ce14	-0.20586425
81	0xbd04bb43	-0.03240515
82	0x3cddd246	0.027077805
83	0xbe508967	-0.20364915
84	0x3c947c66	0.018125724
85	0x3e6dd1f3	0.2322462
86	0xbd3d376f	-0.046195444
87	0x3dcd3626	0.100200936
88	0x3d28ec30	0.04124087
89	0xbe44b513	-0.192097
90	0xbdd791fb	-0.105258904
91	0x3e6f28bc	0.23355383
92	0x3d26d1cb	0.040727418
93	0x3c9af7c7	0.018916978
94	0x3da22683	0.07917502
95	0x3ca0f4f8	0.01964806
96	0x3dcc4702	0.09974481
97	0xbe24eb89	-0.16105475
98	0xbd813203	-0.06308367
99	0x3d0eaa22	0.03483022
100	0xbdab47f5	-0.08363334
101	0x3e721217	0.23639713
102	0x3e058752	0.13039902
103	0xbd347fbb	-0.044067126
104	0xbdae76b5	-0.08518735
105	0xbe2767cd	-0.1634819
106	0x3e8c78eb	0.27436003
107	0x3d952f2a	0.072843865
108	0xba580fbe	-0.0008242092
109	0xbe960f3e	-0.29308504
110	0xbd669826	-0.056297444
111	0xbdb0b6b7	-0.086286
112	0xbda95b3d	-0.082693554
113	0xbdcd0108	-0.10009962
114	0x3d0a91b0	0.033830345
115	0x3e1d5bd5	0.15367062
116	0xbe553294	-0.20820075
117	0xbe6d2e83	-0.23162274
118	0x3e82720c	0.25477636
119	0x3db8e637	0.09028285
120	0xbe64a20a	-0.22327438
121	0x3e3cafe8	0.18426478
122	0xbe450452	-0.1923993
123	0x3df75143	0.12076046
124	0x3ce0e374	0.027452208
125	0xbe0280b7	-0.12744413
126	0xbc9e701d	-0.01934057
127	0xbc835e83	-0.016036278

feature_layers.1.weight f4 [128, 128]
0	0xbe052db9	-0.13005723
1	0x3d8d9d1a	0.0691473
2	0x3dd909cd	0.105975725
3	0xbe356c25	-0.17717035
4	0xbd052b48	-0.03251198
5	0xbe42540a	-0.18977371
6	0x3dd67553	0.104715966
7	0x3d93fde6	0.07226162
8	0x3d05961b	0.032613855
9	0x3e04525b	0.12922041
10	0x3e137c41	0.14402868
11	0x3eb1298a	0.34602004
12	0x3e3fddfd	0.18737026
13	0x3d6a3acb	0.057184976
14	0x3d6f8808	0.05847934
15	0xbe250196	-0.16113886
16	0x3e996892	0.29962593
17	0x3daa2fcb	0.08309897
18	0x3df90018	0.12158221
19	0xbcd57360	-0.026055992
20	0x3bfdc280	0.0077441335
21	0xbe8f0ed0	-0.2794099
22	0x3d9138a0	0.070908785
23	0xbe892e3c	-0.26793087
24	0xbcb0a7de	-0.02156442
25	0xbdf9c682	-0.121960655
26	0xbd61942e	-0.055072956
27	0x3e45c7a0	0.19314432
28	0x3def7d5e	0.11693834
29	0xbc1d59b7	-0.009603909
30	0xbda0ddc9	-0.07854802
31	0xbe14eb97	-0.14542995
32	0x3c0f63db	0.008751835
33	0xbcbcff02	-0.023070816
34	0xbe30726f	-0.17231153
35	0x3e45fbe7	0.19334374
36	0xbdc2c069	-0.095093556
37	0xbd4f6849	-0.050636563
38	0xbd31b858	-0.043388695
39	0x3e0e9084	0.13922316
40	0xbe441a6b	-0.19150703
41	0x3e078f98	0.1323837
42	0xbe712c6a	-0.23552099
43	0xbc9cb69a	-0.01913004
44	0xbdb9d7ce	-0.090743646
45	0xbe0db858	-0.13839853
46	0x3e5a59d9	0.21323337
47	0x3e7ad897	0.24496685
48	0x3d5126c1	0.05106235
49	0xbe8a1143	-0.26966295
50	0xbe5531ee	-0.20819828
51	0xbbe05a20	-0.0068466812
52	0x3d887d3c	0.066645116
53	0xbc1fd15e	-0.009754507
54	0x3e3ebb97	0.18626247
55	0xbd2e81f6	-0.04260441
56	0x3d29ef26	0.041487835
57	0xbd9fc613	-0.078014515
58	0xbdc7d524	-0.0975745
59	0x3e00cadb	0.12577383
60	0x399df272	0.0003012601
61	0x3d865d57	0.06560772
62	0xbda49bf4	-0.08037558
63	0x3d0f7013	0.03501899
64	0xbdf029fa	-0.117267564
65	0xbc810d0a	-0.015753288
66	0x3d315fa9	0.04330412
67	0x3d73b9d5	0.059503395
68	0x3e205ee4	0.15661198
69	0x3d80bc4c	0.06285915
70	0xbae583e1	-0.0017510616
71	0xbd87e403	-0.06635287
72	0x3e64bf98	0.22338712
73	0x3b81aa5b	0.0039570755
74	0x3d299ca8	0.041409165
75	0x3e6f8517	0.23390613
76	0xbd2c15bb	-0.04201291
77	0x3e03d410	0.12873864
78	0x3e930e26	0.28721732
79	0x3dd09e3a	0.10186429
80	0xbe262696	-0.16225657
81	0xbc95dd26	-0.018293928
82	0xbd273bdd	-0.040828574
83	0x3bb5900d	0.005540854
84	0xbe01047f	-0.12599371
85	0xbd3ee3f2	-0.046604104
86	0x3df0b117	0.11752527
87	0xbdbeca29	-0.09315903
88	0x3ca70911	0.020390065
89	0xbea235f0	-0.31681776
90	0x3e2d281b	0.1690983
91	0x3d155139	0.036454413
92	0xbdf001a3	-0.11719062
93	0x3d1c224d	0.03811865
94	0x3c8248d2	0.015903864
95	0xbc11d114	-0.008899946
96	0xbd4c15e4	-0.049825564
97	0x3e1b4bc9	0.15165628
98	0xbe6510d5	-0.22369702
99	0x3de1d7f8	0.11027521
100	0xbdb31157	-0.08743542
101	0x3e45c075	0.19311698
102	0xbcaad328	-0.02085264
103	0xbd80dc13	-0.06291976
104	0x3ce9fd50	0.028563172
105	0x3d030dc1	0.03199554
106	0x3e4e8ad0	0.2017014
107	0xbd4fd9ec	-0.050744936
108	0xbd97bf9a	-0.07409592
109	0xbdbe0400	-0.09278107
110	0x3e935db6	0.28782433
111	0xbdc43d80	-0.09582043
112	0x3e2d1f85	0.16906555
113	0xbe0a354f	-0.13496898
114	0x3de5ffd7	0.11230438
115	0x3e0f5e81	0.14000894
116	0xbea1d338	-0.3160646
117	0x3da36c55	0.07979647
118	0xbb03dfc9	-0.00201224
119	0x3e34c56d	0.17653437
120	0x3d16e430	0.03683871
121	0xbe1c96b6	-0.15291867
122	0x3d5c434d	0.05377512
123	0xbdaab941	-0.08336116
124	0x3d942684	0.07233909
125	0xbdae7d2c	-0.085199684
126	0xbae33944	-0.0017335792
127	0xbe2870dd	-0.16449304
128	0xbbab145b	-0.0052209324
129	0x3dcc7605	0.09983448
130	0x3d82fb5d	0.063956
131	0xbd77e421	-0.060520295
132	0x3e207338	0.15668952
133	0xbcdfe8f0	-0.027332753
134	0x3a8a36b5	0.0010544868
135	0xbca3716b	-0.019951543
136	0xbda1c2d6	-0.0789849
137	0x3d7a732b	0.06114499
138	0x3dcd6c4f	0.10030424
139	0xbdf9d8d3	-0.12199559
140	0x3e0bb618	0.13643682
141	0xbda317e6	-0.07963543
142	0xbd8aa80f	-0.06770336
143	0xbdbfceb6	-0.09365599
144	0x3df2d9eb	0.11857971
145	0x3dc5fbf4	0.09667197
146	0xbd04e572	-0.03244538
147	0xbd41175a	-0.04714141
148	0xbde4180f	-0.11137401
149	0x3dc684ea	0.0969332
150	0xbda22359	-0.07916898
151	0x3cd81b23	0.026380127
152	0xbd085207	-0.033281352
153	0x3e309f69	0.1724831
154	0xbe552f7f	-0.208189
155	0xbe2faaa9	-0.17154945
156	0x3cbaa941	0.022785785
157	0x3d4984b5	0.049198825
158	0xbcdfdb85	-0.027326355
159	0x3d97ea6c	0.07417759
160	0x3dbff035	0.09371988
161	0x3deb46a4	0.11488083
162	0xbe051797	-0.1299728
163	0x3c4fb2f4	0.012676943
164	0x3e25800b	0.16162126
165	0x3e340eea	0.17583814
166	0x3ce9938b	0.028512737
167	0x3e050bd8	0.129928
168	0xbd6fb3bd	-0.05852102
169	0xbd9b5604	-0.075847656
170	0xbe32e083	-0.17468457
171	0x3c56f097	0.0131188845
172	0xbdc4aa86	-0.09602837
173	0xbe7d2eb4	-0.24724847
174	0x3e01f542	0.12691215
175	0xbbb5a064	-0.0055428017
176	0x3dd4f154	0.10397592
177	0xbd8ac003	-0.067749046
178	0x3d7b2b65	0.06132068
179	0x3d250114	0.04028423
180	0xbe4e6450	-0.20155454
181	0x3e167be2	0.14695695
182	0x3e76d078	0.24102962
183	0xbd4702f3	-0.048586797
184	0x3dc90194	0.09814754
185	0xbdabcade	-0.08388303
186	0xbe7c1692	-0.24617985
187	0x3e217136	0.15765843
188	0x3e050fe8	0.12994349
189	0xbd8d1a2d	-0.06889758
190	0xbe39a1c7	-0.1812812
191	0x3e4e6eea	0.20159498
192	0x3e7b907c	0.24566835
193	0xbd8b9cc9	-0.06817014
194	0xbdc2d038	-0.09512371
195	0xbdf682d2	-0.12036671
196	0x3d08b1e7	0.033372786
197	0xbc9f9bc1	-0.019483449
198	0xbe3bd48d	-0.183428
199	0xbc64ae18	-0.013957523
200	0x3dbdbe79	0.092648454
201	0x3e2c8cd4	0.16850597
202	0xbd42fa75	-0.047602136
203	0x3e589a4e	0.21152613
204	0xbd4cb826	-0.049980305
205	0x3bc8b93e	0.006125598
206	0xbdd19026	-0.10232572
207	0x3c66b11d	0.014080313
208	0x3e2e84a0	0.1704278
209	0xbbcee29d	-0.0063136355
210	0xbd26bbd3	-0.040706467
211	0x3eadd332	0.33950192
212	0xbe2b444c	-0.16725272
213	0xbc1a74ca	-0.009427259
214	0xbde8c511	-0.113657124
215	0x3e06f251	0.13178374
216	0xbe0be0ef	-0.13660024
217	0xbe01f920	-0.1269269
218	0xbe4ee191	-0.20203234
219	0x3d60a305	0.054842968
220	0xbdb6e399	-0.089301296
221	0x3df75bfe	0.12078093
222	0xbd949fe8	-0.07257062
223	0x3d9022fb	0.07037922
224	0x3c34d6c6	0.011037534
225	0x3ced11a8	0.028939083
226	0xbd71c018	-0.059021086
227	0xbd073070	-0.033005178
228	0xbb990ad3	-0.00467048
229	0x3e3a2b2b	0.1818053
230	0xbe19f06e	-0.15033123
231	0x3db485ee	0.088146076
232	0xbe63a99c	-0.2223267
233	0xbdd167fe	-0.10224913
234	0x3e4e0d08	0.20122159
235	0xbb9f340e	-0.0048585003
236	0xbc5fce20	-0.013659984
237	0xbd35cf05	-0.044386882
238	0x39eb9a50	0.00044937665
239	0xbc2dd6b2	-0.010610269
240	0x3e8bb041	0.2728291
241	0xbc94a2ac	-0.018143974
242	0xbe57456f	-0.2102258
243	0xbe1ac707	-0.15114985
244	0xbe13dac4	-0.14438921
245	0xbd3cd5da	-0.046102382
246	0x3c61a59a	0.013772393
247	0x3dc2d897	0.095139675
248	0xbdebe169	-0.11517603
249	0x3e5efa1f	0.21775101
250	0x3e1af9d2	0.15134361
251	0x3e40c2bc	0.18824285
252	0xbcaacf85	-0.020850906
253	0x3d28a76a	0.041175283
254	0xbdbaf58f	-0.09128868
255	0xbd2d76fd	-0.042349804

feature_layers.1.bias f4 [128]
0	0xbc188d7f	-0.009311079
1	0x3c86e27b	0.016465416
2	0x3d583c3a	0.05279181
3	0xbd5d8a06	-0.054086708
4	0xbe04efa0	-0.12982035
5	0xbcf5a2b0	-0.029984802
6	0x3d187c05	0.03722765
7	0xbd79b68b	-0.060965102
8	0x3dd68df9	0.10476298
9	0xbe03c017	-0.12866245
10	0x3ca3c4cd	0.019991303
11	0x3dd1dca9	0.10247166
12	0x3d1a4188	0.03766015
13	0x3cf70fd7	0.03015892
14	0x3e0bbe60	0.13646841
15	0xbda7966f	-0.0818299
16	0x3d61e70e	0.05515199
17	0xbde08851	-0.109635
18	0x3e09e630	0.13466716
19	0x3d455e35	0.048185546
20	0xbca8460d	-0.020541215
21	0xbbd3a257	-0.0064585614
22	0x3d848cb6	0.06472151
23	0xbdda0dd1	-0.106471665
24	0x3d148be6	0.03626623
25	0x3cd40981	0.025883438
26	0xbce413b0	-0.027841419
27	0xbc184595	-0.009293933
28	0xbd3e8f93	-0.04652364
29	0x3cfe42ad	0.031037653
30	0xbd6b80b9	-0.057495806
31	0x3d349238	0.044084758
32	0x3d47e4c3	0.04880215
33	0x3c9c3144	0.01906646
34	0x3dbd6adc	0.092488974
35	0xbc895796	-0.016765397
36	0x3d6f6edc	0.058455333
37	0x3e029f9e	0.12756202
38	0x3e10f245	0.14154918
39	0xbdb9311c	-0.0904257
40	0x3d492bba	0.049113967
41	0x3d932558	0.07184857
42	0xbd1d5293	-0.038408827
43	0x3d872a92	0.065999165
44	0x3daf259a	0.08552094
45	0xbd898c9a	-0.06716271
46	0x3cb73e75	0.022368649
47	0x3dd5db11	0.10442174
48	0x3dd124cd	0.10212097
49	0x3d49a7dc	0.04923235
50	0x3abadddb	0.0014256792
51	0xbce8a058	-0.02839677
52	0x3d927305	0.071508445
53	0xbd60184c	-0.05471067
54	0x3b3361c9	0.0027371517
55	0xbb07cb81	-0.0020720663
56	0x3d49607a	0.049164273
57	0x3be97aff	0.007125258
58	0x3cf7717a	0.030205477
59	0xbd986e17	-0.07442873
60	0x3dbc0a0e	0.09181605
61	0xbba8e20a	-0.005153899
62	0xbdc4a93d	-0.09602592
63	0x3bece3ec	0.007229319
64	0x3e1d92eb	0.15388076
65	0x3d28c7ec	0.041206285
66	0x3dc97e1e	0.09838508
67	0xbdadc64d	-0.084850885
68	0x3dbb68f8	0.091508806
69	0x3dc36cba	0.09542222
70	0x3d83daaa	0.06438191
71	0x3c2ff04d	0.0107384445
72	0xbcc293ec	-0.023752175
73	0x3e078738	0.13235176
74	0xbd1379d5	-0.03600486
75	0xbd216fd5	-0.039413292
76	0x3d6dd059	0.058060024
77	0x3c9fc5f8	0.019503579
78	0xbd6d151d	-0.057881463
79	0xbda6908c	-0.08133039
80	0x3d225f09	0.039641414
81	0x3d268ba7	0.040660527
82	0xbdde641b	-0.10858937
83	0xbcbacdd8	-0.022803232
84	0x3cebcc60	0.028783977
85	0xbdbe2e45	-0.09286169
86	0xbde0538d	-0.10953436
87	0xbd86d1ae	-0.06582962
88	0xbe00cce5	-0.12578161
89	0x3decf13d	0.1156945
90	0x3cde8b84	0.027166136
91	0x3d37594b	0.04476289
92	0x3d82ffcc	0.06396446
93	0x3d6352b9	0.055498812
94	0x3cd33578	0.025782332
95	0xbd7afe98	-0.061277956
96	0xbe112de3	-0.1417766
97	0x3dcb27e5	0.09919719
98	0xbc936ed9	-0.017997192
99	0xbda4826e	-0.0803269
100	0xbd419af8	-0.04726693
101	0xbd7ba386	-0.061435245
102	0xbd9ecfa5	-0.07754449
103	0x3d8ac679	0.06776137
104	0xbdddf01d	-0.108368136
105	0xbd7562d7	-0.059908714
106	0xbd7ced90	-0.061749995
107	0xbcbd9a9b	-0.02314501
108	0xbc94eb1a	-0.018178511
109	0xbca46b2e	-0.020070639
110	0xbd108820	-0.03528607
111	0xbdca6d35	-0.09884111
112	0x3e18ad4a	0.14909855
113	0x3d17098f	0.03687435
114	0x3d4a8fad	0.049453426
115	0x3d7c8df8	0.06165883
116	0x3cbba056	0.022903603
117	0x3de0ee91	0.10983003
118	0xbdfb35ab	-0.12266096
119	0x3d208506	0.03918936
120	0xbc94f50f	-0.01818326
121	0x3dec24c4	0.1153045
122	0xbe0bfe2c	-0.13671178
123	0xbca7be3b	-0.020476451
124	0x3dd5ff68	0.104491055
125	0xbc8b95bc	-0.017039172
126	0x3aafd256	0.0013414125
127	0xbbc5f470	-0.006041102

value_stream.0.weight f4 [64, 128]
0	0x3db56414	0.08856979
1	0xbd285262	-0.04109419
2	0x3e037acf	0.12839817
3	0x3e11315c	0.14178985
4	0x3c8de4c6	0.017321002
5	0xbbf34288	-0.0074237026
6	0x3d89890d	0.067155935
7	0xbe01cb81	-0.12675287
8	0xbc448d11	-0.0119965235
9	0x3e3c0b84	0.18363768
10	0xbd11354e	-0.035451226
11	0x3d2df1b7	0.042466845
12	0x3d616690	0.05502945
13	0x3de4991f	0.11162018
14	0xbca25263	-0.019814676
15	0xbd828212	-0.06372465
16	0xbd8c2e5b	-0.06844779
17	0xbe14b93d	-0.14523788
18	0xbe606488	-0.2191335
19	0xbd98322a	-0.07431443
20	0x3d93ebd4	0.07222715
21	0xbd4442a1	-0.047915105
22	0x3cdcf2dd	0.026971275
23	0x3c81850b	0.01581051
24	0x3d621fb1	0.055206005
25	0x3e8a5df5	0.2702481
26	0x3ce70238	0.0281993
27	0xbb8a532a	-0.0042213397
28	0x3d198a53	0.037485432
29	0x3d5eb3ed	0.05437081
30	0x3be76844	0.00706199
31	0xbdd3ee76	-0.10348217
32	0x3db98661	0.09058834
33	0x3dd2152d	0.10257945
34	0xbe01f7b2	-0.12692145
35	0x3bb8a836	0.0056352867
36	0xbe478878	-0.19485652
37	0xbd3233d3	-0.043506455
38	0xbe263bf1	-0.16233803
39	0xbd6ade72	-0.057341047
40	0x3e4ca7ea	0.19985929
41	0x3d6c0ef4	0.057631448
42	0xbde69291	-0.11258424
43	0x3d9dcb1f	0.07704758
44	0xbcb9b5c6	-0.022669684
45	0x3e44db85	0.19224365
46	0xbca8b3ac	-0.020593487
47	0xbd679361	-0.056537036
48	0xbe2f2a03	-0.1710587
49	0xbc0b25a1	-0.008492858
50	0x3e3e0c3e	0.18559358
51	0x3e456079	0.19275083
52	0xbd772c27	-0.06034484
53	0x3e4d45dc	0.2004618
54	0x3e9c5bd8	0.3053882
55	0xbc53e1a2	-0.012932213
56	0x3d9c3175	0.07626621
57	0x3d7f96dc	0.06239973
58	0x3e59a1c8	0.21253121
59	0xbc5f5356	-0.013630709
60	0xbdee26ba	-0.1162848
61	0x3e01e9ce	0.12686846
62	0x3d8dd3be	0.06925152
63	0xbe5e60b4	-0.21716577
64	0xbe19f393	-0.15034322
65	0xbd989098	-0.07449454
66	0xbd7014e2	-0.058613665
67	0xbdf593d1	-0.11991084
68	0xbd5d862d	-0.054083038
69	0xbe058ff2	-0.13043192
70	0xbd8ffac3	-0.07030251
71	0xbe4c5d7a	-0.19957533
72	0x3cddb46b	0.027063569
73	0xbe085e12	-0.13317135
74	0xbde1ec63	-0.11031415
75	0xbe1eb1a3	-0.1549745
76	0x3d3a99e7	0.04555693
77	0x3eb821b0	0.35963202
78	0xbe5b9467	-0.2144333
79	0x3e98b569	0.29825905
80	0xbd322997	-0.043496694
81	0xbe7b9b38	-0.2457093
82	0xbe276c98	-0.16350019
83	0x3e20410d	0.15649815
84	0x3d5e531f	0.05427849
85	0xbd0c4ded	-0.034254003
86	0x3cbc2c60	0.022970378
87	0xbe0eb562	-0.1393638
88	0x3e5d51ad	0.21613188
89	0xbd42e4f2	-0.04758162
90	0xbc9d22f3	-0.019181704
91	0xbc332654	-0.010934431
92	0xbe79f590	-0.24410081
93	0xbdc77e56	-0.097408935
94	0xbeb10f43	-0.34581956
95	0x3dd4bdc8	0.103877604
96	0xbd91624a	-0.07098825
97	0x3cf9c2a5	0.030488322
98	0x3e3579a8	0.1772219
99	0x3eb75f1b	0.35814747
100	0x3d9cd736	0.07658236
101	0x3e7c3da9	0.24632896
102	0x3c6f9b98	0.014624499
103	0xbc764958	-0.015032135
104	0x3ec92266	0.39284056
105	0x3e8d2f6c	0.27575243
106	0x3d580f36	0.05274888
107	0x3e421fe3	0.18957476
108	0xbd60de00	-0.054899216
109	0x3e6eb4f1	0.23311211
110	0xbd66ebb6	-0.056377135
111	0x3d813dec	0.06310639
112	0x3e2fddcd	0.17174454
113	0xbd743350	-0.059619248
114	0xbe708c2d	-0.23490973
115	0x3e01c305	0.1267205
116	0x3d8f3bc7	0.069938235
117	0x3e3bcf65	0.18340833
118	0x3e2c4c93	0.16826086
119	0x3ea3234c	0.31862867
120	0x3e512226	0.20423183
121	0x3dde87d1	0.10865749
122	0xbb7d341c	-0.0038635796
123	0xbe108ee7	-0.14117013
124	0x3ad46727	0.0016205058
125	0xbd7289ed	-0.059213568
126	0xbe9d2897	-0.3069503
127	0xbe0d19b2	-0.13779333
128	0xbd5c2b37	-0.05375215
129	0xbe70299b	-0.23453371
130	0x3e391fb4	0.180785
131	0x3bf8fee7	0.007598746
132	0xbe619fb0	-0.22033572
133	0x3e33cd2a	0.17558733
134	0xbe186da4	-0.14885575
135	0x3e063503	0.1310616
136	0x3dabf2e3	0.08395936
137	0x3d0beea5	0.034163136
138	0x3dc38476	0.09546749
139	0x3d274d67	0.0408453
140	0xbe39ff33	-0.18163757
141	0xbe810115	-0.25196138
142	0xbe107e0e	-0.14110586
143	0xbe0bbc5e	-0.13646075
144	0xbe0155fd	-0.12630458
145	0x3c7ca753	0.015420753
146	0x3c601f03	0.013679269
147	0xbd7c33c7	-0.061572816
148	0x3dbd175d	0.09232972
149	0xbc4a1521	-0.012334139
150	0xbe42297d	-0.18961139
151	0x3bb6b14c	0.0055753347
152	0xbe38dc04	-0.1805268
153	0xbd1ffbec	-0.03905861
154	0xbe6e30c3	-0.23260789
155	0xbe32adde	-0.17449138
156	0x3ea9c043	0.33154497
157	0x3dd957a9	0.10612423
158	0x3e934144	0.2876073
159	0xbde49fe1	-0.11163307
160	0xbe020b5b	-0.12699644
161	0x3db69014	0.089141995
162	0x3d007311	0.031359736
163	0x3e056c60	0.13029623
164	0xbe411d98	-0.18858945
165	0xbdb9298d	-0.09041128
166	0xbe1af28c	-0.15131587
167	0x3e448ba5	0.19193895
168	0xbb908417	-0.0044102776
169	0xbdeec21f	-0.116581194
170	0x3e36375d	0.17794557
171	0xbdf3f0f5	-0.11911193
172	0xbe5bffaa	-0.21484247
173	0x3de2ead2	0.11079945
174	0xbc5617be	-0.013067184
175	0xbe29d4af	-0.16585039
176	0xbd90ecdb	-0.070764266
177	0xbd3b7bd9	-0.045772407
178	0xbccfc8c2	-0.025364283
179	0x3dbc0018	0.091797054
180	0xbd22dd96	-0.039762102
181	0xbbd7906c	-0.0065784957
182	0xbc7b9f19	-0.015357756
183	0x3e8e17cb	0.27752528
184	0x3dbe7317	0.092992954
185	0xbd86eeb4	-0.06588498
186	0xbe5c6ef7	-0.21526705
187	0x3d7d3ee0	0.06182754
188	0x3e4b3902	0.19845966
189	0x3dcf12e0	0.10111022
190	0x3d47eeb6	0.048811637
191	0xbdda4db3	-0.10659351
192	0x3b4006e6	0.0029300987
193	0xbd0f91cd	-0.035051156
194	0x3e312665	0.17299803
195	0xbd248b22	-0.04017175
196	0x3c4254a1	0.011860997
197	0xbe285970	-0.16440368
198	0x3d026d99	0.0318428
199	0x3e4a9fa4	0.1978746
200	0x3e103021	0.1408086
201	0x3c5c116e	0.01343189
202	0xbcd23c0e	-0.025663402
203	0x3da4a295	0.080388226
204	0xbd865ecf	-0.06561052
205	0xbc7fae4d	-0.015605521
206	0x3df4c3df	0.11951422
207	0x3d94927e	0.07254504
208	0xbdbe4987	-0.09291368
209	0xbed66924	-0.4187709
210	0x3e805176	0.2506215
211	0xbe204ade	-0.1565356
212	0xbeb48a68	-0.35261846
213	0xbe881214	-0.26576293
214	0xbe6e5d07	-0.23277675
215	0x3e2c9ca3	0.16856627
216	0x3dd535ee	0.10410677
217	0xbe9fb52a	-0.31192905
218	0x3ce07c14	0.027402915
219	0x3d89823d	0.06714294
220	0xbe6f92a8	-0.23395789
221	0xbcbaf7e5	-0.022823283
222	0xbe058797	-0.13040005
223	0xbe919002	-0.28430182
224	0x3e90ac11	0.28256276
225	0xbd83a738	-0.06428379
226	0x3e549a48	0.20761979
227	0x3d934737	0.071913175
228	0xbe02eaaf	-0.12784837
229	0x3ca7bb77	0.020475132
230	0xbd9cbbc9	-0.07653005
231	0x3d7fe65e	0.062475555
232	0xbcf07c42	-0.029356126
233	0x3e40b1fa	0.18817893
234	0x3ce727cf	0.028217224
235	0x3e5c6bb7	0.21525465
236	0x3d7ed60a	0.062215842
237	0xbd0e0a1d	-0.034677614
238	0x3c831840	0.016002774
239	0xbd0aaa1c	-0.033853635
240	0x3d545fc4	0.05184914
241	0x3d640b3a	0.05567477
242	0x3da998e4	0.08281115
243	0xbdddbc24	-0.108269006
244	0xbe7b63b8	-0.24549758
245	0xbda692a5	-0.08133439
246	0xbbbf82df	-0.0058444585
247	0x3da6672b	0.081251465
248	0xbe33b7b0	-0.1755054
249	0xbd3d2bbe	-0.046184294
250	0xbdd8aa35	-0.105793394
251	0x3e05a67e	0.13051793
252	0x3d050ae3	0.032481086
253	0x3dd72632	0.10505332
254	0xbe85d044	-0.26135457
255	0xbd07a1df	-0.033113357

value_stream.0.bias f4 [64]
0	0xbdd6f894	-0.10496631
1	0xbd1f7441	-0.038929228
2	0x3cdbb8a4	0.026821442
3	0xbd597b8d	-0.053096343
4	0x3dc83808	0.09776312
5	0x3be02d7c	0.0068413597
6	0xbd787637	-0.060659613
7	0x3d535a8b	0.05160002
8	0x3c77a8c6	0.015115922
9	0xbcb2127e	-0.021737333
10	0x3d369081	0.044571403
11	0x3d772ed8	0.060347408
12	0x3d913b40	0.07091379
13	0xbc7b5d9b	-0.0153421415
14	0x3ddca329	0.10773308
15	0x3cfe6955	0.031056086
16	0xbcc9b3dd	-0.024621898
17	0xbdde1125	-0.10843114
18	0xbd6dea15	-0.058084566
19	0x3df049c1	0.117328174
20	0x3da0930d	0.07840548
21	0xbd5f9e96	-0.0545946
22	0x3d0eff84	0.034911647
23	0x3da052a4	0.078282624
24	0xbd20264c	-0.039099023
25	0xbdce45f3	-0.100719355
26	0xbc48651a	-0.012231136
27	0x3d27a47b	0.040928345
28	0x3d036e6d	0.032087732
29	0xbd2a130b	-0.041522067
30	0xbca32b98	-0.019918248
31	0x3bc38dcb	0.005967831
32	0x3e095205	0.13410194
33	0x3c5edfee	0.013603194
34	0x3e2520db	0.16125815
35	0xbe0111fd	-0.12604518
36	0x3d11feba	0.035643317
37	0x3cd0dae1	0.025494995
38	0xbdc90d3c	-0.098169774
39	0xbc06c050	-0.008224562
40	0xbdecff06	-0.11572079
41	0x3ceb65ae	0.028735008
42	0x3d7d7e5f	0.061888095
43	0x3d3dba8c	0.046320483
44	0x3d405bc0	0.0469625
45	0x3d78668f	0.060644682
46	0x3d2cfbc2	0.042232282
47	0x3df075f8	0.11741251
48	0x3d62fe55	0.05541833
49	0x3d0cac8f	0.034344252
50	0xbcc9c795	-0.024631301
51	0x3ca1fba7	0.019773318
52	0x3c2375d7	0.009976826
53	0xbdbc22e0	-0.091863394
54	0x3da8a28f	0.082341306
55	0xbddaed28	-0.10689765
56	0xbdefbb45	-0.11705641
57	0xbcbf75aa	-0.023371536
58	0x3c2ba90b	0.010477315
59	0x3cec5697	0.028849883
60	0x3de250dd	0.1105058
61	0x3d851345	0.06497816
62	0xbc0567dd	-0.008142439
63	0x3d9c3834	0.076279074

value_stream.2.weight f4 [1, 64]
0	0xbe55239e	-0.20814368
1	0xbeb0b392	-0.34512
2	0xbd30d8ea	-0.043175615
3	0xbe44b637	-0.19210134
4	0x3de72194	0.112857014
5	0xbe27ffb9	-0.16406144
6	0xbd72fbff	-0.059322353
7	0xbe7c0b67	-0.24613725
8	0x3d8246c6	0.06361155
9	0xbd2929ab	-0.041299503
10	0x3d8e5ae9	0.069509335
11	0x3e0eb358	0.13935602
12	0x3eb0dbde	0.34542745
13	0xbdb2cfb8	-0.087310255
14	0x3f0b6e0a	0.5446478
15	0x3eb136a0	0.34611988
16	0x3e3652ef	0.17805074
17	0xbdbd7734	-0.09251252
18	0xbdc71c55	-0.09722201
19	0x3f051a32	0.51993096
20	0x3dfc4a66	0.12318878
21	0xbe9966ab	-0.29961142
22	0x3e38e755	0.18056996
23	0x3e215db3	0.157584
24	0xbe972d6a	-0.29526836
25	0xbd9c7bff	-0.07640838
26	0x3dfd44c2	0.1236663
27	0x3eb192dd	0.3468236
28	0xbe4742ed	-0.19459124
29	0xbe536615	-0.2064441
30	0xbdfcd5c9	-0.12345464
31	0xbe106914	-0.14102584
32	0x3e2514f7	0.16121279
33	0xbe3c493b	-0.1838731
34	0x3dad2314	0.08453956
35	0xbe044c1a	-0.12919655
36	0xbe7adfc6	-0.24499425
37	0xbcf84a74	-0.03030894
38	0xbec7e551	-0.39042142
39	0xbe69837b	-0.22804062
40	0xbebf53e0	-0.3736868
41	0xbe48fd9a	-0.19627991
42	0x3ed269a6	0.41096228
43	0x3ea0f845	0.31439415
44	0x3ed06adb	0.40706524
45	0xbe168c0f	-0.14701866
46	0x3e07bee0	0.13256407
47	0x3e5ae7d7	0.21377502
48	0xbe1aa43e	-0.15101716
49	0xbe3377ff	-0.17526244
50	0xbe8609a5	-0.26179233
51	0x3e65f7be	0.22457787
52	0x3e188b92	0.14896992
53	0xbe4bb8a7	-0.19894658
54	0xbe5d5984	-0.21616179
55	0xbd371327	-0.044696
56	0xbe1d4bd9	-0.15360965
57	0x3daca916	0.08430688
58	0x3dca9e73	0.09893503
59	0x3e41df9c	0.18932956
60	0x3ec82a8b	0.39094958
61	0x3ebe3ccc	0.3715576
62	0xbe273bb5	-0.1633137
63	0xbe1057f8	-0.14096057

advantage_stream.0.weight f4 [64, 128]
0	0x3d5d3174	0.05400224
1	0xbd87429a	-0.066045
2	0xbe211cc5	-0.15733631
3	0xbeb82764	-0.35967553
4	0xbe818bac	-0.25301874
5	0xbcdc6ff0	-0.026908845
6	0x3e9246aa	0.28569537
7	0xbe0ac9fd	-0.13553615
8	0x3cbb086c	0.022831164
9	0xbdde7d80	-0.10863781
10	0x3e2278d2	0.15866402
11	0x3dd701bd	0.104983784
12	0xbe5f9eab	-0.21837871
13	0xbd96cf0e	-0.07363711
14	0x3e3c3906	0.18381128
15	0xbcf2e924	-0.029652186
16	0x3c35e3d0	0.011101678
17	0x3db67dbb	0.089107
18	0x3e001ed4	0.1251176
19	0x3e43fff7	0.19140612
20	0xbdeaee31	-0.11471213
21	0x3e098770	0.13430572
22	0x3daf4c9c	0.08559534
23	0x3ebb8db4	0.36631548
24	0xbd5f6063	-0.05453528
25	0x3dab9855	0.083786644
26	0x3d817ea9	0.06322987
27	0x3e3fb7cd	0.18722458
28	0xbc9b35f0	-0.018946618
29	0xbe09a844	-0.13443094
30	0x3e4ea766	0.20181045
31	0x3c855ae6	0.016278695
32	0xbdf7bea7	-0.12096911
33	0xbe8113c6	-0.25210398
34	0xbe8d36e8	-0.27580953
35	0xbdff37f3	-0.12461843
36	0xbde10719	-0.10987682
37	0xbdce7803	-0.10081484
38	0x3dd604d6	0.10450141
39	0xbd34e492	-0.044163294
40	0xbcd4e06c	-0.025985919
41	0xbdfd4f86	-0.123686835
42	0xbda8f13a	-0.08249135
43	0x3dd44b2b	0.103659
44	0x3e27ed8f	0.16399215
45	0xbd5982a7	-0.053103115
46	0xbe4fd1bf	-0.20294856
47	0x3b04f48c	0.0020287363
48	0x3e159384	0.14607054
49	0xbc9f6dc2	-0.019461516
50	0x3de2dc32	0.11077155
51	0x3e8acfb2	0.27111584
52	0xbe36733f	-0.178174
53	0x3e1167ab	0.14199702
54	0xbce1f1db	-0.027581146
55	0xbce2ffec	-0.027709924
56	0xbdd7c920	-0.105364084
57	0x3db70711	0.08936895
58	0xbdb919a2	-0.09038092
59	0xbd87a708	-0.066236556
60	0xbdcb7c49	-0.09935815
61	0xbde03b00	-0.10948753
62	0x3cbf3d5c	0.023344688
63	0xbd01499a	-0.031564333
64	0xbdbcad7f	-0.09212779
65	0x3d8027d3	0.06257596
66	0xbda22af9	-0.07918353
67	0x3e1bf528	0.15230238
68	0xbc1f8edc	-0.00973865
69	0x3e71ea80	0.23624611
70	0xbcd5623f	-0.026047824
71	0xbe156e47	-0.14592849
72	0xbe8cfd73	-0.27537116
73	0x3c3fd0e7	0.011707521
74	0x3c3d4751	0.011552648
75	0x3ea3e071	0.32007173
76	0xbdec1cda	-0.115289405
77	0x3d8da9d6	0.06917159
78	0xbe092910	-0.1339457
79	0x3e03046e	0.12794659
80	0x3c96b35d	0.018396074
81	0xbe24b85a	-0.1608595
82	0x3dbcd936	0.09221117
83	0xbe4182d9	-0.1889757
84	0xbb0e1d24	-0.002168485
85	0xbc63f3f0	-0.01391314
86	0x3e551a85	0.20810898
87	0xbcc096db	-0.023509433
88	0x3deb114a	0.11477907
89	0xbe134328	-0.14381087
90	0x3d323a5e	0.043512695
91	0xbefe3693	-0.49651012
92	0x3d969e50	0.073544145
93	0xbb97f1b0	-0.0046369657
94	0xbd663fa5	-0.05621304
95	0x3e17bd76	0.14818367
96	0xbcf7c1c8	-0.03024377
97	0xbd937e3e	-0.07201813
98	0x3dceb4ac	0.10093054
99	0x3d87af5c	0.06625244
100	0x3e85a5da	0.26103097
101	0xbd7f4611	-0.06232268
102	0x3e609608	0.21932232
103	0x3dd35e74	0.1032075
104	0x3dc6833b	0.09692999
105	0xbdd37b3c	-0.103262395
106	0xbdb1a2ee	-0.086736545
107	0xbdfe66b2	-0.12421931
108	0x3d453768	0.048148543
109	0x3e12b5b5	0.14327128
110	0xbe47a9c6	-0.19498357
111	0x3e8b8033	0.27246246
112	0x3d46ed41	0.048566107
113	0xbd682e1f	-0.05668461
114	0x3e635e1c	0.22203869
115	0xbdbea73b	-0.093092404
116	0x3df55023	0.119781755
117	0xbd89f5e9	-0.06736357
118	0x3e3c509a	0.18390122
119	0xbbc7fd03	-0.0061031594
120	0x3e5a98e5	0.21347387
121	0x3e21a02e	0.1578376
122	0x3e5a6db5	0.21330912
123	0xbe1fb6ed	-0.15597124
124	0x3cb196cd	0.021678353
125	0x3b974c47	0.0046172473
126	0xbe0c103f	-0.13678072
127	0x3e159d22	0.14610723
128	0xbd833f54	-0.06408563
129	0xbe3b647a	-0.18300048
130	0xbd96a9a1	-0.07356573
131	0xbdff5fd5	-0.124694504
132	0x3d9e6b72	0.07735337
133	0x3d0c86c2	0.034308203
134	0xbd54798e	-0.051873736
135	0x3d7d5cf6	0.061856233
136	0xbd9cb88a	-0.076523855
137	0xbcc5f19d	-0.024163062
138	0x3e90beda	0.28270608
139	0x3b8f2c5d	0.004369302
140	0xbd2b18ed	-0.041771818
141	0xbdf61f34	-0.1201767
142	0xbe4ac42f	-0.198014
143	0x3e4410ed	0.19147082
144	0xbdb55c40	-0.08855486
145	0x3e9b5c91	0.3034406
146	0xbd357891	-0.044304434
147	0x3d21118d	0.03932338
148	0xbd9233ee	-0.07138811
149	0xbdd90ab4	-0.105977446
150	0x3d83cac6	0.0643516
151	0x3e9eff01	0.31053928
152	0xbd49f4dd	-0.049305785
153	0xbe045cfa	-0.12926093
154	0x3cb89abc	0.02253472
155	0x3eb28f32	0.34874874
156	0xbde4b0cc	-0.11166534
157	0x3d8b8067	0.068116
158	0xbd2619f6	-0.040552102
159	0x3d76b292	0.06022889
160	0xbc438c3f	-0.011935293
161	0x3d583b37	0.052790847
162	0xbe67afff	-0.22625731
163	0xbdbc0e01	-0.091823585
164	0xbd96b7c2	-0.07359268
165	0x3df3a8ee	0.11897455
166	0x3e3c76fc	0.18404764
167	0x3db34241	0.08752871
168	0xbbbbf5ce	-0.0057360893
169	0x3cfd7300	0.030938625
170	0xbe08b233	-0.13349228
171	0x3d7b8d09	0.0614138
172	0xbd6981e4	-0.05700864
173	0x3e24f642	0.16109565
174	0xbd1ac188	-0.037782222
175	0x3dee9f46	0.11651473
176	0xbe2fcd47	-0.17168151
177	0xbe0050a4	-0.12530762
178	0x3edabe38	0.4272325
179	0xbd385a2a	-0.045007862
180	0xbdded0b2	-0.10879649
181	0x3ea1f263	0.3163024
182	0x3e38467b	0.17995636
183	0x3c89059c	0.016726308
184	0x3eb2b336	0.34902352
185	0xbe1b47da	-0.15164128
186	0x3de9f77a	0.114241555
187	0xbcb1bca3	-0.021696394
188	0x3dad38c8	0.08458096
189	0x3bbe3287	0.005804363
190	0x3d9c76bd	0.07639835
191	0xbe5a0c25	-0.21293695
192	0xbd9b6598	-0.07587737
193	0xbd8bd5ea	-0.0682791
194	0x3c14ab39	0.009074026
195	0x3c5917a7	0.013250268
196	0xbe2d6918	-0.16934621
197	0x3db5fd82	0.088862434
198	0xbbc9a0f5	-0.006153221
199	0x3d0a05d7	0.033696976
200	0xbdc5cf0d	-0.096586324
201	0x3d822788	0.06355196
202	0x3eaf838f	0.3428006
203	0x3e0d9f3b	0.13830273
204	0xbb134c4f	-0.0022475903
205	0x3e21624f	0.15760158
206	0x3c28da53	0.010305959
207	0xbd15852e	-0.036503963
208	0x3ab463c2	0.001376264
209	0x3dff0450	0.124519944
210	0x3dd550e2	0.10415818
211	0xbe615023	-0.22003226
212	0xbe61be53	-0.22045259
213	0x3ec1bfe1	0.37841704
214	0x3d150320	0.036379933
215	0xbedbd0e2	-0.42932802
216	0x3cf29151	0.029610308
217	0xbe1aa7a1	-0.15103008
218	0x3c9fddd1	0.01951495
219	0xbe397f97	-0.18115078
220	0xbbc19764	-0.0059079397
221	0xbd5eaaf7	-0.054362264
222	0xbdf09caa	-0.11748631
223	0xbc611866	-0.013738727
224	0x3d84f67b	0.06492325
225	0x3d2df217	0.042467203
226	0x3e59ee20	0.21282244
227	0xbe87b85d	-0.26507846
228	0x3e1153bf	0.14192103
229	0x3c380728	0.011232175
230	0x3d9cc243	0.0765424
231	0xbd816efe	-0.06319998
232	0x3c1e3220	0.009655505
233	0xbe3a9b36	-0.18223271
234	0xbdd5454e	-0.104136094
235	0x3e59c010	0.21264672
236	0x3d5161ea	0.05111877
237	0xbdb08443	-0.08618977
238	0xbd768357	-0.06018385
239	0x3f29c7b0	0.66320324
240	0xbc5201cf	-0.012817814
241	0xbe34a5cb	-0.1764137
242	0xbd38a19f	-0.04507601
243	0xbca68f2d	-0.020331943
244	0x3bd514b6	0.006502713
245	0xbb9b3ec1	-0.0047377055
246	0x3dd7e44f	0.10541593
247	0x3e27d60e	0.16390249
248	0xbde860ad	-0.113465644
249	0x3dbc916a	0.09207423
250	0x3c9a72b4	0.018853523
251	0x3cceef81	0.025260689
252	0x3bb8d711	0.0056408723
253	0x3d5b315e	0.053513877
254	0xbdd52175	-0.10406772
255	0x3e164578	0.14674938

advantage_stream.0.bias f4 [64]
0	0x3d282aa0	0.041056275
1	0x3ca42df6	0.020041447
2	0xbd04328d	-0.03227477
3	0xbb792054	-0.0038013654
4	0xbd1c1c55	-0.038112957
5	0xbd7ef3ea	-0.062244333
6	0xbd07de66	-0.03317108
7	0xbd39272f	-0.045203384
8	0xbc930563	-0.017946905
9	0x3d70df70	0.058806837
10	0xbdb0429a	-0.08606453
11	0x3d7f67da	0.0623549
12	0xbca8d148	-0.020607606
13	0xbd42f52c	-0.047597095
14	0x3dd81a68	0.105519116
15	0xbc56b75b	-0.013105239
16	0x3de69fc3	0.11260941
17	0xbd2f89e8	-0.042856127
18	0xbd6a0da9	-0.057141934
19	0xbd70d7eb	-0.058799665
20	0xbceb14c5	-0.028696427
21	0x3d86573c	0.065596074
22	0x3b82fd11	0.003997453
23	0x3b7be95f	0.003843866
24	0x3da8c874	0.082413584
25	0x3c4b4f79	0.0124090845
26	0xbdb09f28	-0.08624107
27	0xbd29b353	-0.041430783
28	0x3caea573	0.021319127
29	0xbd9fa093	-0.07794299
30	0x3bd4ca62	0.0064938525
31	0x3d243afc	0.040095314
32	0x3ca51855	0.020153204
33	0xbd68fec3	-0.056883585
34	0xbca7cc60	-0.020483196
35	0x3d718b57	0.058970775
36	0x3d7211eb	0.05909912
37	0xbd564711	-0.052313868
38	0x3c55e647	0.013055391
39	0xbca95a0b	-0.020672819
40	0x3c1c9f4f	0.0095594665
41	0xbcc6597e	-0.024212595
42	0xbc67e0e8	-0.014152743
43	0xbd1bc2f1	-0.038027707
44	0xbdf126a2	-0.11774947
45	0xbdc34f92	-0.09536661
46	0x3d3219b8	0.04348156
47	0xbd2f9e7d	-0.042875756
48	0x3dbcad2e	0.09212719
49	0x3d9b9424	0.07596615
50	0xbd1f634c	-0.038913056
51	0x3cc55236	0.024087053
52	0xbdfdfd9e	-0.12401889
53	0x3d1835d1	0.0371607
54	0x3d9dbd55	0.07702128
55	0xbd8fcdc8	-0.070216715
56	0x3d51acac	0.051190063
57	0xbdcf8ab9	-0.10133881
58	0x3dafd511	0.08585561
59	0xbd49c58b	-0.049260657
60	0xbd443c24	-0.047908917
61	0xbd89ebf9	-0.06734461
62	0xbce70ffb	-0.028205862
63	0x3ca7da88	0.020489946

advantage_stream.2.weight f4 [4, 64]
0	0x3e53a741	0.20669271
1	0x3de7b368	0.11313516
2	0x3f2f2196	0.68410623
3	0xbdb8bbd1	-0.09020198
4	0x3d5ee279	0.0544152
5	0x3e37c18e	0.17944929
6	0xbdae4067	-0.085083775
7	0xbf67a09e	-0.9047946
8	0x3e791ff7	0.243286
9	0x3e501932	0.20322111
10	0xbe963d35	-0.29343572
11	0xbf3d06a4	-0.7383826
12	0x3d83c24d	0.06433544
13	0xbe247ce9	-0.16063274
14	0x3eba2668	0.36357427
15	0xbd2edce9	-0.042691145
16	0x3ea68a2b	0.3252729
17	0xbb67f6fb	-0.0035395015
18	0x3c5f89f2	0.013643729
19	0xbe6d56ee	-0.23177692
20	0x3d9baefd	0.07601736
21	0xbd441174	-0.047868207
22	0xbdf28fff	-0.11843871
23	0x3de0322d	0.1094707
24	0xbd48171c	-0.048850164
25	0xbed22932	-0.41047055
26	0x3ec815bb	0.3907908
27	0xbdc414c3	-0.095742725
28	0x3eb25330	0.34829092
29	0x3e868388	0.26272225
30	0xbe9dd5b9	-0.3082712
31	0x3e7c1964	0.24619061
32	0x3ed7dedf	0.42162225
33	0x3e48d4ce	0.19612429
34	0xbdd5acf3	-0.10433378
35	0x3ce05a87	0.027386917
36	0x3dda1071	0.10647667
37	0x3e43584d	0.19076653
38	0xbe6168da	-0.22012654
39	0xbcc06016	-0.023483317
40	0x3d32ac76	0.043621503
41	0x3e06efa2	0.1317735
42	0xbf3bd67e	-0.73374164
43	0x3ed9c4cf	0.42532966
44	0x3ed8a7b3	0.42315444
45	0x3e5f9633	0.2183464
46	0x3f248119	0.6425949
47	0xbce41780	-0.027843237
48	0xbd30d95e	-0.043176048
49	0x3d800e32	0.062527075
50	0xbf3382b1	-0.70121294
51	0x3e7ce4a0	0.24696589
52	0x3ee63e01	0.4496918
53	0xbe5ce3a3	-0.21571212
54	0x3f016124	0.5053885
55	0xbd457f9d	-0.048217405
56	0x3edb04d1	0.42777112
57	0xbd6a43ca	-0.057193555
58	0xbdf37f16	-0.11889474
59	0xbd85c87d	-0.06532381
60	0x3de45f17	0.111509494
61	0xbe2ba70f	-0.16762947
62	0x3e97c3a3	0.29641446
63	0x3e48b2e6	0.19599494
64	0x3e2b1f60	0.16711187
65	0xbc1e656c	-0.009667736
66	0x3daa6c26	0.08321409
67	0xbe923e61	-0.28563216
68	0xbf0c1f34	-0.5473511
69	0xbdabc1b4	-0.08386555
70	0x3e1bcc9c	0.15214771
71	0x3d6bf926	0.057610653
72	0xbd874ce9	-0.06606466
73	0x3e684662	0.22683099
74	0xbf3d0375	-0.738334
75	0x3db7cb7e	0.0897436
76	0xbde14cf4	-0.11001006
77	0xbe08e375	-0.13368018
78	0x3e939a64	0.28828728
79	0xbd2a5908	-0.041588813
80	0xbd666d1b	-0.056256395
81	0xbe889bb4	-0.26681292
82	0x3c2e376e	0.010633333
83	0x3df58c58	0.11989659
84	0xbe85e97b	-0.26154694
85	0x3ec01069	0.3751252
86	0xbf2c66c4	-0.6734431
87	0xbe61d908	-0.22055447
88	0xbeb01961	-0.34394363
89	0xbd57afca	-0.05265788
90	0x3e61cff1	0.2205198
91	0xbe84cb68	-0.25936437
92	0xbd0e4047	-0.03472927
93	0xbe227f9c	-0.15868992
94	0xbf10bbb3	-0.56536406
95	0x3e27b8ce	0.16379091
96	0x3ebb7123	0.36609754
97	0x3e921177	0.2852895
98	0xbccab17e	-0.024742838
99	0xbc47bd19	-0.0121910805
100	0xbd6c6de9	-0.057722006
101	0x3e8adff6	0.27123994
102	0x3e4556fb	0.19271462
103	0x3e4dd973	0.20102482
104	0xbf4ee51f	-0.8081836
105	0xbcb8bb86	-0.022550356
106	0xbcef1e43	-0.029189235
107	0x3e055249	0.1301967
108	0xbe8e2dba	-0.27769262
109	0xbd9b6c30	-0.075889945
110	0x3ebffd5b	0.37497982
111	0xbdf28bbf	-0.11843061
112	0x3eef51d0	0.46742105
113	0x3ebd92b0	0.37025976
114	0xbd9d482f	-0.076797836
115	0xbd2cf5d3	-0.042226624
116	0xbe88f0e2	-0.2674628
117	0xbd00ae4f	-0.031416234
118	0xbd77597a	-0.060388066
119	0x3e274aac	0.16337079
120	0x3de380fe	0.11108588
121	0xbcf45ef6	-0.029830437
122	0x3f38121c	0.7190263
123	0x3d310f3a	0.04322741
124	0x3e99dae8	0.30049825
125	0x3d3ff6fa	0.046866395
126	0x3e6176c6	0.22017965
127	0x3eb0dd75	0.34543958
128	0xbd1ced41	-0.0383122
129	0xbe94072b	-0.2891172
130	0xbf048427	-0.5176415
131	0xbcd40d83	-0.02588535
132	0xbdeb2043	-0.11480763
133	0xbe36eee0	-0.17864561
134	0xbe13af6f	-0.14422391
135	0x3f2d0866	0.6759094
136	0xbd8d3fbf	-0.06896924
137	0x3d8d96c3	0.06913521
138	0x3f24676c	0.6422031
139	0x3ea68a3a	0.32527333
140	0xbe3caeab	-0.18426006
141	0xbe120927	-0.14261304
142	0xbeba0f78	-0.36339927
143	0x3e824f01	0.254509
144	0x3e3b6064	0.18298489
145	0xbddb7560	-0.10715747
146	0xbf1e4cf5	-0.6183618
147	0xbe71fcb5	-0.23631556
148	0x3f0abc9d	0.5419405
149	0xbd28670e	-0.041113906
150	0x3ef5f154	0.4803568
151	0x3dc95d2e	0.09832226
152	0x3d6e67e5	0.05820455
153	0x3eb1a31a	0.3469475
154	0xbe60bb19	-0.21946372
155	0x3e1eca99	0.15506972
156	0x3ec1102e	0.37707657
157	0xbe16da3b	-0.14731686
158	0x3edfc95d	0.43708315
159	0xba9407ea	-0.0011293862
160	0xbedda6ad	-0.43291226
161	0xbc10571e	-0.008809833
162	0xbe33ae97	-0.1754707
163	0x3f0a0e6a	0.53928244
164	0xbd46c093	-0.048523497
165	0xbf17c20c	-0.5928047
166	0x3e9b3d22	0.30320078
167	0x3d580a79	0.052744363
168	0x3e95897e	0.2920646
169	0x3d4aaad3	0.049479317
170	0x3ee029a7	0.43781778
171	0xbd89bead	-0.06725822
172	0x3dba5e01	0.09099961
173	0xbd9e4894	-0.07728687
174	0xbdfa5de0	-0.122249365
175	0xbe1c898d	-0.15286846
176	0xbe16b415	-0.14717133
177	0xbeb398b6	-0.35077447
178	0x3df717f1	0.12065113
179	0x3e013d21	0.12620975
180	0x3d9dc288	0.077031195
181	0xbef3b916	-0.47602147
182	0xbd514dde	-0.05109965
183	0xbe26eb2f	-0.16300653
184	0xbefcd8ef	-0.49384257
185	0xbd6270ad	-0.055283237
186	0xbdac2618	-0.08405703
187	0x3dd20bf3	0.102561854
188	0xbdb8a737	-0.09016269
189	0x3f0ad2d8	0.5422797
190	0xbe5c07dc	-0.21487373
191	0xbe931c59	-0.28732565
192	0x3d8c957b	0.06864449
193	0x3da0ebbd	0.078574635
194	0x3e07880b	0.1323549
195	0xbefbb9c9	-0.4916518
196	0xbbf9a79f	-0.007618859
197	0x3ec7bcad	0.39011136
198	0xbe4906d4	-0.19631511
199	0x3edc724a	0.43055946
200	0x3e1c4804	0.15261847
201	0x3e3183a5	0.17335375
202	0x3e4b4170	0.19849181
203	0x3dc9cb69	0.098532505
204	0x3e106d7f	0.1410427
205	0x3cbbb583	0.0229137
206	0xbdf37d65	-0.118891515
207	0xbe54fb31	-0.20798947
208	0xbed50fc8	-0.41613603
209	0x3ba5fd14	0.0050655697
210	0x3e5618db	0.20907919
211	0x3ebc8aac	0.36824548
212	0xbd0a216e	-0.033723287
213	0xbf070190	-0.5273676
214	0x3e8e5002	0.27795416
215	0x3e3a92fc	0.18220133
216	0x3e05681d	0.13027997
217	0x3e05ffe7	0.130859
218	0xbee39294	-0.44447768
219	0xbe0a29d2	-0.13492516
220	0xbe657204	-0.22406775
221	0xbcd2064e	-0.025637772
222	0x3df9cbab	0.1219705
223	0xbec13b5d	-0.37740603
224	0xbdd8ca94	-0.10585514
225	0x3dffc95a	0.12489577
226	0x3d954b7a	0.07289787
227	0xbd2ac04a	-0.041687287
228	0xbf2c9de6	-0.67428434
229	0xbec130fd	-0.37732688
230	0x3d92929b	0.07156869
231	0x3d655b59	0.05599532
232	0x3f0ace3c	0.5422094
233	0x3d47a7e9	0.048744116
234	0x3f0f4695	0.55967075
235	0xbed49c35	-0.41525427
236	0x3da4c611	0.08045591
237	0xbe0b203f	-0.1358652
238	0xbcb12adb	-0.02162688
239	0xbe1e909e	-0.15484855
240	0xbe947b22	-0.29000193
241	0xbedcd11e	-0.43128294
242	0x3e59fd14	0.21287948
243	0x3de5d680	0.11222553
244	0xbdcc1c5b	-0.09966346
245	0x3f02dcea	0.5111834
246	0xbdf03a49	-0.11729867
247	0xbc8b9c2f	-0.017042248
248	0x3eeb84b8	0.45999694
249	0xbd268f65	-0.040664095
250	0xbe62248a	-0.22084251
251	0x3e8f8233	0.28029022
252	0x3d5b3320	0.053515553
253	0x3de1e5b5	0.11030141
254	0xbea47c1e	-0.32125944
255	0xbed10d6f	-0.40830562

advantage_stream.2.bias f4 [4]
0	0xbcf30bc9	-0.029668706
1	0xbd9c75ed	-0.0763968
2	0xbdd29b87	-0.10283571
3	0xbd2abbea	-0.041683115
