models/snake_dqn_ep252_score6_20250303_093911.pt (torch, 710050 bytes, 44 tensors)

feature_layers.0.weight f4 [128, 24]
-0.2625586 0.22752577 -0.22139283 0.13295305 0.53625554 -0.71721095 -0.1553201 -0.32316658
-0.09088192 -0.12543209 -0.043483827 -0.28611514 0.36885077 -0.07347232 -0.31672978 0.46827942
-0.41515732 0.7207126 0.49329135 -0.4462839 0.54724944 -0.118052624 0.4172495 0.22461843
-0.066932485 0.0628592 -0.102043465 -0.2825624 -0.34260136 -0.41548482 0.34759775 -0.14607342
-0.28022084 0.07953986 0.005270086 0.62155783 0.09825468 0.22639933 0.01745918 -0.009712311
0.1795032 0.6922494 0.071403734 -0.0017187917 -0.024761938 0.05062306 0.59761703 -0.092982754
-0.09958157 -0.35407078 0.06048188 -0.20235004 -0.118718825 -0.33273 0.19437498 0.2837899
-0.20480786 -0.3691212 -0.10864653 -0.5140992 0.054160047 -0.314299 0.3891513 0.09438306
-0.47520682 -0.124071255 -0.36913097 -0.22278027 -0.15045366 0.075480655 0.49964234 0.059306104
0.11191456 0.334012 0.81524366 0.4698783 0.16185533 0.31466302 0.09266679 0.24162129
0.23100264 0.25686935 0.105053954 0.8097024 0.28005326 0.1241788 -0.6322494 0.32598683
-0.0004944828 0.106026724 0.11060129 -0.43062693 0.42902485 -0.19043116 0.5711851 -0.19140074
-0.04477327 0.81292677 -0.15487194 -0.2909058 0.2718454 0.17522788 -0.4645172 -0.04554833
-0.23558527 0.4359564 0.21328185 0.16996188 -0.43850702 -0.4569607 -0.3856772 -0.10087723
-0.56434244 0.3378419 0.5765346 0.33932528 0.46221954 0.19612603 -0.041930057 -0.16347598
-0.01442703 0.073887944 -0.18086919 0.16538297 -0.13222845 0.24833353 -0.061132338 -0.026123254
0.22368415 0.09780317 -0.218797 -0.13803263 -0.4226651 -0.08927262 -0.31055564 0.7072648
-0.43053028 0.19386387 -0.17778154 0.13782711 0.42778027 -0.19588389 0.35191 -0.13003005
-0.21759525 -0.015143236 -0.29345375 -0.2545536 0.16996698 0.40780044 -0.51069474 0.05868232
0.22657414 0.13406558 -0.06589438 0.0356609 0.28122988 -0.0025026298 -0.29867023 -0.038966514
-0.21855384 -0.11459186 -0.38202238 0.29417792 0.065991364 0.5393069 -0.52582824 0.37969863
-0.038132362 -0.028817462 -0.08210285 -0.05256381 -0.27721405 -0.22092195 0.3540149 0.24656393
0.43213373 -0.11594242 -0.022117961 0.22764842 -0.09809508 -0.21980903 -0.38874495 0.2118974
0.4149164 0.19256146 0.041913584 -0.13271119 0.2034001 -0.022957798 0.3310325 0.5748625
-0.05625875 -0.15697819 -0.23861952 0.26914397 -0.055870764 0.015581272 -0.12138025 -0.072670035
-0.193275 0.15702139 0.1083597 0.4561381 -0.22114468 0.20252869 -0.19366941 0.04376992
0.14656962 0.2805798 -0.14800379 -0.37895265 -0.57505834 0.45684355 -0.100599684 0.17982781
0.37076446 -0.096996866 -0.0074326703 0.19091217 0.24407506 -0.23185289 0.16290338 -0.15443802
-0.45911434 -0.26168194 0.47790453 -0.2201168 -0.09596366 0.20744546 -0.29804978 -0.21556684
-0.14440389 -0.5023129 0.0403786 -0.0761861 -0.19249913 0.43749696 -0.36593673 -0.014884897
0.22635543 0.17562169 0.14641131 -0.22789933 -0.1687513 0.018004892 -0.061399534 -0.23986676
0.027839685 0.32789242 -0.22249934 0.51233613 -0.48956418 -0.053257663 -0.29237154 -0.18745178
00000000: 156e 86be 84fc 683e cdb4 62be d824 083e
00000010: 0b48 093f 239b 37bf 3b0c 1fbe 1776 a5be
00000020: 4d20 babd 4571 00be 191c 32bd af7d 92be
00000030: 02da bc3e a878 96bd 682a a2be 52c2 ef3e
00000040: 808f d4be 9f80 383f af90 fc3e 537f e4be
00000050: 8a18 0c3f 93c5 f1bd baa1 d53e 6002 663e
00000060: e613 89bd 53bc 803d 2afc d0bd 05ac 90be
00000070: 7269 afbe 6dba d4be 55f8 b13e 4594 15be
00000080: 1b79 8fbe cbe5 a23d b0b0 ac3b 6a1e 1f3f
00000090: c039 c93d 3ad5 673e 8e06 8f3c 6320 1fbc
000000a0: b0cf 373e 4237 313f 1f3c 923d 1449 e1ba
000000b0: 8cd9 cabc 205a 4f3d 6efd 183f be6d bebd
000000c0: 6cf1 cbbd c448 b5be d9bb 773d d934 4fbe
000000d0: db22 f3bd 965b aabe 3c0a 473e e94c 913e
000000e0: 27b9 51be 74fd bcbe 1282 debd 019c 03bf
000000f0: edd6 5d3d cceb a0be d73e c73e e84b c13d
00000100: 4f4e f3be 1219 febd bcfe bcbe 8320 64be
00000110: 8610 1abe 9a95 9a3d 1fd1 ff3e f5ea 723d
00000120: 7633 e53d 9f03 ab3e cfb3 503f e393 f03e
00000130: 67bd 253e 831b a13e 16c8 bd3d 926b 773e
00000140: f58b 6c3e 6184 833e 8726 d73d a848 4f3f
00000150: 2463 8f3e 7451 fe3d 19db 21bf bfe7 a63e
00000160: 2ea0 01ba 8a24 d93d ee82 e23d 227b dcbe
00000170: 25a9 db3e 6300 43be 3039 123f 8efe 43be
00000180: 2d64 37bd f81b 503f c096 1ebe 9bf1 94be
00000190: 522f 8b3e f06e 333e 33d5 edbe e390 3abd
000001a0: 443d 71be ad35 df3e 8f66 5a3e 7d0a 2e3e
000001b0: fe83 e0be c1f6 e9be 7b77 c5be b998 cebd
000001c0: bf78 10bf 9df9 ac3e c697 133f 0bbc ad3e
000001d0: 0aa8 ec3e 43d5 483e dabe 2bbd 3f66 27be
000001e0: 5a5f 6cbc 9052 973d c635 39be 275a 293e
000001f0: e566 07be 254b 7e3e e765 7abd 6f00 d6bc
00000200: 750d 653e 074d c83d 520c 60be 6d58 0dbe
00000210: 8f67 d8be 90d4 b6bd 2601 9fbe 4e0f 353f
00000220: 776e dcbe 4084 463e 5d0c 36be 8d22 0d3e
00000230: 0406 db3e c995 48be 8c2d b43e 9926 05be
00000240: 4ad1 5ebe 561b 78bc 923f 96be d954 82be
00000250: d30b 2e3e 38cb d03e e4bc 02bf df5c 703d
00000260: 0d03 683e 7d48 093e a2f3 86bd 2a11 123d
00000270: 5dfd 8f3e 2903 24bb 4eeb 98be 5a9b 1fbd
00000280: 94cc 5fbe 23af eabd 7098 c3be 7d9e 963e
00000290: 7b26 873d 0410 0a3f ae9c 06bf dc67 c23e
000002a0: ae30 1cbd 9912 ecbc 8a25 a8bd 264d 57bd
000002b0: 00ef 8dbe 5d39 62be 7141 b53e 417b 7c3e
000002c0: a240 dd3e 3873 edbd ba30 b5bc ab1c 693e
000002d0: 13e6 c8bd 9e15 61be 9409 c7be a2fb 583e
000002e0: ec6f d43e d52e 453e 94ad 2b3d 71e5 07be
000002f0: 1e48 503e fe11 bcbc 187d a93e 302a 133f
00000300: 936f 66bd e4be 20be ad58 74be 3dcd 893e
00000310: bed8 64bd 9748 7f3c 3596 f8bd 07d4 94bd
00000320: e2e9 45be 37ca 203e b1eb dd3d ef8a e93e
00000330: c073 62be ae63 4f3e 4651 46be 1648 333d
00000340: 5916 163e 28a8 8f3e 4e8e 17be 1506 c2be
00000350: 0637 13bf 66e7 e93e 3507 cebd c824 383e
00000360: d7d4 bd3e 4ba6 c6bd c28d f3bb 7b7e 433e
00000370: d0ee 793e d86a 6dbe 25d0 263e 0025 1ebe
00000380: 0911 ebbe 2dfb 85be e7af f43e 4c66 61be
00000390: 9888 c4bd 956c 543e fb99 98be 8ebd 5cbe
000003a0: 9dde 13be 9497 00bf 0864 253d 7507 9cbd
000003b0: 7e1e 45be 9aff df3e 0f5c bbbe c8df 73bc
000003c0: b8c9 673e 2cd6 333e d9ec 153e 715e 69be
000003d0: 24cd 2cbe ff7e 933c 147e 7bbd a29f 75be
000003e0: 0d10 e43c 84e1 a73e ded6 63be 7628 033f
000003f0: 28a8 fabe b524 5abd b9b1 95be 5cf3 3fbe

feature_layers.0.bias f4 [128]
-0.19813141 -0.1704682 0.018494988 0.18384175 0.14233884 -0.09593269 0.16306429 0.20686086
0.24057433 0.24833314 0.15765321 -0.08234011 0.29361838 0.044018243 -0.033581123 0.07516869
0.036485683 0.05194213 -0.088199966 -0.19007553 0.08392015 -0.10498948 0.26135695 -0.16469255
-0.1513782 0.0015797651 -0.084644325 0.10455375 0.12795807 0.316654 -0.094052404 -0.27942815
0.030914273 -0.05162477 0.03883521 0.131303 -0.052217986 -0.028549263 -0.23206043 0.2187243
0.05758592 -0.077690266 -0.23205931 0.30100653 -0.19620337 0.03553982 -0.2716554 -0.09474452
-0.18857424 -0.17481832 0.035908055 -0.0914142 -0.0141329365 0.034892138 0.06060641 -0.019881738
-0.15739787 -0.21023011 -0.04145435 0.23305108 -0.10966023 -0.057277814 -0.15578027 0.17434934
-0.07353815 -0.07408084 -0.061226096 0.24429582 0.06866338 0.20092352 -0.058112428 0.06873617
0.2397782 0.25577903 0.13835953 0.19466367 -0.15771544 0.14811707 -0.191154 -0.19230406
-0.21566784 -0.04250572 0.018442892 -0.18321708 0.016892876 0.23264574 -0.049015727 0.10808523
0.032928884 -0.2040279 -0.122329906 0.23919277 0.053424638 0.02072409 0.07218634 0.007089368
0.09293604 -0.17235254 -0.06380133 0.042622924 -0.10434372 0.22366263 0.13697639 -0.036659025
-0.078165345 -0.16383716 0.26908255 0.04632871 -0.008448679 -0.28399065 -0.073860586 -0.10741055
-0.11083197 -0.05925091 0.02415618 0.1581449 -0.28009075 -0.23408292 0.24976099 0.09482495
-0.23291716 0.14078674 -0.20754446 0.12037078 0.028472994 -0.12982354 -0.03445393 -0.040698882
00000000: f6e2 4abe 378f 2ebe cd82 973c 0341 3c3e
00000010: 46c1 113e 5c78 c4bd 53fa 263e 55d3 533e
00000020: 1e59 763e 0b4b 7e3e d86f 213e eea1 a8bd
00000030: 2655 963e 794c 343d 5c8c 09bd 0bf2 993d
00000040: 0372 153d 45c1 543d 2fa2 b4bd 29a3 42be
00000050: 54de ab3d b904 d7bd 94d0 853e 2aa5 28be
00000060: e302 1bbe 1f10 cf3a 015a adbd 4720 d63d
00000070: 7107 033e 7920 a23e 8c9e c0bd 3511 8fbe
00000080: ee3f fd3c 7f74 53bd ab11 1f3d 4b74 063e
00000090: 87e2 55bd 25e0 e9bc 40a1 6dbe 43f9 5f3e
000000a0: 37df 6b3d 131c 9fbd f5a0 6dbe 871d 9a3e
000000b0: 89e9 48be 3492 113d 6b16 8bbe 6a09 c2bd
000000c0: 9b19 41be 9303 33be 5314 133d 5e37 bbbd
000000d0: d58d 67bc 0feb 0e3d 6d3e 783d 07df a2bc
000000e0: e82c 21be 9046 57be 09cc 29bd f1a4 6e3e
000000f0: 8b95 e0bd 249c 6abd dd84 1fbe a288 323e
00000100: 2b9b 96bd b2b7 97bd 37c8 7abd af28 7a3e
00000110: 639f 8c3d e5be 4d3e 4c07 6ebd 8dc5 8c3d
00000120: 6b88 753e 78f5 823e 1fae 0d3e ea55 473e
00000130: 2880 21be 00ac 173e e0bd 43be 5beb 44be
00000140: 08d8 5cbe 7a1a 2ebd 8c15 973c 429d 3bbe
00000150: ee62 8a3c af3a 6e3e b7c4 48bd ca5b dd3d
00000160: 70e0 063d b1ec 50be 1a88 fabd f3ee 743e
00000170: cbd3 5a3d 91c5 a93c 6fd6 933d ee4d e83b
00000180: 4055 be3d 2f7d 30be 46aa 82bd 6095 2e3d
00000190: 29b2 d5bd d107 653e 8a43 0c3e c627 16bd
000001a0: 2715 a0bd eec4 27be 30c5 893e 2cc3 3d3d
000001b0: 546c 0abc 3967 91be 3844 97bd 10fa dbbd
000001c0: dffb e2bd 15b1 72bd 2ee3 c53c bdf0 213e
000001d0: 0e68 8fbe 6fb3 6fbe 58c1 7f3e 9533 c23d
000001e0: d681 6ebe 662a 103e 8986 54be f584 f63d
000001f0: 3240 e93c 76f0 04be 901f 0dbd dfb3 26bd

feature_layers.1.weight f4 [128, 128]
-0.09602963 0.09749922 0.09219013 -0.18296288 -0.023663543 -0.17103615 0.10450571 0.07354264
-0.0018834856 0.12066222 0.15012667 0.33855897 0.16564164 0.05435113 0.036014892 -0.15730487
0.28376245 0.06638687 0.09481008 -0.0554155 0.015338419 -0.27420628 0.05143816 -0.33028433
-0.008989718 -0.113397166 -0.05087486 0.1860943 0.108839266 -0.04006984 -0.039952148 -0.16198069
0.018381933 -0.01195834 -0.14304653 0.14283322 -0.1358612 -0.05638484 -0.018006284 0.12598102
-0.20366774 0.11086706 -0.2309276 -0.033217512 -0.08913662 -0.16268821 0.16216607 0.2453523
0.028460607 -0.29891902 -0.22647756 0.020266496 0.04609488 -0.0245962 0.20204392 -0.023665257
0.03258408 -0.0939662 -0.18711689 0.11017768 -0.04119601 0.06923113 -0.07203205 0.017552756
-0.12324796 -0.0366552 0.0013448903 0.08807066 0.12654112 0.043149296 -0.014609693 0.060125314
0.20342037 -8.058763e-06 0.038708817 0.23689115 -0.04798799 0.11617435 0.3357285 0.11879969
-0.16575463 -0.031771816 -0.023106078 0.0733308 -0.14790417 -0.05106606 0.122578636 -0.13364902
0.057967007 -0.33817282 0.19114624 0.02611147 -0.13492608 0.030468274 0.011647162 -0.017902477
-0.06800541 0.12865987 -0.20259842 0.10709195 -0.07041638 0.17140643 -0.067754835 -0.118483104
0.006010035 0.026025666 0.1962938 -0.02094249 -0.07429175 -0.12876023 0.32999516 -0.10284749
0.14890586 -0.12483869 0.11100669 0.1561135 -0.3062948 0.12042425 -0.011882653 0.1474235
0.073497534 -0.17670228 0.03290418 -0.054704178 0.08915281 -0.082045436 -0.034532696 -0.16431943
-0.057042502 0.15221803 0.093197495 -0.07773387 0.12881419 -0.0480658 -0.02681747 -0.0055900076
-0.11135595 0.08060631 0.095357485 -0.13099785 0.21112624 -0.102132685 -0.08381873 -0.08415278
0.09792235 0.07798194 -0.050744228 -0.090889215 -0.10083124 0.069879524 -0.09736195 0.0032117674
-0.05515332 0.20229046 -0.2288238 -0.18811819 0.018097239 0.047600646 -0.034125622 0.071756385
0.062080473 0.096658155 -0.14679658 -0.009017336 0.1322762 0.16619666 0.037677165 0.0821496
-0.049278904 -0.07828904 -0.17780513 0.039566733 -0.09410514 -0.25949013 0.09276554 0.076380126
0.0643937 -0.08135578 0.050116885 0.02561342 -0.17984772 0.15810288 0.255958 -0.07207628
0.07137969 -0.09165366 -0.22273299 0.15413009 0.08192288 -0.076942466 -0.1844763 0.18508933
0.26266545 -0.08929876 -0.13389708 -0.11641279 0.058328256 -0.01956749 -0.18608129 0.006406476
0.0859363 0.15460637 -0.035698626 0.2016439 -0.0674051 -0.011232383 -0.082709126 0.035694987
0.17692284 -0.034787603 -0.089135714 0.48622516 -0.16648512 -0.008916734 -0.13235262 0.123675615
-0.15798934 -0.13845274 -0.1731329 0.044302013 -0.15566134 0.15379615 -0.11361633 0.032989126
-0.0053416546 0.003644307 -0.07211551 -0.053459607 -0.058936972 0.18508048 -0.19709496 0.15252051
-0.24815825 -0.0979922 0.18093409 -0.023749268 -0.027160812 -0.039639156 -0.021606255 -0.0051999614
0.2391794 0.01036765 -0.20657244 -0.06962724 -0.09651184 -0.032964826 -0.019718057 0.08677999
-0.12747216 0.19409832 0.16177212 0.13948631 -0.015450464 0.016281351 -0.13471477 -0.08067691
00000000: 2fab c4bd acad c73d 2ece bc3d 9f5a 3bbe
00000010: 0cda c1bc 1a24 2fbe 1707 d63d 869d 963d
00000020: 4adf f6ba c11d f73d ceba 193e 9a57 ad3e
00000030: f69d 293e 4a9f 5e3d 5a84 133d 8714 21be
00000040: 5049 913e d7f5 873d ca2b c23d 5dfb 62bd
00000050: fe4d 7b3c c464 8cbe d2b0 523d 071b a9be
00000060: 9c49 13bc c63c e8bd 2862 50bd 818f 3e3e
00000070: 1fe7 de3d 4620 24bd dda4 23bd 44de 25be
00000080: b595 963c eaec 43bc ca7a 12be df42 123e
00000090: 331f 0bbe caf3 66bd ea81 93bc 2b01 013e
000000a0: 478e 50be 450e e33d 4978 6cbe 160f 08bd
000000b0: 438d b6bd bd97 26be dd0e 263e a23d 7b3e
000000c0: 3826 e93c ea0b 99be bce9 67be ec05 a63c
000000d0: fccd 3c3d f87d c9bc 9ae4 4e3e a4dd c1bc
000000e0: e276 053d 5a71 c0bd 929b 3fbe d6a4 e13d
000000f0: 26bd 28bd 0dc9 8d3d 8a85 93bd ccca 8f3c
00000100: 6d69 fcbd c323 16bd 0847 b03a 645e b43d
00000110: ff93 013e 51bd 303d 7e5d 6fbc f645 763d
00000120: 6e4d 503e 2034 07b7 238d 1e3d 9893 723e
00000130: 0e8f 44bd d1ec ed3d 9be4 ab3e 404d f33d
00000140: 95bb 29be 2a23 02bd f548 bdbc 752e 963d
00000150: 3174 17be a52a 51bd 820a fb3d 4adb 08be
00000160: d06e 6d3d fd24 adbe d7bb 433e b9e7 d53c
00000170: 102a 0abe 9a98 f93c bdd3 3e3c 37a8 92bc
00000180: 6c46 8bbd 6abf 033e f675 4fbe 0653 db3d
00000190: 7736 90bd 2b85 2f3e 0cc3 8abd 45a7 f2bd
000001a0: d4ef c43b c733 d53c 3e01 493e 968f abbc
000001b0: 4626 98bd b9d9 03be 20f5 a83e b4a1 d2bd
000001c0: c77a 183e 6dab ffbd 7a57 e33d 38dc 1f3e
000001d0: acd2 9cbe fda0 f63d 76af 42bc 30f6 163e
000001e0: e085 963d 71f1 34be 89c6 063d 7d11 60bd
000001f0: c095 b63d 7007 a8bd 2872 0dbd 5a43 28be
00000200: 66a5 69bd 0bdf 1b3e 54de be3d ef32 9fbd
00000210: dee7 033e a5e0 44bd 50b0 dbbc 622c b7bb
00000220: 970e e4bd ec14 a53d c94a c33d 4d24 06be
00000230: 7a31 583e f12a d1bd 28a9 abbd 4b58 acbd
00000240: 838b c83d ffb4 9f3d 2ed9 4fbd 2024 babd
00000250: 9c80 cebd ff1c 8f3d b465 c7bd 847c 523b
00000260: 73e8 61bd 3b25 4f3e c950 6abe 0ea2 40be
00000270: a940 943c e5f8 423d 4fc7 0bbd 03f5 923d
00000280: 1848 7e3d b6f4 c53d d851 16be 73bd 13bc
00000290: 6a73 073e 752f 2a3e 5f53 1a3d 0d3e a83d
000002a0: add8 49bd 0156 a0bd 8c12 36be ba10 223d
000002b0: 32ba c0bd e4db 84be dcfb bd3d 2f6d 9c3d
000002c0: d8e0 833d dc9d a6bd 5d47 4d3d 3cd3 d13c
000002d0: 002a 38be b9e5 213e ed0c 833e bb9c 93bd
000002e0: 842f 923d eab4 bbbd 1e14 64be 47d4 1d3e
000002f0: 2fc7 a73d 0394 9dbd 5be7 3cbe 0f88 3d3e
00000300: 167c 863e 45e2 b6bd 511c 09be d469 eebd
00000310: 9ce9 6e3d 004c a0bc 188c 3ebe 6aed d13b
00000320: 5fff af3d 2251 1e3e b938 12bd bd7b 4e3e
00000330: af0b 8abd 0708 38bc 6763 a9bd e834 123d
00000340: 432b 353e 727d 0ebd c98c b6bd 81f2 f83e
00000350: 137b 2abe 7e17 12bc 7287 07be a449 fd3d
00000360: f5c7 21be 8ec6 0dbe c049 31be 0776 353d
00000370: b065 1fbe bd7c 1d3e aeaf e8bd 9b1f 073d
00000380: 0c09 afbb 53d5 6e3b 4cb1 93bd 76f8 5abd
00000390: e567 71bd bd85 3d3e 43d3 49be 562e 1c3e
000003a0: 321d 7ebe 22b0 c8bd c946 393e d38d c2bc
000003b0: 5a80 debc ab5c 22bd 9aff b0bc 7064 aabb
000003c0: 72eb 743e 13dd 293c ba87 53be ba98 8ebd
000003d0: 00a8 c5bd 2006 07bd c387 a1bc b5b9 b13d
000003e0: 1088 02be b6c1 463e 97a7 253e 80d5 0e3e
000003f0: f123 7dbc 7860 853c abf2 09be f039 a5bd

feature_layers.1.bias f4 [128]
-0.019286852 0.006568224 0.050199628 -0.042420525 -0.1282448 -0.040309742 0.015948035 -0.089693576
0.09537461 -0.13655658 0.0017750036 0.09822148 0.025950167 0.024707744 0.12706 -0.08510852
0.03825625 -0.123211324 0.12912138 0.05783049 -0.018808773 -0.020731958 0.0562016 -0.10763026
0.016247602 0.0048542833 -0.033264518 -0.017968956 -0.031244691 0.023539774 -0.036923993 0.046819765
0.03280014 0.022075411 0.06605287 -0.012221187 0.035554115 0.13096929 0.12836063 -0.068664365
0.034902472 0.058345053 -0.024444949 0.059855692 0.07854456 -0.07777905 0.012882858 0.10397236
0.0981887 0.04471266 0.010204982 -0.024827838 0.0651148 -0.076580875 -3.780496e-05 -0.026938543
0.040646784 -0.014166733 0.019360926 -0.099372014 0.08995986 -0.0206414 -0.08938151 0.0033498
0.1515974 0.038749054 0.1164998 -0.096808665 0.07947968 0.08608626 0.06824212 0.010659036
-0.054086313 0.123604886 -0.053749003 -0.04248054 0.04964863 0.002727952 -0.06365929 -0.10517557
0.047052797 0.04925802 -0.1188821 -0.029863488 0.023565663 -0.12510675 -0.11788993 -0.10284122
-0.12696713 0.11947672 0.020594995 0.031509843 0.046854947 0.04518327 0.022843938 -0.06707619
-0.19490777 0.09706911 -0.04570675 -0.07521158 -0.050177068 -0.078991085 -0.07400249 0.040924687
-0.102687724 -0.04908503 -0.09172765 -0.024281275 -0.021347519 -0.015738368 -0.03529517 -0.13170733
0.14169182 0.040869765 0.036044683 0.050369594 0.010341657 0.10157826 -0.10893773 0.012419789
-0.015287402 0.09885308 -0.10874297 -0.029063001 0.09695078 -0.032694392 0.0023905695 0.00017395263
00000000: 76ff 9dbc 423a d73b 209e 4d3d 25c1 2dbd
00000010: 9b52 03be d41b 25bd 74a5 823c 44b1 b7bd
00000020: c353 c33d 7dd5 0bbe 3da7 e83a 5828 c93d
00000030: 7295 d43c e567 ca3c 041c 023e 604d aebd
00000040: 96b2 1c3d 3856 fcbd 6538 043e aadf 6c3d
00000050: db14 9abc 11d6 a9bc a633 663d 416d dcbd
00000060: b119 853c ae10 9f3b 6040 08bd a233 93bc
00000070: def4 ffbc 7cd6 c03c 9d3d 17bd 15c6 3f3d
00000080: 7159 063d 7ed7 b43c ba46 873d 603b 48bc
00000090: 31a1 113d d01c 063e f870 033e e79f 8cbd
000000a0: e5f5 0e3d 39fb 6e3d c640 c8bc 3e2b 753d
000000b0: f8db a03d 9f4a 9fbd 9f12 533c 76ef d43d
000000c0: 2817 c93d 9f24 373d cc32 273c c063 cbbc
000000d0: e95a 853d 6fd6 9cbd c490 1eb8 38ae dcbc
000000e0: 3e7d 263d 961b 68bc ce9a 9e3c 8e83 cbbd
000000f0: e03c b83d 2718 a9bc a70d b7bd 5188 5b3b
00000100: 593c 1b3e 54b7 1e3d 7297 ee3d 9f43 c6bd
00000110: 3ec6 a23d fe4d b03d 86c2 8b3d 3da3 2e3c
00000120: 9c89 5dbd 8f24 fd3d ea27 5cbd 1300 2ebd
00000130: 5d5c 4b3d 71c7 323b cd5f 82bd 4a66 d7bd
00000140: 6fba 403d c7c2 493d 7578 f3bd 46a4 f4bc
00000150: c70c c13c fc1b 00be 4770 f1bd 6b9e d2bd
00000160: ac03 02be 36b0 f43d d6b6 a83c 7710 013d
00000170: f9ea 3f3d 1812 393d 3623 bb3c 3e5f 89bd
00000180: e795 47be 2bcc c63d 0037 3bbd 8708 9abd
00000190: 7886 4dbd 14c6 a1bd 9e8e 97bd a5a0 273d
000001a0: f14d d2bd 620d 49bd b5db bbbd 86e9 c6bc
000001b0: fee0 aebc c0ed 80bc ab91 10bd 49de 06be
000001c0: a917 113e 0e67 273d 97a3 133d 5950 4e3d
000001d0: 0e70 293c 4308 d03d bf1a dfbd 5f7c 4b3c
000001e0: 0378 7abc 7c73 ca3d a2b4 debd 8815 eebc
000001f0: 218e c63d 8eea 05bd 1aab 1c3b 0e67 3639

value_stream.0.weight f4 [64, 128]
0.09864235 -0.050610885 0.121812135 0.17537422 0.012952462 -0.0065036095 0.023867192 -0.13353084
-0.0025730338 0.17005332 -0.025711231 0.068636306 0.03956485 0.13001585 -0.018710276 -0.040918935
-0.06453887 -0.15545698 -0.19297387 -0.08018568 0.08370736 -0.006047451 0.03617066 0.013536789
0.05039072 0.37094498 0.031844705 -0.0019175737 0.016375603 0.045531537 -0.017184272 -0.15416062
0.059899554 0.123876974 -0.097637184 0.024068411 -0.19828722 -0.04847356 -0.15152733 -0.04168889
0.20906366 0.07781734 -0.12036395 0.083956756 0.0046393774 0.18024708 -0.039278205 -0.06866784
-0.15768163 -0.015043778 0.12992997 0.19179635 -0.05479997 0.16172753 0.35431427 -0.0052109533
0.045207083 0.05621323 0.2362534 -0.0089083705 -0.15078492 0.12076953 0.07677029 -0.20784163
-0.12412912 -0.020137735 -0.07978822 -0.085209236 -0.034116898 -0.10353727 -0.063357286 -0.17697173
0.020001795 -0.104858175 -0.1693514 -0.13796633 0.0485928 0.3828671 -0.19849941 0.27301982
-0.050880395 -0.25125816 -0.16966203 0.17576905 0.07932813 0.12137524 0.047665965 -0.1494527
0.1948633 -0.10810982 0.0049216724 0.043838803 -0.21869107 -0.07940639 -0.33948737 0.094626985
-0.107279025 0.048611093 0.18100227 0.34993458 0.08947204 0.29156607 0.043224737 0.031016868
0.38950372 0.30359304 0.063458584 0.17991443 -0.09017663 0.24044192 -0.07591155 0.0072962167
0.17377481 -0.08229647 -0.25693545 0.14984532 0.08255121 0.18577114 0.16406108 0.3183715
0.20615394 0.12092633 0.0066533796 -0.13631214 -0.020206476 -0.03097708 -0.2780958 -0.10566955
-0.040767048 -0.21701016 0.19619541 0.014783651 -0.22837281 0.15633897 -0.17346029 0.12548196
0.09243 0.027440365 0.088637434 0.049073726 -0.18247573 -0.24601023 -0.12785232 -0.12292262
-0.12532859 -0.02400537 0.029984834 -0.058761537 0.08837798 -0.015632018 -0.16836956 0.00089935673
-0.1582313 -0.024261557 -0.21118997 -0.16558534 0.3197554 0.08714159 0.24765216 -0.1001165
-0.12996568 0.09763229 0.023841243 0.13982742 -0.18716086 -0.07737285 -0.1441941 0.18640293
0.0031812715 -0.10534954 0.1715914 -0.10886917 -0.20291899 0.110602275 0.001599106 -0.14993793
-0.052350786 -0.07100621 -0.026403006 0.08680347 -0.045056883 -0.010407261 -0.0066699446 0.27318913
0.06677896 -0.05764548 -0.18751928 0.065313466 0.22366245 0.10967497 0.04182937 -0.08668012
0.014528476 -0.022345617 0.17082183 -0.016918909 0.0032412854 -0.15063812 0.060218696 0.21890628
0.13491483 0.022508254 -0.0176808 0.08222364 -0.057779472 -0.024167553 0.11705503 0.028503673
-0.093268424 -0.39236993 0.24319491 -0.15616226 -0.34110555 -0.25147274 -0.22166853 0.15588945
0.0860322 -0.3278104 0.03220592 0.05366787 -0.23852968 -0.011861034 -0.096766725 -0.2841808
0.27909437 -0.04200852 0.19742467 0.06349268 -0.12967262 0.046028376 -0.06670381 0.09204186
-0.03676108 0.19216892 -0.0030417072 0.1947217 0.047158055 -0.03070504 0.007867205 -0.016576674
0.06941939 0.034476724 0.091930114 -0.09655603 -0.23509908 -0.07607934 -0.012685945 0.06991909
-0.18389365 -0.03822649 -0.101221286 0.13231996 0.043595303 0.11543856 -0.26106825 -0.0130423065
00000000: 0005 ca3d 5c4d 4fbd a478 f93d 4d95 333e
00000010: 9036 543c 3b1c d5bb 2185 c33c 4fbc 08be
00000020: 58a0 28bb 7522 2e3e 5ca0 d2bc 3191 8c3d
00000030: c10e 223d e022 053e 4b46 99bc 9d9a 27bd
00000040: f42c 84bd 1d30 1fbe f19a 45be 6438 a4bd
00000050: c46e ab3d b229 c6bb b027 143d 69c9 5d3c
00000060: 8066 4e3d 80ec bd3e 986f 023d 1957 fbba
00000070: 2126 863c 477f 3a3d 08c6 8cbc 48dc 1dbe
00000080: 3c59 753d 36b3 fd3d 01f6 c7bd 1e2b c53c
00000090: ce0b 4bbe 368c 46bd fb29 1bbe f8c1 2abd
000000a0: c914 563e b35e 9f3d 6081 f6bd 85f1 ab3d
000000b0: eb05 983b b192 383e 2fe2 20bd b9a1 8cbd
000000c0: 4b77 21be 2e7a 76bc 5d0c 053e 4366 443e
000000d0: ef75 60bd e79b 253e ae68 b53e a5c0 aabb
000000e0: 102b 393d d83f 663d 69ec 713e 6af4 11bc
000000f0: 5d67 1abe 0456 f73d be39 9d3d 70d4 54be
00000100: 6837 febd e4f7 a4bc 0268 a3bd 2e82 aebd
00000110: 29be 0bbd 590b d4bd 77c1 81bd 1438 35be
00000120: ceda a33c e2bf d6bd 746a 2dbe 0c47 0dbe
00000130: 3e09 473d 2807 c43e 6e43 4bbe 41c9 8b3e
00000140: f667 50bd e9a4 80be e2bb 2dbe cdfc 333e
00000150: c976 a23d 9593 f83d 633d 433d 210a 19be
00000160: 3f8a 473e ae68 ddbd fb45 a13b 5190 333d
00000170: 8df0 5fbe d19f a2bd 4ad1 adbe cbcb c13d
00000180: 1bb5 dbbd 6d1c 473d a958 393e a02a b33e
00000190: 1e3d b73d 2648 953e 6c0c 313d 1617 fe3c
000001a0: 086d c73e 8c70 9b3e 93f6 813d 7d3b 383e
000001b0: 86ae b8bd 6836 763e 8477 9bbd 1a15 ef3b
000001c0: 06f2 313e 0d8b a8bd 0b8d 83be 0d71 193e
000001d0: 9c10 a93d ca3a 3e3e a1ff 273e 9701 a33e
000001e0: 051a 533e 39a8 f73d 9804 da3b 6995 0bbe
000001f0: 0d88 a5bc a5c3 fdbc 9362 8ebe 4769 d8bd
00000200: 59fb 26bd e937 5ebe 73e7 483e 2037 723c
00000210: 90da 69be 5317 203e 939f 31be 587e 003e
00000220: f14b bd3d 9eca e03c 8b87 b53d 8801 493d
00000230: ebda 3abe 1bea 7bbe b8eb 02be dbbe fbbd
00000240: 2356 00be e9a6 c4bc c1a2 f53c f0af 70bd
00000250: 84ff b43d b80e 80bc 1269 2cbe cfc2 6b3a
00000260: 6307 22be 2cc0 c6bc 2f42 58be 348f 29be
00000270: fbb6 a33e 4a77 b23d 8798 7d3e e109 cdbd
00000280: b915 05be 70f3 c73d b64e c33c eb2e 0f3e
00000290: 19a7 3fbe a875 9ebd 9ea7 13be 69e0 3e3e
000002a0: e17c 503b 80c1 d7bd a8b5 2f3e cdf6 debd
000002b0: ffc9 4fbe 7283 e23d 1899 d13a 5489 19be
000002c0: c76d 56bd b46b 91bd 1e4b d8bc 05c6 b13d
000002d0: 918d 38bd 3783 2abc 8d8f dabb 72df 8b3e
000002e0: 68c3 883d ab1d 6cbd 0e05 40be 11c3 853d
000002f0: c507 653e 459d e03d 4655 2b3d 5985 b1bd
00000300: d808 6e3c 280e b7bc ebeb 2e3e 8699 8abc
00000310: bf6b 543b e140 1abe e1a7 763d f828 603e
00000320: 1d27 0a3e 3b63 b83c 53d7 90bc de64 a83d
00000330: 2baa 6cbd 08fb c5bc 8cba ef3d 8980 e93c
00000340: 8403 bfbd b6e4 c8be 1608 793e 00e9 1fbe
00000350: 63a5 aebe 09c1 80be 13fd 62be 7ca1 1f3e
00000360: a631 b03d c4d6 a7be 5bea 033d d7d2 5b3d
00000370: 2041 74be c854 42bc a22d c6bd 2580 91be
00000380: 75e5 8e3e 2011 2cbd b129 4a3e 7308 823d
00000390: e6c8 04be 4088 3c3d 029c 88bd 7180 bc3d
000003a0: c992 16bd eec7 443e 6157 47bb 2065 473e
000003b0: ce28 413d 2389 fbbc 73e5 003c cecb 87bc
000003c0: c12b 8e3d 7737 0d3d db45 bc3d 2bbf c5bd
000003d0: d0bd 70be 7ccf 9bbd b6d8 4fbc bd31 8f3d
000003e0: 9e4e 3cbe 6193 1cbd 1b4d cfbd e27e 073e
000003f0: fd90 323d 0d6b ec3d bdaa 85be 66af 55bc

value_stream.0.bias f4 [64]
-0.108649135 -0.04169998 0.014242311 -0.048841614 0.0921105 0.004450454 -0.07686278 0.030922115
0.014112672 -0.038026027 0.033559296 0.05962407 0.07244197 -0.033389423 0.109604925 0.03301479
-0.025227226 -0.11162283 -0.07547037 0.11914957 0.078160144 -0.06612409 0.03740205 0.07937043
-0.039841574 -0.10340321 -0.011527569 0.042378858 0.016846173 -0.034033936 -0.019379767 0.0053237374
0.13519979 0.0037000233 0.16019322 -0.1333477 0.009422842 0.02435594 -0.10396744 -0.010766022
-0.11745403 0.018819798 0.063662544 0.04795933 0.049172428 0.038712878 0.042834062 0.12011852
0.039592262 0.03722744 -0.033248067 0.020866573 0.010878231 -0.07586954 0.07928675 -0.12007025
-0.11798763 -0.023609275 0.010790579 0.02860527 0.11223805 0.064438775 -0.024379743 0.062267303
00000000: 7083 debd 99cd 2abd 9558 693c 250e 48bd
00000010: 6ea4 bc3d 1dd5 913b 3c6a 9dbd 6050 fd3c
00000020: d638 673c 2ec1 1bbd 7975 093d 5e38 743d
00000030: 755c 943d 59c3 08bd 8c78 e03d 843a 073d
00000040: 54a9 cebc 839a e4bd 3690 9abd b104 f43d
00000050: 6d12 a03d 116c 87bd e432 193d f78c a23d
00000060: eb30 23bd 10c5 d3bd 21de 3cbc 7495 2d3d
00000070: fc00 8a3c 2b67 0bbd 51c2 9ebc bf72 ae3b
00000080: d071 0a3e 177c 723b b109 243e 4d8c 08be
00000090: 4462 1a3c 1c86 c73c e2ec d4bd f863 30bc
000000a0: bd8b f0bd fa2b 9a3c 8261 823d 0171 443d
000000b0: 0769 493d 6591 1e3d c572 2f3d b300 f63d
000000c0: 7f2b 223d cd7b 183d 202f 08bd 60f0 aa3c
000000d0: 9c3a 323c 7d61 9bbd 1761 a23d 64e7 f5bd
000000e0: 80a3 f1bd 3d68 c1bc f8ca 303c 9955 ea3c
000000f0: 10dd e53d 7af8 833d 07b8 c7bc 000c 7f3d

value_stream.2.weight f4 [1, 64]
-0.18118735 -0.32560328 -0.003572384 -0.17578441 0.087026976 -0.14269704 -0.026776277 -0.22900392
0.04553876 -0.016166847 0.059912007 0.12153706 0.3283793 -0.039253343 0.53011084 0.32448643
0.15841775 -0.07945411 -0.06561697 0.50309306 0.09548801 -0.2587738 0.17013149 0.13750769
-0.27968043 -0.048078656 0.10666691 0.32917273 -0.16155145 -0.19409393 -0.109218664 -0.113241315
0.14383925 -0.2041514 0.067069255 -0.11883601 -0.24225609 -0.003980861 -0.3890728 -0.20427804
-0.3563037 -0.16083719 0.39220253 0.29854524 0.3882715 -0.12828012 0.11689957 0.19365363
-0.105672486 -0.15105858 -0.25727886 0.2040751 0.1287658 -0.1988813 -0.2167033 -0.032786593
-0.13064447 0.06303401 0.08301228 0.17100547 0.37160912 0.3570657 -0.13667974 -0.1252998
00000000: 2d89 39be 79b5 a6be a81e 6abb d400 34be
00000010: 333b b23d 2c1f 12be ec59 dbbc 0180 6abe
00000020: da86 3a3d 5670 84bc 4b66 753d 6ce8 f83d
00000030: 5521 a83e 1dc8 20bd 58b5 073f 1623 a63e
00000040: 4338 223e d6b8 a2bd 3162 86bd b5ca 003f
00000050: 388f c33d 007e 84be f336 2e3e d1ce 0c3e
00000060: 4632 8fbe 20ee 44bd 2e74 da3d 5489 a83e
00000070: be6d 25be 8fc0 46be 09ae dfbd 10eb e7bd
00000080: 994a 133e 110d 51be 9b5b 893d 4b60 f3bd
00000090: fb11 78be e271 82bb 8d34 c7be 432e 51be
000000a0: 706d b6be 81b2 24be c5ce c83e ecda 983e
000000b0: 86cb c63e dd5b 03be 0b69 ef3d 234d 463e
000000c0: d16a d8bd 1aaf 1abe 0eba 83be 10f9 503e
000000d0: 2fdb 033e 8aa7 4bbe 78e7 5dbe 3c4b 06bd
000000e0: aac7 05be fa17 813d 5802 aa3d 0f1c 2f3e
000000f0: 8d43 be3e 51d1 b63e c6f5 0bbe 974e 00be

advantage_stream.0.weight f4 [64, 128]
0.07649298 -0.009306162 -0.10606295 -0.34660977 -0.30121538 -0.06213904 0.14097893 -0.11154269
0.051957257 -0.12522489 0.12806888 0.08953676 -0.27093655 -0.14213064 0.20283307 -0.030374158
0.018678663 0.051055994 0.1347464 0.17735223 -0.21749188 0.16002165 0.08681901 0.31044436
-0.105864994 0.044543084 0.053789563 0.15965696 -0.0021354312 -0.08717742 0.5509978 -0.009478636
-0.15176477 -0.31211504 -0.3136836 -0.12225947 -0.12459816 -0.17808416 0.12486547 -0.011230362
0.00828259 -0.14634505 -0.11230284 0.08759187 0.17059958 -0.07847419 -0.18085402 7.55784e-05
0.17163849 -0.10252221 0.09760885 0.20750216 -0.16563816 0.06661124 -0.08551267 0.08854774
-0.1316821 0.13492043 0.06764112 -0.1503022 -0.03583477 -0.111244895 0.009320099 -0.048401907
-0.080066904 0.06410027 -0.03602456 0.08343525 0.036958046 0.20063215 0.022291556 -0.124135636
-0.28448486 0.026519392 -0.01683825 0.24660952 -0.118815444 0.061906274 -0.17808779 0.027059145
-0.026819386 -0.16533892 0.103617586 -0.22040938 0.02057482 -0.10217619 0.101403855 -0.049072545
0.058769275 -0.100169055 0.002194467 -0.57848233 0.00474766 -0.044802945 -0.089601286 0.16227986
-0.024806175 -0.07993624 0.05977513 0.06549463 0.20200227 -0.111768685 0.1552852 0.07333899
0.09627439 -0.074253514 -0.05735703 -0.17505883 0.06237986 0.17721081 -0.34310436 0.28160837
0.072049476 -0.101944596 0.23012182 -0.082112454 0.12799397 -0.0581726 0.18819572 -0.031874575
0.21282084 0.14350252 0.21813412 -0.12535188 0.008651755 -0.008251794 -0.14572598 0.09238419
-0.094455786 -0.15584068 -0.061804913 -0.12749572 0.07683034 0.0414235 -0.08658685 0.037413977
-0.07050099 -0.0144241005 0.26825887 -0.0065559996 -0.059082594 -0.121067815 -0.19584833 0.25985473
-0.08854525 0.28409874 -0.029131617 0.020969156 -0.091396205 -0.078913376 0.060244616 0.28676066
-0.042966966 -0.18969505 0.022297509 0.35402223 -0.11164277 0.04511233 0.08973223 0.10766738
-0.050560553 0.062620655 -0.27864006 -0.036972065 -0.079713866 0.091586255 0.1891717 0.04496663
0.0025465891 0.016040439 -0.11612671 0.06532244 -0.0454412 0.12011286 -0.048949648 0.108640105
-0.16304341 -0.18333347 0.44317806 -0.06858163 -0.06984627 0.3008035 0.15533389 0.050027203
0.36325303 -0.13495216 0.14509802 -0.037862707 0.039184824 0.009445555 0.08975012 -0.19813938
-0.06349948 -0.04992992 0.013277969 -0.014011238 -0.15529695 0.06931519 -0.05669009 0.06870134
-0.06328528 0.05771412 0.41566762 0.10764463 0.005113653 0.1957203 -0.012396575 -0.07008517
0.014921485 0.15981494 0.13806087 -0.22466826 -0.20439304 0.23432241 -0.025238937 -0.49178147
0.020956432 -0.15212081 0.022809902 -0.23684676 -0.0031504335 -0.104665495 -0.12617345 -0.012690338
0.059003647 0.042748354 0.2232226 -0.23918347 0.1190868 -0.0695507 0.059875812 -0.10316768
-0.0014151334 -0.18439366 -0.08266689 0.23168388 0.10818044 -0.07329007 -0.05243058 0.74738073
-0.0035855137 -0.18458168 -0.046016824 -0.028181337 0.011586284 -0.0034443059 0.110231295 0.17759897
-0.11804218 0.10626634 0.006131213 0.01974843 0.0020572003 0.029385574 -0.13689743 0.13776764
00000000: 5aa8 9c3d df78 18bc 8837 d9bd d676 b1be
00000010: e738 9abe 8285 7ebd c85c 103e 7e70 e4bd
00000020: 22d1 543d f43a 00be 7d24 033e 0c5f b73d
00000030: 32b8 8abe b28a 11be 79b3 4f3e 3ad3 f8bc
00000040: ff03 993c 1720 513d f6fa 093e d39b 353e
00000050: 31b6 5ebe b7dc 233e 2ace b13d 90f2 9e3e
00000060: bfcf d8bd cf72 363d 7252 5c3d 1d7d 233e
00000070: 97f2 0bbb 138a b2bd 310e 0d3f 484c 1bbc
00000080: 3968 1bbe 8bcd 9fbe 239b a0be 2c63 fabd
00000090: 522d ffbd b25b 36be 78b9 ff3d 8dff 37bc
000000a0: b3b3 073c 7adb 15be 08ff e5bd 5e63 b33d
000000b0: a8b1 2e3e 13b7 a0bd cc31 39be d87f 9e38
000000c0: 00c2 2f3e 2af7 d1bd 26e7 c73d 727b 543e
000000d0: 0d9d 29be 796b 883d 4421 afbd 8458 b53d
000000e0: acd7 06be 9528 0a3e 6d87 8a3d d2e8 19be
000000f0: 7bc7 12bd 5dd4 e3bd 54b3 183c 1441 46bd
00000100: 1efa a3bd 0147 833d 7d8e 13bd 1ae0 aa3d
00000110: 5261 173d 8472 4d3e c89c b63c d33a febd
00000120: 00a8 91be 323f d93c 5ff0 89bc 3587 7c3e
00000130: 8355 f3bd 6f91 7d3d a55c 36be 24ab dd3c
00000140: 54b4 dbbc 9b4e 29be 7535 d43d ffb2 61be
00000150: 868c a83c c041 d1bd d3ac cf3d 4b00 49bd
00000160: 0db8 703d 6f25 cdbd 0cd1 0f3b 6b17 14bf
00000170: 4292 9b3b 4b83 37bd e180 b7bd b12c 263e
00000180: 5236 cbbc 9db5 a3bd c4d6 743d 0c22 863d
00000190: afd9 4e3e fbe6 e4bd 1503 1f3e c132 963d
000001a0: 822b c53d 3a12 98bd 35ef 6abd 9f42 33be
000001b0: 0682 7f3d c076 353e 60ab afbe f92e 903e
000001c0: ad8e 933d 54c8 d0bd 0ea5 6b3e 932a a8bd
000001d0: da10 033e 6446 6ebd 61b6 403e ea8e 02bd
000001e0: b5ed 593e 53f2 123e 8d5e 5f3e 3e5c 00be
000001f0: 17c0 0d3c 8832 07bc 3139 15be ec33 bd3d
00000200: 0972 c1bd b394 1fbe 2627 7dbd 3d8e 02be
00000210: 3a59 9d3d b0ab 293d 7254 b1bd 663f 193d
00000220: d362 90bd 1053 6cbc 3a59 893e b6d3 d6bb
00000230: 9700 72bd 67f2 f7bd 778c 48be ae0b 853e
00000240: 3657 b5bd 6475 913e 6ea5 eebc 82c7 ab3c
00000250: ef2d bbbd 569d a1bd 0fc3 763d 4bd2 923e
00000260: 21fe 2fbd 6b3f 42be 44a9 b63c 6742 b53e
00000270: f7a4 e4bd b5c7 383d 88c5 b73d b780 dc3d
00000280: 9518 4fbd 423f 803d e9a9 8ebe 0570 17bd
00000290: 0641 a3bd 9391 bb3d 3ab6 413e ee2e 383d
000002a0: ade4 263b 3d67 833c d7d3 edbd c5c7 853d
000002b0: 8d20 3abd bbfd f53d 6d7f 48bd b47e de3d
000002c0: daf4 26be c5bb 3bbe 3ce8 e23e 8774 8cbd
000002d0: 900b 8fbd eb02 9a3e d90f 1f3e 53e9 4c3d
000002e0: 4dfc b93e e630 0abe 9394 143e ed15 1bbd
000002f0: 4480 203d 87c1 1a3c e9ce b73d 0de5 4abe
00000300: 040c 82bd 5183 4cbd d78b 593c 648f 65bc
00000310: 2a06 1fbe 1ff5 8d3d de33 68bd 4ab3 8c3d
00000320: b69b 81bd a465 6c3d 63d2 d43e ca74 dc3d
00000330: 6e90 a73b e76a 483e 011b 4bbc d088 8fbd
00000340: 3f79 743c 87a6 233e d45f 0d3e 700f 66be
00000350: 694c 51be 37f2 6f3e e3c1 cebc c8ca fbbe
00000360: d3ac ab3c 8fc5 1bbe d5db ba3c f587 72be
00000370: 8177 4ebb dd5a d6bd 9d33 01be 23eb 4fbc
00000380: cfad 713d e618 2f3d 7794 643e 83ec 74be
00000390: c8e3 f33d 9970 8ebd 5740 753d 9449 d3bd
000003a0: ff7b b9ba b1d1 3cbe 424d a9bd 8a3e 6d3e
000003b0: b58d dd3d 1b19 96bd 73c1 56bd 5854 3f3f
000003c0: f0fa 6abb fb02 3dbe 237c 3cbd 8cdc e6bc
000003d0: 66d4 3d3c ddb9 61bb f2c0 e13d 81dc 353e
000003e0: 19c0 f1bd 2ba2 d93d 58e8 c83b 76c7 a13c
000003f0: 18d2 063b 04ba f03c d72e 0cbe f612 0d3e

advantage_stream.0.bias f4 [64]
0.042421553 0.02022741 -0.031978413 -0.011769017 -0.031501736 -0.068431124 -0.061943788 -0.065513805
-0.02549519 0.05864093 -0.08744444 0.082490206 -0.023001343 -0.06454717 0.098936476 -0.017329318
0.09507863 -0.039871443 -0.06722661 -0.03998138 -0.03897904 0.06178409 0.00028635561 -0.006466507
0.064973354 0.0062001203 -0.09125351 -0.05246261 0.009749383 -0.0885857 -0.01173322 0.010481516
0.019137278 -0.056245763 -0.009621627 0.05843272 0.05695023 -0.051074248 0.0020419504 -0.011642857
-0.0046816655 -0.044030685 -0.00029504034 -0.035470348 -0.122938514 -0.08150771 0.044161867 -0.045308627
0.09723827 0.07585064 -0.03525026 0.0072462494 -0.12884913 0.03763245 0.06879699 -0.06874409
0.03672364 -0.112477675 0.08944017 -0.07687688 -0.042822532 -0.07882903 -0.049549878 0.0063205278
00000000: 39c2 2d3d f4b3 a53c ccfb 02bd d6d2 40bc
00000010: f707 01bd 9e25 8cbd c5b8 7dbd 1a2c 86bd
00000020: 4adb d0bc 7931 703d 1216 b3bd a0f0 a83d
00000030: 506d bcbc 4f31 84bd 359f ca3d 37f6 8dbc
00000040: 96b8 c23d 3d50 23bd 1bae 89bd 84c3 23bd
00000050: 7ca8 1fbd 5011 7d3d 0022 9639 fee4 d3bb
00000060: c010 853d 612a cb3b 1fe3 babd 09e3 56bd
00000070: e0bb 1f3c 6b6c b5bd b13c 40bc aaba 2b3c
00000080: c8c5 9c3c f561 66bd 07a4 1dbc 2657 6f3d
00000090: a544 693d 3b33 51bd 3ed2 053b afc1 3ebc
000000a0: a868 99bb 8559 34bd a5af 9ab9 5b49 11bd
000000b0: 30c7 fbbd 84ed a6bd 13e3 343d 8a95 39bd
000000c0: dc24 c73d 9557 9b3d 9462 10bd f271 ed3b
000000d0: 07f1 03be 7c24 1a3d 70e5 8c3d b4c9 8cbd
000000e0: 876b 163d b25a e6bd 682c b73d a071 9dbd
000000f0: ae66 2fbd 1d71 a1bd d0f4 4abd 6e1c cf3b

advantage_stream.2.weight f4 [4, 64]
0.20216258 0.08996671 0.6411779 -0.09386228 0.14916557 0.15382826 -0.10817025 -0.906179
0.23385732 0.20013699 -0.2711565 -0.75059843 0.046160698 -0.10942493 0.34749594 -0.024842126
0.30740228 -0.031581763 -0.013876434 -0.22578873 0.06625334 -0.07365924 -0.096150175 0.11203929
-0.055604216 -0.4151777 0.37599513 -0.08297029 0.31643185 0.24051133 -0.29216433 0.28363463
0.38165864 0.19876584 -0.085581034 0.021150714 0.08080919 0.17710993 -0.2187193 0.03137722
0.07640344 0.1032559 -0.72764117 0.38563406 0.38993648 0.43040434 0.61558187 -0.035307463
-0.060793716 0.045890283 -0.7048372 0.20277311 0.41558066 -0.2195448 0.5185796 -0.054616
0.40154752 -0.09058993 -0.118722975 -0.03026016 0.093113475 -0.081431195 0.28758112 0.18372126
0.13805793 0.014353214 0.09118871 -0.2480168 -0.5175453 -0.06209091 0.06415151 0.10302234
-0.04120531 0.20909671 -0.69000864 0.11987369 -0.1320812 -0.11646011 0.25305465 -0.06303249
-0.07855878 -0.24192639 0.049655985 0.12957872 -0.23004647 0.3302763 -0.62749255 -0.32900426
-0.27884394 0.0021034186 0.18387525 -0.3275978 -0.020944078 -0.16239731 -0.5013993 0.17303847
0.36481228 0.25230604 -0.02113442 -0.02860504 -0.09549129 0.22316222 0.21750602 0.204219
-0.7735725 -0.029458983 -0.0013993284 0.092726074 -0.2562865 0.00999481 0.34442824 -0.15560319
0.44646326 0.3318783 -0.047273323 -0.08020524 -0.2583687 -0.0003217826 -0.09732517 0.1111374
0.15250371 -0.04399282 0.6925849 0.045332856 0.26123917 0.051971976 0.1775394 0.3043307
-0.0112500135 -0.30732462 -0.52867186 -0.08380558 -0.12868612 -0.13926508 -0.080243036 0.63576424
-0.060684636 -0.052935757 0.61663646 0.3258217 -0.15052924 -0.189681 -0.33598348 0.26693746
0.22698328 -0.099922985 -0.68318206 -0.23513268 0.554032 -0.0014390625 0.45310423 0.20487611
0.04408807 0.29550248 -0.1971999 0.3666412 0.35101378 -0.12538747 0.41783568 0.12787284
-0.43300384 -0.012337192 -0.18240905 0.5562207 -0.018546263 -0.5531095 0.30263364 -0.034014117
0.26510856 0.065467596 0.41505116 -0.030715393 0.11151696 -0.24776763 -0.0866279 -0.13120306
-0.14071552 -0.32534385 0.092564695 0.18764676 0.09227617 -0.46295398 -0.0400892 -0.15026563
-0.5551318 -0.03334476 -0.073016845 0.07990306 -0.061282177 0.49503505 -0.18980134 -0.26044482
0.077550665 0.09763995 0.1791029 -0.46072307 -0.12534556 0.35623538 -0.14690176 0.42467555
0.13623586 0.30416876 0.16627362 0.07644721 0.14683981 0.010851445 -0.085345544 -0.21450758
-0.41581985 0.0020481437 0.25229567 0.3564455 -0.063537806 -0.48377684 0.24976018 0.18611512
0.091987275 0.13746175 -0.40568832 -0.31678078 -0.17415941 -0.015698832 0.07461523 -0.56359625
-0.0598679 0.15766576 0.05943391 -0.032601457 -0.63608336 -0.34575093 0.04566355 0.08551157
0.51535475 0.06937316 0.5511381 -0.36073408 0.07056328 -0.2876805 0.009685484 -0.13261394
-0.25121188 -0.3912374 0.21427736 0.1375223 -0.08780748 0.4796426 -0.099731915 0.03465614
0.49719518 -0.019799061 -0.19812278 0.27079862 0.081731446 0.07789233 -0.28503707 -0.3732744
00000000: b503 4f3e 7740 b83d 3c24 243f de3a c0bd
00000010: dcbe 183e 2885 1d3e 5d88 ddbd 59fb 67bf
00000020: 4b78 6f3e b6f0 4c3e 06d5 8abe 3827 40bf
00000030: 0013 3d3d 2d1a e0bd fdea b13e b781 cbbc
00000040: d563 9d3e e15b 01bd fc59 63bc 2935 67be
00000050: d5af 873d a8da 96bd 62ea c4bd db74 e53d
00000060: 3fc1 63bd 2c92 d4be 6f82 c03e 54ec a9bd
00000070: 5b03 a23e 9a48 763e 9096 95be 8f38 913e
00000080: c368 c33e 4689 4b3e 1c45 afbd 4344 ad3c
00000090: 4a7f a53d 4e5c 353e f4f7 5fbe 6685 003d
000000a0: 6879 9c3d d477 d33d b146 3abf d471 c53e
000000b0: c1a5 c73e f55d dc3e c696 1d3f 8f9e 10bd
000000c0: d502 79bd 73f7 3b3d 3670 34bf c1a3 4f3e
000000d0: fdc6 d43e 5ad0 60be a2c1 043f 07b5 5fbd
000000e0: a397 cd3e 3787 b9bd 0825 f3bd 28e4 f7bc
000000f0: 47b2 be3d 66c5 a6bd d53d 933e 6d21 3c3e
00000100: 0f5f 0d3e be29 6b3c 25c1 ba3d 1ef8 7dbe
00000110: d97d 04bf 0a53 7ebd de61 833d 60fd d23d
00000120: e6c6 28bd 731d 563e 68a4 30bf 5680 f53d
00000130: 4b40 07be a382 eebd 6190 813e 2e17 81bd
00000140: 6de3 a0bd 8dbb 77be 1364 4b3d 49b0 043e
00000150: 4d91 6bbe fa19 a93e 5aa3 20bf 3f73 a8be
00000160: a2c4 8ebe 82d9 093b cb49 3c3e e6ba a7be
00000170: ea92 abbc 7b4b 26be b45b 00bf ff30 313e
00000180: adc8 ba3e 422e 813e 1722 adbc 1e55 eabc
00000190: f090 c3bd a384 643e e6b9 5e3e c91e 513e
000001a0: d908 46bf f753 f1bc ab69 b7ba 2be7 bd3d
000001b0: fc37 83be 46c1 233c e658 b03e 7156 1fbe
000001c0: d596 e43e f4eb a93e aca1 41bd a542 a4bd
000001d0: e748 84be eeb4 a8b9 6b52 c7bd 019c e33d
000001e0: ef29 1c3e d131 34bd 3e4d 313f f2ae 393d
000001f0: 24c1 853e 91e0 543d e3cc 353e 3cd1 9b3e
00000200: fa51 38bc a759 9dbe 0a57 07bf 43a2 abbd
00000210: 4bc6 03be 819b 0ebe 7656 a4bd 72c1 223f
00000220: 7490 78bd 2ad3 58bd e3db 1d3f 1ad2 a63e
00000230: 5624 1abe bc3b 42be 0706 acbe 07ac 883e
00000240: 4e6e 683e 6ca4 ccbd 05e5 2ebf 9fc6 70be
00000250: 0bd5 0d3f ed9e bcba 47fd e73e 0bcb 513e
00000260: b195 343d 1a4c 973e c5ee 49be 65b8 bb3e
00000270: 14b8 b33e 9365 00be 8fee d53e 19f1 023e
00000280: aeb2 ddbe ef21 4abc 70c9 3abe 7b64 0e3f
00000290: 55ee 97bc 9698 0dbf ccf2 9a3e 6352 0bbd
000002a0: 4fbc 873e e013 863d 9681 d43e d99e fbbc
000002b0: 0163 e43d ccb6 7dbe f869 b1bd 185a 06be
000002c0: bb17 10be 7893 a6be 8f92 bd3d 7926 403e
000002d0: 4afb bc3d 4e08 edbe 9334 24bd 3cdf 19be
000002e0: 1e1d 0ebf 8494 08bd db89 95bd 37a4 a33d
000002f0: 0503 7bbd 3c75 fd3e 485b 42be 0659 85be
00000300: e2d2 9e3d 74f7 c73d c066 373e e5e3 ebbe
00000310: 965a 00be 7c64 b63e 6a6d 16be 136f d93e
00000320: 6a81 0b3e 02bc 9b3e a243 2a3e 5b90 9c3d
00000330: 2d5d 163e 42ca 313c a5c9 aebd e0a7 5bbe
00000340: 57e6 d4be 263a 063b e62c 813e 0680 b63e
00000350: 1c20 82bd 99b1 f7be 22c1 7f3e f694 3e3e
00000360: d363 bc3d c6c2 0c3e 61b6 cfbe 1731 a2be
00000370: d856 32be d69a 80bc dfcf 983d d847 10bf
00000380: 0b38 75bd 2273 213e f970 733d 1b89 05bd
00000390: 5cd6 22bf 4406 b1be b409 3b3d b120 af3d
000003a0: 4aee 033f 8413 8e3d 6317 0d3f 23b2 b8be
000003b0: 7b83 903d dc4a 93be ddaf 1e3c f3cb 07be
000003c0: d89e 80be 4550 c8be 866b 5b3e a5d2 0c3e
000003d0: 68d4 b3bd b793 f53e 3f40 ccbd 99f3 0d3d
000003e0: 5e90 fe3e a431 a2bc b3e0 4abe 1ea6 8a3e
000003f0: d162 a73d 0486 9f3d 61f0 91be d21d bfbe

advantage_stream.2.bias f4 [4]
-0.023644824 -0.060988337 -0.12518987 -0.038486615
00000000: cab2 c1bc e8ce 79bd c631 00be 24a4 1dbd

feature_layers.0.weight f4 [128, 24]
-0.26257646 0.22739662 -0.2214975 0.1330658 0.5363016 -0.71728045 -0.1554245 -0.3230987
-0.09096836 -0.12538618 -0.04347663 -0.28609946 0.36888504 -0.07344507 -0.31668058 0.46824595
-0.41503093 0.7207576 0.4933108 -0.4463577 0.5473439 -0.118029565 0.41721603 0.2246985
-0.067204304 0.06266248 -0.10201949 -0.28252813 -0.34248108 -0.415773 0.34757617 -0.14635117
-0.28047624 0.079375826 0.0052977297 0.62131536 0.09803683 0.22619772 0.017333832 -0.009747307
0.1793325 0.6919958 0.07142306 -0.0019187935 -0.025058359 0.05063278 0.59743375 -0.093273155
-0.099658616 -0.35397887 0.0604467 -0.20241717 -0.11886011 -0.33271167 0.19432263 0.28375822
-0.2048783 -0.3691614 -0.10869956 -0.5141434 0.054105315 -0.31435773 0.38914782 0.09448335
-0.47525242 -0.12423649 -0.3690643 -0.22286531 -0.15057616 0.07556553 0.49964854 0.05917062
0.11212725 0.3340111 0.81522375 0.4699104 0.1619073 0.31477895 0.09264014 0.24178413
0.23111865 0.25695303 0.105053954 0.8098479 0.28023428 0.1242697 -0.6321639 0.3258896
-0.0004310058 0.10634217 0.110543415 -0.43056533 0.4292864 -0.19047049 0.5712254 -0.19113907
-0.044686705 0.81283504 -0.15481366 -0.29080552 0.27189183 0.17530401 -0.46462423 -0.045411963
-0.23557392 0.43604386 0.21330622 0.1700375 -0.4384045 -0.45688117 -0.3856272 -0.1008708
-0.5642803 0.33799556 0.57655746 0.33939135 0.46236613 0.19614592 -0.04189074 -0.16332747
-0.0145322615 0.07387092 -0.18087573 0.16535634 -0.13221152 0.24823412 -0.061214138 -0.02618268
0.22353515 0.09774764 -0.21882167 -0.13814913 -0.4227754 -0.08935792 -0.31055576 0.70729125
-0.43061158 0.19362338 -0.1777504 0.13781114 0.4275324 -0.19585747 0.35187966 -0.13026829
-0.21743503 -0.0152025195 -0.29351664 -0.2545082 0.1700493 0.40781742 -0.5108171 0.05878291
0.2265928 0.1341244 -0.06584634 0.03570458 0.28131196 -0.0024505388 -0.29865333 -0.0390007
-0.2185954 -0.11441741 -0.3820833 0.29418156 0.06610308 0.539263 -0.5258345 0.37982327
-0.038016647 -0.02889089 -0.08214255 -0.052468523 -0.277128 -0.22087516 0.3540524 0.24660222
0.4322315 -0.11591747 -0.022090139 0.22771534 -0.09803774 -0.21973856 -0.3887191 0.21186738
0.41482675 0.19250491 0.04191986 -0.13272184 0.20344213 -0.022998368 0.33099636 0.5749231
-0.056032363 -0.15694115 -0.23861 0.26923642 -0.0557862 0.015773548 -0.12133405 -0.072473414
-0.19308296 0.15715736 0.10839967 0.45635873 -0.22091395 0.20269164 -0.1935443 0.043734293
0.1466875 0.28093165 -0.14801674 -0.37882298 -0.57476866 0.45682466 -0.100503676 0.18013747
0.37085834 -0.09714489 -0.0073660435 0.19095063 0.24423064 -0.2318853 0.16297351 -0.15437345
-0.4589824 -0.26162842 0.47798586 -0.22004294 -0.095894516 0.20754373 -0.29805306 -0.21555369
-0.1444836 -0.50224525 0.04038526 -0.0762166 -0.19247237 0.4374768 -0.36589074 -0.014884979
0.2263954 0.1754494 0.14642312 -0.22781372 -0.1686958 0.017986557 -0.061399315 -0.2398837
0.02781761 0.3278898 -0.22251138 0.51232845 -0.48953208 -0.05326461 -0.29240862 -0.18754968
00000000: 6c70 86be a9da 683e 3ed0 62be 6742 083e
00000010: 104b 093f b19f 37bf 9a27 1fbe 316d a5be
00000020: 9f4d babd 3c65 00be 8d14 32bd a17b 92be
00000030: 80de bc3e 5e6a 96bd f523 a2be efbd ef3e
00000040: ef7e d4be 9283 383f 3c93 fc3e ff88 e4be
00000050: bb1e 0c3f 7cb9 f1bd 579d d53e 5d17 663e
00000060: 69a2 89bd 3055 803d 98ef d0bd 87a7 90be
00000070: ae59 afbe 33e0 d4be 81f5 b13e 15dd 15be
00000080: 959a 8fbe cb8f a23d 9498 ad3b 860e 1f3f
00000090: 89c7 c83d 60a0 673e aeff 8d3c 2bb3 1fbc
000000a0: f0a2 373e a326 313f 4146 923d 0780 fbba
000000b0: 3047 cdbc 5164 4f3d 6bf1 183f ff05 bfbd
000000c0: d119 ccbd b83c b5be f596 773d 7246 4fbe
000000d0: ee6c f3bd 2f59 aabe 83fc 463e c248 913e
000000e0: 9ecb 51be b902 bdbe e09d debd e79e 03bf
000000f0: 899d 5d3d 7ff3 a0be 623e c73e 7d80 c13d
00000100: 4954 f3be b36f febd fff5 bcbe ce36 64be
00000110: a330 1abe 1ac2 9a3d efd1 ff3e e45c 723d
00000120: f9a2 e53d 8103 ab3e 81b2 503f 1998 f03e
00000130: 07cb 253e b52a a13e 1dba bd3d 4296 773e
00000140: 5eaa 6c3e 598f 833e 8726 d73d 3152 4f3f
00000150: de7a 8f3e 1d81 fe3d 7ed5 21bf 00db a63e
00000160: 9ff8 e1b9 ecc9 d93d 9664 e23d 0f73 dcbe
00000170: 6dcb db3e b20a 43be d43b 123f f6b9 43be
00000180: 6809 37bd f515 503f 7987 1ebe 76e4 94be
00000190: 6835 8b3e e582 333e 3ae3 edbe e501 3abd
000001a0: 4a3a 71be 2441 df3e f26c 5a3e 4f1e 2e3e
000001b0: 8e76 e0be 54ec e9be ee70 c5be 5a95 cebd
000001c0: ac74 10bf c10d ad3e 4599 133f b4c4 ad3e
000001d0: 41bb ec3e 7ada 483e a095 2bbd 513f 27be
000001e0: b918 6ebc a349 973d 7d37 39be 2c53 293e
000001f0: 7562 07be 1631 7e3e adbb 7abd 0f7d d6bc
00000200: 66e6 643e ea2f c83d ca12 60be f776 0dbe
00000210: 0476 d8be 4901 b7bd 2a01 9fbe 0a11 353f
00000220: 1f79 dcbe 3545 463e 3304 36be 5d1e 0d3e
00000230: 87e5 da3e dc8e 48be 9229 b43e 0d65 05be
00000240: 4aa7 5ebe fd13 79bc d047 96be e64e 82be
00000250: 6721 2e3e 72cd d03e e9c4 02bf 59c6 703d
00000260: f107 683e e857 093e 72da 86bd f73e 123d
00000270: 1f08 903e 3899 20bb 17e9 98be 33bf 1fbd
00000280: 79d7 5fbe ad53 eabd 6ca0 c3be f79e 963e
00000290: 0d61 873d 240d 0a3f 179d 06bf 3278 c23e
000002a0: 58b7 1bbd 96ac ecbc 5a3a a8bd 3ce9 56bd
000002b0: b9e3 8dbe 192d 62be 5b46 b53e 4b85 7c3e
000002c0: 724d dd3e 2366 edbd 61f6 b4bc 362e 693e
000002d0: 03c8 c8bd 2503 61be 3106 c7be c3f3 583e
000002e0: 2c64 d43e 0220 453e 29b4 2b3d 3ce8 07be
000002f0: 2253 503e 1367 bcbc 5b78 a93e 292e 133f
00000300: 3182 65bd 2eb5 20be 2e56 74be 5bd9 893e
00000310: 1280 64bd 8737 813c fd7d f8bd f16c 94bd
00000320: 8ab7 45be dced 203e a500 de3d daa7 e93e
00000330: 4437 62be 668e 4f3e 7a30 46be bb22 333d
00000340: 3f35 163e 46d6 8f3e b391 17be 16f5 c1be
00000350: 0a24 13bf ece4 e93e dfd4 cdbd f575 383e
00000360: 25e1 bd3e e6f3 c6bd da5e f1bb 9088 433e
00000370: 9917 7a3e 5773 6dbe 87e2 263e 1314 1ebe
00000380: beff eabe 29f4 85be 90ba f43e f052 61be
00000390: 5864 c4bd 5886 543e 699a 98be 1bba 5cbe
000003a0: 82f3 13be 2593 00bf 046b 253d 7317 9cbd
000003b0: 7a17 45be f6fc df3e 0856 bbbe 21e0 73bc
000003c0: 32d4 673e 02a9 333e f1ef 153e 0048 69be
000003d0: 97be 2cbe 8b58 933c d97d 7bbd 13a4 75be
000003e0: c2e1 e33c 2ce1 a73e 06da 63be f527 033f
000003f0: f3a3 fabe fe2b 5abd 95b6 95be 060d 40be
