models/snake_dqn_ep200_score4_20250302_153403.pt (torch, 689634 bytes, 44 tensors)

feature_layers.0.weight f4 [128, 24]
0.022950439 -0.56994444 -0.17697415 -0.051288918 -0.22780317 0.34354734 -0.195946 0.02759388
-0.21704534 -0.003814084 -0.3240517 0.17537248 -0.11050109 0.2993046 0.10027435 0.2298534
-0.37465104 -0.36360216 -0.87368923 0.16056992 0.14953104 -0.12469697 -0.506631 -0.2937504
-0.46157172 -0.51583403 0.044676486 -0.3517284 -0.3552832 0.5307535 -0.30507097 0.04085198
0.107373446 -0.41350356 0.1484595 0.4142633 0.16432148 -0.4411081 0.1482158 -0.1869001
0.069887884 -0.330619 -0.19803916 -0.115424626 0.2393375 0.34765068 0.16843206 0.57361114
-0.5983245 0.57466173 -0.39218724 0.055815954 0.07669906 0.20806101 -0.08624234 -0.024504263
-0.34497964 -0.2290307 0.46538028 0.056167994 -0.055769578 -0.34523407 -0.19236636 0.7000526
-0.19269961 0.52658635 0.08912677 -0.52125984 0.3504749 0.56665015 -0.4522759 -0.11869489
-0.19571483 0.050220206 0.024440689 0.047195334 -0.50084 -0.14829148 0.0597437 -0.40538633
-0.25125498 0.04148628 0.15872326 -0.53792286 -0.33240825 0.13855597 0.084503196 -0.04059546
-0.42890447 -0.8439742 0.1496771 -0.010773229 0.13311037 0.25900906 0.016527615 0.2227756
0.054540124 0.031698693 0.048309054 -0.01260423 0.1408106 0.0719136 -0.09712611 0.30765527
-0.046909664 0.34166366 -0.38109845 0.12067362 0.41388667 -0.025236282 -0.0031167935 -0.054634605
-0.83891577 -0.093612775 -0.11749315 0.31980902 0.04744018 -0.0333047 0.52312255 -0.4708748
0.011721219 -0.058908932 -0.33847153 -0.040577214 0.075932264 -0.01862177 -0.22596827 0.07695852
-0.5687122 -0.39615858 -0.2767838 -0.037697434 0.17301838 -0.40316415 0.08267835 0.5716161
-0.014523997 0.25690877 0.68221253 0.14763144 -0.0016230264 0.4942248 -0.08995535 0.37705594
0.2876636 -0.032729156 0.23753606 -0.5217257 -0.14607339 -0.11823392 0.3045077 -0.22936903
-0.021128405 -0.029037118 -0.13592903 0.35248184 -0.056515217 -0.25942072 0.40830156 0.4317681
0.15826045 0.18954517 -0.17362736 0.33185202 -0.60748786 0.3451399 0.8050442 -0.22472747
-0.50140053 0.4774285 -0.38904852 -0.13645692 -0.108720295 -0.1165403 0.1275234 0.09292367
-0.0887888 0.4301101 0.30980858 0.6052012 -0.13701545 -0.29924926 0.10705286 -0.14362548
-0.64602244 0.22740263 -0.033812746 0.029831713 -0.10859016 -0.30455834 0.22666608 -0.0085668545
0.22037803 -0.24783853 0.33132905 0.1761404 -0.10902122 0.12343569 0.1548154 -0.5352504
-0.21720544 -0.0342356 0.29113832 0.039697777 0.23369561 0.1183537 0.40097392 0.21422346
-0.1906749 -0.040803183 0.4321162 0.45211324 -0.3379771 -0.14834008 0.5017882 0.12896487
0.006055006 -0.3126984 0.09212697 -0.4955826 -0.3632131 -0.4528409 0.3234248 -0.23068976
0.045735054 -0.10646941 -0.064028785 0.001997926 -0.66285396 0.21222273 -0.60700816 -0.0039019806
-0.4728998 0.22394648 -0.23889062 -0.48698148 -0.25572908 -0.1324058 0.2615538 0.48590988
0.20123298 -0.44920638 0.47631902 -0.4826125 -0.005964003 0.08799945 -0.17126423 -0.16498363
-0.30283332 0.15530825 0.012527239 -0.10187791 -0.2707463 0.09728088 -0.18358514 0.4691039
00000000: 8f02 bc3c e1e7 11bf b638 35be 5414 52bd
00000010: 3c45 69be 70e5 af3e 11a6 48be 900c e23c
00000020: 2241 5ebe b6f5 79bb 1bea a5be d894 333e
00000030: 654e e2bd 743e 993e a35c cd3d b15e 6b3e
00000040: 43d2 bfbe 102a babe 19aa 5fbf 716c 243e
00000050: aa1e 193e 2061 ffbd 92b2 01bf 7466 96be
00000060: 2153 ecbe b30d 04bf b1fe 363d bf15 b4be
00000070: aee7 b5be 76df 073f 4332 9cbe 6854 273d
00000080: 9ce6 db3d bdb6 d3be c405 183e 521a d43e
00000090: e443 283e ecd8 e1be e2c5 173e bd62 3fbe
000000a0: 6121 8f3d e546 a9be c7ca 4abe bf63 ecbd
000000b0: e414 753e 45ff b13e 7479 2c3e 2ed8 123f
000000c0: cb2b 19bf 081d 133f c4cc c8be 459f 643d
000000d0: 6614 9d3d f20d 553e d39f b0bd 2abd c8bc
000000e0: 2ca1 b0be 0687 6abe 5346 ee3e 6910 663d
000000f0: a46e 64bd 85c2 b0be b0fb 44be a636 333f
00000100: 0c53 45be 5dce 063f 1988 b63d 4971 05bf
00000110: 7271 b33e fc0f 113f b590 e7be 4e16 f3bd
00000120: 7869 48be b4b3 4d3d d737 c83c e54f 413d
00000130: 0d37 00bf b9d9 17be cfb5 743d cc8e cfbe
00000140: 7ea4 80be 84ed 293d 5a88 223e 50b5 09bf
00000150: 6a31 aabe 9ee1 0d3e 0310 ad3d 6d47 26bd
00000160: 5e99 dbbe b10e 58bf f444 193e 3382 30bc
00000170: 164e 083e d69c 843e ec64 873c 491f 643e
00000180: 7765 5f3d 7dd6 013d b7df 453d f981 4ebc
00000190: a730 103e 7047 933d 0eea c6bd fe84 9d3e
000001a0: 5924 40bd 8aee ae3e 561f c3be bb23 f73d
000001b0: f4e8 d33e 52bc cebc 1e43 4cbb 89c8 5fbd
000001c0: 2fc3 56bf 0eb8 bfbd 40a0 f0bd 02be a33e
000001d0: a250 423d 826a 08bd 5ceb 053f 8016 f1be
000001e0: 5b0a 403c 7e4a 71bd 244c adbe 4b34 26bd
000001f0: 6082 9b3d af8c 98bc 3a64 67be 6e9c 9d3d
00000200: 1f97 11bf 4cd5 cabe 9bb6 8dbe a068 1abd
00000210: bb2b 313e 886b cebe 4453 a93d 6f55 123f
00000220: 0ff6 6dbc 8c89 833e 7ba5 2e3f b22c 173e
00000230: bbbb d4ba 080b fd3e 833a b8bd 7a0d c13e
00000240: a548 933e 020f 06bd a73c 733e d18f 05bf
00000250: 4394 15be a024 f2bd 6fe8 9b3e b7df 6abe
00000260: 7a15 adbc 40df edbc fb30 0bbe 8078 b43e
00000270: 807c 67bd cbd2 84be e70c d13e b510 dd3e
00000280: 070f 223e 2118 423e 5fcb 31be 82e8 a93e
00000290: 5384 1bbf 2db6 b03e 6017 4e3f f51e 66be
000002a0: c95b 00bf 8271 f43e 5e31 c7be 5dbb 0bbe
000002b0: bfa8 debd aeac eebd 7f95 023e c44e be3d
000002c0: e7d6 b5bd 6437 dc3e 3b9f 9e3e 77ee 1a3f
000002d0: c74d 0cbe 3337 99be 883e db3d 8f12 13be
000002e0: ba61 25bf 3cdc 683e 3c7f 0abd a361 f43c
000002f0: 8564 debd 12ef 9bbe 271b 683e fe5b 0cbc
00000300: c7aa 613e 62c9 7dbe f6a3 a93e 265e 343e
00000310: 8446 dfbd dacb fc3d ee87 1e3e 2c06 09bf
00000320: 1a6b 5ebe a13a 0cbd 1510 953e 239a 223d
00000330: e74d 6f3e 6d63 f23d 744c cd3e 655d 5b3e
00000340: 4840 43be 3d21 27bd 563e dd3e 637b e73e
00000350: 560b adbe 76e6 17be 3175 003f 5e0f 043e
00000360: 1269 c63b 011a a0be 11ad bc3d 01bd fdbe
00000370: 11f7 b9be c3da e7be ef97 a53e f039 6cbe
00000380: ae54 3b3d a20c dabd 8621 83bd a3ef 023b
00000390: ccb0 29bf ea50 593e e364 1bbf 5fb8 7fbb
000003a0: ec1f f2be 3a52 653e be9f 74be a355 f9be
000003b0: ecee 82be 6395 07be 61ea 853e 2ec9 f83e
000003c0: 0510 4e3e 61fe e5be 16e0 f33e fc18 f7be
000003d0: af6d c3bb 0e39 b43d e45f 2fbe 78f1 28be
000003e0: f80c 9bbe 2009 1f3e 0c3f 4d3c 5ea5 d0bd
000003f0: 429f 8abe 333b c73d befd 3bbe 632e f03e

feature_layers.0.bias f4 [128]
0.1379851 -0.09468528 0.055516597 0.15441255 -0.13395919 0.0047141174 -0.030883875 0.19401145
0.22905491 0.14392354 0.0088124275 0.09645109 0.18790664 0.06420187 -0.08925885 -0.11886739
-0.0832089 0.2801903 0.24008618 -0.10004903 0.13154314 0.06194506 -0.14128488 0.036971867
-0.12422317 -0.010365474 0.17445567 0.05283644 0.044807833 -0.06412614 0.038343646 -0.17914878
0.13406211 0.034781847 0.2092108 -0.18880364 0.10195629 0.14953415 -0.16027069 -0.26439014
0.13446046 0.08135449 -0.18464182 0.1748915 0.26891583 0.2256702 0.060101036 0.09254086
0.12862577 -0.09322922 0.072760426 0.09810418 0.06900053 -0.12690891 0.24155071 0.17897621
-0.0878453 0.040400144 -0.15620537 0.017585207 0.24356836 -0.12849641 -0.075531244 0.08634074
-0.074298225 0.11377499 -0.28000185 -0.17438403 -0.22896713 0.08259581 0.058272038 -0.2631215
0.27224198 0.20589998 0.18629766 -0.19824758 0.11361545 -0.04666198 0.07997044 0.23018363
0.24414155 -0.12849069 -0.13288976 0.17810592 -0.009936563 0.06072842 0.023842936 0.10309485
0.097450115 0.023307156 0.024686461 0.17940435 0.19295415 -0.027418623 -0.20745006 0.1714574
-0.13071893 0.14455552 0.06540125 0.13399829 -0.108847044 0.13631548 -0.05987848 0.12295273
-0.083341196 0.058568675 0.13970192 0.10673412 0.22984943 -0.068681285 0.3029182 0.14797893
0.033379763 0.23094036 0.10707498 0.0022612964 0.16048582 -0.14720447 0.2647604 -0.0072297757
-0.120531045 0.22411135 0.022159755 -0.16125195 -0.07367575 0.22670682 -0.026525134 0.010992165
00000000: f74b 0d3e 5bea c1bd 5f65 633d 531e 1e3e
00000010: 992c 09be e278 9a3b 2e00 fdbc f0aa 463e
00000020: 5f8d 6a3e b160 133e 0062 103c 2688 c53d
00000030: 996a 403e 457c 833d 58cd b6bd bf70 f3bd
00000040: 6e69 aabd 1a75 8f3e 27d9 753e 81e6 ccbd
00000050: 3fb3 063e 1aba 7d3d fcac 10be d06f 173d
00000060: b868 febd f3d3 29bc 82a4 323e 066b 583d
00000070: 6b88 373d 9154 83bd 3a0e 1d3d c772 37be
00000080: 9447 093e 6977 0e3d 5b3b 563e be55 41be
00000090: 76ce d03d 7b1f 193e 001e 24be 255e 87be
000000a0: 01b0 093e 2f9d a63d bf12 3dbe c216 333e
000000b0: 56af 893e 1716 673e 812c 763d 1086 bd3d
000000c0: 79b6 033e f6ee bebd 6b03 953d d8ea c83d
000000d0: 2650 8d3d 69f4 01be 1259 773e 8a45 373e
000000e0: 3de8 b3bd 9f7a 253d 4df4 1fbe da0e 903c
000000f0: fc69 793e 9094 03be 20b0 9abd 6ad3 b03d
00000100: ab29 98bd dd02 e93d 675c 8fbe ba91 32be
00000110: 5c76 6abe fe27 a93d a9ae 6e3d dcb7 86be
00000120: 4d63 8b3e 72d7 523e d0c4 3e3e 6a01 4bbe
00000130: 38af e83d a220 3fbd 8bc7 a33d 42b5 6b3e
00000140: 3e00 7a3e 1093 03be 4114 08be 6661 363e
00000150: f7cc 22bc 5dbe 783d 4352 c33c 6523 d33d
00000160: ed93 c73d a6ee be3c 433b ca3c c6b5 373e
00000170: c695 453e 059d e0bc ca6d 54be 8792 2f3e
00000180: 2fdb 05be 5d06 143e 17f1 853d d936 093e
00000190: 33eb debd 4996 0b3e 2343 75bd a4ce fb3d
000001a0: caae aabd b5e5 6f3d 050e 0f3e 6b97 da3d
000001b0: a65d 6b3e c6a8 8cbd 1818 9b3e ca87 173e
000001c0: 38b9 083d a17b 6c3e 214a db3d 4232 143b
000001d0: 6556 243e c5bc 16be ad8e 873e c1e7 ecbb
000001e0: fbd8 f6bd 727d 653e 6088 b53c 3b1f 25be
000001f0: 50e3 96bd d525 683e 3d4b d9bc 7b18 343c

feature_layers.1.weight f4 [128, 128]
0.15983729 0.06097742 0.1863464 0.112198874 -0.06402753 -0.22649536 0.026005393 0.17477591
0.09701467 -0.014399835 0.27131042 0.006259281 -0.18483375 0.028297998 0.105159946 0.20467268
0.12527253 -0.032074556 0.18992038 -0.042047948 0.12623714 -0.16731596 -0.12742409 -0.15637197
0.14927445 0.24707496 -0.19465865 0.13771518 0.0064118323 -0.02243259 0.016290268 0.11086004
0.10907237 -0.09008282 -0.044798918 -0.2519377 0.083221234 0.11460948 -0.02764061 -0.2880419
0.038628746 -0.041857492 0.19677895 0.04792904 -0.033842348 -0.012420096 0.08508497 0.103478774
-0.24061869 -0.05507216 -0.053871635 0.18963036 -0.030581221 0.1919693 0.22516139 0.018060772
0.14590672 -0.1054745 -0.16298273 0.11190544 0.29957086 -0.3059004 0.076360844 0.06737752
0.027349256 0.052109644 0.0749247 0.11986139 0.045764904 0.15423393 0.041252766 0.08063628
-0.080085225 0.3120068 0.21671702 0.041108426 0.09209062 0.12623784 -0.040161896 0.10384819
0.010657207 -0.077561185 -0.1706726 -0.29269615 0.10698229 -0.15566532 -0.14128698 0.1369529
0.14436804 -0.11486887 0.10512095 -0.1140479 0.1813839 -0.020305488 0.0518484 0.23951876
0.0904018 0.14302836 0.17405383 -0.0065103318 -0.10689682 0.17976914 0.28688696 0.018259404
0.15191083 0.13961327 -0.12500736 -0.13777949 -0.052469824 0.030590147 0.2884717 0.013673957
-0.005994624 -0.08297848 0.037759837 0.21578693 0.11800202 0.07295069 -0.084034994 0.0017219603
0.07851651 0.026735773 0.08969439 -0.27959916 -0.17837512 0.13093942 -0.03484716 0.15664445
-0.19097836 -0.08982465 -0.16441806 0.27883878 -0.001061492 -0.011909746 0.0019297864 0.10563828
-0.08984831 -0.036817744 -0.01738797 0.07918202 0.18865505 0.18023373 0.14725098 0.016208326
-0.18342814 -0.0787019 0.07474544 -0.17315988 0.14094155 0.17577958 0.039244045 0.44713736
-0.05465849 0.05702994 0.053263076 0.17886929 -0.08002823 0.026045823 -0.00937351 -0.17189284
0.122095466 0.04791862 0.05851015 -0.026214832 -0.12684202 0.0043821405 0.12234335 0.08818878
0.038926188 -0.059934698 -0.047111645 0.14335738 0.32455692 -0.09730042 0.082554236 -0.087956995
-0.06537035 0.08738183 0.0032378307 -0.09629497 -0.0049313684 -0.0059305555 0.065786384 0.04373175
-0.121358596 0.028533584 -0.06994092 0.25087926 0.17514357 -0.1179994 0.116113305 -0.07065253
0.106147364 -0.00019022146 -0.19543149 0.2587706 0.057966713 -0.04119816 0.037435204 0.03294043
0.03639364 -0.008897797 0.0015848087 -0.12542473 0.04735273 0.07514857 0.3159391 0.015700046
0.1093756 -0.084457204 -0.017027367 -0.03940589 -0.027141202 0.08204897 0.13430084 0.11323166
-0.22650519 -0.1611521 -0.10152911 0.04131178 0.061238986 -0.034297362 -0.027050428 -0.044314887
0.03531063 0.30586204 0.002229472 -0.060475234 0.13869886 -0.03665053 0.11964558 -0.087967426
0.002491668 -0.08574807 0.061643653 0.08377865 -0.09748216 0.12813659 0.13201044 0.13570328
0.06333209 -0.019680435 0.14055462 0.04881161 0.040300135 -0.11310893 0.20273528 -0.004532606
-0.19070327 0.07874169 0.013866157 0.20421803 -0.011591742 0.13761735 0.11581012 -0.18513288
00000000: 63ac 233e 76c3 793d 97d1 3e3e 86c8 e53d
00000010: de20 83bd 66ee 67be 4309 d53c 75f8 323e
00000020: a1af c63d 49ed 6bbc 33e9 8a3e a81a cd3b
00000030: 0f45 3dbe 34d1 e73c 195e d73d b795 513e
00000040: 7147 003e 9c60 03bd 7d7a 423e 783a 2cbd
00000050: 4f44 013e e054 2bbe 767b 02be f91f 20be
00000060: 67db 183e 3801 7d3e 9954 47be 3505 0d3e
00000070: 591a d23b 8dc4 b7bc 2b73 853c 970a e33d
00000080: 5661 df3d 577d b8bd 127f 37bd fafd 80be
00000090: e56f aa3d 60b8 ea3d 8f6e e2bc 3a7a 93be
000000a0: 2d39 1e3d c372 2bbd 6c80 493e 3e51 443d
000000b0: 469e 0abd a97d 4bbc 0741 ae3d aeec d33d
000000c0: bf64 76be 5893 61bd 81a8 5cbd 762e 423e
000000d0: 7885 fabc 9a93 443e b590 663e 2ff4 933c
000000e0: 9268 153e 0403 d8bd f2e4 26be ae2e e53d
000000f0: 5a61 993e fa9e 9cbe 1363 9c3d 3afd 893d
00000100: 8c0b e03c ec70 553d 1f72 993d e379 f53d
00000110: fb73 3b3d 80ef 1d3e a9f8 283d a224 a53d
00000120: b903 a4bd 5bbf 9f3e 11eb 5d3e 4f61 283d
00000130: 029a bc3d 7e44 013e cd80 24bd 5cae d43d
00000140: 919b 2e3c 66d8 9ebd ccc4 2ebe 45dc 95be
00000150: 8819 db3d bb66 1fbe 89ad 10be 623d 0c3e
00000160: 37d5 133e 5f40 ebbd a749 d73d f291 e9bd
00000170: b3bc 393e b257 a6bc fd5e 543d 6844 753e
00000180: 9424 b93d 0776 123e 2b3b 323e 9f54 d5bb
00000190: b8ec dabd 6715 383e d9e2 923e bf94 953c
000001a0: 838e 1b3e c8f6 0e3e ee01 00be 1116 0dbe
000001b0: 99ea 56bd 3098 fa3c 90b2 933e bc08 603c
000001c0: 8d6e c4bb 9ff0 a9bd 0faa 1a3d 40f7 5c3e
000001d0: 0bab f13d 2c67 953d 8a1a acbd 66b3 e13a
000001e0: 44cd a03d fb04 db3c b1b1 b73d 9f27 8fbe
000001f0: f8a7 36be fc14 063e e5bb 0ebd 6767 203e
00000200: d58f 43be fcf5 b7bd 355d 28be f5c3 8e3e
00000210: c321 8bba 1821 43bc e3f0 fc3a e258 d83d
00000220: 6402 b8bd 34ce 16bd 3771 8ebc 2f2a a23d
00000230: ca2e 413e 318f 383e f6c8 163e 53c7 843c
00000240: 96d4 3bbe 762e a1bd 2314 993d d350 31be
00000250: fb52 103e 90ff 333e 5dbe 203d 30ef e43e
00000260: 95e1 5fbd 3a98 693d 622a 5a3d 8329 373e
00000270: d7e5 a3bd 0d5e d53c 5a93 19bc ad04 30be
00000280: 300d fa3d 5146 443d 57a8 6f3d 7dc0 d6bc
00000290: e0e2 01be 0f98 8f3b 268f fa3d 529c b43d
000002a0: 1171 1f3d 167e 75bd 24f8 40bd 47cc 123e
000002b0: 532c a63e 7145 c7bd 3212 a93d cc22 b4bd
000002c0: e4e0 85bd 3ff5 b23d c931 543b 4c36 c5bd
000002d0: 5197 a1bb 1b55 c2bb 03bb 863d 1020 333d
000002e0: db8a f8bd 43bf e93c 2f3d 8fbd 3f73 803e
000002f0: d658 333e aba9 f1bd d0cc ed3d 46b2 90bd
00000300: ca63 d93d 2f76 47b9 311f 48be 957d 843e
00000310: 816e 6d3d 67bf 28bd a855 193d 8bec 063d
00000320: 7f11 153d 11c8 11bc 5bb9 cf3a 576f 00be
00000330: f0f4 413d 7ee7 993d c5c2 a13e 629d 803c
00000340: 5100 e03d e6f7 acbd fa7c 8bbc 1268 21bd
00000350: 3a57 debc 4a09 a83d 2986 093e 00e6 e73d
00000360: faf0 67be 0e05 25be 7eee cfbd 8b36 293d
00000370: bbd5 7a3d 647b 0cbd dc98 ddbc 8783 35bd
00000380: e1a1 103d f399 9c3e 551c 123b e1b4 77bd
00000390: 1307 0e3e de1e 16bd be08 f53d 4428 b4bd
000003a0: 414b 233b af9c afbd 0e7e 7c3d 2494 ab3d
000003b0: baa4 c7bd 3d36 033e bf2d 073e cdf5 0a3e
000003c0: 41b4 813d dd38 a1bc 8ded 0f3e afee 473d
000003d0: c111 253d a8a5 e7bd d699 4f3e 4186 94bb
000003e0: b847 43be 5343 a13d e12e 633c 881e 513e
000003f0: 4aeb 3dbc 90eb 0c3e db2d ed3d 7993 3dbe

feature_layers.1.bias f4 [128]
0.07135275 0.1683939 0.014559273 -0.09486151 0.056895137 0.08018424 0.028606543 -0.017895931
-0.009219915 0.1360035 -0.029558424 -0.10400701 0.023611937 0.035730954 -0.079520926 -0.056669425
0.03036569 -0.06838504 0.13077182 0.10524462 0.10301192 0.043314837 -0.14180906 -0.054155968
0.06553172 0.043033123 -0.0056644347 0.0722876 -0.08128376 -0.14881495 0.034200195 0.06390512
-0.014800385 -0.030900028 0.1063536 -0.13073356 -0.008277168 -0.0843928 0.02137266 0.052026812
0.038080357 -0.059621055 -0.0076146787 0.0072272765 -0.11113478 -0.016355796 -0.049650453 -0.09700009
0.082288176 -0.011186742 -0.10056712 0.021489557 -0.039112132 -0.046491675 -0.021393858 -0.041388735
0.06287112 0.030894713 -0.007566611 -0.08644704 -0.07524236 -0.043210957 0.0953487 0.099334866
0.07745733 -0.12180871 0.07941662 0.092970274 -0.14321999 0.06839153 -0.11304579 -0.12488628
-0.031268388 0.13666765 -0.042534884 0.030478315 -0.012026141 0.041677665 0.08276053 0.11473384
0.032827355 0.12923391 -0.13018231 0.013350411 -0.051898476 -0.059159122 -0.0067284913 -0.112572975
-0.004696164 0.12697682 -0.077860415 -0.02736683 0.13130035 -0.038380936 0.008932244 -0.06858767
0.07631246 0.09182826 -0.110888 0.032757312 0.019703617 0.04727162 0.085134745 0.06979216
0.056434106 0.072676726 -0.0737829 0.04963271 -0.09709324 0.048106503 0.070007265 0.0312788
-0.09119021 -0.10325909 0.059825636 -0.0037259809 0.013542438 -0.057054803 0.08675377 0.044252336
0.026649313 -0.06328177 0.051136352 -0.028393557 -0.06941028 -0.060014457 -0.12545915 0.0057573384
00000000: 6421 923d 736f 2c3e 048a 6e3c c046 c2bd
00000010: e00a 693d a337 a43d 4558 ea3c 7d9a 92bc
00000020: 200f 17bc 8044 0b3e 8224 f2bc a101 d5bd
00000030: d26d c13c 9f5a 123d dedb a2bd 331e 68bd
00000040: 78c1 f83c 750d 8cbd 0ce9 053e 7e8a d73d
00000050: eaf7 d23d e66a 313d 6536 11be a6d2 5dbd
00000060: 7f35 863d 8043 303d b99c b9bb 850b 943d
00000070: 1a78 a6bd f262 18be 8115 0c3d b0e0 823d
00000080: 507d 72bc 0e22 fdbc ebcf d93d 05df 05be
00000090: f59c 07bc 22d6 acbd b715 af3c 111a 553d
000000a0: 26fa 1b3d 3535 74bd 8e84 f9bb cad2 ec3b
000000b0: a29a e3bd 97fc 85bc 465e 4bbd fca7 c6bd
000000c0: b486 a83d 9948 37bc 22f6 cdbd de0a b03c
000000d0: 0b34 20bd 0e6e 3ebd 2c42 afbc 3c87 29bd
000000e0: 93c2 803d e916 fd3c 55f1 f7bb 250b b1bd
000000f0: ab18 9abd f9fd 30bd 2e46 c33d 1470 cb3d
00000100: f3a1 9e3d d876 f9bd 2ea5 a23d 3367 be3d
00000110: 43a8 12be dc10 8c3d 8d84 e7bd 61c4 ffbd
00000120: 4813 00bd 9bf2 0b3e 0f39 2ebd a9ad f93c
00000130: 4b09 45bc 33b6 2a3d 5a7e a93d 93f9 ea3d
00000140: fa75 063d e555 043e 834e 05be afbb 5a3c
00000150: 7f93 54bd d650 72bd ad7a dcbb a98c e6bd
00000160: 47e2 99bb 3606 023e 4875 9fbd 6730 e0bc
00000170: 9973 063e 5435 1dbd 8c58 123c b177 8cbd
00000180: b549 9c3d 7410 bc3d 3f19 e3bd 882c 063d
00000190: 7b69 a13c e39f 413d 205b ae3d 31ef 8e3d
000001a0: 7327 673d 89d7 943d 7d1b 97bd ab4b 4b3d
000001b0: d2d8 c6bd 530b 453d f85f 8f3d 331e 003d
000001c0: efc1 babd 8079 d3bd ba0b 753d 962f 74bb
000001d0: 1ae1 5d3c 4cb2 69bd f6ab b13d f041 353d
000001e0: a94f da3c df99 81bd 5a74 513d 9b99 e8bc
000001f0: fa26 8ebd b8d1 75bd 5d78 00be 0ea8 bc3b

value_stream.0.weight f4 [64, 128]
-0.01926734 -0.11217755 0.20337354 -0.04120135 0.19647096 0.08201274 0.035779953 -0.06302766
-0.014311001 -0.088897884 0.018082837 -0.0025773037 -0.15663244 0.010313923 -0.15839073 0.14976867
0.19654809 0.19176368 -0.005007613 -0.11365081 0.068636134 -0.16305774 -0.021175995 0.184014
-0.05958471 0.30367652 -0.012739882 0.21598746 0.048776075 0.048445802 0.27346382 0.0127369715
-0.08279921 0.048480228 -0.2682299 0.1982897 0.17536835 0.05043272 0.07362756 -0.20219788
0.06235435 0.27336934 0.055766378 0.13055454 -0.0025261706 -0.19026788 0.038583633 -0.31981146
0.10797049 0.049956914 0.2575637 0.1031622 0.20227025 -0.13126351 0.08797344 0.16519701
0.07918592 0.15054667 -0.10190092 -0.116495855 -0.20651539 0.16822882 -0.017945983 0.09775718
0.18223964 0.17217958 -0.10602423 -0.0053702286 -0.065058105 0.013074471 0.18836088 0.36335564
0.05291646 -0.015906317 0.17215492 -0.055130824 -0.17850865 0.14482619 0.0950607 -0.059584107
0.03917855 0.037969626 0.10660514 -0.24643442 -0.1538623 -0.07946057 0.017447948 0.13853942
0.007145462 0.25969005 0.2202663 0.10467684 -0.046653025 0.010196493 -0.06637164 0.050971825
0.14975542 -0.12662025 0.30265242 -0.052635744 -0.11631291 0.011414678 0.08118739 -0.034255803
0.14043552 -0.09844915 0.03488722 0.32902005 -0.2108382 -0.07453741 0.17170803 0.05229202
0.13851878 0.15673646 0.20326099 -0.11081968 0.2218678 0.011552958 -0.097946376 0.040291533
0.08144041 -0.1306083 -0.023055669 -0.004671611 0.22833776 -0.03791137 -0.013498345 0.16689825
-0.24363157 -0.098821685 0.054938987 -0.15337884 0.011095842 -0.031308375 -0.040512472 -0.2010109
0.0884164 0.013602902 0.04309421 0.21084157 -0.024280656 -0.08287184 -0.123752035 -0.036918096
-0.045532774 0.050298464 -0.086391404 0.01835562 -0.16608872 -0.063034125 0.24717036 0.2419507
-0.14543079 0.08325906 -0.08587292 0.13978674 0.01275078 -0.0061014527 -0.062033515 -0.051061463
-0.150099 -0.05860879 -0.13870625 -0.05506535 0.035956517 0.041968383 -0.13004687 0.05220303
0.43355146 -0.06082484 -0.28211427 -0.23731056 0.17876942 -0.09720085 -0.06413738 -0.034995716
0.085560195 0.15686163 -0.24645954 -0.16963798 -0.2727403 -0.109435745 0.10377571 -0.2446893
-0.09582031 0.079773925 0.13692756 0.07920967 0.083543785 -0.20155892 -0.03555634 -0.053155333
-0.033392906 -0.24701093 -0.1479592 -0.14701243 -0.27251202 -0.06521619 0.07939843 -0.040451266
0.10033717 -0.18529588 -0.06608135 -0.04524616 -0.22487642 0.16388175 -0.23735668 -0.055725697
-0.040469337 -0.049073875 0.21689518 0.09187043 0.032601368 0.2890786 0.093404986 -0.10633281
-0.18165177 -0.099560894 0.051066905 0.041278165 -0.049263958 0.18307355 -0.3482389 -0.055257954
0.029635252 0.11800176 -0.061096035 -0.14272343 -0.20495221 0.05301084 0.16027303 -0.09194619
-0.04892348 0.14177594 -0.123045556 0.07630132 0.03401664 0.005791744 -0.08615724 -0.043279182
-0.03594138 0.032340948 -0.020011682 0.0037321476 -0.029152248 0.056205522 -0.12875949 -0.09036578
-0.11219185 -0.043649983 -0.19243337 0.029379213 0.007319453 -0.21400498 -0.031645443 -0.0050904388
00000000: 8ad6 9dbc 58bd e5bd 2741 503e bfc2 28bd
00000010: af2f 493e 4cf6 a73d 008e 123d a514 81bd
00000020: b078 6abc 1810 b6bd 7522 943c fbe7 28bb
00000030: 4164 20be bafb 283c 2e31 22be f55c 193e
00000040: e743 493e b35d 443e e716 a4bb c2c1 e8bd
00000050: 1a91 8c3d 9cf8 26be 4879 adbc 2b6e 3c3e
00000060: 190f 74bd 7d7b 9b3e f0ba 50bc d12b 5d3e
00000070: 6cc9 473d 1b6f 463d 7303 8c3e bbae 503c
00000080: a292 a9bd 3493 463d 6e55 89be 750c 4b3e
00000090: c393 333e 8a92 4e3d 0cca 963d f60c 4fbe
000000a0: 4667 7f3d 11f7 8b3e 496b 643d 17b0 053e
000000b0: 1c8e 25bb 95d5 42be df09 1e3d 54be a3be
000000c0: a21f dd3d 9f9f 4c3d 64df 833e b446 d33d
000000d0: ef1f 4f3e f169 06be 6b2b b43d 6829 293e
000000e0: 3a2c a23d e828 1a3e 6eb1 d0bd 6195 eebd
000000f0: c578 53be 2d44 2c3e 7403 93bc eb34 c83d
00000100: 079d 3a3e d84f 303e 3b23 d9bd bef8 afbb
00000110: 2f3d 85bd 4e36 563c ade1 403e c009 ba3e
00000120: eebe 583d f74d 82bc 6149 303e dcd0 61bd
00000130: f9ca 36be 514d 143e 2faf c23d 770e 74bd
00000140: b079 203d 0a86 1b3d cc53 da3d 4e59 7cbe
00000150: 148e 1dbe 39bc a2bd 00ef 8e3c 47dd 0d3e
00000160: 7b24 ea3b 18f6 843e 7d8d 613e d060 d63d
00000170: 3e17 3fbd 310f 273c dbed 87bd d5c7 503d
00000180: 7c59 193e bda8 01be 42f5 9a3e 9498 57bd
00000190: 7735 eebd a104 3b3c 9345 a63d d04f 0cbd
000001a0: 54ce 0f3e b59f c9bd e7e5 0e3d 5175 a83e
000001b0: f8e5 57be 12a7 98bd 3bd4 2f3e 2830 563d
000001c0: ded7 0d3e 867f 203e a623 503e 6ef5 e2bd
000001d0: 5031 633e 9e48 3d3c 1c98 c8bd bc08 253d
000001e0: 3bca a63d 2fbe 05be 3edf bcbc 5014 99bb
000001f0: 60d1 693e f448 1bbd 2a28 5dbc 60e7 2a3e
00000200: 8e7a 79be 0663 cabd b407 613d 580f 1dbe
00000210: 56cb 353c 363d 00bd 68f0 25bd cdd5 4dbe
00000220: a813 b53d b5de 5e3c 8e83 303d dae6 573e
00000230: 3ae8 c6bc b6b8 a9bd b571 fdbd 6e37 17bd
00000240: 9380 3abd c305 4e3d faed b0bd 865e 963c
00000250: 2913 2abe 0918 81bd 3a1a 7d3e edc1 773e
00000260: cfeb 14be ba83 aa3d 24de afbd 4124 0f3e
00000270: a6e8 503c b2ee c7bb db16 7ebd d325 51bd
00000280: 8db3 19be c50f 70bd 0309 0ebe 348c 61bd
00000290: 2447 133d 0ae7 2b3d 022b 05be d8d2 553d
000002a0: 75fa dd3e 7823 79bd 4871 90be 8a01 73be
000002b0: 550f 373e 3d11 c7bd 755a 83bd ab57 0fbd
000002c0: 2f3a af3d 56a0 203e e45f 7cbe 94b5 2dbe
000002d0: 9ea4 8bbe d91f e0bd 5c88 d43d d58f 7abe
000002e0: 703d c4bd 8360 a33d bd36 0c3e ae38 a23d
000002f0: 0119 ab3d 7665 4ebe 86a3 11bd 68b9 59bd
00000300: 00c7 08bd 6ff0 7cbe 9e82 17be 6d8a 16be
00000310: b286 8bbe 1190 85bd a59b a23d 3ab0 25bd
00000320: 937d cd3d 34be 3dbe a955 87bd 0a54 39bd
00000330: 0146 66be 9ed0 273e a10d 73be a140 64bd
00000340: 2dc3 25bd b001 49bd c519 5e3e 9026 bc3d
00000350: 0389 053d 1c02 943e 1d4b bf3d 04c5 d9bd
00000360: ec02 3abe 95e6 cbbd 882b 513d 4b13 293d
00000370: 01c9 49bd a277 3b3e 5e4c b2be 2a56 62bd
00000380: a1c5 f23c e8aa f13d d63f 7abd 1726 12be
00000390: fede 51be e521 593d 9d1e 243e 494e bcbd
000003a0: fd63 48bd b62d 113e 4fff fbbd de43 9c3d
000003b0: 0855 0b3d acc8 bd3b 3573 b0bd 8345 31bd
000003c0: 4537 13bd f177 043d 8aef a3bc 0c97 743b
000003d0: b2d0 eebc c337 663d 87d9 03be b211 b9bd
000003e0: d7c4 e5bd 53ca 32bd 410d 45be adac f03c
000003f0: 06d8 ef3b 1f24 5bbe a79e 01bd b2cd a6bb

value_stream.0.bias f4 [64]
0.0014151456 0.026242573 0.07553992 -0.087219656 -0.00040778922 -0.06070538 0.09794339 0.019055331
0.03266774 0.005964411 -0.0025603971 0.1409643 0.06753954 0.0024578038 -0.14412801 0.03180012
0.009180152 0.07306438 0.03798427 0.002135869 -0.07711854 -0.009487315 0.12378645 -0.09390744
-0.031257205 0.023708895 -0.019971885 -0.08057807 0.013524186 -0.025495768 0.00957305 0.041757796
0.12849715 0.1335073 -0.09245569 0.1307187 -0.058723766 0.03211658 -0.05691493 -0.007857954
0.15400651 -0.083981924 -0.03916956 -0.0479934 0.05101963 0.008388938 -0.012769834 -0.030724071
0.031640586 0.073136084 0.11084418 -0.09922879 0.06348647 0.031096507 0.017411165 -0.022123996
0.020499075 0.16718298 -0.0941291 0.0033463167 -0.0074182525 0.009744347 -0.031653613 0.09600686
00000000: 687c b93a aafa d63c acb4 9a3d 38a0 b2bd
00000010: 8bcc d5b9 34a6 78bd 8b96 c83d ed19 9c3c
00000020: 9cce 053d 1b71 c33b 56cc 27bb f258 103e
00000030: 2c52 8a3d 1b13 213b 4b96 13be d840 023d
00000040: 5968 163c c7a2 953d 6595 1b3d f0f9 0b3b
00000050: 53f0 9dbd af70 1bbc c083 fd3d 8b52 c0bd
00000060: 8e07 00bd 2839 c23c 149c a3bc 1d06 a5bd
00000070: 8c94 5d3c 80dc d0bc 48d8 1c3c 390a 2b3d
00000080: c294 033e 23b6 083e 6959 bdbd 1fdb 053e
00000090: 5588 70bd ad8c 033d a11f 69bd a6be 00bc
000000a0: e2b3 1d3e b7fe abbd 4370 20bd ba94 44bd
000000b0: f6f9 503d c271 093c 9138 51bc 0cb1 fbbc
000000c0: 8f99 013d 5fc8 953d 4602 e33d 7738 cbbd
000000d0: 3205 823d 1abe fe3c dca1 8e3c 623d b5bc
000000e0: aded a73c 0432 2b3e c2c6 c0bd e14d 5b3b
000000f0: d014 f3bb c1a6 1f3c 38a7 01bd 3f9f c43d

value_stream.2.weight f4 [1, 64]
-0.08652737 -0.13397199 0.10581418 -0.17511134 0.16697659 -0.34915885 0.12886362 0.11499901
0.19211906 0.13609898 0.063711576 0.07766294 0.14445287 0.5096062 -0.07110078 0.46669888
-0.1230045 0.33273908 -0.11727203 -0.3686562 -0.2821914 0.0564212 0.1408424 -0.10743118
-0.2850888 -0.14124818 -0.2788276 -0.23386192 0.26017544 0.22486274 0.1369537 0.2263314
0.16112332 0.06029317 -0.33314717 0.11643526 -0.1935547 -0.3390147 -0.05842572 0.11136902
0.15487085 -0.053426974 -0.11039794 -0.17156371 0.24401243 0.15030982 -0.5356528 0.2112389
-0.09971179 0.1118755 0.15169723 -0.14446083 0.4749928 0.17624068 0.40856743 0.37535983
-0.14646791 0.121957146 -0.3424466 -0.45412222 -0.12111142 0.0028426182 0.34443715 0.18051517
00000000: 4335 b1bd f42f 09be 1bb5 d83d 6350 33be
00000010: e9fb 2a3e f3c4 b2be d3f4 033e 9a84 eb3d
00000020: dcba 443e 885d 0b3e 377b 823d bf0d 9f3d
00000030: 74eb 133e 8d75 023f 499d 91bd 28f3 ee3e
00000040: c9e9 fbbd c75c aa3e 512c f0bd 81c0 bcbe
00000050: 647b 90be eb19 673d fd38 103e e104 dcbd
00000060: 29f7 91be 5da3 10be 7ec2 8ebe 8079 6fbe
00000070: b735 853e 6b42 663e 973d 0c3e 6bc3 673e
00000080: 83fd 243e f9f5 763d 4492 aabe 9c75 ee3d
00000090: 3433 46be 5693 adbe cf4f 6fbd 7115 e43d
000000a0: 7796 1e3e 3ed6 5abd 5118 e2bd 66ae 2fbe
000000b0: 65de 793e d1ea 193e 8b20 09bf 034f 583e
000000c0: b235 ccbd fb1e e53d 8556 1b3e 8aed 13be
000000d0: 4232 f33e 7078 343e c02f d13e 2a2f c03e
000000e0: affb 15be abc4 f93d 2955 afbe b582 e8be
000000f0: 4409 f8bd 384b 3a3b 115a b03e f8d8 383e

advantage_stream.0.weight f4 [64, 128]
-0.013683661 -0.013619702 -0.21342686 0.33743367 0.12548026 -0.07724511 0.0056265546 0.15598424
0.07991839 0.0033724708 -0.0011227261 0.09373618 -0.009661443 -0.102327086 0.581272 -0.02425065
-0.059431806 -0.20778675 0.008712366 -0.14040527 -0.3046323 -0.17380007 0.044146154 -0.32078707
0.028568573 -0.25350672 -0.16255178 -0.048665747 0.2379577 0.27647966 0.08354462 -0.07410095
0.054664325 0.087788686 -0.20247479 0.0984046 -0.12111348 0.03238738 -0.015994769 0.31844905
-0.009538119 0.11708358 -0.11327914 0.25782558 -0.21694583 -0.1616771 0.119766794 0.30646688
0.004671017 -0.18418667 0.110060416 -0.10083822 -0.1482785 0.21568067 -0.23934892 -0.21551603
0.12423617 0.13753441 -0.24906859 -0.19884717 0.22515804 -0.0016152645 -0.2097895 0.03409841
-0.041160516 0.05976095 0.12952271 0.117431335 0.0366844 -0.0885229 -0.10725756 0.20758258
0.07760907 -0.2164229 0.2188592 0.0029306936 0.029859949 -0.06169401 -0.016551318 0.06233542
-0.14328672 -0.10760181 0.13076006 0.18872294 0.39170793 0.15328915 0.13825013 0.014928251
0.34474096 -0.26476055 0.33602804 -0.054235578 0.0017481925 0.4681802 0.11746538 -0.08745592
0.00728598 -0.124623 -0.091411754 0.025505679 -0.14352235 -0.30487084 -0.059068836 -0.14639236
0.010082442 -0.026798474 0.15694158 0.03469257 -0.055388976 0.026338156 -0.23018329 -0.09159172
0.1417897 -0.01848563 -0.07383456 0.04044901 0.28592205 0.6234641 -0.0937998 -0.1429704
0.082694024 0.04302944 -0.2603882 -0.07404388 0.23797357 -0.22483191 -0.0013983545 0.06651297
0.12556794 -0.04908885 0.02398108 -0.07835766 0.14426753 -0.094655894 0.14338197 -0.15619183
-0.09883173 -0.13961938 -0.08032718 0.15896802 0.14775448 -0.1287585 -0.05178078 -0.041953094
0.15272847 0.29168707 -0.090408444 0.002969777 -0.1447639 0.06797502 -0.17735112 0.28436825
-0.061157934 0.008928022 0.13721916 -0.108579986 0.041864898 0.06330239 0.15217853 -0.054646708
-0.19557256 -0.035987314 0.07471473 0.19746538 -0.15127712 -0.29092988 -0.27322042 0.0016260098
0.22909226 -0.016552385 -0.108164445 -0.061382763 -0.034795497 0.11497695 0.15013762 -0.18857338
-0.02331514 -0.25778112 -0.0023809702 -0.031242989 -0.022586897 0.2844511 0.13101949 0.073210835
0.052553944 -0.041990556 -0.253731 -0.053165738 -0.1945717 0.07137258 0.26484838 0.1580867
0.077819206 0.17896181 -0.03100078 -0.00043629017 -0.01699769 -0.29708037 -0.036120966 -0.048892856
0.17628928 0.29419175 -0.018851688 -0.014092972 0.022829704 0.2412317 0.072642915 0.12968881
0.009401405 -0.03721448 0.26990134 0.036655977 0.070621885 -0.016410641 -0.14014876 0.784707
-0.0994592 -0.16708131 0.22723114 -0.008817933 0.12411137 -0.09837837 -0.2222228 -0.025323497
0.32549605 -0.0107672075 0.32027906 -0.13139059 0.07078077 0.05241874 -0.03416559 0.23112467
-0.236004 0.06643995 0.1258578 0.013475789 -0.048018362 -0.24647957 0.07176626 0.22186543
0.08024224 0.2530027 -0.07944798 0.025033532 0.27774093 -0.26387036 0.1641368 0.012912173
0.45601785 0.0906651 -0.022939483 0.10163888 -0.14852309 0.09131908 0.032222543 0.19110969
00000000: 6f31 60bc 2c25 5fbc 928c 5abe 1bc4 ac3e
00000010: e67d 003e af32 9ebd f65e b83b 55ba 1f3e
00000020: 41ac a33d ac04 5d3b 7028 93ba c1f8 bf3d
00000030: 074b 1ebc dd90 d1bd 3ece 143f 4da9 c6bc
00000040: c46e 73bd 0dc6 54be 50be 0e3c 66c6 0fbe
00000050: c4f8 9bbe a5f8 31be 99d2 343d 343e a4be
00000060: a408 ea3c a2cb 81be f973 26be bc55 47bd
00000070: 2fab 733e be8e 8d3e 7119 ab3d 3dc2 97bd
00000080: b3e7 5f3d 8eca b33d 8d55 4fbe 5a88 c93d
00000090: 580a f8bd a1a8 043d 7607 83bc c10b a33e
000000a0: c545 1cbc 84c9 ef3d e5fe e7bd b701 843e
000000b0: 0c27 5ebe af8e 25be 4b48 f53d 3ae9 9c3e
000000c0: 550f 993b 6e9b 3cbe 5b67 e13d 4584 cebd
000000d0: 52d6 17be 65db 5c3e e217 75be 3cb0 5cbe
000000e0: 886f fe3d d2d5 0c3e d60b 7fbe 989e 4bbe
000000f0: d48f 663e 48b7 d3ba 0fd3 56be c6aa 0b3d
00000100: ee97 28bd e6c7 743d 9aa1 043e d77f f03d
00000110: 6242 163d 7f4b b5bd daa9 dbbd 8790 543e
00000120: 81f1 9e3d f79d 5dbe a01c 603e e110 403b
00000130: da9c f43c dcb2 7cbd a196 87bc 6d53 7f3d
00000140: c1b9 12be 565e dcbd f7e5 053e 9640 413e
00000150: f18d c83e d5f7 1c3e 7191 0d3e 9f95 743c
00000160: e381 b03e b28e 87be de0b ac3e 2026 5ebd
00000170: 9b23 e53a 51b5 ef3e b091 f03d 171c b3bd
00000180: 3bbf ee3b 583a ffbd 1636 bbbd 49f1 d03c
00000190: 86f7 12be 0818 9cbe 2af2 71bd e1e7 15be
000001a0: d430 253c 7988 dbbc 4bb5 203e cc19 0e3d
000001b0: 8ddf 62bd 1ec3 d73c 2bb5 6bbe 7194 bbbd
000001c0: 5231 113e 2d6f 97bc 9336 97bd dcad 253d
000001d0: 6064 923e 589b 1f3f 1c1a c0bd d566 12be
000001e0: 7c5b a93d a33f 303d 9a51 85be 51a4 97bd
000001f0: 58af 733e 563a 66be fe48 b7ba f437 883d
00000200: e294 003e 6411 49bd f873 c43c fb79 a0bd
00000210: deba 133e f3da c1bd b9d2 123e c0f0 1fbe
00000220: 4a68 cabd 62f8 0ebe 9482 a4bd 83c8 223e
00000230: f34c 173e 45d9 03be 1518 54bd 02d7 2bbd
00000240: da64 1c3e 0258 953e 1028 b9bd 97a0 423b
00000250: fd3c 14be 7d36 8b3d 889b 35be b798 913e
00000260: be80 7abd d746 123c 2e83 0c3e 2f5f debd
00000270: 877a 2b3d afa4 813d b0d4 1b3e 3ad5 5fbd
00000280: 2c44 48be 6f67 13bd 0904 993d 5d34 4a3e
00000290: 64e8 1abe c3f4 94be 8ce3 8bbe d61f d53a
000002a0: 2997 6a3e de98 87bc 5285 ddbd 7e6c 7bbd
000002b0: b985 0ebd 0979 eb3d adbd 193e 6119 41be
000002c0: 64ff bebc e3fb 83be 0d0a 1cbb 4cf1 ffbc
000002d0: 2808 b9bc 93a3 913e f929 063e 90ef 953d
000002e0: ce42 573d 4afe 2bbd 08e9 81be 51c4 59bd
000002f0: ce3d 47be ca2b 923d 359a 873e 7be1 213e
00000300: ad5f 9f3d c441 373e 59f5 fdbc e0bd e4b9
00000310: bd3e 8bbc eb1a 98be 94f3 13bd e043 48bd
00000320: 2d85 343e 4da0 963e db6e 9abc 35e6 66bc
00000330: 5c05 bb3c 7105 773e cfc5 943d 25cd 043e
00000340: 5a08 1a3c 366e 18bd 8230 8a3e 9424 163d
00000350: 35a2 903d 9c6f 86bc 2883 0fbe 8fe2 483f
00000360: 44b1 cbbd 5d17 2bbe 48af 683e 1779 10bc
00000370: 1a2e fe3d 997a c9bd 608e 63be 3973 cfbc
00000380: 6ba7 a63e f168 30bc 9efb a33e 418b 06be
00000390: 82f5 903d 08b5 563d 38f1 0bbd f2ab 6c3e
000003a0: 08ab 71be ab11 883d dee0 003e 8ec9 5c3c
000003b0: e7ae 44bd 2465 7cbe 30fa 923d b130 633e
000003c0: 0b56 a43d 9289 813e 9fb5 a2bd 1f13 cd3c
000003d0: 0f34 8e3e 041a 87be 7a13 283e 948d 533c
000003e0: 2c7b e93e a0ae b93d 95eb bbbc 0c28 d03d
000003f0: 7016 18be 7f05 bb3d c9fb 033d 42b2 433e

advantage_stream.0.bias f4 [64]
-0.092192344 0.03365013 0.061837535 -0.05738261 0.07007694 0.0292877 -0.054568287 -0.11510948
0.0019549695 -0.08240276 0.03475255 -0.030540429 -0.097926475 0.017057264 -0.0016186727 0.04429358
0.037380483 -0.085698284 0.013558045 -0.041433286 -0.04648404 -0.05092369 0.019319607 0.05075625
-0.08793748 0.019162929 0.0030476004 -0.076662295 -0.076933146 -0.06611002 -0.025743142 -0.058399808
-0.013504952 -0.05341486 0.005244117 0.09534441 -0.011406645 0.061731476 -0.04604993 0.052212194
0.03249074 0.013856716 -0.040070597 0.034096543 -0.008184531 0.002551788 0.04612698 0.029550264
-0.04904849 0.02586081 0.03445811 -0.04046492 0.06851145 0.02548349 -0.008093413 -0.001063096
-0.029718794 0.016530525 0.07133745 0.06578483 0.01408786 -0.017583527 -0.06203355 0.080204315
00000000: 57cf bcbd b8d4 093d 5b49 7d3d 070a 6bbd
00000010: 8084 8f3d c2ec ef3c ff82 5fbd 85be ebbd
00000020: f21e 003b c7c2 a8bd b158 0e3d ec2f fabc
00000030: ad8d c8bd adbb 8b3c a529 d4ba 2f6d 353d
00000040: 471c 193d 9582 afbd 9022 5e3c f3b5 29bd
00000050: 0c66 3ebd 5c95 50bd 2744 9e3c c9e5 4f3d
00000060: 9118 b4bd 93fb 9c3c 40ba 473b 1f01 9dbd
00000070: 208f 9dbd b164 87bd 48e3 d2bc a334 6fbd
00000080: e043 5dbc 8ac9 5abd d8d6 ab3b ee43 c33d
00000090: f0e2 3abc 25da 7c3d da9e 3cbd 74dc 553d
000000a0: 0315 053d 4807 633c 1121 24bd d1a8 0b3d
000000b0: 6918 06bc e63b 273b a5ef 3c3d 6513 f23c
000000c0: 12e7 48bd 0dda d33c f223 0d3d 8bbe 25bd
000000d0: bb4f 8c3d c1c2 d03c 3c9a 04bc 9557 8bba
000000e0: d474 f3bc 066b 873c 5e19 923d 32ba 863d
000000f0: c4d0 663c 540b 90bc e416 7ebd 2942 a43d

advantage_stream.2.weight f4 [4, 64]
0.50069517 -0.2846515 0.057298917 -0.051281642 0.10092564 -0.02137499 -0.13185474 -0.039091554
-0.113260664 0.11996353 -0.45729953 -0.3282229 0.3669491 -0.72208816 0.13064574 -0.051900662
-0.059831135 0.33139774 0.08251656 0.14268045 0.20109658 -0.013410462 0.3076617 0.32470146
0.16689877 -0.03591602 -0.4285028 0.19523963 0.40227106 0.54086524 -0.10852902 0.085183844
-0.3446035 -0.13998666 0.27759486 -0.34046042 0.39100114 0.12306536 0.15824816 0.2558297
0.49809718 0.06335947 -0.11432625 -0.061228205 -0.37155873 0.16213216 -0.30306703 0.25987282
-0.31446445 -0.264452 -0.0591169 0.12913388 0.13071117 -0.10366021 0.18266737 0.11389905
0.008686183 -0.09974409 -0.114681356 -0.07701592 -0.26658377 0.7500446 0.069089375 -0.5687902
0.18648826 -0.73578596 0.42986903 -0.19250616 0.056578785 0.008796143 0.38199034 0.06739436
0.20796509 0.040687207 0.2637387 0.20448944 -0.00855858 -0.009102998 0.10825149 -0.042114615
-0.12152452 0.24302797 -0.4516316 -0.41280073 -0.0021378167 0.0035918788 0.63235486 0.37830222
0.28402442 0.24015677 0.23771378 -0.35950902 -0.10570456 0.3565428 0.24429756 -0.3204781
0.28778097 -0.1138163 0.291281 -0.51819414 0.27286416 0.55456257 -0.41754267 0.35137194
0.13277352 0.1819019 0.24076995 0.38778606 -0.03710713 -0.11126705 -0.10017669 0.41254494
0.45655033 0.064583585 0.34257066 0.024728402 -0.14344361 0.08234454 0.016756507 0.04741251
0.076384544 0.44221577 0.070356235 -0.16443473 0.14960742 0.2550438 0.24846722 -0.51233935
-0.29450074 -0.14388523 0.01354447 0.04651765 0.22308151 -0.078741856 0.089617774 -0.19105798
0.6678877 0.051910818 -0.08760081 0.45118862 -0.053710777 0.15924527 -0.044377945 -0.2858907
0.15323074 0.20558101 -0.4642672 0.0752628 -0.093926005 -0.31390902 -0.18781282 -0.25521767
0.12848908 0.2511257 0.11978292 0.10619221 -0.19445805 -0.33925882 0.21392655 0.122458935
-0.08401022 -0.097959824 -0.47158965 0.49730942 -0.16000223 -0.42051172 0.01827433 -0.325043
0.24744824 -0.39056477 -0.020236818 -0.025239116 0.39236498 -0.040676706 0.62571955 -0.4378961
0.16286384 0.11372552 -0.26794443 -0.14695053 0.09441661 -0.16956878 -0.11519015 -0.5038633
0.22087802 0.41956645 0.001616272 0.19270426 0.14577624 0.35753968 -0.20716314 0.6526701
-0.10576325 -0.11228006 0.17691289 -0.24959482 0.11448388 -0.035839193 -0.09601472 -0.16121443
0.119144805 -0.253881 0.14168218 0.44858977 0.29298925 0.399271 -0.3954593 0.09315301
-0.17890628 -0.074321605 -0.047106214 0.104288824 0.045412745 0.01503427 -0.44680354 -0.11862293
-0.18821213 0.3155896 0.19993654 -0.14335987 0.07305885 -0.13051082 -0.36494473 -0.119015515
0.2851463 -0.0063967477 -0.39384407 0.6029913 -0.15204617 -0.2480921 0.21991687 -0.05422886
-0.22864936 0.024420578 0.037092816 0.06737558 0.35919762 0.36168998 0.35009456 -0.22459047
0.38278976 -0.04875401 -0.06892262 -0.0054809926 -0.30495337 0.19623251 -0.007965868 0.25527588
0.08971103 -0.018586956 0.37395525 0.17558762 -0.20282017 -0.33449796 -0.13165615 0.53534514
00000000: 8f2d 003f d7bd 91be 45b2 6a3d b30c 52bd
00000010: 1ab2 ce3d 9a1a afbc ee04 07be 771e 20bd
00000020: 35f5 e7bd 70af f53d 2a23 eabe d50c a8be
00000030: c1e0 bb3e c5da 38bf ffc7 053e ca95 54bd
00000040: 7e11 75bd f7ac a93e 71fe a83d d31a 123e
00000050: 43ec 4d3e 8eb7 5bbc d685 9d3e 453f a63e
00000060: 83e7 2a3e ad1c 13bd b864 dbbe e6ec 473e
00000070: 79f6 cd3e 2576 0a3f 7644 debd de74 ae3d
00000080: df6f b0be aa58 0fbe ea20 8e3e d450 aebe
00000090: 4d31 c83e b109 fc3d ce0b 223e 1cfc 823e
000000a0: 9806 ff3e 9cc2 813d e223 eabd 6dca 7abd
000000b0: f23c bebe f905 263e 9a2b 9bbe 0d0e 853e
000000c0: 7c01 a1be 4166 87be 9024 72bd ac3b 043e
000000d0: 26d9 053e ce4b d4bd 280d 3b3e e843 e93d
000000e0: 7e50 0e3c a146 ccbd 0fde eabd 86ba 9dbd
000000f0: ab7d 88be ec02 403f bb7e 8d3d 3c9c 11bf
00000100: c7f6 3e3e 785c 3cbf cb17 dc3e 5620 45be
00000110: 28bf 673d b31d 103c 3d94 c33e 0e06 8a3d
00000120: cdf4 543e a1a7 263d c208 873e ae65 513e
00000130: 4939 0cbc be24 15bc f5b2 dd3d 6080 2cbd
00000140: d9e1 f8bd 53dc 783e 423c e7be 9e5a d3be
00000150: 9d1a 0cbb ba65 6b3b 02e2 213f d4b0 c13e
00000160: a66b 913e a8eb 753e 3e6b 733e 9111 b8be
00000170: a27b d8bd c78c b63e 2429 7a3e b515 a4be
00000180: 0758 933e 8518 e9bd c922 953e 5fa8 04bf
00000190: dab4 8b3e d0f7 0d3f 27c8 d5be 06e7 b33e
000001a0: c8f5 073e 7e44 3a3e 668c 763e e58b c63e
000001b0: a5fd 17bd fbdf e3bd 7029 cdbd 1739 d33e
000001c0: f7c0 e93e 6644 843d 6c65 af3e 3893 ca3c
000001d0: e2e2 12be 41a4 a83d f144 893c 9f33 423d
000001e0: 806f 9c3d 1b6a e23e ee16 903d 9461 28be
000001f0: b032 193e 1a95 823e 316e 7e3e ac28 03bf
00000200: cdc8 96be a656 13be a0e9 5d3c 4b89 3e3d
00000210: 7b6f 643e 6943 a1bd 8689 b73d b4a4 43be
00000220: b0fa 2a3f 70a0 543d 0e68 b3bd 3202 e73e
00000230: d5ff 5bbd 3111 233e a6c5 35bd 4460 92be
00000240: 85e8 1c3e d483 523e 6eb4 edbe 6223 9a3d
00000250: 475c c0bd afb8 a0be 0152 40be e4ab 82be
00000260: a492 033e 8c93 803e bf50 f53d 4d7b d93d
00000270: 0320 47be 55b3 adbe 900f 5b3e c0cb fa3d
00000280: 8d0d acbd 299f c8bd 3374 f1be 579f fe3e
00000290: a0d7 23be 504d d7be 0cb4 953c 096c a6be
000002a0: 1263 7d3e 1bf8 c7be afc7 a5bc 43c2 cebc
000002b0: 10e4 c83e 9e9c 26bd 282f 203f eb33 e0be
000002c0: c7c5 263e ede8 e83d 0330 89be 337a 16be
000002d0: 7f5d c13d 70a3 2dbe d0e8 ebbd 2ffd 00bf
000002e0: d92d 623e 6ad1 d63e 17d9 d33a 4454 453e
000002f0: 5e46 153e 710f b73e 9322 54be 6315 273f
00000300: 679a d8bd 17f3 e5bd a728 353e c995 7fbe
00000310: 8676 ea3d 1ecc 12bd 5ea3 c4bd 6515 25be
00000320: 3102 f43d b1fc 81be 2215 113e 8fad e53e
00000330: b002 963e 406d cc3e a479 cabe 01c7 be3d
00000340: 3533 37be ed35 98bd 72f2 40bd 6195 d53d
00000350: b702 3a3d 4c52 763c 6fc3 e4be 94f0 f2bd
00000360: aeba 40be f694 a13e 2abc 4c3e eecc 12be
00000370: e19f 953d a1a4 05be 09da babe 68be f3bd
00000380: b2fe 913e cf9b d1bb eea5 c9be a35d 1a3f
00000390: feb1 1bbe db0b 7ebe e331 613e 151f 5ebd
000003a0: 0f23 6abe aa0d c83c a3ee 173d 35fc 893d
000003b0: c0e8 b73e 6e2f b93e 983f b33e 0bfb 65be
000003c0: 05fd c33e 49b2 47bd 4d27 8dbd e699 b3bb
000003d0: d922 9cbe 2df1 483e 4683 02bc 85b3 823e
000003e0: 6bba b73d ac43 98bc 1077 bf3e 3ecd 333e
000003f0: 17b0 4fbe 5143 abbe dfd0 06be 610c 093f

advantage_stream.2.bias f4 [4]
0.10636768 0.044319846 0.12187937 -0.12072706
00000000: 4cd7 d93d ba88 353d e49b f93d c03f f7bd

feature_layers.0.weight f4 [128, 24]
0.02317463 -0.5699569 -0.17709078 -0.05164442 -0.22738749 0.34331825 -0.19609539 0.027424429
-0.2171114 -0.0039619636 -0.32426 0.17535967 -0.11056018 0.29907337 0.1002417 0.22975782
-0.37389994 -0.36262277 -0.8738301 0.16073853 0.14951828 -0.124123305 -0.50675976 -0.29344463
-0.4616789 -0.51565343 0.044380996 -0.35126987 -0.35514382 0.5305914 -0.30453047 0.040991046
0.10750933 -0.4136489 0.14860834 0.41412717 0.16449355 -0.44095752 0.14839344 -0.18733148
0.07007846 -0.33037007 -0.1982313 -0.11518937 0.23951375 0.34729484 0.16869058 0.5736619
-0.5980858 0.5745006 -0.39182103 0.05618915 0.077141486 0.20812875 -0.08609802 -0.024416381
-0.3448581 -0.22863777 0.46575445 0.056307264 -0.055407457 -0.3449377 -0.19228584 0.7003343
-0.19260743 0.5265622 0.08960772 -0.52118564 0.35066497 0.5671368 -0.45229363 -0.11844208
-0.19548063 0.050190575 0.025002936 0.046704564 -0.5010497 -0.14839876 0.060015302 -0.40553492
-0.25110576 0.04115632 0.1584438 -0.5374638 -0.3323714 0.13845716 0.084542945 -0.040283807
-0.4293178 -0.84427625 0.1501513 -0.010486478 0.13304949 0.25917596 0.017010061 0.22196566
0.054144163 0.032089833 0.048553005 -0.012501169 0.14099771 0.071831726 -0.09733977 0.3078251
-0.04665165 0.34162226 -0.3811699 0.12092269 0.41390914 -0.02527187 -0.0031466428 -0.054565303
-0.83865696 -0.09353143 -0.11763063 0.32000414 0.04733305 -0.03341358 0.5230733 -0.4708795
0.011627522 -0.059213564 -0.33844873 -0.040216792 0.07623648 -0.01871898 -0.22615606 0.07680183
-0.5688275 -0.39605308 -0.2767466 -0.037773672 0.17310281 -0.40330374 0.08248794 0.5716633
-0.0147803575 0.25666156 0.68223435 0.14718917 -0.0019687572 0.49431652 -0.090624206 0.3768059
0.28781965 -0.032849796 0.23743053 -0.52205527 -0.14607656 -0.1179817 0.3041642 -0.22925775
-0.021374568 -0.02896626 -0.13607751 0.3524931 -0.05654332 -0.25950402 0.40800428 0.43174508
0.15765302 0.1892662 -0.17368366 0.3313299 -0.6075073 0.34515506 0.8045983 -0.22493154
-0.5015472 0.4772677 -0.38873297 -0.13657591 -0.10921195 -0.11598608 0.12764676 0.09277487
-0.08873858 0.42993712 0.30961958 0.6053339 -0.13710493 -0.2992743 0.10720309 -0.14352149
-0.6463383 0.2271492 -0.033826545 0.02968893 -0.10910271 -0.30471697 0.2269138 -0.009214276
0.22017655 -0.24758579 0.33180335 0.17594798 -0.10925539 0.12382307 0.15482667 -0.5349268
-0.21705683 -0.03424586 0.29104638 0.040055104 0.23381406 0.11860196 0.40114883 0.21401031
-0.19120312 -0.041122194 0.4318443 0.45181486 -0.33780956 -0.14853978 0.5019951 0.12855634
0.005723493 -0.31279576 0.09194501 -0.4957215 -0.3634869 -0.45273933 0.32297724 -0.23059484
0.04554783 -0.10696638 -0.064603046 0.0019289256 -0.6629931 0.21191747 -0.60705674 -0.0041894307
-0.47331727 0.22362775 -0.23871264 -0.48757097 -0.2557515 -0.13237834 0.26137576 0.48574424
0.20117377 -0.4493367 0.47632742 -0.4820843 -0.005678758 0.08779711 -0.17149518 -0.16484553
-0.30304724 0.15534446 0.012533423 -0.10190375 -0.27063677 0.09709329 -0.18367897 0.46922752
00000000: b9d8 bd3c b2e8 11bf 4957 35be 1989 53bd
00000010: 44d8 68be 69c7 af3e 3bcd 48be 32a9 e03c
00000020: 7352 5ebe 5cd3 81bb 6805 a6be 7c91 333e
00000030: 606d e2bd 2520 993e 854b cd3d a245 6b3e
00000040: d06f bfbe b1a9 b9be 54b3 5fbf a498 243e
00000050: 521b 193e 5c34 febd 02bb 01bf 603e 96be
00000060: 2d61 ecbe dd01 04bf d9c8 353d a5d9 b3be
00000070: 69d5 b5be d7d4 073f 6beb 9bbe 3ae6 273d
00000080: da2d dc3d cac9 d3be c92c 183e 7a08 d43e
00000090: ff70 283e 2fc5 e1be 73f4 173e d3d3 3fbe
000000a0: 4c85 8f3d 4426 a9be 25fd 4abe 68e8 ebbd
000000b0: 1843 753e a1d0 b13e 39bd 2c3e 82db 123f
000000c0: 271c 19bf 7912 133f c49c c8be 9826 663d
000000d0: 5bfc 9d3d b41f 553e 2954 b0bd dd04 c8bc
000000e0: 3e91 b0be 0520 6abe 5e77 ee3e 72a2 663d
000000f0: eef2 62bd ad9b b0be 94e6 44be 1c49 333f
00000100: e23a 45be c8cc 063f 4184 b73d 6c6c 05bf
00000110: 5c8a b33e e12f 113f 0893 e7be c391 f2bd
00000120: 132c 48be a294 4d3d f5d2 cc3c 494d 3f3d
00000130: cb44 00bf d8f5 17be 9bd2 753d 46a2 cfbe
00000140: ef90 80be 8893 283d 173f 223e 3a97 09bf
00000150: 962c aabe b7c7 0d3e da24 ad3d a200 25bd
00000160: 8bcf dbbe 7d22 58bf 43c1 193e 7acf 2bbc
00000170: 203e 083e b6b2 843e af58 8b3c f74a 633e
00000180: 45c6 5d3d a170 033d 84df 463d b4d1 4cbc
00000190: b461 103e 831c 933d 135a c7bd 409b 9d3e
000001a0: cd15 3fbd 1de9 ae3e b328 c3be 51a6 f73d
000001b0: e6eb d33e f406 cfbc e837 4ebb de7f 5fbd
000001c0: 39b2 56bf 688d bfbd 54e8 f0bd 95d7 a33e
000001d0: 4de0 413d aedc 08bd 22e8 053f 1e17 f1be
000001e0: 5d81 3e3c ec89 72bd 2749 adbe 5dba 24bd
000001f0: df21 9c3d 8c58 99bc 7495 67be 474a 9d3d
00000200: ae9e 11bf 78c7 cabe bbb1 8dbe 91b8 1abd
00000210: dd41 313e d47d cebe 70ef a83d 8758 123f
00000220: 5029 72bc 2569 833e e9a6 2e3f c2b8 163e
00000230: 4406 01bb 0e17 fd3e 2f99 b9bd b4ec c03e
00000240: 195d 933e 828d 06bd fd20 733e 6aa5 05bf
00000250: 1895 15be 64a0 f1bd 69bb 9b3e 8bc2 6abe
00000260: b819 afbc a64a edbc e757 0bbe fa79 b43e
00000270: f899 67bd b6dd 84be f0e5 d03e b10d dd3e
00000280: cb6f 213e 00cf 413e 21da 31be 13a4 a93e
00000290: 9985 1bbf 2ab8 b03e 27fa 4d3f 7454 66be
000002a0: 6665 00bf 6f5c f43e 0208 c7be 8eda 0bbe
000002b0: 84aa dfbd 1c8a edbd d5b5 023e c000 be3d
000002c0: 93bc b5bd b820 dc3e 7586 9e3e 2af7 1a3f
000002d0: 3c65 0cbe 7b3a 99be 4b8d db3d 4cf7 12be
000002e0: 6d76 25bf cd99 683e b48d 0abd 3336 f33c
000002f0: 3e71 dfbd dd03 9cbe 175c 683e 7af7 16bc
00000300: f675 613e 2187 7dbe 21e2 a93e b52b 343e
00000310: 4ac1 dfbd f396 fd3d e28a 1e3e f6f0 08bf
00000320: 2544 5ebe 6345 0cbd 0804 953e d210 243d
00000330: f46c 6f3e 96e5 f23d 6163 cd3e 8525 5b3e
00000340: c0ca 43be bf6f 28bd b21a dd3e 4754 e73e
00000350: 60f5 acbe d01a 18be c082 003f 46a4 033e
00000360: 248c bb3b c426 a0be aa4d bc3d 35cf fdbe
00000370: f41a babe 73cd e7be 465d a53e 0e21 6cbe
00000380: 5d90 3a3d 3011 dbbd 9a4e 84bd 01d4 fc3a
00000390: eab9 29bf e500 593e 1268 1bbf 7e47 89bb
000003a0: a456 f2be acfe 643e 1671 74be e7a2 f9be
000003b0: dcf1 82be 308e 07be 0bd3 853e 78b3 f83e
000003c0: 7f00 4e3e 760f e6be 30e1 f33e c1d3 f6be
000003d0: e014 babb f9ce b33d 6f9c 2fbe 44cd 28be
000003e0: 0229 9bbe 9e12 1f3e fc58 4d3c eab2 d0bd
000003f0: e790 8abe d9d8 c63d 5716 3cbe 973e f03e
