models/snake_dqn_ep93_score3_20250302_153403.pt (torch, 643938 bytes, 44 tensors)

feature_layers.0.weight f4 [128, 24]
000000 c5 e7 0d 3d 8c 45 19 bf bc 6f e2 bd 08 cb f1 bd
       0.03464486 -0.59871745 -0.11056468 -0.11806303
000010 d7 94 5f be 68 c8 a8 3e 02 ae 7b be d1 90 c7 3c
       -0.21834122 0.32965398 -0.24578097 0.024361046
000020 fa 25 42 be 68 f6 13 bd fa 9e a8 be d8 df 2e 3e
       -0.189598 -0.036123663 -0.3293379 0.17077577
000030 6a b6 15 be f8 5e 89 3e b3 89 ee 3d ef 80 ac 3e
       -0.14620367 0.26830268 0.11647358 0.3369212
000040 7c 4a 51 be 1e 42 75 be c8 6f 66 bf 64 b9 59 3e
       -0.2043857 -0.23951003 -0.90014315 0.21262127
000050 10 7b 43 3e b3 37 7a be 76 57 d5 be 4b 44 8c be
       0.19089913 -0.2443531 -0.4166829 -0.27395853
000060 d8 fe e7 be e0 e0 01 bf 2b 4a 49 3b e2 88 98 be
       -0.45311618 -0.50733757 0.0030714374 -0.29791933
000070 d3 52 b1 be cd 94 05 3f c6 59 be be 75 2e 76 3d
       -0.34633502 0.52180177 -0.37177867 0.0601029
000080 6f e7 d3 3d d8 74 d0 be 7f 94 4d 3e 6a bf bb 3e
       0.10346877 -0.40714145 0.20076178 0.36669475
000090 fe 03 51 3e 7e e6 dd be be 83 02 3e 5f 9f 41 be
       0.20411679 -0.43339914 0.12745568 -0.18908451
0000a0 21 fd f8 3d 66 2a 74 be 08 8f 68 be 0e 8c 00 be
       0.121576555 -0.23844299 -0.22710812 -0.12553427
0000b0 5e d8 57 3e d8 38 a3 3e 29 da 38 3e 22 9a 15 3f
       0.21078631 0.31879306 0.18051971 0.58438313
0000c0 9b ba 16 bf 02 a8 13 3f 22 57 a0 be 28 12 ec 3d
       -0.5887849 0.57678235 -0.31316477 0.115269005
0000d0 1a 04 d0 3d d8 d3 79 3e 61 2f 89 bd 8f de e1 3c
       0.10157032 0.24397218 -0.0669849 0.027571945
0000e0 30 00 a3 be 0c 44 29 be 7c 3c 07 3f 29 e3 ac 3d
       -0.3183608 -0.16529864 0.52826667 0.08441765
0000f0 30 8c 0b bd a8 d6 96 be c3 3e 4c be c2 15 2f 3f
       -0.03406924 -0.29460645 -0.19945817 0.68392575
000100 1a 13 2e be 91 9b fa 3e 08 49 e9 3d 89 53 10 bf
       -0.16999474 0.48946813 0.11390883 -0.56377465
000110 4d a8 85 3e 07 16 18 3f 40 84 f4 be 4d ca 86 bd
       0.26104966 0.5940861 -0.4775715 -0.065815546
000120 0e 60 30 be 2c 73 89 3d 36 14 92 3d ac bd d4 3c
       -0.17224142 0.067114204 0.07132761 0.025969349
000130 db 12 d9 be 9b fe 32 be ec 5f 65 3d 20 44 ab be
       -0.42397198 -0.17479937 0.05599968 -0.33450413
000140 34 08 64 be cc 61 31 3d 49 47 49 3e d0 d9 11 bf
       -0.22268754 0.043306157 0.196561 -0.5697298
000150 2e b9 a0 be d3 c7 20 3e b8 62 c1 3d 21 95 27 bd
       -0.3139128 0.15701227 0.09442657 -0.040913705
000160 63 98 ad be c2 bb 50 bf d6 8b 2b 3e d2 3e d8 3d
       -0.33905324 -0.81536496 0.16752562 0.10558857
000170 a7 91 f6 3d 1e c6 85 3e ee 0a f4 3d 11 10 3e 3e
       0.120395 0.26127714 0.11916147 0.18560816
000180 42 41 05 ba 44 d5 4f 3d 65 c1 98 3d be ab 87 3c
       -0.00050832715 0.050740495 0.07458762 0.016561385
000190 48 d5 21 3e 9a b4 f6 3d aa be 11 be e7 9e b3 3e
       0.15804017 0.12046166 -0.14232889 0.3508217
0001a0 10 89 06 bd 46 94 af 3e 83 06 b7 be c5 38 cb 3d
       -0.032845557 0.3429281 -0.35747156 0.09922937
0001b0 59 a1 d2 3e 16 5b ab bc 38 fa d4 bb a2 8a 6c bd
       0.41138723 -0.020917457 -0.006499555 -0.057749398
0001c0 8f 45 44 bf 31 bf 0c 3d 87 c5 03 be c4 8b 91 3e
       -0.7666864 0.03436202 -0.1286832 0.28426945
0001d0 2e b5 45 3e a3 00 a8 bd 6c be f9 3e 05 ea 9a be
       0.19307396 -0.082032464 0.48778093 -0.30256668
0001e0 f9 8e 87 3c 4c e3 b5 bd bb 97 98 be f6 84 10 bd
       0.016547667 -0.08881244 -0.2980326 -0.03528305
0001f0 04 00 6d 3d c4 b4 51 bd 03 ad 60 be 1a c2 8e 3d
       0.057861343 -0.051197782 -0.21940999 0.06970616
000200 92 d7 19 bf dc 68 ba be 85 19 90 be cf 71 09 bd
       -0.6009456 -0.36408126 -0.2814447 -0.033555802
000210 c5 12 1b 3e 57 b2 d5 be 43 d8 95 3d 72 c0 09 3f
       0.15143879 -0.41737625 0.07316639 0.53809273
000220 b9 3a 6f bd 77 59 bc 3d 49 8e 30 3f 2f 9e ff 3d
       -0.05840561 0.091967516 0.6896711 0.12481343
000230 ec 20 d5 bd 01 81 fc 3e 49 ff 4a bd a7 bf da 3e
       -0.1040667 0.49317172 -0.049559865 0.42724344
000240 98 fa a1 3e db d9 3c bd f0 8d 60 3e 8c 04 03 bf
       0.316365 -0.0461062 0.21929145 -0.51178813
000250 11 49 3d be 66 e0 dd bd c3 34 96 3e 47 b9 4b be
       -0.18484904 -0.10833816 0.2933713 -0.19894896
000260 d9 af 28 bd 3d 60 24 bc fe 59 1a be 5f 23 c3 3e
       -0.041183326 -0.010032711 -0.15073392 0.38112924
000270 e5 2d 17 bd 48 ac 82 be fb 43 d4 3e 31 a4 d2 3e
       -0.036909003 -0.25522065 0.41458115 0.41140893
000280 88 8c f9 3d 36 2c 32 3e 82 0b 22 be 06 df b8 3e
       0.12185007 0.17399678 -0.15824702 0.36107653
000290 ae 5a 12 bf 8d d9 be 3e 0a 79 51 3f d8 cb 33 be
       -0.57169616 0.37275353 0.81825316 -0.17558229
0002a0 8e cc 08 bf 9f 8d f0 3e 77 0e d8 be c0 54 09 be
       -0.53437126 0.46983048 -0.42198536 -0.13411236
0002b0 17 53 0d be 3c 25 f3 bd 07 41 ff 3d 92 18 86 3d
       -0.13801228 -0.11872336 0.12463575 0.06547655
0002c0 fd 6a b8 bd 12 01 c2 3e 3a ab 90 3e b9 48 15 3f
       -0.090047814 0.37891442 0.28255635 0.5831409
0002d0 f5 07 14 be c8 2c a5 be d3 83 0e 3e 04 e3 03 be
       -0.1445616 -0.32260728 0.13917474 -0.12879568
0002e0 8a 39 50 bf 83 7e 72 3e ef 7e c4 bc fb c3 3e bd
       -0.813378 0.23681073 -0.023986308 -0.04657362
0002f0 b8 69 9f bd b1 d4 a0 be 9a 84 29 3e 59 02 b5 3b
       -0.07783836 -0.3141227 0.1655449 0.0055239615
000300 ab 07 66 3e 89 32 47 be ec 5b 9d 3e 57 30 27 3e
       0.22463863 -0.19452871 0.30734193 0.16327034
000310 a2 fb d3 bd b2 bf 07 3e 56 6b 2a 3e 33 e9 05 bf
       -0.103507295 0.1325672 0.16642508 -0.5230896
000320 ee 5e 60 be e8 ec a9 bc 13 ea 8d 3e b7 9f a0 3d
       -0.21911213 -0.020742849 0.27717647 0.07842963
000330 78 9a 84 3e bc ae 0d 3e e0 66 e7 3e b6 f3 6e 3e
       0.258991 0.13836187 0.45195675 0.23335156
000340 77 57 ae bd 6e b6 79 bc 16 03 e6 3e c4 06 fd 3e
       -0.08512776 -0.0152412485 0.4492423 0.49419224
000350 69 0e a4 be 20 d6 e1 bd 72 7c 05 3f 05 c7 f9 3d
       -0.32042244 -0.11027169 0.52143013 0.12196163
000360 f8 94 ce 3c b9 a2 aa be 29 a8 d4 3d 59 27 08 bf
       0.025217518 -0.33327273 0.103836365 -0.5318504
000370 72 36 c2 be 93 79 f1 be 89 83 a1 3e af 59 61 be
       -0.37932163 -0.47163066 0.31545666 -0.22006868
000380 7a b9 ad 3d 65 9c 15 be 6c 91 98 bd 53 9a 06 3d
       0.084826425 -0.14610441 -0.07449612 0.03286202
000390 1f b6 19 bf fd fb 52 3e bc d7 1a bf 52 5e cd bd
       -0.6004352 0.20603938 -0.60485435 -0.10027756
0003a0 31 20 f8 be eb fd 57 3e 1c 48 81 be 26 70 e7 be
       -0.4846206 0.21092956 -0.25250328 -0.4520275
0003b0 a3 e2 60 be 18 be 34 be 98 96 7c 3e bb 1c 05 3f
       -0.21961455 -0.1765064 0.24666822 0.51996964
0003c0 07 81 53 3e f0 f7 ed be d9 78 00 3f 47 37 e7 be
       0.20654689 -0.46478224 0.501844 -0.4515936
0003d0 0d b1 9c bc 2a 54 09 3e d4 67 97 be e5 52 08 be
       -0.019127393 0.13411012 -0.29571402 -0.13312872
0003e0 69 85 a7 be b2 89 3c 3e c3 05 a3 3d c6 bf 0f be
       -0.3271897 0.18411902 0.07960083 -0.14038
0003f0 c6 d3 8e be 68 8f c6 3d ef e9 24 be 9b 66 cd 3e
       -0.27895945 0.09695321 -0.16104864 0.40117344

feature_layers.0.bias f4 [128]
000000 47 c0 07 3e 58 d4 ba bd 32 0b e1 3d a9 4a 34 3e
       0.13256942 -0.091225326 0.109884635 0.17606606
000010 a4 1d 04 be 91 40 1d 3b 47 cb dd bc 61 5c 2b 3e
       -0.12901932 0.0023994783 -0.02707447 0.16734459
000020 12 24 70 3e ed f3 1c 3e e2 dd f6 3c ea 64 c1 3d
       0.2345126 0.15327425 0.030135099 0.09443076
000030 85 f4 40 3e a8 32 2b 3d 4b 77 94 bd 26 fa ba bd
       0.18843277 0.041796356 -0.07249316 -0.09129743
000040 95 de 99 bd ec fb 87 3e 7e 69 6c 3e ca 00 c7 bd
       -0.07513157 0.2655939 0.23087117 -0.097169474
000050 78 a8 f8 3d 32 bd 64 3d 31 d3 09 be da 4c 04 3d
       0.12141508 0.055844493 -0.1345947 0.032299854
000060 27 b1 15 be e4 47 be 3b 42 33 2a 3e 8a 67 6a 3d
       -0.1461836 0.00580691 0.16621116 0.05722765
000070 c4 c9 83 3c 7c 62 a6 bd 22 1c f9 3c 1f 3f 2c be
       0.01608742 -0.08124253 0.030408923 -0.16820954
000080 44 32 e6 3d ab 3d 9d 3c ff 9b 47 3e 1b df 44 be
       0.11240056 0.019194445 0.19493102 -0.19225733
000090 01 0e f6 3d 05 06 16 3e dd 19 3c be 6a ed 7c be
       0.1201439 0.14650734 -0.18369241 -0.24699941
0000a0 52 e4 fe 3d 74 da 9b 3d 74 ad 35 be 57 36 23 3e
       0.124458924 0.07610026 -0.17741948 0.15938698
0000b0 bf 95 81 3e 46 a0 5e 3e ab 7b a9 3d f8 c9 be 3d
       0.2530956 0.21740827 0.08275541 0.09315866
0000c0 48 06 f0 3d 55 65 b0 bd 37 10 aa 3d 9c e5 9d 3d
       0.11719948 -0.086130776 0.08303874 0.0770981
0000d0 fc cd dd 3d 56 c9 f5 bd 1b b9 4f 3e bd a3 21 3e
       0.10830304 -0.120012924 0.20285456 0.15785117
0000e0 c0 ba b5 bd 2c 86 c6 3c 3a 8c 05 be 36 e2 4d 3a
       -0.0887351 0.0242339 -0.13041773 0.00078538375
0000f0 48 da 4a 3e 67 5b 21 be 9f c8 4f bd a7 cf cb 3d
       0.1980983 -0.15757523 -0.050728437 0.09951716
000100 3c b1 a3 bd a6 59 c1 3d 14 8e 81 be a7 9a 10 be
       -0.07992789 0.09440927 -0.2530371 -0.14121495
000110 07 87 43 be 84 45 87 3d 8f d7 d5 3d de ec 50 be
       -0.19094478 0.06605056 0.10441505 -0.20402858
000120 69 c3 84 3e df 4a 3b 3e 5c 09 41 3e b5 a2 3c be
       0.25930336 0.1829028 0.18851227 -0.18421443
000130 d8 9f a8 3d ea c3 49 bd 07 06 3d 3d 72 aa 64 3e
       0.08233613 -0.049259104 0.046148326 0.22330645
000140 aa 79 70 3e b1 6c dc bd 64 d8 1b be c5 0e 1f 3e
       0.23483911 -0.10762919 -0.15219265 0.15532978
000150 3d c4 7b bc 60 70 7c 3d 95 9c bc 3c 38 e5 e9 3d
       -0.015366611 0.061630607 0.023023883 0.11420673
000160 8e ab 08 3e 9e e3 25 3d 85 a5 d9 3c c5 83 26 3e
       0.13346693 0.040500276 0.026568184 0.16261204
000170 5e 82 4a 3e 53 b6 40 bc db 61 5b be 62 98 17 3e
       0.19776294 -0.0117622195 -0.21424048 0.14804223
000180 71 0c 1a be d6 0b 00 3e 75 52 19 3d bb 9e 05 3e
       -0.15043809 0.12504515 0.037432153 0.13048832
000190 3f 47 e0 bd 9c fa 0a 3e 6c 14 77 bd 5f a5 06 3e
       -0.10951089 0.13572162 -0.06032221 0.13149022
0001a0 fb ac c5 bd 8c 31 9e 3d a1 87 04 3e 27 06 e6 3d
       -0.09652134 0.07724294 0.12942363 0.11231642
0001b0 b7 46 5f 3e d6 49 64 bd 4e bb 93 3e 22 8b 20 3e
       0.2180432 -0.055734478 0.2885384 0.15678075
0001c0 97 38 68 3d 2d 15 67 3e ea d1 d7 3d 11 b4 81 bb
       0.056694593 0.22566672 0.10538085 -0.003958233
0001d0 20 cd 22 3e f2 c1 17 be be 23 8a 3e 81 67 5c bb
       0.15898561 -0.14820078 0.26980394 -0.003363103
0001e0 8c 16 1a be 92 57 46 3e 0b fa c9 3c 37 de 62 be
       -0.15047663 0.19369343 0.024655363 -0.2215508
0001f0 f9 60 8f bd 53 17 47 3e 99 69 4f bd 79 92 83 3c
       -0.07000918 0.19442491 -0.050637815 0.016061055

feature_layers.1.weight f4 [128, 128]
000000 36 75 1b 3e d3 df a1 3d 81 6e 40 3e 42 ff c2 3d
       0.15181431 0.07904019 0.18792154 0.09521343
000010 67 e0 53 bd 7c af 5f be 0e c1 5a 3d 8a d8 2f 3e
       -0.05172768 -0.21844286 0.053406768 0.17172447
000020 0f a7 d3 3d 25 7f 17 bb 1d 9f 92 3e dd 0f 82 3c
       0.10334598 -0.0023116556 0.2863702 0.015876705
000030 ac 1e 38 be b6 71 dd 3c e5 82 d6 3d be 84 57 3e
       -0.1798045 0.02703176 0.10474185 0.21046731
000040 0b 97 09 3e 8c 18 c3 bc 88 c4 3d 3e 09 cf 41 bd
       0.13436525 -0.023815416 0.18532002 -0.047316585
000050 d8 df ec 3d 58 40 05 be 31 a4 14 be bd 34 29 be
       0.11566132 -0.13012826 -0.14515759 -0.16524024
000060 88 28 0c 3e 87 84 7b 3e 7e 06 4e be 02 0c c0 3d
       0.13687336 0.24562274 -0.20119664 0.0937729
000070 91 14 1b bb f5 ea 2f bc dc a8 b5 bc 6f 4a e9 3d
       -0.0023663382 -0.01073717 -0.022175245 0.1139115
000080 f3 7e cb 3d 48 f0 d0 bd dd 72 5f bd 62 b8 74 be
       0.09936323 -0.1020208 -0.0545529 -0.23898461
000090 cf 9d a8 3d 10 54 f1 3d a7 e6 dd bc 30 80 a8 be
       0.082332246 0.11783612 -0.027087523 -0.329103
0000a0 ff 6f 5d 3c db e9 39 bd 92 b9 4e 3e a8 ff 50 3d
       0.0135154715 -0.045389038 0.20187977 0.051025063
0000b0 4c 66 40 bd 8e 59 d3 bc f8 f8 a0 3d ac 45 d1 3d
       -0.046972558 -0.025799539 0.07859987 0.10218367
0000c0 f4 97 87 be ae 17 85 bd b6 7f 54 bd 65 79 3d 3e
       -0.2648312 -0.06498657 -0.051879607 0.1850334
0000d0 4b 74 2f bd 7b ff 42 3e 48 0b 7f 3e 27 5b 30 bb
       -0.042835515 0.1904277 0.24906647 -0.00269098
0000e0 ea d5 20 3e 8b 4c d2 bd 2a d7 0f be 2b 6e da 3d
       0.15706602 -0.10268506 -0.14046922 0.10665544
0000f0 68 31 8e 3e cf 59 8b be 5f 6e 92 3d 2c 3b 85 3d
       0.2777207 -0.27216956 0.07149958 0.06505427
000100 8d 61 be 3c ce c2 78 3d 19 58 63 3d b5 82 fb 3d
       0.023239875 0.060732655 0.05550394 0.1228079
000110 0a 01 24 3d 45 99 12 3e 9a 6b f3 3c 98 5f a2 3d
       0.040040053 0.1431628 0.029714394 0.07928389
000120 20 02 ab bd 8d 67 a2 3e ee 1b 55 3e 20 42 8b 3d
       -0.08350015 0.31719628 0.20811436 0.06799722
000130 11 e7 76 3d c6 73 07 3e da 43 b4 bc 6d 0a c0 3d
       0.060278956 0.13227758 -0.02200501 0.093769886
000140 b2 2a de 3c 47 bd 5c bd 2c 0b 45 be c5 99 9c be
       0.027119968 -0.053891446 -0.19242543 -0.30586067
000150 27 0e d5 3d 45 c8 12 be 84 4e 15 be b6 d6 ee 3d
       0.1040309 -0.1433421 -0.14580733 0.116620466
000160 16 b7 01 3e 60 18 de bd 2a 0b d8 3d 56 dd 00 be
       0.12667498 -0.10844493 0.105490044 -0.12584433
000170 18 a1 2c 3e c1 11 46 bd 3d d4 48 3d b7 6b 65 3e
       0.16858327 -0.048356775 0.04903053 0.22404371
000180 74 2d a3 3d e2 a8 0f 3e c9 21 28 3e d1 c6 0f bd
       0.07967654 0.14029267 0.16419138 -0.035101715
000190 5e 69 ce bd 07 e7 2e 3e 8d 7e 93 3e 69 03 41 3c
       -0.10078691 0.17080317 0.28807488 0.011780598
0001a0 a0 d8 1d 3e af 77 10 3e 1f ec fe bd 56 55 16 be
       0.15414667 0.14108156 -0.1244738 -0.1468099
0001b0 48 42 75 bd e7 6f 2c 3d 03 4f 8f 3e 0e 0b 54 3c
       -0.059877664 0.042098906 0.2798997 0.012942089
0001c0 49 90 8a 3b b6 25 a1 bd 86 f1 c9 3c 91 ac 73 3e
       0.004228626 -0.07868521 0.0246513 0.23796298
0001d0 ab b9 06 3e 39 6e e3 3d 1c 8c ac bd 26 9c 68 3c
       0.13156764 0.11105008 -0.08425161 0.014197385
0001e0 54 b6 b5 3d 5b d7 94 3c 38 b0 ca 3d 46 a1 88 be
       0.08872667 0.018169096 0.09896892 -0.26685542
0001f0 d5 6b 2b be 65 1a 04 3e 99 f1 d0 bc ee 67 29 3e
       -0.16740353 0.12900694 -0.025505828 0.16543552
000200 75 51 32 be a5 c6 a5 bd d8 7b 2a be bc 8e 7e 3e
       -0.17413886 -0.08094529 -0.16648805 0.24859136
000210 5c 91 7f 3c fe a7 89 bc 86 3f 70 bb d0 85 c8 3d
       0.015598621 -0.016803738 -0.0036658957 0.09791148
000220 ce 55 c4 bd 06 5a 14 bb d0 d0 bc 3b a9 47 b3 3d
       -0.095866784 -0.0022636666 0.005762197 0.087539025
000230 fd 7d 51 3e d9 4f 26 3e 64 4f 01 3e 6d 0c 69 3c
       0.20458217 0.16241397 0.12627941 0.014224154
000240 bc 85 4c be d4 47 aa bd b1 07 91 3d 7a d4 58 be
       -0.1997289 -0.083144814 0.07081545 -0.21174803
000250 22 ed fd 3d 5c 5d 34 3e 00 d6 7d 3c 63 64 df 3e
       0.12398745 0.17613739 0.015492916 0.43631276
000260 3e f3 74 bd be e2 61 3d 11 e3 09 3d b6 a3 38 3e
       -0.059802286 0.05514788 0.033663813 0.18031201
000270 c8 53 ab bd 22 1a 2f 3d 42 dd 86 bd a3 d5 29 be
       -0.083655894 0.04274953 -0.0658517 -0.16585402
000280 19 83 eb 3d 58 88 29 3d f3 e6 51 3d c3 2a 79 bb
       0.11499614 0.041389793 0.05124564 -0.0038019873
000290 2d 4e 03 be 0c 34 08 3c 3a 90 dd 3d cf f3 9b 3d
       -0.1282279 0.00831319 0.10818525 0.07614862
0002a0 9d 96 f9 ba d5 1a 8c bd 12 18 99 bd 5a d3 0f 3e
       -0.0019042079 -0.06841055 -0.07475294 0.14045468
0002b0 64 a8 9f 3e 92 e7 c5 bd 3b 48 c1 3d d9 22 b6 bd
       0.3118316 -0.09663309 0.09437605 -0.088933654
0002c0 6c 39 b7 bd 34 3d a3 3d 8a b0 34 bc 6b ba 83 bd
       -0.08946499 0.07970658 -0.011028418 -0.06432041
0002d0 dd 7d 64 bc c8 2a 17 bc 14 37 7c 3d 02 80 15 3d
       -0.013946024 -0.009226508 0.061575964 0.03649903
0002e0 79 be f9 bd 98 dc 00 3d 52 3a 3f bd 53 08 81 3e
       -0.12194533 0.031460375 -0.046686478 0.25201663
0002f0 f5 27 31 3e e7 26 b1 bd a6 e0 0e 3e 15 ae 9a bd
       0.17300399 -0.08649998 0.13952884 -0.07552735
000300 d3 42 d4 3d 37 cc b5 bb c2 95 60 be 40 2f 89 3e
       0.10364308 -0.005548026 -0.21932128 0.2679386
000310 57 ab 42 3d 80 60 25 bd 32 15 82 3c e2 5d 97 bb
       0.047526684 -0.040375233 0.015879247 -0.004619346
000320 59 95 db 3c 8b 53 15 bc 11 d5 21 bc 46 d1 27 be
       0.026804613 -0.0091141565 -0.009877459 -0.16388425
000330 d4 8f dd 3c 6a d8 9c 3d 9b e4 a7 3e 31 03 b0 3b
       0.027046122 0.07658465 0.327916 0.005371474
000340 4b f1 f3 3d 57 72 85 bd 08 ed c6 bc b1 1e 44 bd
       0.11911257 -0.06515949 -0.024282947 -0.047880832
000350 e7 9a 13 bd 87 8b 4f 3d 85 f2 ea 3d 3c 3e c1 3d
       -0.0360364 0.050670173 0.11472038 0.094356984
000360 7d 2f 71 be 20 50 3e be 21 d5 d9 bd f5 45 90 3c
       -0.23553272 -0.18585253 -0.10636354 0.017611483
000370 ee 66 13 3d cc 6e 40 bd 69 0e 0a bd ea 70 86 bd
       0.035986833 -0.046980664 -0.03370515 -0.065645054
000380 c8 8e b1 3c fb 0f 99 3e 09 71 7b bb 31 5a b7 bd
       0.021674529 0.29895005 -0.0038366935 -0.089527495
000390 10 86 13 3e 4e dc 2e bd 9e 21 f4 3d 74 4c c3 bd
       0.1440661 -0.042690568 0.119204745 -0.09536067
0003a0 7c 15 06 3c df 4e d2 bd 28 ca 47 3d d0 e9 80 3d
       0.008183833 -0.1026895 0.048776776 0.06294596
0003b0 50 83 d2 bd ff ba 18 3e f8 f8 dc 3d d5 f9 02 3e
       -0.10278952 0.14915083 0.107896745 0.12790616
0003c0 01 2c 72 3d 8e 03 c5 bc 67 0a 01 3e 18 db 9b 3d
       0.059123997 -0.024049547 0.12601624 0.07610148
0003d0 7b 96 f0 3c dc 5e d0 bd 56 e1 51 3e f4 8b 19 3c
       0.02936863 -0.10174343 0.20496115 0.009371746
0003e0 44 3d 21 be 79 23 af 3d d2 fb 50 3b 54 6c 64 3e
       -0.15746027 0.08551688 0.0031888378 0.22306949
0003f0 9a 92 e7 3b cd f6 04 3e 5f f0 b3 3d cd b1 54 be
       0.007067037 0.12984772 0.087860815 -0.2077095

feature_layers.1.bias f4 [128]
000000 6a 47 6e 3d fb 8f 1b 3e fc 23 3d 3c ab d4 b9 bd
       0.058173575 0.15191643 0.011544224 -0.09073766
000010 8e 65 27 3d 40 9c 9d 3d a8 06 22 3d 69 d7 fe bc
       0.040868334 0.07695818 0.03955713 -0.031108575
000020 3f 69 3a 3b 79 b5 fb 3d 28 d5 20 bd 4e 50 b3 bd
       0.002844408 0.122904725 -0.03926578 -0.08755551
000030 e7 08 07 3c af 34 ce 3c d8 cc 93 bd 60 b9 7e bd
       0.008241869 0.025171606 -0.07216805 -0.062188506
000040 8a af 85 3c 5a a5 82 bd 67 81 fa 3d 0c d1 cd 3d
       0.016319055 -0.063791946 0.12231713 0.10049638
000050 19 03 c9 3d 48 bb ff 3c 86 c3 eb bd 12 8f 78 bd
       0.09815044 0.031217232 -0.115119025 -0.060683317
000060 bf 8a 63 3d 2b dd 27 3d 25 0a b7 bc ec 10 80 3d
       0.05555224 0.040982407 -0.022343704 0.062532276
000070 eb f6 b9 bd 97 df f6 bd 3e b8 ce 3c fa 3b 5d 3d
       -0.09080299 -0.12054365 0.025234338 0.054012276
000080 3c 9f 33 bc f8 3f 1c bd 9c b2 b6 3d 08 da c7 bd
       -0.010963257 -0.038146943 0.08920786 -0.09758383
000090 eb 96 b5 ba 3e bf 9b bd d9 42 17 3c bb e0 52 3d
       -0.0013854181 -0.07604836 0.009232246 0.05148385
0000a0 d8 6c 29 3d 30 71 45 bd 8b f8 9c bc 7b a6 93 bb
       0.041363567 -0.048203647 -0.019161483 -0.00450593
0000b0 22 cf e2 bd 3d 78 c4 bc bc 35 0c bd 57 ed ad bd
       -0.11074664 -0.023983115 -0.034230933 -0.084925346
0000c0 b5 58 8c 3d c5 44 99 3b 70 72 a2 bd df 4c 1f 3c
       0.06852857 0.0046773874 -0.079319835 0.009722917
0000d0 2e 0f 1b bd da 83 fe bc 47 ad fd bc ad 16 11 bd
       -0.037856273 -0.031068731 -0.030966414 -0.035422016
0000e0 64 b1 ab 3d f8 ec 81 3c 64 93 6c bc 70 ca 92 bd
       0.08383444 0.015860066 -0.014439438 -0.07167518
0000f0 13 fd b2 bd 53 a2 8c bd 6a 6c cc 3d 4a 9b cc 3d
       -0.08739676 -0.068668984 0.09981616 0.099905565
000100 f5 5e a2 3d d8 8e dd bd 48 61 a3 3d d9 d3 b4 3d
       0.07928268 -0.10818261 0.07977539 0.08829469
000110 7a 40 de bd aa 4c 4d 3d 4f 63 d9 bd 4b 91 f2 bd
       -0.10852142 0.05012194 -0.10614645 -0.11844119
000120 6b da c9 bc df 1b 07 3e d1 ac d1 bc be 61 84 3c
       -0.024640283 0.13194226 -0.0255951 0.016159888
000130 71 dc f8 bb 24 08 18 3d f1 57 98 3d 35 cf d2 3d
       -0.007594638 0.03711714 0.074386485 0.10293428
000140 54 eb ba 3c ca 9c f4 3d 3e c3 0a be 9f fd 99 3c
       0.022817291 0.11943968 -0.13551041 0.018797694
000150 7c 9a 3e bd d8 51 37 bd 12 05 5e 3b 0d 63 b2 bd
       -0.046534047 -0.044755787 0.0033877534 -0.08710299
000160 08 bc fc 3b 4a 45 f0 3d fd 76 8e bd 7a 72 29 bd
       0.0077128448 0.11731966 -0.06956289 -0.04136894
000170 4b 60 ff 3d 12 3e 9d bc 47 12 56 bc 1f ae bb bd
       0.12469538 -0.019194636 -0.013065881 -0.0916407
000180 9a ba 8d 3d 0d 6b ae 3d 20 e6 81 bd 63 bf af 3c
       0.06920357 0.08516512 -0.06342721 0.021453565
000190 2f ff 39 3c 7c 02 92 3d f5 b5 98 3d 07 b3 30 3d
       0.011352344 0.0712938 0.074565805 0.043139484
0001a0 d9 5a 79 3d e6 4f 86 3d 0c ba 1b bd 23 e3 38 3d
       0.060877655 0.06558208 -0.038019225 0.04513849
0001b0 5b 48 8f bd 03 32 5d 3d 8c 27 41 3d 53 84 d2 3c
       -0.069962226 0.054002773 0.047156855 0.025697863
0001c0 6c fb 99 bd 16 5e c6 bd 60 89 64 3d 11 88 53 bb
       -0.07518658 -0.09685914 0.055795074 -0.0032277147
0001d0 b6 92 d9 3c 6d 01 5b bd a8 87 9a 3d 78 52 1e 3d
       0.026559215 -0.053468157 0.075454056 0.038652867
0001e0 94 5a 66 3d 0c cb 29 bd b0 53 15 3d 1b 54 13 bd
       0.056238726 -0.041453406 0.036456764 -0.03596888
0001f0 33 10 41 bd 7e 4d 40 bd 22 62 e3 bd bc 47 68 3b
       -0.04713459 -0.046948902 -0.11102702 0.0035443148

value_stream.0.weight f4 [64, 128]
000000 45 a5 52 bd cd 4d 17 be 0a fe 26 3e ac da 70 bc
       -0.051427145 -0.14775772 0.16307846 -0.014700573
000010 a3 0d 39 3e ab a0 37 3d d8 8e 93 3d be e7 79 bd
       0.18071608 0.04483096 0.0720498 -0.061012022
000020 96 bf cd bb 27 f1 c9 bd 79 69 89 3c 2d cc 12 3c
       -0.0062789423 -0.09860449 0.016773926 0.008959812
000030 b8 19 33 be e4 a3 86 bc 9f 77 1e be 59 af ce 3d
       -0.1749028 -0.016435571 -0.1547532 0.10092039
000040 6d 7d 07 3e 6e 04 3d 3e c6 63 32 bd 9c d0 2d be
       0.1323144 0.18458721 -0.043552183 -0.1697411
000050 22 86 e0 3c c0 f2 46 be da 43 29 3b 0a e4 35 3e
       0.02740771 -0.1942854 0.0025827796 0.17762771
000060 32 aa ba bd d6 50 97 3e 57 3e 38 3c fc 93 4b 3e
       -0.091144934 0.2955386 0.011245332 0.1988067
000070 a0 1a 1b 3c 64 98 61 3d cc 30 80 3e 68 6b 77 bb
       0.009466797 0.05507697 0.2503723 -0.0037753228
000080 31 5b e7 bd 71 5f 81 3c f6 f5 93 be e2 17 63 3e
       -0.1129669 0.01579258 -0.2889859 0.2217708
000090 8f 18 4c 3e f1 2f b9 3d 6f da 36 3d ab 12 2f be
       0.19931243 0.09042347 0.04464191 -0.17096965
0000a0 13 e8 7b 3b da 10 8c 3e 86 4a d7 3c 19 f7 c5 3d
       0.0038437888 0.27356607 0.026280653 0.09666271
0000b0 88 f1 18 3d c0 a1 4f be 78 29 a3 3d db 67 98 be
       0.037339717 -0.20276546 0.07966894 -0.29766735
0000c0 5e 8f cf 3d 4e 87 12 3d 9d e7 82 3e 20 b5 aa 3d
       0.10134767 0.035773568 0.25567332 0.08335328
0000d0 89 6b 34 3e 2a f8 f7 bd 5f e1 75 3d d4 e1 0f 3e
       0.17619146 -0.121078804 0.060029384 0.1405099
0000e0 8f a1 55 3d ff 15 05 3e a7 a3 10 be 5a ca 99 bd
       0.052156027 0.12996672 -0.14124928 -0.075092986
0000f0 26 a7 22 be 73 2f db 3d 0b bc 83 bd f5 bf 8d 3d
       -0.15884075 0.107024096 -0.06432351 0.069213785
000100 00 62 1d 3e 41 c8 52 3e 52 b7 05 be f0 c8 18 bd
       0.15369415 0.20584203 -0.13058212 -0.037301004
000110 3f d9 0c bd 65 a2 b3 bc e5 ac 40 3e fe fe af 3e
       -0.03438687 -0.021928022 0.18815954 0.3437423
000120 eb 22 46 3d fb da 4f bd fa 1d 35 3e 22 1d 70 bd
       0.048373144 -0.050745945 0.17687216 -0.058621533
000130 f6 fc 50 be 3d aa 22 3e aa f5 98 3d 85 2a c2 bd
       -0.20408997 0.15885253 0.07468732 -0.09480766
000140 42 df 06 3c 9f c6 81 bc fa ce bf 3d 81 08 6b be
       0.00823194 -0.01584178 0.093656495 -0.22952463
000150 e8 e1 09 be 40 21 78 bd e2 66 3d bc 60 80 3b 3e
       -0.13465083 -0.060578585 -0.011560174 0.1831069
000160 b2 00 6d 3d 2e 87 4c 3e e7 3e 55 3e fe ed 9c 3d
       0.05786199 0.19973442 0.20824777 0.07662581
000170 bd b0 7b bd f8 5b 3b bb c2 b3 b3 bd 34 d4 f8 3c
       -0.061447848 -0.0028588753 -0.087745205 0.030374624
000180 29 cc 2a 3e 55 ee 23 be 09 82 b7 3e 3b 5e 8f bd
       0.16679443 -0.16008885 0.35841396 -0.07000395
000190 dc f6 0b be bf 23 c4 3c f7 b1 8c 3d 98 39 5d 3d
       -0.13668388 0.023942826 0.068698816 0.054010004
0001a0 e3 9f 48 3e e8 8d 23 be c6 81 c6 3a b4 e5 a5 3e
       0.19592242 -0.15972102 0.0015144877 0.32401812
0001b0 94 54 3a be b5 b0 f3 bd 03 98 35 3e 5b 7b bb 3c
       -0.18196326 -0.118989386 0.17733769 0.022885969
0001c0 79 7e 35 3e 3f a9 5e 3e fd e3 33 3e 20 e9 b3 bd
       0.17724027 0.2174425 0.1756744 -0.087846994
0001d0 41 97 15 3e 0d 10 34 3d 5d f8 cf bd 72 6f 49 3c
       0.1460848 0.04396062 -0.101547934 0.012294637
0001e0 0e b7 c2 3b a5 80 cd bd b1 cf 53 bd ff cd 1d bd
       0.005942232 -0.100343026 -0.05171174 -0.03852653
0001f0 56 e1 71 3e e9 49 1a 3c 48 53 0d bd c3 47 2e 3e
       0.23621115 0.009417036 -0.03450325 0.17019562
000200 bf d3 68 be 3d bf a8 bd ef 75 a4 3d 6f da 15 be
       -0.22737025 -0.08239601 0.080303065 -0.14634107
000210 f5 3a a3 3c 1d 8b 31 bd 4c a2 0f bc 19 37 43 be
       0.019925574 -0.04334556 -0.008766722 -0.19063987
000220 77 9f e6 3d ad 1e ee 3c 67 ce 6e 3d 05 82 28 3e
       0.11260884 0.029067362 0.05830231 0.16455849
000230 f9 3e fb bb 60 c3 83 bd 50 74 02 be 93 9d c7 bc
       -0.007667419 -0.06433749 -0.12739682 -0.02436713
000240 8b 8a f4 bc 2e c1 3a 3c 56 b6 89 bd c2 d4 e8 3c
       -0.029851219 0.011398597 -0.06724231 0.028421763
000250 cb 26 15 be 8f 45 18 bd 4d fa 82 3e af b9 50 3e
       -0.1456558 -0.03717571 0.2558159 0.20383333
000260 15 76 10 be a4 7c d8 3d ec bf 7a bd 21 9b 17 3e
       -0.14107545 0.10570648 -0.061218187 0.1480527
000270 30 8d 36 bb a7 a6 a2 bc b9 3a 21 bd bd 0e 4a bd
       -0.002785515 -0.019854857 -0.039362643 -0.04933046
000280 22 ea 07 be 7b 62 05 bd 2c 1b dd bd 22 00 9a 3b
       -0.13272908 -0.03256462 -0.10796198 0.004699723
000290 21 da e4 3d b3 2a e0 3c 8c 0d d2 bd 3d 4c ad 3d
       0.11174417 0.02736411 -0.1025649 0.08461807
0002a0 74 54 7a 3e 70 1d a3 bd 48 d6 8e be 1d 6a 59 be
       0.24446279 -0.07964599 -0.2789786 -0.21231885
0002b0 39 7c 16 3e a2 ce 8c bd fa 9f 62 bd c0 dd 42 bd
       0.14695825 -0.068753496 -0.055328347 -0.04757476
0002c0 a1 c1 dd 3d d0 47 1a 3e df 99 7a be bc cd 29 be
       0.108279474 0.15066457 -0.2447276 -0.16582388
0002d0 1b 59 80 be 1e eb 06 be 1c 87 d8 3d 79 02 74 be
       -0.25067982 -0.13175628 0.10572645 -0.23829068
0002e0 9e 95 8e bd 90 cb d7 3d 60 52 0d 3e 5e 25 ba 3d
       -0.06962131 0.10536873 0.13800955 0.090891585
0002f0 5d 35 8b 3d c0 cf 48 be 80 61 5e 3c 76 59 1a bd
       0.067972876 -0.196105 0.0135730505 -0.037682973
000300 55 8d 25 bd 88 e1 86 be 2e 6a fd bd f8 ae 0a be
       -0.040417988 -0.26343942 -0.12373768 -0.13543308
000310 54 93 86 be a5 6c cb bc 35 f6 10 3d 06 7c 7e bd
       -0.26284277 -0.02483208 0.03539105 -0.062129997
000320 a7 df ae 3d 6e 8d 35 be 1f ac 73 bd a1 11 35 bd
       0.08538752 -0.17729732 -0.05949032 -0.044206265
000330 a3 64 60 be 19 a5 32 3e a3 ad 5e be 66 c7 ad bd
       -0.2191339 0.17445792 -0.21745925 -0.08485298
000340 3c e8 a6 bc a6 a2 3c bd 98 0e 79 3e ec 15 bc 3d
       -0.02037441 -0.04605355 0.24321973 0.09183869
000350 8e 25 7c 3d 10 4f 83 3e 78 31 70 3d 90 e5 3c be
       0.061559252 0.25646257 0.058640927 -0.18446946
000360 fb 35 0f be e3 b7 bf bd cf 50 fe bb 49 18 82 3d
       -0.13985436 -0.093612455 -0.007761098 0.06352288
000370 4c 92 4b bd e4 36 04 3e 01 55 bb be a8 56 58 3c
       -0.049700066 0.12911564 -0.3658829 0.013204254
000380 9a cf bc 3d 90 04 e9 3d 4f e8 6b bd 17 e2 12 be
       0.09219284 0.11377823 -0.057594594 -0.14344059
000390 3a 09 45 be fb ec 80 3d 11 d5 43 3e 94 65 ab bd
       -0.19241801 0.062952004 0.19124247 -0.08368984
0003a0 a9 83 e7 bb 8c df 13 3e 02 a4 2f be 54 2e e3 3d
       -0.0070652557 0.14440745 -0.17152408 0.11092821
0003b0 e4 9a 2f 3d 24 03 83 3c 2a 27 b7 bd ab b9 1b bd
       0.042872325 0.015992709 -0.08943017 -0.038018864
0003c0 65 72 3d bd b7 19 a6 3c a8 f1 ed ba fc 4f 61 3c
       -0.046251673 0.020275934 -0.0018153684 0.01375198
0003d0 ea aa 30 bd 89 52 3b 3d 7c 1d 0e be ad 3b 04 be
       -0.043131746 0.04573301 -0.13878435 -0.1291339
0003e0 ab 70 0d be 95 22 9a bd 0c 43 35 be 4a 7f 2f 3d
       -0.1381251 -0.07526127 -0.17701358 0.042846
0003f0 9f bc 6b bd 6d 9d 44 be 77 80 0a 3d 8c 63 6b bc
       -0.05755293 -0.19200678 0.03381392 -0.014366996

value_stream.0.bias f4 [64]
000000 22 af 20 39 c8 de 84 3d 5d cf 66 3d 58 19 84 bd
       0.00015324031 0.06487805 0.0563501 -0.064501464
000010 6b be ad bc e9 8f 4f bd f3 bc 9e 3d b0 6a f4 ba
       -0.021208962 -0.050674353 0.07750883 -0.0018647518
000020 e4 4b 38 3c 03 1a 56 bc 3a dd bb bc 6d 11 07 3e
       0.0112485625 -0.013067725 -0.022932637 0.13190241
000030 f8 31 3e 3d 7c bd 97 bc e5 9a ed bd 02 64 3b 3c
       0.046434373 -0.01852297 -0.116018094 0.011437418
000040 8f d3 f5 3c fb 03 55 3d b7 1f 6b 3d 20 5a 78 3c
       0.030008106 0.05200575 0.057403293 0.015158206
000050 27 bf 65 bd 6c 7b ae bc b4 e1 d2 3d 61 40 82 bd
       -0.0560905 -0.021299087 0.10296956 -0.063599356
000060 24 08 09 bd 9e 89 22 3d ac a0 3a bc a0 96 85 bd
       -0.03345503 0.039682023 -0.011390846 -0.0652287
000070 57 f5 04 bc b6 b6 3e bd f2 79 35 bc 25 42 ed 3c
       -0.008115134 -0.046560965 -0.011076437 0.028962204
000080 06 4b df 3d 12 f0 e5 3d 85 14 a2 bd a8 0f e1 3d
       0.109029815 0.112274304 -0.0791407 0.10989314
000090 a1 e9 07 bd a0 e6 1d 3d c8 5b 40 bd fd 16 d6 bc
       -0.03318179 0.03855002 -0.04696253 -0.026134009
0000a0 19 93 07 3e 87 2e 82 bd db 68 20 bd 11 af dd bc
       0.13239707 -0.06356531 -0.039162498 -0.027061017
0000b0 c8 c7 f8 3c 0c 51 4d bc d9 5b 93 3b ae e4 52 bd
       0.0303687 -0.01253153 0.004497033 -0.051487617
0000c0 d4 5f 35 3d ac 8f 6b 3d 52 b2 b9 3d ed 9b bc bd
       0.044280842 0.057510063 0.09067215 -0.09209428
0000d0 ab 9f 2f 3d cd da 81 3c 12 52 69 bb 32 bf 17 bd
       0.04287688 0.015851403 -0.0035601896 -0.037047572
0000e0 a4 0c 19 3d 7c c5 15 3e 3f d0 95 bd f2 b9 fb 3c
       0.03736557 0.14626116 -0.073151104 0.030728314
0000f0 a1 ab 9d 3c a3 01 cc 3c a2 9e 55 bd 67 69 9f 3d
       0.019246878 0.024903124 -0.052153237 0.07783776

value_stream.2.weight f4 [1, 64]
000000 38 08 a1 bd 87 0b 02 be 24 54 db 3d b1 06 29 be
       -0.07862896 -0.1269971 0.10709408 -0.16506459
000010 fe 3d 2d 3e 3c 19 aa be d4 5b 00 3e 1c 44 e7 3d
       0.1691818 -0.33222377 0.1253503 0.11292288
000020 f8 e6 40 3e 46 e4 05 3e fa e2 77 3d c8 a8 93 3d
       0.18838108 0.1307536 0.060519196 0.07209927
000030 6f 04 11 3e 8e 99 01 3f f2 ac 88 bd 66 b9 ed 3e
       0.14161848 0.5062493 -0.06673612 0.4643051
000040 b1 68 02 be 28 54 a7 3e 48 56 00 be 92 7a b9 be
       -0.12735249 0.32681394 -0.12532914 -0.36226326
000050 4f a4 8d be d7 91 6d 3d 87 56 0d 3e 4d 3e 9b bd
       -0.2766442 0.05800041 0.13802539 -0.07580242
000060 86 0d a6 be 06 a8 1c be 51 01 9c be 6a ed 6c be
       -0.32432193 -0.15298471 -0.30469754 -0.23137441
000070 7c b7 85 3e cb 41 5f 3e de c6 09 3e 54 08 78 3e
       0.2611655 0.21802442 0.13454768 0.24221927
000080 6b 05 22 3e 12 01 65 3d a0 e1 bc be 89 6e e8 3d
       0.1582238 0.055909224 -0.36890888 0.11349208
000090 33 71 47 be 0e 92 a2 be 89 06 99 bd b2 50 de 3d
       -0.19476776 -0.31752056 -0.074719496 0.10855235
0000a0 47 d4 1c 3e ff 8d 51 bd 4e 43 ef bd 66 55 2f be
       0.15315352 -0.05116081 -0.11682759 -0.1712242
0000b0 41 8c 78 3e 39 2b 16 3e ed 9d 0e bf 28 00 54 3e
       0.24272253 0.14664926 -0.55709726 0.20703185
0000c0 62 a5 c3 bd 75 f3 d6 3d ac 1c 19 3e 11 04 11 be
       -0.09553029 0.104956545 0.14952344 -0.14161707
0000d0 43 d7 f1 3e 22 85 33 3e 0b 28 cf 3e fb 7a bf 3e
       0.47234544 0.17531255 0.40460238 0.37398514
0000e0 b3 52 13 be c8 21 f3 3d 94 dd a5 be 4e 51 e6 be
       -0.14387016 0.11871678 -0.32395613 -0.44983906
0000f0 56 69 1d be 05 63 46 bd a1 10 af 3e 65 f5 39 3e
       -0.15372214 -0.048434276 0.34192374 0.18160017

advantage_stream.0.weight f4 [64, 128]
000000 7c 7d f2 bb c7 0a 8d bc e0 d3 60 be 77 de a2 3e
       -0.007400213 -0.017217053 -0.21955824 0.31810352
000010 2a d1 f6 3d 86 1c 7e bd a1 ba f0 ba b0 31 27 3e
       0.12051614 -0.06203892 -0.0018366167 0.16327548
000020 f1 12 66 3d 5f e8 46 bb 10 d5 07 3c f4 d8 89 3d
       0.056170408 -0.0030350906 0.008290544 0.06730834
000030 f9 1a a4 bc 7c 33 ef bd 70 86 0b 3f 01 86 06 bd
       -0.020032393 -0.11679742 0.5450201 -0.03284264
000040 44 95 e9 bd 22 bb 10 be ec 2d c7 bb 00 2c 0e be
       -0.11405423 -0.14133886 -0.0060784724 -0.13883972
000050 d9 20 96 be e0 55 2b be 48 33 85 3d e2 83 7c be
       -0.29321936 -0.16731977 0.06503922 -0.24659684
000060 b3 a7 eb 3c ac 23 8a be 10 ea 2c be 66 7d 7d bd
       0.028766489 -0.2698034 -0.16886163 -0.061887167
000070 f8 89 4e 3e f8 f5 85 3e 3d 80 a3 3d 55 c4 4b bd
       0.20169818 0.26164222 0.07983444 -0.049747784
000080 53 26 4e 3d cf 97 a2 3d 0e 84 4e be 8e 45 ad 3d
       0.050329518 0.079391114 -0.20167562 0.08460532
000090 3e bb bf bd b6 3d b9 3c 3b b6 2a bc 09 ce 8f 3e
       -0.093618855 0.022612434 -0.010419424 0.2808688
0000a0 26 cd b2 bc 59 99 03 3e ad 22 df bd 21 4b 7f 3e
       -0.021826338 0.12851466 -0.10895286 0.24931003
0000b0 69 24 35 be 83 1c 30 be fa 13 f9 3d 52 83 9f 3e
       -0.1768967 -0.17198376 0.12162013 0.31154877
0000c0 c1 3c 78 bc 00 5c 39 be ff 6f 2b 3d 89 4e d4 bd
       -0.015151204 -0.18101501 0.041854855 -0.10366542
0000d0 0d 87 e6 bd 7b 14 55 3e d3 e7 70 be fb 45 57 be
       -0.11256228 0.20808594 -0.23525934 -0.21022789
0000e0 d7 57 d9 3d 53 12 13 3e 9c 3d 75 be 6e 5a 4b be
       0.10612457 0.14362459 -0.23949283 -0.19858715
0000f0 c7 a2 6f 3e 68 6d 1c 3d 92 72 3f be c0 8f 68 3d
       0.23401938 0.038190275 -0.18696049 0.056777716
000100 d1 fe 2e bd 56 4b 80 3d f1 42 01 3e d7 35 df 3d
       -0.04272348 0.06264369 0.12623192 0.10898941
000110 0e 89 06 3d c5 42 e0 bd f2 73 00 be 0e 30 4b 3e
       0.03284555 -0.10950235 -0.1254423 0.1984255
000120 bc 8d 8f 3d 8d 68 73 be 97 a4 41 3e ca 95 86 3c
       0.070094556 -0.23770352 0.18910442 0.016428847
000130 a1 cb b3 3c 12 1d af bd 02 d0 2d 3b 75 e5 a6 3d
       0.021947684 -0.085504666 0.0026521687 0.08149234
000140 e2 d7 07 be c0 53 cb bd ec be 04 3e 16 86 35 3e
       -0.13265947 -0.099280834 0.12963456 0.17726931
000150 c8 52 b1 3e fe 59 2b 3e 9a 10 e7 3d 26 8e 09 bb
       0.3463347 0.16733548 0.11282463 -0.0020989268
000160 09 28 9f 3e 8f 5d 7a be ef 02 a1 3e ce bf 39 bd
       0.31085232 -0.24449752 0.3144755 -0.045348935
000170 0f 92 f4 3c ae 6a e8 3e f1 be 81 3d 55 10 12 be
       0.029854802 0.4539389 0.06335247 -0.14264043
000180 62 80 06 3d bc 1e 03 be 99 50 ac bd bf cd 1b 3d
       0.03283728 -0.12804693 -0.0841381 0.03803801
000190 54 36 2f be 49 0b a1 be dd e5 96 bd 10 b3 db bd
       -0.17110568 -0.31453922 -0.07368062 -0.10727513
0001a0 06 26 11 3d e7 5e b0 bc 06 27 31 3e 22 de 8d 3c
       0.035436653 -0.021529628 0.17300043 0.017317835
0001b0 02 1f d6 bd 0d 72 19 3d 33 3b 57 be ec 24 d5 bd
       -0.10455133 0.037462283 -0.21018676 -0.10407433
0001c0 a6 ee c1 3d 53 7f a8 3b f9 c6 84 bd 08 8d ef 3c
       0.09469347 0.0051421314 -0.064832635 0.029242054
0001d0 77 f4 87 3e 97 a0 17 3f 69 04 ad bd 17 3d 0e be
       0.265537 0.59229416 -0.08448107 -0.13890491
0001e0 b1 8c c8 3d 5e 17 3f 3d c3 16 83 be 8d 2f 8f bd
       0.0979246 0.046653144 -0.25603303 -0.069914915
0001f0 56 3b 6d 3e 99 4b 16 be 7b 27 93 bd 2a 49 73 3d
       0.23167166 -0.14677276 -0.07185265 0.059395947
000200 ac 73 d1 3d 48 f3 42 bd 31 ab 9e 3c c5 18 98 3c
       0.10227141 -0.047595292 0.01936874 0.018566499
000210 3d 7c e5 3d e5 16 05 bd ed 3b 08 3e 18 2f 10 be
       0.11205337 -0.032492537 0.1330411 -0.14080465
000220 08 46 40 bd c0 dd 20 be f3 81 8d bd ca 00 0c 3e
       -0.046941787 -0.15709591 -0.069095515 0.13672176
000230 b8 36 f8 3d 39 9f b7 bd 87 42 33 3d ba 58 08 bc
       0.12119812 -0.08965916 0.043764617 -0.008321935
000240 98 d9 c3 3d c1 00 85 3e 52 2d d7 bd 9f 79 53 3a
       0.09562987 0.25977138 -0.10506691 0.0008067134
000250 4f d2 be bd e9 96 7b 3d f4 c0 1a be d9 60 81 3e
       -0.09317457 0.061423216 -0.15112668 0.252692
000260 d7 5a 83 bd 6a 45 83 3b 8c f4 9b 3c 0a 7a d8 bd
       -0.06413811 0.0040060775 0.019037507 -0.10570152
000270 e7 4f 01 3e e2 58 8f 3d dd 58 16 3e 95 f0 d4 bd
       0.12628137 0.06999375 0.14682336 -0.1039745
000280 c0 f6 6d be a8 3d 97 bd f9 99 ac 3d ce ad 0c 3e
       -0.23238659 -0.07384807 0.084278055 0.13738176
000290 6d d7 0f be c2 94 82 be 17 16 8b be 3a 48 23 3c
       -0.14047022 -0.25504118 -0.2716529 0.009965951
0002a0 fa fb 94 3d d7 fc 5b 3d 11 4b cc bd cd 7f 34 bd
       0.07274623 0.053707924 -0.09975255 -0.044067193
0002b0 53 79 92 be d7 62 c5 3d 99 51 0c 3e df af 33 be
       -0.28608188 0.09637993 0.13703002 -0.17547558
0002c0 2e 5b 95 bd 14 91 e0 bd d8 b3 5c 3d 49 75 8f ba
       -0.07292782 -0.109651715 0.05388245 -0.0010944988
0002d0 e5 90 1f bd 38 b5 1d 3e 7b b6 1a 3e cc d2 4b 3d
       -0.03895654 0.1540116 0.15108673 0.04976158
0002e0 4b 52 09 3d 67 86 45 bd 5e 8a c5 bd 6b 62 4b 3d
       0.033525746 -0.04822388 -0.09645532 0.049654406
0002f0 75 97 1a be 42 b2 60 bb b2 c7 59 3e 21 61 11 3e
       -0.15096839 -0.0034285937 0.21267584 0.14197208
000300 e7 85 65 3d ae 70 18 3e 52 60 8b bd 06 81 45 bc
       0.056035902 0.14886734 -0.06805481 -0.012054687
000310 e5 c3 86 3b 28 dc 6f be 66 c5 53 bc bd e5 fd 3d
       0.004112708 -0.23423827 -0.012925481 0.12397335
000320 df 6b d0 3d 2c a5 9c 3e ff 16 0f 3e 8a c8 35 bd
       0.10176825 0.30594766 0.13973616 -0.044380702
000330 23 27 05 3c 85 1b 2c 3e 9c 30 97 3d a5 91 dd 3d
       0.008127007 0.16807373 0.073823184 0.10818795
000340 48 c6 7e bc cd 2b 8d bd 5f 1c 91 3e 26 39 b6 3c
       -0.015550204 -0.0689312 0.28341958 0.022244047
000350 de 21 69 3d 06 6a 40 bc e3 f8 b7 bb 64 81 a8 3e
       0.056917064 -0.011744028 -0.0056143864 0.32911217
000360 1f 65 b6 bd 42 2c 23 be 7a 1d 77 3e 15 7c 02 bd
       -0.08906006 -0.15934852 0.24132338 -0.031856615
000370 ec b4 d5 3d 07 75 97 bd 5e 5b 8b ba f5 71 10 be
       0.10434899 -0.07395368 -0.0010632088 -0.14105971
000380 b2 27 22 3e b5 05 d1 bc b2 4f 81 3e 7c bc 0e be
       0.15835455 -0.025515417 0.25256115 -0.13939089
000390 ff 3d 8a 3d 03 0c bc 3c ae a8 0e bd c3 22 84 3e
       0.06750106 0.022954946 -0.034828834 0.2580777
0003a0 f4 bd 6e be d9 83 1b 3d dd bc 89 3d 8e dc 60 3c
       -0.23314649 0.037967537 0.06725476 0.013724459
0003b0 74 6a cb bc ff 8c 6e be ec ff 3d 3d 36 7e 63 3e
       -0.024831034 -0.23295973 0.046386644 0.22216114
0003c0 ff 9b bb 3d 1b fe 6d 3e 3b 67 ea bd 97 6f 1a 3d
       0.09160613 0.23241465 -0.11445471 0.037704077
0003d0 b3 bb 83 3e 2e 9c 88 be e4 70 ed 3d 24 b5 c9 bd
       0.2572914 -0.26681656 0.11593798 -0.09849003
0003e0 ea 80 b5 3e ed b8 c4 3d 79 bf 9a bc 32 f6 b6 3d
       0.35449916 0.09605584 -0.01889013 0.08933677
0003f0 12 67 8d bd 97 1b 2e 3e 41 a6 4d 3d 3a 1f 2a 3e
       -0.06904425 0.17002712 0.05020738 0.16613474

advantage_stream.0.bias f4 [64]
000000 8f 24 ca bd 94 c9 a7 3c 50 ee 9b 3d 04 4b 3b bd
       -0.09870254 0.020481862 0.07613814 -0.045725837
000010 ce fb a2 3d 8c 77 38 3d 82 a1 30 bd e9 3b bb bd
       0.07958184 0.045035884 -0.043122776 -0.09142286
000020 06 68 ff bb 48 9e 69 bd b8 31 5d 3c 6e 24 ec bc
       -0.007794383 -0.057035714 0.013500623 -0.028825965
000030 a8 86 ba bd e0 17 4c bb 41 a3 c8 3b da 3c 62 3d
       -0.09107715 -0.003114216 0.006122977 0.055233814
000040 bc bb 56 3d 10 76 a6 bd 23 66 ba 3b e0 20 24 bd
       0.05242513 -0.081279874 0.005688445 -0.040070415
000050 44 42 d7 bc 79 cd 23 bd 5c 43 aa 3c ba 05 1d 3d
       -0.026276715 -0.039990876 0.020784073 0.03833554
000060 34 d2 b3 bd c3 bb eb 3b 0a 18 5c 3b 75 85 95 bd
       -0.087803274 0.007194014 0.0033583664 -0.073008455
000070 81 79 96 bd 89 98 97 bd ff 97 a1 bb 25 c9 45 bd
       -0.07347394 -0.07402141 -0.0049314494 -0.04828753
000080 fd 87 ad bc 54 43 2a bd 95 f6 2a 3c 92 12 b2 3d
       -0.021183008 -0.041568115 0.010434766 0.08694948
000090 2f 78 e9 bc 2e 9b 6f 3d 45 b2 3f bd 24 96 25 3d
       -0.02849969 0.0584976 -0.04680087 0.04042639
0000a0 9f b1 9f 3c 76 da 59 3c ff e6 f0 bc 7e ed 27 3d
       0.019493876 0.013296714 -0.029407023 0.040997975
0000b0 c5 c6 a6 bc 18 ce 55 3b 5f aa 08 3d 1b bd ae 3c
       -0.020358453 0.0032624062 0.033365604 0.021330407
0000c0 68 c7 84 bd c3 dd 2a 3d d1 ba b2 3c 9e c0 06 bd
       -0.06483346 0.041715395 0.021817597 -0.032898538
0000d0 7e 78 92 3d 76 79 f2 3c f6 d5 3a 3c 50 2c 3a 3c
       0.07151888 0.029598933 0.011403551 0.011363104
0000e0 d2 39 d5 bc 08 f4 15 3d b9 77 86 3d c6 47 9b 3d
       -0.026028547 0.03660968 0.06565804 0.07582049
0000f0 b6 f7 9c 3c 25 e9 03 bc 6f b4 84 bd 78 86 8d 3d
       0.019161087 -0.008051191 -0.064797275 0.069104135

advantage_stream.2.weight f4 [4, 64]
000000 bf b3 f7 3e 9c 9c b9 be 06 95 12 3d 83 ff 80 bd
       0.48379323 -0.36252296 0.03578665 -0.06298735
000010 11 10 a0 3d 5a 5e 15 bd 70 c3 af bd 78 42 2f bd
       0.078155644 -0.036466934 -0.085821986 -0.042788
000020 5d 73 ee bd 0e 85 ea 3d da bd ce be 14 02 a4 be
       -0.116430975 0.114511594 -0.4037922 -0.32032835
000030 b0 23 ac 3e d8 18 38 bf e4 36 f9 3d 4d b6 af bd
       0.33620977 -0.7191291 0.12168673 -0.08579693
000040 69 ee 7c bd 42 0b b2 3e 68 60 98 3d 98 44 c3 3d
       -0.061750803 0.34774214 0.07440263 0.095345676
000050 ea a2 6c 3e 85 0c 54 bc 6b 01 96 3e 85 df a1 3e
       0.23109022 -0.012942438 0.29297957 0.31615844
000060 9e a1 1a 3e 67 f3 58 bd 60 65 c5 be 75 9a 47 3e
       0.15100715 -0.0529665 -0.38553905 0.19492514
000070 32 2c cb 3e d4 36 08 3f fb 9f 23 be de b7 b1 3c
       0.39682156 0.5320866 -0.15978996 0.02169412
000080 d1 f4 9b be 97 d0 29 be 93 07 83 3e 0b 27 af be
       -0.30460218 -0.16583477 0.25591716 -0.34209475
000090 07 ed c4 3e f4 de df 3d 84 37 19 3d df 94 80 3e
       0.38462088 0.10931197 0.03740646 0.2511358
0000a0 ae a4 00 3f 51 39 84 3d 6b 6e cc bd 72 f7 b2 bd
       0.5025128 0.06456245 -0.09981998 -0.08738603
0000b0 5f 8f bc be 4b 28 0f 3e b7 84 a5 be bf 64 79 3e
       -0.36828133 0.13980214 -0.32327816 0.24354838
0000c0 40 1c 90 be 42 e8 4f be cf 6c 7d bd d7 95 2d 3e
       -0.28146553 -0.20303443 -0.061871346 0.1695169
0000d0 b7 41 04 3e 3c 8c 0b be ff 77 29 3e bb 86 fc 3b
       0.12915693 -0.13627714 0.16549681 0.007706491
0000e0 64 ac 19 bd e3 3f 9a bd 07 a7 09 be 60 97 c1 bd
       -0.03751792 -0.07531717 -0.13442622 -0.094527006
0000f0 ae 52 8f be 45 5d 43 3f 3e df a7 3d a6 78 12 bf
       -0.27992767 0.76314193 0.08196877 -0.57215345
000100 30 b8 2e 3e fc c7 08 bf 45 a6 dc 3e 9c ca 42 be
       0.1706245 -0.5343015 0.43095604 -0.19022602
000110 3e 08 ac 3d d0 47 b5 3c e0 7d c1 3e 07 a3 06 3c
       0.084000096 0.02212897 0.37791348 0.00821758
000120 24 1c 76 3e 2e 5e 85 bc ac 4d 6b 3e f2 7f 60 3e
       0.24034172 -0.01628026 0.22978848 0.21923807
000130 7e 7b 47 3d 06 08 7f 3c 42 e7 ca 3d b4 b1 e4 bc
       0.048701756 0.015565878 0.0990739 -0.027916767
000140 f1 f3 0d be c9 de 6a 3e 5b 15 be be 8c 1c 72 be
       -0.13862588 0.22936548 -0.37125668 -0.23643702
000150 d5 94 c2 bc 8f 3a 21 3d c5 83 21 3f ed f1 b8 3e
       -0.02375261 0.039362486 0.6309169 0.36122075
000160 86 6f 82 3e a7 21 7f 3e 6a b2 5c 3e 69 ca b5 be
       0.2547571 0.24915181 0.21552435 -0.3550599
000170 68 cc f4 bd 78 9b af 3e fb 70 51 3e b5 1c 68 be
       -0.1195305 0.342983 0.20453255 -0.22667201
000180 89 ea 69 3e dd cf ae bd 42 00 93 3e 99 8a fa be
       0.22843374 -0.085357405 0.28711134 -0.48933867
000190 d9 bc 7f 3e 03 b8 0a 3f 68 dc a3 bc 94 0a a1 3e
       0.24974383 0.5418703 -0.020002559 0.31453383
0001a0 37 c5 64 3d c4 8f 45 3e 71 0c 68 3e b3 ae c6 3e
       0.05585214 0.19293123 0.22660996 0.3880516
0001b0 e0 25 0b bc f1 33 b7 bd da 0b 50 bd 53 22 ce 3e
       -0.008492917 -0.08945454 -0.050792553 0.40260562
0001c0 2a 30 d9 3e 24 70 93 bb 8d 83 b4 3e db 62 00 3d
       0.4241956 -0.004499452 0.35256615 0.031344276
0001d0 0f 7b 31 be 60 34 b5 3d 9e 97 01 bc a9 69 06 3d
       -0.173321 0.0884788 -0.0079096835 0.03281561
0001e0 6b 12 39 3d 54 93 dc 3e 9a d0 8a 3d ef 0a 2b be
       0.04518358 0.43081152 0.06778069 -0.1670339
0001f0 9c 42 12 3e 3d 38 1d 3e f7 58 80 3e 26 de ed be
       0.14283222 0.15353484 0.25067875 -0.46458548
000200 53 80 8c be 0e e8 2d be 0d d0 41 3c 55 fb 78 3d
       -0.27441654 -0.16983053 0.011829388 0.060786564
000210 5a fb 5e 3e af af 3c bd 7c 4b d6 3c 02 39 3a be
       0.2177557 -0.046065982 0.02615904 -0.18185809
000220 75 09 2c 3f 22 be 18 3c 50 c5 b7 bd 23 32 d7 3e
       0.6720193 0.009322675 -0.08973181 0.4203044
000230 49 97 d6 bd fb 9c 20 3e 09 65 1c bd 38 80 8d be
       -0.10478074 0.15684883 -0.038182292 -0.27636886
000240 9f 64 2c 3e 24 95 3e 3e 79 d8 ec be ac 75 8d 3d
       0.16835259 0.1861158 -0.46258906 0.0690721
000250 ee be 9c bd a3 be b0 be aa e5 53 be a8 12 73 be
       -0.076536044 -0.34520444 -0.20693079 -0.23737586
000260 12 d7 a9 3d c1 fa 84 3e 6b 77 b9 3d 14 0a e7 3d
       0.082929745 0.2597256 0.0905598 0.11281219
000270 80 64 1d be 1c 82 9b be a5 5a 69 3e b4 7c c8 3d
       -0.15370369 -0.30372703 0.22788484 0.0978941
000280 e7 09 8d bd 7f 74 b7 bd 12 5f ec be 14 49 02 3f
       -0.06886654 -0.08957767 -0.46166283 0.5089276
000290 47 b2 04 be 12 02 c8 be 7d ca 73 bd 90 34 8c be
       -0.12958632 -0.3906408 -0.05951928 -0.27383852
0002a0 6b f9 75 3e f2 b3 d6 be 23 bf 7d bc 84 cf ee bc
       0.24020927 -0.41934162 -0.015487465 -0.029151686
0002b0 2d 95 c5 3e bc d8 dd b9 2e 98 1d 3f 06 c0 d6 be
       0.38590375 -0.00042313884 0.6156033 -0.41943377
0002c0 16 50 1e 3e 76 62 b1 3d 3d 9e 8f be 53 60 31 be
       0.15460238 0.08661358 -0.28050414 -0.17321901
0002d0 94 f8 94 3d 11 52 2a be aa 46 88 bd 7f 04 82 be
       0.07273975 -0.16632868 -0.06654103 -0.25394055
0002e0 22 b7 7d 3e 82 46 c0 3e 66 4d 78 3c 9e e9 60 3e
       0.24776891 0.37553793 0.015155172 0.21964118
0002f0 e1 1b 19 3e ae 54 8e 3e 67 51 59 be d1 83 28 3f
       0.14952041 0.2779898 -0.21222459 0.65826136
000300 18 36 b5 bd b6 b8 44 be ca 0f 4c 3e c6 6d 81 be
       -0.08848208 -0.19211087 0.19927898 -0.25279063
000310 fa 64 ea 3d 11 f0 80 bd de 3f a7 bd 3c 8e d1 bd
       0.11445041 -0.06295789 -0.081664786 -0.10232207
000320 c4 40 96 3d 83 99 0d be c5 1d 05 3e f2 b1 e5 3e
       0.07336572 -0.13828091 0.12999637 0.44862324
000330 fe 6b a3 3e 3f 04 bb 3e 22 91 c3 be fc 6f d5 3d
       0.3191833 0.36526677 -0.38196665 0.1042175
000340 b0 ef 31 be b4 78 76 bd 9a 59 04 be e5 7d 2b bc
       -0.1737659 -0.060173705 -0.12924805 -0.010467027
000350 7b cb 6d 3c 06 1b 33 3c 81 37 d0 be 70 cd dd bd
       0.014513846 0.010931736 -0.40667346 -0.108302
000360 0d 31 b0 bd c3 69 9e 3e 3d 2c 55 3e 87 d8 1b be
       -0.08603106 0.30940065 0.20817657 -0.15219317
000370 41 f2 1e 3d 44 2a 13 be 50 cc 95 be de c4 e8 bd
       0.03880525 -0.14371592 -0.2925744 -0.113656744
000380 0b 93 96 3e eb 27 ae bc eb c8 be be 7c 30 0e 3f
       0.2940906 -0.021259269 -0.37262663 0.5554273
000390 0c 68 1a be e5 c9 7e be 94 96 e5 3d 8e 8d 70 bd
       -0.15078753 -0.24881704 0.11210361 -0.058728747
0003a0 e2 f1 10 be ec ff 1d 3d c2 d8 fc 3c 3c 19 c7 3d
       -0.14154771 0.038574144 0.030865077 0.0972161
0003b0 6c fe a7 3e 7d 2b 9f 3e 7c 5f a8 3e 4b f1 59 be
       0.32811296 0.31087866 0.3288535 -0.21283452
0003c0 e2 29 c8 3e 8b 65 ba ba fd 08 84 bd 34 16 e0 bc
       0.39094454 -0.0014220936 -0.06447027 -0.027354337
0003d0 e9 57 80 be 78 5d 60 3e 3d 71 3c bc 61 a4 0e 3e
       -0.2506707 0.21910655 -0.0115016075 0.13929893
0003e0 19 1b 0c 3e 41 9e 4d 3c 13 d2 c4 3e 6c b9 2d 3e
       0.13682212 0.012549938 0.38441524 0.16965264
0003f0 ff 36 40 be b0 38 fe bd 4e fa 11 be 45 02 f5 3e
       -0.1877098 -0.12413156 -0.1425564 0.47853294

advantage_stream.2.bias f4 [4]
000000 93 da c9 3d 93 31 35 3d 0a 4f 01 3e 1b eb ee bd
       0.09856143 0.04423673 0.12627807 -0.116659366
