models/snake_dqn_ep417_score21_20250302_153403.pt (torch, 882722 bytes, 44 tensors)

feature_layers.0.weight f4 [128, 24]
000000 0b 58 07 bc 70 c9 1f bf eb 95 09 be 3e ad da ba
       -0.008260737 -0.62416744 -0.13436095 -0.001668371
000010 9a da bf bc 7f aa b5 3e fc 5c 87 be 06 bf 9c 3d
       -0.023419667 0.3548164 -0.2643813 0.07653622
000020 60 36 29 be ca 87 60 bc 1c 2f ad be 60 7f 61 3e
       -0.16524649 -0.01370425 -0.33825004 0.22021246
000030 b3 96 0b 3c 95 ef f3 3e 0a 6d 43 3d 35 0b 02 3d
       0.008519816 0.47643724 0.04771141 0.03174897
000040 25 32 87 be e7 22 95 be ad b6 4d bf 15 e8 39 3e
       -0.26405445 -0.2912819 -0.80356866 0.18154939
000050 81 db a9 3e 3d fc 6d be fe 87 0d bf 6c 24 60 be
       0.3317528 -0.23240753 -0.5528563 -0.21888894
000060 69 fc 8b be f2 b9 03 bf 07 ba c0 3c 3e fc ef be
       -0.2734101 -0.51455605 0.023526205 -0.46872133
000070 25 a6 01 bf 8d 6c 1b 3f a2 15 92 be 20 6a ed bd
       -0.5064414 0.6071251 -0.2853213 -0.11592507
000080 10 1b ae 3d b0 06 be be d2 28 90 3e c9 c2 b1 3e
       0.085012555 -0.37114477 0.28156143 0.34718922
000090 18 4e 2c 3e 97 2d 45 bf a6 57 c1 3e 3d 9c a3 be
       0.16826665 -0.7702269 0.37762183 -0.31955138
0000a0 1d 67 a3 3c ba bd 12 bf b8 8d a0 be ab 4a 80 bd
       0.01994663 -0.5732075 -0.31358123 -0.06264242
0000b0 5b bd 56 3e 7a 8d 36 3e 04 fa b5 3e 8e 67 db 3e
       0.20970671 0.17827407 0.3554231 0.42852443
0000c0 92 13 29 bf c5 c1 40 3f 1c cd 7b bf 83 d4 54 3d
       -0.66045487 0.7529567 -0.9835985 0.05196048
0000d0 87 83 af 3a 47 fd bb 3d e8 28 ef bd 7d ce 73 3d
       0.0013390639 0.09179168 -0.11677724 0.059523094
0000e0 c5 63 e5 be e6 89 6c be fc bc c1 3e 4f 5b 6f 3d
       -0.4480268 -0.23099479 0.37839496 0.058436688
0000f0 f8 6f 08 be 2f 36 d9 bd 4a ac 6f be 23 19 41 3f
       -0.13323963 -0.10606038 -0.23405567 0.7542898
000100 71 97 25 bf 14 b9 44 3f b0 15 35 3e 2c 80 ca be
       -0.64684206 0.76844907 0.17684054 -0.39550912
000110 e6 89 d4 3e 9c 2f 17 3f 3e 19 8d be 5f d5 ef bd
       0.41511458 0.5905702 -0.2755832 -0.11710619
000120 ae 0e ff bd 20 6c 14 bc 7b ff a9 3d 24 43 36 3d
       -0.12453972 -0.009058982 0.08300682 0.044497624
000130 c5 d0 e9 be fb ef 79 be 19 d2 83 bc d2 06 ac be
       -0.4566709 -0.24407952 -0.016091393 -0.33598953
000140 f9 a6 8e be 08 98 d9 3d ef 61 dc 3d 21 99 bf be
       -0.27861765 0.10624701 0.10760867 -0.37421516
000150 24 e5 e9 be 1e 1a 18 3e 97 37 0f 3d 11 0c ff bd
       -0.45682633 0.14853713 0.034965124 -0.12453473
000160 4b 5e 4b be 38 2b 62 bf 08 0a 65 3e 09 bc 03 be
       -0.19860189 -0.88347197 0.22367108 -0.12864698
000170 8e 11 fe 3d 6d fc b3 3e 91 9f ba bc f2 49 71 3e
       0.12405692 0.35153523 -0.022781165 0.23563364
000180 22 42 39 3e 70 03 9e bd 56 a6 c1 bc ce 11 8b 3c
       0.18091634 -0.077154994 -0.023638885 0.016976263
000190 16 68 41 3e 60 a0 83 3d 4f 73 15 be b1 7e 8b 3e
       0.18887362 0.064270735 -0.14594768 0.27245095
0001a0 fb ed d3 bd 4b 4c cf 3e 43 9a a5 be 1b 28 b0 3d
       -0.103481255 0.40487894 -0.32344255 0.086013995
0001b0 ac 3f 0e 3f e8 03 53 be 28 cd 40 3e 53 b8 94 3d
       0.55565906 -0.20606959 0.18828261 0.072617196
0001c0 b1 b9 87 bf 5c e6 aa be 31 1e 13 bd 00 de c8 3e
       -1.0603544 -0.33378875 -0.035917465 0.39231873
0001d0 7a 51 66 3e 2d ab b2 bd b7 f1 34 3f e0 5d 7a be
       0.22492018 -0.087240554 0.7068133 -0.24449873
0001e0 cd 84 03 3d 58 b6 ab bd e9 ff ba be 54 6c ea 3b
       0.03210907 -0.08384389 -0.3652337 0.007154027
0001f0 67 79 ac 3d a7 87 3d bd b2 85 6f be a1 ce fa 3d
       0.08421593 -0.046271946 -0.23390844 0.122464426
000200 0a f4 10 bf 6a 86 bf be 64 8b 5d be 05 bb af bd
       -0.56622374 -0.37407237 -0.21635205 -0.08580593
000210 80 4a 91 3d dc b2 4b bd 71 f1 f5 3d 68 91 44 3f
       0.07094288 -0.04973112 0.12008942 0.7678437
000220 a6 98 8e bd 91 38 89 3e 1d 6d 30 3f 10 f0 a5 3d
       -0.06962709 0.2680097 0.68916494 0.08102429
000230 99 2e 00 3e 3a b0 03 3f 4b dd 4b 3c 8b 53 88 3e
       0.12517776 0.51440775 0.012442897 0.26626238
000240 83 f5 9e 3e f2 0f 85 3c 9e 69 82 3e fb bf 25 bf
       0.31046686 0.016242955 0.25471205 -0.64746064
000250 06 a7 d8 bd d6 dd 15 be 58 21 77 3e 1c ae 63 be
       -0.10578732 -0.14635405 0.24133813 -0.22234386
000260 4f 00 76 3d 7e a8 7d bd 28 e6 bf bd 07 24 b1 3e
       0.060058888 -0.061928265 -0.09370071 0.345978
000270 83 9f 91 be 36 61 75 be 44 85 d9 3e fa b6 06 3f
       -0.2844201 -0.23962864 0.42484486 0.5262295
000280 db 34 9b 3e b6 1f b0 bd cd 8f 55 be 06 1d 70 3e
       0.30313763 -0.085997984 -0.20855637 0.23448572
000290 83 d2 2e bf 67 48 b0 3e 25 6a 35 3f 7f 26 86 bd
       -0.68289965 0.3443024 0.7086509 -0.06550311
0002a0 0d f4 ed be 22 a7 09 3f 0f 03 d7 be 21 55 db bd
       -0.46475258 0.5377065 -0.4199452 -0.107095964
0002b0 d8 b0 8e bd a7 c9 2a be 58 9d b3 3d 78 6d cf 3d
       -0.06967324 -0.16678487 0.08770245 0.101283014
0002c0 9f cb 4c bd 09 d7 f4 3e 75 8a b6 3e 3f 88 25 3f
       -0.049998876 0.4782031 0.3565251 0.6466102
0002d0 ad 56 3e be e9 85 0c bf 6c 98 90 3d 87 ed 7f be
       -0.18587752 -0.5489183 0.07060322 -0.24992953
0002e0 84 94 2e bf 30 d5 ad 3d 03 44 62 bd d8 45 00 3e
       -0.68195367 0.08487928 -0.055240642 0.12526643
0002f0 84 27 de bd 29 93 8e be 45 51 88 3e 39 af 37 bc
       -0.10847381 -0.2784665 0.26624504 -0.01121121
000300 23 4f 77 3e 42 b4 a7 be 93 8e b3 3e f5 00 63 3e
       0.24151282 -0.32754713 0.35069713 0.22168334
000310 39 8e 98 bd ee 59 e6 3d 00 46 ec 3d 02 f9 14 bf
       -0.07449002 0.112476215 0.11536789 -0.58192456
000320 61 56 3e be dd 8b 13 bd 51 d9 97 3e f2 7b 8e 3d
       -0.18587638 -0.036022056 0.29657987 0.069572344
000330 aa ed 6b 3d 19 11 fc bd b1 ab 9e 3e 7a 9e 6f 3e
       0.0575997 -0.123079486 0.30990365 0.23400298
000340 cc 15 8e be d2 d6 60 be d2 fc d3 3e 37 f6 d2 3e
       -0.27751005 -0.21956947 0.41403824 0.41203472
000350 73 28 54 be e9 d0 ab bd b0 33 eb 3e a9 0a 1b 3e
       -0.20718555 -0.08389456 0.45937872 0.15140785
000360 1e cb 85 bd 5d b0 b7 be 36 c8 9f 3e 29 61 40 bf
       -0.06532882 -0.35876742 0.31207436 -0.75148255
000370 d8 0a 8a be 3c ae f3 be e4 ec bd 3e 54 d4 65 be
       -0.26961398 -0.47593868 0.37094796 -0.22444278
000380 b6 9e d5 3d 93 17 e9 bd 72 b1 80 3d c8 4a 5b bd
       0.10430662 -0.113814496 0.06283845 -0.053538114
000390 78 f5 5a bf fc ae ee 3e 21 92 ce be e1 6d c8 3e
       -0.85530806 0.46617877 -0.40345863 0.3914633
0003a0 b5 a5 bc be 4a a7 35 3f db 5a b6 be 4f 80 18 bf
       -0.36845174 0.7095839 -0.35616192 -0.59570783
0003b0 89 98 31 be 94 66 10 be 73 ce e6 3c 03 8e de 3e
       -0.17343344 -0.1410163 0.028174615 0.4346772
0003c0 16 80 d1 3e 06 fd 5b bf 8b 41 ef 3e 22 02 50 bf
       0.40918034 -0.8593296 0.46729693 -0.81253254
0003d0 5d 05 bb 3d c0 aa 9b bc cd 95 21 be 6e f4 e8 bd
       0.09131882 -0.019002318 -0.157798 -0.11374746
0003e0 a2 c1 ad bd 8c 36 0a 3e 6e 7b 36 3d 99 16 a2 bc
       -0.08484198 0.1349737 0.044551305 -0.019786166
0003f0 21 57 fc be af ed 98 3e 18 13 8c bd f4 32 1d 3f
       -0.49285224 0.29868838 -0.06839579 0.61405873

feature_layers.0.bias f4 [128]
000000 0f cf 1e 3e c9 7b aa bd 69 6f ee ba 86 bc 35 3e
       0.15508674 -0.083243914 -0.0018191162 0.17747697
000010 bd 72 f9 bd 52 8a ac 3c 5c 0c 0a bc 00 85 78 3e
       -0.12180088 0.02106205 -0.008425798 0.24269485
000020 a0 2c 7d 3e 48 b9 3f 3e 63 dd 90 3d d3 ab 85 3d
       0.24724054 0.18723023 0.07073476 0.065269135
000030 2f bb 7d 3e 17 e7 a3 3d 20 55 01 be ca 39 ca bd
       0.24778436 0.08003061 -0.12630129 -0.09874304
000040 a6 14 f6 bd 1c 6c a9 3e b2 0b 89 3e 3f c5 9d bd
       -0.12015657 0.33090293 0.26766735 -0.07703637
000050 25 fb 37 3e 89 ed b7 3d 42 9f ec bd 32 07 cc 3d
       0.17966898 0.08980853 -0.115538135 0.0996231
000060 a9 af c6 bd 6a c6 b2 bd 98 2a 51 3e bb 5f d7 3b
       -0.09701473 -0.08729251 0.20426404 0.0065726913
000070 35 d8 92 3d fd 15 cb bc 36 ef 54 ba 99 7c 61 be
       0.071701445 -0.024790758 -0.00081228034 -0.22020186
000080 80 86 38 3e c4 89 71 3d 95 b3 99 3e 66 86 6b be
       0.18020058 0.058969274 0.30019823 -0.23000488
000090 cb a4 e9 3d 0b b7 32 3e e7 8b 08 be 64 c0 83 be
       0.11408385 0.17452638 -0.13334619 -0.2573272
0000a0 66 f8 5c 3e b1 e3 b6 3d eb 73 1c be f0 18 38 3e
       0.21579131 0.089301474 -0.15278594 0.17978263
0000b0 01 f5 aa 3e 9f 20 04 3e bc d2 33 3d 2e 67 ca 3d
       0.33390048 0.12903069 0.043902144 0.09882961
0000c0 9e 95 31 3e 06 45 9f bd ea b2 d5 3c b3 b5 5f 3d
       0.1734223 -0.07776837 0.02608629 0.05461664
0000d0 94 48 18 3d bb 8b c6 bd 5f c9 88 3e 9d a4 62 3e
       0.03717859 -0.0969462 0.26716134 0.22133107
0000e0 57 21 f1 bd a6 a5 9a 3d e0 8c 32 be d9 b1 69 3d
       -0.11773937 0.07551126 -0.17436552 0.057054374
0000f0 26 b3 a6 3e 8f 66 1f be 47 62 a4 bd c0 49 99 3d
       0.32558554 -0.15566467 -0.080265574 0.0748477
000100 51 81 19 bd d2 9c 07 3e 67 42 ba be 73 de 45 be
       -0.03747684 0.13243416 -0.36378786 -0.19323139
000110 c1 df 91 be 30 80 04 3e 58 2f 04 3e 9d de 54 be
       -0.28491023 0.12939525 0.12908685 -0.20788045
000120 8d 1c a6 3e 2b bd 61 3e c4 f6 68 3e c5 b9 86 be
       0.32443658 0.22044818 0.22750384 -0.26313606
000130 77 f9 28 3e 5c 74 0b 3d 90 67 1c 3e b3 25 88 3e
       0.16501413 0.034046516 0.15273881 0.26591262
000140 1b 13 90 3e d2 5d 26 be 6e e1 de bd 0e 25 62 3e
       0.28139576 -0.16246727 -0.10882841 0.22084448
000150 e1 ef fe 3c 46 ce af 3d 61 1a e0 39 a7 53 c1 3d
       0.031120243 0.085842654 0.00042744263 0.094397835
000160 a2 17 35 3d 14 27 c5 3b 67 17 f4 bc 0a ae 83 3e
       0.04421199 0.0060166214 -0.029796315 0.2571872
000170 92 53 80 3e c8 41 64 3c 1a f1 6f be 37 16 5e 3e
       0.2506376 0.013931699 -0.23431817 0.21688162
000180 d0 53 96 bd 2e b1 11 3e 39 ae 58 3c 69 7d 38 3e
       -0.07340205 0.14227745 0.013225132 0.1801659
000190 7e 3f 94 bd 15 06 39 3e 7d e2 23 bd 1e b3 10 3e
       -0.07238673 0.18068726 -0.040010918 0.14130828
0001a0 0a bc 89 bd 94 9b dd 3d 75 59 20 3e 00 f8 fe 3d
       -0.06725319 0.1082069 0.15659125 0.12449646
0001b0 59 09 7c 3e 75 2f c7 bd 22 e3 9c 3e 5e 74 41 3e
       0.24612941 -0.097258486 0.3064204 0.18892047
0001c0 67 74 20 3c 0b d7 96 3e 46 4a 09 3e 11 f5 60 bd
       0.0097933775 0.2946094 0.1340724 -0.054921214
0001d0 b3 86 22 3e 4f 59 d1 bd ca 92 87 3e b9 b2 85 bd
       0.15871696 -0.102221124 0.2647918 -0.06528229
0001e0 83 10 29 be b9 bc 8a 3e a1 3c 02 bd 58 ef 05 be
       -0.16510205 0.2709711 -0.0317961 -0.13079584
0001f0 db 33 d5 bd 88 7d 9b 3e 17 69 60 3d 52 a1 c3 bb
       -0.10410281 0.3036921 0.05478772 -0.0059701586

feature_layers.1.weight f4 [128, 128]
000000 3d 7a 6b 3e 34 6a 15 3d ab 4f 54 3e df 87 80 3d
       0.22995849 0.036478236 0.20733516 0.06275915
000010 ca 5e 9c bd 44 79 56 be cd 65 2f 3d d2 43 5a 3e
       -0.07635267 -0.20944697 0.042821694 0.21314934
000020 ef d2 b2 3d 39 34 f6 bb 10 8e 8b 3e b6 3d c1 bb
       0.08731639 -0.0075135496 0.27256823 -0.005897249
000030 f1 42 3b be 93 1d d1 3b 4c 1c 85 3d 61 6a 61 3e
       -0.18287255 0.0063816993 0.06499538 0.22013237
000040 8e 60 f4 3d 3e 40 45 bd f0 3c 4d 3e 7d 0b 0f bd
       0.11932479 -0.04815697 0.20042777 -0.034923065
000050 bd 07 3f 3e cf 48 51 be 17 51 c5 bd 16 89 e7 bd
       0.18655296 -0.2043793 -0.09634607 -0.11305444
000060 c9 65 22 3e 11 88 59 3e 25 46 37 be 4a 66 2d 3e
       0.1585914 0.21243311 -0.17897852 0.16933551
000070 87 ab 54 3d 98 5b ac bc 7a 48 11 3d 0a 62 71 3d
       0.051921394 -0.021039769 0.03546951 0.058931388
000080 ec ff 20 3e 85 1e 82 bd c1 c5 12 bd c1 61 91 be
       0.15722626 -0.063534774 -0.035833124 -0.28394893
000090 ab 44 9d 3d 70 1a ef 3d 45 b7 06 bd 33 16 81 be
       0.07679113 0.116749644 -0.032889623 -0.2521225
0000a0 cf b8 85 3c f0 9b bc bc fb 2a 59 3e ae 25 8a 3d
       0.016323475 -0.023023576 0.21207802 0.06745468
0000b0 84 b7 34 3c a1 aa 90 bb 17 37 94 3d 70 b5 ea 3d
       0.011030082 -0.004414872 0.0723707 0.11460388
0000c0 46 10 6a be ef 77 24 bc 66 03 01 bd 75 65 5c 3e
       -0.2285777 -0.01003836 -0.03149738 0.21523078
0000d0 74 e2 97 3d 99 0d 56 3e bb 3d 62 3e 9a fb 6d 3d
       0.074162394 0.20903625 0.22093861 0.058101274
0000e0 f2 aa 0d 3e 68 b6 9f bd 2c b7 57 be 60 86 01 3e
       0.13834742 -0.07798463 -0.21065968 0.12648916
0000f0 31 f8 a7 3e bb ae 81 be 41 1f 3a 3d 5e 2a b3 3d
       0.32806543 -0.2532862 0.045439962 0.08748315
000100 79 56 91 3d 05 2f 22 3d 08 ba 43 3d bc 30 0e 3e
       0.070965715 0.039595623 0.047784835 0.13885778
000110 39 52 f3 3c 9c b8 19 3e a9 ce 28 3d 34 2f fa 3c
       0.029702293 0.15011829 0.04121271 0.030540086
000120 7f 93 9e bd 96 87 98 3e da 0c 81 3e b7 71 36 bb
       -0.077429764 0.29790944 0.25205117 -0.0027838775
000130 dd b9 3e 3d 74 64 cd 3d a6 e6 1c bd 62 1a 0b 3e
       0.04656397 0.100289255 -0.0383059 0.13584283
000140 7a 3e 0f bd 04 04 76 bd e0 6c 30 be dd be 5c be
       -0.03497169 -0.060062423 -0.17229033 -0.21557184
000150 68 db f4 3d 6b c3 1e be 1b cd 1e be 95 21 03 3e
       0.11955911 -0.15504234 -0.15507929 0.1280578
000160 10 72 29 3e 36 a1 2e be 97 0c ef 3d 0c d6 be bd
       0.16547418 -0.17053685 0.11672323 -0.0931817
000170 dc d8 55 3e 65 f7 d9 3b c7 68 3c 3d 7e 25 8c 3e
       0.20883507 0.006651806 0.04599836 0.27372354
000180 fd 63 fb 3d a4 d3 e8 3d 60 76 3e 3e 8a 98 36 3c
       0.122749306 0.11368492 0.18599844 0.011144767
000190 47 f1 af bd 80 7b 73 3e df 07 8a 3e f1 f2 25 3d
       -0.08590942 0.2377758 0.2695913 0.04051489
0001a0 ac d2 0c 3e 03 c5 04 3e 05 54 0e be 8c 2c dd bd
       0.1375224 0.12965779 -0.13899238 -0.10799512
0001b0 76 ac 40 bd 61 2c b9 bc 57 e7 74 3e 8c 9f 0f 3d
       -0.04703947 -0.02260417 0.23916374 0.035064265
0001c0 b9 15 6e bc 9a f5 62 bd f5 7c 4a 3d 14 c9 4a 3e
       -0.014531546 -0.055410005 0.049435575 0.19803268
0001d0 65 29 1a 3e b5 79 d5 3d a9 b2 a2 bd 34 99 2a 3b
       0.15054853 0.104236044 -0.07944233 0.0026031258
0001e0 0f e3 bf 3d c0 87 3d 3c 41 75 c8 3d 48 04 c2 be
       0.0936948 0.01156801 0.097879894 -0.3789389
0001f0 b2 2a 17 be 01 0b 49 3e 40 7d d6 b9 51 c6 32 3e
       -0.1476238 0.19633104 -0.0004091058 0.17458464
000200 59 55 21 be 9c 53 ad bd 35 c4 3a be df ab 4f 3e
       -0.15755214 -0.08463213 -0.1823891 0.20280407
000210 27 9f 03 3d 1b e9 a7 3b 93 74 b8 3c 3d 6a 1f 3e
       0.0321342 0.005124224 0.022516524 0.1556787
000220 8a 44 8f bd 9a f5 67 bd cf 9a 8c 3b 0f f3 6c 3d
       -0.06995495 -0.05663071 0.0042909156 0.057848986
000230 ec 72 44 3e 87 fc 36 3e d2 77 08 3e e5 2f 53 3d
       0.19184464 0.17869769 0.13326958 0.051559348
000240 16 c0 31 be ce 5d 8a bd b4 15 bc 3d 25 d0 2c be
       -0.17358431 -0.06756173 0.09183827 -0.16876276
000250 9c d9 58 3e 23 e0 23 3e a5 76 98 3d c3 92 fc 3e
       0.21176761 0.1600347 0.07444505 0.4933072
000260 bc 5b 5c bc 37 3c ce bc 87 a8 3d 3d ad 5f 5b 3e
       -0.013449606 -0.025175197 0.0463033 0.21423216
000270 17 49 21 bd ce 21 0d 3d a0 29 bb 3b e9 76 79 be
       -0.039376345 0.034456067 0.005711749 -0.24361767
000280 d4 7b 32 3e fa 73 9a 3d 48 0f 9d 3d fd d7 95 bd
       0.17430049 0.07541652 0.0766893 -0.07316587
000290 07 0f db bd d5 83 b3 3c 19 2c e3 3d dd 1c dc 3d
       -0.106962256 0.021913448 0.11092395 0.10747693
0002a0 4f 8f 06 3d 1b fc 49 bb 97 bb 2a bd bf 87 17 3e
       0.032851513 -0.0030820433 -0.041682806 0.14797877
0002b0 e3 0a c2 3e 4d 55 8c bd 67 b7 91 3d 44 42 91 bd
       0.3789893 -0.06852207 0.07115059 -0.07092717
0002c0 71 1f 91 bd 5a 4e 03 3e 88 0f 06 3d 0a dd df bd
       -0.07086075 0.12822857 0.032729656 -0.10930832
0002d0 54 3a 35 3d 3a 2b 71 3c 00 c1 b2 3d 71 e0 aa 3d
       0.04424508 0.014719779 0.08728218 0.0834359
0002e0 89 0d c3 bd b1 56 04 3d e0 d8 df bd 4f ee 8e 3e
       -0.09524066 0.032309238 -0.109300375 0.2791619
0002f0 19 a9 51 3e e0 6f cd bd 8d 8e 16 3e 1b 12 84 bd
       0.20474662 -0.10031104 0.14702816 -0.06448766
000300 d3 fd 1c 3e 94 b3 10 b8 b6 48 47 be 5b f9 92 3e
       0.15331201 -3.449952e-05 -0.19461331 0.28705868
000310 39 80 95 3c 3b 45 3a bd 53 df 99 3c 9b 0c 34 bd
       0.018249618 -0.04547618 0.018783247 -0.043957334
000320 8a aa 64 3d 1c f0 30 bb 47 0b ac 3c 98 c0 49 be
       0.0558267 -0.0026998585 0.021001471 -0.19702375
000330 f9 ef 37 3d f4 87 9a 3c 58 fd 91 3e 00 bb 39 3d
       0.04490659 0.018863656 0.28513598 0.045344353
000340 8a e1 d0 3d 08 59 c8 bd 0f 89 be 3b ed 9f 7a 3b
       0.10199268 -0.09782606 0.0058146785 0.0038242296
000350 4d be ba 3a c4 1c fc 3d 43 12 0c 3e 38 03 c9 3d
       0.0014247388 0.12310174 0.13678841 0.09815067
000360 2b cd 4d be 85 8a 43 be 2a 35 b0 bd c3 65 9d 3d
       -0.20097797 -0.1909581 -0.0860389 0.07685425
000370 87 ef c8 3d dd ed a2 bc d1 b1 e8 bc 84 44 3c bb
       0.09811311 -0.019888813 -0.028405102 -0.0028727362
000380 0c 98 af 3d d6 c8 a1 3e 02 e1 96 3b f4 d5 8e bd
       0.085739225 0.31598538 0.0046044597 -0.06974402
000390 ed e8 25 3e b0 79 8b 3c 2f 1a fd 3d ee e9 5b bd
       0.16202135 0.017025799 0.1235851 -0.05368989
0003a0 48 43 8b 3b 14 95 ad bd 8c b0 65 3d 6f cc f4 3d
       0.004249964 -0.084757 0.05607657 0.11953055
0003b0 22 00 bc bd 32 f8 55 3d fe 92 db 3d 7f d7 31 3e
       -0.09179713 0.05223865 0.10721396 0.17367361
0003c0 59 f7 9e 3d b6 93 97 bc 00 6a 2e 3e 70 6b 24 3d
       0.077620216 -0.018503051 0.17032623 0.040141523
0003d0 7a 5c 10 3d 15 86 c5 bd 89 18 5f 3e 41 b0 92 3b
       0.035244443 -0.09644715 0.21786703 0.0044765775
0003e0 7d ff 46 be d3 61 92 3d 8b e3 f9 3c 0a f3 45 3e
       -0.19433399 0.07147565 0.030504009 0.19330993
0003f0 c5 7f 14 3c 61 33 54 3e c1 ec 11 3e 7b 11 13 be
       0.009063666 0.20722724 0.1425047 -0.14362137

feature_layers.1.bias f4 [128]
000000 6e df 0b 3e e8 5d 7a 3e 70 a4 84 3d d9 8f 88 bd
       0.1365945 0.24449885 0.064766765 -0.06668062
000010 96 bc fc 3d bc 9e 05 3e c3 34 49 3d 26 aa 11 3d
       0.123406574 0.13048834 0.049122583 0.035562657
000020 03 e9 be bc 12 60 3e 3e ac e6 3d 3c 4d 53 03 be
       -0.023304468 0.18591335 0.011590641 -0.12824745
000030 84 72 9c 3d 0b e7 d0 3d 92 0c df bd fc e8 49 bc
       0.076390296 0.10200318 -0.108910695 -0.012323614
000040 db e3 61 3d d8 fd 85 bd a2 a1 3e 3e 9c ca 22 3e
       0.05514894 -0.065425575 0.18616346 0.15897602
000050 6c d6 11 3e 7c 99 e1 3d ea 45 63 be 05 25 92 bd
       0.14241952 0.11015603 -0.22194639 -0.07135967
000060 c5 d4 ff 3d 30 c1 8f 3d a3 34 dc 3c 3d 0a 06 3e
       0.124917544 0.070192695 0.026880568 0.13089843
000070 31 18 b8 bd ba 5a ca bd ce 05 bf 3d dd 12 fa 3d
       -0.08988989 -0.09880586 0.09327279 0.12210629
000080 69 f6 95 3c 42 c5 05 3d 9d 56 2f 3e 72 ec d2 bd
       0.018305974 0.032658823 0.17122884 -0.102990046
000090 16 4e c8 bc 3b cb ff bd ba cb b0 3d 9c 92 50 3d
       -0.024451297 -0.12489935 0.08632608 0.050921068
0000a0 e0 3f 75 bc 0b c7 12 be 5f 91 2d 3d 50 a4 65 3d
       -0.014968842 -0.14333741 0.042374965 0.056064904
0000b0 f0 2b 15 be 3d e3 d4 3c a2 5d ab bd 86 62 28 be
       -0.14567542 0.025987262 -0.083674684 -0.16443834
0000c0 3e 40 09 3e eb 2e 72 bd 52 e4 15 be cd c2 98 3d
       0.13403413 -0.059126776 -0.14637879 0.0745903
0000d0 51 4a 6c bb 6a 55 20 bd 7a 32 d5 3c 3f 19 aa bc
       -0.0036055038 -0.039143957 0.026025046 -0.020763991
0000e0 4e 85 a4 3d 32 17 c9 3d 45 68 b1 bc 66 22 a9 bd
       0.08033238 0.09818877 -0.021656165 -0.08258514
0000f0 89 9d b1 bd ea de 42 bc d9 ca 00 3e a1 54 e7 3d
       -0.086726256 -0.011893967 0.1257738 0.112954386
000100 f5 d0 c9 3d 2c 6b 38 be 4b 2d 03 3e de c4 23 3e
       0.098543085 -0.18009633 0.12810247 0.15993068
000110 0f ea 11 be 04 76 1a 3d 27 36 08 be 8f f4 16 be
       -0.14249443 0.037710205 -0.13301907 -0.14741729
000120 e3 d4 88 3b 8d b0 45 3e 6f 8e e3 bc 05 85 cf 3d
       0.0041757687 0.1930563 -0.027777879 0.10132793
000130 48 8f 89 3c b0 17 b9 3d a8 e9 03 3e 2c f7 10 3e
       0.016791955 0.09037721 0.12882102 0.14156789
000140 48 e3 bb 3d 81 01 2f 3e 92 05 fa bd 15 47 0c 3d
       0.0917421 0.17090417 -0.12208094 0.034247477
000150 9b 4f 19 bd 3d 2c f2 bd 18 27 53 bc 61 47 16 be
       -0.037429433 -0.11824844 -0.012887739 -0.14675666
000160 48 eb 23 bd cc 83 38 3e 32 a3 b8 bd e6 ac 21 3d
       -0.040019304 0.18019027 -0.09015502 0.03947153
000170 3f 40 1a 3e a1 e4 00 be d8 6e 13 3d 05 dd 2c bd
       0.1506357 -0.12587215 0.03599438 -0.04220297
000180 cd 68 c6 3d 99 fc 12 3e f2 fe 2f be bc d8 9c 3d
       0.09687958 0.14354171 -0.17187098 0.07658526
000190 70 38 94 3d 66 3a c9 bc a6 c6 1b 3e 5a 1a d0 3d
       0.07237327 -0.02456398 0.15212497 0.10161276
0001a0 e3 fc 6b 3d 84 47 e9 3d fa ae 06 be 61 05 9f 3d
       0.05761422 0.11390594 -0.13152686 0.07764698
0001b0 2b cb f8 bd ca 3b 7f 3d 99 37 cc 3d 34 92 b0 3d
       -0.12148126 0.06231288 0.09971542 0.08621636
0001c0 bd 42 07 be c4 01 ec bd 60 e4 ad 3d c8 a2 e8 3b
       -0.13209052 -0.11523774 0.08490825 0.007099483
0001d0 96 d2 4c bc b9 86 d4 bd 09 9b 13 3e e1 f6 90 3d
       -0.0125013795 -0.10377259 0.1441461 0.070783384
0001e0 88 74 dc 3a 97 78 be bd 78 09 e4 3d 9a 8b c7 3c
       0.0016819397 -0.093003444 0.111346185 0.02435856
0001f0 e7 dc 12 be 4b b5 15 bd ca e6 06 be 7f 38 96 3c
       -0.1434208 -0.036549848 -0.13173977 0.018337486

value_stream.0.weight f4 [64, 128]
000000 7c 01 ec bc 07 03 06 be 02 96 46 3e 43 61 8a bd
       -0.028809302 -0.13087092 0.19393161 -0.067568325
000010 24 57 37 3e 7a 07 d3 3d 3f 00 77 3d 21 60 79 bd
       0.17904335 0.103041604 0.06030297 -0.06088269
000020 52 38 56 bb dd cc cb bd ae 6c b4 3c 72 18 16 3c
       -0.0032687378 -0.09951184 0.022024479 0.009161102
000030 9a 43 2d be 23 a8 3b 3c 89 66 36 be e3 ce 1a 3e
       -0.16920319 0.011453661 -0.17812552 0.15117984
000040 94 68 43 3e 89 40 4d 3e b6 14 75 3b f0 09 ba bd
       0.19082862 0.2004415 0.0037396378 -0.09083927
000050 dd a5 ca 3d b1 17 2c be 88 6b 48 bc d3 46 4f 3e
       0.09894917 -0.16805913 -0.012232669 0.20241861
000060 11 25 1a bd 73 50 8c 3e 08 c2 3f bd 59 35 4c 3e
       -0.037633006 0.27405128 -0.046815902 0.19942226
000070 35 19 7e 3d 15 28 e1 bb 9e 58 80 3e e7 0c 88 3b
       0.062035758 -0.006871233 0.2506761 0.0041519287
000080 66 8b a7 bd f7 8d 0d 3d 36 8e 8e be 20 49 1f 3e
       -0.08180885 0.034559216 -0.27842873 0.15555239
000090 c4 86 2a 3e 70 10 c0 3d 08 02 88 3d 40 fe 77 be
       0.16652972 0.09378135 0.066410124 -0.24218082
0000a0 ba 75 a8 3d 77 e6 b8 3e 13 49 85 3d 30 dd f8 3d
       0.082255796 0.3611333 0.065080784 0.12151563
0000b0 30 5f bc 3d 0e 04 4e be 0f 84 42 3d e8 4b 99 be
       0.09197843 -0.20118734 0.047489222 -0.29940724
0000c0 28 db b0 3d cc 3d ae 3d 0c 75 8b 3e dd a3 ea 3d
       0.08635551 0.085078806 0.27237737 0.11457036
0000d0 25 53 4a 3e f0 02 4f be 4f 10 e4 3d 1a 92 33 3e
       0.1975828 -0.20215964 0.11135923 0.17536202
0000e0 ca 4c 6c 3d eb b6 02 3e e3 fe 95 bd de c6 1c be
       0.05769042 0.1276509 -0.073240064 -0.15310237
0000f0 ca 33 81 be 0c e4 27 3e b7 c4 08 3b 60 de 06 3e
       -0.25234824 0.16395587 0.0020869204 0.13170767
000100 e9 2f 4c 3e b9 dc 4b 3e c0 07 00 be 5b a4 20 3c
       0.19940151 0.19908418 -0.12502956 0.00980481
000110 db a7 67 bd c4 35 1f 3d ee 3d 32 3e 12 3e c1 3e
       -0.056556564 0.038869634 0.17406437 0.37742668
000120 37 47 01 3d fd 43 65 bc 37 bb 12 3e 15 91 8a bd
       0.031562056 -0.01399326 0.1432923 -0.067659535
000130 ba 6c 0a be 54 3f 17 3e dd 6f d0 3d df 2d 56 bd
       -0.13518038 0.14770252 0.10177586 -0.05228984
000140 9c 74 44 3c 83 ad 36 3d 2a 8a db 3d ca ea 78 be
       0.0119906925 0.044599067 0.10719712 -0.24308315
000150 ea d2 51 be de 98 9a bd 7b 6f 4e 3d 43 08 7f 3e
       -0.20490614 -0.07548688 0.050399285 0.24905495
000160 47 84 93 bc ac e1 8b 3e 92 68 53 3e f7 0f ac 3d
       -0.01800741 0.2732061 0.20645359 0.084014826
000170 10 1f c8 bc d0 09 ea 3d 80 13 99 bd 80 40 c6 3d
       -0.024428874 0.11427653 -0.074744225 0.09680271
000180 8f a7 0b 3e c7 35 14 be 70 a8 91 3e 12 ae 07 bd
       0.13638137 -0.1447364 0.2844882 -0.03312499
000190 0b a4 de bd 8c 7c 73 3d 44 ee 7d 3d 98 17 ad bd
       -0.108711325 0.05944495 0.061994806 -0.08451766
0001a0 33 a6 cc 3d ab c9 cf bd 1f 8d a6 3d d9 f9 a6 3e
       0.099926375 -0.10145887 0.081323855 0.32612494
0001b0 b7 80 4b be b4 fc 52 bd 8d a1 2d 3e b2 8e 88 3d
       -0.1987332 -0.051510528 0.16956158 0.06667842
0001c0 61 a1 23 3e a6 f3 04 3e 69 63 56 3e c6 46 f2 bd
       0.1597953 0.1298357 0.2093636 -0.11829905
0001d0 79 48 57 3e cc 6d f5 bb ee 3d f5 bd 4e 37 af 3c
       0.2102374 -0.0074898954 -0.11974703 0.021388676
0001e0 5d fc 4b 3d 6b e8 da bd 5a 3f fd bc 49 45 47 bc
       0.04980122 -0.106888615 -0.030913997 -0.012162515
0001f0 e2 7b 8b 3e 26 57 80 bd 90 aa 65 3d 92 ba e2 3d
       0.27242953 -0.06266622 0.056070864 0.11070742
000200 22 97 8c be eb b0 11 be 60 06 b9 3c 79 6c 1a be
       -0.27459055 -0.14227645 0.022586048 -0.15080442
000210 70 63 ec bc 5c 8d 21 bd a4 6f 1e bd 1c 26 6c be
       -0.02885601 -0.03944145 -0.038680688 -0.23061413
000220 65 35 83 3d c8 81 6e 3c bb 3b c5 3c 4d a0 c6 3e
       0.064066686 0.014557309 0.024076333 0.38794175
000230 08 41 51 bd 49 8d 03 be f8 0b a8 bd f7 22 f7 bb
       -0.05108741 -0.12846865 -0.08205408 -0.00754201
000240 e7 65 0e bd 77 71 6a 3d 29 d0 04 be 6e c7 bb bb
       -0.03476515 0.057237115 -0.12970032 -0.005730561
000250 19 de 20 be a9 01 b3 bd 95 aa a4 3e 78 75 a2 3e
       -0.15709724 -0.08740551 0.32161394 0.31730247
000260 cb 41 2f be ca 6b 07 3e 98 15 31 bd 58 3c d8 3d
       -0.17114942 0.13224712 -0.043233484 0.10558385
000270 39 99 2c 3e 5e ab 26 3e d0 62 83 bd b1 a4 97 bd
       0.16855325 0.16276309 -0.06415331 -0.07404459
000280 65 bd 37 be f0 e2 92 bd 2c 80 37 be d3 3b dd 3d
       -0.17943342 -0.07172191 -0.17919987 0.10802426
000290 c2 b3 6d 3e b6 f4 9e 3d 6a 4a 17 be 0a 4f 24 3e
       0.23213103 0.07761519 -0.1477448 0.16045776
0002a0 00 51 07 3f 6f c6 c4 3d 8a 95 a2 be 53 a0 84 be
       0.5285797 0.09608161 -0.31754714 -0.25903568
0002b0 a7 8e 8b 3e d0 18 1d be fc e7 45 3c ac f7 1d bc
       0.27257273 -0.15341496 0.012079235 -0.009641569
0002c0 29 c8 c2 3d 7a ba 65 3e 13 39 45 be 01 0d 49 be
       0.09510834 0.22434416 -0.19260053 -0.19633867
0002d0 89 c5 ac be 19 5a 03 3d e7 3b a4 3d e8 df 8e be
       -0.33744457 0.032068346 0.08019238 -0.27905202
0002e0 93 e3 00 be 9d 76 4c 3d d2 e5 04 3e 00 b8 fe 3d
       -0.12586813 0.049917806 0.12978294 0.12437439
0002f0 2b ff b6 3d b0 c7 28 be d6 5a 28 bd 97 14 48 bd
       0.08935388 -0.16482425 -0.041102253 -0.04884776
000300 85 37 39 bd 04 03 5d be 3e 50 39 be 83 28 29 be
       -0.045218963 -0.21583182 -0.18097016 -0.1651936
000310 79 c8 13 be ab 32 1c 3d 94 1d b7 3d cd e0 ac 3c
       -0.14431943 0.03813426 0.089411885 0.021103287
000320 76 c4 f7 3d 4a 3b 72 be 09 69 61 3d 63 13 3d bd
       0.12098019 -0.2365543 0.05503181 -0.046161067
000330 60 78 60 be d1 96 2b 3e f8 1c 89 be 99 c7 97 bd
       -0.2192092 0.1675675 -0.26779914 -0.07411117
000340 c8 78 64 bd c3 bd ae bd 9e 21 a4 3e 0a 29 eb 3d
       -0.05577925 -0.08532288 0.32056898 0.11482437
000350 13 18 f4 3d 62 d7 a3 3e ca 39 4e 3e ef 8c dc 3d
       0.11918654 0.32000262 0.20139232 0.107690684
000360 7a fc cd bd f7 76 e1 bd 38 c4 b8 3d 68 2d ba 3c
       -0.10057922 -0.11009019 0.09021801 0.02272673
000370 45 16 52 bd 4d 92 d8 3e c1 4a 74 be aa 6b 5e bd
       -0.05129077 0.4229912 -0.23856641 -0.054301895
000380 46 53 16 3e f2 60 ae 3d 13 5f 1d bd 8c 9f 31 be
       0.14680204 0.085145846 -0.038420748 -0.17346019
000390 2d 7d 74 be 33 fb 46 3d 6a 95 01 3e 53 7d 30 be
       -0.23875876 0.048579406 0.12654653 -0.17235307
0003a0 10 e9 7c bd cd f8 e7 3d b8 c0 8b 3c 64 7a 92 3d
       -0.061745703 0.11326752 0.017059669 0.071522504
0003b0 7b 46 23 3d f4 87 ee bb 83 b7 cb bc 4a a5 8f bd
       0.039862137 -0.0072793905 -0.024867779 -0.07013948
0003c0 e2 ae 1a 3e e3 e6 20 bc 5c e0 6c 3c fa 1e 08 3e
       0.15105775 -0.009820673 0.014457788 0.13293067
0003d0 06 d1 fc 3c 5e c4 6b 3e 2e be 1b be 43 84 09 be
       0.030861389 0.23024127 -0.15209267 -0.1342936
0003e0 50 9a b3 3a 51 c3 a4 bb 6d 4e 6b be a2 7e 35 3d
       0.0013702605 -0.0050281663 -0.22979136 0.04431022
0003f0 a2 52 02 bc 14 15 d8 bd 88 48 02 3e d3 df 00 3e
       -0.0079542715 -0.10550895 0.12722981 0.12585382

value_stream.0.bias f4 [64]
000000 ff 52 9b bd 9e c0 87 bd 24 ae 33 3e 58 41 0a be
       -0.075841896 -0.06628536 0.17546898 -0.13501489
000010 b6 51 cd 3d 3b e6 25 be cd d3 4b 3e a0 86 f1 3d
       0.10025351 -0.16201107 0.19905014 0.11793256
000020 05 09 09 3e 2a 44 d4 3d 85 5a c4 3d f3 a4 6f 3e
       0.13382347 0.10364564 0.09587578 0.23402767
000030 e0 1c 2c 3e d0 bc d6 3d 66 92 78 be dc 48 09 3e
       0.1680789 0.10485232 -0.24274597 0.134067
000040 eb d4 ba bd 9b 30 33 3e 82 85 7d bd 80 3d dc bd
       -0.09122642 0.1749901 -0.0618949 -0.10753918
000050 8d 22 37 be 36 1c 9e 3d 76 8a 65 3e 50 83 28 be
       -0.17884274 0.077202246 0.224161 -0.16456342
000060 79 ec d7 bd 0f 04 49 bd bb e6 b0 bd 9a f8 2b be
       -0.105431505 -0.049076136 -0.08637758 -0.16794053
000070 b1 f1 eb 3d b6 c4 9b 3d e2 71 e1 3d 13 6c b4 3d
       0.11520708 0.07605879 0.110080495 0.08809676
000080 ef 95 6b 3e 85 6b 6d 3e 8c d7 17 be f3 2e 6c 3e
       0.23006414 0.23185547 -0.14828318 0.23064785
000090 1d 51 23 be 8a d0 70 bd cb 2f d5 bd 8a 96 bc 3d
       -0.15948911 -0.05879263 -0.104095064 0.092084005
0000a0 b6 5e 82 3e 69 31 3a be be 02 f9 bd 8c 01 18 be
       0.25462884 -0.18182911 -0.12158726 -0.1484434
0000b0 4c 19 1c 3e 56 6f df 3d d7 1d e6 bd 2b d1 90 3d
       0.15244025 0.109099075 -0.1123616 0.070711456
0000c0 31 99 1d bd 9b df 2f 3e d8 a6 58 3e 57 b5 54 be
       -0.038476173 0.17175142 0.21157396 -0.207723
0000d0 65 c5 29 3e c9 ea 00 3e 5c da f4 3d 9e 35 92 3d
       0.16579206 0.12589563 0.11955711 0.07139133
0000e0 05 03 b1 bd 7a 10 89 3e 13 66 1c be ae 46 ca bd
       -0.08643154 0.26770383 -0.15273313 -0.09876762
0000f0 11 14 ba bd f5 75 71 bc 1d 10 90 3d 43 9a 49 3e
       -0.090858586 -0.014737596 0.07034323 0.19687752

value_stream.2.weight f4 [1, 64]
000000 6a d8 3d bd 98 1a 32 be b8 9f 03 3e f8 ca 8e be
       -0.046348967 -0.17392957 0.12853897 -0.27889228
000010 8d 3c 3e 3e fc f0 bd be 39 54 1f 3e 81 10 03 3e
       0.18577786 -0.3709792 0.15559472 0.12799264
000020 d0 bb 59 3e bf a1 1e 3e 22 54 a4 3d 72 66 c5 3d
       0.21263051 0.15491389 0.080238596 0.096386805
000030 5e 15 27 3e 43 cb 08 3f 6b 94 b7 bd 63 ff f8 3e
       0.16316745 0.5343515 -0.08963855 0.48632345
000040 ab b8 04 be 08 d2 b3 3e 86 01 d4 bd 8a c0 c4 be
       -0.1296107 0.3512118 -0.10351853 -0.38428146
000050 3e 95 9b be 03 09 a0 3d 50 f0 22 3e e9 dd 94 bd
       -0.303873 0.07814219 0.15911984 -0.072688885
000060 77 62 7b be a2 d4 37 be a5 6d 9e be 6a f0 88 be
       -0.2454928 -0.17952207 -0.30943027 -0.2674592
000070 c0 f2 8b 3e 0a 69 7d 3e 48 67 21 3e 1c 02 b9 3d
       0.2733364 0.247471 0.15762055 0.090336055
000080 e1 79 34 3e fb 6f a9 3d 37 a4 af be f1 24 06 3e
       0.17624618 0.08273312 -0.34304973 0.1310003
000090 63 2c 54 be b6 a5 8d be 8d 06 09 be 95 f9 03 3e
       -0.20720057 -0.2766549 -0.13381405 0.12888177
0000a0 12 3a 2e 3e a6 85 98 bd 6a 6a e6 bd 00 3a 38 be
       0.1701434 -0.074473664 -0.112507656 -0.17990875
0000b0 02 85 86 3e 96 05 2f 3e 2d 00 fd be 6a e0 6c 3e
       0.26273352 0.17091975 -0.49414197 0.23132482
0000c0 3e e5 bf bd 12 b1 08 3e dd 72 31 3e b3 2c 15 be
       -0.09369896 0.13348797 0.17328973 -0.14567833
0000d0 0f 58 fd 3e 03 26 48 3e a1 78 da 3e 85 e3 cc 3e
       0.49481246 0.1954575 0.42670158 0.40017334
0000e0 7e 89 4f be ed 20 18 3e 48 c5 f1 be 26 b9 f0 be
       -0.20267293 0.1485631 -0.47220826 -0.47016257
0000f0 bc 89 93 bd 0d 7c 44 ba 66 28 bb 3e 70 ad 4f 3e
       -0.07204005 -0.00074952916 0.3655426 0.20281005

advantage_stream.0.weight f4 [64, 128]
000000 74 95 35 ba 0f bb 7e 3a b2 14 2e be ff 70 ba 3e
       -0.00069268723 0.0009717205 -0.17000082 0.36414334
000010 df c0 14 3e 42 fc e5 bd c4 d0 fa 3a 41 e3 21 3e
       0.145267 -0.11229755 0.0019135703 0.15809347
000020 b5 74 84 3d 3f 15 a7 3c d2 26 25 bd 15 a3 cd 3d
       0.064675726 0.020395873 -0.040320225 0.10040871
000030 77 b9 22 3d 59 b2 db bd bc 88 15 3f 06 b4 8a bd
       0.039727654 -0.107273765 0.58411765 -0.06772618
000040 0a e4 96 3d 43 73 7d be a4 a0 82 3c cf ad ec bd
       0.07367714 -0.24751 0.01594574 -0.11556589
000050 44 e5 98 be 5e 1a 2b be 85 e1 91 3c d8 73 df be
       -0.29862416 -0.16709277 0.017807731 -0.4364307
000060 fb 4f 33 3d b5 5d 95 be 16 7a de bd 6f 1d 8a bd
       0.043777447 -0.29173055 -0.1086313 -0.06743895
000070 d7 b1 39 3e 24 f6 b0 3e 62 3a 89 3d 42 e8 5e bd
       0.18134247 0.3456279 0.06700589 -0.054420717
000080 65 56 94 3d b9 e6 cd 3d 9a 9a 31 be ed 5d 22 3e
       0.07243041 0.100537725 -0.17344132 0.15856142
000090 89 c5 4d bd 7d d5 5f 3c 84 2e 72 bb 9a d4 c8 3e
       -0.050237212 0.013661739 -0.0036953995 0.39224702
0000a0 b6 f9 9b bd c9 e4 2d 3e e7 33 0b be 60 f2 88 3e
       -0.07615988 0.16981806 -0.13594018 0.26747417
0000b0 a7 55 62 bb 16 15 e3 bd 09 3b 54 3e 45 04 90 3e
       -0.0034535916 -0.11088006 0.20725645 0.28128257
0000c0 a3 65 34 3d 14 c1 29 be 64 2e 14 3e 3f 47 5a bd
       0.04404224 -0.1657756 0.14470822 -0.0532906
0000d0 4f 6a b9 bd be e0 6f 3e ec fb 5a be 13 d9 7e be
       -0.0905348 0.23425576 -0.21385163 -0.24887495
0000e0 cb 0a 39 3e f3 27 0f 3e 22 d5 a7 be b6 ac 8d be
       0.18070523 0.13980083 -0.32779795 -0.2767083
0000f0 a4 93 8e 3e 5b b4 92 3c 18 94 29 be f3 ed c4 3c
       0.27847016 0.017908266 -0.165604 0.024039244
000100 ca 46 02 bd 8d 37 e9 3b 21 3c 21 3e a8 ed 23 3e
       -0.03180579 0.007117218 0.15745594 0.16008627
000110 4b b5 90 3d f9 6e df bd 1c 0d fe bc d9 4d 5d 3d
       0.07065829 -0.10909838 -0.03101211 0.05402932
000120 8d 0f 05 3e 06 88 56 be ac 64 4c 3e 00 76 62 3c
       0.12994213 -0.20950326 0.19960278 0.013822079
000130 72 60 99 3c c4 f8 1a bd 56 a7 6d bc 2d 9b 4b 3c
       0.018722747 -0.037834898 -0.014505228 0.0124271335
000140 cd 64 fd bd f4 ff 28 be 53 f1 32 3e e6 8a 8a 3e
       -0.12372742 -0.16503888 0.1747487 0.27059096
000150 0e ad f2 3e 13 35 04 3e 46 c8 9a 3c b7 d7 63 ba
       0.47397655 0.12910871 0.018894326 -0.0008691507
000160 70 28 d8 3e 1b c0 71 be 73 20 ad 3e 45 94 d7 bc
       0.4221835 -0.23608439 0.3381382 -0.026315818
000170 88 99 03 3d b2 a6 de 3e 66 36 b8 3d 65 24 45 3e
       0.03212884 0.43486553 0.08994751 0.19252165
000180 14 f9 9a 3a 2b 6a c1 bd 96 1a a4 bd 61 bf 83 3c
       0.0011823499 -0.09444078 -0.08012883 0.016082468
000190 ee 63 cc bd 2a a3 b5 be c9 11 d8 bc 45 12 8f be
       -0.099799976 -0.35476047 -0.026375668 -0.27943626
0001a0 fa 6b da 3c 27 99 9c bc fe 8a 30 3e 88 c3 68 3d
       0.026662815 -0.019115997 0.17240521 0.056827098
0001b0 dc 03 3f bd 49 42 00 3b 56 bc b9 be d9 d7 a1 bd
       -0.04663454 0.001957076 -0.362765 -0.07902498
0001c0 81 2a 7f 3e b2 92 af bd 4d 4d c6 bd a4 5c 13 3e
       0.24918558 -0.08572902 -0.09682713 0.14390808
0001d0 b7 c8 ce 3e a3 9c 32 3f 3e 0c 51 bd f4 97 d5 bd
       0.40387508 0.6977026 -0.051037066 -0.104293734
0001e0 0c 0f a2 3b 9f 7b 69 3d 51 54 80 be f0 98 8b bd
       0.0049456414 0.05700266 -0.25064328 -0.0681628
0001f0 79 71 41 3e 4a b3 8d be 87 0f 63 3c 26 e6 c8 3d
       0.18890943 -0.2767585 0.0138586825 0.09809522
000200 2b 38 ea 3d 3d 20 76 bd f3 30 5a 3d e0 60 13 be
       0.114364944 -0.06008934 0.053269338 -0.14392424
000210 26 f7 fd 3d 7e ca 44 be f5 0b 59 3e 96 34 38 be
       0.124006554 -0.1921787 0.21195967 -0.1798881
000220 a4 8b 89 bd ca 0b 0e be 21 fd 09 be 72 9d 6d 3e
       -0.067160875 -0.13871685 -0.13475467 0.23204592
000230 44 28 1f 3e c9 ad 30 be b0 01 a7 bd 1c 72 01 be
       0.15542704 -0.17253794 -0.08154619 -0.12641186
000240 e6 4d a7 3e 23 15 d8 3e 5a 54 88 bd c6 84 3c 3d
       0.3267662 0.42203626 -0.06656714 0.04602506
000250 3c a5 57 be 3e e5 30 3d 68 80 cc bd ac 1b d6 3e
       -0.21059126 0.043187372 -0.09985429 0.41817987
000260 55 96 f0 bd 10 62 70 3d 3f 90 af 3e 8b 59 05 be
       -0.117474236 0.05868727 0.3428974 -0.13022439
000270 6e 89 13 bb 56 b4 7a 3d 1c ee 2b 3e a2 39 84 bd
       -0.0022512334 0.061207138 0.1679005 -0.06456305
000280 2e 49 5d be 70 30 0b bb b6 6d 0f 3d 09 21 fa 3e
       -0.21609947 -0.0021238588 0.035016738 0.4885333
000290 7c 4c 8c 3c 70 0f ab be b8 11 97 be 61 35 c1 3b
       0.017126314 -0.33410215 -0.29505706 0.005896256
0002a0 0c 41 ca 3e 1b c4 3d be c2 62 00 be 0f ae ad bd
       0.39502752 -0.1853184 -0.12537673 -0.08480465
0002b0 5d 30 0c 3f 7a b3 a6 3d b4 2d 68 3e b5 70 42 be
       0.54761297 0.08139701 0.22673684 -0.18988307
0002c0 51 ac ec bb 0e 13 d2 be a0 e5 b7 bc a6 2c e1 bc
       -0.00722269 -0.41030163 -0.02244836 -0.02748711
0002d0 d0 d2 13 bd 30 83 04 3f 8a d7 0a 3e 73 7f 95 3d
       -0.03608972 0.51762676 0.13558784 0.072997
0002e0 aa b4 4f 3e 94 6b 8a bd b9 6c e5 be 01 14 15 be
       0.20283762 -0.067588 -0.4480951 -0.14558412
0002f0 61 6f 4d be fb 9a 14 3e f2 64 e8 3e 47 10 2e 3e
       -0.20062019 0.14512245 0.45389515 0.16998397
000300 92 7f 8c 3d c0 6d 66 3e e4 ca fc bc 30 ee 48 3b
       0.068602696 0.22502804 -0.030858465 0.003065955
000310 14 08 9c 3b 2c e5 b5 be 3b aa f7 bc 42 3c e2 bd
       0.004761705 -0.35526407 -0.03023254 -0.110466495
000320 db e7 11 3e 6b d1 7f 3e 8c 82 17 be 30 1d 20 37
       0.14248602 0.2498223 -0.14795893 9.543539e-06
000330 1a ef 81 3d 7c 46 b2 3e 8b 0e 6f 3d f6 00 f0 3d
       0.06344433 0.348194 0.05836348 0.11718933
000340 1c 28 13 3c a1 fa bf bd 5b bc 89 3e 03 8d 37 bd
       0.008981731 -0.093739755 0.26901516 -0.044812214
000350 12 cf 81 3d 0b 18 52 bc 7e 29 8e be bb 74 be 3f
       0.06338324 -0.012823115 -0.2776603 1.4879373
000360 7f f8 00 be 47 ac 29 be 6d 25 1f 3e ef 24 b3 bc
       -0.12594794 -0.16569625 0.1554162 -0.021868197
000370 0d 3c 1b 3d 3f de 70 be 7b 97 7f be 0c 23 81 3d
       0.037899066 -0.2352228 -0.24960129 0.06305513
000380 f5 e8 ba 3e d0 ff 37 bd cc 8c 14 3f 9e ae 3f be
       0.36505857 -0.044921696 0.5802734 -0.18718955
000390 09 d4 91 3d 27 88 32 3e a3 57 27 bd 99 81 b3 3d
       0.071205206 0.1743475 -0.04085506 0.08764953
0003a0 ba 20 8e be de 71 b2 3d 27 23 00 3f f9 bc 83 3c
       -0.27759343 0.08713125 0.5005364 0.01608132
0003b0 f1 10 fc 3c 1d 8c 91 be f1 7f 18 bd 03 9c 46 3e
       0.030769797 -0.2842721 -0.03723139 0.19395451
0003c0 88 68 3e 3f 1e 75 9f 3e 2f d1 25 bd 52 9b 94 3d
       0.7437825 0.3114404 -0.040482696 0.072561875
0003d0 e9 b1 f5 3e 65 0b 71 be 32 40 2a 3e b3 b2 df bd
       0.47987297 -0.23539503 0.16626051 -0.10922756
0003e0 21 be 24 3f 78 66 fe 3d d9 53 9a bd 84 7c ba 3d
       0.64352614 0.12421888 -0.07535524 0.09105781
0003f0 74 9e 6f be 3b 19 85 3e 84 be 16 3d 47 c9 4b 3e
       -0.23400289 0.25995812 0.036802784 0.19901

advantage_stream.0.bias f4 [64]
000000 7d b6 a2 bd 8f 70 36 3d a3 93 42 3d 12 af c0 bd
       -0.07944963 0.044540938 0.04750408 -0.09408392
000010 d2 d7 81 3d 4b cf d6 3c 3c 60 9c bd c1 18 05 be
       0.063399926 0.026221892 -0.07635543 -0.12997724
000020 6f c4 00 3d f5 17 84 bd 91 14 2f 3d f2 ff 85 3c
       0.031437334 -0.06449882 0.042744223 0.016357396
000030 5a ad e4 bd 37 85 54 3d c4 0a 1e bb 67 fb 09 3d
       -0.11165877 0.051884856 -0.0024115304 0.03368702
000040 b5 be 18 3d 12 d6 ed bd 1e 04 23 3c 6a 2c 8a bc
       0.037291247 -0.11613096 0.009949712 -0.016866881
000050 c4 c7 39 bd 37 df 90 bd 80 56 96 3c a8 db 5f 3d
       -0.045356527 -0.07073825 0.018351793 0.05465284
000060 7a da b0 bd ef 5a 4d 3d 96 62 2f 3d 5d a9 c3 bd
       -0.08635421 0.05013555 0.04281863 -0.09553788
000070 45 39 bc bd 0a fa 4d bd c4 6a 3d bd 8c 3c 30 bd
       -0.09190611 -0.050287284 -0.046244398 -0.043026492
000080 00 c4 14 39 2f 35 c7 bc d2 66 c3 3c 8f 60 e4 3d
       0.00014187396 -0.024317352 0.02385274 0.111512296
000090 8e d6 f7 3b 84 26 96 3d be 06 28 bd 96 74 a1 3d
       0.0075634187 0.07331565 -0.041022055 0.07883565
0000a0 81 50 45 3d 0b 9c 66 3d 05 48 27 bd 97 5b 33 3b
       0.048172478 0.056301158 -0.040840168 0.0027367824
0000b0 95 cc f5 3c 5f af a3 3a 8b 03 90 3d aa 6a 18 3d
       0.030004779 0.0012488178 0.07031926 0.037211098
0000c0 18 35 5a bc 8d 1d 01 3d 11 01 d0 3c 0c 66 34 bd
       -0.013318323 0.031522322 0.025391134 -0.044042632
0000d0 2e 6c 4a 3d 5f 87 8f 3b 01 b2 10 3a e0 c5 0b 3d
       0.049419574 0.004380151 0.0005519689 0.034124255
0000e0 7b 13 ca bc 3c 79 1a 3d 40 ef 15 3d 10 20 15 3d
       -0.024667492 0.037713274 0.03660512 0.03640753
0000f0 20 ef 22 bc 48 3d 1d bc e0 69 82 bd 62 3e cb 3d
       -0.009944707 -0.00959713 -0.0636785 0.09924008

advantage_stream.2.weight f4 [4, 64]
000000 8b 49 fe 3e 45 68 50 be 47 5c f7 3d 29 04 9c bd
       0.49665484 -0.20352276 0.120781474 -0.07617981
000010 af 30 10 3e 3d 3e 31 3d 22 af d2 be 4c d5 77 bd
       0.14081071 0.043272246 -0.4114924 -0.06050615
000020 2c e1 6b be f9 16 5d 3e 6e 5a 07 bf d7 9c 01 bf
       -0.23035115 0.21590795 -0.5287236 -0.50629944
000030 69 94 b0 3e 78 cb 64 bf b2 38 0c 3e cf 24 0a bd
       0.34488228 -0.8937297 0.13693503 -0.03372651
000040 ef 6a 10 bd e2 f0 99 3e c8 21 db 3d ad 0b a9 3e
       -0.03525823 0.30066592 0.10699803 0.3301672
000050 a1 58 34 3e 69 a7 96 3d 5a 22 ad 3e 7d 36 ad 3e
       0.17611934 0.0735615 0.3381527 0.33830634
000060 12 21 a9 3e 67 24 cd be f6 b5 15 bf d2 6b 2a 3e
       0.33033043 -0.40066835 -0.58480775 0.16642693
000070 40 7a bc 3e 15 34 10 3f 75 e5 4e bd 3f 79 7c 3e
       0.3681202 0.5632947 -0.050511796 0.24655627
000080 57 fd 9b be 73 f2 63 be af 53 9a 3e 0b 3b be be
       -0.3046672 -0.22260456 0.3014197 -0.3715442
000090 49 02 d1 3e a1 fc 19 3e bf 96 a1 3e 91 90 c0 3e
       0.40822056 0.15037777 0.31560323 0.37610295
0000a0 a2 83 10 3f 15 c5 a0 3d d4 4b d2 bd aa 1b ed 3c
       0.56450856 0.078500904 -0.10268369 0.028943855
0000b0 ea 38 13 bf 24 a3 44 3e 11 c5 cd be c9 20 8c 3e
       -0.5750872 0.19202858 -0.40189412 0.27368763
0000c0 00 67 fe be 96 08 16 bf 44 da 6b bd a1 a1 54 3e
       -0.49687958 -0.5860685 -0.0575812 0.20764782
0000d0 1d 3a c4 3d 7d 03 bf bc 99 44 3c 3e 68 b5 fb 3e
       0.09581397 -0.023317093 0.18385543 0.4916184
0000e0 a3 de 77 3d 6f 81 8e be 88 ab 23 bd 89 38 ce 3c
       0.060515057 -0.27833125 -0.039958507 0.025173442
0000f0 12 af 3a be ac 34 40 3f 35 03 3e 3d 20 8e 20 bf
       -0.18230847 0.7508037 0.046389777 -0.62716866
000100 a8 c4 4f 3e ed eb 99 bf 8a 3b e5 3e c7 a0 26 be
       0.20289862 -1.2025124 0.44771987 -0.16272269
000110 ad de 61 be ee d4 37 3d c0 f7 1c 3f 3d 75 8f 3e
       -0.220576 0.0448808 0.61315536 0.28019133
000120 b9 3f 60 3e 12 f0 92 3e 84 86 95 3e 5d a8 8a 3e
       0.21899308 0.28698784 0.2920419 0.27081576
000130 20 72 13 bd 81 98 95 3c b9 5a e5 3d 57 46 a1 3d
       -0.03599751 0.018261196 0.111989446 0.078747444
000140 3c aa 0c be 72 50 4e 3e e5 62 1a bf da d5 99 bf
       -0.13736814 0.20147875 -0.6030715 -1.2018387
000150 e7 56 9d bd 42 67 0d 3e 29 31 23 3f 95 99 c2 3e
       -0.07682591 0.13808921 0.6374689 0.380078
000160 86 39 d9 3e c4 bc bd 3e 5f c8 91 3e 74 a2 8a be
       0.424267 0.3705808 0.28473184 -0.27077067
000170 07 fa 1a be 9e a6 bf 3e 2a a6 45 3e 87 b8 50 bf
       -0.1513444 0.37431806 0.19301668 -0.81531566
000180 ca cc a2 3e 4d 62 43 be a5 f3 9b 3e 4a 5f 1b bf
       0.31796867 -0.19080468 0.30459324 -0.60692275
000190 44 21 98 3e 0b 8e 0f 3f 2b 0f a5 bf ea df d6 3e
       0.2971288 0.56076115 -1.2895254 0.41967708
0001a0 65 2c c0 3e 1e b8 62 3e 00 21 1b 3e 0f f6 98 3e
       0.3753387 0.22140548 0.15149307 0.29875228
0001b0 55 3d 8e 3c e1 65 37 be b2 c4 e8 bd 17 55 dc 3e
       0.01736323 -0.17909957 -0.11365642 0.43033668
0001c0 6c 0e 04 3f 87 da 4f 3e fa c3 8c 3e d1 98 83 3e
       0.51584506 0.20298205 0.27493268 0.25702527
0001d0 89 84 00 be 01 04 9c 3d e9 c4 c5 3d fc b4 ac 3e
       -0.12550558 0.07617951 0.09656698 0.3373183
0001e0 28 d1 ca 3d 34 6a fe 3e 93 07 ed 3d fe 04 49 be
       0.09903175 0.49690402 0.1157371 -0.1963081
0001f0 ee 75 6e 3e 9b 3a fe 3e fb 87 24 3e b0 6c 20 bf
       0.23287174 0.49654087 0.16067497 -0.62665844
000200 fd 11 94 be e2 a6 49 3c 96 7e fd bd 02 a8 ba ba
       -0.28919974 0.012307854 -0.1237766 -0.0014240744
000210 2c 38 a5 3e 0b 79 a5 be 7d e6 c4 3d e8 a5 d7 be
       0.32269418 -0.3231891 0.09614275 -0.42118764
000220 c6 bb 38 3f 58 f5 98 3e 67 8a c7 bd cc 71 f2 3e
       0.7216152 0.29874682 -0.09743195 0.47352445
000230 25 44 84 3d ef f4 4c 3e aa 5c 87 bc 4e c2 18 bf
       0.0645831 0.2001531 -0.016523678 -0.59671485
000240 ba b1 6c 3e b7 57 71 3e f8 72 d7 be 7d 74 94 3e
       0.23114672 0.23568617 -0.42079902 0.28995124
000250 9d 64 b1 bd 8e 8c 5e bf 09 aa 31 be e4 31 8b be
       -0.086617686 -0.8693322 -0.1735002 -0.271865
000260 92 2f 9e 3e df aa 93 3e 70 62 12 3e c6 35 5c 3d
       0.30895668 0.28841302 0.14295363 0.05376222
000270 75 45 54 be b1 39 b5 be 5c bd b5 3e e7 63 89 3e
       -0.20729621 -0.35395578 0.35496032 0.26834032
000280 09 c8 15 be de f1 90 bd 5f e7 f7 be 0f 98 04 3f
       -0.14627089 -0.070773825 -0.4841871 0.51794523
000290 0d 1c 21 be 67 71 da be 93 75 a9 3e 50 82 17 bf
       -0.15733357 -0.42664644 0.33097515 -0.59183216
0002a0 c7 b0 e8 3e 65 e6 19 bf 1b 2f 9e 3c bc 5b 1d 3b
       0.4544737 -0.6011718 0.019309571 0.0024010977
0002b0 c8 74 d7 3e 14 9f 1b be fd 12 27 3f a3 d7 e0 be
       0.42081285 -0.15197402 0.6526335 -0.43914518
0002c0 ab da 43 3e d2 3e 16 3e 6f f7 64 be 4e 22 43 bf
       0.19126384 0.14672402 -0.22360013 -0.7622422
0002d0 50 92 db 3d f3 66 23 be 05 f2 9b be 76 7c e5 bf
       0.10721266 -0.15957241 -0.30458084 -1.7928607
0002e0 94 f8 32 3e 51 78 ea 3e 89 e8 6e bc 16 14 1b 3e
       0.17477638 0.4579492 -0.014581808 0.15144381
0002f0 97 1e e5 3c 21 53 06 3f f9 22 21 be 62 19 31 3f
       0.027968688 0.52470595 -0.15735997 0.69179356
000300 03 5a ed bd 3e 1f 12 bc 26 04 7c 3e 48 91 48 be
       -0.11589434 -0.0089185815 0.24610958 -0.1958667
000310 89 6b 39 3e de 70 12 3d 2e c2 d6 bc b0 0b 10 be
       0.18107428 0.03575217 -0.026215639 -0.14066958
000320 dc ad 0a 3e 4b 9e 92 bf 48 fb 31 3e 9d 5c fc 3e
       0.13542885 -1.1454557 0.17381012 0.49289408
000330 94 ce 70 3e 05 be e7 3e 72 84 da be db 5f 51 3e
       0.23516303 0.4526216 -0.42679173 0.20446722
000340 6e d2 9d be 7a df 20 bd 0f 17 1b 3d e7 b2 84 3e
       -0.30824608 -0.039275624 0.037863787 0.25917742
000350 65 f5 12 3e 44 85 3f 3e 5f 3e 01 bf 9e 16 db bd
       0.14351423 0.1870318 -0.50485796 -0.10697673
000360 d2 d5 5d bf 0e ec de 3e 68 87 71 3e 66 b9 0c be
       -0.8665439 0.4353947 0.2358681 -0.13742599
000370 d5 a5 4a 3e 0d d0 25 be 2b 25 09 bf 24 0d 9d bd
       0.19789822 -0.16192646 -0.5357234 -0.07668522
000380 14 d7 94 3e ad 31 c9 3d 44 f9 d7 be 5b 25 30 3f
       0.29070342 0.09823928 -0.42182362 0.68807
000390 24 ed 4c be 22 3f 8f be b5 e0 b7 3e 0f 4b 3c bd
       -0.20012337 -0.27977854 0.35913625 -0.04597002
0003a0 2f 79 7b bf ae 06 0f 3e e2 9c 83 3d 8d e5 30 3d
       -0.98231786 0.13967392 0.064264074 0.043187667
0003b0 ac 09 de 3e 80 00 05 3f a1 29 d3 3e 38 3a 83 be
       0.43366754 0.5195389 0.41242698 -0.25630355
0003c0 a2 11 d8 3e 15 ab 3a 3d 01 94 30 bd 90 72 e4 3d
       0.42200953 0.045573313 -0.043109898 0.111546636
0003d0 2b 82 95 be a1 d3 f8 3d 53 a1 9c 3d a0 f1 06 3f
       -0.29200873 0.1214974 0.07647958 0.5271244
0003e0 e3 a1 9f 3d ac 11 b4 3c 6b 36 8d 3e 7d 66 1d 3e
       0.07794549 0.021981083 0.2758058 0.15371127
0003f0 75 56 70 be 96 29 64 bf 95 20 8e bd a2 c7 22 3f
       -0.2347048 -0.89125955 -0.06939808 0.63585865

advantage_stream.2.bias f4 [4]
000000 a5 44 08 3e 25 5e 63 3d 34 24 d8 3d e9 95 12 be
       0.13307436 0.055509705 0.1055378 -0.14314999
