models/snake_dqn_ep517_score33_20250303_093911.pt (torch, 985698 bytes, 44 tensors)

feature_layers.0.weight f4 [128, 24]
0	0xbef7d8f6	-0.48407716
1	0x3f0d5f99	0.55223995
2	0xbeff0f93	-0.4981657
3	0x3e3bff39	0.18359078
4	0x3eba13e5	0.36343303
5	0xbf23ec3b	-0.64032334
6	0xbde23372	-0.11044969
7	0xbe9fa4f9	-0.31180552
8	0xbd9a86c4	-0.07545236
9	0xbde4bb16	-0.11168496
10	0xbdb449e8	-0.08803159
11	0xbe5d58c4	-0.21615893
12	0x3e153f88	0.14575016
13	0x3dc15ada	0.09441157
14	0xbee36cd4	-0.44418967
15	0x3f05c736	0.52257097
16	0xbf51b297	-0.8191313
17	0x3f89025e	1.0703847
18	0x3ef5f65a	0.48039514
19	0xbedacf79	-0.42736414
20	0x3eedb8b9	0.46429995
21	0xbd642f27	-0.05570903
22	0x3e8ec770	0.27886534
23	0xbdb2daaa	-0.08733113
24	0xbd0f29a3	-0.034951817
25	0x3dfe3b52	0.12413658
26	0x3b755464	0.0037434334
27	0xbf115420	-0.5676899
28	0xbe3f09b7	-0.1865605
29	0xbeea3d8f	-0.4575009
30	0x3e8ca358	0.2746837
31	0x3c356783	0.011072042
32	0xbe413eaf	-0.18871568
33	0x3d809b06	0.062795684
34	0x3dfcb73d	0.123396374
35	0x3f16c504	0.5889437
36	0xbc7cd58a	-0.015431771
37	0x3ea7205b	0.32641873
38	0xbd85266d	-0.0650147
39	0xbdd907fe	-0.105972275
40	0x3e94164b	0.28923258
41	0x3f6f0858	0.93372107
42	0x3d9db63e	0.077007756
43	0xbdb785b7	-0.08961051
44	0x3c8f9434	0.017526723
45	0xbd871d9f	-0.06597447
46	0x3ec7d109	0.3902667
47	0xbe19c1fa	-0.15015402
48	0xbe667872	-0.22506884
49	0xbec97a2f	-0.3935103
50	0x3d485a39	0.048914168
51	0xbe121a7e	-0.14267918
52	0xbe1c680e	-0.15274069
53	0xbeac6895	-0.3367354
54	0x3e8728a4	0.26398194
55	0x3e844d1a	0.25840074
56	0xbe1ffdda	-0.1562418
57	0xbef44a24	-0.47712815
58	0xbe2a7626	-0.16646633
59	0xbf0c526e	-0.5481328
60	0x3e455d0b	0.19273774
61	0xbea972c2	-0.33095366
62	0x3ed5b1e4	0.41737282
63	0x3d5f33dd	0.05449282
64	0xbeeee448	-0.4665854
65	0xbde865b2	-0.11347522
66	0xbeaf8f82	-0.34289175
67	0xbe8e6c42	-0.2781697
68	0xbe09c1ba	-0.13452807
69	0x3d62be86	0.05535748
70	0x3ec73d00	0.38913727
71	0xbcdb9d51	-0.026808413
72	0x3e0b0d00	0.13579178
73	0x3ea37f83	0.3193322
74	0x3f61708b	0.8806235
75	0x3f0633aa	0.52422583
76	0x3e0bfd67	0.13670884
77	0x3ea7eef2	0.32799488
78	0x3d80222b	0.06256517
79	0x3e87a381	0.2649193
80	0x3ea36b18	0.31917644
81	0x3e971b3f	0.29512975
82	0x3e4f74a3	0.20259337
83	0x3f55d346	0.835255
84	0x3df7c298	0.12097663
85	0x3d38c391	0.04510838
86	0xbf242baf	-0.64129156
87	0x3eafcd2e	0.34336227
88	0xbca13f31	-0.019683452
89	0x3d9765c3	0.073924564
90	0x3da8dd04	0.082452804
91	0xbedae7da	-0.42755014
92	0x3ed3218d	0.41236535
93	0xbe483d0a	-0.19554535
94	0x3f0cf29a	0.5505768
95	0xbe67725a	-0.22602215
96	0x3d598e4d	0.053114224
97	0x3f658ca3	0.8966772
98	0xbe55e927	-0.20889722
99	0xbe9b9617	-0.30387947
100	0x3e892c2c	0.26791513
101	0x3dc452b3	0.09586086
102	0xbea569a4	-0.3230716
103	0xbdc78cc8	-0.09743649
104	0xbdbc9b22	-0.09209277
105	0x3ee212df	0.44155023
106	0x3ece40b8	0.4028375
107	0x3df17984	0.117907554
108	0xbf22b2b9	-0.6355396
109	0xbebb106a	-0.3653596
110	0xbe8958a0	-0.26825428
111	0xbe321af0	-0.17393088
112	0xbf2ccd0c	-0.67500377
113	0x3ec1171d	0.37712947
114	0x3f052c17	0.520204
115	0x3e6beba2	0.23039106
116	0x3eb1a5bd	0.3469676
117	0x3e48420f	0.1955645
118	0xbdce71fe	-0.10080336
119	0xbe2c6406	-0.16835031
120	0x3df52e0a	0.11971672
121	0x3e36c980	0.17850304
122	0xbe93b725	-0.28850666
123	0x3e3f5f76	0.18688759
124	0xbe40db7d	-0.18833728
125	0x3e88ad14	0.26694548
126	0xbd49a28f	-0.049227294
127	0xbdb85048	-0.089996874
128	0x3ebce29a	0.36891633
129	0x3e1240ab	0.14282481
130	0xbe0783ba	-0.13233843
131	0xbd37b538	-0.044850558
132	0xbf120e2a	-0.5705286
133	0x3e3d039f	0.18458413
134	0xbec9301d	-0.3929452
135	0x3f546ec9	0.82981545
136	0xbe8a3c20	-0.26998997
137	0x3ea508be	0.32233232
138	0xbe67711e	-0.22601745
139	0xbe04c479	-0.12965573
140	0x3ed38614	0.4131323
141	0xbe807e85	-0.25096527
142	0x3e3de69a	0.18544999
143	0xbebcb594	-0.36857283
144	0xbe68b1f1	-0.2272413
145	0x3df200a1	0.11816526
146	0xbe987e83	-0.2978402
147	0xbe97bb49	-0.29635075
148	0x3de1a00c	0.11016855
149	0x3ed94919	0.42438582
150	0xbefbb3dc	-0.4916066
151	0x3d24dc65	0.040249247
152	0x3ea08c27	0.31356928
153	0x3e072247	0.1319667
154	0x3c3b9e2e	0.011451287
155	0x3d1e7770	0.038688123
156	0x3e6f0ac3	0.23343949
157	0xbda5fab4	-0.081044585
158	0xbebafeb3	-0.36522445
159	0xbc1b5943	-0.009481731
160	0xbe9d904e	-0.30774158
161	0xbe6edcd5	-0.23326428
162	0xbed72650	-0.42021418
163	0x3eaeebfd	0.3416442
164	0x3e1d5a05	0.15366371
165	0x3efd355e	0.49454778
166	0xbee8a86d	-0.45441
167	0x3e9f555d	0.31119815
168	0x3bf7f26a	0.00756674
169	0xbca501a0	-0.020142376
170	0xbc5d9e49	-0.013526508
171	0xbd34de4a	-0.044157304
172	0xbe9bf788	-0.3046229
173	0xbe6f7caa	-0.233874
174	0x3ea70f2a	0.32628757
175	0x3e78edb0	0.2430942
176	0x3f00a199	0.5024658
177	0xbd8954cd	-0.067056276
178	0x3d9c3d35	0.07628862
179	0x3e7c33ef	0.24629186
180	0xbeb06de4	-0.3445884
181	0xbe6cb7cc	-0.23116988
182	0xbed892e7	-0.42299578
183	0x3e81b036	0.2532975
184	0x3ed83a87	0.42232153
185	0x3e6bb152	0.23016861
186	0xbc47436b	-0.01216207
187	0xbdd0739d	-0.101783015
188	0x3e3a3fb6	0.18188366
189	0xbc27b8dc	-0.010236945
190	0x3e87dcb7	0.2653558
191	0x3f01f5d3	0.50765723
192	0x3bf7714d	0.0075513483
193	0xbe03e3a8	-0.12879813
194	0xbe6049dc	-0.21903175
195	0x3ea8db19	0.32979658
196	0xbded5648	-0.115887225
197	0x3d980c6d	0.07424245
198	0xbe29d074	-0.16583425
199	0xbca60556	-0.020266216
200	0xbdd10109	-0.102052756
201	0x3e643b08	0.22288144
202	0x3e6ae672	0.2293947
203	0x3efff1de	0.49989218
204	0xbebf2005	-0.37329116
205	0x3e2bd7c6	0.1678153
206	0xbe17e2af	-0.14832567
207	0xbd324caf	-0.043530162
208	0x3de6ef43	0.11276104
209	0x3e772504	0.24135214
210	0xbe16a89d	-0.14712758
211	0xbebe73a3	-0.371976
212	0xbeeef2b5	-0.46669546
213	0x3ee26509	0.4421771
214	0xbdbd7bc9	-0.09252126
215	0x3e2349ef	0.15946172
216	0x3eb92034	0.36157382
217	0xbe9345ee	-0.2876429
218	0xbdb2daf8	-0.08733171
219	0x3e9fc7a2	0.31206995
220	0x3e71c3c3	0.23609833
221	0xbeb108af	-0.34576938
222	0x3e37f151	0.17963149
223	0xbe0c8907	-0.13724147
224	0xbec6abf9	-0.3880308
225	0xbea48990	-0.32136202
226	0x3ee21d7b	0.44163117
227	0xbe4a2259	-0.19739665
228	0xbe596af9	-0.21232213
229	0x3dc05d78	0.09392828
230	0xbe2426d0	-0.16030431
231	0xbeb12b27	-0.34603235
232	0xbdcd7c8e	-0.100335225
233	0xbee3ebef	-0.4451594
234	0x3d2c624b	0.042085927
235	0xbcb26c50	-0.021780163
236	0xbe24720e	-0.16059133
237	0x3ee4edc9	0.44712666
238	0xbeb14cb4	-0.34628832
239	0x3dee1905	0.11625866
240	0x3e70998f	0.23496078
241	0x3e381c4d	0.17979546
242	0x3e68af6f	0.22723173
243	0xbe669bea	-0.22520414
244	0xbe31be11	-0.17357661
245	0x3a2567b2	0.00063097023
246	0xbd5391a3	-0.051652562
247	0xbe8e2ad3	-0.27767047
248	0x3e3c05ad	0.1836154
249	0x3e91ef3e	0.2850284
250	0xbd235cfa	-0.03988359
251	0x3ee93b56	0.45553082
252	0xbf3fb7f6	-0.7489008
253	0xbd227546	-0.039662622
254	0xbe774164	-0.24146038
255	0xbeeb7576	-0.45988053

feature_layers.0.bias f4 [128]
0	0xbe3f0ef0	-0.18658042
1	0xbe140836	-0.14456257
2	0xbcef57d5	-0.029216686
3	0x3e7cbc0b	0.24681108
4	0x3e53677e	0.20644948
5	0x3ba04e4a	0.0048921453
6	0x3e4a26c8	0.19741356
7	0x3e89b8c3	0.26898775
8	0x3ea50625	0.3223125
9	0x3e72733c	0.23676771
10	0x3e4e4e8d	0.20147152
11	0xbc8dba75	-0.017300824
12	0x3eb26471	0.34842256
13	0x3c9580df	0.018249927
14	0xbc920177	-0.017822964
15	0x3d546e86	0.051863216
16	0x3cb72bf6	0.02235983
17	0x3e0072de	0.12543818
18	0xbdb5966b	-0.088665806
19	0xbe4133e4	-0.18867451
20	0x3d92a346	0.07160048
21	0xbd1f81d3	-0.03894217
22	0x3e982df2	0.29722553
23	0xbe556144	-0.20837885
24	0xbe2b97e4	-0.1675716
25	0x3d5d535e	0.054034583
26	0xbe266d65	-0.16252668
27	0x3de1b465	0.11020736
28	0x3e2957b6	0.16537365
29	0x3ec910cd	0.3927063
30	0xbdafdb35	-0.08586732
31	0xbe90ffe6	-0.28320235
32	0xbdb35e0f	-0.08758175
33	0xbdc7cd62	-0.097559705
34	0xbceca074	-0.028885104
35	0x3e74b49e	0.23897025
36	0xbcddfb50	-0.027097374
37	0xbe0aa41e	-0.13539168
38	0xbe662153	-0.2247365
39	0x3e9cb1f0	0.30604506
40	0x3c236c2c	0.009974521
41	0xbdf19e3f	-0.11797761
42	0xbe8dfa5d	-0.27730075
43	0x3ec115d9	0.3771198
44	0xbe7fd13d	-0.24982162
45	0xbc89dd7e	-0.016829249
46	0xbe4992cd	-0.19684906
47	0x3b5bf183	0.00335607
48	0xbe21cf89	-0.15801825
49	0xbe0779cd	-0.13230057
50	0x3e04d0dd	0.129703
51	0xbdd367d3	-0.10322537
52	0xbc49b5ef	-0.012311443
53	0x3d420d80	0.047376156
54	0x3bb00e7b	0.00537282
55	0xbd437161	-0.04771555
56	0xbe6baecd	-0.230159
57	0xbe03f143	-0.12885003
58	0xbdc50ebf	-0.09621953
59	0x3e985afc	0.29756916
60	0xbd4646ec	-0.04840748
61	0xbc0d7139	-0.008632951
62	0xbe40e4ec	-0.18837327
63	0x3e69b619	0.22823371
64	0xbd89ba66	-0.06725006
65	0xbc0d2f26	-0.008617198
66	0xbd1b8c10	-0.03797537
67	0x3e795e2f	0.24352334
68	0x3e16a7dd	0.14712472
69	0x3e71782c	0.23580998
70	0xbbb71ee1	-0.005588398
71	0x3da5c468	0.08094102
72	0x3ea393c4	0.31948674
73	0x3e85ac8b	0.26108202
74	0x3e35208f	0.17688201
75	0x3e85ca00	0.26130676
76	0xbdceb8d5	-0.10093848
77	0x3e7c4775	0.24636634
78	0xbe9a0616	-0.30082768
79	0xbe807f48	-0.25097108
80	0xbe603fa1	-0.21899273
81	0x3d4a482b	0.04938523
82	0xba8fb19c	-0.0010962966
83	0xbe487975	-0.19577582
84	0x3c863113	0.016380822
85	0x3e9398ce	0.28827518
86	0x3b57fd84	0.0032957504
87	0x3e094d2d	0.13408346
88	0xbbcc49d5	-0.0062343874
89	0xbea9155d	-0.3302411
90	0xbdb75a7b	-0.08952805
91	0x3e85900a	0.26086456
92	0x3d929e84	0.07159141
93	0x3df49566	0.11942558
94	0x3e07a868	0.13247836
95	0x3d67ac17	0.056560602
96	0x3e2c0462	0.16798547
97	0xbe1ca257	-0.15296303
98	0x3cbac327	0.022798134
99	0xbccd908b	-0.025093338
100	0xbd86af67	-0.06576424
101	0x3ea28300	0.3174057
102	0x3dfe751c	0.124246806
103	0xbb3e5d84	-0.002904744
104	0xbd5b8dc8	-0.05360201
105	0xbe5af2bb	-0.21381657
106	0x3ea0d0af	0.31409213
107	0xbb6a19c3	-0.0035720922
108	0xbccd5d28	-0.025068834
109	0xbeb5743b	-0.3544024
110	0xbdd43c03	-0.10363009
111	0xbe2ccf25	-0.16875894
112	0xbdb48d73	-0.08816042
113	0x3cb86c61	0.022512617
114	0x3dad842f	0.08472478
115	0x3e68217e	0.22669026
116	0xbeadb0c6	-0.3392393
117	0xbe965b8b	-0.29366717
118	0x3e8f4c4c	0.27987897
119	0x3e14501e	0.14483687
120	0xbe5c5d04	-0.21519858
121	0x3d61defe	0.055144303
122	0xbe2f6ef0	-0.17132163
123	0x3e53aba7	0.20670949
124	0x3d8c2251	0.06842483
125	0xbe1650e0	-0.14679289
126	0x3bc6dc9a	0.006068778
127	0xbe0f23cc	-0.13978499

feature_layers.1.weight f4 [128, 128]
0	0xbd48982d	-0.04897325
1	0x3dcb889c	0.099381655
2	0x3ddabd7b	0.10680672
3	0xbe103322	-0.14082006
4	0x3d66a38e	0.05630832
5	0xbe88eb7c	-0.2674216
6	0x3e1bbb21	0.15208103
7	0x3e05968c	0.1304571
8	0xbcada037	-0.02119456
9	0x3ddcfc81	0.10790349
10	0x3e683dd5	0.22679837
11	0x3eb16ac2	0.34651762
12	0x3e435350	0.1907475
13	0x3d163153	0.036668133
14	0x3d023f3e	0.031798594
15	0xbe520410	-0.20509362
16	0x3e98c7bf	0.29839894
17	0x3e039348	0.12849152
18	0x3dc7fc74	0.097649485
19	0xbd7abcaa	-0.06121508
20	0x3d35d9f2	0.044397302
21	0xbee86642	-0.45390517
22	0x3e05e645	0.13076122
23	0xbe9d9bd6	-0.30782956
24	0xbccf2e0b	-0.02529051
25	0xbde5570b	-0.11198243
26	0xbdb715e1	-0.0893972
27	0x3e147c0c	0.14500445
28	0x3e0df435	0.13862689
29	0x3cb009eb	0.021489104
30	0xbda23081	-0.07919408
31	0xbe7714d7	-0.24129044
32	0x3e257d4f	0.16161083
33	0x3b67b585	0.0035355997
34	0xbd8f8103	-0.07007029
35	0x3e368f2c	0.17828053
36	0xbe0630d0	-0.13104558
37	0xbd913d84	-0.07091811
38	0xbdd6ddeb	-0.10491546
39	0x3e6c45cc	0.230735
40	0xbe58c3c5	-0.2116843
41	0x3e0508c0	0.12991619
42	0xbe84b1e3	-0.25916967
43	0x3cdf683e	0.027271386
44	0xbdb71443	-0.089394115
45	0xbdf7aede	-0.120939
46	0x3dc9abfa	0.09847255
47	0x3e4fc3b3	0.20289497
48	0x3cb8717b	0.02251505
49	0xbedf7206	-0.4364168
50	0xbe7cef2c	-0.24700612
51	0x3d54c076	0.051941358
52	0x3d2ebbd2	0.04265959
53	0xbd042fd1	-0.032272164
54	0x3e41e059	0.18933238
55	0x3ce6f1e5	0.028191516
56	0x3cdb6079	0.0267794
57	0xbe068daa	-0.13139978
58	0xbeb32365	-0.3498794
59	0x3e20d6c2	0.15706924
60	0xbd6c3da9	-0.05767599
61	0x3d7835cf	0.06059819
62	0xbbcbf918	-0.0062247626
63	0x3d16612b	0.03671376
64	0xbe3559e1	-0.17710067
65	0xbc77e016	-0.01512911
66	0xbd409fbd	-0.04702734
67	0x3deda1fa	0.1160316
68	0x3e0ecac4	0.13944536
69	0x3d264f3c	0.040602908
70	0xbc51d38f	-0.012806787
71	0x3ca72b77	0.020406468
72	0x3e2408b1	0.1601894
73	0x3d21d901	0.03951359
74	0xbd6483e7	-0.055789854
75	0x3e8e2877	0.27765247
76	0xbd30493c	-0.04303859
77	0x3e23b84e	0.15988275
78	0x3e9c88b5	0.3057305
79	0x3d7d133d	0.061785925
80	0xbe6ada01	-0.22934724
81	0xbd8a6005	-0.067565955
82	0xbd8d060c	-0.06885919
83	0x3d88bfbd	0.06677196
84	0xbe41e5e1	-0.18935348
85	0xbda2bb3a	-0.07945867
86	0x3c9f68dd	0.019459182
87	0xbe7b665a	-0.24550763
88	0x3cb73426	0.022363734
89	0xbea6ff7a	-0.32616788
90	0x3e84cd17	0.2593772
91	0x3d79ef10	0.061019003
92	0xbdf3ea3b	-0.1190991
93	0xbd657195	-0.056016523
94	0x3cad3c32	0.021146867
95	0x3c40b576	0.011762014
96	0xbd8eea20	-0.069782495
97	0xbc8cf6f4	-0.0172076
98	0xbec1187c	-0.37713993
99	0x3e1422a0	0.14466333
100	0xbdc0c494	-0.09412494
101	0x3e2dfe0c	0.16991442
102	0xbe83d2df	-0.2574682
103	0xbd9cf463	-0.076638006
104	0xbc84c1c1	-0.01620567
105	0xbcb34b4f	-0.021886496
106	0x3e838ffd	0.25695792
107	0xbda76f83	-0.08175566
108	0xbcd2536b	-0.025674542
109	0xbe472853	-0.19448976
110	0x3e98fac7	0.29878828
111	0xbd9027db	-0.07038852
112	0x3de66c23	0.11251094
113	0xbe831a53	-0.2560602
114	0x3e175406	0.14778146
115	0x3dd3852c	0.10328135
116	0xbea6c7dd	-0.3257436
117	0x3e2b9822	0.16757253
118	0xbcefff2b	-0.029296478
119	0x3e1e2528	0.15443861
120	0x3dabfba7	0.08397608
121	0xbe1a05b7	-0.15041243
122	0x3ba92da2	0.0051629106
123	0xbccd8b98	-0.025090978
124	0x3dec4e4a	0.1153837
125	0xbe0027b0	-0.1251514
126	0xbc7fb5fb	-0.015607352
127	0xbe4b9e48	-0.19884598
128	0xbe44f424	-0.19233757
129	0x3e4bafe6	0.19891319
130	0x3dd382c1	0.10327674
131	0xbde59d4d	-0.11211643
132	0x3ddc4023	0.107544206
133	0xbae6313d	-0.0017562282
134	0xbd81009a	-0.06298943
135	0x3d8a63cb	0.06757315
136	0xbe07795b	-0.13229887
137	0xbc4832b2	-0.012219118
138	0x3e755ef8	0.23962009
139	0xbda5076c	-0.08058056
140	0x3e87eeea	0.26549464
141	0xbdf9f001	-0.1220398
142	0xbe04f4eb	-0.12984054
143	0xbe16e436	-0.14735493
144	0xbd3a769d	-0.045523275
145	0x3daa2323	0.08307483
146	0xbc007958	-0.007841431
147	0xbe08fb3a	-0.13377085
148	0xbe23015f	-0.15918492
149	0x3d76769c	0.06017171
150	0xbd4b197a	-0.049584843
151	0xbcaed663	-0.021342462
152	0xbdc3a9e5	-0.09553889
153	0x3e647358	0.22309625
154	0xbe153195	-0.14569695
155	0xbe6704f7	-0.22560488
156	0x3cb34b83	0.021886593
157	0x3e035c08	0.12828076
158	0xbc23abef	-0.009989723
159	0x3dd7d343	0.10538342
160	0x3dec3b16	0.11534707
161	0x3df4044e	0.119148836
162	0xbe5bae3d	-0.21453185
163	0x3d085c44	0.033291116
164	0x3d9dbd0a	0.07702072
165	0x3e5bea76	0.21476158
166	0x3e0eb6d5	0.13936932
167	0x3dd7630b	0.10516938
168	0x3cd2041a	0.025636721
169	0xbd73dee4	-0.059538737
170	0xbe062009	-0.13098158
171	0x3d9bf1c5	0.07614473
172	0xbdd26d86	-0.10274796
173	0xbe7fd4a6	-0.24983463
174	0xbd78d460	-0.06074941
175	0x3d2943ab	0.0413243
176	0x3e06f9d6	0.13181242
177	0xbe13a069	-0.1441666
178	0x3cb6046c	0.022218905
179	0xbd74dc36	-0.059780322
180	0xbe9fff24	-0.31249344
181	0x3e2d3c40	0.16917515
182	0x3e97da95	0.29658952
183	0xbdc14481	-0.09436894
184	0x3cab586f	0.020916192
185	0xbd2c0b26	-0.04200282
186	0xbe5f140c	-0.21784991
187	0x3e5acc40	0.21366978
188	0x3dfbf850	0.12303221
189	0xbdee21a7	-0.116275124
190	0xbdd563a5	-0.10419396
191	0x3e3f66b7	0.18691526
192	0x3eade31f	0.33962342
193	0xbd677cf3	-0.056515645
194	0xbdffc34a	-0.1248842
195	0xbdbfa707	-0.0935803
196	0x3d6dd499	0.058064077
197	0xbde1af3c	-0.110197514
198	0xbe73608a	-0.23767295
199	0x3dc87a36	0.09788935
200	0x3d87fb70	0.06639755
201	0x3e01a5ca	0.126609
202	0xbd8f4fc8	-0.06997639
203	0x3e33ba27	0.1755148
204	0xbd63615a	-0.055512764
205	0x3c89c1fc	0.016816132
206	0xbd7f3949	-0.06231049
207	0x3d89eebc	0.06734988
208	0x3e156e26	0.145928
209	0xbd84c5fa	-0.064830735
210	0xbdf7d6f1	-0.12101544
211	0x3f264ad7	0.64957947
212	0xbeaea502	-0.34110266
213	0xbdbe1bc6	-0.09282641
214	0xbe5961ad	-0.21228667
215	0x3d92cae7	0.07167607
216	0xbdc776fd	-0.09739492
217	0xbde45c91	-0.11150468
218	0xbd56c424	-0.052433148
219	0x3e28acce	0.1647217
220	0xbe433232	-0.19062117
221	0x3dfa2e11	0.12215818
222	0xbe0f8c5b	-0.14018385
223	0xbd5bafb1	-0.05363435
224	0xbd7ea959	-0.06217322
225	0xbc09fba7	-0.008421815
226	0xbd3713fe	-0.0446968
227	0xbd7a11da	-0.06105218
228	0xbe1179fd	-0.14206691
229	0x3e3aadd7	0.18230377
230	0xbe72f733	-0.23727112
231	0x3e5685d0	0.20949483
232	0xbe658eb7	-0.22417723
233	0xbde10496	-0.10987203
234	0x3e29c0c3	0.16577439
235	0x3dced36f	0.100989215
236	0xba87dc82	-0.0010365399
237	0xbd7e4f49	-0.06208733
238	0xbd11546a	-0.035480894
239	0xbd9f994e	-0.077929124
240	0x3e5f25bf	0.21791743
241	0xbe24f971	-0.1611078
242	0xbe41581c	-0.18881267
243	0xbdcfdff8	-0.101501405
244	0xbbf82e69	-0.007573892
245	0x3deb3714	0.11485115
246	0xbd798e84	-0.06092693
247	0x3df13ef5	0.11779586
248	0xbdf45411	-0.11930097
249	0x3e167bd3	0.14695673
250	0x3e36000c	0.17773455
251	0x3eb29c9c	0.34885108
252	0x3bbffadc	0.005858762
253	0x3d8dc497	0.06922262
254	0xbe00b098	-0.12567365
255	0xbcdec519	-0.027193593

feature_layers.1.bias f4 [128]
0	0x3d420b97	0.047374334
1	0x3d08de80	0.033415318
2	0x3cc7d49a	0.024393369
3	0xbc310836	-0.01080518
4	0xbe1e14a1	-0.15437557
5	0xbdda409e	-0.10656856
6	0xbca58962	-0.02020711
7	0xbdf16dae	-0.11788498
8	0x3e46befc	0.19408792
9	0xbe701a83	-0.23447613
10	0x3cf2c05e	0.029632743
11	0x3e52fbc7	0.20603858
12	0x3ca6ee27	0.020377232
13	0x3dbd86e5	0.09254245
14	0x3e661d5d	0.22472139
15	0xbd234235	-0.03985806
16	0x3e046e43	0.12932687
17	0xbdc8744c	-0.09787807
18	0x3e781042	0.24224952
19	0x3da98b2e	0.082784995
20	0x3d836d32	0.06417312
21	0x3d0af991	0.03392941
22	0x3e1237c4	0.14279085
23	0xbdbf5406	-0.09342198
24	0x3de2b4f1	0.11069668
25	0xbdd179a9	-0.10228283
26	0x3d4380ae	0.04773014
27	0x3d6ca926	0.0577785
28	0xbe00ae11	-0.12566401
29	0xbc9f0a08	-0.019413963
30	0xbdad27ba	-0.08454843
31	0x3dd59709	0.10429198
32	0x3d8f9851	0.07011474
33	0x3c4f55b9	0.012654715
34	0x3d0a7960	0.03380716
35	0xbc065cb9	-0.008200818
36	0x3dc297da	0.0950162
37	0x3e426bcd	0.18986435
38	0x3e2343ec	0.15943879
39	0xbdd6d748	-0.104902804
40	0x3dd44eb2	0.103665724
41	0x3e029bf1	0.127548
42	0xbdee7d4f	-0.116449945
43	0x3e250036	0.16113362
44	0x3e3f14cd	0.18660279
45	0xbd2c990e	-0.04213815
46	0x3d9f15f3	0.07767858
47	0x3e506a31	0.20353009
48	0x3e40ab95	0.18815453
49	0x3dc72731	0.09724272
50	0xbd61c0b9	-0.055115435
51	0xbc81580d	-0.015789056
52	0x3dbf6123	0.09344699
53	0xbdff5d0c	-0.12468919
54	0xbdb10546	-0.08643584
55	0xbd833d6d	-0.064082004
56	0x3c282690	0.0102631
57	0x3cb25d35	0.02177296
58	0x3d509b47	0.050929334
59	0xbdc69c74	-0.0969781
60	0x3dee154c	0.11625156
61	0x3d9253ee	0.071449146
62	0xbe1e6eae	-0.15471908
63	0x3dae47f3	0.08509817
64	0x3e7524c7	0.2393981
65	0x3dc929cd	0.09822426
66	0x3e35082d	0.176789
67	0xbdba9642	-0.09110691
68	0x3dde6667	0.108593754
69	0x3e039c07	0.12852488
70	0x3e022a9f	0.12711571
71	0xbd4a4904	-0.04938604
72	0xbd980a53	-0.07423844
73	0x3e55fe3d	0.20897765
74	0xbd57b6dd	-0.052664626
75	0xbd0154e3	-0.031575095
76	0x3e144c51	0.14482237
77	0xbcd7ccf4	-0.026342846
78	0x3cb18d7d	0.021673912
79	0xbe1f9b82	-0.15586665
80	0xbd041303	-0.032244693
81	0x3e00add7	0.12566315
82	0xbdd3c519	-0.10340328
83	0xbc3cec6a	-0.011530975
84	0x3e05b042	0.13055518
85	0xbe4669d7	-0.19376312
86	0xbdc72f8f	-0.09725868
87	0xbe097023	-0.13421683
88	0xbe125998	-0.1429199
89	0x3e2b4146	0.16724119
90	0x3d9a4911	0.075334676
91	0xba25f577	-0.00063308276
92	0x3e0eef0a	0.13958374
93	0x3e01f2e9	0.12690319
94	0x3c27d820	0.010244399
95	0xbceff00d	-0.02928927
96	0xbe71e034	-0.23620683
97	0x3e3f0fda	0.1865839
98	0xbdbb1b35	-0.09136049
99	0xbe2f3905	-0.17111595
100	0xbc9443d0	-0.018098742
101	0xbdff6327	-0.12470084
102	0xbd932752	-0.07185234
103	0x3a8b10ea	0.0010609899
104	0xbe5ab36c	-0.21357507
105	0xbd971a6f	-0.07378089
106	0xbe0d403e	-0.13794038
107	0xbd267332	-0.040637203
108	0xbdaded89	-0.08492572
109	0x3d2b6449	0.041843686
110	0x3cc68554	0.024233498
111	0xbdde2791	-0.108473904
112	0x3e709955	0.23495992
113	0x3dace647	0.084423594
114	0x3dd0f7ee	0.10203539
115	0x3d26818b	0.040650886
116	0x3ddd0648	0.10792214
117	0x3e3e117e	0.1856136
118	0xbe544879	-0.20730771
119	0x3cec4761	0.02884263
120	0xbe00a230	-0.1256187
121	0x3e19a72a	0.15005174
122	0xbe552f33	-0.20818786
123	0xbcf0eac2	-0.029408816
124	0x3e1c32fd	0.15253825
125	0x3bba8bec	0.0056929495
126	0x3d2452f8	0.040118188
127	0x3d2e74c1	0.042591814

value_stream.0.weight f4 [64, 128]
0	0x3dbb6536	0.09150164
1	0xbd5fd655	-0.054647762
2	0x3e01bc40	0.12669468
3	0x3e524eff	0.20537947
4	0x3c1aebbd	0.009455618
5	0xbcd5a775	-0.026080826
6	0x3d702f45	0.05863883
7	0xbd460b6e	-0.048350744
8	0xbb9a9f93	-0.0047187298
9	0x3e3f0ed6	0.18658003
10	0x3cdd72a7	0.02703221
11	0x3d0b37c3	0.033988725
12	0x3ca07fd6	0.019592207
13	0x3e1d19bb	0.15341847
14	0xbd465625	-0.048421998
15	0x3c6b53d7	0.014363251
16	0xbda92562	-0.08259083
17	0xbdf4af68	-0.119475186
18	0xbe7d6ca0	-0.24748468
19	0xbda23437	-0.079201154
20	0x3dda3b89	0.10655887
21	0x3d45a9a7	0.048257496
22	0xbd623438	-0.05522558
23	0x3d199261	0.037493113
24	0x3d494049	0.049133573
25	0x3ece7088	0.4032023
26	0xbd6eced3	-0.05830271
27	0xbd81762d	-0.06321368
28	0x3b412139	0.0029469265
29	0xbdcac5be	-0.099009976
30	0xbd768441	-0.06018472
31	0xbe645179	-0.22296704
32	0x3d50e11f	0.050995942
33	0x3dd36abb	0.103230916
34	0xbe000280	-0.12500954
35	0x3d80b194	0.0628387
36	0xbe495a6f	-0.19663404
37	0xbdb712bc	-0.0893912
38	0xbe492ad0	-0.19645238
39	0x3e58f334	0.21186525
40	0x3e3a2be5	0.18180807
41	0x3e206369	0.15662922
42	0xbe189c6d	-0.14903422
43	0x3d54c475	0.05194517
44	0x3b4d2aa9	0.0031305945
45	0x3da7dd2e	0.081964836
46	0xbd858503	-0.065195106
47	0xbd30896d	-0.04309981
48	0xbe2b987c	-0.16757387
49	0xbdb85034	-0.089996725
50	0x3e459d8e	0.19298384
51	0x3e4a6727	0.19765912
52	0xbd82819e	-0.06372379
53	0x3e2db6b1	0.16964222
54	0x3eca4b07	0.39510366
55	0xbe15c0fa	-0.14624396
56	0x3c9df49d	0.01928168
57	0x3d2ece9e	0.042677514
58	0x3e9593a7	0.29214212
59	0x3c8a73ea	0.016900975
60	0xbe8baf39	-0.27282122
61	0x3daed165	0.085360326
62	0x3daeef99	0.085417934
63	0xbe929320	-0.28627872
64	0xbdf62a4e	-0.12019788
65	0xbc8b282f	-0.016986934
66	0xbd550717	-0.052008715
67	0x3caaadbc	0.020834796
68	0xb9abb683	-0.00032751643
69	0xbe562f6a	-0.20916525
70	0xbc97def1	-0.018538924
71	0xbe1c1c7f	-0.15245245
72	0xbce765e5	-0.02824683
73	0xbe014d12	-0.12627056
74	0xbe34c0a5	-0.17651613
75	0xbd6d0740	-0.057868242
76	0x3d14c93c	0.036324725
77	0x3e269691	0.16268374
78	0xbddbc755	-0.10731379
79	0x3e650a14	0.22367126
80	0xbce09814	-0.027416267
81	0xbe9d1dd7	-0.30686828
82	0xbdaf3308	-0.08554655
83	0x3e7a13cf	0.24421619
84	0x3ceeb373	0.029138302
85	0x3d0483b5	0.032352168
86	0x3da7c86d	0.08192525
87	0xbe22cbab	-0.15898006
88	0x3e4f4378	0.20240581
89	0xbe260ddc	-0.16216224
90	0x3d0de70e	0.03464418
91	0x3e243a0b	0.16037767
92	0xbe6b529a	-0.22980729
93	0xbdbd6f1c	-0.09249708
94	0xbeb2db6e	-0.34933037
95	0x3b3056ed	0.002690728
96	0xbe000f11	-0.12505747
97	0x3d857ee0	0.0651834
98	0x3ed166f9	0.40898874
99	0x3ec72f45	0.3890325
100	0x3de2433d	0.11047981
101	0x3ebca018	0.36840892
102	0x3ce07e68	0.027404025
103	0x3c6e2d96	0.014537236
104	0x3ed4a4b7	0.41531917
105	0x3e8369b7	0.25666592
106	0x3e308318	0.17237508
107	0x3e14e17c	0.1453914
108	0xbe224056	-0.15844855
109	0x3e45de26	0.19323024
110	0x3c842e56	0.016135376
111	0xbd301499	-0.042988393
112	0x3e4d1023	0.20025687
113	0xbe0b04cc	-0.13576049
114	0xbebb55f9	-0.3658903
115	0x3e7dc5a2	0.24782422
116	0x3d899c79	0.06719298
117	0x3e185157	0.14874779
118	0x3e455b32	0.1927307
119	0x3e9ba112	0.30396324
120	0x3e67fc6d	0.22654887
121	0x3df047b6	0.11732428
122	0x3e6f3547	0.23360167
123	0xbe508f9b	-0.20367281
124	0xbbff28eb	-0.00778686
125	0xbe00227a	-0.12513152
126	0xbec3f1e7	-0.38270494
127	0xbdcf53f5	-0.101234354
128	0xbd9a8e51	-0.07546676
129	0xbe830a13	-0.25593624
130	0x3e0a5b16	0.13511309
131	0xbb135472	-0.0022480753
132	0xbdcfb109	-0.10141189
133	0x3e505f2e	0.20348808
134	0xbcfeda3b	-0.03110992
135	0x3e983052	0.29724365
136	0x3d029923	0.031884324
137	0x3dc2f62c	0.0951961
138	0x3e4b74de	0.198688
139	0xbb87cdb8	-0.0041443966
140	0xbe45580c	-0.19271868
141	0xbe7e3321	-0.24824192
142	0xbe3f7d82	-0.18700221
143	0x3c1d4a07	0.009600169
144	0xbe0f1c96	-0.13975748
145	0xbbd24a59	-0.0064175543
146	0xbd26bc1b	-0.040706735
147	0xbc05f8fa	-0.008177036
148	0x3e148274	0.14502889
149	0xba58eeb8	-0.0008275318
150	0xbe511e77	-0.20421778
151	0x3dc96696	0.0983402
152	0xbe2e2892	-0.17007664
153	0x3d3084be	0.043095343
154	0xbe87d896	-0.2653243
155	0xbe566ae3	-0.20939212
156	0x3eb8c082	0.36084372
157	0xbc15b3d4	-0.009137113
158	0x3e5a94ee	0.21345875
159	0xbe08ea66	-0.13370666
160	0xbd0ec522	-0.03485597
161	0x3e31fbff	0.17381285
162	0x3ca166c8	0.01970233
163	0x3e7c8e46	0.24663648
164	0xbe3daa71	-0.1852205
165	0xbde3aa84	-0.11116508
166	0xbe15865d	-0.14602037
167	0x3ed0c5e4	0.4077598
168	0xbd42cec6	-0.047560476
169	0xbdfb89f2	-0.1228217
170	0x3e7022f5	0.23450835
171	0xbe38a3da	-0.18031254
172	0xbe8393f2	-0.2569881
173	0x3df8ddbf	0.1215167
174	0xbd5e80d8	-0.054322094
175	0xbe41f652	-0.1894162
176	0xbda73804	-0.08164981
177	0xbb966609	-0.0045898003
178	0x3dde4229	0.10852463
179	0x3df58150	0.11987555
180	0x3ba377b5	0.0049886354
181	0x3de2dfe2	0.110778585
182	0x3d92f7b9	0.071761556
183	0x3e9fbaf1	0.31197312
184	0x3e458dc2	0.19292358
185	0xbd94aed5	-0.07259909
186	0xbe398db4	-0.18120462
187	0x3e83c369	0.25735024
188	0x3e5adda6	0.21373615
189	0x3d5f5275	0.054521997
190	0x3e0e24c4	0.13881212
191	0xbe01af2d	-0.1266448
192	0xbd4c35ef	-0.049856123
193	0xbd8fe7c3	-0.07026627
194	0x3df6c19f	0.12048649
195	0xbcbeb2c2	-0.023278598
196	0x3c18b9c0	0.00932163
197	0xbd93a654	-0.07209459
198	0x3bf4d81d	0.007472052
199	0x3eae7a1e	0.34077543
200	0x3e60b81e	0.21945235
201	0xbcbcfc83	-0.023069626
202	0x3d893d9b	0.067012034
203	0x3e81369a	0.2523697
204	0xbdd76651	-0.10517562
205	0xbcadde09	-0.021224039
206	0x3e027f46	0.12743863
207	0x3e972e33	0.29527435
208	0xbdaac2c1	-0.083379276
209	0xbedc1af4	-0.42989314
210	0x3e8bf19d	0.27332774
211	0xbe29d1a0	-0.16583872
212	0xbecf5296	-0.40492696
213	0xbd8be48f	-0.068307035
214	0xbe791e1a	-0.24327889
215	0x3e97c68f	0.29643676
216	0x3df515a6	0.1196702
217	0xbea8094b	-0.3281959
218	0x3c36d50c	0.011159193
219	0x3c87af92	0.01656321
220	0xbe82401e	-0.25439543
221	0xbae9f7b5	-0.0017850312
222	0x3bd5419f	0.006508067
223	0xbe9ce636	-0.30644387
224	0x3ebfae61	0.37437728
225	0xbdad9412	-0.08475508
226	0x3ed376dd	0.41301623
227	0x3dc711fa	0.09720226
228	0xbc31c105	-0.010849242
229	0x3d7edd8d	0.062223006
230	0x3c924869	0.017856793
231	0x3e7017ee	0.23446628
232	0x3cd8381f	0.026393948
233	0x3e23fc76	0.16014275
234	0x3e8143d2	0.25247055
235	0x3e81ab0f	0.2532582
236	0xbbccadaf	-0.0062462906
237	0x3ccc7ad3	0.02496091
238	0xbd1b22ae	-0.03787487
239	0x3d91ac49	0.07112939
240	0x3cabb286	0.02095915
241	0x3d28dc18	0.041225523
242	0x3d910b9f	0.07082295
243	0xbd3ccc57	-0.04609331
244	0xbe9a7067	-0.3016388
245	0xbde47cc6	-0.11156611
246	0x3d2fab40	0.042887926
247	0x3e3305d9	0.174827
248	0xbe079f96	-0.13244471
249	0xbd782644	-0.060583368
250	0x3e168815	0.14700349
251	0x3ddc7491	0.10764421
252	0xbaf3edfc	-0.0018610354
253	0x3e318a4c	0.17337912
254	0xbe8eb39b	-0.27871403
255	0x3d0e02aa	0.03467051

value_stream.0.bias f4 [64]
0	0xbe7418e7	-0.23837624
1	0xbe3e33df	-0.18574475
2	0xbd48326d	-0.048876215
3	0xbe0231e0	-0.12714338
4	0x3e6e4897	0.23269878
5	0xbe0fedc5	-0.14055546
6	0xbe57e30f	-0.2108271
7	0xbd596716	-0.053076826
8	0x3e1d92a3	0.15387969
9	0xbe438e3f	-0.19097231
10	0x3d0b94dd	0.034077514
11	0x3e512f54	0.2042821
12	0x3e623d78	0.22093761
13	0xbe305921	-0.172215
14	0x3e83dd51	0.2575479
15	0x3e3868f5	0.18008788
16	0x3df3b6f8	0.11900133
17	0xbe7da3e5	-0.24769552
18	0xbe562681	-0.20913126
19	0x3e88fef1	0.26757005
20	0x3e63618f	0.22205184
21	0xbe1cbc4e	-0.15306208
22	0x3e2c980c	0.16854876
23	0x3e658e86	0.2241765
24	0xbe12ac3c	-0.14323515
25	0xbe790776	-0.24319252
26	0x3e07f66c	0.13277596
27	0x3e42c9d7	0.19022308
28	0xbdf7ec9f	-0.12105679
29	0xbe026ea5	-0.1273752
30	0xbe158caf	-0.14604448
31	0xbd9f6bb1	-0.077842124
32	0x3e8fd7a5	0.2809421
33	0xbd7c7cc4	-0.061642423
34	0x3e9bab45	0.30404106
35	0xbe93259e	-0.28739637
36	0xbdfc2b14	-0.12312904
37	0xbde52e1b	-0.111904345
38	0xbe5b0b06	-0.21390924
39	0xbe206913	-0.15665083
40	0xbe8750b6	-0.26428765
41	0xbdf1a59b	-0.11799165
42	0x3e57ce76	0.21074852
43	0x3e475d9b	0.19469301
44	0x3e484fea	0.19561735
45	0xbd38f09a	-0.04515133
46	0x3e3ffaec	0.18748063
47	0x3e884457	0.2661464
48	0xbd8b554e	-0.0680338
49	0xbdd65059	-0.10464544
50	0xbdff8407	-0.12476354
51	0x3e2e9248	0.1704799
52	0x3e215608	0.15755475
53	0xbe1a2901	-0.15054704
54	0xbd848dec	-0.06472382
55	0xbe181821	-0.14852954
56	0xbe86b5a2	-0.2631045
57	0x3df252c1	0.1183219
58	0x3e1eb9de	0.1550059
59	0x3e32ff41	0.17480184
60	0x3e854780	0.26031113
61	0x3e4f53bb	0.20246784
62	0xbe2d7259	-0.16938151
63	0xbd1140fe	-0.035462372

value_stream.2.weight f4 [1, 64]
0	0xbddedb26	-0.10881643
1	0xbec0418a	-0.37550002
2	0xbaab1cd6	-0.0013054858
3	0xbe374299	-0.17896499
4	0x3ddd984a	0.108200625
5	0xbe29e343	-0.165906
6	0xbd4325b9	-0.047643397
7	0xbe614cfb	-0.22002022
8	0x3d8fe016	0.07025163
9	0xbd77f52b	-0.060536545
10	0x3b0b7048	0.0021276642
11	0x3e1f37cb	0.15548627
12	0x3ebf1362	0.37319475
13	0xbd8f18eb	-0.069871746
14	0x3f12f3d7	0.5740332
15	0x3eb77784	0.3583337
16	0x3e4cb6a9	0.19991554
17	0xbdf81663	-0.12113645
18	0xbda9ea09	-0.08296592
19	0x3f0b8256	0.5449575
20	0x3e04badb	0.12961905
21	0xbe78c915	-0.24295457
22	0x3e53011a	0.20605889
23	0x3e30ac44	0.17253214
24	0xbe6b56be	-0.22982308
25	0xbd9cc617	-0.0765497
26	0x3e0dbccc	0.13841552
27	0x3ebe6a2d	0.3719038
28	0xbdf91e09	-0.12163932
29	0xbe3886ec	-0.18020219
30	0xbd1e7764	-0.03868808
31	0xbdcdeb90	-0.100546956
32	0x3e3d5025	0.18487604
33	0xbe7912de	-0.24323604
34	0x3dd9de39	0.10638089
35	0xbe38debe	-0.1805372
36	0xbe3e61af	-0.18591951
37	0xbd1cc0f5	-0.038269956
38	0xbebd383b	-0.36956963
39	0xbe7303ed	-0.23731966
40	0xbec34614	-0.38139403
41	0xbe15a7c5	-0.1461478
42	0x3edabc38	0.42721725
43	0x3ea9b815	0.33148256
44	0x3edac039	0.4272478
45	0xbe079a25	-0.13242395
46	0x3e18bbfc	0.1491546
47	0x3e6c8079	0.23095883
48	0xbe025b1f	-0.12730072
49	0xbd1e60ce	-0.03866654
50	0xbe8f8034	-0.280275
51	0x3e785fd5	0.24255307
52	0x3e2bb53f	0.16768359
53	0xbe735d7f	-0.23766135
54	0xbda82b94	-0.08211437
55	0x3b85ef83	0.00408739
56	0xbe2fdbe0	-0.1717372
57	0x3dbd0d4b	0.09231051
58	0x3de17a9d	0.11009715
59	0x3e5a67bd	0.21328636
60	0x3ed32d07	0.4124529
61	0x3eca5681	0.39519122
62	0xbe2bc07e	-0.16772649
63	0xbdb5e396	-0.08881299

advantage_stream.0.weight f4 [64, 128]
0	0x3d835434	0.06412545
1	0xbd39d475	-0.04536863
2	0x3e9cd42a	0.30630618
3	0xbef185a0	-0.4717226
4	0xbe979fb3	-0.29614028
5	0xbd1c13e7	-0.038104918
6	0x3e50b50d	0.20381565
7	0xbe8c757b	-0.2743338
8	0x3d8fa955	0.070147194
9	0xbde2327e	-0.11044787
10	0x3e16e912	0.14737347
11	0x3db99e69	0.090634175
12	0xbe8b7a93	-0.27241954
13	0xbbe50fa4	-0.00699039
14	0x3e4ea365	0.20179518
15	0x3cd03892	0.0254176
16	0x3cc0f00e	0.023551967
17	0xbd91b1bd	-0.07113979
18	0x3e14c8f6	0.14529786
19	0xbbe2bebd	-0.0069197104
20	0xbbce4d7a	-0.006295857
21	0x3e5efcc3	0.21776108
22	0x3e16bebf	0.14721201
23	0x3e9e3dfb	0.30906662
24	0x3dc04ff3	0.09390249
25	0x3db784ed	0.089609005
26	0x3c81b644	0.015833981
27	0x3e09a639	0.13442315
28	0x3d66bcaf	0.056332286
29	0xbe8d461c	-0.27592552
30	0x3f0080d1	0.5019656
31	0xbe48945d	-0.19587846
32	0xbe9420fe	-0.2893142
33	0xbefc53c2	-0.49282652
34	0xbef62629	-0.4807599
35	0xbd6b66dc	-0.05747114
36	0xbe514393	-0.20435934
37	0xbe5fc42e	-0.2185218
38	0x3cd1ca8d	0.025609279
39	0xbe1ef51c	-0.1552319
40	0x3d9473d3	0.07248654
41	0xbe03e778	-0.12881267
42	0xbd77b859	-0.060478542
43	0x3e0ab413	0.13545255
44	0x3e5ff1ca	0.21869579
45	0x3dd9d4be	0.106362805
46	0xbe18434d	-0.14869423
47	0xbdc0b786	-0.09410004
48	0x3dba0670	0.09083259
49	0xbec5cc9a	-0.3863266
50	0x3d43bdc2	0.04778839
51	0x3e5f2629	0.217919
52	0xbdb8e6c6	-0.090283915
53	0x3c7a48a8	0.015276112
54	0xbd1da9c9	-0.038491998
55	0xbdd3549d	-0.10318873
56	0xbd9d98d8	-0.07695168
57	0x3e3c94ef	0.18416189
58	0x3d300c65	0.04298057
59	0xbe6d5064	-0.23175198
60	0xbd218b27	-0.039439347
61	0xbd8308de	-0.06398176
62	0x3ee3aa15	0.444657
63	0xbde125f3	-0.10993566
64	0xbdf4c44d	-0.11951504
65	0x3ca3cfbc	0.019996516
66	0xbd5df02d	-0.054184128
67	0xbd582794	-0.05277212
68	0x3e09efc5	0.13470371
69	0x3e17a411	0.1480868
70	0x3e34e420	0.17665148
71	0xbe2a8b32	-0.16654661
72	0xbe858258	-0.26076007
73	0xbd8ac374	-0.06775561
74	0xbc357249	-0.011074611
75	0x3e514579	0.20436658
76	0xbe12d3d3	-0.14338617
77	0x3e66f16c	0.22553033
78	0xbe677622	-0.22603658
79	0xbd6503ac	-0.055911705
80	0x3a6ea120	0.0009102989
81	0xbe506095	-0.20349343
82	0x3dbca9b1	0.092120536
83	0xbe06c37e	-0.13160512
84	0xbd017853	-0.03160889
85	0xbe4f0a40	-0.20218754
86	0xbe3f199d	-0.18662114
87	0xbe33bb79	-0.17551984
88	0x3d3cb070	0.0460667
89	0xbe9c0daf	-0.3047919
90	0x3db42b4b	0.0879732
91	0xbf2441ea	-0.64163077
92	0x3d1ee350	0.038791
93	0xbe6d8d67	-0.23198472
94	0xbee26b13	-0.44222316
95	0xbd3f5060	-0.04670751
96	0x3d5b4db6	0.053540908
97	0xbe1e6da2	-0.15471509
98	0x3d458b43	0.048228513
99	0x3e01d827	0.12680112
100	0x3e22d213	0.1590045
101	0xbd3647fd	-0.044502247
102	0x3e1346b2	0.14382437
103	0xbdfeb836	-0.12437479
104	0x3dfb669e	0.12275432
105	0x3ea4ae8e	0.32164425
106	0xbd91ed33	-0.0712532
107	0xbe33afa8	-0.17547476
108	0xbdd12ec9	-0.10214002
109	0x3e122471	0.14271714
110	0xbed9a58d	-0.42509118
111	0x3e99b8d4	0.30023825
112	0xbd394fae	-0.045242004
113	0xbe954e33	-0.29161224
114	0x3eb401c6	0.35157603
115	0xbe6034a7	-0.21895085
116	0x3e02ec9e	0.12785575
117	0xbe1ef8c6	-0.15524587
118	0x3e324b84	0.1741162
119	0xbd6f7fd8	-0.05847153
120	0x3e7c5f22	0.24645665
121	0x3e386516	0.18007311
122	0x3f036383	0.5132372
123	0xbedc45c8	-0.4302199
124	0x3ce25375	0.027627686
125	0xbe0c792a	-0.13718095
126	0xbee0c03b	-0.4389666
127	0x3db5cc61	0.08876873
128	0xbe496015	-0.19665559
129	0xbe0ad0f9	-0.13556279
130	0xbdb86e16	-0.09005372
131	0xbe86205d	-0.26196566
132	0x3e1dec84	0.15422255
133	0x3ce3971a	0.027782012
134	0x3d11db79	0.035609696
135	0xbe3023a6	-0.17201099
136	0xbd63ae77	-0.055586305
137	0x3bbd81ae	0.0057832813
138	0x3e668966	0.22513351
139	0x3c40a31f	0.011757641
140	0xbd231752	-0.03981716
141	0xbdb8ce5b	-0.09023734
142	0xbe4b3668	-0.19844973
143	0x3e08772f	0.13326715
144	0xbd189d31	-0.037259284
145	0x3ef3e308	0.4763415
146	0xbd178ddc	-0.037000522
147	0x3dbd62f6	0.09247391
148	0xbdbe3ccd	-0.092889406
149	0xbe142399	-0.14466704
150	0x3d9847fd	0.07435606
151	0x3eae2fbc	0.34020793
152	0xbbfc9220	-0.007707849
153	0xbe30adc5	-0.17253788
154	0x3c24a755	0.010049661
155	0x3eba9781	0.36443713
156	0xbde9e65b	-0.1142089
157	0xbd081452	-0.033222504
158	0x3dec4a5f	0.11537623
159	0x3e46e238	0.19422233
160	0xbe26c2c2	-0.16285232
161	0xbd45018e	-0.048097186
162	0xbe309172	-0.17242983
163	0xbe2a771e	-0.16647002
164	0xbdb014f7	-0.08597749
165	0x3e18a765	0.14907606
166	0x3e85eb78	0.2615621
167	0xbdb71bfa	-0.08940883
168	0xbcc7c1e8	-0.024384454
169	0xbd1244bb	-0.035710078
170	0xbdff87c3	-0.12477066
171	0x3d8b68b3	0.06807079
172	0xbd6b2693	-0.057409834
173	0x3e90d063	0.28283986
174	0xbd184d1f	-0.037182923
175	0x3dd55ea3	0.10418441
176	0xbe0d893a	-0.13821879
177	0xbd867f8b	-0.06567296
178	0x3f1ee05e	0.6206111
179	0xbcf8a251	-0.030350836
180	0xbb388afb	-0.002815901
181	0x3f030059	0.51172405
182	0x3e480226	0.1953207
183	0x3ea25a70	0.31709623
184	0x3e9081da	0.2822407
185	0xbdc61072	-0.096711054
186	0x3dc2fddf	0.09521078
187	0xbe0bd1d5	-0.13654263
188	0x3db31c62	0.08745648
189	0x3ce18a6b	0.027531823
190	0x3e0e3dc6	0.13890752
191	0xbe5077f7	-0.20358263
192	0xbd59f40a	-0.05321125
193	0xbd0d4276	-0.03448721
194	0xbd280c44	-0.041027322
195	0xbb0f6992	-0.0021882993
196	0xbe1aaeaf	-0.15105699
197	0x3e2f72ad	0.17133589
198	0xbd5d068d	-0.053961325
199	0xbe25264c	-0.1612789
200	0xbc71a451	-0.014748649
201	0x3d67117f	0.05641317
202	0x3f2b3925	0.6688407
203	0x3e073010	0.13201928
204	0x3b9b11c2	0.0047323415
205	0x3ef91ff8	0.48657203
206	0x3c91d54b	0.017801901
207	0xbeb577c7	-0.35442945
208	0xbbcd7737	-0.006270315
209	0x3e1c1cd5	0.15245374
210	0x3e770efd	0.24126811
211	0xbecef751	-0.40423062
212	0xbe641608	-0.22274029
213	0xbe8eea9f	-0.27913377
214	0x3d13b477	0.036060777
215	0xbf2483c6	-0.6426357
216	0x3cb5b0d6	0.022179049
217	0xbe44e291	-0.19227053
218	0x3d5261a7	0.05136266
219	0xbe943d02	-0.28952795
220	0x3ca6151f	0.020273743
221	0xbdb8b1fd	-0.090183236
222	0xbe8207ee	-0.25396675
223	0x3d869ad8	0.06572503
224	0x3e0d3561	0.13789894
225	0x3cd5060a	0.026003856
226	0x3eaecdf1	0.34141496
227	0xbe62534d	-0.22102089
228	0x3e347ffd	0.17626949
229	0xbe57fcb3	-0.21092491
230	0x3dcf4175	0.10119907
231	0xbeb4633d	-0.35231963
232	0x3c2def93	0.010616201
233	0xbe8ac009	-0.27099636
234	0xbe39bf36	-0.18139347
235	0x3e71265f	0.23549794
236	0xbc8ee60a	-0.017443676
237	0xbd145641	-0.03621507
238	0xbe281f2f	-0.16418146
239	0x3f8566d6	1.0422008
240	0xbb357ba8	-0.0027692113
241	0xbd2e789a	-0.042595483
242	0xbbfc8606	-0.0077064065
243	0x3d0ad8df	0.03389823
244	0x3b045f5a	0.0020198436
245	0x3d263696	0.0405794
246	0x3de23fe2	0.11047341
247	0x3e63e86a	0.22256628
248	0xbe0dcbe7	-0.13847314
249	0x3dce3d86	0.100703284
250	0xbec56c42	-0.38559157
251	0x3db3a3e4	0.08771494
252	0xbbd73b0c	-0.0065683182
253	0xbd473f82	-0.04864455
254	0xbe7ec196	-0.24878535
255	0x3e52cd25	0.20586069

advantage_stream.0.bias f4 [64]
0	0x3ca27845	0.01983274
1	0xbacc4f63	-0.0015587624
2	0xbca22142	-0.01979125
3	0xbb505e2f	-0.003179442
4	0xbcdc2f98	-0.026878163
5	0xbdde7ee5	-0.10864047
6	0xbca229fd	-0.019795412
7	0xbb635101	-0.0034685733
8	0xbd1153be	-0.035480253
9	0x3cfb929f	0.030709563
10	0xbaa5927d	-0.0012632158
11	0x3e016a24	0.12638146
12	0xbca58077	-0.020202858
13	0xbdb750ed	-0.08950982
14	0x3df545bb	0.11976191
15	0xbac7cbf6	-0.001524328
16	0x3e0f6d12	0.14006451
17	0x3a4a386a	0.0007714095
18	0xbd363873	-0.044487428
19	0xbd3f6753	-0.046729397
20	0x3ce38ae6	0.027776193
21	0x3dc97a07	0.09837728
22	0x3d41ef2f	0.047347244
23	0x3c287838	0.010282569
24	0x3dc93d7f	0.098261826
25	0x3d1ec723	0.03876413
26	0xbce4a677	-0.027911408
27	0xbd0f13f7	-0.03493115
28	0x3b3a2a7c	0.002840667
29	0xbddafbb0	-0.10692537
30	0x3d3626f7	0.044470754
31	0x3d7c2b15	0.061564524
32	0x3d7a5a4a	0.061121263
33	0xbd92db27	-0.07170706
34	0xbd9e3201	-0.07724381
35	0x3d9e8c0c	0.077415556
36	0x3d552709	0.05203918
37	0xbacad1ce	-0.0015473904
38	0x3d5c3253	0.05375893
39	0x3d0e3598	0.03471908
40	0x3ca50477	0.02014373
41	0xbd396f4d	-0.04527216
42	0x3d4b9a79	0.049707863
43	0x3d12b1d5	0.035814125
44	0xbde69190	-0.112582326
45	0xbdfccb57	-0.123434715
46	0x3d63a9cb	0.05558185
47	0xbd7081e8	-0.05871764
48	0x3e17261c	0.14760631
49	0x3d989823	0.07450893
50	0xbc2a2bec	-0.010386448
51	0x3cf12556	0.029436748
52	0xbddd78e1	-0.108140714
53	0x3cc162bc	0.02360665
54	0x3d9b92e2	0.07596375
55	0xbd2d3afa	-0.042292573
56	0x3d3ec48a	0.046574153
57	0xbe14dd7b	-0.14537613
58	0x3e048f84	0.12945372
59	0xbdc20bbf	-0.09474897
60	0xbdaed03a	-0.0853581
61	0xbd3d5944	-0.04622771
62	0xbbb3feae	-0.0054930067
63	0x3da74260	0.08166957

advantage_stream.2.weight f4 [4, 64]
0	0x3e474063	0.19458155
1	0x3e01b6cf	0.12667392
2	0x3f2fcc95	0.6867154
3	0xbd93d0f6	-0.072175905
4	0x3e713e8b	0.23559014
5	0x3e6bf830	0.23043895
6	0xbd3243e3	-0.043521773
7	0xbf9ac7e3	-1.209225
8	0x3e9bfc18	0.3046577
9	0x3e5920f2	0.21203974
10	0xbe9eb8ff	-0.31000516
11	0xbf892450	-1.0714207
12	0x3dcad9be	0.09904812
13	0xbe0adb1f	-0.1356015
14	0x3ebd23c1	0.3694134
15	0x3de69f67	0.11260872
16	0x3ec6235e	0.38698858
17	0x3b3f2d65	0.0029171344
18	0x3d1c73ff	0.03819656
19	0xbe70f14a	-0.23529544
20	0x3e747a4a	0.23874775
21	0xbde4a546	-0.11164336
22	0xbe1d6b12	-0.15372875
23	0x3e887bfc	0.26657093
24	0x3bd979d9	0.00663684
25	0xbf2e15d0	-0.68002033
26	0x3ec67c0c	0.38766515
27	0x3da931c8	0.08261448
28	0x3e990719	0.29888228
29	0x3e975145	0.2955419
30	0xbea2adb0	-0.31773138
31	0x3ed2ea44	0.41194355
32	0x3edac5e4	0.42729104
33	0x3e4b8e05	0.19878395
34	0xbd3da3fa	-0.04629896
35	0x3d7175d1	0.05895025
36	0x3e375980	0.17905235
37	0x3e4bb111	0.19891764
38	0xbf0bf1f1	-0.5466605
39	0x3de056cc	0.10954055
40	0x3cfe48a8	0.031040505
41	0x3e39e437	0.18153463
42	0xbf788933	-0.9708435
43	0x3ede8ec3	0.43468294
44	0x3eb34fa7	0.35021707
45	0x3efac01b	0.4897469
46	0x3f1b5d5e	0.6068934
47	0xbda1e5d8	-0.07905167
48	0xbd6693d3	-0.05629332
49	0x3cfb581a	0.030681659
50	0xbf5f52a1	-0.87235457
51	0x3e969347	0.2940924
52	0x3ed2e834	0.41192782
53	0xbe0200c0	-0.12695599
54	0x3f06bfeb	0.52636594
55	0xbd55dc79	-0.052212212
56	0x3ee1bfc7	0.44091627
57	0xbeab0886	-0.3340494
58	0xbe14a46e	-0.1451585
59	0xbd8f7508	-0.07004744
60	0x3dc64f11	0.096830495
61	0x3c4671df	0.01211211
62	0x3e993982	0.29926687
63	0x3e4904e4	0.19630772
64	0x3e1335be	0.1437597
65	0x3da34ec7	0.0797401
66	0x3e1e4ce1	0.15459014
67	0xbe840bbc	-0.25790203
68	0xbf600c67	-0.87518924
69	0xbdb20795	-0.086928524
70	0x3d4c18ea	0.049828447
71	0x3e70e06d	0.23523112
72	0xbcd5517b	-0.02603983
73	0x3e977182	0.29578787
74	0xbf600431	-0.87506396
75	0x3e77e942	0.24210075
76	0xbe67267c	-0.22573274
77	0xbe1f21a2	-0.15540174
78	0x3e91998f	0.28437468
79	0x3d8bf23d	0.06833313
80	0x3d8003b9	0.0625071
81	0xbf3e0faf	-0.7424268
82	0x3e0e8daf	0.13921236
83	0x3e28809f	0.16455315
84	0xbf1782af	-0.5918378
85	0x3eb8e041	0.36108592
86	0xbf36382c	-0.7117946
87	0xbf9cc75f	-1.2248343
88	0xbf4fcfd2	-0.81176484
89	0x3da599ba	0.08085962
90	0x3e4b339a	0.19843903
91	0xbe462a53	-0.19352083
92	0xbb08a566	-0.0020850538
93	0xbe5c77d3	-0.21530084
94	0xbf1eb15d	-0.61989385
95	0x3edcbd04	0.43112957
96	0x3ede6f94	0.43444502
97	0x3e6df31a	0.23237267
98	0xbcf0a129	-0.029373722
99	0xbc2941e1	-0.010330648
100	0xbcd02827	-0.025409771
101	0x3e7e9094	0.2485984
102	0x3eb15e37	0.34642193
103	0x3d402e1a	0.046918966
104	0xbf565e2a	-0.8373743
105	0xbe9ec802	-0.3101197
106	0x3da137e2	0.07871987
107	0x3e61bca3	0.22044615
108	0xbead871f	-0.33892152
109	0x3d1522f0	0.036410272
110	0x3eba3679	0.36369684
111	0xbdec05f1	-0.11524571
112	0x3f000542	0.5000802
113	0x3eb36b9b	0.35043034
114	0x3cbfdcc6	0.023420703
115	0xbf1f5bc1	-0.6224938
116	0xbf2ae123	-0.6674978
117	0x3d27b962	0.04094828
118	0xbdc7cd22	-0.09755923
119	0x3e13e1ad	0.14441557
120	0x3e77daa0	0.24204493
121	0xbe25915a	-0.16168728
122	0x3f3ceb6c	0.73796725
123	0xbcc0685d	-0.023487264
124	0x3e3990f9	0.18121709
125	0x3c3597c8	0.011083551
126	0x3e44ebd9	0.19230594
127	0x3ea5e6a3	0.32402524
128	0x3d85625a	0.065129
129	0xbf0c9e57	-0.5492911
130	0xbf422acd	-0.7584656
131	0xbe2ea9d6	-0.17056975
132	0xbcef10fd	-0.029182905
133	0xbe280868	-0.16409457
134	0x3cb4b92c	0.022060953
135	0x3f2a1674	0.6644051
136	0xbe5508a2	-0.20804074
137	0xbe257a3b	-0.16159908
138	0x3f22446b	0.6338565
139	0x3eb86ce3	0.36020574
140	0xbe34260b	-0.17592637
141	0xbdcf9f7e	-0.101378426
142	0xbeb8972c	-0.36052835
143	0x3eb66b5f	0.35628793
144	0x3e964945	0.29352775
145	0x3a6254e9	0.00086338684
146	0xbf7c774a	-0.9861952
147	0xbe9b31f0	-0.30311537
148	0x3f0dc0be	0.55372226
149	0x3cc52abc	0.024068229
150	0x3eebe1cb	0.46070704
151	0x3eba619e	0.364026
152	0x3e349840	0.17636204
153	0x3ea6345b	0.3246182
154	0xbe664f38	-0.22491157
155	0x3ef44451	0.4770837
156	0x3ea30828	0.3184216
157	0xbe75a601	-0.23989107
158	0x3ede5a3e	0.43428224
159	0x3eb4bfe1	0.35302642
160	0xbf2b1fc2	-0.66845334
161	0x3cacced1	0.021094711
162	0xbe0f0333	-0.13966064
163	0x3efa6fb0	0.48913336
164	0xbd452431	-0.048130218
165	0xbf1452f8	-0.579391
166	0x3e977d93	0.29587993
167	0x3dd5dc51	0.10442413
168	0x3e9246f2	0.28569752
169	0x3e10c962	0.14139321
170	0x3edea46c	0.4348482
171	0x3db18a8d	0.086690046
172	0x3e010cd0	0.12602544
173	0xbe3aa66d	-0.18227549
174	0xbda5fc9d	-0.08104823
175	0xbde46eac	-0.111539215
176	0xbdf08d9f	-0.11745762
177	0xbeb14a4c	-0.34626997
178	0x3dc145b8	0.09437126
179	0x3eb221e0	0.3479147
180	0x3e933808	0.28753686
181	0xbf23a3c9	-0.6392179
182	0xbd4553e0	-0.048175693
183	0xbe60b065	-0.21942289
184	0xbf5dab74	-0.8658974
185	0x3d9023bb	0.07038065
186	0xbce8668e	-0.028369214
187	0x3df48536	0.119394705
188	0x3d8b552f	0.06803357
189	0x3ebc98b6	0.3683526
190	0xbe52f700	-0.20602036
191	0xbe91d74d	-0.28484574
192	0x3c58dbef	0.01323603
193	0x3e2154e9	0.15755047
194	0x3e6a5a8d	0.22886105
195	0xbebeb092	-0.37244087
196	0xbd6a0a07	-0.05713847
197	0x3ea7a11b	0.327401
198	0xbeb4c3b2	-0.35305554
199	0x3ef7061d	0.48246852
200	0x3e1cd565	0.15315779
201	0x3e9d4a0d	0.3072056
202	0x3ea1539c	0.315091
203	0x3e1dbf20	0.1540494
204	0x3e55f515	0.20894273
205	0xbd066804	-0.03281404
206	0xbe0c8d10	-0.13725686
207	0xbf3254cf	-0.6966066
208	0xbf547202	-0.8298646
209	0x3e46948b	0.19392602
210	0x3ea00463	0.31253347
211	0x3ec437d7	0.38323852
212	0x3d48c975	0.04902025
213	0xbf042f69	-0.5163484
214	0x3eb2de59	0.34935263
215	0x3f06c9eb	0.5265185
216	0x3e76c47e	0.24098393
217	0x3e671cc4	0.22569567
218	0xbed3bea0	-0.41356373
219	0xbf674cc4	-0.9035151
220	0xbdfe61d3	-0.12421002
221	0x3d8df8a2	0.069321886
222	0x3e2cf6f3	0.16891079
223	0xbfadc9f0	-1.3577251
224	0xbc71115f	-0.014713614
225	0x3e1d0195	0.15332635
226	0xbbffefed	-0.007810584
227	0xb6c100e0	-5.75195e-06
228	0xbf53cc83	-0.82733935
229	0xbec5074b	-0.38482127
230	0x3e27c605	0.16384132
231	0x3c37ddb8	0.011222295
232	0x3f12beed	0.5732258
233	0x3dff4dad	0.12465987
234	0x3f201bfa	0.6254269
235	0xbf4699b7	-0.775783
236	0x3e2f5ff2	0.17126444
237	0xbedc6159	-0.4304302
238	0xbb6e4481	-0.003635675
239	0xbe0bcd5c	-0.13652557
240	0xbeb263d3	-0.34841785
241	0xbec136b8	-0.3773706
242	0x3e87449d	0.26419535
243	0x3e8b33a4	0.27187836
244	0xb8b26bea	-8.507802e-05
245	0x3ef8bf59	0.48583487
246	0xbdc861d0	-0.09784281
247	0x3d4d0feb	0.05006401
248	0x3f12e3af	0.5737867
249	0x3e281290	0.16413331
250	0xbe8c3c4d	-0.27389756
251	0x3e9f43a5	0.31106296
252	0x3d081bad	0.03322952
253	0x3e44aa71	0.19205643
254	0xbe9ba9fd	-0.30403128
255	0xbec91bfd	-0.39279166

advantage_stream.2.bias f4 [4]
0	0x3d6ca0e6	0.057770632
1	0xbd7e4213	-0.062074732
2	0xbe13a0d0	-0.14416814
3	0xbdd5f669	-0.1044739
