models/snake_dqn_ep445_score22_20250303_093911.pt (torch, 876258 bytes, 44 tensors)

feature_layers.0.weight f4 [128, 24]
0	0xbee00c80	-0.43759537
1	0x3f03b1bc	0.51443076
2	0xbef4fcf1	-0.4784923
3	0x3e35ce35	0.17754443
4	0x3eccdcfb	0.40012345
5	0xbf21922a	-0.63113654
6	0xbdf81e4d	-0.121151544
7	0xbeaae927	-0.33381006
8	0xbd4d3da2	-0.050107606
9	0xbe11a586	-0.14223298
10	0xbd693be2	-0.056941874
11	0xbe8531dd	-0.26014605
12	0x3e0600d5	0.13086255
13	0x3e066a63	0.13126521
14	0xbecc007d	-0.39844123
15	0x3f124831	0.57141405
16	0xbf30c868	-0.69055796
17	0x3f79b88c	0.9754722
18	0x3eec4e97	0.4615371
19	0xbeaec6f0	-0.34136152
20	0x3f15cb69	0.58513504
21	0xbddfc4e8	-0.10926229
22	0x3eb27db1	0.3486152
23	0x3d0cbdcb	0.03436069
24	0xbcbb8d32	-0.022894476
25	0x3dd7c619	0.10535831
26	0xbd813a46	-0.06309943
27	0xbed07eff	-0.4072189
28	0xbe54332a	-0.20722643
29	0xbef3a0b2	-0.47583538
30	0x3e8a9641	0.2706776
31	0xbd25e39d	-0.040500272
32	0xbe3f6de2	-0.1869426
33	0x3d802d88	0.062586844
34	0x3e0ae075	0.13562186
35	0x3f149c34	0.5805085
36	0xbcea61e1	-0.028611125
37	0x3eb109de	0.3457784
38	0xbc0e1f81	-0.008674503
39	0xbd3945c2	-0.04523254
40	0x3e75942e	0.23982307
41	0x3f632968	0.88735056
42	0x3db83c10	0.08995831
43	0xbd2f243d	-0.04275917
44	0x3d44e785	0.048072357
45	0x3c14ea05	0.009088998
46	0x3ee074c2	0.4383908
47	0xbdc989b0	-0.09840715
48	0xbe6bb7ff	-0.23019408
49	0xbec3aee3	-0.38219365
50	0x3dc85c18	0.097831905
51	0xbe3eb2b5	-0.18622859
52	0xbde7895c	-0.11305496
53	0xbea5ad8d	-0.3235897
54	0x3e70bea4	0.23510224
55	0x3e8fb49c	0.28067482
56	0xbe451206	-0.19245157
57	0xbed9b4ab	-0.4252065
58	0xbe26a3bd	-0.16273399
59	0xbf06b343	-0.5261728
60	0x3e21dd25	0.15807016
61	0xbe342f74	-0.17596227
62	0x3ebc9c05	0.36837783
63	0x3d7f50d2	0.062332936
64	0xbeefa0e8	-0.4680245
65	0xbdea1d6f	-0.11431395
66	0xbeb35ba8	-0.35030866
67	0xbe99223c	-0.2990893
68	0xbe0d9041	-0.1382456
69	0x3d5bfca9	0.053707752
70	0x3ed60c6d	0.41806355
71	0xba0129fe	-0.0004927217
72	0x3e099b72	0.13438204
73	0x3ea26f97	0.3172576
74	0x3f5da71d	0.8658312
75	0x3f0594c1	0.52180105
76	0x3e113687	0.14180957
77	0x3ea47048	0.32116914
78	0x3d997cf2	0.074945346
79	0x3e845388	0.2584498
80	0x3e9d722b	0.30751166
81	0x3e92d7e9	0.2868035
82	0x3e37df66	0.17956313
83	0x3f56707a	0.83765376
84	0x3e09a3cf	0.13441394
85	0xbdad8513	-0.084726475
86	0xbf1adcf5	-0.60493404
87	0x3ea892c2	0.32924467
88	0xbc47e09b	-0.012199546
89	0x3da3c081	0.079957016
90	0x3dca827e	0.09888171
91	0xbed938de	-0.424262
92	0x3edf348d	0.4359478
93	0xbe3a234e	-0.1817753
94	0x3f0ea3d1	0.55718714
95	0xbe63c807	-0.22244273
96	0x3d2f145d	0.04274403
97	0x3f6085c9	0.8770414
98	0xbe4d296e	-0.20035335
99	0xbea13307	-0.31484243
100	0x3e8a2ec6	0.2698881
101	0x3dcf5b94	0.10124889
102	0xbec85c1c	-0.39132774
103	0xbd9ca3d3	-0.076484345
104	0xbde7c52d	-0.11316905
105	0x3edd81f8	0.4326322
106	0x3eb23f79	0.3481405
107	0x3e0f66f0	0.14004111
108	0xbf1b8402	-0.607483
109	0xbf0e6243	-0.55618685
110	0xbe8d5f00	-0.27611542
111	0xbe16aba3	-0.14713912
112	0xbf1eb4ba	-0.61994517
113	0x3ec91bae	0.3927893
114	0x3f1032e1	0.56327635
115	0x3e904823	0.28180036
116	0x3ece374a	0.40276557
117	0x3e5ca710	0.21548104
118	0xbd94abdd	-0.07259343
119	0xbe13d43c	-0.1443643
120	0x3def3f3a	0.116819814
121	0x3e114fc8	0.1419059
122	0xbe68006f	-0.22656415
123	0x3e25b8ae	0.16183731
124	0xbe4a745a	-0.19770947
125	0x3e9ab5e0	0.30216885
126	0xbd4ee711	-0.05051333
127	0xbd8a7533	-0.06760635
128	0x3ebfcf03	0.37462625
129	0x3deb8118	0.11499232
130	0xbe15d017	-0.14630161
131	0xbd6afba9	-0.057368908
132	0xbf153db7	-0.58297294
133	0x3cde2596	0.027117532
134	0xbeb9f5d1	-0.36320356
135	0x3f4846a1	0.7823277
136	0xbe981b2b	-0.29708228
137	0x3e9d2e0d	0.30699196
138	0xbe5dc4f3	-0.21657161
139	0xbd8c8b55	-0.06862513
140	0x3ef2446d	0.4731783
141	0xbe3ff389	-0.18745245
142	0x3e7c5066	0.24640045
143	0xbe7e23f7	-0.24818407
144	0xbe4c3138	-0.1994065
145	0x3df39ba0	0.118949175
146	0xbea10929	-0.314523
147	0xbe90146a	-0.28140575
148	0x3e26ab80	0.1627636
149	0x3ed8fb31	0.42379144
150	0xbeee043d	-0.4648761
151	0x3d3d4df9	0.04621694
152	0x3eb45050	0.35217524
153	0x3df63cb1	0.12023295
154	0x3cf40cde	0.029791292
155	0x3d3975a4	0.045278206
156	0x3e29d1bf	0.16583918
157	0xbddada47	-0.10686164
158	0xbe9bc614	-0.3042456
159	0xbc469ac0	-0.012121856
160	0xbe8caa98	-0.27473903
161	0xbe43c7a0	-0.1911912
162	0xbed2083f	-0.41021916
163	0x3eb3d3d4	0.3512255
164	0x3dd66b27	0.104696564
165	0x3f023eb6	0.5087694
166	0xbeec8ee2	-0.4620276
167	0x3eb097e4	0.34490883
168	0x3b83c424	0.0040211845
169	0xbc5ec3d0	-0.01359649
170	0xbc88ae9c	-0.016684823
171	0xbd5d8faa	-0.054092087
172	0xbe95b90f	-0.2924275
173	0xbe69d8be	-0.22836587
174	0x3eadd117	0.33948585
175	0x3e7d0098	0.24707258
176	0x3efeacca	0.49741203
177	0xbd925301	-0.07144738
178	0x3d4cdcac	0.050015137
179	0x3e868054	0.26269782
180	0xbe940549	-0.28910282
181	0xbecc7889	-0.3993571
182	0xbebec733	-0.37261352
183	0x3e6ffbd5	0.2343591
184	0x3edb4961	0.4282942
185	0x3e797e13	0.243645
186	0xbbd29ea3	-0.0064276024
187	0xbda81601	-0.08207322
188	0x3e5b7fdd	0.21435495
189	0xbbf87289	-0.007582013
190	0x3e9829ed	0.29719487
191	0x3f06c025	0.5263694
192	0xbc24f74d	-0.010068727
193	0xbe236d45	-0.15959652
194	0xbe48a77a	-0.19595137
195	0x3ea4f4f8	0.32218146
196	0xbde8954a	-0.113566
197	0x3d760d78	0.06007144
198	0xbe09eb4f	-0.1346867
199	0xbd30f055	-0.04319795
200	0xbde89c5c	-0.11357948
201	0x3e53775f	0.20651005
202	0x3e63ef78	0.22259319
203	0x3ef5604e	0.47925037
204	0xbeb7037d	-0.3574485
205	0x3d37d5f4	0.044881776
206	0xbe14bd39	-0.14525308
207	0xbc515dbd	-0.012778697
208	0x3e0778b3	0.13229637
209	0x3e9c4ba7	0.30526468
210	0xbe23e27a	-0.16004363
211	0xbec3bb68	-0.38228917
212	0xbef4fadc	-0.4784764
213	0x3ee8e376	0.4548604
214	0xbe1255d8	-0.1429056
215	0x3e40fc92	0.18846348
216	0x3ec0bc11	0.37643483
217	0xbe94dc9e	-0.29074568
218	0xbdd1c78d	-0.102431394
219	0x3ea2c627	0.31791803
220	0x3e4eb436	0.20185933
221	0xbe971e39	-0.29515246
222	0x3e407a43	0.18796639
223	0xbe29237a	-0.1651744
224	0xbec0357c	-0.37540805
225	0xbea40d5a	-0.32041436
226	0x3edfeab8	0.43733764
227	0xbe3350c2	-0.17511275
228	0xbd844041	-0.06457568
229	0xbd179436	-0.03700658
230	0xbe75deef	-0.24010824
231	0xbea24b7a	-0.3169821
232	0xbd882185	-0.06647018
233	0xbeed25d7	-0.46317932
234	0x3d795ac5	0.06087758
235	0x3cb69f84	0.02229286
236	0xbe19ea7d	-0.15030856
237	0x3eed4aae	0.4634604
238	0xbeb2bf8e	-0.3491177
239	0x3e044743	0.12917809
240	0x3e7edf07	0.24889766
241	0x3e3af7a2	0.18258527
242	0x3e5c7499	0.21528853
243	0xbe82a7d4	-0.25518668
244	0xbe348edd	-0.17632623
245	0x3c86f644	0.01647485
246	0xbda65ab2	-0.081227675
247	0xbe794e21	-0.2434621
248	0x3e0dc74a	0.13845554
249	0x3e9f211e	0.31079954
250	0xbdac6eac	-0.084195465
251	0x3ef4e033	0.478273
252	0xbf3750da	-0.71607745
253	0xbe713345	-0.23554714
254	0xbe746091	-0.23864962
255	0xbec47da2	-0.383771

feature_layers.0.bias f4 [128]
0	0xbe44632f	-0.1917846
1	0xbe130001	-0.1435547
2	0xbc6afe31	-0.0143428305
3	0x3e715039	0.23565759
4	0x3e42a714	0.19009048
5	0xbc219ed8	-0.009864531
6	0x3e587a57	0.21140419
7	0x3e870176	0.26368302
8	0x3e9ce6b2	0.30644757
9	0x3e79c2cf	0.2439072
10	0x3e462f99	0.19354095
11	0xbcda2d61	-0.026632966
12	0x3ea777f3	0.32708701
13	0xbcbf4c14	-0.023351707
14	0xbcaa1a36	-0.020764451
15	0x3d8bc412	0.06824507
16	0x3cf8c6fe	0.030368324
17	0x3de4080a	0.11134346
18	0xbd94c77e	-0.072646126
19	0xbe373c70	-0.17894149
20	0x3dabd7dc	0.08390781
21	0xbd1e1152	-0.038590737
22	0x3e8cda2d	0.27510205
23	0xbe39903e	-0.1812143
24	0xbe2bbcba	-0.16771212
25	0x3d15e863	0.036598574
26	0xbe0ba110	-0.13635659
27	0x3ded3128	0.115816414
28	0x3e1f3615	0.15547974
29	0x3ebe8ac9	0.3721526
30	0xbdbaaf7c	-0.09115502
31	0xbe849c77	-0.25900623
32	0xbd8e43ca	-0.069465235
33	0xbd68046e	-0.05664485
34	0xbbc01ae8	-0.0058625825
35	0x3e62b257	0.22138344
36	0xbce67aec	-0.028134786
37	0xbe05e21c	-0.13074535
38	0xbe5ca560	-0.2154746
39	0x3e93cf25	0.28868976
40	0x3c73fe12	0.014892118
41	0xbe107c12	-0.14109829
42	0xbe89c30a	-0.26906615
43	0x3eba0819	0.36334303
44	0xbe7defd4	-0.24798518
45	0xbceecf22	-0.029151503
46	0xbe5d29ab	-0.21597926
47	0xbcbbf9b8	-0.022946224
48	0xbe2b13b9	-0.16706742
49	0xbe105220	-0.14093828
50	0x3ddab327	0.10678702
51	0xbde5d3a2	-0.112220064
52	0x3b1ff346	0.0024406477
53	0x3d6fb974	0.05852647
54	0x3bfae2fb	0.0076564527
55	0xbd2bf6a1	-0.04198325
56	0xbe5ea413	-0.21742277
57	0xbe18eb33	-0.14933471
58	0xbda96740	-0.082716465
59	0x3e9405ab	0.28910574
60	0xbd9aa66a	-0.07551272
61	0xbc588c56	-0.013217052
62	0xbe356e85	-0.17717941
63	0x3e58f101	0.21185686
64	0xbd8a3f82	-0.067503944
65	0xbcf781cb	-0.030213257
66	0xbd15a982	-0.03653861
67	0x3e844839	0.25836352
68	0x3e02248a	0.12709251
69	0x3e72a47b	0.23695557
70	0xbcc0cadd	-0.023534233
71	0x3dc175d2	0.094463006
72	0x3ea0aa66	0.31380004
73	0x3e8611d0	0.26185465
74	0x3e31d5a9	0.17366661
75	0x3e7dc739	0.24783029
76	0xbde4d7f6	-0.11174004
77	0x3e731a67	0.2374054
78	0xbe927f85	-0.28612915
79	0xbe68610d	-0.22693272
80	0xbe653423	-0.2238317
81	0x3ccf93d1	0.025339039
82	0x3ca49860	0.02009219
83	0xbe553b77	-0.20823465
84	0x3c745050	0.014911726
85	0x3e8f0c96	0.2793929
86	0xbb976ea7	-0.004621345
87	0x3e0a862b	0.13527744
88	0x3c7ecdee	0.015552027
89	0xbe9b74da	-0.30362588
90	0xbdb66d01	-0.089075096
91	0x3e846535	0.25858465
92	0x3d8e210d	0.06939898
93	0x3dd146cd	0.10218582
94	0x3de14bad	0.11000762
95	0x3d3b16fb	0.045676213
96	0x3e1a70ef	0.15082143
97	0xbe3fa3c2	-0.18714812
98	0x3cffa981	0.031208755
99	0xbccc1134	-0.024910547
100	0xbda16933	-0.07881393
101	0x3e966843	0.2937642
102	0x3e068f03	0.13140492
103	0xbb96def0	-0.004604213
104	0xbd19b6dc	-0.037527904
105	0xbe4118ca	-0.18857113
106	0x3e98be15	0.2983252
107	0x3cfa253b	0.030535331
108	0xbced7c9f	-0.028990088
109	0xbeaa2d89	-0.33237866
110	0xbdd4360c	-0.10361871
111	0xbe22c2c8	-0.15894616
112	0xbdc3fdb5	-0.09569875
113	0x3c73eacd	0.014887524
114	0x3d9f9c60	0.07793498
115	0x3e588212	0.21143368
116	0xbeac0aea	-0.33602077
117	0xbe8ac981	-0.2710686
118	0x3e938a87	0.28816625
119	0x3e10fb4f	0.14158367
120	0xbe7af0c0	-0.24505901
121	0x3da71d5e	0.08159898
122	0xbe463f4c	-0.19360083
123	0x3e2abf82	0.16674617
124	0x3d8d9bea	0.06914504
125	0xbe243e41	-0.16039373
126	0xbac996df	-0.0015380046
127	0xbddf6091	-0.109070905

feature_layers.1.weight f4 [128, 128]
0	0xbd223392	-0.039599963
1	0x3dd6aa70	0.10481727
2	0x3dcd770b	0.10032471
3	0xbe0ba65e	-0.13637683
4	0x3d74b4af	0.059742626
5	0xbe67c010	-0.2263186
6	0x3e0d4d9c	0.13799137
7	0x3e07bece	0.1325638
8	0x3bd87377	0.0066055614
9	0x3dc7aa25	0.09749249
10	0x3e60b6b8	0.21944702
11	0x3eae5038	0.34045577
12	0x3e40ea7d	0.1883945
13	0x3d03708b	0.03208975
14	0x3d457364	0.04820575
15	0xbe5321ff	-0.20618437
16	0x3ea016a5	0.31267276
17	0x3e0030f6	0.12518677
18	0x3dcc2cd4	0.09969488
19	0xbd83f7ca	-0.064437464
20	0x3d0f8f8a	0.035049
21	0xbed05323	-0.40688428
22	0x3dfd81c5	0.12378267
23	0xbea74d0e	-0.32675976
24	0xbc0b62b5	-0.00850742
25	0xbdee5e36	-0.11639063
26	0xbd880e46	-0.066433474
27	0x3e267f67	0.16259538
28	0x3e0e939f	0.139235
29	0x3c46103f	0.012088834
30	0xbd29bb6f	-0.041438516
31	0xbe53162e	-0.2061393
32	0x3e07ccce	0.1326172
33	0xbcc0fc12	-0.023557696
34	0xbdbcd3d5	-0.09220091
35	0x3e321007	0.17388926
36	0xbe074470	-0.132097
37	0xbdb1e7a4	-0.0868676
38	0xbde75962	-0.11296345
39	0x3e58b561	0.2116294
40	0xbe538452	-0.20655945
41	0x3dbaf5f7	0.09128945
42	0xbe7b1ce8	-0.24522746
43	0x3d29c5fe	0.041448586
44	0xbdb5211b	-0.08844205
45	0xbe0da51b	-0.13832514
46	0x3e0cdd7e	0.13756368
47	0x3e5b1f28	0.21398604
48	0x3b7ab57d	0.0038255148
49	0xbece8d0e	-0.4034199
50	0xbe5556b7	-0.2083386
51	0x3d417d69	0.04723874
52	0x3d1d339b	0.038379293
53	0xbd0d74d9	-0.034535263
54	0x3e4e48d7	0.20144974
55	0x3b24d5d1	0.0025151859
56	0x3d0b3547	0.033986356
57	0xbe03c9ae	-0.12869903
58	0xbeacd8c8	-0.3375914
59	0x3e2393dc	0.15974373
60	0xbd72ae98	-0.059248537
61	0x3d95baaf	0.07310998
62	0xbc375a6e	-0.011190994
63	0x3d2c37bb	0.042045336
64	0xbe1ae963	-0.15128092
65	0xbc64ddde	-0.013968913
66	0xbd0a8379	-0.03381679
67	0x3dfe519c	0.124179095
68	0x3e0c081d	0.1367497
69	0x3d43903d	0.04774498
70	0xbbd9debf	-0.006648868
71	0x3d7b1e4c	0.06130819
72	0x3e473908	0.1945535
73	0x3d0ed67e	0.034872524
74	0xbd1fb72a	-0.03899304
75	0x3e954bc7	0.29159376
76	0xbcfae2c8	-0.030625716
77	0x3e1c9901	0.15292741
78	0x3ea48ad3	0.32137164
79	0x3d9dba6d	0.077015735
80	0xbe57fafc	-0.21091837
81	0xbd0e3767	-0.034720805
82	0xbd6600b4	-0.056153014
83	0x3d6907db	0.056892257
84	0xbe37fd53	-0.1796773
85	0xbd742da3	-0.059613835
86	0x3d38b41d	0.045093644
87	0xbe3e7603	-0.18599705
88	0x3d07dd71	0.033170167
89	0xbeb048b7	-0.34430477
90	0x3e6fc8b1	0.23416401
91	0x3d7cc5a1	0.06171191
92	0xbe08bb85	-0.13352783
93	0xbd5fad9d	-0.05460893
94	0x3cfe4402	0.031038288
95	0x3c27bcf5	0.010237922
96	0xbd5c8e79	-0.05384681
97	0x3d257371	0.040393297
98	0xbeae412d	-0.340341
99	0x3e21ff32	0.15820006
100	0xbdd4eb51	-0.103964455
101	0x3e3b2694	0.18276435
102	0xbe797049	-0.2435924
103	0xbdf4d9a4	-0.11955574
104	0x3a3db803	0.0007237198
105	0x3bb19ae2	0.005420075
106	0x3e825fa9	0.25463608
107	0xbd8a36bc	-0.06748721
108	0xbca68fd1	-0.020332249
109	0xbe30abf3	-0.17253093
110	0x3ea579f2	0.323196
111	0xbda3e7e7	-0.08003216
112	0x3de32964	0.11091879
113	0xbe610f4a	-0.21978489
114	0x3e1f588e	0.15561125
115	0x3e031d49	0.1280414
116	0xbea42e63	-0.3206664
117	0x3e3178de	0.17331263
118	0xbb7ae289	-0.0038281998
119	0x3e30c46b	0.17262428
120	0x3d8fbaf7	0.070180826
121	0xbe2b6ab8	-0.16739929
122	0x3c02dff2	0.007987963
123	0xba411736	-0.00073658244
124	0x3dda76ec	0.10667214
125	0xbdd0679a	-0.101760104
126	0xbcb7caa9	-0.022435503
127	0xbe457553	-0.19283037
128	0xbe4d3b99	-0.20042266
129	0x3e2c533d	0.16828628
130	0x3dbc3d81	0.091914184
131	0xbdc7e017	-0.097595386
132	0x3df944e7	0.12171345
133	0xbd00ab19	-0.03141317
134	0xbd4019b9	-0.04689953
135	0x3c8d4f7c	0.017249815
136	0xbdeb83cf	-0.1149975
137	0xbd03c0ef	-0.032166418
138	0x3e4c4782	0.19949153
139	0xbdc9daf0	-0.09856212
140	0x3e7ecd7e	0.24883077
141	0xbe1132a4	-0.14179474
142	0xbe0af042	-0.13568214
143	0xbdf865d4	-0.12128797
144	0x3d347475	0.044056375
145	0x3d8de988	0.06929308
146	0xbc941edd	-0.018081123
147	0xbe1df527	-0.1542555
148	0xbe147adf	-0.14499997
149	0x3da5f439	0.081032224
150	0xbdb92027	-0.09039336
151	0x3c3a07a8	0.011354364
152	0xbdf7a8aa	-0.12092717
153	0x3e4b5407	0.19856273
154	0xbe4c8506	-0.1997262
155	0xbe7a1edd	-0.24425836
156	0x3c5a0d71	0.013308869
157	0x3dec4730	0.115370154
158	0xbcd9fd46	-0.026610028
159	0x3db7cde4	0.089748174
160	0x3d53d169	0.05171338
161	0x3dd8077d	0.10548303
162	0xbe391e24	-0.18077904
163	0xbbb05330	-0.0053810105
164	0x3e0fe75d	0.14053102
165	0x3e5442ae	0.20728561
166	0x3dea6bd6	0.11446349
167	0x3ddb7d29	0.10717232
168	0xbcccbf68	-0.024993613
169	0xbd8ff1b6	-0.070285246
170	0xbe3418d0	-0.1758759
171	0x3d1d7e8f	0.038450774
172	0xbddafeb3	-0.10693111
173	0xbe491700	-0.1963768
174	0xbdcd3b4e	-0.10021077
175	0xbc136105	-0.008995299
176	0x3e05f601	0.13082124
177	0xbe1b34ca	-0.15156856
178	0x3cd02574	0.025408484
179	0xbd372b62	-0.044719107
180	0xbe77bc9c	-0.24193043
181	0x3e3c1d92	0.18370655
182	0x3e9124c1	0.28348354
183	0xbdc56568	-0.09638482
184	0x3af58212	0.001873078
185	0xbde8a96e	-0.11360441
186	0xbe57b53a	-0.21065226
187	0x3e6137d8	0.21993959
188	0x3d1089aa	0.035287537
189	0xbde03aa2	-0.10948683
190	0xbdfc6c25	-0.123253144
191	0x3e382f87	0.1798688
192	0x3e8f43e6	0.2798149
193	0xbd9fd683	-0.07804587
194	0xbdf51004	-0.11965945
195	0xbda8f2d0	-0.08249438
196	0x3d4b6b0f	0.049662646
197	0xbd2f25fe	-0.04276084
198	0xbe7f0a5d	-0.24906297
199	0x3dd6cbba	0.104880765
200	0x3da8a061	0.08233715
201	0x3e105dde	0.14098307
202	0xbdae63c6	-0.08515124
203	0x3e30aedb	0.17254202
204	0xbd70ca28	-0.05878654
205	0xbab41865	-0.001374018
206	0xbdc72747	-0.097242884
207	0x3ac99a32	0.0015381037
208	0x3e09fb7f	0.13474844
209	0xbd237fce	-0.039916806
210	0xbdcd7d84	-0.10033706
211	0x3f172a92	0.5904933
212	0xbe98f9c9	-0.2987807
213	0xbdd6fb66	-0.10497169
214	0xbe3437fc	-0.17599481
215	0x3d916a60	0.071003675
216	0xbdf60042	-0.12011768
217	0xbe0b7dd3	-0.13622217
218	0xbd632e29	-0.055463944
219	0x3defb0c4	0.11703637
220	0xbe52492f	-0.2053573
221	0x3db45a69	0.08806307
222	0xbe018812	-0.12649563
223	0xbd68badf	-0.05681884
224	0xbce1e03b	-0.027572742
225	0xbd435c9c	-0.04769574
226	0xbd196088	-0.037445575
227	0xbcdce444	-0.026964314
228	0xbe433955	-0.19064839
229	0x3e3f5a56	0.18686804
230	0xbe4237e7	-0.18966638
231	0x3e3cd86e	0.18441936
232	0xbe8499f1	-0.25898698
233	0xbdec7d37	-0.1154732
234	0x3e32aa6d	0.17447825
235	0x3d24430e	0.04010301
236	0x3cc03f3b	0.02346765
237	0xbd7b262e	-0.061315708
238	0xbc6f8644	-0.014619414
239	0xbd0571cf	-0.03257924
240	0x3e444db7	0.19170271
241	0xbdac0bf9	-0.08400721
242	0xbe561ba4	-0.20908982
243	0xbe113dd0	-0.14183736
244	0xbd5c5a95	-0.053797323
245	0x3d2ca8d5	0.0421532
246	0xbd5e5646	-0.054281496
247	0x3e09db1f	0.13462494
248	0xbded7655	-0.11594836
249	0x3e0bcc2e	0.13652107
250	0x3e176020	0.14782763
251	0x3e9458b8	0.28973937
252	0xbc5c0f1f	-0.0134313395
253	0xb9ff765a	-0.0004872557
254	0xbdc2a952	-0.095049515
255	0xbd48c13a	-0.0490124

feature_layers.1.bias f4 [128]
0	0x3d24ec88	0.040264636
1	0x3cc671ae	0.024224129
2	0x3d0e17b2	0.034690566
3	0xbc5d4eff	-0.013507604
4	0xbe1413c1	-0.1446066
5	0xbda50bbb	-0.08058878
6	0xbc83c56f	-0.016085355
7	0xbde23bbd	-0.110465504
8	0x3e2e3980	0.17014122
9	0xbe55a453	-0.20863466
10	0x3d2a169e	0.041525476
11	0x3e379812	0.17929104
12	0x3c955261	0.018227758
13	0x3da141a9	0.07873852
14	0x3e50cd07	0.20390712
15	0xbd48d5d6	-0.049032055
16	0x3dd6f9bb	0.10496851
17	0xbdcedc3a	-0.10100599
18	0x3e5c6f7d	0.21526904
19	0x3dbed9ab	0.093188606
20	0x3d1862bc	0.037203535
21	0x3c71a33c	0.014748391
22	0x3dfd32c5	0.12363199
23	0xbdc2e206	-0.09515767
24	0x3db02d48	0.08602387
25	0xbd945f85	-0.072447814
26	0x3cf57e1f	0.029967366
27	0x3d269f8a	0.040679492
28	0xbdd6c4f4	-0.104867846
29	0xbbc91ddf	-0.006137594
30	0xbd6ddc12	-0.058071204
31	0x3dbe8ce3	0.09304216
32	0x3d7da063	0.061920535
33	0x3c4a0722	0.012330802
34	0x3d19bc14	0.03753288
35	0xbc07c1e9	-0.008285978
36	0x3db839f8	0.08995432
37	0x3e35d4ae	0.17756912
38	0x3e16b179	0.14716138
39	0xbdbf8ffa	-0.09353633
40	0x3dbb21be	0.09137295
41	0x3de44120	0.11145234
42	0xbdc9d0f0	-0.09854305
43	0x3e0c9cd9	0.13731708
44	0x3e2646a7	0.16237889
45	0xbd4196db	-0.047263008
46	0x3d84eead	0.06490836
47	0x3e3a77e7	0.18209802
48	0x3e2c3922	0.1681867
49	0x3dba11f2	0.09085454
50	0xbd62db9e	-0.055385225
51	0xbc9a9f73	-0.01887486
52	0x3dc01028	0.093780816
53	0xbddf0007	-0.10888677
54	0xbd5787ef	-0.05261987
55	0xbd776009	-0.06039432
56	0x3c87fec3	0.016600972
57	0x3c9ed672	0.019389365
58	0x3d20360a	0.039114036
59	0xbdc7acac	-0.097497314
60	0x3df4a9e8	0.119464695
61	0x3d5276f2	0.051382966
62	0xbe060112	-0.13086346
63	0x3d8f1b1d	0.06987593
64	0x3e634e4a	0.22197834
65	0x3da24ff6	0.079254076
66	0x3e366c43	0.17814736
67	0xbdabc373	-0.08386888
68	0x3dbf577e	0.0934286
69	0x3df017e7	0.11723309
70	0x3de1ef56	0.11031978
71	0xbcaac683	-0.02084661
72	0xbd88fe61	-0.06689144
73	0x3e3f30c6	0.1867095
74	0xbd50585f	-0.050865527
75	0xbcc99913	-0.024609124
76	0x3df8c26c	0.12146458
77	0xbcc84de3	-0.024451202
78	0xbb285221	-0.0025683718
79	0xbe26e086	-0.16296586
80	0xbc957281	-0.018243076
81	0x3ddbd9d0	0.10734904
82	0xbde524d2	-0.111886635
83	0xbb92fd5d	-0.0044857697
84	0x3dd61c45	0.10454611
85	0xbe4505af	-0.1924045
86	0xbdc61469	-0.09671862
87	0xbe0030df	-0.12518643
88	0xbe051149	-0.12994875
89	0x3e1c5a3f	0.15268801
90	0x3d86af5e	0.065764174
91	0x3c5e8d5e	0.013583509
92	0x3df1234b	0.1177431
93	0x3dd64f5d	0.10464356
94	0x3c5e75c7	0.013577885
95	0xbd19cf2d	-0.037551094
96	0xbe554d1d	-0.20830198
97	0x3e2bcc3b	0.16777126
98	0xbd998448	-0.07495934
99	0xbe15ab44	-0.14616114
100	0xbcac5f56	-0.021041553
101	0xbdeabf75	-0.11462299
102	0xbd9728d3	-0.073808335
103	0x3bf68c27	0.0075240317
104	0xbe3f4cd4	-0.18681651
105	0xbd965e2b	-0.0734218
106	0xbdf4b881	-0.11949254
107	0xbd1c7f0d	-0.038207103
108	0xbd954491	-0.07288469
109	0x3cc6bc8d	0.02425983
110	0xbc85c85b	-0.016330888
111	0xbde958ff	-0.11393928
112	0x3e5af17a	0.21381178
113	0x3d987137	0.07443469
114	0x3dac14b5	0.08402387
115	0x3d812b00	0.0630703
116	0x3dac471c	0.084120005
117	0x3e2e4f53	0.17022447
118	0xbe3c40c4	-0.18384081
119	0x3cb0be50	0.021575123
120	0xbdc6feb7	-0.09716552
121	0x3e17fbeb	0.14842193
122	0xbe30729c	-0.1723122
123	0xbd122291	-0.035677496
124	0x3e156eb9	0.14593019
125	0x3b2fd5c6	0.00268303
126	0x3cb6eee6	0.022330713
127	0x3cf5e1b0	0.030014843

value_stream.0.weight f4 [64, 128]
0	0x3d97b054	0.07406679
1	0xbd33210b	-0.043732684
2	0x3dca99ae	0.09892593
3	0x3e52a4fd	0.2057075
4	0x3ba72215	0.0051004984
5	0xbc2a35ba	-0.010388786
6	0x3d46bed8	0.048521847
7	0xbe00c68a	-0.12575737
8	0x3998baa4	0.00029130757
9	0x3e3bed84	0.18352324
10	0xbb650acd	-0.0034949065
11	0x3d7b5b33	0.06136627
12	0xbc253ae4	-0.010084841
13	0x3e1e493a	0.15457621
14	0xbd0a158c	-0.033711955
15	0xbbd3d4ab	-0.006464561
16	0xbd8aa0a0	-0.06768918
17	0xbe04b33d	-0.12958999
18	0xbe5fbed9	-0.21850146
19	0xbdc6e3ee	-0.09711443
20	0x3dd0eb7c	0.10201165
21	0x3d53f892	0.051750727
22	0xbcac7cc6	-0.02105559
23	0x3c3a800c	0.011383068
24	0x3d6f015a	0.0583509
25	0x3eec7c1b	0.46188435
26	0xbc329466	-0.010899639
27	0xbd0ad047	-0.033890035
28	0x3b93fa29	0.0045159054
29	0xbdb38943	-0.08766415
30	0xbd623be9	-0.055232916
31	0xbe614d00	-0.2200203
32	0x3d28eb1c	0.041239843
33	0x3db8cd1f	0.09023499
34	0xbdb8ae99	-0.09017677
35	0x3d1bc03d	0.03802513
36	0xbe4b485d	-0.19851823
37	0xbd56cfb6	-0.052444182
38	0xbe00b696	-0.12569651
39	0x3e425860	0.18979025
40	0x3e54c587	0.20778476
41	0x3e0bb33f	0.13642596
42	0xbe1403a3	-0.14454512
43	0x3d85c41f	0.06531548
44	0x3c9c8867	0.01910801
45	0x3daa2fb9	0.083098836
46	0xbd5a2060	-0.05325353
47	0xbd3a16fe	-0.045432083
48	0xbe214199	-0.1574768
49	0xbd879469	-0.06620104
50	0x3e659014	0.22418243
51	0x3e460a05	0.1933976
52	0xbd8de2bd	-0.069280125
53	0x3e00461f	0.12526749
54	0x3ed617d2	0.41815048
55	0xbdfecf54	-0.124418885
56	0x3c96544b	0.01835074
57	0x3d2a6f43	0.041610014
58	0x3e8acc80	0.27109146
59	0x3d1f0d06	0.03883078
60	0xbe5f709f	-0.21820305
61	0x3dcf8d70	0.10134399
62	0x3d9def61	0.077116735
63	0xbe8099d3	-0.2511736
64	0xbdf25eb3	-0.11834469
65	0xbbff5153	-0.007791677
66	0xbd7fd20b	-0.062456172
67	0xbd5ba835	-0.05362721
68	0xbcb07fd4	-0.021545328
69	0xbe16f681	-0.14742471
70	0x3c049e87	0.0080944365
71	0xbe57d42e	-0.21077034
72	0x3b98769f	0.0046528126
73	0xbdfaea64	-0.12251738
74	0xbe60ef97	-0.21966396
75	0xbda48ecb	-0.08035048
76	0x3d4a2ffd	0.04936217
77	0x3e59f146	0.21283445
78	0xbe0606ac	-0.13088483
79	0x3e0a9878	0.13534725
80	0xbd184be1	-0.03718174
81	0xbe978c93	-0.29599437
82	0xbdf78a10	-0.1208688
83	0x3e8395cf	0.25700232
84	0x3d4e9fa9	0.050445233
85	0xbb104479	-0.002201347
86	0x3d8503d8	0.06494874
87	0xbe19d1b5	-0.15021403
88	0x3e3cf67f	0.18453406
89	0xbe1c07aa	-0.15237299
90	0x3d3fbc60	0.046810508
91	0x3e051003	0.12994389
92	0xbe5f979b	-0.21835177
93	0xbd9e16e8	-0.07719213
94	0xbea8ab84	-0.32943356
95	0x3c5b0558	0.013367973
96	0xbdec5e21	-0.11541391
97	0x3d87ef34	0.06637421
98	0x3e8e8d32	0.27842098
99	0x3ebb6355	0.36599222
100	0x3dd4c325	0.10388783
101	0x3ec5a734	0.38604128
102	0x3cb93f02	0.022613052
103	0xbd263881	-0.04058123
104	0x3ecde663	0.40214834
105	0x3e86cf6b	0.26330122
106	0x3e0a1dc4	0.13487917
107	0x3e14fe84	0.14550215
108	0xbe18d1c0	-0.14923763
109	0x3e4fff56	0.20312247
110	0xbd226893	-0.03965051
111	0xbda7a650	-0.081860185
112	0x3e50ba5d	0.20383592
113	0xbdd73464	-0.105080396
114	0xbea43475	-0.32071272
115	0x3e5d0bb4	0.21586496
116	0x3da9dff5	0.082946695
117	0x3e2d5134	0.16925508
118	0x3e2dd403	0.16975407
119	0x3ea0c7ad	0.3140234
120	0x3e57d09e	0.21075675
121	0x3ddfcfd4	0.10928312
122	0x3e242afd	0.16032024
123	0xbe0ae38e	-0.13563368
124	0xbc527077	-0.0128441965
125	0xbda200f6	-0.079103395
126	0xbea7b704	-0.32756817
127	0xbddd760f	-0.108135335
128	0xbda3df65	-0.080015935
129	0xbe8123da	-0.25222665
130	0x3e228c22	0.15873769
131	0xbc547780	-0.012967944
132	0xbe3a9ac2	-0.18223098
133	0x3e28f80e	0.16500875
134	0xbe0b0bcc	-0.13578719
135	0x3e677793	0.22604208
136	0x3d313279	0.043261025
137	0x3db24f0d	0.08706484
138	0x3df02dab	0.117274605
139	0x3bbb402c	0.005714437
140	0xbe3bdc86	-0.18345842
141	0xbe95a05f	-0.29223916
142	0xbe39d52b	-0.18147723
143	0xbd841369	-0.06449015
144	0xbe2180d5	-0.15771802
145	0xbc3f3bf7	-0.011672012
146	0xbce8fe72	-0.028441641
147	0xbd6e2fa7	-0.058150914
148	0x3d9f5613	0.07780089
149	0xbaec73f5	-0.0018039929
150	0xbe4f7af7	-0.20261751
151	0x3d5af4ac	0.053455994
152	0xbe4e0a0b	-0.20121019
153	0x3d004f7e	0.03132581
154	0xbe85b86c	-0.26117265
155	0xbe53c9d3	-0.20682459
156	0x3eb75f30	0.3581481
157	0x3cb3ac31	0.021932693
158	0x3e655a1f	0.2239766
159	0xbe0b87f8	-0.13626087
160	0xbdd344b8	-0.103158414
161	0x3e0e4b31	0.13895871
162	0xba18c397	-0.0005827485
163	0x3e440ca7	0.19145451
164	0xbe4e4f10	-0.20147347
165	0xbdf8d3b2	-0.12149753
166	0xbe186061	-0.14880516
167	0x3e5dfcd5	0.21678479
168	0xbd0d74fe	-0.0345354
169	0xbdfe65c5	-0.12421755
170	0x3e6433ea	0.22285429
171	0xbe27f0a6	-0.16400394
172	0xbe84715a	-0.2586773
173	0x3d9c646f	0.07636344
174	0xbd37e85d	-0.044899333
175	0xbe40e79e	-0.18838355
176	0xbda50310	-0.08057225
177	0xbc80811e	-0.015686568
178	0x3d8236b2	0.063580886
179	0x3e01be32	0.1267021
180	0xbd3359c0	-0.043786764
181	0x3d1dde38	0.038542002
182	0xbc024507	-0.007951028
183	0x3e9881ac	0.29786432
184	0x3dfba665	0.122875966
185	0xbd990d04	-0.07473186
186	0xbe559d82	-0.20860866
187	0x3de76e88	0.11300379
188	0x3e67f101	0.2265053
189	0x3d80fc2e	0.062980995
190	0x3dc04edd	0.09390042
191	0xbdffa430	-0.12482488
192	0xbd19d1c2	-0.037553556
193	0xbdbcd252	-0.09219803
194	0x3df6b4f0	0.1204623
195	0xbd7f3b7f	-0.0623126
196	0x3bca3b29	0.006171603
197	0xbe1ff59e	-0.1562104
198	0x3c95b884	0.01827646
199	0x3e8f9224	0.28041184
200	0x3e5374ae	0.20649979
201	0xbc9e0d1c	-0.01929336
202	0x3cfc084c	0.030765675
203	0x3e49191b	0.19638483
204	0xbdcddffb	-0.100524865
205	0xbd3daf5e	-0.04630982
206	0x3e089dd0	0.1334145
207	0x3de2df63	0.11077764
208	0xbd90a9d4	-0.07063642
209	0xbedcf021	-0.43151954
210	0x3e803862	0.25043017
211	0xbe174f90	-0.14776444
212	0xbec8f1f0	-0.39247084
213	0xbe18ebf2	-0.14933756
214	0xbe574b41	-0.21024801
215	0x3e7caebc	0.24676031
216	0x3df55c61	0.119805105
217	0xbea7cd1b	-0.3277367
218	0xbc559566	-0.013036108
219	0x3d75173c	0.05983661
220	0xbe89b10a	-0.26892883
221	0xbcc81f9c	-0.024429135
222	0xbd067f28	-0.03283611
223	0xbea0bb6c	-0.31392992
224	0x3eaa3cb5	0.3324944
225	0xbda53d75	-0.080683626
226	0x3e81de64	0.25364983
227	0x3dc6a8b9	0.0970015
228	0xbd47c200	-0.048768997
229	0x3da865c5	0.08222536
230	0xbcd50d0a	-0.026007194
231	0x3e371806	0.17880258
232	0x3c9296b3	0.017894125
233	0x3e350831	0.17678906
234	0x3e0621fc	0.13098902
235	0x3e53e3d5	0.2069238
236	0xbc02b738	-0.007978253
237	0xbc135157	-0.008991561
238	0xbcc232be	-0.023705836
239	0x3d03bdbf	0.032163378
240	0x3cfb8e98	0.030707642
241	0x3d132298	0.035921663
242	0x3d80dcc0	0.06292105
243	0xbd733807	-0.059379604
244	0xbe8fb00c	-0.28064
245	0xbddebd66	-0.10875969
246	0x3d09ed77	0.03367373
247	0x3ddc3e38	0.10754055
248	0xbe0e40dc	-0.1389193
249	0xbd84c08e	-0.064820394
250	0x3d8b5fb6	0.06805365
251	0x3e0b1dab	0.13585536
252	0x3b860130	0.004089497
253	0x3db5ea9f	0.08882641
254	0xbe934630	-0.28764486
255	0x3cd2924e	0.02570453

value_stream.0.bias f4 [64]
0	0xbe41f7ba	-0.18942156
1	0xbe14f2ef	-0.14545797
2	0xbd102d55	-0.035199482
3	0xbde219a2	-0.11040045
4	0x3e470763	0.19436412
5	0xbdce5aa7	-0.10075884
6	0xbe35556d	-0.17708369
7	0xbc97bf04	-0.0185237
8	0x3df12e2a	0.11776383
9	0xbe106b9f	-0.14103554
10	0x3d0436c8	0.032278806
11	0x3e285395	0.16438134
12	0x3e37115e	0.17877719
13	0xbdd3cdbe	-0.103419766
14	0x3e5d7569	0.2162682
15	0x3e0ebfd4	0.13940364
16	0x3da062df	0.07831358
17	0xbe5b4962	-0.21414712
18	0xbe2fb8b8	-0.17160308
19	0x3e66ff4b	0.22558324
20	0x3e3ba419	0.18324317
21	0xbe02ada3	-0.1276155
22	0x3e048603	0.12941746
23	0x3e3dc66b	0.18532722
24	0xbdf07ac7	-0.11742168
25	0xbe5388aa	-0.20657602
26	0x3dc01f99	0.09381027
27	0x3e184e7f	0.14873694
28	0xbd853aa0	-0.065053225
29	0xbdb61b58	-0.08891934
30	0xbdd94126	-0.10608129
31	0xbd293912	-0.041314192
32	0x3e770eda	0.24126759
33	0xbd49ee81	-0.04929972
34	0x3e883e36	0.26609963
35	0xbe758b50	-0.23978925
36	0xbd7e949f	-0.062153455
37	0xbd9fdc66	-0.078057095
38	0xbe3ee34a	-0.18641391
39	0xbdeea018	-0.11651629
40	0xbe64e35e	-0.22352359
41	0xbd82525b	-0.06363364
42	0x3e2df4e2	0.16987947
43	0x3e1dc55d	0.1540732
44	0x3e1e2dab	0.15447108
45	0xbc8cc817	-0.017185254
46	0x3e17e583	0.14833646
47	0x3e677bdb	0.22605841
48	0xbcc4ab2b	-0.0240074
49	0xbd180791	-0.03711659
50	0xbdc771fd	-0.097385384
51	0x3e02cd5e	0.12773654
52	0x3deff171	0.11715973
53	0xbdf81e72	-0.12115182
54	0xbcd869a2	-0.026417557
55	0xbe2411ac	-0.16022366
56	0xbe6531dd	-0.22382303
57	0x3da6113e	0.081087574
58	0x3ded79f1	0.11595524
59	0x3e0a1b1e	0.13486907
60	0x3e6049f4	0.21903211
61	0x3e287c9c	0.16453785
62	0xbe0513a0	-0.12995768
63	0xbba95e98	-0.005168747

value_stream.2.weight f4 [1, 64]
0	0xbe001b1c	-0.12510341
1	0xbeb972d9	-0.36220434
2	0xbaf2cc10	-0.001852395
3	0xbe310742	-0.17287925
4	0x3deb23ff	0.11481475
5	0xbe2f33ba	-0.17109576
6	0xbd6a581d	-0.057212938
7	0xbe79903a	-0.24371424
8	0x3d95c7f5	0.073135294
9	0xbd410a2c	-0.04712884
10	0xbbb7cbad	-0.005608997
11	0x3e200bf2	0.15629557
12	0x3ebddfa6	0.37084693
13	0xbd38b329	-0.045092735
14	0x3f124326	0.5713371
15	0x3eb8a1ff	0.36061093
16	0x3e4b5bff	0.19859312
17	0xbddf6fa8	-0.109099686
18	0xbdb36dd2	-0.08761181
19	0x3f0b099a	0.54311526
20	0x3e040ff0	0.12896705
21	0xbe71aa4f	-0.23600124
22	0x3e5442ba	0.20728579
23	0x3e32b842	0.17453101
24	0xbe81d2a4	-0.2535602
25	0xbda329f2	-0.07966985
26	0x3e0d791d	0.13815732
27	0x3ebce293	0.36891612
28	0xbe12c830	-0.14334178
29	0xbe2b2e54	-0.16716892
30	0xbd945d90	-0.07244408
31	0xbde4947b	-0.11161133
32	0x3e3b3f7c	0.18285936
33	0xbe7ccd6b	-0.24687736
34	0x3dd835b7	0.1055712
35	0xbe203718	-0.15646017
36	0xbe67fabe	-0.22654244
37	0xbd1be8dc	-0.03806387
38	0xbebf89a0	-0.37409687
39	0xbe73d8c3	-0.23813157
40	0xbec38c3f	-0.38192937
41	0xbdfd0cbc	-0.123559445
42	0x3eda45fa	0.42631513
43	0x3ea9b009	0.33142117
44	0x3edac267	0.42726442
45	0xbe124e38	-0.1428765
46	0x3e1a33b8	0.15058792
47	0x3e6d3990	0.2316649
48	0xbdccb0ce	-0.0999466
49	0xbd486aec	-0.048930094
50	0xbe8ffe35	-0.28123632
51	0x3e7966f2	0.24355677
52	0x3e2b610d	0.1673624
53	0xbe72db87	-0.23716556
54	0xbe0e0a15	-0.13871033
55	0xb99d9452	-0.0003005588
56	0xbe2f892b	-0.17142169
57	0x3dc18beb	0.09450515
58	0x3de793cf	0.11307489
59	0x3e591bf9	0.21202077
60	0x3ed2ac2f	0.4114699
61	0x3eca4bb0	0.3951087
62	0xbe2e4b28	-0.17020857
63	0xbdeaf711	-0.114729054

advantage_stream.0.weight f4 [64, 128]
0	0x3d4acebd	0.049513567
1	0xbd4cb93f	-0.049981352
2	0x3dd46fd5	0.10372893
3	0xbeb79921	-0.35859016
4	0xbe94f565	-0.2909347
5	0xbd3caf97	-0.046065893
6	0x3e49373c	0.19649976
7	0xbe4e294e	-0.20132944
8	0x3d68581d	0.056724656
9	0xbdf33020	-0.118744135
10	0x3e1a80e5	0.15088232
11	0x3d9d4a8c	0.07680234
12	0xbeace088	-0.33765054
13	0xbd971be7	-0.07378369
14	0x3e47126e	0.19440624
15	0xb9116bbd	-0.00013868413
16	0x3cbad106	0.022804748
17	0xbd75d5cd	-0.06001835
18	0x3e0bf3b1	0.1366718
19	0x3dae8717	0.0852186
20	0xbda82fa5	-0.082122125
21	0x3e0565ec	0.13027161
22	0x3dec523e	0.11539124
23	0x3e9f8405	0.3115541
24	0x3d878d6c	0.06618771
25	0x3da0f573	0.07859316
26	0x3c7aaf8d	0.015300644
27	0x3e02ab49	0.12760653
28	0x3d4663b0	0.048434913
29	0xbe94aecc	-0.2903961
30	0x3f0db8e8	0.5536027
31	0xbdee5118	-0.11636561
32	0xbe804c1f	-0.25058076
33	0xbee19fd5	-0.44067255
34	0xbeaf761d	-0.342698
35	0xbd9b03ed	-0.07569108
36	0xbe3d8aea	-0.18510023
37	0xbe584d85	-0.21123321
38	0x3dada067	0.0847786
39	0xbe38d652	-0.18050507
40	0x3d31307e	0.043259136
41	0xbdfe4cbe	-0.12416981
42	0xbd86beb9	-0.06579346
43	0x3dfbb107	0.12289625
44	0x3e4e06d1	0.20119788
45	0x3c828e8a	0.015937109
46	0xbe2e48b1	-0.17019917
47	0xbd6cd74a	-0.057822503
48	0x3de2888a	0.11061199
49	0xbeab6010	-0.33471727
50	0x3d54a17a	0.05191181
51	0x3e5b439d	0.21412511
52	0xbdba9390	-0.091101766
53	0x3d9f1cdf	0.077691786
54	0xbd8226ba	-0.06355043
55	0xbbe5bcf3	-0.00701105
56	0xbdaa9fff	-0.08331298
57	0x3e283a1b	0.16428415
58	0x3d0c2a50	0.03422004
59	0xbe478686	-0.1948491
60	0xbcf12395	-0.029435912
61	0xbd9ef869	-0.07762224
62	0x3e9b8f55	0.3038279
63	0xbdf2da98	-0.118581
64	0xbdf71b7f	-0.12065791
65	0x3cc96997	0.024586482
66	0xbd781e2b	-0.060575645
67	0x3d7c4306	0.061587356
68	0x3e15015a	0.14551297
69	0x3e41c559	0.18922938
70	0x3db7b048	0.0896917
71	0xbe18eae2	-0.1493335
72	0xbe6e1da3	-0.23253493
73	0xbc994fe1	-0.018714847
74	0x3cae4722	0.021274153
75	0x3e51fe16	0.20507082
76	0xbe091691	-0.13387515
77	0x3e743e6b	0.23851936
78	0xbe622d2d	-0.22087546
79	0xbd6dc3d3	-0.05804808
80	0xbbd099bc	-0.006365983
81	0xbe48cc32	-0.19609144
82	0x3e027105	0.12738426
83	0xbddfa320	-0.109197855
84	0xbcbeffbe	-0.023315307
85	0xbe493345	-0.19648464
86	0xbde12a55	-0.10994402
87	0xbdd314d7	-0.10306709
88	0x3d81b147	0.06332641
89	0xbe89cc48	-0.26913667
90	0x3cd8bbfa	0.026456822
91	0xbf239898	-0.63904715
92	0x3d5aca41	0.05341554
93	0xbe3a6a7f	-0.18204688
94	0xbec58c85	-0.3858377
95	0xbb99f77b	-0.0046986914
96	0x3da20d8e	0.079127416
97	0xbe066351	-0.13123824
98	0x3d573fc8	0.05255106
99	0x3def2544	0.1167703
100	0x3e2bfec9	0.16796412
101	0xbdcd11d6	-0.100131676
102	0x3e14e9a1	0.14542247
103	0xbddcf29a	-0.1078846
104	0x3de9389e	0.11387752
105	0x3d44b48f	0.048023757
106	0xbdd7f334	-0.10544434
107	0xbe52ae95	-0.2057441
108	0xbcd89f46	-0.026443135
109	0x3e1d90f0	0.1538732
110	0xbeddbfa7	-0.43310282
111	0x3eac6949	0.33674076
112	0xbca63ea9	-0.02029355
113	0xbe56b96f	-0.20969175
114	0x3eabff87	0.3359339
115	0xbe587193	-0.21137075
116	0x3dfd28ff	0.12361335
117	0xbdf76dfb	-0.12081524
118	0x3e35e792	0.17764118
119	0xbc83409b	-0.016022017
120	0x3e792e65	0.24334104
121	0x3e2c5346	0.16828641
122	0x3ee017e6	0.43768233
123	0xbe91c3b3	-0.2846962
124	0xba2aa05c	-0.0006508881
125	0xbe02bdfd	-0.12767787
126	0xbe9eb529	-0.3099759
127	0x3dadae69	0.08480532
128	0xbe578c50	-0.21049619
129	0xbe2450f1	-0.16046502
130	0xbdaadf92	-0.08343424
131	0xbe859e80	-0.26097488
132	0x3e191973	0.14951114
133	0x3d8ff207	0.07028585
134	0xbbdc21ec	-0.006717911
135	0xbde7da79	-0.11320967
136	0xbd63a199	-0.055574033
137	0x3b7534a7	0.0037415416
138	0x3e6f7c15	0.23387177
139	0x3c6e1f1d	0.014533785
140	0xbcde4b3f	-0.02713549
141	0xbdaf9092	-0.085724965
142	0xbe4a8355	-0.19776662
143	0x3e4e681f	0.20156907
144	0xbcfc1d23	-0.030775612
145	0x3eebadea	0.46031123
146	0xbd26b4a4	-0.040699616
147	0x3d709a01	0.05874062
148	0xbd77c051	-0.06048614
149	0xbe0c7f1e	-0.13720366
150	0x3d85e533	0.06537857
151	0x3ea9d8d3	0.33173236
152	0xbc93e9bf	-0.018055795
153	0xbe39feb8	-0.18163574
154	0x3c363def	0.011123165
155	0x3eb80a61	0.35945418
156	0xbdd30458	-0.10303563
157	0x3d0207ad	0.0317456
158	0x3dcd02e4	0.10010317
159	0x3e357dc8	0.17723763
160	0xbe43b2a1	-0.1911111
161	0x3bfe2a2b	0.0077564917
162	0xbe3e1573	-0.1856287
163	0xbda98eff	-0.082792275
164	0xbd9a9ff7	-0.07550042
165	0x3e1af83a	0.15133753
166	0x3e7ca1a8	0.24671042
167	0xbe084e23	-0.13311057
168	0xbc49909f	-0.012302547
169	0xbd51e606	-0.051244758
170	0xbdfbf2d0	-0.12302172
171	0x3d942b86	0.07234864
172	0xbd52f3bc	-0.051501974
173	0x3e75bf2c	0.23998708
174	0xbda0ad3f	-0.07845544
175	0x3dc757f4	0.097335726
176	0xbe16fc88	-0.1474477
177	0xbe0891e4	-0.13336903
178	0x3f1e54cc	0.6184814
179	0xbcc3b701	-0.023890974
180	0xbc1e3860	-0.009656996
181	0x3ee5a787	0.44854376
182	0x3e3b824e	0.18311426
183	0x3e63b9c7	0.22238837
184	0x3eb372e1	0.35048583
185	0xbdb05c1e	-0.0861132
186	0x3dfa3771	0.12217606
187	0xbe00f346	-0.12592801
188	0x3d4eab46	0.050456308
189	0x3c8fc446	0.017549645
190	0x3df8fe30	0.121578574
191	0xbe4700a2	-0.19433835
192	0xbd677b3c	-0.05651401
193	0xbd437a18	-0.04772386
194	0xbd0ef887	-0.034904983
195	0xba4e3547	-0.00078662153
196	0xbe038066	-0.12841949
197	0x3dff0c4a	0.12453516
198	0xbd517605	-0.051137943
199	0xbe075b6a	-0.13218465
200	0x3d29dcad	0.04147022
201	0x3d12db8d	0.03585391
202	0x3f1f74a4	0.62287354
203	0x3e0bfc35	0.13670428
204	0x3c1558f1	0.009115444
205	0x3eec7265	0.46181026
206	0x3c9d9825	0.019237587
207	0xbe8f0c6b	-0.27939162
208	0xbc595866	-0.013265705
209	0x3e1547fe	0.14578244
210	0x3e7477e4	0.2387386
211	0xbebdea40	-0.3709278
212	0xbe62ae14	-0.22136718
213	0xbe59fcfb	-0.2128791
214	0x3c15acb8	0.009135418
215	0xbf19e153	-0.6010944
216	0x3d290aa6	0.04126992
217	0xbe5570be	-0.20843789
218	0x3d794fde	0.060867183
219	0xbe789eb9	-0.24279298
220	0x3c6413f2	0.013920771
221	0xbdf197a6	-0.11796503
222	0xbe48ec77	-0.19621454
223	0x3d47e44b	0.0488017
224	0x3e18b8c2	0.1491423
225	0x3cf352a5	0.029702494
226	0x3e880f91	0.26574376
227	0xbe6670a8	-0.22503912
228	0x3e30fd3e	0.17284104
229	0xbe1af43e	-0.15132234
230	0x3daf86a8	0.085706055
231	0xbe97cd35	-0.29648748
232	0x3c301a4a	0.010748455
233	0xbe94c965	-0.29059902
234	0xbe0cca69	-0.13749088
235	0x3e770721	0.24123813
236	0xbab1925d	-0.0013547648
237	0xbd51415b	-0.05108772
238	0xbdcfff51	-0.101561196
239	0x3f7a9776	0.9788736
240	0xbb6104cf	-0.0034335142
241	0xbdabe5c6	-0.08393435
242	0xbd141e7f	-0.036161896
243	0x3be05646	0.006846222
244	0x3b256ab3	0.00252406
245	0x3d2b8203	0.041872036
246	0x3de1d410	0.11026776
247	0x3e606a64	0.21915585
248	0xbe082b86	-0.13297853
249	0x3e06e6ac	0.13173932
250	0xbeb0dc70	-0.3454318
251	0x3d76ceae	0.0602557
252	0x39ad5de9	0.000330671
253	0xbdce9ae5	-0.100881375
254	0xbe62adda	-0.22136632
255	0x3e4456c7	0.19173728

advantage_stream.0.bias f4 [64]
0	0x3ca925b5	0.020647863
1	0x3b7a62ee	0.003820594
2	0xbd042fc5	-0.03227212
3	0xbc7c556f	-0.015401228
4	0xbd0f4c34	-0.034984782
5	0xbdd30836	-0.103043005
6	0xbd12bb23	-0.035823
7	0xbcbc45d2	-0.022982512
8	0xbd227904	-0.03966619
9	0x3d289a04	0.041162506
10	0xbd1a08fb	-0.03760622
11	0x3dca2424	0.098701745
12	0xbcd670ec	-0.026176892
13	0xbdaa8f01	-0.08328057
14	0x3df4e55b	0.119578086
15	0xbc73aac8	-0.01487226
16	0x3df07fe4	0.11743143
17	0xbcdbe6f7	-0.026843531
18	0xbd302594	-0.043004587
19	0xbd36e3ac	-0.04465072
20	0xbbab84b4	-0.0052343253
21	0x3dcf536f	0.101233356
22	0x3d0c11a0	0.034196496
23	0xbcbe9f88	-0.02326943
24	0x3d8c87b9	0.068618245
25	0x3d00f080	0.03147936
26	0xbd483d80	-0.048886776
27	0xbd38b480	-0.045094013
28	0xbbdd31b1	-0.0067503084
29	0xbdd01af5	-0.10161392
30	0x3cbc8325	0.023011753
31	0x3d26cf78	0.0407252
32	0x3d4a0fa9	0.04933134
33	0xbd97d45f	-0.074135534
34	0xbd88d294	-0.066807896
35	0x3d817508	0.0632115
36	0x3d33d40c	0.043903396
37	0xbbf96952	-0.007611432
38	0x3d0fbb4d	0.035090733
39	0x3c782df0	0.015147671
40	0x3b6e249d	0.0036337741
41	0xbd7cad0c	-0.061688468
42	0x3ca01bb1	0.019544454
43	0x3c1cd47f	0.009572147
44	0xbe02e55f	-0.1278281
45	0xbdc6b936	-0.09703295
46	0x3d7b3a52	0.061334915
47	0xbd3dbe15	-0.046323854
48	0x3e12f563	0.1435142
49	0x3dadb194	0.08481136
50	0xbc82183e	-0.0158807
51	0x3b3516e5	0.0027632054
52	0xbe079ee0	-0.132442
53	0x3cf3994d	0.029736185
54	0x3d9c9245	0.07645086
55	0xbd2b62a7	-0.04184213
56	0x3d341679	0.043966744
57	0xbe127d73	-0.14305668
58	0x3def2b87	0.11678224
59	0xbdb9764b	-0.09055766
60	0xbd50b4da	-0.050953723
61	0xbd8a967c	-0.06766984
62	0x3b4d6594	0.0031341063
63	0x3d885e84	0.066586524

advantage_stream.2.weight f4 [4, 64]
0	0x3e3ceccd	0.18449707
1	0x3e01f2ae	0.12690231
2	0x3f3066ef	0.68907064
3	0xbddbcfae	-0.10732971
4	0x3e7e71a5	0.2484804
5	0x3e68d30e	0.22736761
6	0xbd95b602	-0.07310106
7	0xbf938bd5	-1.1527048
8	0x3e9ad2e7	0.3023903
9	0x3e6320d2	0.22180489
10	0xbea60cad	-0.32431546
11	0xbf815bf0	-1.0106182
12	0x3db72cb4	0.08944073
13	0xbe322ead	-0.17400618
14	0x3ec330f8	0.38123298
15	0x3d9d566a	0.07682498
16	0x3ebf6682	0.37382895
17	0xbc8a1cb3	-0.016859388
18	0x3cda3755	0.026637712
19	0xbe83cdcc	-0.25742948
20	0x3e4b8b45	0.19877346
21	0xbdda80f2	-0.106691256
22	0xbe26334a	-0.16230503
23	0x3e797f99	0.24365081
24	0xbce05823	-0.027385777
25	0xbf230190	-0.6367426
26	0x3eca6591	0.39530614
27	0x3d6ff87b	0.05858658
28	0x3eab8619	0.33500746
29	0x3e9d88ab	0.30768332
30	0xbeaa7b97	-0.33297417
31	0x3ec27a18	0.37983775
32	0x3ed93f2e	0.42431015
33	0x3e59bf9b	0.21264498
34	0xbd8eadc0	-0.06966734
35	0x3c666550	0.014062241
36	0x3e4f486c	0.2024247
37	0x3e582ece	0.21111605
38	0xbefaf6ee	-0.49016517
39	0x3dff461e	0.12464546
40	0x3d02e11e	0.03195297
41	0x3e277fc4	0.16357332
42	0xbf6a0b40	-0.91423416
43	0x3ed7ee5b	0.42174038
44	0x3ebf6550	0.37381983
45	0x3ee5a949	0.44855717
46	0x3f222e6f	0.633521
47	0xbd1a5c50	-0.037685692
48	0xbd878c55	-0.06618563
49	0x3d15e72d	0.03659742
50	0xbf59e519	-0.851152
51	0x3e8b7697	0.27238914
52	0x3ec6fce7	0.38864824
53	0xbe19be82	-0.15014079
54	0x3f089ec5	0.53367263
55	0xbd53633d	-0.051608313
56	0x3edb2afe	0.42806238
57	0xbe93500f	-0.28772017
58	0xbe1d74c2	-0.15376571
59	0xbdfcb163	-0.12338521
60	0x3dd95b35	0.106130995
61	0xbd28c7b1	-0.041206066
62	0x3e9d9374	0.3077656
63	0x3e55ec72	0.20890978
64	0x3e047c14	0.12937957
65	0x3d5f5f34	0.054534152
66	0x3e0aa029	0.13537659
67	0xbe928f83	-0.28625116
68	0xbf512338	-0.81694365
69	0xbdd389b0	-0.10328996
70	0x3d7c6bc2	0.061626203
71	0x3e5e4b7b	0.21708481
72	0xbd765bae	-0.060146026
73	0x3e8d72f1	0.27626756
74	0xbf58a0d2	-0.8462039
75	0x3e6c3f3b	0.23070996
76	0xbe6412ff	-0.22272871
77	0xbe450df3	-0.19243602
78	0x3e8e5a2c	0.2780317
79	0x3d2df9d2	0.042474575
80	0x3cfccdb5	0.030859808
81	0xbf229a7d	-0.6351698
82	0x3de18436	0.11011545
83	0x3e30549f	0.1721978
84	0xbf06db37	-0.52678245
85	0x3ebd5d4e	0.36985248
86	0xbf36a5dd	-0.7134684
87	0xbf8e26d4	-1.1105599
88	0xbf33842b	-0.7012355
89	0x3d9a256b	0.07526668
90	0x3e44b3d8	0.1920923
91	0xbe7dd3e5	-0.24787863
92	0x3c923a38	0.017850026
93	0xbe5d9084	-0.2163716
94	0xbf1ae4a5	-0.60505134
95	0x3ed83931	0.42231134
96	0x3ed5c804	0.41754162
97	0x3e869299	0.2628372
98	0xbc9d6e00	-0.019217491
99	0xbca54c36	-0.020177942
100	0xbd16ab7c	-0.036784634
101	0x3e77982e	0.24179146
102	0x3ea83f19	0.3286064
103	0x3daa3275	0.08310405
104	0xbf56339d	-0.83672506
105	0xbe7be8ed	-0.24600573
106	0x3d83244f	0.0640341
107	0x3e4b051d	0.1982617
108	0xbe95437e	-0.29153055
109	0x3d8e3296	0.06943242
110	0x3ebd9fa4	0.3703586
111	0xbe15329b	-0.14570086
112	0x3f06a201	0.5259095
113	0x3eb574a0	0.3544054
114	0x3c6ffc38	0.014647536
115	0xbf029947	-0.5101513
116	0xbf0b6dab	-0.54464215
117	0x3cd14f7e	0.0255506
118	0xbd9e7510	-0.07737172
119	0x3e13096c	0.14359063
120	0x3e5f1884	0.21786696
121	0xbe1f42d9	-0.15552844
122	0x3f44ede7	0.7692551
123	0xbd1cc8ad	-0.038277317
124	0x3e5e4cce	0.21708986
125	0x3c578ec3	0.013156596
126	0x3e471a41	0.19443609
127	0x3ea1745d	0.3153409
128	0x3d75d798	0.06002006
129	0xbf0246cb	-0.5088927
130	0xbf399c52	-0.7250415
131	0xbe025322	-0.12727025
132	0xbd6e80ed	-0.058228422
133	0xbe1ff8b4	-0.15622216
134	0xbc02d0c6	-0.007984346
135	0x3f293f43	0.66112155
136	0xbe425f6f	-0.18981718
137	0xbe20e96f	-0.15714048
138	0x3f2650ee	0.6496724
139	0x3eb98b12	0.36238915
140	0xbe32dac2	-0.17466262
141	0xbdea16e5	-0.11430148
142	0xbebaf664	-0.36516106
143	0x3ebb4e87	0.3658335
144	0x3e99d098	0.30041957
145	0xbcf0f8b8	-0.029415473
146	0xbf6cf1e9	-0.92556626
147	0xbe9eaec5	-0.30992714
148	0x3f122bcc	0.5709808
149	0x3b02303e	0.001986518
150	0x3ef42029	0.47680786
151	0x3eaab7d4	0.33343375
152	0x3e2081ba	0.15674487
153	0x3ea8dbd5	0.3298022
154	0xbe5d9362	-0.21638253
155	0x3efc1faa	0.49242908
156	0x3ea2cfeb	0.31799254
157	0xbe7fbf6a	-0.24975362
158	0x3ee6bed1	0.45067456
159	0x3eae130a	0.339989
160	0xbf1f8f81	-0.62328345
161	0xbc39c203	-0.01133776
162	0xbe250288	-0.16114247
163	0x3f0e1a05	0.5550845
164	0xbd71ebd0	-0.05906278
165	0xbf142651	-0.57870966
166	0x3e9a752b	0.30167517
167	0x3d99ad88	0.075038016
168	0x3e934465	0.28763118
169	0x3e0d8a52	0.13822296
170	0x3eda8d12	0.42685753
171	0x3d9e4f46	0.07729964
172	0x3dba5154	0.09097543
173	0xbe30f7e1	-0.17282058
174	0xbe045176	-0.129217
175	0xbe059f3e	-0.13049027
176	0xbe0a742f	-0.13520883
177	0xbeb6ee10	-0.35728502
178	0x3db75e79	0.08953566
179	0x3ea46639	0.3210924
180	0x3e8514a4	0.2599231
181	0xbf1f327b	-0.621864
182	0xbd8657ad	-0.065596916
183	0xbe732616	-0.23744997
184	0xbf4ce8f2	-0.80042946
185	0x3d42e46e	0.04758113
186	0xbd22f56d	-0.039784838
187	0x3e08dc51	0.13365294
188	0x3bd6a172	0.0065500075
189	0x3ee41557	0.4454753
190	0xbe519a29	-0.20468964
191	0xbe9132c7	-0.28359053
192	0x3d3b6fdb	0.04576097
193	0x3e24667a	0.16054717
194	0x3e687f76	0.22704872
195	0xbeb7310b	-0.35779604
196	0xbda350b2	-0.07974376
197	0x3eadca9c	0.3394364
198	0xbe92edc2	-0.2869702
199	0x3eeea890	0.46612978
200	0x3e35a978	0.17740428
201	0x3ea0216e	0.31275505
202	0x3e918244	0.28419697
203	0x3df9ec8e	0.12203322
204	0x3e5c0fc9	0.21490397
205	0x3d1cb8f6	0.03826233
206	0xbe0f6aea	-0.14005628
207	0xbf1e19d9	-0.6175819
208	0xbf44c159	-0.76857525
209	0x3e379034	0.17926103
210	0x3ea342f5	0.31887022
211	0x3ecdb449	0.4017661
212	0x3cd63a6e	0.026150908
213	0xbf029002	-0.5100099
214	0x3eac6137	0.3366792
215	0x3f0325a5	0.51229316
216	0x3e679e9c	0.22619098
217	0x3e48bc93	0.19603185
218	0xbed8c295	-0.42335954
219	0xbf4d764d	-0.8025864
220	0xbe44f32d	-0.19233389
221	0x3d890b45	0.066916026
222	0x3e17a1a7	0.14807759
223	0xbfa2d635	-1.2721621
224	0xbcadea30	-0.021229833
225	0x3e0938ac	0.13400525
226	0x3cb871b7	0.022515161
227	0xbd0d4687	-0.03449109
228	0xbf53754e	-0.8260087
229	0xbec9323e	-0.39296144
230	0x3e0c0dfc	0.1367721
231	0xbc4b21ad	-0.012398166
232	0x3f11e018	0.56982565
233	0x3dd99528	0.106241524
234	0x3f1c5db1	0.6108046
235	0xbf33fe03	-0.70309466
236	0x3e1a5a76	0.1507357
237	0xbed66954	-0.41877234
238	0xbb4cda82	-0.003125817
239	0xbe0c623b	-0.13709347
240	0xbeb3ce8a	-0.35118514
241	0xbec2eab4	-0.3806969
242	0x3e874044	0.26416218
243	0x3e8292da	0.25502664
244	0xbcb29e52	-0.021804009
245	0x3f0376ce	0.51353157
246	0xbde9fb40	-0.11424875
247	0x3d860233	0.06543388
248	0x3f12dab7	0.5736498
249	0x3e1e19a8	0.15439475
250	0xbe943b28	-0.28951383
251	0x3eb022d3	0.3440157
252	0x3d2620b0	0.040558517
253	0x3e0efaaa	0.13962808
254	0xbea47f75	-0.32128492
255	0xbecc9a90	-0.39961672

advantage_stream.2.bias f4 [4]
0	0x3ce58079	0.028015362
1	0xbd28eb4e	-0.04124003
2	0xbe13333f	-0.14375018
3	0xbdc2160d	-0.09476862
