models/snake_dqn_ep400_score6_20250302_153403.pt (torch, 859298 bytes, 44 tensors)

feature_layers.0.weight f4 [128, 24]
0	0x3bcad205	0.006189587
1	0xbf1b97fb	-0.6077878
2	0xbe2cc348	-0.16871369
3	0x3932e446	0.00017060441
4	0xbd9005cd	-0.070323564
5	0x3eb6ecc1	0.35727504
6	0xbe840631	-0.25785974
7	0x3da8294b	0.08211001
8	0xbe357252	-0.17719391
9	0xbbdbb570	-0.0067049786
10	0xbeaf9dd7	-0.3430011
11	0x3e640d21	0.22270633
12	0x3b440e9e	0.002991594
13	0x3ee902d2	0.45509964
14	0x3d9c0cc9	0.07619626
15	0x3ce521b6	0.027970176
16	0xbe83cc0b	-0.2574161
17	0xbe98eb82	-0.29867178
18	0xbf4c188f	-0.79724973
19	0x3e48c4d1	0.1960633
20	0x3eac2809	0.33624294
21	0xbe33208d	-0.17492886
22	0xbf020bdf	-0.50799364
23	0xbe5b2dbe	-0.21404168
24	0xbea861da	-0.32887155
25	0xbf0324d3	-0.51228064
26	0x3d2dbb96	0.042415224
27	0xbef7d742	-0.48406416
28	0xbf034fc9	-0.5129362
29	0x3f15175e	0.5823878
30	0xbe9a8f9b	-0.30187687
31	0xbdc47c99	-0.095940776
32	0x3d949167	0.07254296
33	0xbec5512d	-0.38538495
34	0x3e639a8a	0.2222692
35	0x3eb7be31	0.35887292
36	0x3e16e830	0.1473701
37	0xbf3ad841	-0.7298623
38	0x3e96122e	0.29310745
39	0xbea1a4f5	-0.31571165
40	0x3ba08328	0.0048984475
41	0xbf12b4cd	-0.5730713
42	0xbe9a35a8	-0.3011906
43	0xbda558f0	-0.08073604
44	0x3e574548	0.21022522
45	0x3e654ff4	0.22393781
46	0x3ea83e77	0.32860157
47	0x3edebb02	0.4350205
48	0xbf2cf962	-0.6756803
49	0x3f406ec0	0.7516899
50	0xbf70be7c	-0.94040656
51	0x3d8a1964	0.06743124
52	0x3cb76b4c	0.02239003
53	0x3df9edcc	0.12203559
54	0xbe10515e	-0.14093539
55	0x3da2de73	0.07952585
56	0xbee88f7b	-0.45421967
57	0xbe59113b	-0.21197979
58	0x3ec8d28e	0.3922314
59	0x3d6c22c1	0.05765033
60	0xbde545b5	-0.11194936
61	0xbdf127ba	-0.11775155
62	0xbe6b3250	-0.22968411
63	0x3f3ec461	0.745184
64	0xbf2483fd	-0.642639
65	0x3f3d2a72	0.7389289
66	0x3e330099	0.17480697
67	0xbecf3df2	-0.40476948
68	0x3ed64e2e	0.4185652
69	0x3f18ba1f	0.59659
70	0xbe9cc1ee	-0.30616707
71	0xbdefa70b	-0.11701783
72	0xbe098bab	-0.13432185
73	0x3c14f981	0.0090926895
74	0x3d9cf935	0.0766472
75	0x3d398c50	0.045299828
76	0xbed96fdb	-0.4246815
77	0xbe6cb177	-0.23114572
78	0xbc42d923	-0.01189259
79	0xbeb5e46b	-0.35525832
80	0xbe8ff744	-0.28118336
81	0x3de2f723	0.11082294
82	0x3de12a7a	0.1099443
83	0xbebfe416	-0.37478703
84	0xbee6cee3	-0.45079717
85	0x3dd2a4f9	0.10285372
86	0x3d819384	0.063269645
87	0xbe0d7aa8	-0.13816321
88	0xbe5dc33f	-0.21656512
89	0xbf5fd5a0	-0.8743534
90	0x3e607db4	0.21922952
91	0xbe17ad0f	-0.1481211
92	0x3e0bb82a	0.13644472
93	0x3eb3e311	0.35134175
94	0xbd859957	-0.06523388
95	0x3e732f20	0.23748446
96	0x3e2ec8a6	0.17068729
97	0xbd9b62db	-0.075872146
98	0xbc477206	-0.012173181
99	0x3cea35bf	0.028590081
100	0x3e4dff1c	0.20116848
101	0x3d2a038c	0.04150729
102	0xbe0dd31e	-0.13850066
103	0x3e91ef26	0.28502768
104	0xbd9f01ab	-0.0776399
105	0x3ec8cad1	0.39217237
106	0xbeace66d	-0.3376955
107	0x3ddec724	0.10877827
108	0x3f02bdcc	0.5107086
109	0xbe10c89e	-0.1413903
110	0x3e443fe5	0.19164999
111	0x3d567696	0.052359186
112	0xbf871ceb	-1.05557
113	0xbe978375	-0.2959248
114	0xbd3941ae	-0.045228653
115	0x3ece8b9b	0.40340886
116	0x3e3318a4	0.17489868
117	0xbd884bcc	-0.06655082
118	0x3f363804	0.71179223
119	0xbe9391ad	-0.2882208
120	0x3d35702b	0.044296425
121	0xbdb0090d	-0.08595476
122	0xbeb9e481	-0.36307147
123	0x3bb8c25f	0.005638405
124	0x3dbc02a5	0.09180192
125	0xbd3da3f0	-0.04629892
126	0xbe72a4ea	-0.23695722
127	0x3e07b1a7	0.13251363
128	0xbf12b241	-0.57303244
129	0xbeb7eccf	-0.35922858
130	0xbe6082d2	-0.21924904
131	0xbd925c9e	-0.071465716
132	0x3d84b803	0.0648041
133	0xbd5bd145	-0.05366637
134	0x3e14f2e9	0.14545788
135	0x3f410ec5	0.7541316
136	0xbdd22514	-0.10260978
137	0x3e818db9	0.25303438
138	0x3f30224c	0.6880233
139	0x3db19aed	0.08672128
140	0x3dd1ac00	0.102378845
141	0x3f0618c2	0.5238153
142	0x3ac12745	0.0014736435
143	0x3e920464	0.28518975
144	0x3e9d11d8	0.30677676
145	0x3c5d61ec	0.013512116
146	0x3e7cbbac	0.24680966
147	0xbf200284	-0.6250384
148	0xbdd93f12	-0.10607733
149	0xbe222726	-0.15835246
150	0x3e80df3a	0.25170308
151	0xbe6f8345	-0.23389919
152	0x3d5f4bbf	0.054515596
153	0xbd7fab8f	-0.06241947
154	0xbdc65cd2	-0.09685673
155	0x3eaf5909	0.34247616
156	0xbe8a3f1d	-0.27001277
157	0xbe85f596	-0.2616393
158	0x3ede9f9c	0.43481147
159	0x3f04f508	0.5193639
160	0x3e952070	0.2912631
161	0xbe0d4c6e	-0.13798687
162	0xbe5a02b2	-0.2129009
163	0x3e7e7cf2	0.2485235
164	0xbf2eaf7f	-0.68236536
165	0x3ead44d1	0.33841565
166	0x3f39647f	0.7241897
167	0xbdc78c3d	-0.09743545
168	0xbeeb667d	-0.4597663
169	0x3f0a3bea	0.5399767
170	0xbed9d3a4	-0.4254428
171	0xbddef34e	-0.108862504
172	0xbd848ba2	-0.06471945
173	0xbe21747b	-0.1576709
174	0x3db606f0	0.08888042
175	0x3ddac74a	0.106825426
176	0xbd49d991	-0.049279753
177	0x3ef4a94b	0.4778541
178	0x3eb7c45d	0.35892
179	0x3f2502d6	0.6445745
180	0xbe385d32	-0.18004301
181	0xbf094f6f	-0.5363683
182	0x3dba7d52	0.09105934
183	0xbe70d50c	-0.23518771
184	0xbf2bda52	-0.67130005
185	0x3da76a8e	0.081746206
186	0xbd4b0cb9	-0.04957268
187	0x3e024dd0	0.12724996
188	0xbde83ba6	-0.11339502
189	0xbe8eee65	-0.27916256
190	0x3e8a5244	0.2701589
191	0xbc466cb6	-0.01211088
192	0x3e748260	0.23877859
193	0xbea627b1	-0.32452157
194	0x3eb48300	0.35256195
195	0x3e609049	0.2193004
196	0xbd96d2d6	-0.073644325
197	0x3e013eb8	0.12621582
198	0x3df4ccf3	0.119531535
199	0xbf1487bf	-0.5801963
200	0xbe45a116	-0.1929973
201	0xbcf2b621	-0.029627861
202	0x3e9aab5f	0.3020887
203	0x3d7e565a	0.06209407
204	0x3d707811	0.058708254
205	0xbdff5b66	-0.12468605
206	0x3ea70482	0.32620627
207	0x3e7bbdb7	0.24584089
208	0xbe8847ff	-0.2661743
209	0xbe57fbb3	-0.2109211
210	0x3ed9b511	0.42520955
211	0x3ed4a60a	0.41532928
212	0xbe5ce960	-0.215734
213	0xbdb6f4cc	-0.0893341
214	0x3ef1cc07	0.47225973
215	0x3e205988	0.15659153
216	0xbd066e0d	-0.032819796
217	0xbeacc977	-0.33747455
218	0x3e904433	0.28177032
219	0xbf2bcfa5	-0.67113715
220	0xbe8e54d0	-0.27799082
221	0xbef3c19c	-0.4760865
222	0x3ec19ba9	0.37814072
223	0xbe860ba1	-0.26180747
224	0x3dd5626d	0.10419164
225	0xbd97f92a	-0.07420571
226	0x3d954b0f	0.07289707
227	0xbd09c9ad	-0.0336396
228	0xbf5c547f	-0.8606643
229	0x3edc6abc	0.43050182
230	0xbec80a06	-0.39070147
231	0x3ebab3b2	0.36465222
232	0xbecf9bb2	-0.40548474
233	0x3f34dbf3	0.70648116
234	0xbeb3beea	-0.35106593
235	0xbf1fc251	-0.6240588
236	0xbe313a0a	-0.17307296
237	0xbdfe9ed7	-0.1243264
238	0x3d4ff744	0.05077292
239	0x3ef0282b	0.46905646
240	0x3ecda1a7	0.40162393
241	0xbf56b3dc	-0.83868194
242	0x3ef0bab6	0.4701745
243	0xbf4eeaaf	-0.8082685
244	0x3dc707dc	0.09718296
245	0xbc47f908	-0.01220537
246	0xbe1ac6bd	-0.15114875
247	0xbdf09a35	-0.11748163
248	0xbdbe52f5	-0.092931665
249	0x3e0fdfbd	0.14050193
250	0x3d2c0d48	0.042004853
251	0xbc8a39f5	-0.01687334
252	0xbeeeda51	-0.46650937
253	0x3e901439	0.2814043
254	0xbd937aa4	-0.07201126
255	0x3f1ac800	0.60461426

feature_layers.0.bias f4 [128]
0	0x3e1e1ac3	0.15439896
1	0xbdcc9cf5	-0.09990875
2	0x3bedb3fc	0.007254122
3	0x3e373043	0.17889504
4	0xbdec9738	-0.1155228
5	0x3cdbe75f	0.026843725
6	0xbc46bed2	-0.012130456
7	0x3e78c647	0.24294387
8	0x3e7c6faf	0.24651979
9	0x3e513123	0.204289
10	0x3d914a64	0.07094267
11	0x3d9e9621	0.077434786
12	0x3e7c451c	0.24635738
13	0x3daf7142	0.08566524
14	0xbdfca03b	-0.12335249
15	0xbdc8ab12	-0.09798254
16	0xbdf24edf	-0.1183145
17	0x3ea94dc3	0.3306714
18	0x3e843e3b	0.25828728
19	0xbd9819fe	-0.074268326
20	0x3e35d96c	0.17758721
21	0x3da836a3	0.08213546
22	0xbdf77b63	-0.12084081
23	0x3dc851dc	0.097812384
24	0xbdcab20e	-0.098972425
25	0xbd745d99	-0.059659574
26	0x3e4f33e4	0.20234638
27	0x3c4c02e3	0.01245186
28	0x3d955118	0.07290858
29	0xbcdbbeab	-0.026824316
30	0x3b941bc8	0.0045199133
31	0xbe592cf7	-0.21208559
32	0x3e353167	0.17694627
33	0x3d73de3c	0.05953811
34	0x3e9658dd	0.29364672
35	0xbe652f64	-0.2238136
36	0x3de2fc9f	0.1108334
37	0x3e32a8eb	0.1744725
38	0xbe06d313	-0.13166456
39	0xbe82545f	-0.25454995
40	0x3e5bf4cd	0.21480103
41	0x3dbf5d06	0.09343915
42	0xbe1d80bb	-0.15381138
43	0x3e3bb5a5	0.1833101
44	0x3ea8d566	0.3297531
45	0x3e0e29da	0.13883153
46	0x3d079ecf	0.033110436
47	0x3dd20c34	0.10256234
48	0x3e2b5361	0.16731025
49	0xbdb57fe7	-0.08862286
50	0x3d13abb6	0.03605243
51	0x3d8044ad	0.06263099
52	0x3d3c25fe	0.04593467
53	0xbdd1e348	-0.102484286
54	0x3e8acf3e	0.27111238
55	0x3e6239c6	0.22092351
56	0xbdeb2da7	-0.11483317
57	0x3da4c378	0.08045095
58	0xbe22c227	-0.15894376
59	0x3d5a50b3	0.053299617
60	0x3ea4054c	0.3203529
61	0xbe281bfd	-0.16416927
62	0xbd9c191c	-0.07621977
63	0x3d8cf30e	0.068822965
64	0xbd21041d	-0.039310563
65	0x3e0508db	0.1299166
66	0xbeb3b4db	-0.3509892
67	0xbe4d7846	-0.20065412
68	0xbe8bb79f	-0.2728853
69	0x3e0b862d	0.13625403
70	0x3e07e723	0.13271765
71	0xbe510b22	-0.20414403
72	0x3ea386c4	0.31938756
73	0x3e5c82b5	0.21534236
74	0x3e671939	0.22568215
75	0xbe83692f	-0.25666186
76	0x3e2d4aa9	0.16923012
77	0x3d05c3d5	0.032657463
78	0x3e025f3e	0.12731645
79	0x3e87efeb	0.2655023
80	0x3e943322	0.2894526
81	0xbe1c92b4	-0.15290338
82	0xbded211c	-0.11578581
83	0x3e6869cf	0.22696613
84	0x3ce2b052	0.027671967
85	0x3da7c46c	0.081917614
86	0x3c5dba6f	0.013533219
87	0x3dc786b2	0.09742488
88	0x3d31c846	0.043403886
89	0x3c808f00	0.015693188
90	0xbcc8495a	-0.02444904
91	0x3e8013c0	0.25015068
92	0x3e803244	0.2503835
93	0x3c828de0	0.015936792
94	0xbe6cd78b	-0.23129098
95	0x3e5cc368	0.21558917
96	0xbd925d45	-0.07146696
97	0x3e136556	0.14394125
98	0x3cbedfec	0.023300134
99	0x3e366c7a	0.17814818
100	0xbd975add	-0.07390378
101	0x3e374488	0.17897236
102	0xbd1ca5ef	-0.038244184
103	0x3e0eb292	0.13935307
104	0xbd8096c6	-0.06278758
105	0x3dd52d04	0.10408977
106	0x3e2948ca	0.16531673
107	0x3dfcccba	0.12343736
108	0x3e7c42d6	0.24634871
109	0xbdc27ebb	-0.09496828
110	0x3e9d9089	0.30774334
111	0x3e41625d	0.18885179
112	0x3c468adb	0.012118067
113	0x3e95ddd5	0.29270807
114	0x3e042129	0.12903275
115	0xbd43ce42	-0.047804125
116	0x3e2aee99	0.1669258
117	0xbde0c896	-0.10975759
118	0x3e86fd43	0.26365098
119	0xbd696927	-0.056985047
120	0xbe1a1bf8	-0.15049732
121	0x3e8a2993	0.26984844
122	0xbce2c336	-0.027680974
123	0xbe0438e4	-0.12912327
124	0xbddbd633	-0.10734215
125	0x3e9769ef	0.29573008
126	0x3d401113	0.046891283
127	0x3a0cd10a	0.00053717254

feature_layers.1.weight f4 [128, 128]
0	0x3e6c86e0	0.23098326
1	0x3d2efc59	0.042721126
2	0x3e5ae977	0.21378122
3	0x3d95d44e	0.073158845
4	0xbda39322	-0.07987048
5	0xbe57e50b	-0.21083467
6	0x3d302efa	0.04301355
7	0x3e5bc1d2	0.21460655
8	0x3db78197	0.08960264
9	0xbc30a92b	-0.01078252
10	0x3e8b8507	0.2724993
11	0x3b26f196	0.0025473586
12	0xbe3b6f68	-0.18304217
13	0x3c805213	0.015664136
14	0x3d631d8c	0.0554481
15	0x3e5cacc5	0.21550281
16	0x3deefcfa	0.11669345
17	0xbd3452ae	-0.044024162
18	0x3e4db229	0.20087494
19	0xbd1a81fb	-0.037721615
20	0x3e3ae543	0.18251519
21	0xbe522583	-0.20522122
22	0xbdcf0b25	-0.101095475
23	0xbdf268cd	-0.118363954
24	0x3e1f2451	0.15541197
25	0x3e591e9b	0.21203081
26	0xbe346137	-0.1761521
27	0x3e32df8f	0.17468093
28	0x3d4ac9df	0.049508926
29	0xbca53422	-0.02016646
30	0x3d04ea20	0.03244984
31	0x3d70a4d2	0.058750935
32	0x3e1f8ac5	0.1558028
33	0xbd899b33	-0.06719055
34	0xbd16a8b6	-0.03678199
35	0xbe9077a5	-0.28216282
36	0x3d9abdb0	0.07555711
37	0x3de9a946	0.114092395
38	0xbcfff7fd	-0.03124618
39	0xbe844a3e	-0.25837892
40	0x3ca531d0	0.020165354
41	0xbcb62269	-0.022233205
42	0x3e546d5f	0.20744847
43	0x3d8f3478	0.069924295
44	0x3c356423	0.011071238
45	0xbc161594	-0.009160418
46	0x3d8fee75	0.07027904
47	0x3dec9c7b	0.11553284
48	0xbe6d795d	-0.23190828
49	0xbc6fd7d3	-0.014638859
50	0xbd0f8b06	-0.035044692
51	0x3e5cf41b	0.21577494
52	0x3d6e13b3	0.058124255
53	0x3e55ef46	0.20892057
54	0x3e69a004	0.22814947
55	0x3d70ea45	0.058817167
56	0x3e0ae098	0.13562238
57	0xbda0819a	-0.078372195
58	0xbe5ab743	-0.21358971
59	0x3e037609	0.12837996
60	0x3ea92f14	0.3304373
61	0xbe830d34	-0.2559601
62	0x3d3e9f9e	0.04653894
63	0x3db35e0b	0.08758172
64	0x3d8e5c2f	0.069511764
65	0x3d1c40fb	0.038147908
66	0x3d6735ea	0.0564479
67	0x3e0c7764	0.13717419
68	0x3cd186d3	0.025576985
69	0x3e1da0ea	0.15393415
70	0x3d42ee86	0.047590755
71	0x3d114cd8	0.035473675
72	0xbd985e32	-0.07439841
73	0x3e9a19bc	0.3009776
74	0x3e81ee33	0.25377044
75	0x39c92dca	0.00038371823
76	0x3d39c5d3	0.045354676
77	0x3def03c0	0.11670637
78	0xbd24a103	-0.040192615
79	0x3e099935	0.1343735
80	0xbd09052a	-0.03345219
81	0xbd7ec15c	-0.06219612
82	0xbe297742	-0.165494
83	0xbe6619a5	-0.2247072
84	0x3df34d30	0.11879957
85	0xbe17baf4	-0.1481741
86	0xbe23a053	-0.15979128
87	0x3e03b2c3	0.12861161
88	0x3e2a2bcc	0.1661827
89	0xbe32fbdd	-0.1747889
90	0x3dec08a8	0.115250885
91	0xbdb84edb	-0.089994155
92	0x3e57b10f	0.21063636
93	0x3c5aca39	0.013353878
94	0x3d1d97cf	0.038474854
95	0x3e8d55b6	0.27604455
96	0x3dfabd44	0.12243131
97	0x3df32063	0.11871412
98	0x3e3e3754	0.18575794
99	0x3bab95c5	0.00523636
100	0xbdadc297	-0.08484381
101	0x3e72cd7c	0.23711199
102	0x3e8bfecd	0.27342835
103	0x3d17ac05	0.037029285
104	0x3e110155	0.14160664
105	0x3e061c9b	0.1309685
106	0xbe0c3944	-0.1369372
107	0xbddfcc53	-0.109276436
108	0xbd12bb65	-0.035823245
109	0xbc9fa58b	-0.019488117
110	0x3e774839	0.24148645
111	0x3d0f6736	0.03501054
112	0xbc1b7ebc	-0.009490665
113	0xbd599deb	-0.053129118
114	0x3d4893eb	0.04896919
115	0x3e50c64a	0.20388141
116	0x3e1e1853	0.15438966
117	0x3dd261d3	0.10272565
118	0xbd973e14	-0.07384887
119	0xb9d90034	-0.00041389617
120	0x3db339c1	0.0875125
121	0x3c92208d	0.017837787
122	0x3dceea92	0.101033345
123	0xbec42bf9	-0.38314798
124	0xbe2247c0	-0.15847683
125	0x3e451f12	0.19250134
126	0xbad17322	-0.0015979747
127	0x3e2a308a	0.16620079
128	0xbe1caad8	-0.15299547
129	0xbda899f0	-0.08232486
130	0xbe38553e	-0.18001267
131	0x3e54ec5e	0.20793292
132	0x3cd2362e	0.0256606
133	0x3a64fba2	0.0008735006
134	0x3ca7b0ed	0.020470107
135	0x3e1dcd08	0.15410244
136	0xbd8a20c7	-0.06744533
137	0xbd676bf7	-0.056499448
138	0x3bf4d132	0.007471227
139	0x3d83cd5a	0.06435652
140	0x3e43d41f	0.19123887
141	0x3e3b42e7	0.1828724
142	0x3e03d4cf	0.12874149
143	0x3d52a9cc	0.051431462
144	0xbe373722	-0.17892125
145	0xbd8a757c	-0.067606896
146	0x3dbee231	0.09320486
147	0xbe3125db	-0.17299597
148	0x3e540b71	0.2070749
149	0x3e237158	0.15961206
150	0x3d941d47	0.07232147
151	0x3ef9e4bb	0.4880732
152	0xbc80dd23	-0.015730446
153	0xbca29a11	-0.019848855
154	0x3d48f445	0.04906108
155	0x3e5e322c	0.21698827
156	0xbd2edb39	-0.042689536
157	0x3d0491f6	0.03236576
158	0x3bb67d7b	0.0055691577
159	0xbe7651ab	-0.24054591
160	0x3e2ea409	0.17054762
161	0x3d96a668	0.07355958
162	0x3d9de12d	0.077089645
163	0xbd8fbc5c	-0.070183486
164	0xbddcd313	-0.10782447
165	0x3cafc6ee	0.021457162
166	0x3de34940	0.11097956
167	0x3ddcb9ce	0.10777627
168	0x3d119ccc	0.035549924
169	0xbb4c9b15	-0.0031220366
170	0xbd4d082b	-0.050056618
171	0x3e1a1bf2	0.15049723
172	0x3ec07800	0.37591553
173	0xbd994d43	-0.0748544
174	0x3d889a44	0.06670049
175	0xbd906833	-0.070511244
176	0xbd968d00	-0.07351112
177	0x3df4f833	0.11961403
178	0x3d047f81	0.03234816
179	0xbddec5ee	-0.10877596
180	0x3d07a1a0	0.033113122
181	0x3c9628b9	0.018329965
182	0x3dc4874a	0.09596117
183	0x3da979d9	0.08275194
184	0xbdcac0fa	-0.099000886
185	0x3d002e00	0.03129387
186	0xbdde6384	-0.10858825
187	0x3e909a92	0.28242928
188	0x3e527910	0.20553994
189	0xbdcdf81a	-0.10057087
190	0x3e13f163	0.1444755
191	0xbd865531	-0.06559218
192	0x3e17e850	0.14834714
193	0xbb3a9021	-0.0028467255
194	0xbe3d6431	-0.18495251
195	0x3e9041ef	0.28175303
196	0x3c891ec1	0.016738297
197	0xbd3f05be	-0.046636336
198	0x3ccf9822	0.025341097
199	0xbd1437f0	-0.03618616
200	0x3d6371b5	0.05552836
201	0xbb907d90	-0.0044094995
202	0x3c967f77	0.018371327
203	0xbe44fbd4	-0.1923669
204	0x3d2c84ea	0.042118944
205	0x3d247a25	0.04015555
206	0x3e91a088	0.28442788
207	0x3d34ecbe	0.044171087
208	0x3dcfe585	0.10151199
209	0xbdcfab05	-0.10140041
210	0x3bec4272	0.0072100693
211	0xbb033860	-0.0020022616
212	0xbaaf0f5c	-0.0013356018
213	0x3dffff06	0.12499814
214	0x3e083446	0.1330119
215	0x3dcd21ee	0.10016237
216	0xbe4e5132	-0.20148161
217	0xbe4a3884	-0.19748122
218	0xbdb69897	-0.08915823
219	0x3d9eb81c	0.0774996
220	0x3dc72916	0.097246334
221	0xbc5bc07b	-0.01341259
222	0xbd065152	-0.032792397
223	0xbb4c685b	-0.003119013
224	0x3da98657	0.082775764
225	0x3ea2f134	0.31824648
226	0x3bae575d	0.005320473
227	0xbd9d1895	-0.07670704
228	0x3e266b97	0.1625198
229	0x3c77946b	0.015111069
230	0x3e036b1b	0.12833826
231	0xbd635005	-0.055496234
232	0x3bbbbdef	0.005729429
233	0xbdaa5e1e	-0.08318733
234	0x3d655972	0.055993505
235	0x3df2bd22	0.118524805
236	0xbdb39be8	-0.08769971
237	0x3d6e5112	0.058182783
238	0x3dda84b9	0.10669846
239	0x3e2e95f6	0.17049393
240	0x3d9e8734	0.07740632
241	0xbc815ca6	-0.015791249
242	0x3e2e364f	0.17012905
243	0x3d3a8d4a	0.0455449
244	0x3d0f1b3e	0.03493809
245	0xbdc6fefc	-0.09716603
246	0x3e625e4e	0.22106287
247	0x3a45bff1	0.0007543555
248	0xbe4c3fb4	-0.19946176
249	0x3d95b051	0.0730902
250	0x3ceafe7d	0.028685803
251	0x3e40e257	0.18836342
252	0x3b0c4c02	0.002140761
253	0x3e513d46	0.2043353
254	0x3e121ee6	0.142696
255	0xbe19201a	-0.14953652

feature_layers.1.bias f4 [128]
0	0x3e073437	0.13203512
1	0x3e7422b4	0.23841363
2	0x3d7e2153	0.0620435
3	0xbd948b11	-0.07253087
4	0x3df68d9c	0.120387286
5	0x3e00a4cc	0.12562865
6	0x3d56abbc	0.052409872
7	0x3d093456	0.033497177
8	0xbc9cb8d2	-0.019131098
9	0x3e3b0280	0.18262672
10	0x3c10432d	0.008805078
11	0xbdf5589c	-0.119797915
12	0x3d9b59de	0.075855
13	0x3dc49b6c	0.09599957
14	0xbdf11a72	-0.11772622
15	0xbc4e3e1a	-0.012588048
16	0x3d56b577	0.052419152
17	0xbd911d2b	-0.070856415
18	0x3e3a9b52	0.18223312
19	0x3e1fc1fd	0.15601344
20	0x3e0c6955	0.13712056
21	0x3dd6c289	0.104863234
22	0xbe57f50a	-0.21089569
23	0xbd984b21	-0.07436205
24	0x3dfa7894	0.1223003
25	0x3d8b8fb8	0.068145216
26	0x3ccf4510	0.025301486
27	0x3e016cb0	0.12639117
28	0xbdb94471	-0.09046257
29	0xbdc19b8d	-0.09453497
30	0x3db9a40e	0.09064494
31	0x3df43dbd	0.11925838
32	0x3c97d39f	0.018533526
33	0x3ce23f52	0.027618084
34	0x3e29d46d	0.1658494
35	0xbdcd2f5f	-0.10018801
36	0xbcba60db	-0.022751262
37	0xbdf41877	-0.11918729
38	0x3da4b298	0.080418766
39	0x3d3b5984	0.045739666
40	0xbc807c76	-0.015684348
41	0xbe116a48	-0.142007
42	0x3d1e9a97	0.038721647
43	0x3d5723bc	0.052524313
44	0xbe100d8c	-0.14067668
45	0x3cd6a0cc	0.02619972
46	0xbd9bc7c9	-0.07606465
47	0xbe23ca7b	-0.15995209
48	0x3e07b6f0	0.13253379
49	0xbd642468	-0.055698782
50	0xbe0c4210	-0.13697076
51	0x3d8e38d8	0.06944436
52	0xbbb6aa63	-0.005574511
53	0xbd07febe	-0.033201925
54	0x3ccd0e34	0.025031187
55	0xbcb66250	-0.022263676
56	0x3da10b48	0.0786348
57	0x3dbfa0a9	0.09356815
58	0xbcb00567	-0.021486951
59	0xbd984d09	-0.07436568
60	0xbdc87388	-0.09787661
61	0xbc6c5704	-0.014425043
62	0x3dfb2619	0.12263126
63	0x3de63faf	0.112426154
64	0x3dceee7d	0.10104082
65	0xbe331eb7	-0.17492186
66	0x3e0041f4	0.12525159
67	0x3e1ee796	0.1551803
68	0xbe0daebc	-0.13836187
69	0x3d1a386a	0.037651457
70	0xbe068a2e	-0.13138649
71	0xbe16f2d0	-0.14741063
72	0xba10ec13	-0.0005528342
73	0x3e42d5e9	0.19026913
74	0xbcbcfdd2	-0.02307025
75	0x3dc4bba9	0.09606106
76	0x3c9128c3	0.017719632
77	0x3daf2d19	0.085535236
78	0x3e021c19	0.12706031
79	0x3e0ddac8	0.1385299
80	0x3db4a792	0.08821024
81	0x3e2cada5	0.16863115
82	0xbdffc8c6	-0.12489466
83	0x3cfe33c9	0.031030552
84	0xbd49aa41	-0.049234632
85	0xbdeba16e	-0.115054
86	0xbc84ae31	-0.016196342
87	0xbe13280e	-0.14370748
88	0xbd0786c7	-0.033087518
89	0x3e35f2a8	0.17768347
90	0xbdadc505	-0.08484844
91	0x3d0f593f	0.03499722
92	0x3e19b006	0.15008554
93	0xbdfa18bf	-0.12211751
94	0x3d26043d	0.040531386
95	0xbd3872e8	-0.04503146
96	0x3dc5d57a	0.09659858
97	0x3e110775	0.14163001
98	0xbe2ce001	-0.16882326
99	0x3d957fce	0.072997674
100	0x3d929b8c	0.071585745
101	0xbc676df6	-0.014125338
102	0x3e198a31	0.14994122
103	0x3dc6eb63	0.09712865
104	0x3d87a5bb	0.066234075
105	0x3de2c7ac	0.11073241
106	0xbdfe7da2	-0.12426306
107	0x3d9e2804	0.07722476
108	0xbded66c5	-0.11591867
109	0x3d82a9a8	0.063800156
110	0x3dc429e9	0.09578306
111	0x3dade321	0.08490587
112	0xbe05538f	-0.13020156
113	0xbdec85b5	-0.1154894
114	0x3dafc86a	0.08583148
115	0x3bdca65c	0.006733699
116	0xbbac17fe	-0.0052518835
117	0xbdd6422c	-0.1046184
118	0x3e137819	0.14401282
119	0x3d8fcc7c	0.07021424
120	0x3c56974a	0.013097594
121	0xbdb29688	-0.08720118
122	0x3ddd23d4	0.10797849
123	0x3cbf9c62	0.023389999
124	0xbe080f0f	-0.13286994
125	0xbd0d20e6	-0.034455203
126	0xbe06714a	-0.13129154
127	0x3cbd0f42	0.023078565

value_stream.0.weight f4 [64, 128]
0	0xbcf81b70	-0.03028652
1	0xbe063018	-0.13104284
2	0x3e442a75	0.19156821
3	0xbd86a652	-0.06574692
4	0x3e3684e7	0.17824136
5	0x3dd189a2	0.102313295
6	0x3d907159	0.07052869
7	0xbd843539	-0.06455464
8	0xbaed4236	-0.0018101397
9	0xbdcc9a69	-0.09990389
10	0x3c953297	0.0182126
11	0x3c5e9581	0.013585449
12	0xbe2ee6b5	-0.17080195
13	0x3c2d7e87	0.0105892485
14	0xbe234470	-0.15944076
15	0x3e1bf007	0.15228282
16	0x3e422257	0.18958412
17	0x3e4ebd4b	0.20189397
18	0x3a5f1216	0.000850947
19	0xbdc1ff7d	-0.09472559
20	0x3dc2ea29	0.09517319
21	0xbe2db3f9	-0.16963185
22	0xbc41548c	-0.011799943
23	0x3e51528a	0.20441642
24	0xbd2a51a1	-0.041581754
25	0x3e8fa864	0.2805816
26	0xbd439181	-0.047746185
27	0x3e4b8cbe	0.19877908
28	0x3d7a1663	0.061056506
29	0xba1a95f8	-0.0005896981
30	0x3e81d6e3	0.25359258
31	0x3b063e11	0.0020483772
32	0xbdb01878	-0.08598417
33	0x3d0cf668	0.03441468
34	0xbe8fdb49	-0.2809699
35	0x3e219bbf	0.15782069
36	0x3e2feb07	0.171795
37	0x3da91d3b	0.082575284
38	0x3d8708df	0.06593489
39	0xbe71080a	-0.23538223
40	0x3dae49ac	0.085101455
41	0x3eb6e517	0.35721657
42	0x3d79ef66	0.061019324
43	0x3df68835	0.12037698
44	0x3db3f661	0.087872274
45	0xbe505e70	-0.20348525
46	0x3d5246a8	0.051336914
47	0xbe991a3e	-0.29902834
48	0x3daf9490	0.08573258
49	0x3db1bc2c	0.08678469
50	0x3e8c015a	0.2734478
51	0x3de0d8ff	0.10978889
52	0x3e48ee67	0.19622193
53	0xbe4df088	-0.20111287
54	0x3dd81480	0.10550785
55	0x3e2fb4fe	0.17158887
56	0x3d72ef71	0.05931038
57	0x3e02c659	0.12770976
58	0xbd95be16	-0.07311647
59	0xbe17972a	-0.14803758
60	0xbe777e1e	-0.24169204
61	0x3e248748	0.1606723
62	0xbac42428	-0.0014964389
63	0x3e01995a	0.12656155
64	0x3e462f06	0.19353876
65	0x3e4ac477	0.19801508
66	0xbe009489	-0.12556662
67	0x3bc3e828	0.005978603
68	0xbd590fe3	-0.052993666
69	0x3d179817	0.03701028
70	0x3e34928e	0.17634031
71	0x3ebf0756	0.37310284
72	0x3ce3b583	0.027796512
73	0xbc790d74	-0.015200961
74	0x3e105244	0.14093882
75	0xbd8f5f9d	-0.07000659
76	0xbe0efcce	-0.13963625
77	0x3e122504	0.14271933
78	0x3dc90788	0.098158896
79	0xbd56a78e	-0.052405886
80	0x3c4e921c	0.012608077
81	0x3d2bf792	0.04198415
82	0x3dda1cd3	0.10650029
83	0xbe7e9966	-0.24863204
84	0xbe464ecb	-0.19365995
85	0xbd974f2d	-0.073881485
86	0x3d3b118d	0.045671035
87	0x3e7b7185	0.24555023
88	0xbc2ecddf	-0.010669201
89	0x3e8a4f1a	0.27013475
90	0x3e5a368b	0.21309869
91	0x3daaff7f	0.08349513
92	0xbd03213e	-0.032014124
93	0x3df0dbe0	0.11760688
94	0xbd915e1b	-0.07098027
95	0x3dbe46bf	0.092908375
96	0x3e0a625c	0.13514084
97	0xbe169c02	-0.1470795
98	0x3e949cfd	0.29026023
99	0xbd218730	-0.039435565
100	0xbddc3ebb	-0.107541524
101	0x3d50c723	0.05097116
102	0x3d7d8f3a	0.06190417
103	0xbdb71ac5	-0.08940653
104	0x3dc86453	0.0978476
105	0xbdd45fb2	-0.10369815
106	0x3d9e47d6	0.07728545
107	0x3ea6d82f	0.3258681
108	0xbe4a8581	-0.1977749
109	0xbd60285a	-0.054725982
110	0x3e2ef398	0.17085111
111	0x3d7a92e9	0.06117526
112	0x3e1f9470	0.15583968
113	0x3e02fe9d	0.1279244
114	0x3e5379e0	0.2065196
115	0xbdf29bc9	-0.1184612
116	0x3e534a12	0.20633724
117	0xbbdca4ca	-0.0067335116
118	0xbdfe5f50	-0.12420523
119	0x3c9b0480	0.018923044
120	0x3d621969	0.055200014
121	0xbdd0b0fc	-0.10190007
122	0xbd07e408	-0.033176452
123	0xbc50b665	-0.012738799
124	0x3e89df92	0.26928383
125	0xbd86b9c9	-0.065784045
126	0x3d65a049	0.056061063
127	0x3df0ac0f	0.117515676
128	0xbe88d412	-0.26724297
129	0xbe0846a1	-0.13308193
130	0x3d102c74	0.035198644
131	0xbe29172a	-0.16512743
132	0xbcc71240	-0.024300694
133	0xbcd9c539	-0.0265833
134	0xbcbdc43e	-0.023164865
135	0xbe683d4c	-0.22679633
136	0x3dc3f007	0.09567266
137	0x3cd047ca	0.025424857
138	0x3cd8c9bb	0.02646338
139	0x3ec27b51	0.37984708
140	0xbd3793f8	-0.04481885
141	0xbdf71517	-0.120645694
142	0xbdab2121	-0.08355928
143	0x3a51687b	0.0007988286
144	0xbd086fe1	-0.03330982
145	0x3d88f7be	0.06687878
146	0xbdfc2263	-0.12311246
147	0xbbf88662	-0.007584379
148	0xbe2c0949	-0.16800417
149	0xbda96f4f	-0.082731836
150	0x3e981138	0.29700637
151	0x3ea0331f	0.31289002
152	0xbe2e6fd6	-0.1703485
153	0x3e038d3d	0.12846847
154	0xbd18e83f	-0.037330862
155	0x3defaea1	0.1170323
156	0x3e09ace4	0.13444859
157	0x3e21f692	0.15816715
158	0xbd4efe7c	-0.050535664
159	0xbd86495e	-0.065569624
160	0xbe38efaf	-0.18060182
161	0xbd73ca3c	-0.059519038
162	0xbe321efe	-0.17394635
163	0x3ddf6587	0.10908037
164	0x3e68f187	0.22748385
165	0x3d8b39d5	0.0679814
166	0xbe11fbbd	-0.14256187
167	0x3e1945f5	0.14968093
168	0x3f089a07	0.5336003
169	0x3dd847bf	0.105605595
170	0xbe9dd40b	-0.30825838
171	0xbe8254ef	-0.25455424
172	0x3e959dfe	0.292221
173	0xbe19931b	-0.14997523
174	0x3c1b6ebf	0.009486853
175	0xbc53f033	-0.012935686
176	0x3dc30b1a	0.09523602
177	0x3e5e5f4e	0.21716043
178	0xbe5a7cb4	-0.21336633
179	0xbe4a72bd	-0.19770332
180	0xbea7dbae	-0.3278479
181	0x3cf880a6	0.030334782
182	0x3dacb981	0.084338196
183	0xbe895266	-0.26820678
184	0xbde1e9fa	-0.110309556
185	0x3d6933f7	0.056934323
186	0x3e1e6922	0.15469792
187	0x3e027e29	0.12743439
188	0x3dba0760	0.09083438
189	0xbe35ad77	-0.17741953
190	0xbd163ac7	-0.03667715
191	0xbd1d6465	-0.03842582
192	0xbd0494f8	-0.03236863
193	0xbe6319bd	-0.22177787
194	0xbe36b9e6	-0.17844352
195	0xbe29ac41	-0.16569616
196	0xbe169f9a	-0.1470932
197	0x3d5ddcc8	0.05416563
198	0x3dbf3b68	0.09337503
199	0xbb379faf	-0.0028018763
200	0x3e0638b6	0.13107571
201	0xbe639940	-0.22226429
202	0x3d5f44d2	0.05450899
203	0xbd4476ea	-0.047964968
204	0xbe5e997c	-0.21738237
205	0x3e2f07bd	0.17092796
206	0xbe84882d	-0.25885144
207	0xbd964be0	-0.07338691
208	0xbd5bff38	-0.053710192
209	0xbd90ecde	-0.07076429
210	0x3ea3729a	0.31923372
211	0x3dd43c4a	0.10363062
212	0x3deba76f	0.11506545
213	0x3ea12250	0.3147149
214	0x3e439ad0	0.19102025
215	0x3dc30d3f	0.09524011
216	0xbdc78c2a	-0.09743531
217	0xbddfd685	-0.10929588
218	0x3dc96c25	0.0983508
219	0x3cc314d9	0.023813652
220	0xbd6ef210	-0.058336318
221	0x3ed6396c	0.41840684
222	0xbe75acba	-0.23991671
223	0xbd60124c	-0.05470495
224	0x3e047f2a	0.12939134
225	0x3dba0759	0.09083433
226	0xbd0557a3	-0.03255428
227	0xbe2a4bdb	-0.16630499
228	0xbe6402ef	-0.22266744
229	0x3d78878d	0.060676146
230	0x3e0ccdc7	0.13750373
231	0xbe346fc6	-0.17620763
232	0xbda1ca2d	-0.0789989
233	0x3e065e7d	0.13121982
234	0xbc8df7f3	-0.017330145
235	0x3d8d42bd	0.06897495
236	0x3d502078	0.050812215
237	0xbbb3302c	-0.005468389
238	0xbc92bdcb	-0.017912766
239	0xbd91a764	-0.07112005
240	0x3e1f7deb	0.15575378
241	0xbc9b1769	-0.018932061
242	0x3c4d0439	0.012513214
243	0x3dff7dac	0.12475142
244	0x3d011152	0.03151066
245	0x3e5fe208	0.21863568
246	0xbe15a1bb	-0.14612477
247	0xbe10a798	-0.14126432
248	0x3ad048b0	0.0015890803
249	0xbbb9e6e0	-0.0056732744
250	0xbe670290	-0.22559571
251	0x3d3e57b9	0.046470378
252	0xbc82b945	-0.015957484
253	0xbddbc8d5	-0.10731665
254	0x3e0b5213	0.13605528
255	0x3e05f10a	0.1308023

value_stream.0.bias f4 [64]
0	0xbd8cf271	-0.068821795
1	0xbd50e1c4	-0.050996557
2	0x3e2b9b62	0.16758493
3	0xbe090e70	-0.13384414
4	0x3dbcc85c	0.09217903
5	0xbe101e6b	-0.14074104
6	0x3e437f56	0.19091544
7	0x3de1c5dc	0.11024067
8	0x3e00b285	0.125681
9	0x3dc397ef	0.095504634
10	0x3db51cdf	0.08843397
11	0x3e687218	0.22699773
12	0x3e23e87f	0.16006659
13	0x3dc58c76	0.096459314
14	0xbe70d08d	-0.23517056
15	0x3e00b629	0.12569489
16	0xbda9b964	-0.082873136
17	0x3e2ab0af	0.16668962
18	0xbd4c0762	-0.04981173
19	0xbdc0078e	-0.09376441
20	0xbe2eac30	-0.17057872
21	0x3d919343	0.07108166
22	0x3e5d812f	0.21631311
23	0xbe1a03de	-0.15040538
24	0xbdcb6076	-0.09930508
25	0xbd28e545	-0.041234273
26	0xbda2dd78	-0.07952398
27	0xbe246710	-0.1605494
28	0x3ddabfa2	0.10681082
29	0x3d8afb66	0.06786232
30	0x3dd11228	0.10208541
31	0x3db5e5f4	0.08881751
32	0x3e630e13	0.22173338
33	0x3e65e631	0.22451092
34	0xbe0eb9b7	-0.13938032
35	0x3e645cb2	0.22300985
36	0xbe1b0147	-0.15137206
37	0xbd3fd135	-0.046830375
38	0xbdcdad6c	-0.10042843
39	0x3dac7cb8	0.08422226
40	0x3e7c8428	0.24659789
41	0xbe32a1fb	-0.17444603
42	0xbdecc132	-0.115602866
43	0xbe0fc1a3	-0.1403871
44	0x3e13e266	0.14441833
45	0x3dcef69e	0.10105632
46	0xbdddcdeb	-0.10830291
47	0x3d801619	0.06254215
48	0xbd0af1ca	-0.033921994
49	0x3e27e780	0.16396904
50	0x3e506a7c	0.2035312
51	0xbe4c87c1	-0.19973661
52	0x3e213197	0.15741573
53	0x3df1d139	0.11807484
54	0x3de3c321	0.11121202
55	0x3d81b9f6	0.06334297
56	0xbda39747	-0.07987838
57	0x3e84fba3	0.25973234
58	0xbe1543cd	-0.14576645
59	0xbdb9260e	-0.090404615
60	0xbda3a421	-0.079902895
61	0xbc2bc2fc	-0.0104835
62	0x3d7e1437	0.062030997
63	0x3e416443	0.18885903

value_stream.2.weight f4 [1, 64]
0	0xbd4fb7f8	-0.050712556
1	0xbe2fbed2	-0.17162636
2	0x3e05e8be	0.13077065
3	0xbe8a77f7	-0.2704465
4	0x3e4089ac	0.18802518
5	0xbebee74d	-0.37285843
6	0x3e20dd24	0.15709358
7	0x3e059fd9	0.13049258
8	0x3e5b6295	0.21424325
9	0x3e21701f	0.15765427
10	0x3da978c4	0.08274987
11	0x3dc9e9c0	0.098590374
12	0x3e2939f9	0.16526021
13	0x3f091855	0.5355275
14	0xbdbc40b5	-0.091920294
15	0x3ef9d2fb	0.48793778
16	0xbe0869d1	-0.13321616
17	0x3eb4e9a0	0.35334492
18	0xbde45237	-0.11148494
19	0xbec600e2	-0.3867255
20	0xbe9c6670	-0.30546904
21	0x3da3c55d	0.079966284
22	0x3e25503f	0.16143893
23	0xbda05e61	-0.07830501
24	0xbe80a055	-0.25122324
25	0xbe37b662	-0.17940667
26	0xbe9daf89	-0.30797985
27	0xbe882ef3	-0.2659832
28	0x3e8d5889	0.2760661
29	0x3e7f4937	0.24930273
30	0x3e22dae4	0.15903813
31	0x3dd44dd3	0.10366406
32	0x3e373f38	0.1789521
33	0x3dae0295	0.08496586
34	0xbeb19fb1	-0.34692147
35	0x3e095348	0.13410676
36	0xbe567730	-0.20943904
37	0xbe8f430d	-0.27980843
38	0xbdfc1985	-0.12309555
39	0x3e0610e8	0.13092387
40	0x3e305deb	0.17223327
41	0xbd9b5b98	-0.075858295
42	0xbde63f8a	-0.11242588
43	0xbe3b18e9	-0.18271221
44	0x3e87c56e	0.26517814
45	0x3e30a155	0.17249043
46	0xbefeb4a2	-0.49747187
47	0x3e6e8bad	0.2329547
48	0xbdd88695	-0.105725445
49	0x3e0abb3f	0.13547991
50	0x3e3318e5	0.17489965
51	0xbe176b24	-0.14786965
52	0x3efe2eec	0.49645174
53	0x3e4aa4fe	0.19789502
54	0x3edb6d8b	0.42857012
55	0x3ecdfe25	0.4023296
56	0xbe51c642	-0.20485786
57	0x3e191dba	0.14952746
58	0xbeed3ce8	-0.4633553
59	0xbef210df	-0.47278497
60	0xbda2d192	-0.079501286
61	0xbb1ac46c	-0.0023615612
62	0x3ebbd357	0.36684677
63	0x3e51a351	0.20472457

advantage_stream.0.weight f4 [64, 128]
0	0xbbed15c1	-0.0072352593
1	0xbb37947c	-0.0028012088
2	0xbe311917	-0.17294727
3	0x3eb8c25d	0.36085787
4	0x3e0e48f7	0.13895021
5	0xbdf03c38	-0.11730236
6	0xbad951fe	-0.0016580222
7	0x3e1f3613	0.15547971
8	0x3d8ee0a1	0.06976438
9	0x3c93e9fd	0.01805591
10	0xbd2be3d0	-0.041965306
11	0x3dddd44e	0.108315095
12	0x3d104c20	0.03522885
13	0xbde42553	-0.111399315
14	0x3f12cdd6	0.5734533
15	0xbd80b1bc	-0.062839
16	0x3d517d5d	0.051144946
17	0xbe7a4cff	-0.24443434
18	0x3c1aab49	0.009440252
19	0xbdf7e824	-0.12104824
20	0xbe93e2b2	-0.28883892
21	0xbe2fa825	-0.17153986
22	0x3d03da47	0.032190587
23	0xbed718e6	-0.42011184
24	0x3d055bf1	0.032558385
25	0xbe927755	-0.28606668
26	0xbdeec1a3	-0.11658027
27	0xbd919b4d	-0.071096994
28	0x3e4852e4	0.1956287
29	0x3eaf4cf1	0.3423839
30	0x3d8c826c	0.068608135
31	0xbd6edeb7	-0.058317866
32	0x3d66cf11	0.056349818
33	0x3dc45b3f	0.09587716
34	0xbe395277	-0.18097864
35	0x3e0f5341	0.13996603
36	0xbd71b6fe	-0.059012406
37	0x3d01933e	0.03163456
38	0xbc179aa9	-0.009253182
39	0x3ecae2db	0.39626202
40	0xbd81ff18	-0.063474834
41	0x3e30540c	0.17219561
42	0xbe12027b	-0.14258759
43	0x3e87f34c	0.26552808
44	0xbc3b732a	-0.0114410315
45	0xbdef50b2	-0.11685313
46	0x3e4e871b	0.20168726
47	0x3e92f40e	0.28701824
48	0x3d241989	0.040063415
49	0xbe2163b3	-0.15760688
50	0x3e0f4d3b	0.13994305
51	0xbd6e1e17	-0.058134165
52	0xbdcefa91	-0.101063855
53	0x3e672440	0.22572422
54	0xbe6579ba	-0.22409716
55	0xbe7b4e3c	-0.24541563
56	0x3e3280cf	0.17431949
57	0x3e07ed27	0.1327406
58	0xbea0d5f8	-0.31413245
59	0xbe824a98	-0.25447536
60	0x3e88b472	0.2670017
61	0x3c82f61e	0.015986498
62	0xbe26f6e3	-0.16305117
63	0x3c9cd433	0.019144153
64	0xbd0264e2	-0.03183449
65	0x3c3fff06	0.011718517
66	0x3e1e3ab4	0.15452081
67	0x3e16c3e2	0.14723161
68	0x3d91fc59	0.071282096
69	0xbdbfaa27	-0.09358626
70	0xbd2e4d01	-0.042553905
71	0x3da39b04	0.07988551
72	0x3df37043	0.118866466
73	0xbe6419f9	-0.22275533
74	0x3e50639b	0.20350496
75	0x3c3c1f01	0.011482001
76	0x3b9bacf6	0.004750843
77	0xbd3936c2	-0.045218237
78	0xbca04ea0	-0.019568741
79	0xba13f737	-0.0005644443
80	0xbe03cf03	-0.12871937
81	0xbe23dd98	-0.160025
82	0x3e2e18b8	0.17001617
83	0x3e858dd9	0.26084784
84	0x3ef3f83f	0.47650334
85	0x3e07c297	0.13257824
86	0x3d3f55be	0.04671263
87	0xbc843314	-0.016137637
88	0x3ed9aa34	0.42512667
89	0xbe760c31	-0.24028088
90	0x3eab742f	0.3348708
91	0xbcda82a1	-0.026673617
92	0x3cc84316	0.024446052
93	0x3ee6f918	0.45111918
94	0x3db6d3f7	0.08927148
95	0x3e1f1b14	0.15537673
96	0xbb366cac	-0.002783577
97	0xbdce21dd	-0.10065053
98	0xbdc2569f	-0.09489178
99	0x3c53078b	0.012880216
100	0xbdd97d4d	-0.10619602
101	0xbeb12f42	-0.34606367
102	0xbcf4e579	-0.029894577
103	0xbe97017e	-0.29493326
104	0x3cd66baf	0.026174394
105	0xbce82c89	-0.028341549
106	0x3e2f3f64	0.17114025
107	0x3d5f9240	0.054582834
108	0xbd50aa45	-0.05094363
109	0xbb0d66ab	-0.0021576087
110	0xbeba260a	-0.36357147
111	0xbdc4c957	-0.09608715
112	0x3e5c8dbe	0.21538445
113	0xbd9c80dc	-0.076417655
114	0xbdbe50ee	-0.0929278
115	0x3e0c3c7b	0.13694946
116	0x3ec77827	0.38958856
117	0x3f3336ae	0.7000531
118	0xbd6f6f8b	-0.058455985
119	0xbdd9f2dd	-0.106420256
120	0xb9a5e6a5	-0.00031643096
121	0x3d7073aa	0.058704056
122	0xbe8372e5	-0.25673595
123	0xbd856506	-0.06513409
124	0x3e40f845	0.18844707
125	0xbe8a4c02	-0.27011114
126	0x3c937b5e	0.018003162
127	0x3dbca6e1	0.09211517
128	0x3deb2525	0.11481694
129	0xbd688ab5	-0.056772906
130	0x3d5d0a2e	0.053964786
131	0xbe0e8eb3	-0.13921623
132	0x3e0636d5	0.13106854
133	0xbe3fb435	-0.18721087
134	0x3e5010c1	0.20318891
135	0xbe31423f	-0.17310427
136	0xbd90ee01	-0.07076646
137	0xbe1226fa	-0.14272681
138	0xbdfe3e18	-0.12414187
139	0x3e6a16cf	0.22860263
140	0x3e248225	0.16065271
141	0xbe2e07ea	-0.16995206
142	0xbdbda8ee	-0.092607364
143	0xbdf9501a	-0.12173481
144	0x3ea7eb00	0.32796478
145	0x3ed974c3	0.42471895
146	0xbd74ae36	-0.059736453
147	0x3d64e22c	0.055879757
148	0xbe54499a	-0.20731202
149	0x3d4ba684	0.04971935
150	0xbde47213	-0.111545704
151	0x3ed4c136	0.41553658
152	0xbde5580e	-0.11198436
153	0x3d5e7d0d	0.054318476
154	0x3eb0835a	0.34475213
155	0xbe02accc	-0.1276123
156	0xbc0c52ad	-0.008564633
157	0x3d608539	0.05481455
158	0x3e2bebba	0.16789141
159	0xbd73512d	-0.059403587
160	0xbe53252c	-0.20619649
161	0x38c25ade	9.267566e-05
162	0x3d2aa440	0.041660547
163	0x3ef4c150	0.47803736
164	0x3c05c2ed	0.00816415
165	0xbeab7f67	-0.33495638
166	0xbe94e8a1	-0.29083732
167	0x3bd29fad	0.0064277262
168	0x3ec8d2ff	0.39223477
169	0xbe543fe6	-0.207275
170	0xbdf64b42	-0.12026073
171	0xbdab5918	-0.08366603
172	0x3f0863a1	0.5327702
173	0x3db95030	0.09048498
174	0x3e6806a3	0.22658782
175	0xbe45095e	-0.19241855
176	0xbaed194e	-0.0018089206
177	0xbed9319c	-0.4242066
178	0xbcaefc06	-0.021360409
179	0xbc7ba47b	-0.015359039
180	0xbd0c4b47	-0.034251478
181	0x3f054ca8	0.52070093
182	0x3e12f2e8	0.14350474
183	0x3d97ad6d	0.07406125
184	0x3e544512	0.20729473
185	0xbd77048b	-0.060307067
186	0xbee7da5d	-0.45283785
187	0xbe23b53d	-0.15987106
188	0xbe4f7a8b	-0.2026159
189	0x3e0b741e	0.13618514
190	0x3ee721c5	0.45142952
191	0x3e340936	0.17581639
192	0x3d880de7	0.06643277
193	0x3e624813	0.22097807
194	0xbce2fa44	-0.027707227
195	0x3c3da47a	0.011574859
196	0x3adc0587	0.0016786315
197	0xbeba32f7	-0.36367008
198	0xbcceb225	-0.02523143
199	0xbe03c001	-0.12866212
200	0x3e1c0eef	0.15240072
201	0x3e833306	0.25624865
202	0xbe1ab06b	-0.1510636
203	0x3b852145	0.004062804
204	0x3d8ae7a6	0.06782465
205	0x3eb4add4	0.3528887
206	0x3d7eb66d	0.062185694
207	0x3de789ba	0.11305566
208	0x3c5059ed	0.0127167525
209	0xbdda84f0	-0.10669887
210	0x3e86d80f	0.26336715
211	0xbcfbe5ca	-0.03074922
212	0x3d8747f0	0.06605518
213	0xbc9e0ee4	-0.01929421
214	0xbe98bffd	-0.29833975
215	0x3fbc6589	1.4718486
216	0xbe00d7b7	-0.12582289
217	0xbe26940f	-0.16267417
218	0x3e32ef75	0.17474158
219	0xbc9b6111	-0.018967183
220	0x3d3159b2	0.04329843
221	0xbe76bb7c	-0.24094957
222	0xbe86bf07	-0.26317617
223	0x3d900271	0.07031716
224	0x3ec6f4a1	0.38858512
225	0xbd31ae58	-0.043379158
226	0x3f12c55e	0.5733241
227	0xbe3a8375	-0.1821421
228	0x3d9eb94a	0.07750185
229	0x3e20ac0a	0.15690628
230	0xbd088eaf	-0.0333392
231	0x3de348c2	0.11097862
232	0xbe8703d7	-0.26370117
233	0x3db7b85a	0.08970709
234	0x3ef358fe	0.47528833
235	0x3ca6fc29	0.020383911
236	0x3c716d08	0.014735468
237	0xbe913e93	-0.28368053
238	0xbd107785	-0.035270233
239	0x3e4e1e30	0.20128703
240	0x3f375300	0.7161102
241	0x3e9db9ae	0.30805725
242	0xbd222cac	-0.039593384
243	0x3d9a0651	0.07520736
244	0x3eeeddad	0.466535
245	0xbe6f2675	-0.23354514
246	0x3e2faa19	0.17154731
247	0xbdce4f60	-0.10073733
248	0x3f23b5ee	0.6394948
249	0x3e02c552	0.12770584
250	0xbd903a7f	-0.07042407
251	0x3dc5d2c0	0.09659338
252	0xbe6eae54	-0.23308688
253	0x3e865226	0.2623455
254	0x3d21a272	0.03946156
255	0x3e556d41	0.20842458

advantage_stream.0.bias f4 [64]
0	0xbdada4ff	-0.08478736
1	0x3d40ab4d	0.047038365
2	0x3d393727	0.045218613
3	0xbdb64629	-0.08900101
4	0x3d9210f8	0.07132143
5	0x3cce9f23	0.025222367
6	0xbd667f1a	-0.056273557
7	0xbe045cb2	-0.12925985
8	0x3cd1971f	0.025584755
9	0xbd91db19	-0.07121868
10	0x3d13687a	0.03598831
11	0x3c524aa1	0.012835176
12	0xbddcc46a	-0.107796505
13	0x3d5419a5	0.05178227
14	0xbbb88c38	-0.0056319498
15	0x3d0bfa9a	0.03417454
16	0x3d0a4fdd	0.03376757
17	0xbdf169e1	-0.11787773
18	0x3c672e8d	0.01411022
19	0xbc8ea8f1	-0.017414542
20	0xbd43d446	-0.04780986
21	0xbd8c0247	-0.06836372
22	0x3c97eaae	0.018544521
23	0x3d572c2a	0.052532353
24	0xbdab0213	-0.08350005
25	0x3d4aecc4	0.049542204
26	0x3d271516	0.040791593
27	0xbdc635b1	-0.096782096
28	0xbdaf9c43	-0.085747264
29	0xbd5e46c5	-0.05426671
30	0xbd43a5d8	-0.047765583
31	0xbd30c94c	-0.04316072
32	0x3bdb6553	0.0066954284
33	0xbcbf3e76	-0.023345213
34	0x3c9c30bb	0.019066205
35	0x3df1ba0b	0.11803063
36	0x3adf3d2c	0.001703178
37	0x3d92fee9	0.071775265
38	0xbd0bcbf0	-0.034130037
39	0x3d98fc85	0.07470039
40	0x3d27d4c2	0.040974386
41	0x3d4fbe1b	0.050718408
42	0xbd1ac098	-0.037781328
43	0x3beefeef	0.007293574
44	0x3ceee918	0.029163882
45	0x39b05f54	0.0003364036
46	0x3d8f51ba	0.0699801
47	0x3cfb8dd0	0.03070727
48	0xbc454145	-0.012039487
49	0x3ce9d040	0.028541684
50	0x3cd64f60	0.026160896
51	0xbd3f0547	-0.046635892
52	0x3d53b285	0.05168392
53	0x3ba22d3e	0.004949241
54	0xbb90b4b6	-0.0044160737
55	0x3ce006fe	0.027347084
56	0xbcbfbfa6	-0.023406815
57	0x3d1ad573	0.037801217
58	0x3d1944a7	0.037418988
59	0x3d1bbb8e	0.038020663
60	0xbc06bd73	-0.008223879
61	0xbc1b3979	-0.009474152
62	0xbd84e040	-0.06488085
63	0x3dce4ee4	0.10073641

advantage_stream.2.weight f4 [4, 64]
0	0x3f0085ad	0.50203973
1	0xbe4e22ca	-0.20130458
2	0x3de5f617	0.112285785
3	0xbd9509b7	-0.072772436
4	0x3e0ab0ae	0.1354396
5	0x3d4e0634	0.050298885
6	0xbec600e3	-0.38672552
7	0xbd6bbda7	-0.057553913
8	0xbe697541	-0.22798635
9	0x3e5a400b	0.21313493
10	0xbf058400	-0.5215454
11	0xbefe4258	-0.4965999
12	0x3eb89030	0.36047506
13	0xbf60672d	-0.87657434
14	0x3e13617e	0.14392659
15	0xbd09bb95	-0.033626158
16	0xbd115da6	-0.0354897
17	0x3e99ee83	0.30064783
18	0x3de65e96	0.112485096
19	0x3ea86f21	0.32897285
20	0x3e3e1edf	0.18566464
21	0x3da27c94	0.07933918
22	0x3eaf5c69	0.3425019
23	0x3eb0368d	0.3441662
24	0x3eab8fdd	0.33508196
25	0xbec4dfa9	-0.3845189
26	0xbf1209ca	-0.57046187
27	0x3e37fe32	0.17968062
28	0x3ec1c72e	0.37847275
29	0x3f118899	0.56849056
30	0xbd8fb9b1	-0.0701784
31	0x3e7b67a1	0.2455125
32	0xbe9dee1d	-0.3084573
33	0xbe5fa62b	-0.21840732
34	0x3e9d3dd7	0.30711243
35	0xbebf11ad	-0.37318173
36	0x3ed3a0c2	0.41333586
37	0x3e1e3b48	0.15452302
38	0x3ea0eb43	0.3142949
39	0x3ec195e3	0.37809667
40	0x3f10a615	0.5650342
41	0x3db5284f	0.08845579
42	0xbde1d1d6	-0.11026351
43	0x3ccf8674	0.025332667
44	0xbf0f4dd2	-0.5597812
45	0x3e530d10	0.20610452
46	0xbec9d045	-0.3941671
47	0x3e8f12c9	0.2794402
48	0xbef594d9	-0.47965124
49	0xbf11b3d6	-0.5691503
50	0xbd797999	-0.06090698
51	0x3e5b80b2	0.21435812
52	0x3de81c4e	0.11333524
53	0xbd001fd4	-0.031280354
54	0x3e4e0d49	0.20122255
55	0x3efc1221	0.4923258
56	0x3d7af676	0.0612702
57	0xbe8630d2	-0.26209122
58	0xbd1f8e8c	-0.038954303
59	0x3ca282db	0.019837787
60	0xbe36dc81	-0.17857553
61	0x3f4476b5	0.7674363
62	0x3d3f66c2	0.046728857
63	0xbf1ec4ac	-0.6201885
64	0x3e4fe902	0.20303729
65	0xbf99ae74	-1.2006364
66	0x3ee93175	0.45545545
67	0xbe3eee08	-0.18645489
68	0xbe57bddb	-0.21068518
69	0x3ce2c1e5	0.027680347
70	0x3f1ec28b	0.620156
71	0x3e948079	0.29004267
72	0x3e61e674	0.22060567
73	0x3e8cbb89	0.27486828
74	0x3e9a5eba	0.30150396
75	0x3e8b45fe	0.27201837
76	0xbd1cfd53	-0.038327526
77	0x3c6f727b	0.014614697
78	0x3de6c88a	0.112687185
79	0x3d989fb2	0.074523345
80	0xbe10e749	-0.14150728
81	0x3e3d8ade	0.18510005
82	0xbf1c45ff	-0.61044306
83	0xbf982ba3	-1.1888317
84	0xbdaa181d	-0.083053805
85	0x3e04beb8	0.12963378
86	0x3f2365e1	0.6382733
87	0x3ec3fa42	0.3827687
88	0x3ed3269f	0.41240403
89	0x3ebdec8f	0.37094542
90	0x3e93567f	0.2877693
91	0xbe936cbc	-0.28793895
92	0xbe1e60f6	-0.15466675
93	0x3ebee3d2	0.37283188
94	0x3e44553f	0.19173144
95	0xbf4df7c7	-0.80456203
96	0x3ea5dbd8	0.3239429
97	0xbe422a66	-0.18961486
98	0x3e9b5f23	0.3034602
99	0xbf1e460b	-0.6182563
100	0x3e96f4d4	0.29483664
101	0x3f0fc1ed	0.5615528
102	0xbfa30318	-1.2735319
103	0x3ed4e802	0.41583258
104	0x3eb97810	0.36224413
105	0x3e5ab3af	0.21357606
106	0x3e2d263c	0.16909117
107	0x3e9f08cb	0.31061396
108	0x3c4a0629	0.01233057
109	0xbe453ff0	-0.19262671
110	0xbdea8165	-0.11450461
111	0x3edc25cb	0.42997584
112	0x3f04fda8	0.5194955
113	0x3e54ccfc	0.2078132
114	0x3e9494b9	0.29019716
115	0x3e7a41df	0.2443919
116	0xbe05cbf9	-0.1306609
117	0x3da6018b	0.08105763
118	0x3dae706b	0.08517536
119	0x3ea84523	0.32865247
120	0x3dbc65f5	0.09199134
121	0x3f00c4fb	0.5030057
122	0x3deb7835	0.11497537
123	0xbe4a71c6	-0.19769964
124	0x3e6ce6db	0.2313494
125	0x3ef64ada	0.48103982
126	0x3e3235fa	0.17403403
127	0xbf216774	-0.6304848
128	0xbe95ec9d	-0.29282084
129	0x3c3edec0	0.011649787
130	0xbdfcbaa5	-0.12340287
131	0x3c3fec50	0.011714056
132	0x3ea62a87	0.3245432
133	0xbe9e886b	-0.30963454
134	0x3dac544c	0.08414516
135	0xbed5e70b	-0.41777834
136	0x3f3b6142	0.7319528
137	0x3e9830e5	0.29724804
138	0xbdd715ed	-0.10502229
139	0x3ef4da1e	0.4782266
140	0x3d1ebac3	0.03875233
141	0x3e498430	0.19679332
142	0xbca24f72	-0.019813273
143	0xbf15fb9d	-0.58587056
144	0x3e670566	0.22560653
145	0x3e76b30f	0.24091743
146	0xbedb2be7	-0.42806932
147	0x3e93f097	0.28894493
148	0xbdb7e109	-0.08978469
149	0xbf5b2ae8	-0.85612345
150	0xbe34c372	-0.17652681
151	0xbe8c1bf7	-0.27365085
152	0x3e9b42ac	0.30324304
153	0x3e93096f	0.28718135
154	0x3e0d8b14	0.13822585
155	0x3d827e57	0.06371754
156	0xbe5fbe12	-0.2184985
157	0xbeb5fe6b	-0.35545668
158	0x3ebc87fa	0.36822492
159	0x3e8a1cfd	0.2697524
160	0xbe1f8a27	-0.15580045
161	0xbd9995bc	-0.07499263
162	0xbef8d632	-0.48600918
163	0x3f05c9ba	0.52260935
164	0xbe216569	-0.15761341
165	0xbedb7b15	-0.42867342
166	0x3ea62351	0.3244882
167	0xbf15ae28	-0.58468866
168	0x3ee823e9	0.45339897
169	0xbf175a99	-0.59122616
170	0x3c82217f	0.015885113
171	0xbc044f5b	-0.00807556
172	0x3ed8e098	0.4235885
173	0xbe2486c1	-0.1606703
174	0x3f2876c8	0.65806246
175	0xbee2c32a	-0.44289523
176	0x3e3d1972	0.18466738
177	0x3e1364f8	0.14393985
178	0xbe72086f	-0.2363603
179	0xbf3e243e	-0.7427405
180	0x3ddbf866	0.107407376
181	0xbe25628a	-0.16150871
182	0xbe9c70a9	-0.30554703
183	0xbfe2dacd	-1.7723023
184	0x3e40b5e9	0.18819393
185	0x3eea70dd	0.45789233
186	0xbc8ec4e6	-0.017427873
187	0x3e1bddfb	0.15221398
188	0x3d1ccb6e	0.038279943
189	0x3f04cbf7	0.51873726
190	0xbe2cfd36	-0.16893467
191	0x3f316459	0.69293743
192	0xbdf92a4e	-0.12166272
193	0xbc469046	-0.012119358
194	0x3e79e92b	0.24405353
195	0xbe492341	-0.19642355
196	0x3e35c7ef	0.1775205
197	0x3d1bfc64	0.038082495
198	0xbd36416b	-0.04449598
199	0xbe1f836e	-0.1557748
200	0x3df83911	0.121202596
201	0xbf8f49c9	-1.1194392
202	0x3e2bdafd	0.16782756
203	0x3ef63891	0.48090032
204	0x3e7ae9bd	0.24503227
205	0x3ee56d6d	0.44810048
206	0xbedfbad1	-0.43697217
207	0x3e4e43c2	0.20143035
208	0xbe9662a6	-0.29372138
209	0xbcba9a9e	-0.022778805
210	0x3d3796e4	0.044821635
211	0x3e817cfd	0.2529067
212	0x3e10d156	0.14142355
213	0x3e3add7f	0.18248557
214	0xbf0307c6	-0.51183736
215	0xbdf575cf	-0.11985361
216	0xbf588b8a	-0.8458792
217	0x3ed9e0c2	0.4255429
218	0x3e6ab9b4	0.22922403
219	0xbe183da7	-0.14867269
220	0x3e4e6aa8	0.20157874
221	0xbe2ca4c7	-0.16859733
222	0xbf07f276	-0.5310434
223	0xbdabe5ca	-0.08393438
224	0x3e97da53	0.29658756
225	0x3dc95409	0.098304816
226	0xbedbe311	-0.42946675
227	0x3f312159	0.6919151
228	0xbe53d917	-0.20688282
229	0xbe9314d6	-0.28726834
230	0x3eb6753c	0.35636318
231	0xbd49d531	-0.04927558
232	0xbf76035e	-0.9609889
233	0x3e04fa4a	0.12986103
234	0x3d7a6425	0.06113066
235	0x3d3280bd	0.043579806
236	0x3ed93e60	0.424304
237	0x3f06a969	0.5260225
238	0x3eccfd10	0.4003682
239	0xbe86aafb	-0.26302323
240	0x3ed44445	0.41458336
241	0x3d018bb8	0.031627387
242	0xbd316d13	-0.043316912
243	0x3dd6e683	0.10493185
244	0xbe9c678b	-0.30547747
245	0x3e006557	0.12538658
246	0x3d89e8d9	0.06733865
247	0x3f05e5ff	0.5230407
248	0x3d893cd8	0.06701058
249	0x3bcf6e70	0.006330304
250	0x3e8ea01e	0.27856535
251	0x3e22e86e	0.15908977
252	0xbe7d91a0	-0.24762583
253	0xbf61dce2	-0.88227665
254	0xbd92ab3f	-0.07161569
255	0x3f21e362	0.63237584

advantage_stream.2.bias f4 [4]
0	0x3e004e4a	0.12529865
1	0x3d58edd9	0.052961204
2	0x3dda779b	0.10667344
3	0xbe0972da	-0.13422719
