models/snake_dqn_ep194_score8_20250302_153403.pt (torch, 686626 bytes, 44 tensors)

feature_layers.0.weight f4 [128, 24]
0	0x3cc25c4c	0.023725651
1	0xbf11b979	-0.56923634
2	0xbe278e57	-0.16362892
3	0xbd81976c	-0.063277096
4	0xbe69788b	-0.2279989
5	0x3eaf085c	0.34186065
6	0xbe4c1676	-0.19930443
7	0x3cc0c3a4	0.023530789
8	0xbe5bdd51	-0.21471144
9	0xbbec7b35	-0.007216836
10	0xbea62635	-0.32451025
11	0x3e32508d	0.1741354
12	0xbdea2635	-0.11433069
13	0x3e9727cf	0.2952256
14	0x3dc58d93	0.09646144
15	0x3e7241fd	0.23657985
16	0xbeb973f0	-0.36221266
17	0xbeabe386	-0.33572024
18	0xbf601775	-0.8753579
19	0x3e26b972	0.1628168
20	0x3e1a9c1f	0.15098618
21	0xbe0aa123	-0.13538031
22	0xbf03040f	-0.5117807
23	0xbe948254	-0.29005682
24	0xbef04db4	-0.46934283
25	0xbf01a1ad	-0.5063732
26	0x3d1fb8a5	0.03899445
27	0xbeafee4d	-0.34361497
28	0xbeb31640	-0.34977913
29	0x3f078261	0.5293332
30	0xbe9b0cf4	-0.3028332
31	0x3d1d278e	0.0383678
32	0x3de0782b	0.1096042
33	0xbed51d04	-0.416237
34	0x3e11a455	0.14222844
35	0x3ed5d36e	0.4176287
36	0x3e2f5c41	0.17125036
37	0xbee0128d	-0.43764153
38	0x3e164c91	0.14677645
39	0xbe3972db	-0.1811022
40	0x3d8e81f2	0.06958379
41	0xbe9ef080	-0.31042862
42	0xbe48d572	-0.19612673
43	0xbdf16ce0	-0.117883444
44	0x3e75c72e	0.24001762
45	0x3eb1aa43	0.34700212
46	0x3e2c0e3a	0.16802302
47	0x3f14b7e7	0.5809311
48	0xbf189212	-0.59597886
49	0x3f133191	0.5749751
50	0xbec298d5	-0.38007227
51	0x3d7061c6	0.058686994
52	0x3d973023	0.07382228
53	0x3e604da8	0.21904624
54	0xbda36910	-0.079790235
55	0xbcd23634	-0.025660612
56	0xbeb05a6f	-0.34443995
57	0xbe6289c1	-0.22122861
58	0x3eeff856	0.46869153
59	0x3d80d6b9	0.06290955
60	0xbd428bf3	-0.047496747
61	0xbead17af	-0.33807132
62	0xbe464ba9	-0.193648
63	0x3f32c336	0.6982912
64	0xbe2db38f	-0.16963027
65	0x3f052473	0.5200874
66	0x3daf1ae2	0.08550049
67	0xbf0a5c67	-0.54047245
68	0x3eb47366	0.35244292
69	0x3f111378	0.5667033
70	0xbeeff9d8	-0.46870303
71	0xbde342bb	-0.11096712
72	0xbe51ddfc	-0.20494837
73	0x3d41fe97	0.047361936
74	0x3ce5decd	0.028060341
75	0x3d5705e9	0.05249587
76	0xbf003733	-0.5008423
77	0xbe158a81	-0.14603616
78	0x3d6f28fe	0.058388703
79	0xbec94a69	-0.39314583
80	0xbe7fb9aa	-0.24973169
81	0x3d2106c7	0.039313104
82	0x3e222c9f	0.15837334
83	0xbf09a0e0	-0.537611
84	0xbea9870e	-0.3311085
85	0x3e09a4cf	0.13441776
86	0x3dadd528	0.08487922
87	0xbd28a04d	-0.0411685
88	0xbedc3167	-0.4300644
89	0xbf57e7a1	-0.8433781
90	0x3e1e7ae7	0.15476571
91	0xbb51b46e	-0.0031998414
92	0x3e0e7e86	0.13915452
93	0x3e840105	0.25782028
94	0x3cb60264	0.022217937
95	0x3e5ce003	0.21569829
96	0x3d527cb6	0.051388465
97	0x3d139381	0.036029343
98	0x3d5fa3d4	0.054599598
99	0xbc92f03a	-0.017936815
100	0x3e134726	0.1438261
101	0x3d89b704	0.067243606
102	0xbdb99316	-0.090612575
103	0x3e9ccf80	0.3062706
104	0xbd3cd638	-0.046102732
105	0x3eaf1dd6	0.3420245
106	0xbec1ff9a	-0.3789032
107	0x3df3bf15	0.119016804
108	0x3ed3b144	0.4134618
109	0xbcd03cd9	-0.02541964
110	0xbc4d398d	-0.012525928
111	0xbd76df43	-0.060271513
112	0xbf54e1b7	-0.83156914
113	0xbdb4b00a	-0.08822639
114	0xbe011596	-0.1260589
115	0x3ea7124d	0.3263115
116	0x3d6b1b9c	0.057399377
117	0xbd3798b7	-0.044823375
118	0x3f05930d	0.52177507
119	0xbeefe431	-0.46853784
120	0x3c126d81	0.008937241
121	0xbd71d35d	-0.059039462
122	0xbeaadd57	-0.33371994
123	0xbd386070	-0.045013845
124	0x3d8fd977	0.070239
125	0xbc5d7d7f	-0.01351869
126	0xbe6ff77a	-0.23434249
127	0x3d9dd4ff	0.077066414
128	0xbf12f27a	-0.5740124
129	0xbeca5dfe	-0.39524835
130	0xbe8f2781	-0.27959827
131	0xbd2159e8	-0.039392382
132	0x3e33195e	0.17490146
133	0xbed09ae1	-0.40743163
134	0x3da16527	0.078806214
135	0x3f10a643	0.56503695
136	0xbc8df959	-0.017330812
137	0x3e812e97	0.25230858
138	0x3f2d34ab	0.6765849
139	0x3e0127fd	0.1261291
140	0xbb639394	-0.0034725415
141	0x3efa1d4b	0.48850474
142	0xbdcecdb9	-0.10097832
143	0x3ec40f6c	0.38293016
144	0x3e92c29e	0.28664106
145	0xbd106fd5	-0.0352629
146	0x3e6def74	0.23235875
147	0xbf03371b	-0.5125596
148	0xbe18858e	-0.14894697
149	0xbdf3940b	-0.11893471
150	0x3e9a9084	0.30188382
151	0xbe6d6238	-0.23181999
152	0xbcc862b1	-0.024461122
153	0xbcfbe4f8	-0.03074883
154	0xbe13fc1d	-0.14451642
155	0x3eb6c808	0.35699487
156	0xbd66c6ae	-0.05634182
157	0xbe86087c	-0.26178348
158	0x3ecd080a	0.40045196
159	0x3edaf539	0.42765215
160	0x3e196f85	0.14983948
161	0x3e45c03d	0.19311614
162	0xbe3315a3	-0.17488723
163	0x3ea64c33	0.3248001
164	0xbf1b2936	-0.6060976
165	0x3eb46b9a	0.35238343
166	0x3f4dbaee	0.8036336
167	0xbe58d8f9	-0.21176518
168	0xbf00c8ff	-0.50306696
169	0x3ef180dd	0.47168627
170	0xbec7b58b	-0.39005694
171	0xbe0b737d	-0.13618274
172	0xbde6579a	-0.112471774
173	0xbde38ef7	-0.11111253
174	0x3e014c9c	0.1262688
175	0x3dbafe8a	0.09130581
176	0xbdb21d3e	-0.08696984
177	0x3ed83213	0.42225704
178	0x3e9bfb47	0.30465147
179	0x3f1afae0	0.60539055
180	0xbe0cd8dc	-0.137546
181	0xbe9bf3cb	-0.30459437
182	0x3ddac49e	0.10682033
183	0xbe12e032	-0.14343336
184	0xbf24a885	-0.6431964
185	0x3e689c37	0.22715841
186	0xbd055028	-0.032547146
187	0x3cebea5b	0.028798273
188	0xbde015f4	-0.10941687
189	0xbe9d0f35	-0.30675665
190	0x3e699f1e	0.22814605
191	0xbbafdf3d	-0.0053671882
192	0x3e623d4b	0.22093694
193	0xbe767ab2	-0.24070242
194	0x3ea465d9	0.32108954
195	0x3e2fba57	0.17160927
196	0xbddf46a2	-0.10902144
197	0x3dfe5ea7	0.12420397
198	0x3e1bac35	0.1520241
199	0xbf08918e	-0.533471
200	0xbe5e3dc5	-0.2170325
201	0xbd29a4f1	-0.041417066
202	0x3e933af9	0.2875593
203	0x3d164ef4	0.03669639
204	0x3e757679	0.23970975
205	0x3de84d8d	0.11342917
206	0x3ecacbd2	0.39608628
207	0x3e59c77e	0.21267506
208	0xbe3d61f4	-0.18494397
209	0xbd25bbd0	-0.040462315
210	0x3edcbeb4	0.43114245
211	0x3ee952e9	0.45571068
212	0xbeaa0d74	-0.3321339
213	0xbe1792ab	-0.14802043
214	0x3f01ad97	0.506555
215	0x3e094b02	0.1340752
216	0x3c3ae23b	0.011406477
217	0xbea0a5ff	-0.31376645
218	0x3dae807c	0.085206
219	0xbf023061	-0.5085507
220	0xbeb9f836	-0.36322182
221	0xbee688d2	-0.4502626
222	0x3ea2d183	0.3180047
223	0xbe6c04fe	-0.2304878
224	0x3d40daf4	0.04708381
225	0xbdf3d0ea	-0.119050816
226	0xbd91baa7	-0.07115679
227	0x386cbbac	5.6441568e-05
228	0xbf2846b6	-0.65732896
229	0x3e5294c0	0.20564556
230	0xbf1cfa97	-0.6131987
231	0xba5587a8	-0.00081455195
232	0xbef4a65b	-0.4778317
233	0x3e6a94ab	0.22908275
234	0xbe788599	-0.24269713
235	0xbef9d657	-0.4879634
236	0xbe83ce21	-0.257432
237	0xbe0b23a1	-0.1358781
238	0x3e81b497	0.25333092
239	0x3ef8f28f	0.48622558
240	0x3e482be9	0.19548
241	0xbee3ed17	-0.44516823
242	0x3ef6d98b	0.48212847
243	0xbefa75b9	-0.4891794
244	0xbba62a6e	-0.005070976
245	0x3dadfcbc	0.08495471
246	0xbe2ffadf	-0.17185543
247	0xbe2ba320	-0.16761446
248	0xbe9c2cda	-0.3050297
249	0x3e1de1bb	0.1541814
250	0x3c288437	0.010285429
251	0xbdd13cdd	-0.10216687
252	0xbe8a0faf	-0.2696509
253	0x3dbca91e	0.09211944
254	0xbe3f76d9	-0.1869768
255	0x3eec7501	0.46183017

feature_layers.0.bias f4 [128]
0	0x3e0c6cc8	0.13713372
1	0xbdc33f2e	-0.09533535
2	0x3d77f8b1	0.060539905
3	0x3e1df62e	0.15425941
4	0xbe088f4e	-0.13335916
5	0x3af7dd5e	0.0018910577
6	0xbd0b1b99	-0.033961866
7	0x3e4356a9	0.19076027
8	0x3e66d7b2	0.22543219
9	0x3e0e2247	0.13880263
10	0x3befb1df	0.007314905
11	0x3dc0f9b3	0.09422626
12	0x3e3ec1d0	0.18628621
13	0x3d801aa0	0.06255078
14	0xbdbfa675	-0.09357921
15	0xbdf47a69	-0.119374104
16	0xbda14c9a	-0.07875939
17	0x3e8c6e27	0.2742779
18	0x3e73b5d9	0.23799838
19	0xbdd42c51	-0.10360015
20	0x3e02e012	0.12780789
21	0x3d7245e5	0.059148688
22	0xbe144d8c	-0.14482707
23	0x3d0ed065	0.03486671
24	0xbe04f429	-0.12983765
25	0xbc45a541	-0.012063325
26	0x3e2e3385	0.1701184
27	0x3d6b4077	0.057434525
28	0x3d29deba	0.041472174
29	0xbd833451	-0.06406463
30	0x3d2a1067	0.04151955
31	0xbe318568	-0.17336047
32	0x3e04856b	0.1294152
33	0x3ce808de	0.02832454
34	0x3e3c8e5d	0.18413682
35	0xbe3c268e	-0.18374082
36	0x3dca09ae	0.098651275
37	0x3e176241	0.14783575
38	0xbe27ca44	-0.16385752
39	0xbe86dc13	-0.26339778
40	0x3e0ac535	0.13551791
41	0x3da5cd15	0.08095757
42	0xbe31cd30	-0.17363429
43	0x3e3464ce	0.17616579
44	0x3e87e01a	0.26538163
45	0x3e6fd000	0.2341919
46	0x3d660c96	0.056164347
47	0x3db3459e	0.08753513
48	0x3e011e11	0.12609126
49	0xbdc2ca3a	-0.09511228
50	0x3d928add	0.07155392
51	0x3dc05c83	0.09392645
52	0x3d91f0a0	0.07125974
53	0xbe01b0fb	-0.12665169
54	0x3e762e3d	0.24041076
55	0x3e307c71	0.1723497
56	0xbdb11c5d	-0.08647988
57	0x3d277977	0.040887322
58	0xbe20a60c	-0.15688342
59	0x3c68803f	0.0141907325
60	0x3e75c652	0.24001434
61	0xbe050429	-0.12989868
62	0xbd9c6e56	-0.076382324
63	0x3dab1a98	0.08354682
64	0xbd9926ed	-0.07478128
65	0x3de1de0d	0.11028681
66	0xbe8c9dd8	-0.27464175
67	0xbe31686f	-0.17324995
68	0xbe67e664	-0.22646481
69	0x3d9f1d1f	0.07769226
70	0x3d6e7510	0.05821711
71	0xbe88424e	-0.26613086
72	0x3e8c8003	0.27441415
73	0x3e50e2cc	0.20399016
74	0x3e3d769b	0.18502276
75	0xbe49f3cf	-0.19721912
76	0x3de1861b	0.11011907
77	0xbd5b0aab	-0.05347697
78	0x3da6af8c	0.08138952
79	0x3e687f80	0.22704887
80	0x3e7b69f8	0.24552143
81	0xbdfc9553	-0.12333169
82	0xbe08bdd9	-0.13353671
83	0x3e2f3c0d	0.17112751
84	0xbc383e08	-0.011245258
85	0x3d666b7c	0.05625485
86	0x3cb9261c	0.02260118
87	0x3dce899f	0.10084843
88	0x3dcb5cb0	0.09929788
89	0x3cb0b7a3	0.02157194
90	0x3ced1030	0.028938383
91	0x3e334cbb	0.17509739
92	0x3e3ec19a	0.1862854
93	0xbd0cc98f	-0.03437191
94	0xbe5992f4	-0.21247464
95	0x3e2bf844	0.16793925
96	0xbe0a275d	-0.13491578
97	0x3e125046	0.14288434
98	0x3d7b4f26	0.06135478
99	0x3e04792f	0.12936853
100	0xbdd9c1e8	-0.10632688
101	0x3e08dd32	0.1336563
102	0xbd7c0138	-0.0615246
103	0x3dfaa213	0.122379445
104	0xbdb18a0f	-0.08668911
105	0x3d6372bf	0.055529352
106	0x3e0af69f	0.13570641
107	0x3ddcd430	0.10782659
108	0x3e688a64	0.22709042
109	0xbd8903d5	-0.06690184
110	0x3e98fdff	0.29881284
111	0x3e167e69	0.14696659
112	0x3cf6b316	0.030114692
113	0x3e69cf18	0.22832906
114	0x3dd4348c	0.10361585
115	0xbb0b0565	-0.0021212932
116	0x3e24d506	0.16096887
117	0xbe1fa518	-0.15590322
118	0x3e856f4c	0.26061475
119	0xbba3002d	-0.004974386
120	0xbdff3554	-0.124613434
121	0x3e64c86b	0.22342078
122	0x3cb04949	0.02151932
123	0xbe238fa1	-0.15972759
124	0xbd9ae720	-0.07563615
125	0x3e609796	0.21932825
126	0xbd0c8669	-0.03430787
127	0x3c47bc95	0.012190958

feature_layers.1.weight f4 [128, 128]
0	0x3e26ea3e	0.16300294
1	0x3d7c7f06	0.061644576
2	0x3e3b74c5	0.18306263
3	0x3dde897b	0.10866066
4	0xbd7f54c5	-0.062336702
5	0xbe64ef7b	-0.2235698
6	0x3ce745c8	0.028231516
7	0x3e2d41d0	0.16919637
8	0x3dbe092e	0.09279095
9	0xbc5a70a6	-0.013332522
10	0x3e8aff81	0.2714806
11	0x3b2cc646	0.0026363297
12	0xbe433c79	-0.19066037
13	0x3cf35903	0.02970553
14	0x3ddb2123	0.1069968
15	0x3e53beb7	0.2067822
16	0x3dffe8c5	0.12495569
17	0xbd05d487	-0.032673385
18	0x3e3cc6e9	0.18435253
19	0xbd14748e	-0.036243968
20	0x3dfb615d	0.1227443
21	0xbe294e7b	-0.16533844
22	0xbe02f13b	-0.12787335
23	0xbe25a336	-0.16175541
24	0x3e1a44fd	0.1506538
25	0x3e7a29d9	0.24430026
26	0xbe45985d	-0.19296403
27	0x3e017e19	0.12645759
28	0x3a2435a6	0.0006264098
29	0xbc886e2e	-0.0166541
30	0x3c52ec1c	0.012873676
31	0x3deb75ae	0.11497055
32	0x3dd41fdd	0.1035764
33	0xbdbeb83e	-0.09312485
34	0xbd5bec21	-0.053691987
35	0xbe7f7ded	-0.2495038
36	0x3daf48ce	0.08558808
37	0x3de2dbc9	0.11077077
38	0xbcf5e306	-0.03001548
39	0xbe949ca5	-0.2902576
40	0x3d2a03e7	0.041507628
41	0xbd351040	-0.04420495
42	0x3e4bc277	0.19898401
43	0x3d430f55	0.047622044
44	0xbd1e5475	-0.038654763
45	0xbc16e4ba	-0.009209806
46	0x3d9f89c3	0.07789948
47	0x3dcb9eaf	0.09942376
48	0xbe7be820	-0.24600267
49	0xbd6cdb28	-0.05782619
50	0xbd656cd4	-0.05601199
51	0x3e3a0048	0.1816417
52	0xbd009ea8	-0.031401306
53	0x3e382f3e	0.17986771
54	0x3e62be24	0.22142845
55	0x3c43b99f	0.011946111
56	0x3e18cc01	0.14921571
57	0xbddf0a49	-0.108906336
58	0xbe2500d6	-0.161136
59	0x3ddc1422	0.107460275
60	0x3e96ff45	0.2949163
61	0xbe9881ad	-0.29786435
62	0x3da89f60	0.08233523
63	0x3d8b924f	0.068150155
64	0x3cc4b5b7	0.02401243
65	0x3d4a9dd2	0.049466915
66	0x3d98b981	0.07457257
67	0x3df15162	0.11783101
68	0x3d496298	0.049166292
69	0x3e21ea31	0.15811993
70	0x3d12d44e	0.035847
71	0x3dabd38a	0.08389957
72	0xbdae06cf	-0.084973924
73	0x3e9da051	0.30786374
74	0x3e58bf20	0.21166658
75	0x3d219a23	0.039453637
76	0x3dbab337	0.09116214
77	0x3dfee332	0.12445678
78	0xbd4fbffc	-0.0507202
79	0x3dcfad28	0.10140449
80	0x3ca62ded	0.020285571
81	0xbda2031b	-0.079107486
82	0xbe31f581	-0.17378809
83	0xbe92b615	-0.28654543
84	0x3dda1a4d	0.10649548
85	0xbe1abb8c	-0.15110606
86	0xbe0e6291	-0.13904788
87	0x3e08ea62	0.1337066
88	0x3e0c7dcf	0.13719867
89	0xbdf134ed	-0.11777673
90	0x3dd8fcb1	0.10595072
91	0xbde7db5f	-0.113211386
92	0x3e350102	0.17676166
93	0xbce2a2ab	-0.027665457
94	0x3d5777cd	0.052604485
95	0x3e710031	0.2353523
96	0x3db00cb9	0.08596177
97	0x3e0e1cc0	0.13878155
98	0x3e33583d	0.17514129
99	0xb9fa5594	-0.00047747476
100	0xbdddf00a	-0.108367994
101	0x3e328867	0.17434846
102	0x3e91ae32	0.28453213
103	0x3c8720de	0.016495164
104	0x3e17605d	0.14782853
105	0x3e0aac3a	0.13542262
106	0xbdfd1fcf	-0.12359583
107	0xbe100022	-0.1406255
108	0xbd6f0261	-0.058351878
109	0x3d096cc4	0.033550993
110	0x3e9370f3	0.2879711
111	0x3c414864	0.011797044
112	0xbc1323dc	-0.0089807175
113	0xbdb12375	-0.08649341
114	0x3d0e2e20	0.034711957
115	0x3e5c9a56	0.2154325
116	0x3dedeeab	0.11617788
117	0x3d919ca7	0.07109957
118	0xbdb0cc35	-0.086326994
119	0x3ac8d207	0.0015321382
120	0x3d99653a	0.074900106
121	0x3c86c681	0.016452076
122	0x3db54209	0.08850486
123	0xbe8caa5a	-0.27473718
124	0xbe36ae99	-0.17840041
125	0x3e012e13	0.12615232
126	0xbd071659	-0.032980297
127	0x3e20b398	0.1569351
128	0xbe3f256b	-0.18666618
129	0xbdbbd321	-0.09171129
130	0xbe2c943f	-0.16853426
131	0x3e8e82e5	0.2783424
132	0xb92427af	-0.00015655042
133	0xbc1a9ef6	-0.009437313
134	0x3ad5c5f9	0.0016309611
135	0x3dcf1885	0.101120986
136	0xbdbe5a36	-0.0929455
137	0xbd0a9feb	-0.033843916
138	0xbc9aa78a	-0.018878717
139	0x3d9a47e3	0.075332426
140	0x3e3caa9e	0.1842446
141	0x3e3a5356	0.18195853
142	0x3e173253	0.14765291
143	0x3c8e6b80	0.017385244
144	0xbe3cd43d	-0.18440337
145	0xbda39cfc	-0.07988927
146	0x3d9109d7	0.07081955
147	0xbe2e5bcb	-0.17027204
148	0x3e0bcf44	0.13653284
149	0x3e32664b	0.17421834
150	0x3d223771	0.039603654
151	0x3ee2ca91	0.4429517
152	0xbd5f52bc	-0.05452226
153	0x3d5f7ecc	0.054564282
154	0x3d5df3ea	0.054187693
155	0x3e310565	0.17287214
156	0xbdaccb2c	-0.084371895
157	0x3d02e57d	0.03195714
158	0xbc526eb4	-0.0128437765
159	0xbe2cb1d9	-0.16864718
160	0x3defeccf	0.117150895
161	0x3d38f9dc	0.04516016
162	0x3d5b05e6	0.053472422
163	0xbcbe7a2c	-0.023251615
164	0xbe005be4	-0.12535053
165	0x3b092f2e	0.0020932662
166	0x3df622d5	0.120183624
167	0x3db18e2e	0.08669697
168	0x3d1ee76e	0.038794927
169	0xbd82524c	-0.06363353
170	0xbd390550	-0.045171082
171	0x3e1204ed	0.14259692
172	0x3ea3db76	0.32003373
173	0xbdc548de	-0.09633039
174	0x3da262c5	0.07928995
175	0xbdb73cd2	-0.089471474
176	0xbd90295c	-0.07039139
177	0x3db001ef	0.08594119
178	0x3b336bd8	0.0027377512
179	0xbdcda821	-0.10041834
180	0xbbbbf998	-0.005736541
181	0xbc6e53c8	-0.014546342
182	0x3d8797b5	0.06620733
183	0x3d25b656	0.040457092
184	0xbdf62a82	-0.120198265
185	0x3cd3e988	0.025868192
186	0xbd8c9311	-0.06863988
187	0x3e7c7110	0.24652505
188	0x3e2ff540	0.17183399
189	0xbde644d1	-0.112435944
190	0x3df3268f	0.11872589
191	0xbd9580b4	-0.07299939
192	0x3dd2cc2e	0.102928504
193	0xbb507350	-0.0031807013
194	0xbe497b8c	-0.19676036
195	0x3e8374c5	0.25675026
196	0x3d7b7be0	0.061397433
197	0xbd1646c8	-0.036688596
198	0x3d0b9717	0.034079637
199	0x3d103325	0.035205025
200	0x3cf36dff	0.029715536
201	0xbc5602cd	-0.013062191
202	0xbb1bdc5f	-0.0023782474
203	0xbe025e13	-0.12731199
204	0x3d354417	0.04425439
205	0x3d991734	0.07475129
206	0x3e9ee256	0.31032056
207	0x3c5c0621	0.013429196
208	0x3deeab6a	0.116537884
209	0xbdaf4adb	-0.085591994
210	0xbcaa8666	-0.02081604
211	0xbd0c329d	-0.034227956
212	0xbced4724	-0.028964587
213	0x3da8d9d4	0.082446724
214	0x3e0aefd9	0.13568057
215	0x3de47210	0.11154568
216	0xbe6dc675	-0.23220237
217	0xbe29b2bc	-0.16572088
218	0xbdd12341	-0.10211802
219	0x3d201ddc	0.039090976
220	0x3d6750e1	0.056473617
221	0xbd1addbb	-0.037809115
222	0xbcaaf6bf	-0.02086961
223	0xbd4295af	-0.04750603
224	0x3d019ce2	0.031643756
225	0x3e9a6565	0.30155483
226	0x3b383640	0.0028108507
227	0xbd659f30	-0.056060016
228	0x3e0cdf89	0.13757147
229	0xbd2a9f7e	-0.04165601
230	0x3df131ed	0.11777101
231	0xbdb8c690	-0.09022248
232	0xbb2bd41e	-0.002621896
233	0xbdb68cad	-0.089135505
234	0x3d7b10a5	0.06129517
235	0x3da5dfb2	0.08099307
236	0xbdd17aba	-0.10228486
237	0x3e066d3d	0.13127609
238	0x3e03424a	0.12818256
239	0x3e080ea9	0.13286842
240	0x3d78c244	0.06073214
241	0xbc8f7f44	-0.01751674
242	0x3e0d567c	0.13802522
243	0x3d4591eb	0.04823486
244	0x3d1a6121	0.037690286
245	0xbdec504d	-0.11538754
246	0x3e4ddeda	0.20104542
247	0xbbc0bd73	-0.005881959
248	0xbe450a0e	-0.19242117
249	0x3d90cc2e	0.07070194
250	0x3c35f1d1	0.011105017
251	0x3e55be73	0.20873432
252	0xbc094afd	-0.008379695
253	0x3e09e873	0.13467579
254	0x3df26d64	0.11837271
255	0xbe3e875f	-0.18606327

feature_layers.1.bias f4 [128]
0	0x3d88507f	0.066559784
1	0x3e27cbb0	0.16386294
2	0x3c2f5142	0.010700526
3	0xbdbb52db	-0.09146663
4	0x3d56d6b1	0.05245084
5	0x3d9dea4c	0.07710704
6	0x3cf60089	0.030029552
7	0xbcaa900b	-0.020820638
8	0xbc02d351	-0.007984952
9	0x3e07d1c9	0.1326362
10	0xbd07bb76	-0.03313776
11	0xbdd4160b	-0.10355767
12	0x3c99d033	0.018776035
13	0x3d004984	0.03132011
14	0xbda9408b	-0.08264264
15	0xbd6e1f53	-0.05813534
16	0x3cdf9620	0.027293265
17	0xbd8ef37c	-0.06980035
18	0x3e033bf6	0.12815842
19	0x3dcd52d4	0.10025564
20	0x3dcceaeb	0.100057445
21	0x3d203071	0.039108697
22	0xbe0feb00	-0.14054489
23	0xbd50493b	-0.050851088
24	0x3d7e1e97	0.06204089
25	0x3d2af67c	0.041738972
26	0xbc1304a9	-0.008973279
27	0x3d8d04b9	0.068856664
28	0xbdaf4c6b	-0.085594974
29	0xbe196903	-0.14981465
30	0x3cf12a64	0.029439159
31	0x3d74d41c	0.059772596
32	0xbc8c8643	-0.017153865
33	0xbd0dd660	-0.034628272
34	0x3dd181a5	0.10229806
35	0xbe030a92	-0.12797001
36	0xbbdafd43	-0.006683023
37	0xbda61ac5	-0.08110575
38	0x3c898ec8	0.016791716
39	0x3d3e25d7	0.046422806
40	0x3d2b029d	0.04175054
41	0xbd4d3419	-0.050098512
42	0xbc401427	-0.011723555
43	0x3b8f686a	0.004376461
44	0xbddeb170	-0.10873687
45	0xbc953383	-0.01821304
46	0xbd442703	-0.047888767
47	0xbdba701c	-0.091034144
48	0x3da12f8a	0.078703955
49	0xbc200f2b	-0.009769241
50	0xbdc4ad0d	-0.09603319
51	0x3ca09852	0.019603882
52	0xbd1f2551	-0.038853947
53	0xbd399c6f	-0.045315202
54	0xbcdd2046	-0.026992928
55	0xbd320852	-0.043464966
56	0x3d81a1da	0.06329699
57	0x3cdcf77d	0.02697348
58	0xbc069ab1	-0.008215592
59	0xbdad00e7	-0.08447438
60	0xbda58896	-0.08082692
61	0xbd36b1b1	-0.044603053
62	0x3db76bfc	0.08956143
63	0x3dcae321	0.09906603
64	0x3d9b5a89	0.075856276
65	0xbdefdd4c	-0.11712131
66	0x3d9bc21c	0.07605383
67	0x3db52234	0.08844414
68	0xbe0f8ee5	-0.14019354
69	0x3d83e269	0.06439669
70	0xbdea74cc	-0.114480585
71	0xbe02bc49	-0.12767138
72	0xbd04c74a	-0.03241662
73	0x3e06b2bb	0.13154118
74	0xbd308e5d	-0.04310452
75	0x3cd91684	0.026499994
76	0xbc692ca0	-0.014231831
77	0x3d1612c0	0.036638975
78	0x3da1ac8a	0.07894237
79	0x3de2053f	0.11036157
80	0x3cdf4123	0.02725274
81	0x3e002ce0	0.12517118
82	0xbe059955	-0.13046773
83	0x3c80c8da	0.015720773
84	0xbd5a8844	-0.05335261
85	0xbd61d175	-0.055131394
86	0xbbb563dd	-0.0055355863
87	0xbde1e369	-0.11029703
88	0xbba53d0b	-0.0050426773
89	0x3dfd8a87	0.123799376
90	0xbdbf39e4	-0.09337214
91	0xbd048005	-0.03234865
92	0x3e025db9	0.12731065
93	0xbd22d93e	-0.03975796
94	0x3b1f7ab6	0.0024334616
95	0xbd910da0	-0.07082677
96	0x3d9e9649	0.07743508
97	0x3db3bd64	0.08776358
98	0xbde5ba50	-0.11217177
99	0x3ce94ae9	0.028478103
100	0x3c8d97d4	0.017284311
101	0x3d49a341	0.049227957
102	0x3da78936	0.08180468
103	0x3d9284ec	0.07154259
104	0x3d7464e7	0.05966654
105	0x3d8dfc36	0.06932871
106	0xbd86f4f1	-0.065896876
107	0x3d44442d	0.04791658
108	0xbdc1a445	-0.0945516
109	0x3d38a601	0.04508019
110	0x3d86c4cf	0.06580507
111	0x3ce0e1ce	0.027451422
112	0xbdb11cba	-0.08648057
113	0xbdd15619	-0.102215
114	0x3d667143	0.05626036
115	0xbba9b402	-0.0051789293
116	0x3c10e30e	0.008843197
117	0xbd5be722	-0.053687222
118	0x3da9a755	0.08283869
119	0x3d33078e	0.043708377
120	0x3ce2687f	0.027637718
121	0xbd7f70b7	-0.062363353
122	0x3d3f2836	0.046669208
123	0xbd062b0b	-0.032755893
124	0xbd8ab3b8	-0.0677256
125	0xbd704511	-0.058659617
126	0xbdffa2bd	-0.12482212
127	0xb9b35fca	-0.0003421291

value_stream.0.weight f4 [64, 128]
0	0xbc745cae	-0.014914675
1	0xbddc1a67	-0.10747223
2	0x3e54fe62	0.20800164
3	0xbd36ba5a	-0.044611312
4	0x3e4b9f05	0.1988488
5	0x3dab1d01	0.083551414
6	0x3d169f1d	0.036772836
7	0xbd72fa49	-0.05932072
8	0xbc6f51dd	-0.01460692
9	0xbdb05c32	-0.08611335
10	0x3ca8724d	0.020562315
11	0xbba81b08	-0.0051301755
12	0xbe1d0daf	-0.15337251
13	0x3c52a588	0.012856849
14	0xbe278db1	-0.16362645
15	0x3e1cf57f	0.15328024
16	0x3e51cbc2	0.20487884
17	0x3e440fd5	0.19146664
18	0xbb22339f	-0.0024750007
19	0xbddee46c	-0.10883412
20	0x3d91ca0f	0.07118618
21	0xbe23935f	-0.15974186
22	0xbcc8ebf0	-0.024526566
23	0x3e3e8946	0.18607053
24	0xbd650db7	-0.055921283
25	0x3e9b3b79	0.30318812
26	0xbc1e9c38	-0.0096808
27	0x3e60fd97	0.21971737
28	0x3d2eea03	0.04270364
29	0x3d40ebff	0.047100063
30	0x3e8d7fa3	0.27636442
31	0x3c82f47e	0.015985724
32	0xbda21392	-0.07913889
33	0x3d541ef3	0.051787328
34	0xbe87d62d	-0.2653059
35	0x3e4c0987	0.1992551
36	0x3e31ba45	0.17356212
37	0x3d3e4ffd	0.046463
38	0x3d9d28e5	0.07673816
39	0xbe535014	-0.20636016
40	0x3d804b64	0.062643796
41	0x3e8cb573	0.27482185
42	0x3d75dd29	0.060025368
43	0x3e09c7c5	0.13455112
44	0xbb4f9548	-0.0031674672
45	0xbe401e1b	-0.18761484
46	0x3d1725b6	0.0369012
47	0xbea5f235	-0.32411352
48	0x3de03bc8	0.10948902
49	0x3d4fffd2	0.05078108
50	0x3e80cfd5	0.25158563
51	0x3dd5b357	0.10434597
52	0x3e5241e5	0.2053295
53	0xbe0cf6b5	-0.13765986
54	0x3db77500	0.08957863
55	0x3e2cd156	0.1687673
56	0x3daae035	0.08343545
57	0x3e1e1e90	0.15441346
58	0xbdcb9d1c	-0.099420756
59	0xbdf196ac	-0.117963165
60	0xbe56cbbd	-0.20976157
61	0x3e325ace	0.17417452
62	0xbc55aaab	-0.013041179
63	0x3dcd72d9	0.10031671
64	0x3e3ddd5e	0.18541476
65	0x3e2c33d1	0.16816641
66	0xbdcfa401	-0.10138703
67	0xbb3057ec	-0.0026907874
68	0xbd90c1ef	-0.0706824
69	0x3c53704a	0.01290519
70	0x3e4451cb	0.19171827
71	0x3eb83660	0.35978985
72	0x3d697841	0.05699945
73	0xbc452be0	-0.012034386
74	0x3e2e5b17	0.17026936
75	0xbd4ea701	-0.050452236
76	0xbe344a17	-0.17606388
77	0x3e1790b6	0.14801297
78	0x3dcbc0f1	0.0994891
79	0xbd637992	-0.05553586
80	0x3d315015	0.043289263
81	0x3d31e3dd	0.043430198
82	0x3dd97651	0.1061827
83	0xbe7a34af	-0.2443416
84	0xbe248fbf	-0.1607046
85	0xbda918b1	-0.08256663
86	0x3c5207e1	0.012819261
87	0x3e05ebb6	0.13078198
88	0x38fa39dc	0.00011931706
89	0x3e86cc04	0.26327527
90	0x3e595bd0	0.2122643
91	0x3ddf9857	0.109177284
92	0xbd307fd6	-0.043090664
93	0xba77e168	-0.00094558904
94	0xbd8cc3c7	-0.06873279
95	0x3d6d7e34	0.057981685
96	0x3e1d3fb2	0.15356329
97	0xbdf96c9f	-0.12178921
98	0x3e97c1f1	0.29640153
99	0xbd4a6890	-0.049416125
100	0xbdeac55b	-0.11463424
101	0x3c86d8d3	0.016460812
102	0x3dad455d	0.084604956
103	0xbd11a66a	-0.035559095
104	0x3e0f79c2	0.1401129
105	0xbdc3307a	-0.095307305
106	0x3d05f780	0.032706738
107	0x3ea8692d	0.32892743
108	0xbe5c2549	-0.21498598
109	0xbd919fee	-0.07110582
110	0x3e38d894	0.18051368
111	0x3d619a1f	0.055078622
112	0x3e08c8ae	0.13357803
113	0x3e2685dd	0.16262002
114	0x3e54ad44	0.2076922
115	0xbde83e91	-0.113400586
116	0x3e5afaaf	0.2138469
117	0x3bddbc7b	0.0067668534
118	0xbdbc0253	-0.09180131
119	0x3d249c7a	0.04018829
120	0x3da0045a	0.0781333
121	0xbe09bcf7	-0.1345099
122	0xbc98b2da	-0.01863997
123	0xba37251a	-0.00069864246
124	0x3e654cdb	0.223926
125	0xbd283ff1	-0.041076604
126	0xbc98f238	-0.018670186
127	0x3e2cdedc	0.16881889
128	0xbe753d0c	-0.23949069
129	0xbdc03c5c	-0.09386513
130	0x3d750ac3	0.059824716
131	0xbe20623a	-0.1566247
132	0x3c60d3ce	0.013722373
133	0xbcf40d5c	-0.029791526
134	0xbd20e83e	-0.039283983
135	0xbe4a0115	-0.19726975
136	0x3db52da0	0.08846593
137	0x3c80a98a	0.015705843
138	0x3d3baf99	0.04582176
139	0x3e55138a	0.20808235
140	0xbcaf6f5a	-0.021415401
141	0xbda4060b	-0.08008965
142	0xbe042410	-0.12904382
143	0xbd0a7d5f	-0.03381097
144	0xbd18c7cd	-0.03729992
145	0x3d4c1224	0.049821988
146	0xbdaa4503	-0.08313944
147	0x3cbf3b61	0.023343744
148	0xbe273c5d	-0.1633162
149	0xbd73b737	-0.0595009
150	0x3e79c3d0	0.24391103
151	0x3e786084	0.24255568
152	0xbe114b97	-0.14188991
153	0x3dab659a	0.08368988
154	0xbdac6a16	-0.08418672
155	0x3e135380	0.14387321
156	0x3bce106b	0.0062885783
157	0xbbf8b015	-0.00758935
158	0xbd735cfa	-0.05941484
159	0xbd452bd9	-0.04813752
160	0xbe1612b7	-0.14655577
161	0xbd60612a	-0.054780163
162	0xbe0a93fc	-0.13533014
163	0xbd5dfa96	-0.054194055
164	0x3d0ce9de	0.03440272
165	0x3d1e94ce	0.03871613
166	0xbe0197b4	-0.12655526
167	0x3d4e9d7f	0.05044317
168	0x3edb51ca	0.42835838
169	0xbd70375c	-0.058646545
170	0xbe8e20de	-0.2775945
171	0xbe6e1b26	-0.23252544
172	0x3e34be22	0.17650655
173	0xbdc1bc4b	-0.09459742
174	0xbd84fdd9	-0.0649373
175	0xbd20783e	-0.039177172
176	0x3db253f8	0.08707422
177	0x3e218d2c	0.15776509
178	0xbe8111a1	-0.25208762
179	0xbe2c1b68	-0.1680733
180	0xbe8a2451	-0.26980832
181	0xbdea423b	-0.11438414
182	0x3dd83ff5	0.10559074
183	0xbe76c62a	-0.24099031
184	0xbdbbe82d	-0.091751434
185	0x3dabc5e2	0.083873525
186	0x3e0f2021	0.139771
187	0x3d9efb4f	0.07762777
188	0x3da1b29c	0.07895395
189	0xbe47ed5a	-0.19524136
190	0xbcfe6aa4	-0.03105671
191	0xbd4e61fd	-0.050386418
192	0xbcfb6803	-0.030689245
193	0xbe805f41	-0.25072673
194	0xbe12a96d	-0.14322443
195	0xbe138b28	-0.14408553
196	0xbe8ecc49	-0.27890232
197	0xbd87185c	-0.06596443
198	0x3daa7a4a	0.08324106
199	0xbd359f46	-0.044341348
200	0x3dd23d85	0.1026564
201	0xbe39baec	-0.18137711
202	0xbd8b8afb	-0.06813618
203	0xbd292815	-0.04129799
204	0xbe63995e	-0.22226474
205	0x3e2b41c3	0.16724305
206	0xbe6e16cf	-0.23250888
207	0xbd547a23	-0.05187429
208	0xbd158ca7	-0.03651109
209	0xbd31acdd	-0.043377746
210	0x3e5df313	0.21674757
211	0x3dc0c9bd	0.094134785
212	0x3cef8ccd	0.029241944
213	0x3e92452e	0.28568405
214	0x3db55b3b	0.088552915
215	0xbdf3d3d1	-0.11905635
216	0xbe3f1494	-0.18660194
217	0xbdc4b15d	-0.09604142
218	0x3d2dfb3c	0.042475924
219	0x3d3acaeb	0.045603674
220	0xbd3bda06	-0.04586222
221	0x3e33f346	0.1757327
222	0xbeb3b9f2	-0.35102803
223	0xbd435b6b	-0.047694605
224	0x3d0ad53a	0.033894755
225	0x3dfa8ed0	0.122342706
226	0xbd8abd91	-0.06774438
227	0xbe0ec55b	-0.13942473
228	0xbe503cdd	-0.20335717
229	0x3d6e667a	0.058203198
230	0x3e27a5a2	0.16371778
231	0xbdbf8c51	-0.09352935
232	0xbd49ae3f	-0.04923844
233	0x3e14f2da	0.14545766
234	0xbe007488	-0.12544453
235	0x3d9db9e3	0.07701471
236	0x3ce549a1	0.02798921
237	0x3c19fb8d	0.009398353
238	0xbda17f05	-0.07885555
239	0xbd25b772	-0.04045815
240	0xbd2a486d	-0.041572977
241	0x3d16e327	0.036837723
242	0xbc8526e0	-0.016253889
243	0x3af709ed	0.0018847563
244	0xbd0a276e	-0.03372901
245	0x3d58fc77	0.052975144
246	0xbdfc6956	-0.12324779
247	0xbdbc3b79	-0.09191031
248	0xbdee9ae5	-0.116506375
249	0xbd487982	-0.048944004
250	0xbe40696f	-0.1879022
251	0x3d075b1b	0.03304587
252	0x3b5587dd	0.0032582202
253	0xbe5c5354	-0.21516162
254	0xbd124663	-0.035711657
255	0xbbbca614	-0.0057571027

value_stream.0.bias f4 [64]
0	0x3bc24503	0.005928637
1	0x3cfd542d	0.030923927
2	0x3d9000fd	0.070314385
3	0xbdae8116	-0.08520715
4	0xbbb2a8e0	-0.0054522604
5	0xbd783b96	-0.0606037
6	0x3dbe0c2c	0.09279665
7	0x3c59813f	0.013275444
8	0x3ce17291	0.02752045
9	0x39db9c2a	0.00041887286
10	0xbc001773	-0.007818091
11	0x3e0b6310	0.13612008
12	0x3d7fb054	0.06242402
13	0xbb2af71b	-0.0026087228
14	0xbe0e3db5	-0.13890727
15	0x3cdb04f6	0.026735764
16	0x3c671c71	0.014105902
17	0x3d8b3a23	0.06798198
18	0x3d160523	0.036625993
19	0x3b6dca74	0.0036284002
20	0xbd93882b	-0.07203706
21	0xbc6ffbde	-0.014647452
22	0x3df30458	0.11866063
23	0xbdbe02a9	-0.09277851
24	0xbcdb04b0	-0.026735634
25	0x3cdaf480	0.026727915
26	0xbcaaf6bd	-0.020869607
27	0xbd9c9ab8	-0.07646698
28	0x3c0a77dd	0.008451429
29	0xbcfab1d9	-0.030602382
30	0x3b921cc9	0.004458998
31	0x3d1fc0a3	0.039002072
32	0x3dfbb547	0.12290435
33	0x3e035284	0.12824446
34	0xbdb79fdc	-0.08966038
35	0x3e009260	0.12555838
36	0xbd5c082a	-0.053718723
37	0x3d1673e1	0.036731604
38	0xbd5bcb6e	-0.053660803
39	0xbc551021	-0.013004334
40	0x3e187687	0.14888965
41	0xbda14697	-0.07874792
42	0xbd0d764b	-0.03453664
43	0xbd2fda85	-0.042933006
44	0x3d3c23b5	0.04593249
45	0x3b56b414	0.0032761144
46	0xbc3a6301	-0.011376143
47	0xbd12c2a3	-0.03583015
48	0x3d1606f4	0.036627725
49	0x3d8a68d9	0.06758279
50	0x3dd8889b	0.105729304
51	0xbdd9b04c	-0.10629329
52	0x3d6f499f	0.05841982
53	0x3cd064a6	0.025438618
54	0x3c4a2879	0.012338751
55	0xbce2eb77	-0.027700169
56	0x3c9683d4	0.018373407
57	0x3e25c13c	0.16186994
58	0xbdbcbbfc	-0.09215543
59	0x3c08850e	0.008332504
60	0xbba0ad67	-0.0049034837
61	0x3bfe92ad	0.00776895
62	0xbd166fb2	-0.036727615
63	0x3db9e120	0.09076142

value_stream.2.weight f4 [1, 64]
0	0xbdb98dd0	-0.09060252
1	0xbe054727	-0.13015424
2	0x3dd080b7	0.101808004
3	0xbe33edd5	-0.17571194
4	0x3e278ebd	0.16363044
5	0xbeb099e6	-0.34492415
6	0x3dff2027	0.124573044
7	0x3de51040	0.1118474
8	0x3e40d6c8	0.18831933
9	0x3e06a292	0.13147953
10	0x3d75aa97	0.05997714
11	0x3d9713ff	0.07376861
12	0x3e1005ec	0.14064759
13	0x3f01601b	0.5053727
14	0xbd897016	-0.06710832
15	0x3eed16a5	0.4630634
16	0xbdf4c547	-0.1195169
17	0x3ea8706d	0.32898274
18	0xbde949bd	-0.113910176
19	0xbebb71ac	-0.36610162
20	0xbe8e6457	-0.27810928
21	0x3d56ac63	0.052410495
22	0x3e0c8d38	0.13725746
23	0xbdc789da	-0.0974309
24	0xbe933f6c	-0.28759325
25	0xbe0ee8a7	-0.13955937
26	0xbe8d0da5	-0.27549472
27	0xbe6b7ea9	-0.22997536
28	0x3e835156	0.25647992
29	0x3e61cc05	0.22050484
30	0x3e084336	0.13306889
31	0x3e6aed67	0.22942124
32	0x3e21193c	0.15732282
33	0x3d67275a	0.056434013
34	0xbea8cac8	-0.3296721
35	0x3de6104e	0.112335786
36	0xbe42bb00	-0.19016647
37	0xbeaf41f4	-0.34230006
38	0xbd6ff5ef	-0.05858415
39	0x3ddbff73	0.107420824
40	0x3e1a9ecd	0.1509964
41	0xbd4b7ddc	-0.049680576
42	0xbde9d997	-0.11418455
43	0xbe2bf7c3	-0.16793732
44	0x3e760334	0.2402466
45	0x3e165107	0.14679347
46	0xbf083d62	-0.5321866
47	0x3e542fad	0.20721312
48	0xbdcef463	-0.10105207
49	0x3ddd7934	0.10814133
50	0x3e177b7b	0.14793198
51	0xbe0ca3cc	-0.13734359
52	0x3ef118c5	0.4708921
53	0x3e304b73	0.17216282
54	0x3ecf268f	0.40459105
55	0x3ebe71b4	0.37196124
56	0xbe0d0772	-0.13772371
57	0x3df194bd	0.11795948
58	0xbeae132d	-0.33999005
59	0xbee65878	-0.4498937
60	0xbdede99f	-0.11616825
61	0x3bab29ce	0.0052234894
62	0x3eae85d6	0.34086484
63	0x3e3516d2	0.17684487

advantage_stream.0.weight f4 [64, 128]
0	0xbc60e264	-0.013725851
1	0xbc8e1b92	-0.01734713
2	0xbe5ecb02	-0.21757129
3	0x3ead6480	0.33865738
4	0x3e034993	0.12821035
5	0xbd9fef69	-0.07809336
6	0x3c1c70ac	0.009548347
7	0x3e1f49ff	0.15555571
8	0x3d94f3cf	0.07273065
9	0x3ade1fef	0.0016946773
10	0x3b667f9e	0.003517128
11	0x3db47936	0.08812182
12	0xbc606517	-0.013695977
13	0xbdd9951a	-0.10624142
14	0x3f157515	0.5838178
15	0xbcc05da1	-0.023482146
16	0xbd83ce1d	-0.06435797
17	0xbe4a9856	-0.19784674
18	0x3bf20053	0.0073852926
19	0xbe11f4bf	-0.1425352
20	0xbe9bb9bb	-0.3041514
21	0xbe32c9bf	-0.17459773
22	0x3d397680	0.045279026
23	0xbe9ed4be	-0.31021684
24	0x3cdec657	0.027194185
25	0xbe7cd5c2	-0.24690917
26	0xbe2f049f	-0.17091607
27	0xbd49532b	-0.04915158
28	0x3e73d581	0.23811914
29	0x3e8c74bc	0.2743281
30	0x3da5f477	0.081032686
31	0xbd96f718	-0.07371348
32	0x3d5b2e6d	0.053511072
33	0x3db5a398	0.08869094
34	0xbe4f35db	-0.20235388
35	0x3dcdd2d7	0.1004998
36	0xbdefc752	-0.11707939
37	0x3cfa8988	0.030583158
38	0xbc629745	-0.013830011
39	0x3e9f2ee5	0.31090465
40	0x3c16042d	0.009156269
41	0x3e0002e1	0.12501098
42	0xbde6fcab	-0.11278661
43	0x3e82d3e1	0.25552276
44	0xbe60a999	-0.21939696
45	0xbe280bc6	-0.16410741
46	0x3defb5d7	0.11704605
47	0x3e9d0787	0.30669805
48	0x39906a87	0.0002754519
49	0xbe3cf075	-0.18451102
50	0x3deb2013	0.11480727
51	0xbdca8910	-0.09889424
52	0xbe191bde	-0.14952037
53	0x3e5ad34b	0.21369664
54	0xbe767168	-0.24066699
55	0xbe5dc73b	-0.21658032
56	0x3dea8088	0.11450297
57	0x3e0f5c1c	0.1399998
58	0xbe838579	-0.2568777
59	0xbe492eb6	-0.19646725
60	0x3e6715b3	0.22566871
61	0xbb0edd1b	-0.002179927
62	0xbe53baff	-0.20676802
63	0x3d188d02	0.03724385
64	0xbd3f41fc	-0.046693787
65	0x3d831e2d	0.0640224
66	0x3e040a39	0.12894525
67	0x3de6f414	0.11277023
68	0x3d18cb30	0.03730315
69	0xbda7e8de	-0.08198713
70	0xbddc1079	-0.107453294
71	0x3e57b4df	0.2106509
72	0x3d9a4762	0.075331464
73	0xbe5ccc84	-0.21562392
74	0x3e61f782	0.22067073
75	0x3c0dd684	0.008657102
76	0x3cc38207	0.023865713
77	0xbd8d25bc	-0.06891963
78	0xbc909d35	-0.017653087
79	0x3d8fe8e6	0.07026844
80	0xbe0f58c0	-0.13998699
81	0xbdd833f2	-0.10556783
82	0x3e0b243a	0.13588038
83	0x3e3ca781	0.18423273
84	0x3ec342f6	0.38137025
85	0x3e1fe248	0.15613663
86	0x3e116d18	0.14201772
87	0x3ca1b970	0.019741744
88	0x3eabbd5c	0.33542907
89	0xbe87329a	-0.26405793
90	0x3eabdf0e	0.33568615
91	0xbd5f095a	-0.054452278
92	0x3685cb00	3.987341e-06
93	0x3eed223a	0.46315175
94	0x3df570c4	0.11984399
95	0xbdbfa21d	-0.093570925
96	0x3ad08faa	0.0015911956
97	0xbdfe0cf1	-0.12404812
98	0xbdbdd0bc	-0.092683285
99	0x3cb76efe	0.022391792
100	0xbe1dd285	-0.15412338
101	0xbe9b18a9	-0.30292252
102	0xbd78a728	-0.060706288
103	0xbe1db11b	-0.15399592
104	0x3c67f9b6	0.014158657
105	0xbce47c8e	-0.027891424
106	0x3e264f51	0.16241194
107	0x3d0031e0	0.031297565
108	0xbd834754	-0.06410089
109	0x3ce123a0	0.027482808
110	0xbe60f1ee	-0.21967289
111	0xbdb46eb3	-0.08810177
112	0x3e103857	0.14083992
113	0xbbbf546c	-0.0058389213
114	0xbd901ecf	-0.07037126
115	0x3d220afd	0.03956126
116	0x3e9088ca	0.28229362
117	0x3f1d8bf9	0.61541706
118	0xbdcb5e2d	-0.09930072
119	0xbe12c8f9	-0.14334477
120	0x3daba4d9	0.083810516
121	0x3d07cf24	0.03315653
122	0xbe865ec5	-0.26244178
123	0xbd9240f0	-0.07141292
124	0x3e74f52d	0.23921652
125	0xbe62f8ca	-0.22165218
126	0x3b82202b	0.00397112
127	0x3d85fc64	0.0654228
128	0x3df5539b	0.11978837
129	0xbd61b0a0	-0.055100083
130	0x3c9b90e4	0.018989988
131	0xbd9beed4	-0.07613912
132	0x3e0abd36	0.1354874
133	0xbdb36033	-0.08758583
134	0x3e182558	0.14857996
135	0xbe210176	-0.15723214
136	0xbda115ef	-0.078655116
137	0xbe1124a9	-0.14174141
138	0xbda55ffd	-0.08074949
139	0x3e1dcefd	0.15410991
140	0x3e136a75	0.14396079
141	0xbe02b2c4	-0.12763506
142	0xbd22024e	-0.03955298
143	0xbd11f741	-0.03563619
144	0x3dff743a	0.1247334
145	0x3e92882e	0.28619522
146	0xbdbddeee	-0.09271036
147	0xbbc10941	-0.0058909957
148	0xbe0d24ec	-0.13783616
149	0x3d8645d6	0.06556289
150	0xbe306551	-0.17226149
151	0x3e8ea451	0.27859738
152	0xbd87d77d	-0.06632898
153	0x3b555262	0.0032550325
154	0x3df5e482	0.12006475
155	0xbde2ce43	-0.110744976
156	0x3d257667	0.04039612
157	0x3d74d10a	0.059769668
158	0x3e1e1600	0.1543808
159	0xbd732086	-0.05935719
160	0xbe4e799a	-0.20163575
161	0xbd2bc85d	-0.04193913
162	0x3d91f69f	0.07127117
163	0x3e39bd63	0.18138652
164	0xbe203894	-0.15646583
165	0xbe93cea7	-0.288686
166	0xbe8d799d	-0.27631846
167	0x3bb4cd35	0.0055176266
168	0x3e5f91d6	0.21832976
169	0xbba6d57c	-0.0050913673
170	0xbde4118d	-0.1113616
171	0xbd89dce1	-0.067315824
172	0xbd72cb98	-0.059276193
173	0x3de6c58a	0.11268146
174	0x3e156ae0	0.14591551
175	0xbe3a3989	-0.1818601
176	0xbce48663	-0.027896112
177	0xbe7fc46b	-0.24977271
178	0x3acca13c	0.0015612016
179	0xbd10aa54	-0.035318688
180	0xbcfc4695	-0.030795375
181	0x3e8b7099	0.27234343
182	0x3e02003e	0.12695405
183	0x3d840797	0.0644676
184	0x3d3f9807	0.046775844
185	0xbd3ee0b6	-0.04660102
186	0xbe6625ce	-0.22475359
187	0xbd56e2d4	-0.052462414
188	0xbe491461	-0.1963668
189	0x3d602a91	0.054728094
190	0x3e7e4dc2	0.2483435
191	0x3e1a749b	0.15083544
192	0x3d9caa73	0.07649698
193	0x3e34f763	0.17672496
194	0xbd1c3cc0	-0.038143873
195	0xbb86b36f	-0.0041107456
196	0xbc10760a	-0.008817205
197	0xbe96cebe	-0.29454607
198	0xbd1471d1	-0.036241356
199	0xbd5d5142	-0.05403257
200	0x3e25f587	0.16206942
201	0x3e95aa2f	0.29231402
202	0xbcb303a5	-0.021852324
203	0xbcbc14ff	-0.02295923
204	0x3cac3033	0.021019077
205	0x3e68df9d	0.22741552
206	0x3d8f263c	0.069897145
207	0x3dfd93e9	0.12381727
208	0x3a773c4a	0.0009431286
209	0xbd467a3d	-0.04845642
210	0x3e87a33e	0.2649173
211	0x3d18a0c4	0.037262693
212	0x3d9852c4	0.07437661
213	0xbc59e212	-0.013298528
214	0xbe0c83e1	-0.13722183
215	0x3f3d7fdb	0.74023217
216	0xbdc24396	-0.09485547
217	0xbe319bae	-0.17344543
218	0x3e799bc8	0.24375832
219	0xbc60d53c	-0.013722714
220	0x3dfb019f	0.122561686
221	0xbdb31bf0	-0.08745563
222	0xbe5ca642	-0.21547797
223	0xbd55fc7c	-0.05224274
224	0x3e9fded2	0.31224686
225	0xbc9c62c9	-0.019090073
226	0x3ea21b60	0.3166151
227	0xbe08a77e	-0.13345143
228	0x3d950b42	0.07277538
229	0x3d502baa	0.05082289
230	0xbcf56ced	-0.029959166
231	0x3e7cc131	0.24683072
232	0xbe797710	-0.24361825
233	0x3d70a327	0.058749344
234	0x3deb1cc1	0.11480094
235	0x3c443143	0.0119746355
236	0xbd816cb9	-0.06319565
237	0xbe7e8bd3	-0.24858026
238	0x3d85dce2	0.06536271
239	0x3e5bb851	0.2145703
240	0x3d92ed4f	0.07174169
241	0x3e773e79	0.24144925
242	0xbda9bc8c	-0.082879156
243	0x3ca63f0a	0.020293731
244	0x3e8d2a1c	0.2757119
245	0xbe851fd1	-0.26000836
246	0x3e1cdb5d	0.15318055
247	0xba8f4295	-0.0010929877
248	0x3ee1905e	0.44055456
249	0x3dbc43bd	0.091926076
250	0xbcd9c6fd	-0.026584143
251	0x3dcb95f8	0.09940714
252	0xbe186d0c	-0.14885348
253	0x3dcfbf54	0.10143915
254	0x3d123567	0.03569546
255	0x3e3e4f81	0.18585016

advantage_stream.0.bias f4 [64]
0	0xbdc0dd0d	-0.09417162
1	0x3ceed21f	0.029152928
2	0x3d51dab8	0.051233977
3	0xbd6beded	-0.05759995
4	0x3d8908d4	0.06691137
5	0x3d077ece	0.033079915
6	0xbd5d2343	-0.053988706
7	0xbdec7c75	-0.11547176
8	0xbb8b4b7f	-0.004250943
9	0xbda4e1b3	-0.08050861
10	0x3ce39ffd	0.02778625
11	0xbcfbfdc1	-0.030760648
12	0xbdc3e0a3	-0.095643304
13	0x3c891116	0.01673178
14	0x3a2e72a2	0.0006654655
15	0x3d3f4e9a	0.04670582
16	0x3d148029	0.036255036
17	0xbdafd110	-0.085847974
18	0x3c488655	0.0122390585
19	0xbd3a1511	-0.045430247
20	0xbd34075d	-0.043952335
21	0xbd452b6c	-0.048137113
22	0x3c9aee50	0.018912464
23	0x3d4a28fd	0.049355496
24	0xbdb910fe	-0.09036444
25	0x3c315039	0.010822349
26	0xb9d0531e	-0.0003973478
27	0xbd9bde7f	-0.07610797
28	0xbd9298ed	-0.071580745
29	0xbd90ccf5	-0.070703425
30	0xbcd2f25c	-0.025750332
31	0xbd84b873	-0.064804934
32	0xbc8dcdb1	-0.017309995
33	0xbd5360ea	-0.051606096
34	0x3adcf81e	0.0016858613
35	0x3dc06a8d	0.09395323
36	0xbc819a19	-0.01582055
37	0x3d6b0b78	0.057383984
38	0xbd3641d6	-0.04449638
39	0x3d3bb2f6	0.045824967
40	0x3d02980c	0.031883284
41	0x3c02e843	0.007989946
42	0xbd2b61c9	-0.041841302
43	0x3d0a02fa	0.033694245
44	0xbc28815a	-0.010284746
45	0x3b9be42a	0.004757424
46	0x3d273e9f	0.040831205
47	0x3cd60be0	0.02612871
48	0xbd5bc2e5	-0.053652663
49	0x3ccf9393	0.025338924
50	0x3d06d06a	0.032913603
51	0xbd1f5851	-0.038902584
52	0x3d8fb7cd	0.07017479
53	0x3cdcea24	0.026967116
54	0xbbff6e52	-0.0077951336
55	0xbacece65	-0.0015778063
56	0xbcfe1a57	-0.03101842
57	0x3c0e098c	0.008669268
58	0x3d93938c	0.07205877
59	0x3d8950cc	0.06704864
60	0x3c57082d	0.013124508
61	0xbc86b03e	-0.01644146
62	0xbd7c19ee	-0.061548166
63	0x3d9d4b44	0.076803714

advantage_stream.2.weight f4 [4, 64]
0	0x3efede09	0.49778774
1	0xbe9281df	-0.2861471
2	0x3d687a17	0.05675706
3	0xbd54b1f9	-0.05192754
4	0x3dd68ba9	0.10475857
5	0xbce46393	-0.027879512
6	0xbe0a510f	-0.13507484
7	0xbd11b212	-0.03557021
8	0xbde33b5e	-0.11095308
9	0x3deea8aa	0.11653264
10	0xbee711a5	-0.4513065
11	0xbea692f6	-0.32533997
12	0x3eba9612	0.3644262
13	0xbf37c605	-0.7178653
14	0x3e025e06	0.1273118
15	0xbd5d1be2	-0.05398167
16	0xbd66fd1b	-0.056393724
17	0x3ead09e3	0.33796605
18	0x3db13bfe	0.08654021
19	0x3e11004d	0.14160271
20	0x3e511bde	0.20420787
21	0xbc020688	-0.0079361275
22	0x3e9b05ac	0.30277765
23	0x3ea51e2b	0.3224958
24	0x3e27643b	0.16346829
25	0xbd018728	-0.031623036
26	0xbed9de9f	-0.4255266
27	0x3e48d686	0.19613084
28	0x3ed15c0f	0.40890548
29	0x3f09d21c	0.53836226
30	0xbdd72170	-0.105044246
31	0x3da07b0d	0.0783597
32	0xbeaedf23	-0.34154615
33	0xbe0c1a7b	-0.13681976
34	0x3e8bf321	0.2733393
35	0xbead1b6b	-0.3380998
36	0x3ec71465	0.38882747
37	0x3df430a9	0.11923344
38	0x3e1e6399	0.15467681
39	0x3e81a31f	0.25319764
40	0x3f004141	0.5009957
41	0x3d74a633	0.059728812
42	0xbdef1723	-0.11674335
43	0xbd78983e	-0.060692064
44	0xbebc1dc1	-0.3674145
45	0x3e215ad2	0.15757301
46	0xbe99f036	-0.3006608
47	0x3e839926	0.2570278
48	0xbe9e9e96	-0.30980366
49	0xbe7e985b	-0.24862806
50	0xbd6e00ea	-0.05810634
51	0x3e09e80d	0.13467427
52	0x3e02bbdf	0.1276698
53	0xbdd800b3	-0.10547008
54	0x3e37b519	0.17940177
55	0x3dd0e54f	0.10199987
56	0x3b13f421	0.0022575932
57	0xbdc6fe5a	-0.097164825
58	0xbdeb44da	-0.11487742
59	0xbd9ef395	-0.07761303
60	0xbe87c257	-0.26515457
61	0x3f3fcd00	0.7492218
62	0x3d95b2cc	0.073094934
63	0xbf10ba8b	-0.5653464
64	0x3e3c8764	0.18411022
65	0xbf34f363	-0.7068388
66	0x3ed71e59	0.4201534
67	0xbe460e88	-0.1934148
68	0x3d6184bc	0.055058226
69	0x3c6136f7	0.013746015
70	0x3ec2d17a	0.38050443
71	0x3d6442c7	0.055727746
72	0x3e53669e	0.20644614
73	0x3d060c78	0.032726735
74	0x3e839c88	0.2570536
75	0x3e4c11cd	0.19928665
76	0xbbcad47b	-0.0061898804
77	0xbc49270b	-0.012277375
78	0x3ddab8f6	0.1067981
79	0xbd294a4f	-0.04133063
80	0xbdfa41a2	-0.1221955
81	0x3e79153a	0.24324504
82	0xbee34fae	-0.44396728
83	0xbec054a9	-0.3756459
84	0xb996eba6	-0.000287858
85	0x3bae93e6	0.0053276895
86	0x3f2154ed	0.6302021
87	0x3ec06726	0.37578696
88	0x3e8db2ec	0.2767557
89	0x3e72035d	0.23634095
90	0x3e6e13b7	0.23249708
91	0xbeb78803	-0.35845956
92	0xbdd95966	-0.106127545
93	0x3eb5227f	0.3537788
94	0x3e70ed30	0.2352798
95	0xbe9c13e1	-0.30483916
96	0x3e8fb7b7	0.2806985
97	0xbde5df69	-0.11224253
98	0x3e942b77	0.2893941
99	0xbf030a3a	-0.5118748
100	0x3e89f829	0.26947144
101	0x3f0d5263	0.5520384
102	0xbebc51f5	-0.36781278
103	0x3eb2913d	0.34876433
104	0x3e010886	0.12600908
105	0x3e3d6941	0.18497182
106	0x3e77434d	0.24146767
107	0x3ec51304	0.3849107
108	0xbd225da9	-0.039640103
109	0xbddc4eab	-0.10757192
110	0xbdc93976	-0.09825413
111	0x3ed1f8c8	0.41010118
112	0x3ee635b3	0.44962844
113	0x3d687206	0.056749366
114	0x3eaf23e7	0.3420708
115	0x3ce939db	0.02846997
116	0xbe14281b	-0.14468424
117	0x3da65dad	0.08123336
118	0x3c6e8f11	0.014560477
119	0x3d3ad529	0.04561344
120	0x3d9bd50e	0.07608996
121	0x3ee0c7fc	0.43902576
122	0x3d8de05d	0.069275595
123	0xbe29240a	-0.16517654
124	0x3e143313	0.14472608
125	0x3e80a66f	0.2512698
126	0x3e7d86ec	0.247585
127	0xbf016b53	-0.5055439
128	0xbe91f2a0	-0.2850542
129	0xbe1ff76a	-0.15621725
130	0x3ca7f28f	0.020501403
131	0x3d3e411b	0.04644881
132	0x3e5b5908	0.21420681
133	0xbd948784	-0.0725241
134	0x3dbee80d	0.09321604
135	0xbe3e2a71	-0.18570878
136	0x3f2a0e15	0.6642774
137	0x3d3488b1	0.04407567
138	0xbdac741d	-0.08420584
139	0x3ee6d1df	0.45081994
140	0xbd64d546	-0.055867456
141	0x3e2060cd	0.15661927
142	0xbd18f61a	-0.037344076
143	0xbe90ce48	-0.2828238
144	0x3e16f264	0.14740902
145	0x3e4c085e	0.19925067
146	0xbeecba22	-0.46235758
147	0x3d752ea9	0.05985895
148	0xbdbc870a	-0.09205444
149	0xbea38487	-0.31937048
150	0xbe37761a	-0.17916146
151	0xbe7e04f7	-0.24806581
152	0x3e027a9d	0.12742086
153	0x3e800029	0.25000122
154	0x3df89ef1	0.12139691
155	0x3dd32a64	0.1031082
156	0xbe4e8bf8	-0.20170581
157	0xbea8a32c	-0.3293699
158	0x3e565f84	0.20934874
159	0x3de5cd44	0.11220792
160	0xbda1aa03	-0.07893755
161	0xbdcee79d	-0.101027705
162	0xbeecaec7	-0.46227095
163	0x3efb3234	0.4906174
164	0xbe19f397	-0.15034328
165	0xbed272ab	-0.4110311
166	0x3ba7471c	0.0051049124
167	0xbea10211	-0.3144689
168	0x3e72b68e	0.23702452
169	0xbec58967	-0.38581392
170	0xbc8b19a4	-0.01698
171	0xbcced7f5	-0.02524946
172	0x3ec74e28	0.38926816
173	0xbd248394	-0.040164545
174	0x3f1ec818	0.6202407
175	0xbedb8e20	-0.4288187
176	0x3e2992f9	0.16559972
177	0x3dd1909e	0.10232662
178	0xbe89808f	-0.26855895
179	0xbe1a9683	-0.15096478
180	0x3dce3797	0.10069197
181	0xbe2ef0dc	-0.17084068
182	0xbdda8ab3	-0.10670986
183	0xbef913e2	-0.48647982
184	0x3e5e6dcf	0.21721576
185	0x3ed6ce7e	0.41954416
186	0xbb1198c6	-0.0022216304
187	0x3e420748	0.1894809
188	0x3e147ca0	0.14500666
189	0x3eb251bc	0.34827983
190	0xbe561a70	-0.20908523
191	0x3f250c05	0.64471465
192	0xbdde0387	-0.108405165
193	0xbdfb0180	-0.122561455
194	0x3e38ecac	0.18059033
195	0xbe7df8de	-0.24801967
196	0x3dfbd4b8	0.12296432
197	0xbd206d9a	-0.039167024
198	0xbdc0b922	-0.09410311
199	0xbe22d62d	-0.15902014
200	0x3dfbecb0	0.12301004
201	0xbe6e887b	-0.2329425
202	0x3e106372	0.14100435
203	0x3ee74bd4	0.4517504
204	0x3e973d6a	0.29539043
205	0x3ecde0fb	0.4021071
206	0xbecacc03	-0.39608774
207	0x3dbbe577	0.09174626
208	0xbe328b77	-0.17436014
209	0xbd9b2e77	-0.07577222
210	0xbd7d0f6e	-0.061782293
211	0x3db4e8c7	0.08833461
212	0x3d1c436c	0.038150236
213	0x3c5bbd50	0.013411835
214	0xbee4488f	-0.44586608
215	0xbdf51070	-0.11966026
216	0xbe32e6e9	-0.17470898
217	0x3ea281aa	0.3173955
218	0x3e4e451b	0.20143549
219	0xbe11d8b1	-0.14242817
220	0x3d9967b7	0.07490485
221	0xbe08af20	-0.13348055
222	0xbeb58358	-0.3545177
223	0xbde38fc2	-0.11111404
224	0x3e921f93	0.28539714
225	0xbbe21150	-0.0068990365
226	0xbeca2695	-0.3948256
227	0x3f1ae32a	0.60502875
228	0xbe1e463e	-0.15456483
229	0xbe7f0c0e	-0.24906942
230	0x3e49dc65	0.1971298
231	0xbd6e1e0c	-0.058134124
232	0xbe59a362	-0.21253732
233	0x3cae8e15	0.021307984
234	0x3d12f3fd	0.035877217
235	0x3d8e3426	0.0694354
236	0x3eb957f4	0.36199915
237	0x3eb96a8c	0.362141
238	0x3eb555b1	0.3541694
239	0xbe67ed1a	-0.22649041
240	0x3ec481c5	0.38380256
241	0xbd2b7c46	-0.041866563
242	0xbd8d1126	-0.068880364
243	0xbc38d605	-0.011281495
244	0xbe9c9ad9	-0.3058689
245	0x3e4d0b45	0.2002383
246	0xbc2de27d	-0.010613081
247	0x3e80d9e9	0.25166252
248	0x3dcf158f	0.10111534
249	0xbc8fe1e1	-0.017563762
250	0x3ec1f14d	0.3787941
251	0x3e38a321	0.18030979
252	0xbe4bb76a	-0.19894186
253	0xbea2e7f9	-0.31817606
254	0xbe0890cd	-0.13336487
255	0x3f09b5b1	0.53792864

advantage_stream.2.bias f4 [4]
0	0x3dda1548	0.1064859
1	0x3d322369	0.0434908
2	0x3df6c65d	0.120495535
3	0xbdf36327	-0.11884146
