models/snake_dqn_ep239_score3_20250303_093911.pt (torch, 702114 bytes, 44 tensors)

feature_layers.0.weight f4 [128, 24]
000000 b3 6c 84 be e7 a6 5b 3e 07 77 6c be 8b d6 0e 3e
       -0.2586418 0.21450387 -0.2309228 0.13949029
000010 34 1a 07 3f de b0 38 bf de 0e 3d be 5b 60 96 be
       0.5277436 -0.7214488 -0.18462703 -0.29370388
000020 ac 84 c6 bd fe 6a f8 bd 04 a1 58 bd eb 50 8c be
       -0.09693274 -0.12129782 -0.05288793 -0.27405486
000030 2e 41 c4 3e c2 8c 82 bd fc 10 a8 be 78 5a f2 3e
       0.38330978 -0.06374504 -0.32825458 0.47334647
000040 19 6b b4 be c3 d2 3a 3f de fa fe 3e c8 c5 df be
       -0.3523796 0.72977847 0.4980077 -0.43705583
000050 c3 28 0e 3f 8d 26 ec bd bb 8c d8 3e 97 6f 6e 3e
       0.5553095 -0.115307905 0.4229487 0.23284756
000060 0d 50 ac bd 52 b8 7d 3d 34 4c d8 bd 04 3e 87 be
       -0.08413706 0.06194336 -0.105614096 -0.26414502
000070 6a 91 b0 be b2 99 cf be e0 2e aa 3e ac 47 12 be
       -0.34485942 -0.40546948 0.33238888 -0.14285153
000080 d4 73 91 be 48 82 93 3d 11 b3 29 bc 47 fc 1d 3f
       -0.28408682 0.072025836 -0.010357634 0.6171307
000090 10 f4 ea 3d 0d 52 65 3e b5 ab e2 3c ad 32 41 bc
       0.114723325 0.22394581 0.027669767 -0.011791867
0000a0 b2 7b 3c 3e cd 25 34 3f fd bb 90 3d 3d 08 9a ba
       0.18406561 0.7037018 0.07067106 -0.0011751723
0000b0 20 bd bd bc 22 42 53 3d 34 5c 1a 3f 34 34 b2 bd
       -0.02316147 0.05157674 0.6029694 -0.08701363
0000c0 aa 2a 9f bd b5 40 b4 be 9b cb 49 3d 41 64 50 be
       -0.077718094 -0.35205618 0.04926644 -0.20350744
0000d0 ff e1 d4 bd 16 38 a1 be e5 2f 49 3e 61 ea 91 3e
       -0.10394668 -0.31488103 0.19647177 0.2849913
0000e0 5d c0 53 be 6d 5f ba be cb 2e c5 bd d8 a6 04 bf
       -0.2067885 -0.3640093 -0.09628066 -0.51817083
0000f0 e3 2b 31 3d e7 38 9f be bb f4 c4 3e 84 2a c1 3d
       0.043254744 -0.310981 0.38467965 0.09431937
000100 e7 ac f5 be f1 50 dc bd d7 a1 bc be e6 11 68 be
       -0.47983477 -0.10757626 -0.36842224 -0.22663078
000110 b8 a7 20 be b2 42 ac 3d b2 b5 01 3f 24 5c 6c 3d
       -0.1568898 0.084111586 0.5066787 0.05770506
000120 82 fa e5 3d ff 3c ab 3e 09 b6 50 3f 73 ea ee 3e
       0.11229421 0.33444974 0.81527764 0.46663246
000130 73 e6 1e 3e 8c e6 a2 3e 1c 5e c5 3d e3 16 7c 3e
       0.15517597 0.31816518 0.096370906 0.24618106
000140 41 50 70 3e 67 35 82 3e 13 28 c8 3d 71 10 50 3f
       0.23468114 0.25431368 0.097732686 0.8127509
000150 1e 75 9b 3e c1 08 f9 3d 74 e7 1f bf cd 1c a8 3e
       0.3036279 0.12159873 -0.62462544 0.32834473
000160 39 b9 47 3a 55 f0 cc 3d 03 bf e4 3d da 1c de be
       0.0007618848 0.10006777 0.11169245 -0.43381387
000170 d7 04 dc 3e ec 4d 40 be f9 eb 13 3f 42 0c 3f be
       0.42972443 -0.18779725 0.5778194 -0.1865702
000180 3e 1f 35 bd 95 af 4f 3f 3c 82 1e be 79 9b 8f be
       -0.044219248 0.8112729 -0.15479368 -0.28048304
000190 0e af 87 3e 5a 13 34 3e a4 16 eb be f7 13 32 bd
       0.26500744 0.17585507 -0.4591571 -0.04347607
0001a0 0d 21 6d be 55 bb df 3e 5d 2d 58 3e cc a1 31 3e
       -0.23157139 0.4369761 0.21111055 0.17346877
0001b0 c1 e7 d7 be 45 f0 e7 be 52 8d c4 be 09 04 c6 bd
       -0.42169002 -0.453005 -0.3838907 -0.096687384
0001c0 54 08 0e bf 0d d3 a9 3e f3 8d 14 3f e9 3d ae 3e
       -0.5548146 0.3316883 0.580291 0.3403161
0001d0 59 7d ee 3e 27 46 48 3e ac ff 3e bd 00 8f 15 be
       0.46580008 0.19558011 -0.046630546 -0.14605331
0001e0 55 e6 66 bc df 38 a9 3d 84 1c 36 be 2b e8 24 3e
       -0.014093001 0.082628004 -0.17784315 0.1610419
0001f0 77 9f 0e be 17 61 7b 3e 2f f4 67 bd 41 50 cf bb
       -0.13928019 0.24548756 -0.056629356 -0.0063267057
000200 ef a8 76 3e c0 cd c0 3d 39 3f 67 be 82 79 05 be
       0.2408788 0.09414244 -0.22582711 -0.13034633
000210 7b 4a cb be 59 fe ad bd fc 48 95 be 6f 99 35 3f
       -0.39705262 -0.084957786 -0.29157245 0.70937246
000220 2f c5 cc be 11 68 44 3e 67 3a 35 be ea 75 16 3e
       -0.3999419 0.19180323 -0.1769806 0.14693418
000230 e3 b4 d9 3e 6d 64 49 be 52 5e b8 3e fd b6 f9 bd
       0.42520818 -0.19667216 0.3600946 -0.12193105
000240 df b1 5f be 8f 7f 0e bd 86 b5 93 be e6 0e 84 be
       -0.21845196 -0.034789618 -0.2884943 -0.25792617
000250 69 ee 26 3e 3c 3b ce 3e d1 55 04 bf b3 55 7e 3d
       0.16301884 0.40279567 -0.51693445 0.062093448
000260 73 9b 5e 3e 8c 7b 04 3e 49 c3 9f bd 0e 24 05 3d
       0.21738987 0.12937754 -0.078009196 0.032505088
000270 b7 89 96 3e 26 9d 35 bc 0e 5f 98 be 07 75 a6 bc
       0.29401943 -0.01108483 -0.2976002 -0.020319475
000280 98 12 73 be c4 bf f8 bd c9 a4 c0 be f7 6b 8a 3e
       -0.23737562 -0.121459514 -0.3762572 0.27035496
000290 82 03 8c 3d a5 fa 0a 3f d5 e8 08 bf 6f 33 c5 3e
       0.068366066 0.54288703 -0.53480273 0.38515803
0002a0 2b 94 20 bd e5 83 29 bd 1b 0b 9a bd 0c 60 52 bd
       -0.039203804 -0.04138555 -0.075216495 -0.05136113
0002b0 2e 73 92 be 20 c1 57 be 01 fd b1 3e a5 17 7d 3e
       -0.286035 -0.21069765 0.3476334 0.24716051
0002c0 5a ef df 3e d3 b6 f5 bd 3c 25 2f bd 04 37 75 3e
       0.43737298 -0.119977616 -0.04276012 0.23946768
0002d0 ce dd a2 bd 5b 5b 5f be f2 7c c4 be 3d 42 62 3e
       -0.07952462 -0.21812193 -0.38376576 0.2209558
0002e0 58 6a d7 3e b7 4b 53 3e cd cf 80 3d e8 0d 13 be
       0.4207332 0.20634352 0.06289635 -0.14360774
0002f0 f3 5a 57 3e 3f 01 fa bb 17 a6 a5 3e 68 b7 16 3f
       0.21030788 -0.007629543 0.3235328 0.58873606
000300 3b 47 70 bd 1e e9 1a be 82 a7 75 be dc 70 86 3e
       -0.05866168 -0.1512799 -0.2398968 0.2625798
000310 6f f7 52 bd c3 3d b5 3c 99 ca e5 bd 82 cc 9b bd
       -0.051505502 0.022124177 -0.11220283 -0.07607366
000320 de 29 45 be 1e c5 1c 3e 3b 55 cc 3d 0c 3a ea 3e
       -0.19254252 0.15309569 0.09977194 0.4574741
000330 d0 66 49 be ae 5a 4c 3e 9e 28 42 be 0e 6c 51 3d
       -0.19668126 0.19956467 -0.18960807 0.05112844
000340 e2 5d 09 3e 8f 0c 8c 3e 2f 01 19 be fd d9 c7 be
       0.1341472 0.2735333 -0.14941858 -0.390335
000350 c9 b7 13 bf af f2 e9 3e 6b fa c4 bd fa 60 3b 3e
       -0.5770231 0.45692965 -0.09618076 0.18298712
000360 ef 37 c0 3e 10 07 21 be d7 78 5f bc 2b fc 36 3e
       0.37542674 -0.1572535 -0.01363965 0.17869632
000370 48 46 7c 3e 6a c1 6e be a2 5c 01 3e b7 71 1d be
       0.24636185 -0.23315969 0.12632993 -0.1537541
000380 89 48 fb be 4d 6a 86 be fa bb eb 3e 29 0a 62 be
       -0.49078777 -0.26252976 0.46041852 -0.22074188
000390 c8 a3 c6 bd 77 13 4d 3e fa 55 9f be db da 54 be
       -0.096992075 0.20026956 -0.31120282 -0.20786612
0003a0 ff 37 0e be e8 93 05 bf e8 17 2b 3d 73 55 7d bd
       -0.13888548 -0.5217881 0.041770846 -0.06184907
0003b0 7b 99 48 be 4b 0b e2 3e b4 f5 b6 be ef 9e 7b bc
       -0.19589798 0.4414924 -0.35734332 -0.015357717
0003c0 54 80 6b 3e 26 93 2e 3e 27 83 13 3e 98 9a 6c be
       0.22998172 0.1704832 0.144055 -0.23105848
0003d0 7d 2c 35 be b3 9a bd 3c 8c f8 83 bd 43 3e 74 be
       -0.17692752 0.023145055 -0.06443891 -0.23851876
0003e0 ab e1 e6 3c b8 a4 a6 3e 5d 52 6e be f9 b1 03 3f
       0.028183779 0.32547545 -0.23273607 0.5144344
0003f0 ce ea ec be 28 c9 61 bd 9e 31 92 be b2 1e 36 be
       -0.46272892 -0.05512348 -0.2855348 -0.17785147

feature_layers.0.bias f4 [128]
000000 0c 2f 49 be f0 0a 36 be e5 ac b2 3c b7 9f 3b 3e
       -0.19646853 -0.1777761 0.021810958 0.18322645
000010 4c e7 13 3e 0c 2a be bd 9c 22 20 3e 03 0b 53 3e
       0.14443702 -0.092853636 0.15638202 0.2060967
000020 e2 e2 73 3e bc 46 74 3e 9d c4 1f 3e c5 56 b2 bd
       0.23817018 0.23855108 0.15602346 -0.08707956
000030 51 cf 92 3e ac 13 6d 3d 3d d2 09 bd 45 e0 98 3d
       0.28673795 0.05788009 -0.033647764 0.07464651
000040 62 b0 17 3d 97 b7 4b 3d 28 26 b7 bd cb 65 4c be
       0.037033446 0.04973563 -0.089428246 -0.19960706
000050 bc d1 b6 3d e7 53 dc bd 28 43 88 3e 58 35 26 be
       0.089267224 -0.107581906 0.26613736 -0.16231287
000060 e3 43 1a be c4 c1 88 ba fe db a0 bd 3e e3 d4 3d
       -0.15064959 -0.0010433723 -0.0785446 0.103949055
000070 fc 04 00 3e 5d 93 9f 3e db 85 cb bd 64 d3 8f be
       0.12501901 0.31167117 -0.0993764 -0.28090966
000080 d5 b6 1b 3d 93 19 4d bd a4 86 46 3d 95 fd 02 3e
       0.03801616 -0.050073218 0.048468247 0.12792046
000090 25 54 6d bd 39 a2 c9 bc ef 44 74 be 39 58 5f 3e
       -0.057941575 -0.024613487 -0.23854421 0.21810998
0000a0 09 66 6c 3d 30 b6 99 bd c4 f6 6d be 32 8e 9b 3e
       0.057714496 -0.07505453 -0.23238665 0.30381924
0000b0 10 8a 42 be dc be 24 3d ec 92 8b be f6 7e c4 bd
       -0.18997979 0.04022108 -0.2726053 -0.095945284
0000c0 b5 9f 44 be 4b 12 36 be c5 d0 f7 3c bd 5f bd bd
       -0.19201548 -0.17780416 0.030250916 -0.09246776
0000d0 d8 93 5f bc 9b ae 3a 3d 09 d1 69 3d 01 87 a4 bc
       -0.013646089 0.045576673 0.057084117 -0.020083906
0000e0 a1 04 1e be 7b 1a 5b be c7 fe 16 bd 76 5f 6d 3e
       -0.15431453 -0.2139682 -0.03686407 0.23180947
0000f0 52 87 ec bd bf 4f 6f bd 1d 18 23 be a5 da 31 3e
       -0.11549248 -0.05842566 -0.15927167 0.17368563
000100 31 0b 89 bd 6b a6 98 bd bf 22 6c bd 8f fb 77 3e
       -0.06691588 -0.07453617 -0.057650324 0.24217056
000110 ff d3 81 3d ed dc 4c 3e a3 29 80 bd ae 04 2d 3d
       0.06339263 0.20006151 -0.062579416 0.04224079
000120 45 2d 6a 3e 91 44 84 3e 3e 1a 05 3e 25 e3 44 3e
       0.22868831 0.25833562 0.12998292 0.19227274
000130 64 7b 21 be aa 29 10 3e 26 de 45 be b8 16 3e be
       -0.15769726 0.14078394 -0.19323024 -0.18563354
000140 f9 c5 5a be 89 16 26 bd 75 08 d5 3c 5a 11 3c be
       -0.21364583 -0.040548835 0.02600501 -0.18365994
000150 21 a1 91 3c fc e0 73 3e c0 d1 2a bd 33 11 d6 3d
       0.017777028 0.23816293 -0.04170394 0.10452499
000160 cf 5e 24 3d a9 17 4b be dd 4e f4 bd bb 77 6a 3e
       0.04012948 -0.19833244 -0.119291045 0.22897236
000170 dc 1a 19 3d d5 c0 ab 3c 95 df 95 3d 7d 4d eb 3a
       0.03737913 0.020965973 0.073180355 0.001795217
000180 2a 6b bf 3d 7c f5 2c be f7 16 88 bd d0 31 35 3d
       0.09346612 -0.1689052 -0.06645005 0.044236958
000190 79 8d f5 bd 1f d8 5d 3e 66 98 10 3e e4 af 30 bd
       -0.119898744 0.21664475 0.14120635 -0.043136492
0001a0 06 e7 ad bd 39 25 24 be 78 43 89 3e 2b 53 65 3d
       -0.0849133 -0.16029824 0.26809287 0.05598752
0001b0 b0 fb 24 bc 27 db 8e be b0 93 94 bd c9 e8 df bd
       -0.010069773 -0.27901575 -0.07254732 -0.10933072
0001c0 2b a8 ec bd 70 01 83 bd 5d d7 80 3c b8 e4 12 3e
       -0.11555513 -0.063967586 0.015727693 0.14345062
0001d0 4e d5 8a be 67 44 66 be 70 9e 7e 3e e9 cb b8 3d
       -0.27115864 -0.22487031 0.24865127 0.09023268
0001e0 a6 64 78 be 29 e4 11 3e 36 45 5d be 47 03 f2 3d
       -0.24257144 0.14247192 -0.21608433 0.11817031
0001f0 8e 31 c7 3c d4 ac 01 be f3 42 14 bd c8 b4 11 bd
       0.024315622 -0.12663585 -0.03619666 -0.035572797

feature_layers.1.weight f4 [128, 128]
000000 ff a4 cd bd f6 be bd 3d 23 bc c1 3d 9a 42 3b be
       -0.10041236 0.092649385 0.09459712 -0.18287125
000010 a6 98 02 bd 66 de 2b be d3 ff da 3d c2 33 99 3d
       -0.03188386 -0.16784057 0.10693326 0.07480575
000020 0b ec 90 3b 20 67 ef 3d 48 05 17 3e 06 a3 ac 3e
       0.0044226698 0.116895914 0.14748108 0.33718127
000030 0d 7c 24 3e 50 e3 62 3d ba ae 18 3d 87 d6 1c be
       0.16062947 0.055392563 0.037276007 -0.1531621
000040 1a 9a 91 3e 7b 67 86 3d 45 f8 c7 3d fc 88 63 bd
       0.28437883 0.06562706 0.097641505 -0.05555056
000050 d2 74 25 3c e9 73 89 be 28 15 4c 3d 19 29 a4 be
       0.010098653 -0.26846245 0.049824864 -0.32062605
000060 a9 0a a4 bb 39 44 f0 bd 22 42 37 bd ad 41 40 3e
       -0.0050061536 -0.117317624 -0.044740804 0.18775053
000070 7d 20 d8 3d e0 64 45 bd d1 97 30 bd eb 70 1f be
       0.10553072 -0.048191905 -0.043113533 -0.15570419
000080 64 81 68 3c b5 25 e4 bb a0 fb 19 be e6 ae 11 3e
       0.014191005 -0.006962503 -0.15037394 0.14226875
000090 d3 e8 07 be 44 bd 4a bd 21 8a 59 bc 4c c4 ff 3d
       -0.13272409 -0.049496904 -0.013277561 0.124886125
0000a0 9f 3b 4b be 86 ad f1 3d 00 f5 69 be f8 76 1a bd
       -0.19846962 0.11800675 -0.22847366 -0.037711114
0000b0 9c 49 be bd 9e ce 1e be d2 2a 21 3e 34 ef 75 3e
       -0.092913836 -0.15508506 0.15738991 0.2401703
0000c0 99 a4 27 3d f5 45 92 be 8e 82 69 be a2 53 ae 3c
       0.040928457 -0.28568998 -0.22803709 0.021280114
0000d0 7f bd 9f 3d 05 a1 b5 bc 7f 3c 46 3e 61 4d c0 bc
       0.077998154 -0.022171507 0.19359015 -0.023474397
0000e0 3c e9 0f 3d 55 d6 b6 bd ec 69 31 be 05 e3 e2 3d
       0.03513454 -0.08927599 -0.17325562 0.11078457
0000f0 3f 94 1e bd 7f 2d 8b 3d e7 94 92 bd 70 e8 5e 3c
       -0.038715597 0.06795787 -0.07157307 0.013605222
000100 73 82 fa bd 37 6a 17 bd 27 c6 d0 3b 6c cc b0 3d
       -0.122319125 -0.03696653 0.006371278 0.086327404
000110 6a ae 02 3e 7a 4e 3e 3d 50 17 9d bc c6 c8 e1 3c
       0.12761846 0.04646156 -0.019176155 0.027561557
000120 ba 05 4d 3e 0d 26 1c ba 8e 4d 22 3d 48 ae 6a 3e
       0.20021716 -0.0005956598 0.039624743 0.22918046
000130 74 58 37 bd 5a aa e1 3d 75 09 a1 3e 9d 5a ed 3d
       -0.04476209 0.1101882 0.31452528 0.11589549
000140 d8 22 28 be b6 5f f4 bc c0 89 b6 bc fc a8 99 3d
       -0.16419542 -0.029830795 -0.022282481 0.07502934
000150 ff 24 19 be 53 25 51 bd c8 8f f6 3d cf cf 02 be
       -0.14955519 -0.051060986 0.12039143 -0.12774585
000160 ab b9 66 3d 20 8c a9 be 15 6e 40 3e b2 bb d0 3c
       0.05632941 -0.3311472 0.18791993 0.025480125
000170 10 7a 03 be cd f0 0c 3d 15 7a 58 3c 7e 4d 9f bc
       -0.12839532 0.034409333 0.0132127 -0.01944613
000180 52 12 89 bd 8b f7 0f 3e 40 49 4b be ee 73 da 3d
       -0.066929474 0.14059274 -0.19852161 0.10666643
000190 fd d4 b2 bd 80 36 2f 3e d4 f2 88 bd f9 87 d8 bd
       -0.087320305 0.17110634 -0.06686941 -0.1057281
0001a0 d4 00 6c 3c f4 29 cf 3c 57 02 48 3e 46 69 e6 bc
       0.014404494 0.02528856 0.19532143 -0.02812637
0001b0 6b 5a b2 bd 81 bb 03 be 9d 18 a7 3e e2 15 cf bd
       -0.08708652 -0.12864496 0.32635966 -0.10111596
0001c0 15 bf 21 3e fe 07 01 be c2 da dc 3d 97 e3 12 3e
       0.15795548 -0.12600705 0.10783912 0.14344631
0001d0 91 ff 9e be 1e 6e f0 3d 13 0e 3c bc 1a 10 17 3e
       -0.31054357 0.11739753 -0.011477965 0.14752236
0001e0 ff be 9c 3d 00 79 30 be 0c ff 0e 3d 0f ba 42 bd
       0.07653617 -0.17233658 0.0349112 -0.04754072
0001f0 a1 0b af 3d 9c d4 9e bd f4 24 22 bd 5f 39 1e be
       0.0854714 -0.07755396 -0.039586022 -0.15451573
000200 14 43 45 bd 08 37 0e 3e 66 64 af 3d ef 6c 99 bd
       -0.048159674 0.1388818 0.08564071 -0.074914806
000210 6d bc f6 3d a8 e1 1c bd be 19 83 bc ac b4 a8 bb
       0.12047658 -0.03830114 -0.016003486 -0.005148491
000220 6c df ce bd 5f 64 90 3d bd f7 bf 3d 27 7b 01 be
       -0.10101208 0.07050394 0.09373424 -0.12644635
000230 5c f5 45 3e 97 83 bf bd a9 0f a8 bd 66 71 a7 bd
       0.19331878 -0.09351271 -0.08206112 -0.08175926
000240 82 53 ce 3d db 66 a3 3d 03 b1 23 bd 43 7e b1 bd
       0.100745216 0.079786025 -0.039963733 -0.08666661
000250 2a b7 d1 bd a4 36 99 3d 58 c7 c7 bd 5c 3c 3f 3c
       -0.10240014 0.07481125 -0.09754819 0.011672106
000260 62 3e 66 bd da 5e 41 3e c0 35 65 be 36 34 44 be
       -0.056211837 0.18883839 -0.22383785 -0.19160542
000270 12 3f 2a 3c e0 83 08 3d 86 74 0b bd 29 a7 8a 3d
       0.010391014 0.03332889 -0.034046672 0.067701645
000280 91 73 6d 3d 88 b7 c2 3d 60 49 17 be d0 04 80 bb
       0.05797154 0.09507662 -0.14774084 -0.0039068237
000290 c3 35 1a 3e 63 14 31 3e 29 29 32 3d fd c7 c1 3d
       0.15059571 0.17292933 0.043496285 0.09461973
0002a0 a3 e7 1f bd c9 7b 96 bd a2 2e 2d be 56 ab db 3c
       -0.039039265 -0.07347829 -0.1691232 0.026815098
0002b0 70 26 cd bd f2 f0 80 be 09 e1 d2 3d c7 88 3b 3d
       -0.10017097 -0.25183827 0.10296828 0.045784738
0002c0 3e 93 a0 3d b7 5b 8d bd 38 30 40 3d 40 cf 13 3d
       0.07840584 -0.06902259 0.046920985 0.03608632
0002d0 a1 3b 16 be a9 32 23 3e ca b0 7c 3e 3e 13 81 bd
       -0.14671184 0.15937294 0.24676815 -0.06302498
0002e0 1b 1d 98 3d 05 ac a9 bd d6 98 64 be 95 9d 20 3e
       0.074274264 -0.08284763 -0.22323927 0.15685113
0002f0 81 9f bd 3d 2b 31 a9 bd 7c 14 38 be 70 12 3b 3e
       0.092589386 -0.08261331 -0.17976564 0.18268752
000300 90 14 83 3e e0 1d aa bd 7e 61 fa bd da 19 00 be
       0.25601625 -0.083064795 -0.122256264 -0.12509862
000310 8c c0 55 3d 7c c3 76 bc 0a 37 42 be 90 04 8d bc
       0.05218558 -0.015061256 -0.18966308 -0.01721409
000320 92 c5 bf 3d 89 81 1c 3e c9 07 38 bd 05 c0 43 3e
       0.093638554 0.15283789 -0.0449293 0.19116218
000330 70 74 83 bd a3 46 80 bc 90 d1 ba bd d0 32 cc 3c
       -0.06418693 -0.015658682 -0.09122002 0.024926573
000340 7a 9b 36 3e 2e 29 0b bd ee 94 a8 bd 6e 66 e3 3e
       0.17832747 -0.03397482 -0.08231531 0.44414085
000350 9b 05 22 be a6 12 b1 bb ea 76 f2 bd a3 4e 00 3e
       -0.15822451 -0.0054038344 -0.11839087 0.12529998
000360 2b 9d 1f be 53 59 05 be cd ce 37 be b8 8f 73 3d
       -0.15587299 -0.13022356 -0.17949982 0.059463233
000370 f0 29 10 be d7 67 0d 3e 9d 84 db bd f9 76 1a 3d
       -0.14078498 0.13809143 -0.10718653 0.037711117
000380 15 26 17 ba f6 62 92 3c e9 3c 84 bd 2c e6 50 bd
       -0.00057658675 0.017869454 -0.0645693 -0.05100076
000390 b6 09 3c bd ec 50 40 3e d7 70 49 be 9a 40 0d 3e
       -0.0459077 0.18780869 -0.19671951 0.13794175
0003a0 54 27 6d be c8 80 c8 bd 86 d0 37 3e 01 9f 11 bd
       -0.23159534 -0.09790188 0.17950639 -0.03555203
0003b0 88 a8 22 bd 16 8e 23 bd f7 ae f0 bc 5d 6c 87 bc
       -0.039711505 -0.039930426 -0.029380305 -0.016531164
0003c0 91 dd 78 3e 6b c1 6e 3b 70 1f 67 be 6c 3d db bd
       0.24303271 0.0036431204 -0.22570586 -0.10705075
0003d0 87 2d cc bd a8 72 05 bd ad 13 9d bc 05 ba bc 3d
       -0.09969621 -0.032580048 -0.019174421 0.09215168
0003e0 33 38 ef bd c0 a8 49 3e 56 bd 16 3e a1 eb 20 3e
       -0.11680641 0.1969328 0.14720663 0.15714885
0003f0 0f 3c d5 bc ff 1a c9 3c 98 38 04 be fe 12 9a bd
       -0.026029615 0.024549006 -0.12912214 -0.07523154

feature_layers.1.bias f4 [128]
000000 3f 6f ae bc 2c d8 b7 3b 95 f1 53 3d a1 dd 3c bd
       -0.02129328 0.0056104865 0.051744062 -0.0461098
000010 43 a0 07 be 30 65 1c bd cf 0c be 3c 3b 52 bb bd
       -0.13244729 -0.038182437 0.023199467 -0.091465436
000020 c6 33 bd 3d 58 2a 0a be 5c ab 00 bc 6c 6e c0 3d
       0.092383906 -0.13492715 -0.007853355 0.09396061
000030 df 9f d2 3c 62 4e c2 3c a4 9c fe 3d 3e d3 b7 bd
       0.025710998 0.023719016 0.124322206 -0.08975838
000040 46 38 0b 3d 21 a0 fe bd 5e e3 00 3e 2d b2 56 3d
       0.033989213 -0.12432886 0.12586734 0.052416015
000050 eb 1d 92 bc a4 66 a4 bc fb ec 5c 3d 12 56 e0 bd
       -0.017836532 -0.020068474 0.05393694 -0.109539166
000060 e3 79 86 3c fd ab 05 3c a0 db 18 bd 84 bf 9d bc
       0.016415542 0.008158681 -0.037318826 -0.01925636
000070 fe a7 f6 bc 54 7f db 3c 36 88 1a bd 62 21 38 3d
       -0.030109402 0.026794113 -0.037727557 0.04495371
000080 08 fc ed 3c 20 70 b0 3c 9c 8b 89 3d 37 0a 8c bc
       0.029050842 0.02153784 0.067160815 -0.017094715
000090 f3 b6 13 3d 30 5e 07 3e a0 bb fa 3d 80 70 97 bd
       0.036063146 0.13219523 0.12242818 -0.073945045
0000a0 f1 e9 01 3d b4 aa 64 3d 92 56 95 bc 44 6a 64 3d
       0.031717245 0.055826858 -0.018229757 0.055765405
0000b0 ba cb 98 3d 75 01 a8 bd 1d bb 3a 3c 83 ab ce 3d
       0.07460733 -0.08203403 0.01139715 0.10091307
0000c0 df 7b c0 3d 0b f0 1a 3d 57 f2 ac ba cf cc da bc
       0.093986265 0.03782658 -0.0013194781 -0.026708988
0000d0 a8 60 7d 3d 57 7f a6 bd 45 6a 9d 3b 2d 63 cb bc
       0.061859757 -0.08129757 0.004803928 -0.024827564
0000e0 8b 68 28 3d 37 df 88 bc 70 b4 89 3c e0 84 c5 bd
       0.041115325 -0.016708 0.016809672 -0.096444845
0000f0 11 48 b6 3d b0 47 bc bc 6e cf b0 bd d2 7f c1 3a
       0.08900464 -0.022983402 -0.08633314 0.0014762825
000100 89 e2 16 3e 65 41 0e 3d 55 06 dd 3d d1 22 c9 bd
       0.14734854 0.034730334 0.10792223 -0.09821094
000110 a7 14 9d 3d e7 f1 aa 3d 03 da 8b 3d ec 2a 97 3c
       0.07669955 0.083469205 0.06828692 0.018453084
000120 d8 f0 4f bd 9f 44 f8 3d 40 85 52 bd 8d 57 34 bd
       -0.050766796 0.121224634 -0.05139661 -0.044028807
000130 a0 46 3e 3d 6c a9 64 3b 60 c3 89 bd a4 72 cd bd
       0.046454072 0.0034891022 -0.06726718 -0.100316316
000140 a0 6d 53 3d 49 30 3d 3d 18 5a f5 bd 54 d2 1a bd
       0.05161822 0.046188626 -0.11980075 -0.03779824
000150 42 a7 a5 3c 34 b9 f0 bd 78 1f f1 bd e5 59 d9 bd
       0.020221356 -0.11754075 -0.1177358 -0.10612849
000160 8e bc 02 be 25 36 ea 3d 54 28 93 3c 87 c9 0c 3d
       -0.1276724 0.114361085 0.017963566 0.03437188
000170 e5 4d 33 3d ab 18 30 3d 3a 60 59 3c 1b 3d 88 bd
       0.043775458 0.042992275 0.013267571 -0.0665228
000180 ad 3d 4c be 83 5e c1 3d 8e 98 07 bd 62 e9 93 bd
       -0.19945402 0.09441855 -0.03310447 -0.072222486
000190 17 cf 4c bd 17 d3 8f bd 68 67 9b bd eb 06 2f 3d
       -0.050002184 -0.07022684 -0.075880826 0.042731207
0001a0 8c e5 cc bd 3c 91 43 bd fb 3a a6 bd 7a 96 c2 bc
       -0.1000472 -0.04774593 -0.081167184 -0.023753393
0001b0 f7 44 a4 bc 37 aa cb bc 87 cc 05 bd a1 96 03 be
       -0.020052416 -0.024861438 -0.032665756 -0.12850429
0001c0 c2 1d 10 3e 2f e0 fd 3c b3 b5 09 3d a6 40 49 3d
       0.14073852 0.030990688 0.033620548 0.04913392
0001d0 6a 51 00 3c 1b 40 cf 3d 3d 9c da bd 1b e0 3f 3c
       0.007831911 0.10119649 -0.10674331 0.011711146
0001e0 6c e0 3f bc 4a 74 cb 3d 1e e9 e2 bd ee 45 f5 bc
       -0.011711221 0.0993429 -0.1107962 -0.029940572
0001f0 08 f7 c2 3d 71 62 09 bd a9 f0 59 bb e2 92 91 bb
       0.09519774 -0.033541147 -0.0033255017 -0.0044425586

value_stream.0.weight f4 [64, 128]
000000 34 cc ca 3d b1 35 4c bd 47 06 fd 3d f9 9c 31 3e
       0.0990223 -0.04985589 0.12354713 0.17345037
000010 4c 88 2a 3c 6f 12 10 bc c0 0d cf 3c 18 04 0d be
       0.010408472 -0.008793457 0.025275111 -0.13771093
000020 7f a4 d1 bb a1 99 2f 3e 8b a2 c5 bc f4 39 76 3d
       -0.0063977833 0.17148449 -0.024125358 0.060113862
000030 96 9a 42 3d c5 05 02 3e cd 39 93 bc 9c f7 1a bd
       0.047510706 0.12697513 -0.017971897 -0.037833795
000040 87 c6 83 bd c0 f9 21 be 7e 15 4b be 7d 39 8f bd
       -0.064343505 -0.15817928 -0.19832417 -0.06993387
000050 df 1e a4 3d 20 32 2c bc 7c b6 95 3c 4e 8e 33 3c
       0.08013701 -0.010509998 0.018275492 0.010959221
000060 d7 4b 63 3d cd fa b7 3e c4 72 ae 3c cb b1 0c bc
       0.05549225 0.35933533 0.021294959 -0.008587311
000070 bc df b2 3c 6a 83 4a 3d 33 07 63 bc bf ac 0c be
       0.0218352 0.049441732 -0.013856697 -0.13737772
000080 a0 cd 88 3d 31 78 f8 3d 95 e6 de bd 21 3d 0f 3d
       0.06679845 0.121323 -0.10883824 0.034970406
000090 ca a3 4c be 37 7b 4c bd ea d2 1c be 5e 33 34 bd
       -0.19984356 -0.049922194 -0.15314832 -0.0439943
0000a0 cb db 4b 3e ea 85 95 3d e8 7a f0 bd bb ba 9e 3d
       0.19908063 0.07300933 -0.117421925 0.0775046
0000b0 bf 2e 50 bb 35 14 3b 3e df a2 51 bd 41 53 8b bd
       -0.0031766144 0.18269427 -0.051180717 -0.06802989
0000c0 d6 c3 20 be ff 18 f1 bb 04 52 10 3e 91 dd 44 3e
       -0.15699705 -0.007357716 0.14093786 0.19225146
0000d0 57 f9 65 bd c7 59 30 3e 09 5f b2 3e e7 9f d2 ba
       -0.056145992 0.17221747 0.3483813 -0.0016069383
0000e0 c9 01 46 3d 73 18 73 3d 54 1e 72 3e 4c 92 20 bc
       0.048341546 0.05934949 0.23644382 -0.009800505
0000f0 0f 19 0f be 78 ee f0 3d 8d ed a0 3d b5 81 5a be
       -0.13974403 0.11764234 0.07857809 -0.21338542
000100 af b8 07 be 46 4a bd bc 3f aa a0 bd 45 cd b9 bd
       -0.13254045 -0.023106705 -0.07844972 -0.09072355
000110 df 78 13 bd 30 27 c9 bd b9 0c 9d bd 87 b9 30 be
       -0.036003944 -0.098219275 -0.07668442 -0.17258273
000120 68 f0 85 3c 84 67 d5 bd 94 f7 12 be aa 9c 11 be
       0.016349986 -0.10420135 -0.14352256 -0.14219919
000130 50 7c 3b 3d ff d2 cd 3e a7 d2 4c be 6a f6 8b 3e
       0.04577285 0.4020004 -0.20002232 0.27336437
000140 33 51 4e bd a2 11 81 be c5 6b 23 be 46 19 2a 3e
       -0.050370406 -0.25208765 -0.1595908 0.16611204
000150 dd b0 94 3d da 56 dc 3d 76 4a 36 3d 07 f9 1e be
       0.072602965 0.10758753 0.044504605 -0.15524684
000160 d0 3f 48 3e a9 4e ce bd 66 db 91 bb c6 15 4a 3d
       0.19555593 -0.10073597 -0.004451203 0.04933717
000170 fd c3 5d be 3a 8b a3 bd 70 0b af be 98 5a e3 3d
       -0.21656795 -0.0798554 -0.34188414 0.11101264
000180 30 9b e1 bd 47 e6 22 3d 6d f5 45 3e 72 22 b6 3e
       -0.11015928 0.03977039 0.19331904 0.35573155
000190 e4 1a b4 3d 55 97 95 3e 67 03 17 3d de 9b d0 3c
       0.087941915 0.2921702 0.03686848 0.025464948
0001a0 b9 ba c8 3e a0 87 90 3e 39 f0 5a 3d 2a 91 37 3e
       0.39204958 0.28228474 0.05345175 0.1792647
0001b0 78 4d b3 bd 3e 50 7a 3e 57 63 d1 bd 8b 43 04 3d
       -0.0875501 0.24444672 -0.10224026 0.032290976
0001c0 24 8c 2c 3e 5e 5c 8f bd 80 85 83 be a0 50 1b 3e
       0.16850334 -0.070000395 -0.2568779 0.15167475
0001d0 db a5 a0 3d eb 0e 42 3e 84 f6 2a 3e 92 02 a5 3e
       0.078441344 0.18951003 0.16695601 0.32228523
0001e0 e8 ac 55 3e 75 97 f1 3d 42 cc 31 3b c5 21 0a be
       0.2086674 0.11796466 0.0027129804 -0.13489445
0001f0 29 6c d3 bc f6 d4 e1 bc 54 e0 8c be db bb de bd
       -0.02580841 -0.027567368 -0.275149 -0.10875674
000200 99 e2 0a bd 45 c2 58 be ae 00 4a 3e ad e2 52 3c
       -0.033907507 -0.21167858 0.19726822 0.0128714265
000210 6a 29 68 be 0e 03 1f 3e 92 d6 3e be 96 69 fa 3d
       -0.22672048 0.15528509 -0.1863654 0.1222717
000220 a9 78 c6 3d 74 d7 bb 3c 61 87 c0 3d ed a5 5b 3d
       0.09690983 0.022929884 0.094008215 0.053625036
000230 42 24 38 be 9d fd 77 be 46 3b fd bd 9e 93 00 be
       -0.17982581 -0.2421784 -0.12364821 -0.12556311
000240 e4 e8 f4 bd bb f5 90 bc 3d ed 0b 3d d7 e3 73 bd
       -0.11958483 -0.017695298 0.034161795 -0.059543457
000250 22 d4 bc 3d 51 e6 3d bc 67 65 2e be 5b 0c 59 bb
       0.092201486 -0.011590556 -0.1703087 -0.0033118937
000260 eb c2 21 be de 2c fd bc d7 11 59 be 1d b0 25 be
       -0.15797012 -0.030905183 -0.21198212 -0.16180463
000270 d5 17 a3 3e eb 8a c2 3d 02 7e 85 3e 23 be c6 bd
       0.3185412 0.09499153 0.260727 -0.097042345
000280 42 3e f5 bd 38 27 c5 3d 16 5f eb 3c d8 c5 0e 3e
       -0.11974765 0.09626621 0.028731864 0.13942659
000290 7d 8a 41 be 1f 57 9b bd 34 9b 11 be 44 88 45 3e
       -0.18900485 -0.075849764 -0.14219362 0.19290262
0002a0 22 ff ab 3b d0 06 d7 bd 2f b1 2e 3e 2e 22 d9 bd
       0.00524892 -0.10499346 0.17059778 -0.106022224
0002b0 d9 58 4a be 84 e4 e4 3d 0e f1 f8 3b e9 20 19 be
       -0.19760455 0.111763984 0.0075970953 -0.1495396
0002c0 0b 99 4f bd d4 e2 55 bd 03 a0 f7 bc ed f2 ac 3d
       -0.050683063 -0.052218273 -0.030227667 0.08444772
0002d0 a2 21 05 bd 52 48 89 bc fb 58 b4 bb a3 f7 8a 3e
       -0.032502778 -0.016758118 -0.0055037714 0.27142057
0002e0 aa c5 89 3d 17 7c 61 bd 73 8e 43 be d5 d1 7f 3d
       0.067271546 -0.055049982 -0.19097309 0.06245597
0002f0 33 41 67 3e 36 be e5 3d 7f a0 23 3d 26 cb ac bd
       0.22583465 0.112179205 0.039947983 -0.08437185
000300 59 e4 94 3c 08 30 9e bc aa 13 39 3e 4c 46 a5 bc
       0.01817529 -0.019310012 0.18073907 -0.020175122
000310 bd b0 08 3c e9 47 1a be 30 79 73 3d ca e9 5c 3e
       0.008342919 -0.15066494 0.059441745 0.21573558
000320 93 0a 04 3e d2 05 d0 3c 9e 21 99 bc 1f 48 9a 3d
       0.12894659 0.0253934 -0.018692788 0.07533287
000330 18 5a 66 bd d5 bb a5 bc ad 06 ef 3d 9f 20 fe 3c
       -0.056238264 -0.020231167 0.11671195 0.031021414
000340 d1 d2 d0 bd df c8 c6 be d6 3f 7c 3e 25 90 19 be
       -0.1019646 -0.38825127 0.24633726 -0.14996393
000350 a8 ef ac be c2 44 81 be e7 02 6a be 80 d9 1c 3e
       -0.33776593 -0.2524777 -0.2285267 0.15317345
000360 3d 82 aa 3d 21 41 a1 be 74 2e 11 3d b2 54 6f 3d
       0.08325622 -0.31495002 0.03544469 0.05843038
000370 01 3d 6a be 6e d3 26 bc 5d 8b e2 bd c2 c7 8e be
       -0.22874834 -0.010182245 -0.11061738 -0.27886778
000380 45 e4 8b 3e 14 e0 40 bd 1d 83 47 3e a9 4e 81 3d
       0.27322593 -0.047088698 0.1948361 0.06313831
000390 02 94 09 be c8 43 21 3d f8 8e 94 bd 67 51 c2 3d
       -0.13435367 0.03937128 -0.072538316 0.094881825
0003a0 c5 f0 23 bd 4b 25 3b 3e 8f 95 a7 ba 08 b7 46 3e
       -0.040024538 0.18275945 -0.0012785661 0.19405758
0003b0 33 9e 4d 3d 10 e6 ca bc 3e c8 f7 bb 07 58 85 bc
       0.0501997 -0.024767905 -0.0075617125 -0.016277326
0003c0 46 c9 96 3d bb cf 4e 3d 27 f9 c9 3d c9 33 c0 bd
       0.073626086 0.050491076 0.09861975 -0.09384877
0003d0 67 ba 6e be d0 92 93 bd 74 47 8d bc a3 0b 9b 3d
       -0.23313294 -0.07205737 -0.017245986 0.07570579
0003e0 af 98 3f be b6 22 13 bd 36 47 dc bd 23 2d 0b 3e
       -0.18710588 -0.035921775 -0.1075577 0.13591437
0003f0 f7 9f 44 3d 9f bc f1 3d b6 8e 82 be 4b 58 87 bc
       0.048004117 0.11803555 -0.25499505 -0.016521594

value_stream.0.bias f4 [64]
000000 4c 9e e2 bd 85 cd 15 bd 8d 5e ac 3c 97 1e 49 bd
       -0.11065349 -0.03657295 0.02104118 -0.04910144
000010 96 3a b7 3d 3e 42 28 3c f7 ee 93 bd 55 e9 0f 3d
       0.08946721 0.0102697 -0.07223313 0.035134632
000020 1e ce 20 3c 20 23 19 bd 3b 5e 05 3d 21 52 60 3d
       0.009814767 -0.037387013 0.03256057 0.054765824
000030 21 e5 89 3d 6e 8b e2 bc 35 d9 d5 3d ae 97 e2 3c
       0.06733156 -0.027654376 0.104418196 0.027660217
000040 00 60 fb bc 8b 01 dd bd 3d e5 8e bd 4d 80 e9 3d
       -0.030685425 -0.1079131 -0.069773175 0.114014246
000050 0a ac 96 3d ed e9 7b bd 91 47 00 3d 99 6c 98 3d
       0.073570326 -0.061502386 0.03131825 0.07442588
000060 2b 85 0b bd 7c a7 c3 bd a9 7a 86 bc d9 a7 18 3d
       -0.034062546 -0.095534295 -0.01641591 0.037269447
000070 e4 47 96 3c e9 12 0d bd 58 d3 74 bc c0 67 d3 3b
       0.018344827 -0.034441862 -0.014942966 0.006451577
000080 69 57 05 3e 4a 3f c9 3a be 8a 1f 3e ea 34 07 be
       0.13021626 0.0015353945 0.1558027 -0.13203779
000090 09 13 6b 3c 0f 55 02 3d 7f 3f ce bd 38 9a ba bb
       0.0143478 0.0318194 -0.10070705 -0.005694654
0000a0 70 02 e6 bd 73 ca a4 3c 17 ae 6f 3d c4 6c 2f 3d
       -0.11230934 0.020116067 0.058515634 0.042828336
0000b0 3d eb 33 3d bb 8f 36 3d b5 c3 1b 3d 6d 7b ea 3d
       0.043925513 0.044570666 0.038028438 0.11449323
0000c0 71 13 39 3d 3b 3c 10 3d ce 7f 00 bd 79 fc 86 3c
       0.045184556 0.03521369 -0.031371884 0.01647781
0000d0 55 65 c3 3b a3 e8 9e bd 87 56 ad 3d 93 80 f7 bd
       0.0059630075 -0.07759216 0.084637694 -0.120850705
0000e0 0b 9b e7 bd a1 d0 e6 bc 97 76 c4 3b 11 36 bf 3c
       -0.11308869 -0.028175654 0.0059955823 0.02334121
0000f0 11 53 db 3d 32 42 71 3d 2c d8 9f bc 79 99 87 3d
       0.10709203 0.05890102 -0.019512258 0.066210695

value_stream.2.weight f4 [1, 64]
000000 71 82 3c be 2c d1 a5 be e5 a9 30 bc 6e 92 2c be
       -0.18409134 -0.32386148 -0.0107826935 -0.16852733
000010 f0 a4 b1 3d 7c ff 10 be ee ae e6 bc b4 41 65 be
       0.086740375 -0.1415996 -0.028159585 -0.22388345
000020 f9 75 34 3d fc 38 87 bc 5f 2e 82 3d c7 4b f1 3d
       0.04405782 -0.016506664 0.06356501 0.117820315
000030 26 9f a6 3e dc 09 36 bd 91 fe 06 3f 1c 52 a5 3e
       0.32543296 -0.044442996 0.5273219 0.32289207
000040 5e 0c 1f 3e 11 68 9e bd a1 a3 89 bd 5c 2c 00 3f
       0.15532061 -0.07734693 -0.06720663 0.5006769
000050 25 0d c1 3d f0 54 86 be fd 03 29 3e a2 71 09 3e
       0.09426335 -0.26236677 0.16505428 0.13422254
000060 2c 82 90 be 0a c6 4c bd ec 57 d5 3d b2 1c a7 3e
       -0.28224313 -0.049993552 0.104171604 0.3263908
000070 e7 d8 2c be ba 11 4a be 58 97 e1 bd a6 ba e8 bd
       -0.16879617 -0.19733325 -0.11015195 -0.11363725
000080 6c dc 0f 3e e4 d7 47 be 18 5b 83 3d ef 33 e9 bd
       0.14048928 -0.1951595 0.06413859 -0.11386859
000090 eb 43 7f be 7e cc 3f bb 02 53 c8 be 41 68 50 be
       -0.24928252 -0.0029266174 -0.3912583 -0.2035227
0000a0 d9 fd b4 be 4a 8a 25 be ab e8 c7 3e 62 d0 97 3e
       -0.3534992 -0.16166034 0.390447 0.2965117
0000b0 6a 4a c5 3e 38 e8 09 be 04 b4 e8 3d 75 51 42 3e
       0.38533336 -0.1346749 0.1136246 0.18976386
0000c0 40 e3 db bd d3 c6 1c be a1 04 84 be 1e 02 50 3e
       -0.10736704 -0.1531022 -0.25784782 0.20313308
0000d0 87 4a 01 3e fd 59 48 be 83 92 62 be 4c fe 11 bd
       0.12626086 -0.19565578 -0.22126202 -0.035642907
0000e0 4a fc 03 be 17 23 79 3d 9a b0 a5 3d 3e b8 2a 3e
       -0.1288921 0.06082448 0.08090325 0.16671845
0000f0 0f f1 bc 3e 98 48 b4 3e b5 79 0a be 8a 96 fc bd
       0.36902663 0.35211635 -0.1352299 -0.123334005

advantage_stream.0.weight f4 [64, 128]
000000 fa 48 74 3d 0a 32 02 bd 1d f4 de bd a4 00 aa be
       0.05963991 -0.031786002 -0.10886405 -0.33203614
000010 9e a2 91 be 3b 70 32 bd 43 3a 26 3e c8 89 e9 bd
       -0.2844438 -0.043564063 0.16233163 -0.11403233
000020 dc 3d 38 3d 41 aa 01 be 1c bc 00 3e c1 b3 b4 3d
       0.04498087 -0.12662603 0.12571758 0.08823348
000030 27 17 7e be 66 1b 03 be b9 1a 48 3e 25 f4 f2 bc
       -0.2481352 -0.1280342 0.19541444 -0.029657433
000040 05 b5 64 3c 61 08 6b 3d 1e 84 05 3e 70 87 3d 3e
       0.013959174 0.057381038 0.1303868 0.18508697
000050 80 01 3c be 76 7f 29 3e 38 fb a6 3d 70 cb a8 3e
       -0.18359947 0.16552529 0.08153385 0.3296771
000060 d9 10 d2 bd 0d a2 3f 3d 8a e7 6f 3d ce 23 29 3e
       -0.1025712 0.046785403 0.058570422 0.16517565
000070 b8 a3 e8 bb 4e 85 d9 bd f2 11 c6 3e 2d 06 35 ba
       -0.007099595 -0.10621129 0.38685566 -0.00069055223
000080 be 5d 1c be 9f 2e 8f be b8 56 9a be d8 06 fd bd
       -0.15270135 -0.27965257 -0.30144286 -0.12354821
000090 d4 45 fa bd 14 eb 31 be bb 8d f8 3d 85 32 03 bd
       -0.1222035 -0.17374831 0.12136408 -0.0320306
0000a0 4f 86 99 bb a1 56 14 be 07 a3 d8 bd f0 41 b5 3d
       -0.0046852003 -0.14486171 -0.1057797 0.08850467
0000b0 8a e8 33 3e 72 5c ad bd 1d 3c 46 be 27 79 32 bb
       0.17569175 -0.08464898 -0.19358869 -0.0027232857
0000c0 2c 26 28 3e 27 7b b1 bd f9 a8 a1 3d a2 2d 6c 3e
       0.16420811 -0.086660676 0.07893557 0.23064283
0000d0 1c bb 33 be f5 9d 9d 3d 65 00 90 bd a3 ff 7c 3d
       -0.17551845 0.076961435 -0.07031325 0.06176723
0000e0 93 46 fb bd d8 0c f3 3d a7 fb 30 3d 8a 12 fd bd
       -0.1226932 0.11867684 0.043208744 -0.12357052
0000f0 f2 f7 84 bd 94 45 ef bd 5b 38 1c 3c b5 64 3b bd
       -0.06492604 -0.11683193 0.009534921 -0.04575034
000100 71 40 af bd 69 d2 8c 3d f1 73 73 bd 24 ba bc 3d
       -0.08557213 0.0687607 -0.059436742 0.09215191
000110 51 a7 f3 3c 49 30 51 3e 5b d0 3a 3c 79 2e f1 bd
       0.029742869 0.20428576 0.011402215 -0.11776442
000120 fd 2d 8f be c8 61 c3 3c 6d 96 90 bc 2b 69 89 3e
       -0.27964774 0.023850337 -0.017649854 0.2683805
000130 7e 9e f6 bd 2c 6e 74 3d 69 ce 29 be ab d3 2f 3d
       -0.12041949 0.05967538 -0.16582645 0.04292647
000140 14 3b d1 bb 71 c0 2f be e1 3c dd 3d d7 f9 4d be
       -0.0063852165 -0.17163254 0.10802627 -0.20114838
000150 32 41 99 3c 9b 21 c0 bd 8b 61 0b 3e 60 0d 30 bd
       0.018707845 -0.0938141 0.13611428 -0.042981505
000160 bc 33 9e 3d b9 9e f2 bd 0c 15 2a 3c c1 d5 16 bf
       0.07724711 -0.1184668 0.0103809945 -0.5891991
000170 7c 5a d0 3c c2 ea 01 bd b4 67 98 bd 77 d3 23 3e
       0.025433771 -0.031718023 -0.07441655 0.15998636
000180 4c 10 d9 bc 74 e8 9d bd 12 a8 75 3d 76 0a 84 3d
       -0.026497029 -0.077103525 0.059974737 0.06447308
000190 e5 56 62 3e d9 c0 c5 bd 81 d1 38 3e e6 6c a9 3d
       0.2210346 -0.096559234 0.1804867 0.08272724
0001a0 55 7f cc 3d 3a 3f 9f bd ec 38 90 bd cf 8d 18 be
       0.09985224 -0.077757314 -0.07042107 -0.14897846
0001b0 06 10 70 3d 3e 80 0d 3e 33 02 99 be 78 12 90 3e
       0.05860903 0.13818452 -0.2988449 0.2813909
0001c0 34 ff 87 3d 99 4b cc bd 58 25 62 3e f8 1f ba bd
       0.06640473 -0.099753566 0.22084558 -0.09088129
0001d0 51 99 f9 3d eb 61 87 bd db d7 44 3e 15 ca 8f bc
       0.12187446 -0.06610473 0.19222967 -0.017552415
0001e0 5b 40 5c 3e bb 5d 22 3e 5b f8 5d 3e c7 10 0b be
       0.21508925 0.15856068 0.21676771 -0.13580619
0001f0 4e d2 df 3b 3e c7 94 bb 84 72 0c be fb 6f ea 3d
       0.00683049 -0.004540353 -0.13715559 0.1144714
000200 0a 16 c3 bd 48 ea 1f be c5 c1 6a bd 58 d4 f1 bd
       -0.09525688 -0.15616715 -0.0573137 -0.118080795
000210 5d 22 8d 3d 67 1e 33 3d dd 82 a1 bd 4d 89 fa 3c
       0.0689132 0.043730166 -0.07886288 0.030583048
000220 36 f4 96 bd 44 e2 6d bc e5 23 8c 3e 19 28 37 bc
       -0.07370798 -0.014519278 0.27371135 -0.011178994
000230 c8 09 82 bd bd 7d f7 bd f7 57 46 be 2b b8 83 3e
       -0.06349522 -0.120845295 -0.19369493 0.25726447
000240 44 b2 ba bd f5 76 8e 3e 65 aa 07 bd 1a 70 a4 3c
       -0.09116033 0.27825132 -0.033121485 0.020072985
000250 c7 48 b4 bd ea 1e bc bd d1 9d 71 3d 83 c1 96 3e
       -0.08802944 -0.09185584 0.058988396 0.29444513
000260 3a 12 29 bd 4a 8d 3d be d8 49 a8 3c 55 91 b1 3e
       -0.041277148 -0.18510929 0.020543024 0.34681192
000270 7a 30 e2 bd 98 d2 28 3d ac db 5e 3d 40 50 d1 3d
       -0.110444024 0.041216463 0.054408714 0.102203846
000280 40 ef 75 bd fd 11 7c 3d 6f 86 90 be 2a 88 09 bd
       -0.06004262 0.061540592 -0.28227565 -0.03357712
000290 51 89 a6 bd dc e8 bf 3d 7c 57 3e 3e 6e a3 4d 3d
       -0.0813166 0.09370586 0.1858806 0.050204687
0002a0 9c fa a5 3b 73 9e 99 3c c1 c0 ee bd b4 3a 81 3d
       0.0050652754 0.018752312 -0.11657859 0.06310025
0002b0 87 24 4e bd 40 ec e7 3d 60 dc 4b bd 77 ba df 3d
       -0.050327804 0.11324358 -0.049770713 0.10924237
0002c0 f5 7d 27 be 69 58 47 be b0 21 e3 3e cb 32 80 bd
       -0.16356643 -0.1946732 0.4436164 -0.06259688
0002d0 9b 09 a5 bd d0 85 9c 3e f1 3d 22 3e 15 04 51 3d
       -0.08058473 0.3057084 0.15843941 0.051029284
0002e0 e2 51 ba 3e 58 73 10 be 63 88 14 3e 40 9f ef bc
       0.36390597 -0.141065 0.14505152 -0.029250741
0002f0 c0 c5 3e 3d 7d f1 8b 3b fc 8b b2 3d 29 17 4f be
       0.046575308 0.004270731 0.08718106 -0.20223679
000300 2c a6 89 bd 34 21 43 bd d6 a4 94 3c 5c 29 ee bb
       -0.06721148 -0.047639087 0.018145006 -0.007268114
000310 a8 99 1f be d4 ab 8a 3d 65 b8 47 bd d0 ab 8b 3d
       -0.15585959 0.06771055 -0.048759837 0.0681988
000320 59 fe 8c bd aa 1d 6c 3d 64 e5 d5 3e 54 d2 e3 3d
       -0.068844505 0.057645477 0.41776574 0.11124101
000330 f7 f5 8d 3b 8a 75 47 3e 99 bc cc bb 06 5a 93 bd
       0.0043323 0.19478431 -0.0062480685 -0.07194905
000340 bb d9 b6 3c 73 44 1d 3e 20 16 06 3e a3 e6 5d be
       0.022320619 0.15358143 0.13094378 -0.21670012
000350 d8 7f 55 be 09 35 79 3e a4 88 43 bc 44 8f fb be
       -0.2084955 0.24336638 -0.011934433 -0.4913274
000360 6a 58 04 3d a9 7f 20 be 67 c9 9f 3c 6e b9 6d be
       0.03231088 -0.15673698 0.019505216 -0.23215267
000370 3a 4e a0 ba 29 a3 d7 bd 01 8d 00 be ab 43 88 bc
       -0.0012230345 -0.10529167 -0.12553789 -0.01663383
000380 64 74 72 3d 14 d6 38 3d a5 64 69 3e 95 91 74 be
       0.05919303 0.045126036 0.22792299 -0.2388366
000390 7d ad ff 3d ee 51 71 bd b0 b0 81 3d d0 86 db bd
       0.12484262 -0.058916025 0.063325286 -0.10719073
0003a0 4a ce 1f bb 02 6e 3b be 8f df b8 bd 45 80 6a 3e
       -0.0024384432 -0.18303683 -0.090270154 0.22900493
0003b0 35 61 c9 3d 4c a7 93 bd 40 4c 74 bd dc 14 3f 3f
       0.09832994 -0.07209644 -0.05964303 0.74641204
0003c0 23 82 3b bc dd 60 45 be 0d 06 40 bd 92 b7 d1 bc
       -0.011444601 -0.19275232 -0.04688077 -0.025600228
0003d0 16 fe 27 3c 93 3f c1 bb b4 c6 e1 3d ac 04 37 3e
       0.01025345 -0.005897471 0.11024228 0.17872876
0003e0 1d 8b ec bd 9b da ce 3d 99 9f 2b 3c d6 06 84 3c
       -0.11549971 0.101002894 0.010475063 0.01611654
0003f0 63 6f 10 3c e0 3d f9 3c 11 a2 13 be b1 c6 11 3e
       0.008815619 0.030425012 -0.14417292 0.14235951

advantage_stream.0.bias f4 [64]
000000 23 a7 26 3d 3c ee 99 3c 76 e7 0e bd 5a 15 46 bc
       0.040686738 0.018790357 -0.034888707 -0.012090052
000010 a0 cf 0d bd 7c 25 88 bd ab 6d 56 bd 58 ea 8a bd
       -0.034621835 -0.066477746 -0.05235068 -0.06782979
000020 ee 83 b9 bc 06 95 7a 3d e6 3d bc bd 46 22 a3 3d
       -0.022645917 0.061177276 -0.09191494 0.079655215
000030 3b 31 de bc 49 b5 83 bd 5b 75 c4 3d c1 1f 86 bc
       -0.027123084 -0.06431062 0.09592696 -0.016372563
000040 37 d0 c6 3d 7f f6 1d bd a5 23 88 bd 7c 93 12 bd
       0.097076826 -0.038565155 -0.06647424 -0.035785183
000050 1b ca 13 bd 54 9c 6e 3d 52 76 99 b9 30 fe 89 bb
       -0.036081415 0.058254555 -0.0002927059 -0.0042112097
000060 af 77 89 3d 8f 7c 0f 3c d0 16 c0 bd cb 6c 49 bd
       0.06712281 0.008757724 -0.09379351 -0.04917602
000070 11 10 34 3c bb 19 aa bd c4 33 3e bc 26 ac 92 3c
       0.010990159 -0.08305689 -0.011609022 0.017904352
000080 e5 cc 90 3c ef ff 6f bd 80 80 22 bc 8c 16 7e 3d
       0.017675826 -0.058593687 -0.009918332 0.06203322
000090 e3 2a 66 3d 87 85 60 bd 8a 38 8e bb 8c 69 65 bc
       0.056193244 -0.05481484 -0.004340236 -0.014002215
0000a0 9f b4 7f bb 55 6c 2a bd 2d ca 49 bb ff 2c 20 bd
       -0.003901757 -0.04160722 -0.0030790672 -0.03910541
0000b0 d4 67 00 be 18 e6 a2 bd ec 1e 36 3d 06 46 37 bd
       -0.12539607 -0.07954043 0.044463083 -0.044744514
0000c0 1c c1 d0 3d 88 b3 98 3d 4c 5b 1f bd f7 cb 63 3c
       0.10193083 0.07456118 -0.038905427 0.0139036095
0000d0 b7 31 05 be 1c 17 1c 3d f4 24 93 3d e9 71 8b bd
       -0.13007246 0.038107976 0.071847826 -0.06808836
0000e0 0b 17 21 3d 5a ce ed bd b8 88 ba 3d fa d2 99 bd
       0.039328616 -0.11611624 0.09108108 -0.07510944
0000f0 45 89 2c bd 44 a6 9d bd 5d b9 3d bd bc 1b 95 3b
       -0.042123098 -0.07697728 -0.046319354 0.0045504253

advantage_stream.2.weight f4 [4, 64]
000000 71 2e 41 3e 35 09 b9 3d d1 da 24 3f df 2e b3 bd
       0.18865372 0.09034959 0.6439639 -0.08749174
000010 fd cd 08 3e e8 82 19 3e fd 4f da bd c1 1b 65 bf
       0.13359828 0.14991343 -0.10659788 -0.89495474
000020 ea 8b 60 3e 77 06 3d 3e 6e fb 85 be 74 bb 3c bf
       0.21928373 0.18459497 -0.26168388 -0.7372353
000030 87 37 40 3d 5a 34 e4 bd 26 e1 af 3e 89 49 de bc
       0.046927955 -0.11142798 0.34351462 -0.027134674
000040 67 de 9b 3e 53 72 e5 bc e1 8d 2d bc 7a 05 62 be
       0.30443117 -0.028008616 -0.010592909 -0.22072402
000050 14 f2 93 3d 95 08 8c bd 00 17 bc bd 03 cd e5 3d
       0.07223907 -0.068375744 -0.091840744 0.112207435
000060 e7 f8 46 bd 8e 85 ca be f3 57 bf 3e 4a 9a b7 bd
       -0.048577216 -0.3955502 0.37371787 -0.08964975
000070 80 4b 9f 3e 2b d7 76 3e 80 cb 8f be 06 a9 85 3e
       0.3111229 0.24105518 -0.28084946 0.26105517
000080 2a 6c c4 3e cd 90 48 3e 55 d3 bf bd c3 df cd 3c
       0.38363773 0.19586487 -0.0936648 0.025131112
000090 fd 0d 93 3d 0f 26 33 3e d9 66 49 be a3 59 2c 3c
       0.071804024 0.17494987 -0.1966814 0.010519418
0000a0 93 48 9d 3d b4 a8 d2 3d 40 18 39 bf fe 79 c4 3e
       0.07679858 0.10286084 -0.7230263 0.38374323
0000b0 5f 53 cb 3e f1 37 8f 3e de 49 1d 3f 4b a3 56 bd
       0.39712045 0.27972367 0.6144084 -0.052401822
0000c0 01 44 88 bd 21 de 3d 3d 5b 5d 33 bf 80 3d 5c 3e
       -0.06653596 0.046354417 -0.70064324 0.21507835
0000d0 fd e7 d6 3e 62 fc 5b be 86 25 04 3f 12 18 6b bd
       0.41973868 -0.21482995 0.51619756 -0.057396002
0000e0 f2 5d ce 3e 37 d6 9c bd 18 08 f2 bd bd de a1 bc
       0.4030605 -0.07658046 -0.1181795 -0.01975953
0000f0 ca b2 b6 3d 19 88 a8 bd 85 5b 91 3e 59 fd 37 3e
       0.0892082 -0.082290836 0.28390136 0.17967738
000100 b0 8e 00 3e 13 74 5e 3c 1b 64 be 3d d0 08 7b be
       0.12554431 0.013577479 0.09296437 -0.2451508
000110 cf 17 02 bf af 03 83 bd bb fa 96 3d e1 f7 c6 3d
       -0.5081758 -0.06397187 0.07372042 0.09715248
000120 b4 3a 4b bd 35 a0 50 3e 29 83 30 bf b1 ba f1 3d
       -0.04961653 0.20373614 -0.68950135 0.11803187
000130 27 25 02 be 18 42 f8 bd c9 05 85 3e 8a a9 6f bd
       -0.12709485 -0.121219814 0.25980976 -0.058511294
000140 a9 d7 97 bd 9c e4 76 be 5d 01 3b 3d e2 bf 06 3e
       -0.07414181 -0.24110645 0.045655597 0.13159135
000150 0e 73 64 be 01 d5 ab 3e 11 b1 20 bf c0 60 9c be
       -0.22309515 0.33560947 -0.6277018 -0.30542564
000160 c0 03 90 be 31 50 ee 3b 46 5c 42 3e 21 2c a4 be
       -0.2812786 0.007272743 0.18980512 -0.32064918
000170 1a 41 69 bb 6c d3 22 be 2d ec 00 bf d9 86 1c 3e
       -0.0035591782 -0.15900964 -0.50360376 0.15285815
000180 13 a7 bb 3e 1a 50 82 3e d8 4f d4 bc b8 f9 bd bc
       0.36650905 0.25451738 -0.025916979 -0.023190364
000190 ed f3 b8 bd e6 b5 6b 3e 37 08 56 3e c0 77 4d 3e
       -0.090309 0.23018607 0.20901571 0.20065212
0001a0 6a dc 45 bf b4 45 df bc 91 5c 8c ba 94 3c cf 3d
       -0.7728945 -0.027254917 -0.0010708739 0.10118976
0001b0 5e fc 81 be 81 f0 26 bd 38 c3 b3 3e ec 1c 1b be
       -0.25387853 -0.040756706 0.35109878 -0.15147752
0001c0 13 0a e6 3e d2 73 ac 3e 9f 37 42 bd f4 b9 a7 bd
       0.4492956 0.33682114 -0.047416326 -0.081897646
0001d0 4a 7a 85 be f9 5d c4 ba 0d 99 b8 bd 11 4c f4 3d
       -0.26069862 -0.0014981619 -0.09013567 0.11928571
0001e0 02 5e 16 3e e0 36 0a bd e2 0b 32 3f 6b ac 3a 3d
       0.14684299 -0.03374374 0.6954938 0.045574587
0001f0 c4 48 85 3e f1 26 5f 3d b5 29 3d 3e 24 5d 9f 3e
       0.26032078 0.054480497 0.18472941 0.31125748
000200 2c 65 72 3b 93 50 9e be 1b 8a 08 bf ca 85 ad bd
       0.0036986573 -0.30920848 -0.5333573 -0.08472784
000210 64 10 04 be 42 fa 02 be 45 cc b8 bd cc a1 23 3f
       -0.12896878 -0.12790778 -0.09023336 0.6391876
000220 46 2d 5a bd 05 37 65 3c 79 1f 1d 3f ca 6b a4 3e
       -0.053265832 0.013990168 0.6137615 0.32113487
000230 da 6c 11 be 9e 60 30 be 82 5e af be e9 ef 84 3e
       -0.1420168 -0.17224357 -0.3425179 0.25964287
000240 5e 84 5b 3e c9 05 cd bd c9 bc 2e bf aa ba 74 be
       0.21437213 -0.10010869 -0.68256813 -0.23899332
000250 eb 4c 0c 3f 31 ff 39 bc d4 21 e8 3e 32 74 4c 3e
       0.5480487 -0.011352346 0.4533831 0.199662
000260 91 95 3e 3d 27 39 93 3e a9 08 51 be 1a 95 a9 3e
       0.046529356 0.2875454 -0.2041346 0.33121568
000270 86 7b b2 3e 90 bf 06 be 1a 74 d2 3e 58 6a db 3d
       0.34859866 -0.13159013 0.41104203 0.10713643
000280 50 cf df be e6 a1 45 bb 40 43 2c be 05 e3 0c 3f
       -0.43712854 -0.0030156313 -0.16822529 0.55033904
000290 c7 cf a8 bc fc c4 0f bf 81 70 98 3e 40 bb 97 bc
       -0.020606888 -0.5615995 0.29773334 -0.018521905
0002a0 b5 ac 88 3e 58 1e 83 3d e9 aa d4 3e e8 20 26 bd
       0.26694265 0.06402272 0.41536644 -0.040558726
0002b0 90 d4 d5 3d 55 51 0c be 9b 19 c0 bd 05 d2 00 be
       0.10440934 -0.137029 -0.09379884 -0.12580116
0002c0 d7 89 0c be b0 49 aa be 79 eb bd 3d 71 a6 3d 3e
       -0.13724457 -0.33259344 0.092734285 0.18520524
0002d0 ed f0 b5 3d 38 7e f0 be 4f 8e 30 bd a2 bb 0d be
       0.088838436 -0.46971297 -0.043104466 -0.13841107
0002e0 20 91 0d bf 91 bd 27 bd 6e 99 a5 bd 7e 97 a1 3d
       -0.5529957 -0.04095227 -0.08085905 0.07890223
0002f0 c6 34 68 bd 27 41 fe 3e f8 a9 49 be 6d 37 89 be
       -0.056690954 0.49659082 -0.19693744 -0.268001
000300 a4 9e b4 3d 19 5a cb 3d 9b 8b 36 3e 5c 5b f0 be
       0.08819321 0.09929294 0.17826693 -0.46944702
000310 d5 be ee bd 54 76 b3 3e 1a 54 18 be 0a 10 d6 3e
       -0.11657492 0.35051215 -0.14875832 0.41809112
000320 77 e2 19 3e 0d 59 86 3e bb 33 25 3e e5 43 92 3d
       0.15027796 0.26239815 0.16133015 0.07141856
000330 ae 0b 07 3e 67 28 29 bb 6b cd aa bd f5 1c 57 be
       0.13188049 -0.0025811435 -0.083399616 -0.2100714
000340 73 81 cf be 13 e4 17 bb 69 02 81 3e 13 d3 b4 3e
       -0.4052845 -0.0023176714 0.2519715 0.35317287
000350 2b cf 94 bd f0 23 f9 be 7b 49 7c 3e c9 0f 2c 3e
       -0.07266077 -0.4866023 0.24637406 0.16802897
000360 06 2a af 3d 77 d4 ff 3d 57 ce ce be 6c 7b 8d be
       0.08552937 0.12491696 -0.403918 -0.27633226
000370 40 86 39 be e9 5e 6f bc 26 3e 98 3d 07 a0 fd be
       -0.18117619 -0.014610031 0.07433729 -0.49536154
000380 4b a5 76 bd 37 27 18 3e 38 47 6a 3d 88 61 17 bd
       -0.06021623 0.1485871 0.057196826 -0.036958247
000390 ad 02 21 bf ed 49 b0 be 32 fa 24 3d 8b f8 c8 3d
       -0.6289471 -0.344314 0.040277667 0.09813031
0003a0 98 3f 03 3f 3e e9 8c 3d e7 f0 0b 3f 31 b4 b8 be
       0.5126891 0.06880425 0.5466446 -0.36074975
0003b0 81 81 8d 3d c1 10 33 be b8 0d 11 3c 83 06 fc bd
       0.069094665 -0.1748686 0.008853368 -0.123059295
0003c0 3a 28 81 be c2 44 c8 be e5 c3 57 3e 35 d0 01 3e
       -0.25226003 -0.39114958 0.21070822 0.12677081
0003d0 66 c3 b0 bd 3b e2 f6 3e 09 ab d4 bd e9 de 90 3c
       -0.08631019 0.48219475 -0.10384185 0.017684417
0003e0 3d 53 ff 3e e5 1e 0b bd 61 6f 47 be bc da 86 3e
       0.49868193 -0.03396501 -0.19476081 0.26338756
0003f0 23 99 a7 3d 60 c6 98 3d e9 15 91 be 49 66 bd be
       0.081835054 0.07459712 -0.2833703 -0.369921

advantage_stream.2.bias f4 [4]
000000 b0 4a de bc 2b 91 7d bd 55 f9 f6 bd 1f 5e 20 bd
       -0.027135223 -0.06190602 -0.12059275 -0.03915226
