models/snake_dqn_ep37_score1_20250303_093911.pt (torch, 622306 bytes, 44 tensors)

feature_layers.0.weight f4 [128, 24]
000000 06 7e 2c be e7 67 cb 3d df 98 d2 bd 2a 32 00 3e
       -0.16844949 0.09931927 -0.10283064 0.12519136
000010 b2 18 0a 3f 91 d7 39 bf 88 37 68 be 6d d0 3c be
       0.5394393 -0.72594553 -0.22677433 -0.18438883
000020 fd 6d c5 bd 09 8e 66 bd 37 c3 41 bc 97 06 7a be
       -0.09640119 -0.0562878 -0.011826328 -0.24416576
000030 ec cb 01 3f f7 da 2b 3c d1 72 7f be 74 43 fc 3e
       0.50701785 0.010489217 -0.24946143 0.49270213
000040 bf 9f 3f be 71 24 ec 3e 2e 9b 18 3f 70 d5 ff be
       -0.18713282 0.46121553 0.59611785 -0.49967527
000050 03 f7 f1 3e f3 b5 06 bc b8 b8 25 3f 83 b6 89 3e
       0.47258767 -0.008222091 0.64734983 0.26897058
000060 43 e9 cc bd 4e 3d 50 3d 33 f3 bc bd 3f 84 4a be
       -0.10005429 0.050839715 -0.09226074 -0.1977701
000070 2a 7a b9 be 20 1f b0 be ea cb 93 3e a0 c6 af bd
       -0.36226016 -0.34398746 0.28866512 -0.085828066
000080 23 ef 7c be d8 a5 b4 3d 74 0f 09 bc ac 12 25 3f
       -0.24700598 0.08820695 -0.008365501 0.64481616
000090 67 af 52 3e f4 29 93 3e d9 db 00 3d 8c c8 f4 bb
       0.20574723 0.28742945 0.031459663 -0.007470196
0000a0 87 6d cc 3d 39 8d fc 3e b0 df 1d 3e 96 ea 82 bc
       0.09981828 0.49326494 0.15417361 -0.015981
0000b0 3e ea db bc c5 9e ea 3d 84 51 35 3f bc dc 82 bc
       -0.026845094 0.11456064 0.7082751 -0.015974395
0000c0 56 5a 65 bd 58 6f b7 be f0 94 a7 3c a3 f8 08 be
       -0.055994354 -0.35827136 0.020456761 -0.13376097
0000d0 69 c7 c6 bd 54 a9 a6 be 33 e1 16 3e 46 7b a6 3e
       -0.09706003 -0.32551062 0.14734344 0.32515925
0000e0 29 2e 30 be 04 df bc be cc 83 a6 bd 22 53 05 bf
       -0.17205109 -0.36888897 -0.08130607 -0.52079976
0000f0 c5 00 75 3d 5e 16 99 be 9e ab af 3e 32 c3 36 3e
       0.059815187 -0.29899877 0.3431062 0.17847899
000100 29 60 dd be 80 2c 1c bd 30 8e 94 be e8 df 6a be
       -0.43237427 -0.038128376 -0.2901473 -0.22936976
000110 1a 43 1f be ce 46 1b 3e c6 9f 06 3f ba 18 15 3e
       -0.15552941 0.15163729 0.52587545 0.14560214
000120 1e d7 12 3e 48 91 b5 3e 45 a8 55 3f 1d c0 f1 3e
       0.14339873 0.35462403 0.83459884 0.47216883
000130 e0 d5 2b 3e 94 cd b9 3e e7 24 ed 3d 65 55 95 3e
       0.16780806 0.36289656 0.11579304 0.29166713
000140 d9 94 77 3e d2 f4 9a 3e f6 b1 f3 3d 05 d0 5b 3f
       0.24177875 0.30264908 0.11899178 0.8586429
000150 d4 50 b9 3e d0 1a 1e 3e af 58 13 bf 71 a6 b0 3e
       0.3619448 0.15439916 -0.57557195 0.34501985
000160 a6 cc 14 bd 5c 46 b5 3d a1 ef 1e 3e e6 67 f2 be
       -0.03632798 0.088513106 0.15521099 -0.47344893
000170 03 ab e6 3e 28 f0 1c be 13 e7 1d 3f 15 4b 3d be
       0.45052347 -0.15325987 0.61680716 -0.18485673
000180 09 e4 3c bd 68 20 4f 3f 0e 46 0c be cb 27 8b be
       -0.04611591 0.80908823 -0.13698599 -0.27178797
000190 b0 21 a5 3e f5 1f 01 3e 52 94 e5 be fd 10 ba bc
       0.32252264 0.12609847 -0.44839722 -0.022713179
0001a0 9b 6d 98 be 9b f8 f6 3e 27 fb 79 3e 5e 1d 28 3e
       -0.29771122 0.48236546 0.24412213 0.16417453
0001b0 88 f0 e1 be d3 25 ed be 0b b5 c2 be 33 48 91 bd
       -0.44128823 -0.4631792 -0.3802875 -0.07093849
0001c0 40 a6 22 bf da 6e a1 3e 72 39 14 3f 25 97 a1 3e
       -0.6353493 0.31529886 0.57900155 0.31560627
0001d0 9f 22 ea 3e 18 b4 17 3e 96 47 23 bd 31 47 4e be
       0.4572954 0.14814794 -0.03986319 -0.20144345
0001e0 54 4d a2 3c 52 31 84 3d 97 df aa bd 1a b8 35 3e
       0.019812264 0.064547196 -0.08343428 0.1774601
0001f0 35 5b d0 bd 68 83 70 3e 5c c7 ca 3b 01 b3 16 3d
       -0.10173646 0.23487628 0.0061883163 0.036791805
000200 51 c0 96 3e 1b 57 15 3e a3 5d 24 be ba 43 a1 bd
       0.294436 0.1458401 -0.16051345 -0.07874246
000210 b5 6b a2 be 85 65 3b bd ba db 82 be b4 30 1a 3f
       -0.317228 -0.045751113 -0.25558263 0.60230565
000220 b7 da bd be 2c eb ce 3d e1 aa 22 be 5a 21 47 3e
       -0.3708093 0.10103449 -0.15885498 0.19446316
000230 b5 1e f8 3e 7c 3d 28 be 7b 31 df 3e c7 06 06 bd
       0.48460928 -0.16429704 0.43592438 -0.032721307
000240 d5 06 5c be 4d 64 a3 bd 93 8c 3b be 14 75 61 be
       -0.21486981 -0.07978115 -0.18315344 -0.22017318
000250 51 24 4b 3e e3 a9 e5 3e f1 aa fa be c2 ed ea 3d
       0.19838072 0.44856176 -0.48958543 0.1147113
000260 fc 19 60 3e 50 f6 4b 3e 86 53 71 bd ab 77 c4 3d
       0.21884912 0.1991818 -0.058917545 0.09593137
000270 c2 b5 c8 3e 1a ea 05 3d ee 26 84 be 43 14 88 3d
       0.3920117 0.03269396 -0.2581095 0.066444896
000280 76 a1 89 be 05 b3 ff bd 7e 60 a6 be 25 25 66 3e
       -0.26880997 -0.12485317 -0.32495493 0.22475107
000290 3c e2 ac 3d e2 d1 16 3f 37 bc 04 bf f3 8c d7 3e
       0.08441588 0.58914006 -0.51849693 0.42099723
0002a0 69 03 1e bd 87 ba 73 bd 7f 1f 7b bc e8 88 ad bc
       -0.03857747 -0.05950406 -0.0153273335 -0.021183446
0002b0 fd 9d 9c be c5 d3 22 be 5c d4 c0 3e fc e0 8a 3e
       -0.30589285 -0.15901096 0.37662017 0.27124774
0002c0 02 6c ec 3e dd ba af bd b8 c1 3c bd 9a e0 98 3e
       0.46176153 -0.08580563 -0.046083182 0.29858857
0002d0 dd 4b a0 bd a6 ed 3d be e1 54 d8 be 8c b8 95 3e
       -0.0782697 -0.18547687 -0.42252257 0.2924236
0002e0 46 b3 bf 3e 16 4b 33 3e 53 f2 34 3e 08 df 0f be
       0.37441462 0.17509112 0.17670564 -0.14049923
0002f0 5e 61 42 3e 10 a5 80 3c 73 cb b9 3e 2c ab 18 3f
       0.18982455 0.015703708 0.36288032 0.5963619
000300 e3 73 f7 bc ce 52 02 be 3d 6c 6d be 7c 76 86 3e
       -0.030206626 -0.127269 -0.23185821 0.2626227
000310 05 b6 fb bb ba fb 40 3d c2 06 91 bd f8 24 89 bd
       -0.0076816105 0.047115065 -0.07081367 -0.06696504
000320 fa 89 36 be 12 ca 3e 3e 34 a8 ff 3d c8 9f fa 3e
       -0.17826071 0.18631771 0.12483254 0.48950028
000330 bd 01 2e be 97 2b 61 3e 42 4a 22 be a1 49 e2 3d
       -0.1699285 0.21989284 -0.1584864 0.110492
000340 6a 6f 96 3d b6 66 94 3e b6 7d 0a be 31 fa b7 be
       0.07345469 0.28984612 -0.13524517 -0.35933068
000350 2b 18 21 bf 49 65 ea 3e b3 af a3 bd 5b b0 12 3e
       -0.629275 0.457804 -0.07992496 0.14325087
000360 dc 7a 89 3e b8 f8 2c be 4b cf 9e 3c 33 f5 80 3e
       0.26851547 -0.16891754 0.019385954 0.25187072
000370 01 a2 ac 3e a1 16 80 be 5f 47 85 3d 0d 05 58 be
       0.3371735 -0.25017264 0.065077536 -0.21095677
000380 24 28 c3 be 1e 00 b0 be 71 1f c9 3e 2d 18 11 be
       -0.38116562 -0.3437509 0.392818 -0.14169379
000390 5b ac 38 be 52 8c 62 3e 84 dc d1 be aa b8 71 be
       -0.18034498 0.2212384 -0.40988553 -0.236056
0003a0 8a 38 82 bc 67 ed 01 bf 06 2c 37 bd 2b ab 74 bc
       -0.0158961 -0.5075287 -0.04471972 -0.014933388
0003b0 7d e7 27 be 1c bb b1 3e f3 53 bb be 98 b3 b5 bd
       -0.163969 0.34713066 -0.36587486 -0.088721454
0003c0 41 1b 8d 3e c5 5c 04 3e 41 21 10 3e bc a3 7c be
       0.27559856 0.12926014 0.14075185 -0.24671835
0003d0 7e 53 37 be 6a 15 2c 3d 4a df 11 bd a2 c2 6e be
       -0.17902943 0.04201261 -0.035613336 -0.23316434
0003e0 aa 1c 13 bd e2 dd bb 3e 38 3f 71 be f7 42 05 3f
       -0.035916008 0.3669272 -0.23559272 0.52055305
0003f0 7d fe d3 be 8a 77 4f bd aa b7 a3 be b4 9c 0c bd
       -0.41405097 -0.05065111 -0.31976062 -0.03432913

feature_layers.0.bias f4 [128]
000000 1f 97 0b be 3b f6 1b be 98 ae fe 3c 42 98 62 3e
       -0.13631867 -0.15230648 0.031089112 0.22128394
000010 18 e4 1b 3e ca dc 03 bd 22 77 53 3e 1e a4 75 3e
       0.1522373 -0.032192983 0.20650914 0.23988387
000020 e6 f1 88 3e a5 2a 6e 3e 2c 33 20 3e 09 2e 8d bd
       0.26747054 0.23258455 0.1564452 -0.06893546
000030 83 c6 90 3e 01 5a 26 3d 64 eb d9 b9 4b 71 6c 3d
       0.28276452 0.04061318 -0.00041564845 0.057725232
000040 9a 81 96 3d 80 ea 76 3d b8 37 9f bd ae 0b 37 be
       0.07348938 0.06028223 -0.077742994 -0.17875549
000050 a9 7d b4 3d 62 63 1a bd 23 8a 8c 3e 93 90 28 be
       0.0881303 -0.037692435 0.2744914 -0.164614
000060 1b 6a 03 be 99 43 e4 3b 3a 1b b5 3c 8a 98 0a 3e
       -0.12833445 0.006966066 0.02210771 0.13534752
000070 ac 73 0d 3e cd ff 93 3e 81 c4 a5 bd bb 71 53 be
       0.13813657 0.28906098 -0.08094121 -0.20648853
000080 2c cf 9a 3d 26 85 45 bd 78 99 82 3d 10 d9 0e 3e
       0.07559046 -0.048222683 0.06376928 0.1394999
000090 6b cd 92 bd 6d 2a 28 3c 61 1f 81 be ff 76 71 3e
       -0.071680866 0.010264021 -0.25219253 0.2358055
0000a0 6e a0 18 3d 66 5c c1 bc 88 4e 2b be 08 86 9b 3e
       0.037262373 -0.02360363 -0.16729176 0.30375695
0000b0 04 47 47 be 34 9f 98 bc 2c c0 57 be 51 40 9a bd
       -0.19460684 -0.018630601 -0.21069402 -0.07531799
0000c0 a0 7a 9a bd 2d f4 06 be ba d3 1d 3d 4e 1c 4c bd
       -0.0754292 -0.13179083 0.038531996 -0.04983168
0000d0 f7 4a 0f bc 82 39 92 3d 8d 36 84 3d ef 73 d0 bd
       -0.0087459 0.07139875 0.06455717 -0.101783626
0000e0 75 65 cc bd 4f 7f 04 be ea 10 c1 3c fc 41 56 3e
       -0.09980289 -0.1293919 0.023567636 0.20923609
0000f0 50 75 b4 bd 71 27 65 bb c0 1c ce bd 84 0a 3b 3e
       -0.08811438 -0.0034966136 -0.100640774 0.1826573
000100 07 5c b4 bd 70 69 bd bd 80 50 ba bc 87 e1 6e 3e
       -0.08806615 -0.09248626 -0.022743464 0.2332822
000110 20 65 4a 3d 8a 73 5b 3e 7c c8 03 bd 41 d2 1d 3d
       0.049412847 0.21430793 -0.03217362 0.038530592
000120 c3 a8 50 3e 34 db 8d 3e a8 ca 3e 3e b2 48 5c 3e
       0.20376877 0.277063 0.18631995 0.21512106
000130 61 01 11 be 94 a3 12 3e eb 09 f6 bd 3c af 29 be
       -0.14160682 0.14320213 -0.120136105 -0.16570753
000140 2b 86 53 be d6 e6 0e bd 00 df a3 3c 06 6e 28 be
       -0.2065665 -0.03488811 0.020003796 -0.1644822
000150 c8 94 ca 3c 75 79 59 3e 79 7b bb bc 75 7d 0d 3e
       0.024729148 0.21237738 -0.022886025 0.1381739
000160 dc 29 83 3d ea 90 3d be 80 0e 01 be 88 5d 84 3e
       0.064044684 -0.18512312 -0.12603188 0.2585261
000170 6f 0b ec 3c c6 2a 21 3d 38 fd 85 3d a6 03 a5 3c
       0.028814046 0.039347433 0.06542438 0.020143341
000180 00 4d d1 3d 99 1e f1 bd e6 f5 04 bd 85 67 88 3d
       0.10219765 -0.11773414 -0.03246107 0.0666037
000190 16 19 4f bd 62 34 88 3e c2 8f 2b 3e 20 1f 19 bd
       -0.050561033 0.26602465 0.16754058 -0.0373832
0001a0 34 09 7b bd 7b 64 3a be 66 ae 89 3e 2f ba ff 3d
       -0.061288074 -0.18202393 0.26890868 0.124866836
0001b0 10 c4 27 bd 6d 9e 99 be 30 ed 43 bc 63 95 dc bd
       -0.040958464 -0.30003682 -0.011958405 -0.10770681
0001c0 2d 1c 7b bd 83 00 05 be 85 3c f2 3c 0c b0 45 3e
       -0.061306167 -0.12988476 0.029569874 0.19305438
0001d0 2b b8 6d be f3 84 76 be 61 ef 82 3e e3 4f e6 3d
       -0.23214786 -0.24074154 0.25573257 0.11245706
0001e0 77 d9 34 be 71 8e 28 3e 64 63 10 be 44 31 e8 3d
       -0.17661081 0.16460587 -0.14100415 0.11337522
0001f0 ee 79 4d 3c 06 c2 fc bd 63 9a a7 3a 2d 71 ba bd
       0.012541277 -0.123416945 0.00127871 -0.09103618

feature_layers.1.weight f4 [128, 128]
000000 2d 1b 1e be 4c e5 74 3d 48 d3 e5 3c 8e 88 2d be
       -0.15440054 0.059788987 0.028054848 -0.16946623
000010 6a 41 de bc 91 ff 4e be 84 cb dc 3d 7b 0e 73 3d
       -0.027130801 -0.20214678 0.10781005 0.05933998
000020 92 9d 61 3d 24 0d 05 3e fe e1 29 3e 7a 72 b2 3e
       0.05508191 0.12993294 0.16590115 0.34852964
000030 55 5b 54 3e a5 33 51 3d ce d5 72 3d 3f 01 18 be
       0.20737965 0.051074643 0.05928593 -0.14844225
000040 ba 88 9d 3e 16 60 d4 3d 63 98 1b 3e 3d f0 8b bd
       0.30768377 0.103698894 0.1519485 -0.06832931
000050 ef 14 be bb a3 96 8c be 02 bc 23 3d 43 17 a2 be
       -0.0058008353 -0.27458677 0.03997422 -0.31658372
000060 23 a6 d9 bc b0 cd 13 be 95 18 7c bd 79 a7 62 3e
       -0.026568478 -0.14433932 -0.06154688 0.22134198
000070 dc 54 fa 3d 1c 54 12 bd cd c0 ba bd b3 40 f7 bd
       0.12223217 -0.035724744 -0.09118805 -0.12072887
000080 0c 2f 2b bd 05 1d 15 bd ed c8 71 be 78 70 4f 3e
       -0.041792914 -0.03640463 -0.23611803 0.20257747
000090 90 dd b0 bd d9 2f ac bd 69 0f eb bc 04 8e 19 3e
       -0.0863601 -0.08407564 -0.028693872 0.14995581
0000a0 e0 c8 36 be c5 1f 9b 3d 8b 4a 3f be f3 47 94 3c
       -0.17850065 0.07574419 -0.1868078 0.018100714
0000b0 12 eb c1 bd 95 bc f3 bd 97 58 53 3e 01 f5 6e 3e
       -0.09468664 -0.119012035 0.20639263 0.23335649
0000c0 d0 b6 1e 3d 54 a7 98 be 74 4d 40 be 94 ab 59 bc
       0.038748562 -0.2981516 -0.18779546 -0.013285536
0000d0 e8 cd 5d 3a b9 dd 40 3c e7 b8 46 3e 6b 8f d1 bd
       0.00084611634 0.011771613 0.19406472 -0.10232433
0000e0 bd c0 4d 3c b1 b1 84 bd 76 6e 2e be 24 d9 25 3e
       0.012558159 -0.064792044 -0.17034325 0.16196114
0000f0 ff 29 77 bc d1 87 82 3d 6c 1d 7f bd 00 82 5c 3d
       -0.015085696 0.06373561 -0.06228392 0.053834915
000100 c6 75 ed bd 7b fa 8a bc c5 2b 85 3d 90 5f 8a 3d
       -0.11594729 -0.016965142 0.06502489 0.06756508
000110 ee a0 11 3e 34 96 68 3d 73 05 16 bc 02 87 05 bd
       0.14221546 0.05678387 -0.009156573 -0.032599457
000120 14 00 7e 3e 4d c3 1c bc ee 86 6a 3d 02 75 69 3e
       0.24804717 -0.009568048 0.057257585 0.22798541
000130 25 0f 3c bd dc aa 13 3e d6 d7 80 3e 43 c1 80 3d
       -0.04591288 0.14420646 0.2516467 0.06286862
000140 a2 9b 48 be 2c 80 91 bb 23 d3 90 bc 00 67 40 bd
       -0.19590619 -0.004440328 -0.017678803 -0.04697323
000150 bb 36 f4 bd 3b fe b0 bc bf 0b c4 3d 6b be 6e bd
       -0.119245015 -0.021605602 0.09572553 -0.058287065
000160 21 9b 30 3d af e6 a7 be 87 9c 09 3e ee 6c 92 3d
       0.043116692 -0.32793185 0.13438617 0.07149683
000170 39 d7 57 bd be 96 2a bd 37 05 c7 3c b9 a8 16 3c
       -0.052695487 -0.041647665 0.024294479 0.0091955
000180 6b 56 81 bd 6e bc 0f 3e cb e0 70 be 7a 70 d0 3d
       -0.06315311 0.14036724 -0.23523252 0.10177703
000190 52 77 02 bd 99 50 48 3e e5 90 a0 bd 02 fa 34 bd
       -0.031852074 0.19561996 -0.078401364 -0.04418374
0001a0 43 66 6c 3c d4 b5 d6 3c 9d f9 4e 3e 79 10 c8 bd
       0.014428678 0.02620975 0.20212407 -0.09768767
0001b0 00 4e a7 bd 81 85 b2 bd 4d 67 92 3e 1b c5 ea bd
       -0.08169174 -0.0871687 0.28594437 -0.11463376
0001c0 8b df 42 3e d9 f6 1c be 7f 51 c0 3d a1 e5 15 3e
       0.19030587 -0.1532854 0.09390544 0.14638378
0001d0 27 14 86 be 15 65 7d 3d b7 7b 48 3c 8c 46 44 3e
       -0.2618725 0.061863977 0.012236527 0.19167536
0001e0 cc 06 4b 3d 16 be 06 be 9b a1 65 3d 75 b3 40 bd
       0.04956703 -0.1315845 0.056062322 -0.047046144
0001f0 c7 76 ba 3d 65 a4 f7 bd 51 d8 a2 3d 08 90 38 be
       0.09104686 -0.12091903 0.07951415 -0.18023694
000200 fc d4 ce bc 9a 1b 00 3e 48 41 a0 3b 93 26 12 bd
       -0.025248043 0.12510529 0.0048905946 -0.03568132
000210 fa 44 41 3e a9 8d b2 bc cc 0a df 3c 3a b2 8b 3c
       0.18873969 -0.021796064 0.027226828 0.017052758
000220 c8 2a a0 bd 04 e6 09 3d fc 0c 0a 3e 8d 0a e0 bd
       -0.0782066 0.033666626 0.13481516 -0.109395124
000230 07 d3 35 3e 86 e1 a0 bd ec 12 36 bd 3b fb e0 bd
       0.17756282 -0.07855515 -0.04445164 -0.109854184
000240 95 17 0a 3e b8 66 eb 3d 29 d6 8e bc 35 51 a6 bd
       0.13485558 0.114942014 -0.017436104 -0.08120958
000250 eb 5b 8e bd 83 f3 e6 3d 76 6c 23 bd 24 87 f0 3c
       -0.06951126 0.11276915 -0.03989836 0.029361315
000260 a1 10 2e bd 92 0d 30 3e eb 37 47 be 6d 0a 05 be
       -0.042496327 0.17192677 -0.19454925 -0.12992258
000270 55 7a 3d 3d b2 88 0a 3d 2e 03 9c b9 a0 cc a1 3d
       0.046259243 0.03382177 -0.00029757008 0.07900357
000280 78 0a da 3d e6 99 18 3e fe 90 d8 bd 22 0d a3 3c
       0.10646528 0.14902458 -0.1057453 0.019903723
000290 22 81 21 3e 86 8b 4d 3e 8e 53 06 3c a7 c3 0f 3e
       0.15771917 0.20072755 0.008198632 0.14039479
0002a0 6a b0 2e bd 39 40 80 bd fd 44 28 be cd 0e ef 3c
       -0.04264871 -0.062622495 -0.16432567 0.029181862
0002b0 28 bd b3 bd c4 90 73 be 60 13 f4 3d 70 03 08 3d
       -0.08776313 -0.23785692 0.11917758 0.033206403
0002c0 6f 45 d8 3d ef 39 4a bd 2d 4f 8f 3d 5c 0e d1 3c
       0.105601184 -0.049371656 0.069975235 0.025519542
0002d0 66 d1 83 be ad 7f 0e 3e fc cc 98 3e f3 d4 c8 bc
       -0.25745696 0.13915892 0.2984389 -0.024515605
0002e0 03 c7 d6 3d 9f 0f 08 be 5f a9 a0 be 09 32 36 3e
       0.10487177 -0.13287209 -0.3137922 0.17792524
0002f0 7d 03 f1 3d 41 94 75 bd 3b 70 45 be bb a4 64 3e
       0.117682435 -0.05995584 -0.19281094 0.22328465
000300 de 8e 8e 3e cf cf 75 bd 1d 64 ad bd 4c a1 d7 bd
       0.27843374 -0.060012635 -0.08466361 -0.10528812
000310 5d 32 2a 3d a5 20 77 bb 87 a9 26 be 0a 5f 28 3d
       0.041551936 -0.0037708667 -0.16275607 0.04110626
000320 e8 ba bd 3d 68 5e 3a 3e 43 7e 35 bd 79 6b 68 3e
       0.09264165 0.18200076 -0.044309866 0.22697248
000330 54 2b 4a bd 14 af c9 3c 90 27 10 be a7 94 9d 38
       -0.049357727 0.024619617 -0.14077592 7.514032e-05
000340 52 5a 02 3e fc 98 46 3c 43 c2 4a bb a8 dc 9f 3e
       0.12729767 0.012121435 -0.0030938543 0.31223035
000350 29 d0 0e be ef e4 53 3c dc 7e 1c be 57 1d f1 3d
       -0.13946594 0.012933 -0.15282768 0.11773174
000360 9f 5f f9 bd ad 2a b8 bd 45 3e 44 be b4 94 53 3d
       -0.121764414 -0.08992515 -0.19164379 0.051655486
000370 64 10 93 bd 51 48 f8 3d 8a 68 1f bd 20 be be 3d
       -0.07180861 0.12123168 -0.038918056 0.09313607
000380 14 9e fc 3c 91 1f f0 bc b8 04 40 bd 95 68 47 bd
       0.030837096 -0.029311927 -0.0468795 -0.04868372
000390 00 cf 19 3d 7f 73 4b 3e 5a 23 24 be da 3d 19 3e
       0.037550926 0.19868277 -0.1602911 0.14965001
0003a0 3c 5f 82 be 5d 63 fa bd 28 b8 64 3e ff 92 1a 3d
       -0.25463283 -0.12225983 0.22335875 0.037737843
0003b0 27 46 52 3c 73 b3 65 bd b3 99 a3 3b b9 8c f2 bb
       0.012834108 -0.05607934 0.0049926876 -0.0074020294
0003c0 5f a0 85 3e 61 1f 16 bd ec d2 41 be ee 17 08 be
       0.26098916 -0.03665102 -0.18928117 -0.13290378
0003d0 11 30 c9 bd e1 67 72 bd 5d f5 1e 3d bc e8 b8 3d
       -0.09823621 -0.059181098 0.038808215 0.090287656
0003e0 71 d7 c3 bd 72 a2 79 3e 78 41 17 3e cb 76 17 3e
       -0.095625766 0.24378374 0.14771068 0.1479141
0003f0 a9 2d b1 bc a2 b3 d5 3c b4 e9 82 bd 43 ea a2 bc
       -0.021628218 0.026086632 -0.063922316 -0.019887095

feature_layers.1.bias f4 [128]
000000 22 79 9b bb bb 69 fe 3c 5a 5e 7f 3d 9a be 31 bd
       -0.0047446648 0.031056276 0.06234584 -0.043394662
000010 53 f1 ce bd 9e 82 45 bc ca d7 99 3d f6 99 29 bd
       -0.10104623 -0.012055067 0.075118616 -0.041406594
000020 fc a9 f7 3d ed 3c ed bd 3d c0 53 3d 2c 00 fd 3d
       0.12092969 -0.11583886 0.051697005 0.123535484
000030 c9 7a 7f 3d fe 83 47 3d 4f 99 1f 3e a5 87 c5 bc
       0.062372956 0.048709862 0.15585826 -0.024112532
000040 eb a1 9a 3d 71 2e d4 bd 0d f6 1a 3e 8d 5f 88 3d
       0.07550415 -0.103604205 0.15132923 0.0665885
000050 59 f1 91 bc a9 02 98 bc 02 66 a8 3d 40 ae ae bd
       -0.017815279 -0.018555956 0.082225814 -0.08529329
000060 a8 e8 71 3d 8f 5b e2 3c a2 73 a0 bb 06 27 50 3b
       0.05905977 0.02763155 -0.004896597 0.003176154
000070 48 80 91 bd a7 f1 ff bb aa 65 a3 bd 1f 2e 6c 3d
       -0.07104546 -0.0078107896 -0.07978375 0.057661172
000080 44 fd 63 3d c8 55 38 3d eb 98 b9 3d 48 94 2b 3d
       0.055661455 0.045003682 0.0906237 0.04188946
000090 50 f7 a1 3d 80 0d 05 3e 4b 76 23 3e 31 7a d6 bd
       0.07908499 0.12993431 0.15963094 -0.10472525
0000a0 ed 61 7e 3d 9f 44 be 3d 3a 7e 77 bd 75 81 a7 3d
       0.062105108 0.09290432 -0.060423113 0.08178989
0000b0 14 0a c8 3d 34 10 66 bd 2a 0d 57 3c c7 5a ff 3d
       0.09767547 -0.056167796 0.013125697 0.12468486
0000c0 95 98 f4 3d ed b7 6a 3d c6 ff 17 3d a9 bd 0e 3b
       0.11943165 0.05730431 0.03710916 0.0021780527
0000d0 0f c0 a8 3d 4a bd f0 bc 0c fb f4 3c 22 25 00 3b
       0.08239757 -0.029387135 0.029904865 0.0019553383
0000e0 2a 9b 50 3d af 24 dd 3c ca 53 16 3d 8e c2 ef bc
       0.050929226 0.026995031 0.036701 -0.029267576
0000f0 47 2e ed 3d 44 f5 6c 3c 48 97 e7 bd f8 b2 c0 3c
       0.11581092 0.014462773 -0.113081515 0.023522839
000100 52 27 2c 3e fd a6 6e 3d ca 19 db 3d 1d fc a2 bd
       0.16811875 0.05826472 0.10698278 -0.07958243
000110 b4 b7 db 3d cb 56 e9 3d 35 5a 76 3d a5 d4 73 bc
       0.10728398 0.113935076 0.060144622 -0.014882241
000120 a3 80 93 3c 88 c5 18 3e bf 17 28 bc 75 26 ab 3b
       0.018005675 0.14919102 -0.010259568 0.0052230903
000130 df 56 96 3d 51 27 60 3c 68 db 48 ba 97 92 b9 bd
       0.07340788 0.013681249 -0.00076620886 -0.09061163
000140 f0 e7 97 3c 63 c4 72 3d 1f f4 b6 bd 11 b6 74 bc
       0.018543214 0.05926932 -0.08933281 -0.014935986
000150 17 fd 32 3d 73 1a a9 bd d2 21 aa bd b9 3e b1 bd
       0.043698397 -0.08256998 -0.08307232 -0.086545415
000160 db 08 a7 bd 83 7c 04 3e 89 b5 1b 3d 4e 67 26 3d
       -0.08155986 0.12938122 0.038014922 0.040625863
000170 33 02 b7 3d 15 c6 8e 3d c6 81 67 3d 05 03 59 bd
       0.08935966 0.06971375 0.056520246 -0.052981395
000180 05 7e 00 be ae e5 f7 3d db 77 93 bb 3b 45 cc bd
       -0.12548073 0.12104355 -0.004500372 -0.09974142
000190 14 92 84 bb 7f 3b 09 bd 20 44 62 bd 3d 93 a7 3d
       -0.004045734 -0.033504006 -0.05524075 0.0818238
0001a0 98 d9 00 be 9a 41 b5 bd 80 73 92 bd 38 d1 9e bb
       -0.12583005 -0.08850403 -0.07150936 -0.004846718
0001b0 f0 8e ac bd 51 25 7a bb c0 75 3f bd 9b 57 83 bd
       -0.08425701 -0.0038169215 -0.046743155 -0.06413194
0001c0 9c 9a 26 3e 84 bb 68 3d 38 20 88 3d b4 b9 ab 3d
       0.16269916 0.056819454 0.0664677 0.083850294
0001d0 be f6 33 3d 97 3b 06 3e e7 89 0f be b0 78 31 3d
       0.043936484 0.13108669 -0.1401745 0.043327987
0001e0 52 03 19 bd 5d c9 09 3e 80 48 1d be dd 96 0e bd
       -0.037356682 0.1345572 -0.15359688 -0.034811843
0001f0 89 b9 fb 3d a1 c7 73 3b aa 9a 61 3c 51 7c 4b 3c
       0.122912474 0.0037197846 0.013769785 0.012419776

value_stream.0.weight f4 [64, 128]
000000 77 a5 83 3d 5f 3f 71 bd 28 66 9d 3d 3d 2e da 3d
       0.06428044 -0.058898326 0.076855004 0.106533505
000010 a4 27 06 3d 14 1e 57 3c 9c f3 ae 3d ff 97 e1 bd
       0.032752648 0.01312973 0.085425586 -0.11015319
000020 26 fc ac bc 6e ae 5e 3e 28 79 ff bc 75 eb 62 3d
       -0.021116327 0.21746227 -0.031185701 0.05540033
000030 83 8d 84 3d e8 9f cd 3d 25 48 cf bc 09 7e c6 bd
       0.06472304 0.10040265 -0.025302956 -0.09692008
000040 0b e4 6b bd 95 a2 00 be 12 b3 5d be 40 25 96 bd
       -0.057590526 -0.1256202 -0.21650341 -0.073313236
000050 46 9d d8 3d e3 39 ba bd e9 16 3b 3d bc b2 26 3d
       0.105768725 -0.09093072 0.045676146 0.040697798
000060 95 ef 97 3d ef e9 80 3e 0c 55 4c 3d 06 fc 00 bc
       0.074187435 0.25178477 0.049885795 -0.007872587
000070 4c 5d 3c 3d 36 1b 12 3d 69 58 7f 3c 45 f3 9b bd
       0.045987412 0.03567048 0.0155850435 -0.07614759
000080 52 aa 0a 3d fb 36 7d 3d 36 e4 18 be 5e 15 26 bd
       0.033853836 0.06182001 -0.14930806 -0.04054772
000090 27 90 2c be d4 2f 85 3c 12 85 25 be 98 d7 46 bd
       -0.16851865 0.016258158 -0.16164044 -0.04854545
0000a0 1f ca 4e 3e 83 99 53 3d c3 92 f8 bd 47 4b ad 3d
       0.2019429 0.051660072 -0.121373676 0.08461624
0000b0 c7 f5 00 bd 1a 96 6a 3e 0e 97 1a bd 06 56 30 bd
       -0.03148439 0.22908822 -0.037741713 -0.04305079
0000c0 a8 46 3b be 5c 0c 30 bd 68 9f 5d 3e 5a 62 53 3e
       -0.18288672 -0.042980537 0.2164284 0.20642987
0000d0 30 29 85 bd 28 a7 7a 3e f7 4d 6a 3e 39 13 84 bd
       -0.065019965 0.24477828 0.22881304 -0.06448979
0000e0 8e 0c 89 3d a6 63 7b 3d 03 d3 36 3e cc 89 cf 3b
       0.06691848 0.06137433 0.17853932 0.0063335653
0000f0 4a 40 f0 bd 10 86 09 3e 59 dc 94 3d bd aa 66 be
       -0.11731012 0.13430047 0.072685905 -0.22526069
000100 13 78 1a be b0 f0 bd bd 16 8d b0 bd 3c 4f cd bd
       -0.15084867 -0.09274423 -0.0862066 -0.100248784
000110 5a 43 99 bd ba 91 fc bd 2d ae 77 bd 62 4d 67 be
       -0.074835494 -0.12332483 -0.06046884 -0.22588113
000120 b8 3d 7a 3d 2f 8b 1a be b1 6a 98 bd 3e 17 02 be
       0.061094016 -0.15092157 -0.07442225 -0.12704179
000130 9a 94 5e 3d fe 08 cd 3e 86 03 41 be 7a 5b aa 3e
       0.054340936 0.40045923 -0.18849 0.33272916
000140 6c 7d 44 bd ed ca 73 be 29 81 36 be 5b 73 fb 3d
       -0.047971174 -0.23807879 -0.17822708 0.12277862
000150 39 1e 5b 3d e9 e5 26 3d ee 68 01 3d 0a 3c df bd
       0.05349562 0.040746603 0.03159421 -0.109001234
000160 13 26 64 3e bd ce d1 bd 3d 10 df bc d0 db 16 bd
       0.22280149 -0.1024451 -0.027229423 -0.036830723
000170 0f 0b 7f be 93 22 d6 bd d8 ee bf be b6 b0 fe 3d
       -0.24906562 -0.10455813 -0.3748691 0.12436049
000180 50 8a 8d 3d d4 d2 fc 3c 26 80 38 3e 79 9d b1 3e
       0.06911147 0.03086225 0.18017635 0.34690455
000190 94 e2 fc 3d 49 b6 2a 3e ca ab cf 3c 53 d9 a0 bc
       0.12347904 0.16671099 0.02535047 -0.019634878
0001a0 e7 56 cb 3e df a7 89 3e aa 07 95 bc 80 3f 41 3e
       0.3971474 0.26885888 -0.018192131 0.1887188
0001b0 6d b7 d1 bc 59 67 5f 3e b0 10 8b bd 94 35 f8 3d
       -0.02560016 0.21816768 -0.06790292 0.12119594
0001c0 b1 7b 10 3e 25 3b d0 bd e2 61 6b be c9 4f 00 3e
       0.14109685 -0.10167531 -0.22986558 0.12530436
0001d0 a5 ac 86 3d eb 36 51 3e 44 78 2c 3e c5 64 a6 3e
       0.06575898 0.20431106 0.16842753 0.32498756
0001e0 c1 e7 49 3e 04 33 dd 3d 9c e1 ca bb e4 b3 63 bd
       0.19717313 0.10800746 -0.0061914455 -0.05559148
0001f0 0c fa 35 bc 72 88 b4 bd b6 41 ae be 4a bb 0d be
       -0.011106979 -0.088150874 -0.34034508 -0.13840976
000200 ba 9d 9a bd c8 3d 83 be 90 27 3b 3e e0 f3 7e 3c
       -0.07549615 -0.25633073 0.1827681 0.015561074
000210 87 c3 45 be 1d ae 5d 3e 13 3c fe bd 5c 2a 1c 3e
       -0.19312869 0.2164845 -0.12413802 0.15250534
000220 2e 25 7b 3d 97 a6 94 3d cf 5b be 3d 5f 42 91 3c
       0.061314754 0.07258337 0.09294855 0.017731844
000230 05 ce 2b be d5 cb 89 be e3 6b 29 be 73 78 02 be
       -0.16777809 -0.26913324 -0.16545062 -0.1274126
000240 a8 ae 10 be ce 45 96 3c c0 fb 1a bc 3a 0f 82 bd
       -0.14129126 0.018343832 -0.009459436 -0.063505605
000250 2b 2b 03 3e ec 51 5b bd f3 57 58 be 8d 76 38 3d
       0.12809436 -0.053544924 -0.211273 0.045034934
000260 70 a6 47 be fc 4c d6 bc 69 cf 80 be 38 09 4e be
       -0.19497085 -0.026159756 -0.2515824 -0.20120704
000270 76 80 b3 3e c6 8d af 3d 5a 57 96 3e 1e af 03 be
       0.35058945 0.08571963 0.2936352 -0.1285977
000280 03 da 20 be b4 1d 40 3d dd 7e b6 3c f6 5c 02 3e
       -0.15708165 0.046903327 0.02227729 0.12730774
000290 d5 81 53 be 9d cf e1 bd 10 2a 33 be 00 1b 53 3e
       -0.20654996 -0.11025927 -0.17496514 0.20615768
0002a0 a8 38 ec bc ae d2 0a be fe 44 45 3e 32 c8 0e be
       -0.02883561 -0.1355693 0.192646 -0.13943556
0002b0 ce f0 70 be c4 a7 09 3e e0 51 26 bd 3b da 37 be
       -0.2352936 0.13442904 -0.040605426 -0.17954342
0002c0 09 ed c0 bd 4a 68 9a bd fc 51 a2 3c 9a b7 fb 3d
       -0.09420211 -0.07539423 0.019814484 0.122908786
0002d0 b7 06 81 bd 4d d3 15 3d 7b 58 c9 3b 9b ed 87 3e
       -0.06300109 0.036578465 0.006144581 0.26548466
0002e0 ec 88 f6 3d dc bf b5 bd 4a 66 48 be a8 0b 9a 3d
       0.120378345 -0.08874485 -0.1957027 0.075217545
0002f0 3b f2 3e 3e 23 fc a0 3d a6 35 8d 3d 4b ab 09 be
       0.18647091 0.07860591 0.06894998 -0.1344425
000300 c8 92 b3 bc 68 e4 58 bd fd 39 18 3e 17 a6 00 ba
       -0.021920577 -0.0529522 0.14865871 -0.0004907562
000310 db ce 8c bb 8a fa 3f be e2 71 93 3b dd 6a 54 3e
       -0.00429712 -0.18747917 0.00449966 0.2074389
000320 d8 f4 2c 3e 34 53 25 bc 4c c0 85 b9 74 36 fb 3d
       0.16890275 -0.010090638 -0.0002551101 0.122662455
000330 d6 f5 b3 bd 3f 41 82 3c fb e6 21 3e b1 18 c9 3d
       -0.08787124 0.015900252 0.15810768 0.09819163
000340 aa 18 9c bd 03 d8 e5 be 8a a9 85 3e d6 e8 39 be
       -0.07621892 -0.44891366 0.2610591 -0.18155226
000350 6c cc c1 be cc 1e 79 be 01 f9 36 be 71 a9 30 3e
       -0.37851274 -0.24328154 -0.17868425 0.17252137
000360 e5 8f 10 3e f6 da af be 2c 08 82 3b d0 5b 18 3d
       0.14117391 -0.3434674 0.0039682593 0.037196934
000370 8d c8 7b be c8 bf 2f bd de 24 18 be 48 a2 9e be
       -0.24588223 -0.042907506 -0.14857814 -0.30983186
000380 7a 6f a3 3e 36 55 b0 bd 96 4e 64 3e 01 55 bb 3d
       0.31920987 -0.08610003 0.22295603 0.091470726
000390 6d 24 9c bd 25 1b 50 3d 40 d6 2e bd 5e a4 3d 3d
       -0.07624135 0.050807137 -0.042684793 0.04629933
0003a0 b0 31 fe bb 09 28 4f 3e a7 90 4f 3d 35 ff 68 3e
       -0.007757388 0.20230116 0.05067506 0.22753604
0003b0 4c f4 7b b9 5f 9a 30 bd b9 fe 3d 3d 15 57 a1 3b
       -0.00024028233 -0.04311597 0.0463855 0.004923711
0003c0 04 7a fa 3c 86 3e b5 3c e8 c6 64 3d 71 96 04 be
       0.03057576 0.02212454 0.055853754 -0.12948014
0003d0 3a b2 86 be 24 fd c9 bd d7 13 8e 3c 0e 18 c0 3d
       -0.2630785 -0.09862736 0.017343445 0.09379588
0003e0 e0 e7 1f be 4b f5 88 bd d1 f8 a5 bd df 41 e0 3d
       -0.15615797 -0.06687411 -0.081040986 0.10950064
0003f0 4c 1d f6 3b 32 ee a2 3d 87 7d 90 be 98 e2 5d bc
       0.0075108167 0.079555884 -0.2822077 -0.013542794

value_stream.0.bias f4 [64]
000000 ab 13 b7 bd cc ee 6c bd bb 60 18 3d f6 b3 5e bd
       -0.08939298 -0.057844922 0.037201624 -0.054370843
000010 89 8d e6 3d 50 07 61 bc 00 8f a2 bd f1 50 62 3d
       0.112574644 -0.013734654 -0.07937431 0.055252973
000020 44 86 e3 3c d8 e7 14 bd 59 f0 32 3d 88 4c 9d 3d
       0.027773984 -0.036353916 0.043686245 0.07680613
000030 95 a9 b7 3d 99 5c 39 bc 7c 25 02 3e 02 75 47 3d
       0.08967892 -0.011313581 0.12709612 0.04869557
000040 d6 d6 01 bc 87 42 ff bd 1a 78 9d bd 7f f7 0b 3e
       -0.007924756 -0.12463861 -0.07688923 0.13668631
000050 97 1b bf 3d 0f 55 87 bd 36 01 5a 3d 66 b4 c2 3d
       0.09331434 -0.066080205 0.05322381 0.095070645
000060 21 93 5a bd 8d 0c ef bd ce d5 86 3b 1e 37 74 3d
       -0.05336297 -0.11672316 0.004114843 0.059622876
000070 f5 a8 23 3d 82 30 43 bd c1 66 2f bd 4d 7d 94 3b
       0.03995605 -0.047653683 -0.042822603 0.0045315386
000080 93 78 1a 3e d4 6d f3 3b 0f c3 33 3e 0b 22 cd bd
       0.15085058 0.007428864 0.17554878 -0.10016259
000090 1f 48 04 3d b2 4f 1a 3d 49 f4 c8 bd 2e 50 d6 bc
       0.032295343 0.03767366 -0.09812219 -0.02616128
0000a0 3c f1 09 be bb e3 0f 3d 42 75 a5 3d 8f 57 84 3d
       -0.1347093 0.03512929 0.08079006 0.06462013
0000b0 04 19 87 3d a1 6a 1c 3d 3d 3c 6e 3d af 6d 09 3e
       0.06596568 0.038187627 0.058162916 0.13420747
0000c0 d8 6e 8b 3d ae 79 06 3d a2 18 32 bd 69 d9 18 3d
       0.06808251 0.032830887 -0.043480523 0.037316713
0000d0 0e 14 d8 3c 31 16 ab bd 60 10 e9 3c cb b4 d2 bd
       0.02637675 -0.08353842 0.028450191 -0.1028839
0000e0 17 e7 08 be 4e 95 10 bc 28 43 d0 3c 36 96 3b 3d
       -0.13369404 -0.0088246595 0.025422648 0.04579755
0000f0 1a 4d 04 3e 2c e4 ab 3d 57 f7 e3 bc 10 84 7c 3d
       0.12920037 0.0839313 -0.027827902 0.061649382

value_stream.2.weight f4 [1, 64]
000000 05 6c 73 be 44 80 bb be 5d 82 96 bd 53 71 60 be
       -0.23771675 -0.36621296 -0.073490836 -0.2191823
000010 f7 d4 07 3e 0a 37 3c be a3 81 94 bd 50 4c 85 be
       0.13264833 -0.1838037 -0.07251289 -0.26034784
000020 2f ab ac 3d 9a 8b 65 bd 74 81 b6 3d 07 65 23 3e
       0.08431088 -0.056041338 0.0891141 0.15956508
000030 a0 1b bc 3e a7 6e fa bd ae 46 11 3f f9 7e bb 3e
       0.36739826 -0.122281365 0.56748474 0.3662031
000040 b4 60 4b 3e a9 1a e2 bd c3 48 de bd 33 74 0a 3f
       0.19861108 -0.11040241 -0.10853722 0.54083556
000050 7a c9 12 3e 94 6c a9 be c5 d0 4c 3e a2 89 34 3e
       0.1433467 -0.3309065 0.20001514 0.17630628
000060 41 ce ab be 07 34 bf bd e5 aa 11 3e 76 ef bb 3e
       -0.33555797 -0.09336095 0.14225347 0.36706132
000070 5e f2 76 be a6 ab 67 be 40 80 26 be 1f 5d 2c be
       -0.24115893 -0.22624072 -0.16259861 -0.16832398
000080 8b 4b 39 3e f2 97 4a be d6 51 d9 3d da 90 34 be
       0.18095224 -0.19784525 0.10611312 -0.17633381
000090 dc 64 55 be 97 53 97 bd c8 4e dc be 1f 97 7c be
       -0.20839256 -0.0738899 -0.43028855 -0.24667023
0000a0 65 0e ca be 3b 0d 70 be 71 69 dd 3e 52 ab ab 3e
       -0.39464107 -0.23442547 0.43244508 0.33529145
0000b0 a7 93 db 3e 6f a6 21 be f6 e6 1c 3e 9e cf 70 3e
       0.42886087 -0.15786146 0.1532248 0.235167
0000c0 14 af 4d be 0b 6c 6b be 4b 35 8e be 08 ef 79 3e
       -0.20086318 -0.22990434 -0.27775034 0.2440759
0000d0 d0 fb 2e 3e 62 ce 54 be 03 97 25 be 00 a6 9b bd
       0.17088246 -0.20781854 -0.16170888 -0.07600021
0000e0 5b 92 31 be a8 b6 d8 3d 1d 62 f8 3d 27 7e 57 3e
       -0.17340986 0.10581714 0.121280886 0.21044217
0000f0 40 e2 d2 3e d1 d7 c9 3e f6 a4 37 be 76 91 45 be
       0.4118824 0.39422467 -0.17934021 -0.1929377

advantage_stream.0.weight f4 [64, 128]
000000 78 46 8a 3d 35 3b 83 bd 7c 08 49 be 87 ee be be
       0.06751722 -0.06407777 -0.19632143 -0.37291357
000010 59 7d 3a be 22 d2 c2 3d b5 8b a9 3e 48 95 fe bd
       -0.18211879 0.09512736 0.331144 -0.12430817
000020 48 bf e0 3c 1d 54 e5 bd a7 2d 33 3e 30 cc ef 3d
       0.02743496 -0.11197684 0.17497884 0.117088675
000030 e1 ae 3c be dd 70 54 bd cf a3 43 3e 63 cc b7 3d
       -0.18426086 -0.051865447 0.19105457 0.089745305
000040 2d f3 b3 3c 95 bd c8 3d b8 86 00 3e 63 f1 69 3e
       0.021966541 0.09801785 0.12551391 0.22845988
000050 5f 72 28 bd a0 61 01 3e e0 b7 bb 3d 50 43 9f 3e
       -0.041124698 0.12634897 0.09165931 0.31106043
000060 c9 a2 30 bd 47 f0 7d 3d bf bc 91 3d 4a b0 4c 3e
       -0.043123994 0.061996724 0.071160786 0.19989124
000070 57 a2 0a bd 49 28 0a be 74 dc 5d 3e de c9 18 3d
       -0.033846226 -0.1349193 0.21666127 0.03730189
000080 2e df 01 be 62 a5 db bd f1 64 82 be 6a 7b 81 ba
       -0.12682793 -0.10724904 -0.25467637 -0.0009878699
000090 c1 89 b2 bd 46 aa a5 bd ea 30 e1 3d b4 7a 15 bd
       -0.08717681 -0.08089118 0.10995658 -0.036493972
0000a0 fb 71 37 bc a8 89 d6 bd 4c 3b bc bd 14 bb ee 3d
       -0.011196609 -0.104754746 -0.091909975 0.11656776
0000b0 59 48 2e 3e 13 83 b4 3c f6 ba 5a be 8e 96 8a 3c
       0.17019786 0.022035157 -0.21360382 0.016917493
0000c0 ac 20 1c 3e 52 87 cc 3b 26 76 a6 3d fe c7 5f 3e
       0.15246838 0.0062417174 0.08128004 0.21853635
0000d0 88 23 55 be f9 de fd 3d c4 b0 7f bc f4 22 12 be
       -0.20814335 0.12396044 -0.015606109 -0.14271146
0000e0 39 f9 e6 3c 79 d3 9f 3d 2c 26 e5 bd da b9 1b bd
       0.02819501 0.07804007 -0.11188921 -0.03801904
0000f0 99 56 e7 bd 52 8c e4 bd a0 a6 ff 3b 5c 37 fa bc
       -0.11295814 -0.111595765 0.0078018457 -0.030543976
000100 8f 4b ac bd 43 33 b5 3d 04 c5 8a bd 6a d7 37 3e
       -0.08412849 0.08847668 -0.06775859 0.17953268
000110 e6 f9 a8 bb 18 0e 7e 3e 9b f6 65 bc 33 1f 20 be
       -0.0051567433 0.24810064 -0.014035846 -0.15636902
000120 2c ec 36 be 14 06 73 3c 6f 66 22 bb fc c0 95 3e
       -0.1786353 0.014832992 -0.0024780293 0.29248798
000130 6b 37 dd bd 0f 5f 7b 3c f3 a3 e9 bd 78 4c 47 3e
       -0.10801586 0.015342488 -0.11408224 0.19462764
000140 bb 3c 00 3c b5 12 20 be 22 b1 51 3d 00 85 4e be
       0.007826979 -0.15632136 0.051194318 -0.20167923
000150 fd 3d a2 3b ce 3d b1 3c e2 c5 37 3e 4f 58 4c 3a
       0.0049512372 0.021635916 0.1794658 0.00077951414
000160 99 a5 d6 3d b2 7c 27 be 96 97 61 3d aa de 79 be
       0.10480804 -0.16356161 0.055076204 -0.24401346
000170 1d 6e 9a 3d 17 60 b6 3b 05 f5 47 bd 97 f3 27 3e
       0.07540534 0.005565654 -0.048817653 0.16401516
000180 91 ab 24 3d f4 60 79 bd 8d 36 10 3d 73 4e 42 3d
       0.04020268 -0.060883477 0.035208274 0.047438096
000190 e6 54 69 3e 9a c4 33 bd 90 77 10 3e 0a d8 eb 3d
       0.22786292 -0.043888666 0.1410811 0.115158156
0001a0 83 d7 c0 3d ba 5f df bd 2f 77 d9 bd aa 06 7a bd
       0.094161056 -0.1090693 -0.106184356 -0.06104151
0001b0 a4 a8 22 3d bf 7a 0b 3e ac e5 1a be d5 c6 45 3e
       0.03971161 0.13621043 -0.15126675 0.1931413
0001c0 1b 8c 53 3d 36 47 26 bd c1 55 60 3e 78 20 a1 bd
       0.051647287 -0.040595256 0.21907713 -0.07867521
0001d0 87 34 fc 3d 50 16 56 bd 6e 51 32 3e 17 be ca 3d
       0.12314706 -0.052267373 0.17413875 0.09899538
0001e0 1c a6 55 3e 64 c3 21 3e 7e 11 58 3e 8d de e5 bd
       0.20864147 0.15797192 0.21100423 -0.11224089
0001f0 4c 5b ea 3c e7 06 91 3c 36 1a 14 be 23 ab 7f 3d
       0.028607987 0.017703487 -0.14463124 0.062419068
000200 85 db 45 bd 7a c2 56 be 49 75 0f bd 52 08 a6 bd
       -0.048305053 -0.20972624 -0.03502396 -0.08107056
000210 9b 64 a3 3d b0 23 8f 3d 8a 0f 8c bd 1f 54 b0 bc
       0.07978173 0.06989229 -0.06838901 -0.021524487
000220 98 c4 80 bd 96 5e fc bc 26 aa 96 3e 05 19 94 3c
       -0.06287497 -0.03080682 0.29426688 0.018078336
000230 56 39 15 bd 34 dd c9 bd 70 1a 4f be 68 3e 82 3e
       -0.036431633 -0.09856644 -0.20224929 0.25438237
000240 69 46 c3 bd 91 d6 6d 3e fd a9 f7 bc 88 12 46 bc
       -0.09534914 0.23226382 -0.030232424 -0.012089379
000250 e1 91 26 bd 9a 61 9a bd 30 e2 8a 3d 6d 45 8e 3e
       -0.040666465 -0.07538147 0.06781423 0.27787343
000260 47 b6 28 bd 90 94 66 be a5 4f c4 3c 6d 64 b4 3e
       -0.04118946 -0.2251761 0.023963759 0.3523287
000270 d8 91 0a be 4f 7e 32 3c 69 0b dd bc 47 c8 58 3c
       -0.13532197 0.010894372 -0.02698298 0.013231344
000280 c9 8c 72 3c bb 94 b4 3d 3a f1 4b be f8 b7 78 bd
       0.014804074 0.088174306 -0.1991624 -0.06072232
000290 08 82 78 bd d6 3e a5 3d 33 be 54 3e 7a 54 c0 3d
       -0.060670882 0.08068626 0.2077568 0.093911126
0002a0 7b ad a5 3c a9 03 1a 3d e2 0e 0c be fc 5c 9e 3d
       0.020224323 0.037601147 -0.13677552 0.07732579
0002b0 33 73 ed bc 9a 36 1f 3e 83 4b 9e ba 75 7a e9 3d
       -0.028985595 0.15548173 -0.0012076948 0.1140031
0002c0 66 27 44 be af 3c 05 be d7 55 a8 3e 8a 08 61 bd
       -0.19155654 -0.1301143 0.3287799 -0.054939784
0002d0 01 52 c0 bd 88 5a 5a 3e 0d b8 50 3e 56 1d af bd
       -0.09390641 0.21323597 0.2038271 -0.08550517
0002e0 9f 14 d9 3e 0e 86 2b be 75 74 e7 3d c6 dc 81 bc
       0.42398545 -0.16750357 0.11301509 -0.015852343
0002f0 ea d8 7c 3d 92 1e 31 3b e9 b0 97 3d 8d 20 59 be
       0.061730303 0.0027026278 0.0740679 -0.21203823
000300 d5 86 87 bd 60 35 d1 bc 4b 82 7d 3c 5e 69 9c 3c
       -0.06617514 -0.025538146 0.015472959 0.019093212
000310 bd 01 06 be 14 e4 67 3d 53 ce 02 3d 34 e6 31 3d
       -0.130866 0.056613997 0.031935047 0.04343243
000320 c9 d7 73 bd 76 7e 73 3d c2 de 63 3d c4 6c d4 3d
       -0.05953196 0.059446774 0.05563236 0.10372308
000330 f5 56 3d bc 55 8e a1 3d 3d 17 6c 3b 8d 28 fc bc
       -0.011556377 0.07888476 0.0036024593 -0.030781055
000340 2d fe cd 3b 32 ba 0f 3e 3c 70 08 bd dc 7a 2d be
       0.0062864036 0.14035872 -0.03331016 -0.16941398
000350 77 2f 5d be aa 9c be 3e e0 db 19 3d 28 8e a8 be
       -0.21600138 0.372289 0.037563205 -0.32920957
000360 7a f9 10 3d f8 2d e4 bd 4e 2b a4 3b e9 9a a5 bd
       0.03539417 -0.1114158 0.005010045 -0.080861874
000370 2f 5e 0e bb 40 97 9f bd 75 1a cd bd 6d 4b 58 bd
       -0.0021723618 -0.077925205 -0.10014812 -0.052806307
000380 c9 79 16 3e f6 0d 23 3d ba b8 8d 3d 45 e7 8b be
       0.14694895 0.039808236 0.069199994 -0.27324882
000390 f1 b9 f0 3d 36 b8 8f 3d f7 81 19 3d 78 09 93 bd
       0.117542155 0.07017557 0.03747746 -0.071795404
0003a0 f1 bd 76 3c 06 3a 26 be e3 ed a2 bd eb 44 84 3e
       0.015059934 -0.16233072 -0.079555295 0.2583383
0003b0 d1 75 0b 3d af 56 9d bd e8 ac 2e bc b7 07 8c 3e
       0.034047905 -0.07682549 -0.010661341 0.27349636
0003c0 a9 77 b2 bc 31 c2 1d be 4b 84 e0 bc 83 bf 16 bd
       -0.021785574 -0.1540611 -0.027406832 -0.036803734
0003d0 aa 0b 33 3c 6d af 87 bb fd ee b9 3d 46 3d 3e 3e
       0.010928074 -0.0041407854 0.090787865 0.18578061
0003e0 9e a3 e1 bd f0 43 b3 3d 13 55 68 3c 24 c6 cb 3d
       -0.110175356 0.087531924 0.0141804395 0.09949902
0003f0 e3 dd 18 3d c0 12 81 3d 34 ef 91 bd fb 63 b5 3d
       0.037320983 0.063024044 -0.071257025 0.088569604

advantage_stream.0.bias f4 [64]
000000 42 8e 47 3d d1 3c c1 3c 0e 20 91 bc 4a 58 e5 3b
       0.048719652 0.02358857 -0.01771548 0.0069990503
000010 3a 39 e5 bc 9b ff 5d bd c4 83 10 bd c0 9b d4 bc
       -0.02798139 -0.054198842 -0.03528191 -0.025953174
000020 00 3f ca bc 94 39 9e 3d f8 0e 20 bd 7d 03 91 3d
       -0.024688244 0.07725826 -0.039076775 0.070807435
000030 1d 12 8a bc 98 e9 2f bd 8d 5f e9 3d 78 f5 f5 3a
       -0.01685434 -0.04294738 0.11395178 0.0018765172
000040 43 5b bb 3d 4e 1b 20 bd ae aa 35 bd 25 c9 96 bd
       0.09148266 -0.03908854 -0.044352226 -0.07362584
000050 cb 8b 73 bc 70 2e 9b 3d 52 17 ce 3c 22 75 cc 3b
       -0.014864872 0.075772166 0.025157604 0.0062395493
000060 20 91 bb 3d c5 86 dc 3c f4 ad 90 bd d5 1c 09 bd
       0.0915854 0.026919732 -0.07064429 -0.033474762
000070 e6 20 06 3d 61 07 5a bd ea 7c 05 3d 0d 19 92 3d
       0.03274622 -0.053229693 0.03258983 0.07133684
000080 ad 11 c3 3c 45 7d 80 bd 84 92 b7 bc 24 cd 76 3d
       0.02381214 -0.06273893 -0.022408731 0.06025423
000090 c7 5f 92 3d 4f 09 b0 bc 03 92 5f 3c 5b 24 9b bc
       0.07147174 -0.021488814 0.013645652 -0.018938234
0000a0 e6 d4 c9 3c 39 47 28 bc 15 fb b7 bc d8 98 b0 bc
       0.02463765 -0.010270887 -0.022458592 -0.021557257
0000b0 22 40 d3 bd cf ec b7 bd 87 d3 01 3d 7b 7a 00 bd
       -0.10314967 -0.089807145 0.03169587 -0.031366806
0000c0 2b 76 ad 3d 4c 63 a1 3d a7 1c 09 bd 6d e4 20 3d
       0.084698044 0.078802675 -0.03347459 0.039280344
0000d0 9d 8f df bd c7 5e 4c 3d 3a eb 9e 3d 4a b0 5e bd
       -0.10916064 0.049895074 0.0775971 -0.05436734
0000e0 51 c7 99 3d 32 28 92 bd 60 b2 9e 3d 19 10 4c bd
       0.0750872 -0.07136573 0.07748866 -0.04982004
0000f0 5b 4a 4d bd e2 67 85 bd 3a d3 b5 bc c5 7a 24 3d
       -0.05011974 -0.06513955 -0.022195447 0.040156145

advantage_stream.2.weight f4 [4, 64]
000000 cd 26 76 3e 30 0f 8a 3d 6c 93 17 3f 1a 99 a3 bd
       0.24038239 0.06741178 0.5920932 -0.07988186
000010 8e 95 d5 bc 86 c4 4e 3e 64 b7 03 bd b9 c2 ff be
       -0.02607229 0.20192155 -0.032157317 -0.4995325
000020 89 07 73 3e b1 32 67 3e 15 6b 50 be 01 66 09 bf
       0.23733343 0.22577931 -0.20353349 -0.5367127
000030 80 a7 aa 3d 46 b1 52 be b0 dd a1 3e 4c 2f ac bc
       0.08332729 -0.20575437 0.31614447 -0.021018647
000040 64 44 91 3e ba c9 77 bc ea 5c b6 bd e2 64 08 be
       0.2837249 -0.015123779 -0.08904441 -0.13319734
000050 e7 ac 79 bc 61 86 16 3d 55 4f f3 bd c1 44 aa 3d
       -0.015238977 0.036749247 -0.11880366 0.08313895
000060 c9 94 bb bd 6f e2 d3 be 0b 9c b2 3e 0b f5 07 be
       -0.09159238 -0.41383693 0.34884676 -0.1327707
000070 ef d4 ae 3e ba 59 99 3e 89 97 6c be fc a4 7e 3e
       0.3414683 0.29951268 -0.23104681 0.24867624
000080 d4 b4 be 3e 48 71 5c 3e ef cb e6 bd 8f 99 95 3d
       0.37247336 0.21527588 -0.11269366 0.073046796
000090 d9 f4 14 3e 87 46 20 3e 55 10 7b be 63 ed d0 bc
       0.14546527 0.15651904 -0.24517949 -0.02550382
0000a0 67 b0 31 3d ab 0b 23 3e c3 a8 f8 be b0 3c cc 3e
       0.04338112 0.1592242 -0.48566255 0.3989005
0000b0 43 24 d1 3e 4b f6 64 3e aa f7 1c 3f b4 39 d0 3b
       0.40847978 0.22359578 0.61315405 0.006354535
0000c0 1c 73 1f bd 6c 93 93 3d f8 1a dc be 71 c0 72 3e
       -0.038928136 0.07205853 -0.42989326 0.23706223
0000d0 f1 9a dc 3e 62 fc 71 be 48 aa dc 3e c8 4e cd bb
       0.4308696 -0.23631433 0.43098664 -0.006265495
0000e0 47 a6 8d 3e c7 26 9b bd d7 2a 7e bc 23 bd c5 bd
       0.27665922 -0.075757556 -0.0155131435 -0.096552156
0000f0 40 e2 10 3e 91 ce 38 be 43 78 7d 3e 61 5b 22 3e
       0.14148808 -0.18047549 0.24752907 0.15855171
000100 57 72 39 3e f8 e4 4a bd 1a e6 05 bd 44 fd 94 be
       0.18110023 -0.049534768 -0.032690145 -0.29099476
000110 03 c6 00 bf 79 a3 ce bd 1e 4b 28 3e 3d 54 c7 3d
       -0.5030214 -0.10089774 0.16434905 0.09732864
000120 ce 55 14 bd 0b 10 6a 3e c8 19 2a be f2 e6 26 3e
       -0.036214642 0.22857682 -0.16611397 0.16299036
000130 eb c2 b1 bd 14 8c 01 be 9f de 00 3e 28 f4 29 bd
       -0.08679756 -0.12651092 0.12584923 -0.04149261
000140 5a cb cc bd dd 1b 8a be 9f df 0e bd 96 1a 15 3e
       -0.09999724 -0.26974383 -0.03488123 0.14560923
000150 b4 31 d0 bd 37 ba 3f 3e 87 b9 55 be 77 10 77 be
       -0.1016573 0.18723379 -0.20871554 -0.24127375
000160 7c 5d b4 be d3 c4 01 bd 64 98 02 3e 40 d3 83 be
       -0.35227573 -0.031681847 0.12753445 -0.25747108
000170 66 43 83 bd b5 66 44 be 26 e5 67 bd 0e cd 03 3e
       -0.064093396 -0.19179805 -0.056615017 0.12871191
000180 29 12 7c 3e 74 22 92 3e de c5 8a bc d9 79 df b8
       0.24616303 0.2854191 -0.016940054 -0.000106561645
000190 fc 36 51 bd ad c7 16 3e 80 29 46 3e 6d 58 5a 3e
       -0.051077828 0.14724608 0.19351768 0.21322794
0001a0 a7 1d c6 be 6b df e6 bc 23 f5 e1 3d b0 0f d8 3c
       -0.38694498 -0.028182706 0.11033084 0.026374668
0001b0 0e 06 8a be d5 81 89 bd db 00 92 3e 32 39 01 be
       -0.26957744 -0.067142166 0.28516278 -0.12619475
0001c0 54 30 b6 3e 06 b1 4e 3e e8 9c 42 ba ad d7 46 bd
       0.35583746 0.20184717 -0.00074238935 -0.04854553
0001d0 62 80 92 be 6a 1c ed 3d 85 18 22 be 2f e9 25 3e
       -0.28613573 0.11577685 -0.15829666 0.16202234
0001e0 da d0 61 3d f2 80 11 bd 39 f7 0d 3f 55 03 11 3d
       0.055130817 -0.035523362 0.55455357 0.03540357
0001f0 48 1f 9e 3e f1 a6 24 3d 53 eb dc 3d 7f 57 74 3e
       0.3088324 0.04019827 0.10787072 0.23861502
000200 74 9b 48 bd b1 56 50 be 69 f7 ae be c6 ad cb 3b
       -0.048976377 -0.2034557 -0.34173134 0.006215784
000210 a2 5f bc bd ff 69 49 be 2e aa 1f be 0e b1 ca 3e
       -0.09197928 -0.1966934 -0.15592262 0.39588207
000220 5e dd 7e bd 8f 3a 4f 3d 80 a3 8a 3e e8 76 47 3e
       -0.06222283 0.050592955 0.27077866 0.19478953
000230 ea b7 71 be c3 f2 10 be b7 d9 80 be 2e c1 60 3e
       -0.23605314 -0.14155106 -0.25166103 0.21948692
000240 75 7e 6d 3e f8 1d e9 bd 08 ef e8 be 9b 60 90 be
       0.23192771 -0.11382669 -0.45494866 -0.28198704
000250 f7 45 02 3f e7 db 00 bc 88 dc 8d 3e 15 a4 bc 3d
       0.5088801 -0.007864929 0.27707314 0.09210984
000260 63 5e 8b 3d ad 71 9a 3e 2d f4 19 be 87 f9 39 3e
       0.06805112 0.30164853 -0.15034552 0.18161593
000270 42 6b d8 3e dc 29 1c be c8 f8 22 3e fc d8 1b 3d
       0.4226933 -0.15250343 0.15915215 0.03804873
000280 89 7a 9d be f7 ef 06 bc bc cf 4d be 52 6f f6 3e
       -0.3075755 -0.008235923 -0.20098776 0.48131806
000290 10 79 db bc 0d d1 02 bf b3 10 a4 3e 37 12 8f 3d
       -0.026791126 -0.51100236 0.3204399 0.06985896
0002a0 42 62 d8 3d 7a 0f 19 3d eb 92 6e 3e 44 75 b4 3c
       0.10565616 0.037368275 0.23298232 0.022028573
0002b0 66 a1 bb 3d 43 52 a4 bd f2 0a 43 bd 27 fb 19 be
       0.09161644 -0.08023503 -0.04761786 -0.15037213
0002c0 27 de d4 bd 2f 06 8b be 70 38 b1 bd a2 91 06 3e
       -0.10393935 -0.27153155 -0.08653343 0.13141492
0002d0 3e ab da 3d af 85 01 bf 3a 70 6f 3d f2 b0 4b be
       0.10677193 -0.5059461 0.058456637 -0.19891718
0002e0 64 1e 89 be eb 3b 45 bd 40 c5 9e bd fc dd c6 3d
       -0.26781 -0.048152845 -0.07752466 0.09710309
0002f0 71 64 e2 bd 47 b9 0e 3f b0 65 f8 bd a9 2a 55 be
       -0.11054314 0.5575146 -0.1212877 -0.20817055
000300 06 7c fe 3c f4 e6 9c 3d 49 5c 20 3e ac 1a 07 bf
       0.031064998 0.07661238 0.15660204 -0.52775073
000310 d2 45 ed 3b d5 fb cd 3e df d4 7e be a8 2a a4 3e
       0.0072409892 0.40231195 -0.24885891 0.32063794
000320 0c 1c 02 3e 66 fd 29 3e 8f 7b ca 3b 32 64 3f ba
       0.12706012 0.1660057 0.00617928 -0.0007301002
000330 46 bf 18 3e 64 7b 6f 3d 7e bb 36 bd b1 67 46 be
       0.14916715 0.058467284 -0.0446124 -0.19375493
000340 e9 6b c5 be 48 d2 d1 3c c3 4a 5a 3e 8c 60 9a 3e
       -0.3855889 0.025612965 0.21317582 0.30151784
000350 ae fa 41 bd 61 5e f4 be 42 55 c5 3d 7e 67 71 3e
       -0.047358207 -0.47728255 0.09635402 0.23574635
000360 ea bb 2f 3e 31 4c 1e 3e 69 00 c9 be 55 e9 ff bd
       0.17161527 0.15458752 -0.39258125 -0.124956764
000370 05 ce 6f be 87 33 eb bc 20 26 b2 bd 7c 6c c5 be
       -0.23418434 -0.028711094 -0.08698678 -0.3855933
000380 eb 00 a0 bd 10 7a d7 3d 8f 63 ca 3d 8d 99 16 bd
       -0.07812675 0.105213284 0.098822705 -0.03676753
000390 0d be 3d bf e6 f2 a0 be 55 f3 a2 3d 66 02 ef 3c
       -0.7411812 -0.31435317 0.07956568 0.029175948
0003a0 27 fb c3 3e 07 47 1c 3d 85 3a e0 3e 95 ce c4 be
       0.38277552 0.038153674 0.43794647 -0.3843886
0003b0 98 3d b0 3d f5 e6 16 be b1 de 64 3c 90 b7 3d be
       0.08605498 -0.1473654 0.013969109 -0.18527055
0003c0 ab 18 75 be 06 ec bf be d3 b8 e7 3d 9b 5d fb 3d
       -0.23935191 -0.3748476 0.11314549 0.12273713
0003d0 32 4d c4 bd c3 98 e2 3e 7c 21 85 bd cd aa ca bc
       -0.09585036 0.44257173 -0.06500527 -0.024739647
0003e0 25 6a e9 3e 82 43 c0 bc 99 23 3b be 32 f8 a4 3e
       0.45588794 -0.02346969 -0.18275298 0.32220608
0003f0 cb 57 10 3d 0e 48 ed 3d 3e 9b 89 be be df b6 be
       0.035239976 0.11586009 -0.26876253 -0.35717577

advantage_stream.2.bias f4 [4]
000000 91 a5 86 bc 14 5b b9 bd 5d f1 c9 bd f1 48 39 bd
       -0.01643637 -0.09050575 -0.098604895 -0.045235578
