models/snake_dqn_ep386_score18_20250302_153403.pt (torch, 844642 bytes, 44 tensors)

feature_layers.0.weight f4 [128, 24]
000000 1c 69 88 3c b7 15 19 bf 31 1c 40 be de 2c e7 bb
       0.016651683 -0.5979876 -0.18760754 -0.007054909
000010 7e 6e fc bd 71 f3 b5 3e 3c 12 81 be ba 51 b5 3d
       -0.12325762 0.35537294 -0.25209224 0.08853479
000020 8c 55 30 be 0e 7c 95 bc 54 53 b3 be 05 18 61 3e
       -0.17220134 -0.01824763 -0.35024512 0.21981819
000030 19 5c c7 3c 78 32 dd 3e a7 3d 98 3d f1 29 31 3d
       0.024335908 0.43202567 0.07433634 0.04325289
000040 b8 93 8b be 4f e7 9f be 13 c1 4a bf 77 ca 35 3e
       -0.27261138 -0.31231162 -0.7920086 0.17753015
000050 bd 8d a7 3e 35 ed 44 be f4 fc f0 be 95 12 60 be
       0.32725325 -0.19231112 -0.47067988 -0.21882088
000060 35 be c2 be fa c1 04 bf fb 77 89 3d 1b b0 ed be
       -0.3803574 -0.51858485 0.067123376 -0.4642342
000070 38 e2 fe be a1 b2 13 3f 9e 0c 88 be a1 f6 b8 bd
       -0.49781966 0.5769444 -0.26572126 -0.09031416
000080 1f 29 b7 3d 35 b6 ca be 98 89 5b 3e 80 c2 bd 3e
       0.0894339 -0.39592138 0.21439207 0.37062454
000090 d6 bc 04 3e 52 08 2f bf b0 fb 93 3e eb 62 9c be
       0.1296266 -0.6837207 0.2890296 -0.30544218
0000a0 fb 80 61 3c e9 29 11 bf 17 bd 8f be 1b 70 a3 bd
       0.0137636615 -0.56704575 -0.28073952 -0.07980367
0000b0 60 3a 57 3e 2a e5 7f 3e 56 5b a2 3e 43 f2 ea 3e
       0.21018362 0.24989763 0.3171031 0.45887956
0000c0 26 cc 30 bf e1 15 3f 3f 14 0a 6a bf ae 24 69 3d
       -0.69061506 0.7464276 -0.9142163 0.056919746
0000d0 67 7a 9a 3c 23 68 03 3e c2 67 2a be 30 96 92 3d
       0.018857194 0.12832694 -0.16641143 0.07157552
0000e0 3b e3 f0 be a8 a4 59 be df f1 c5 3e a9 cf 37 3d
       -0.47048363 -0.21254218 0.38661095 0.044875775
0000f0 86 31 fd bd 4d 5e 22 be b9 01 72 be bd 73 3d 3f
       -0.123629615 -0.15856285 -0.2363347 0.7400473
000100 0e 99 2a bf e9 3c 35 3f 4b 26 3c 3e e8 aa df be
       -0.6663979 0.70796067 0.18373983 -0.4368508
000110 2a 80 d0 3e 6d 95 1a 3f 12 4a a1 be 7f 26 01 be
       0.4072278 0.60384256 -0.31501824 -0.12612341
000120 d4 a5 1d be 9b 30 e3 3c 54 e4 c5 3d 4c 14 f0 3c
       -0.1539529 0.027733138 0.09662691 0.029306553
000130 d4 c1 dc be e7 61 62 be 02 5e c1 bc 2f 61 ba be
       -0.4311663 -0.2210766 -0.023604397 -0.3640227
000140 b3 62 85 be 27 8b b7 3d 9b ae dd 3d 60 03 c0 be
       -0.26051864 0.08962088 0.10824319 -0.37502575
000150 29 a8 dc be c0 f8 bb 3d ed 46 95 3d a9 d9 06 be
       -0.43097046 0.09178305 0.07288919 -0.13168968
000160 25 e4 5e be f0 0f 5c bf f6 80 6c 3e a3 fb 0a be
       -0.21766718 -0.8596182 0.2309607 -0.13572554
000170 0f 6d 00 3e 18 0d b4 3e fe 85 76 bd 06 d4 6c 3e
       0.12541603 0.3516624 -0.06018638 0.23127756
000180 b1 d8 1e 3e b7 61 b8 bd 3e 46 13 3c dc 9b 40 3d
       0.15512349 -0.090030126 0.008988915 0.04702364
000190 0b ed 58 3e 37 2c 13 3d e5 56 10 be d9 53 97 3e
       0.21184175 0.03593084 -0.14095648 0.29556158
0001a0 a2 ae 84 bd a2 ee c7 3e a8 56 b5 be 3d 9b 09 3e
       -0.06478621 0.3904925 -0.35417676 0.13438125
0001b0 70 76 f1 3e 36 57 a1 bd df b2 1a 3e 4b e8 2f 3d
       0.47160673 -0.07877962 0.15107296 0.04294614
0001c0 6e 2f 86 bf e9 ef 92 be 43 21 72 bd c3 40 d8 3e
       -1.0483224 -0.28698662 -0.059113752 0.4223691
0001d0 e6 6e 24 3e ab 08 83 bd bc e9 33 3f be 4f a8 be
       0.1605793 -0.06398138 0.70278525 -0.32873338
0001e0 26 32 15 3d 9e da 99 bd cf 4d bb be 4b 3d 1c bc
       0.03642478 -0.07512401 -0.365828 -0.009536098
0001f0 0f cc a5 3d de 38 19 bd 27 cf 76 be fd a8 fe 3d
       0.08095562 -0.03740775 -0.2410246 0.12434576
000200 d6 94 15 bf 21 c0 b7 be 99 27 68 be 2b aa 99 bd
       -0.5843023 -0.3588877 -0.22671355 -0.0750316
000210 81 f7 8a 3d 50 de a6 bd a3 6b ef 3d e2 1c 3e 3f
       0.06785489 -0.081478715 0.11690452 0.7426282
000220 e1 aa e6 bd e0 67 72 3e 9a 8d 32 3f bc c5 9a 3d
       -0.11263061 0.23672438 0.69747317 0.07557246
000230 e4 67 ad 3d c3 2c 07 3f 05 6e df bb c0 e2 88 3e
       0.08467081 0.52802676 -0.0068185353 0.26735497
000240 cf 28 9d 3e 15 b6 c2 3c 49 89 79 3e 94 bc 27 bf
       0.30695197 0.023768464 0.24368776 -0.6552212
000250 b9 b4 ce bd 37 49 2b be 58 f0 86 3e 0b 41 7e be
       -0.10093064 -0.16727148 0.26355243 -0.248295
000260 7a f9 4b 3d 40 17 7f bd cd 16 cd bd 92 6b ae 3e
       0.049798466 -0.062278032 -0.100141145 0.34066445
000270 5c 9b 6f be c6 67 93 be 15 8c dd 3e 6a 73 01 3f
       -0.23399109 -0.2879011 0.43270937 0.5056673
000280 f3 14 93 3e 84 60 09 be f6 ee 5f be 39 1b 82 3e
       0.2872692 -0.13415724 -0.218685 0.25411394
000290 68 fb 2a bf 6d 64 ab 3e 1e aa 3b 3f d2 b0 dd bd
       -0.66789865 0.33475056 0.73306453 -0.108247414
0002a0 b4 3c eb be 99 64 09 3f 29 c8 db be 4f 71 e7 bd
       -0.4594475 0.53669125 -0.42926148 -0.11300909
0002b0 fa 31 81 bd 3a a0 25 be 01 55 b9 3d 87 cf ca 3d
       -0.063083604 -0.16174403 0.09049416 0.09902864
0002c0 23 b8 5e bd 85 2b f2 3e e1 f9 b6 3e ac b1 22 3f
       -0.054374825 0.47298828 0.35737517 0.63552356
0002d0 2c cb 31 be c1 df 08 bf 14 6b cb 3d 81 96 78 be
       -0.1736266 -0.5346642 0.09932533 -0.24276163
0002e0 b9 8b 2f bf 46 1e c0 3d 3c 2c 5a bd 4b 8d fb 3d
       -0.68572575 0.09380774 -0.05326484 0.12282809
0002f0 74 5d f4 bd 6f 1d 93 be e3 ba 88 3e b8 62 4d bc
       -0.11931887 -0.28733394 0.26705083 -0.012535743
000300 5b 62 75 3e 25 fd a2 be 27 c0 b2 3e bf e6 64 3e
       0.23963301 -0.3183376 0.34912226 0.22353648
000310 77 60 9b bd a1 9b 01 3e ff fb 00 3e f5 15 10 bf
       -0.075867586 0.12657024 0.12596129 -0.56283504
000320 82 d8 43 be bb 0a d1 bc 8e b1 9f 3e 8d 67 69 3d
       -0.1912556 -0.025517812 0.3119015 0.05698352
000330 57 77 b3 3d c6 dd 00 be eb ca ae 3e 46 e1 73 3e
       0.08762997 -0.125846 0.3413919 0.23816404
000340 8a 9c 87 be 38 b3 54 be 82 2a dd 3e a7 fb d4 3e
       -0.26486617 -0.20771492 0.43196493 0.41598246
000350 4d b2 74 be 35 8c c5 bd b8 ba f0 3e fb 8f 20 3e
       -0.23896141 -0.09645883 0.47017455 0.15679924
000360 62 6c 07 bd 43 ad b1 be 68 aa 81 3e f0 f9 21 bf
       -0.033062346 -0.347025 0.25325322 -0.63272
000370 1e da a0 be 81 cd f4 be 7f 1d be 3e d3 cf a5 be
       -0.3141641 -0.47813037 0.3713188 -0.3238512
000380 93 51 d1 3d 29 68 e0 bd de 86 27 3d c2 05 f9 bc
       0.10220637 -0.10957367 0.040900104 -0.030398253
000390 f6 c3 58 bf dd ab c3 3e d7 b6 d1 be f2 05 a7 3e
       -0.8467401 0.3821706 -0.40959808 0.32621723
0003a0 a5 08 d7 be f2 d5 2f 3f fc f1 b6 be d4 7e 1b bf
       -0.41998783 0.6868583 -0.35731494 -0.607404
0003b0 db 64 26 be bc d0 12 be d8 18 9a 3d 14 9c f6 3e
       -0.16249411 -0.14337438 0.0752427 0.48165953
0003c0 1a db c9 3e 63 e8 53 bf 28 92 ee 3e 34 db 43 bf
       0.39424974 -0.8277647 0.46595883 -0.7650635
0003d0 0c 39 b9 3d 97 bc f2 3a 88 b6 20 be 9e b0 f4 bd
       0.09044084 0.0018519339 -0.1569463 -0.119477496
0003e0 2d c9 df bd c3 13 17 3e b4 af 25 3d 69 cc 9c bc
       -0.10927043 0.14753632 0.040450767 -0.01914044
0003f0 54 15 d9 be 33 8c 7e 3e c5 74 80 bd 52 b7 17 3f
       -0.42399085 0.2485817 -0.06272272 0.592641

feature_layers.0.bias f4 [128]
000000 5c b9 18 3e 93 f8 c2 bd f3 e9 40 bb 3a e5 35 3e
       0.14914459 -0.09520068 -0.002943632 0.17763224
000010 02 1c e1 bd 6a cb a2 3c 72 b5 75 bc 50 ff 72 3e
       -0.1099167 0.019872386 -0.014996873 0.23730206
000020 91 c8 7f 3e 27 52 40 3e 71 01 8d 3d 26 19 c2 3d
       0.24978854 0.18781339 0.068850406 0.09477453
000030 0e d1 76 3e 21 e0 ab 3d ce a3 f4 bd fc 00 d2 bd
       0.24103186 0.083923586 -0.11945306 -0.10254094
000040 0b fa f1 bd 52 16 aa 3e 53 6a 84 3e 9f ee ab bd
       -0.1181527 0.33220154 0.2586237 -0.08395123
000050 fd 3a 32 3e 16 aa b4 3d 89 8d ea bd af c5 c1 3d
       0.17405315 0.08821504 -0.11452777 0.09461533
000060 5f 25 cb bd 5c e3 6d bd 3c a2 46 3e 8e ed 66 3c
       -0.09919237 -0.058078155 0.19397825 0.014094723
000070 0a bb 91 3d f4 c5 fd bc cf 65 7a 3b 77 81 54 be
       0.07115753 -0.03097818 0.0038207655 -0.20752512
000080 20 75 30 3e b0 54 75 3d f1 23 95 3e 35 42 5c be
       0.1723218 0.059895217 0.29128984 -0.21509631
000090 5d 63 e9 3d 40 c9 2c 3e 53 67 07 be d0 41 83 be
       0.11395905 0.16873646 -0.13223009 -0.25636148
0000a0 79 0e 51 3e 65 37 b8 3d 49 d4 28 be 43 f5 38 3e
       0.20415677 0.08994941 -0.1648723 0.1806231
0000b0 e6 ff a6 3e 3b 9b 1d 3e ae 41 1b 3d ea c0 c3 3d
       0.3261711 0.15391247 0.037904434 0.0955828
0000c0 66 6f 23 3e ac 4a b9 bd 45 a4 21 3d ff c9 85 3d
       0.15960464 -0.09047446 0.0394633 0.06532668
0000d0 d4 b0 32 3d fd fc d4 bd 1c 3a 89 3e 9f 86 5e 3e
       0.043625668 -0.10399816 0.26802146 0.21731041
0000e0 96 b9 f8 bd 71 44 92 3d b9 31 28 be 5f b6 4a 3d
       -0.12144773 0.071419604 -0.16425218 0.04949033
0000f0 f8 71 9f 3e 21 87 1e be 90 01 99 bd de ef 91 3d
       0.3114164 -0.15481235 -0.07471001 0.07125829
000100 c3 1d 40 bd 76 00 10 3e bf ba b0 be ef 66 45 be
       -0.046903383 0.14062676 -0.34517476 -0.19277547
000110 3b 62 8f be e2 6b 00 3e 3d d4 f7 3d de d3 51 be
       -0.2800463 0.12541154 0.12101028 -0.20490977
000120 42 30 a5 3e 26 87 61 3e bf ee 60 3e 48 b8 7b be
       0.3226338 0.22024211 0.21966074 -0.24582016
000130 d2 8e 25 3e 87 96 75 3c 81 a4 f7 3d d5 f9 83 3e
       0.16167763 0.014989502 0.120919235 0.25776544
000140 f1 26 94 3e 09 f4 1f be 2f b0 f7 bd a5 f5 61 3e
       0.2893596 -0.15620436 -0.12094151 0.22066362
000150 3f 58 d1 3c 59 e2 ac 3d d1 3e 14 3c 26 5e d1 3d
       0.025554774 0.0844161 0.00904818 0.102230355
000160 46 24 21 3d e3 5e 71 3c 4a cf 81 bc 17 ec 7f 3e
       0.039341234 0.014732095 -0.015845913 0.24992405
000170 64 67 7b 3e 8c a3 50 3b aa a1 68 be 97 74 58 3e
       0.24551159 0.0031835763 -0.2271792 0.21138225
000180 ca b1 96 bd 9c 25 19 3e f1 0b 89 3c 6f db 32 3e
       -0.07358129 0.14955753 0.016729327 0.1746652
000190 5e 2a 99 bd 51 df 33 3e 08 7f 09 bd 2e c2 0e 3e
       -0.07478784 0.17565657 -0.033568412 0.13941261
0001a0 c1 14 86 bd 7e ba cb 3d c5 83 20 3e 73 7d fc 3d
       -0.06546927 0.0994768 0.15675266 0.12328615
0001b0 a2 eb 79 3e 08 8b c3 bd 92 43 9e 3e 93 6f 3d 3e
       0.24406293 -0.095480025 0.30910927 0.18499593
0001c0 09 46 97 3c 09 48 92 3e 38 fb 04 3e ea 8b 1e bd
       0.018466013 0.28570583 0.12986457 -0.03870765
0001d0 e0 d0 25 3e ac df e8 bd 57 c6 87 3e 05 a1 47 bd
       0.1619296 -0.11370787 0.2651851 -0.048737545
0001e0 db 9c 20 be 1f ca 87 3e e6 cd e2 bc fe be 07 be
       -0.15684836 0.26521394 -0.02768607 -0.13256451
0001f0 0c b3 df bd f1 58 94 3e 1c 32 36 3d 64 e4 51 3b
       -0.10922822 0.28974107 0.04448138 0.0032027

feature_layers.1.weight f4 [128, 128]
000000 23 fd 66 3e 39 86 3b 3d 68 64 53 3e a4 26 8a 3d
       0.22557501 0.0457823 0.2064377 0.06745651
000010 48 23 a8 bd a5 11 5a be 64 bc 29 3d 07 75 59 3e
       -0.08209854 -0.21295793 0.04143943 0.21236049
000020 f6 db b4 3d 56 a0 b8 bc ce 06 88 3e b7 e2 48 3b
       0.08831017 -0.022537392 0.26567692 0.003065271
000030 c0 95 3b be b2 2d b4 3c 03 19 65 3d 74 b6 5c 3e
       -0.18318844 0.021994445 0.055932056 0.21553975
000040 5c 72 f0 3d 38 fd 30 bd f7 65 4f 3e b0 cc 2b bd
       0.11740562 -0.04321024 0.2025374 -0.041943252
000050 8e 8f 35 3e a8 e8 51 be 7b e3 d5 bd 10 1d f7 bd
       0.17730543 -0.20498908 -0.10443779 -0.1206609
000060 20 62 1b 3e b9 4a 58 3e 9a 2d 36 be 9b 62 23 3e
       0.1517415 0.21122254 -0.17790833 0.15955584
000070 59 a2 34 3d 53 f4 89 bc 6a ec c4 3c 37 e2 87 3d
       0.04410014 -0.016840136 0.024038512 0.06634944
000080 30 65 1b 3e f1 79 86 bd 55 83 1b bd 7d 66 8e be
       0.15175319 -0.06566227 -0.037967045 -0.27812567
000090 be 11 9a 3d a9 f6 e8 3d 49 6b ea bc 84 8a 87 be
       0.07522915 0.11375172 -0.02861561 -0.26472867
0000a0 0b 9f a4 3c 97 f3 b2 bc 10 c0 4e 3e 90 e5 8e 3d
       0.020095369 -0.021844668 0.20190454 0.06977379
0000b0 10 e4 ab 3b c3 a2 3b bc a3 91 94 3d f6 7d e8 3d
       0.005245693 -0.01145238 0.072543405 0.1135215
0000c0 45 3c 6f be c0 c4 75 bc 06 1f 10 bd 78 88 57 3e
       -0.23362835 -0.015000522 -0.035185836 0.21048152
0000d0 b7 25 5e 3d 0f 6b 51 3e ce 2c 6e 3e c8 07 68 3d
       0.054235186 0.20450996 0.23259279 0.056648046
0000e0 96 38 08 3e de d7 a1 bd 76 c9 55 be 21 68 01 3e
       0.13302836 -0.079025015 -0.20877632 0.12637378
0000f0 56 2c a8 3e 14 b3 82 be 4f ca 4a 3d d2 10 b2 3d
       0.32846326 -0.2552725 0.049509343 0.086946145
000100 82 f4 85 3d d3 76 21 3d 39 bb 43 3d f4 15 09 3e
       0.06540777 0.03941996 0.04778597 0.1338728
000110 1b 19 d0 3c 76 fa 0f 3e 1c e8 34 3d 69 4b 12 3d
       0.025402596 0.14060387 0.04416667 0.035716448
000120 14 5f 9f bd 6c 20 9d 3e 91 02 81 3e fd fa fd 38
       -0.077818066 0.30688798 0.2519727 0.0001211073
000130 21 85 33 3d 8a 2a ce 3d 61 7c 40 bd 87 b0 09 3e
       0.043828133 0.100667074 -0.046993617 0.13446246
000140 d0 37 0d bd 74 2c 8e bd 3a 4b 2f be 1c 26 67 be
       -0.034477055 -0.069420725 -0.1711854 -0.22573131
000150 3a e6 ef 3d a4 38 15 be dc b5 1f be 3f 5d 0a 3e
       0.11713834 -0.14572388 -0.15596718 0.13512133
000160 1b 9e 29 3e 18 07 2c be 2c 17 e6 3d a1 b9 be bd
       0.16564219 -0.16799581 0.112348884 -0.0931275
000170 8d 7d 57 3e 36 d6 81 3b 5e 5f 1d 3d b3 14 8b 3e
       0.21043988 0.0039623035 0.038421027 0.2716423
000180 7f 19 f5 3d 56 75 fc 3d 17 ca 41 3e 66 95 e0 3b
       0.119677536 0.123270676 0.18924747 0.006853747
000190 0a c5 ad bd 9b 68 6d 3e 17 46 8a 3e 72 84 16 3d
       -0.08484848 0.23184435 0.270066 0.036747403
0001a0 99 8d 12 3e fa a8 07 3e af b0 0e be ff 69 e5 bd
       0.14311828 0.13248053 -0.13934587 -0.11201858
0001b0 22 53 14 bd cd 9d 9a bc 8b 65 78 3e 67 f2 00 3d
       -0.036212094 -0.018874073 0.24257486 0.031481173
0001c0 77 01 6a bb 48 56 50 bd 1c c0 3f 3d 5d cb 4e 3e
       -0.003570644 -0.050863534 0.04681407 0.20194764
0001d0 a7 58 19 3e af 84 c6 3d 61 53 98 bd 70 21 d1 3b
       0.14975224 0.09693276 -0.07437778 0.00638216
0001e0 32 7c b0 3d 15 0d 8e 3c 48 ac c7 3d ae 47 c3 be
       0.086174384 0.017340222 0.09749657 -0.38140625
0001f0 02 d0 25 be 3f cc 3d 3e 90 24 0c bc fa 45 2e 3e
       -0.1619263 0.18534945 -0.008553639 0.17018881
000200 94 86 22 be 08 f9 ad bd 70 02 3f be ad b7 50 3e
       -0.1587165 -0.084947646 -0.18653274 0.20382567
000210 d9 c6 af 3c 29 73 00 3b 93 44 a5 3c 7e 2d 19 3e
       0.021457123 0.001959989 0.0201743 0.1495876
000220 92 71 85 bd cb a8 8c bd 8c 46 af 3b 70 28 80 3d
       -0.065158024 -0.06868132 0.005348986 0.06257713
000230 63 30 44 3e 82 82 3f 3e 3e ca 07 3e c2 22 62 3d
       0.19159083 0.18702129 0.13260743 0.05520893
000240 1e c8 33 be 00 73 8c bd 5e c0 c4 3d 16 a0 32 be
       -0.17556807 -0.06857872 0.09607004 -0.1744388
000250 e0 41 4f 3e 0e c9 23 3e 4e 68 91 3d 9c 7e f8 3e
       0.20239973 0.15994665 0.07099973 0.48534095
000260 19 58 98 bc 87 d7 91 bc 81 2a 3d 3d a2 39 51 3e
       -0.018596696 -0.017802967 0.046183113 0.20432141
000270 21 a5 44 bd 33 a2 07 3d 10 e3 7e ba 65 1f 6c be
       -0.04800904 0.03311367 -0.0009723166 -0.23058851
000280 af d8 29 3e 4c db 99 3d fa e2 98 3d ed 95 86 bd
       0.16586564 0.07512531 0.07465167 -0.06571565
000290 d6 c9 df bd 2e 55 9c 3c 3b 26 e7 3d d5 93 da 3d
       -0.10927169 0.019083586 0.11286589 0.10672728
0002a0 25 98 0d 3d c9 0b 56 bb da 81 64 bd dd ae 1a 3e
       0.034568924 -0.0032660833 -0.0557879 0.15105768
0002b0 4e d0 bd 3e 6d 39 9f bd 46 31 90 3d 47 8f 94 bd
       0.37072986 -0.07774625 0.07040648 -0.072538905
0002c0 2a 0b 92 bd b2 28 fa 3d 78 24 0f 3d d7 5f e7 bd
       -0.071310356 0.12214793 0.03494689 -0.11297577
0002d0 89 cf 0a 3d 3f 96 81 3c 61 06 cf 3d 3e 19 9f 3d
       0.033889327 0.015818713 0.101086386 0.077684864
0002e0 34 1e d5 bd 39 27 ef 3c 06 b6 cf bd fc ac 8f 3e
       -0.104061514 0.029193508 -0.1014214 0.28061664
0002f0 7e 06 4e 3e 52 76 c9 bd 48 ba 10 3e 0d 8a 8d bd
       0.20119664 -0.09837021 0.1413356 -0.06911097
000300 6e 08 13 3e 6d e9 f4 ba 25 4a 43 be 50 a3 8d 3e
       0.14358684 -0.0018685289 -0.19071253 0.2766366
000310 ba c8 90 3c 27 a5 77 bd cc 3f c2 3c 46 4a f5 bc
       0.017673839 -0.060460236 0.023712061 -0.029942643
000320 73 73 4f 3d 11 c5 79 ba 25 14 96 3c b7 1b 44 be
       0.05064721 -0.00095279614 0.018320153 -0.19151197
000330 93 8e 12 3d 2d bf 01 3d 0e 7d 8f 3e 0a cd 29 3d
       0.0357805 0.03167646 0.28025097 0.041455306
000340 d3 1e cc 3d b4 f2 de bd 05 95 9d 3a 5d a0 02 bb
       0.09966817 -0.10886136 0.0012022561 -0.001993201
000350 b7 cf 84 bb 53 07 03 3e 0a 3d 0b 3e 6e b0 d8 3d
       -0.004053082 0.12795763 0.13597503 0.10580526
000360 f9 c4 4c be e9 9c 46 be 31 14 bc bd 91 40 96 3d
       -0.19997014 -0.19395794 -0.09183539 0.07336534
000370 e6 a9 c2 3d 7d e9 cc bc e6 7c 07 bd 10 94 01 bc
       0.09505062 -0.02501368 -0.033078097 -0.007908836
000380 6e 5c a2 3d 8d 56 a5 3e 22 34 02 3c 75 a0 96 bd
       0.07927786 0.32292596 0.007947 -0.073548235
000390 eb 9c 26 3e 30 eb 21 3c 1c c8 ff 3d 02 26 65 bd
       0.16270797 0.009882733 0.1248934 -0.05594445
0003a0 7a 1f 18 3c a4 b7 a6 bd 04 d1 53 3d cc 1b eb 3d
       0.009284848 -0.081404954 0.051713005 0.11479911
0003b0 84 c4 b4 bd 33 06 7e 3d b4 a0 dc 3d 9b 77 2a 3e
       -0.08826545 0.06201763 0.10772839 0.16647188
0003c0 aa 01 ad 3d 79 d9 80 bc f5 02 2b 3e 55 0e 2c 3d
       0.08447583 -0.015728699 0.16700347 0.042005856
0003d0 66 60 09 3d 01 43 d4 bd b1 72 5f 3e 57 d0 90 3b
       0.0335392 -0.103643425 0.21821095 0.0044193673
0003e0 ad bf 4c be 2c fe 94 3d 78 5d c6 3c b4 ee 41 3e
       -0.19994994 0.07275042 0.024214491 0.18938714
0003f0 84 79 80 3a 4c 3c 4c 3e a2 c6 0c 3e 88 b5 10 be
       0.000980184 0.19944876 0.13747647 -0.14131749

feature_layers.1.bias f4 [128]
000000 7a 80 02 3e f6 97 6e 3e 50 89 6b 3d 46 33 9d bd
       0.12744322 0.23300156 0.057504 -0.07675795
000010 95 a7 ed 3d 07 e1 fc 3d fe c9 42 3d 02 b6 f7 3c
       0.11604229 0.12347608 0.047555916 0.030238155
000020 c7 b5 ab bc c6 24 37 3e 8c f3 a7 3b 3e 48 f1 bd
       -0.020960702 0.17885122 0.0051254686 -0.11781357
000030 92 d6 97 3d b6 cc bb 3d 6a 42 e3 bd 5b 10 a3 bc
       0.07413973 0.09169905 -0.11096652 -0.01990526
000040 f0 c7 4f 3d 6d d2 8e bd cf f6 36 3e 2b 0f 1b 3e
       0.050727785 -0.06973729 0.17867588 0.15142505
000050 3a a4 0e 3e 40 62 cd 3d f1 6b 5c be 7b a0 95 bd
       0.13929835 0.10028505 -0.21525551 -0.07306
000060 cc a5 f1 3d 5f 5b 8a 3d 6d 84 c4 3c 60 db fa 3d
       0.11799201 0.06755709 0.023988927 0.12248874
000070 4c 90 bf bd 4a df cb bd 01 e4 ae 3d cd 91 ea 3d
       -0.09353694 -0.099546984 0.08539582 0.114535905
000080 38 90 8c 3c d9 c9 c2 3c b3 7e 25 3e 5b a6 de bd
       0.017158613 0.02377789 0.16161613 -0.108715735
000090 7d 08 ce bc f6 8b f7 bd c8 da 9a 3d ea 51 42 3d
       -0.025150532 -0.12087242 0.075612605 0.0474414
0000a0 ed 5f 80 bc 45 b1 04 be 6f d4 17 3d 8f 94 50 3d
       -0.015670741 -0.12958248 0.037067827 0.050922927
0000b0 cb fe 0f be c6 5f c0 3c a6 6e a0 bd 5f dc 1e be
       -0.1406204 0.023483168 -0.078336045 -0.15513752
0000c0 e0 99 04 3e 3f 58 63 bd 3c a8 0f be fd fd 88 3d
       0.12949324 -0.05550408 -0.1402902 0.066890694
0000d0 ca 9a ec bb 41 ef 15 bd 4c 8d a3 3c e1 e2 ac bc
       -0.0072206007 -0.036605123 0.019964837 -0.021104278
0000e0 c2 54 a2 3d 4d e1 b6 3d 4c d8 a1 bc ff cf a5 bd
       0.079263225 0.089296915 -0.019756459 -0.08096313
0000f0 22 f6 c9 bd 5f c1 96 bc 68 1a 00 3e fe 0b e7 3d
       -0.09861399 -0.018402753 0.12510073 0.11281584
000100 bb ec cd 3d 03 6e 2f be 4b 81 fa 3d 31 8d 19 3e
       0.100549184 -0.1713181 0.12231692 0.14995266
000110 83 72 0a be 45 cf 41 3d 22 48 02 be 8c 7b 12 be
       -0.13520245 0.04731681 -0.12722829 -0.14304942
000120 25 77 a1 bb 94 ed 3d 3e e7 4a d1 bc 65 85 ba 3d
       -0.004927533 0.1854766 -0.025548412 0.09107474
000130 58 a8 67 3c c4 3d ab 3d 64 81 ff 3d fb 14 09 3e
       0.014139257 0.0836139 0.12475851 0.1338691
000140 50 76 ab 3d 5c ae 29 3e f3 a7 fa bd 59 26 07 3d
       0.08372176 0.16570419 -0.12239065 0.032995556
000150 f7 57 44 bd 69 f2 e2 bd 59 27 6b bc 66 dc 1c be
       -0.047935452 -0.11081392 -0.014352643 -0.1531845
000160 7c 4d 05 bd 70 d4 31 3e cd 2e b1 bd de 15 f9 3c
       -0.032544598 0.17366195 -0.08651505 0.030405935
000170 35 68 18 3e 9b cc f2 bd f9 97 00 3d f5 02 34 bd
       0.14883502 -0.11855432 0.031394932 -0.043948133
000180 36 b5 c9 3d ff f5 0c 3e 87 fe 2b be d9 45 93 3d
       0.09849016 0.13765715 -0.16796313 0.07191057
000190 80 cd 86 3d fb 00 36 bc 9e 69 14 3e 84 c9 b9 3d
       0.06582165 -0.011108632 0.14493415 0.09071639
0001a0 12 47 7b 3d 23 c0 e0 3d 4f 3e 04 be 4e 11 9e 3d
       0.061347075 0.10974147 -0.12914394 0.07718144
0001b0 5e 67 d9 bd 23 62 7c 3d 18 96 b8 3d 58 34 a8 3d
       -0.10615419 0.061617028 0.09013003 0.08213109
0001c0 d3 b5 f8 bd f3 47 ec bd b2 ea ab 3d ba e3 05 3c
       -0.12144055 -0.11537161 0.08394374 0.00817197
0001d0 d6 90 1b bb 89 f4 c5 bd 5b 65 10 3e f8 83 8f 3d
       -0.0023737452 -0.09665782 0.14101164 0.07007593
0001e0 e2 2d 82 3c 85 f8 b2 bd 56 80 d4 3d 30 4e 9f 3c
       0.01589102 -0.087388076 0.10376041 0.019446462
0001f0 3c df fb bd 40 bc 2b bd 6d 10 fc bd db d6 c2 3c
       -0.12298438 -0.041927576 -0.123078205 0.023784092

value_stream.0.weight f4 [64, 128]
000000 db 6d df bc 80 0d 04 be 26 09 47 3e 65 59 94 bd
       -0.027274063 -0.12895775 0.19437084 -0.07243613
000010 3c 68 39 3e 67 a0 d1 3d 54 fd 93 3d 70 76 86 bd
       0.18106169 0.102356724 0.07226053 -0.06565559
000020 87 ed 42 3b 25 44 c8 bd 2d 98 91 3c 41 5b 1c 3c
       0.0029743628 -0.097786225 0.017772758 0.009543241
000030 7d e2 2e be 2c 64 43 3c 3d 99 1f be d9 36 1d 3e
       -0.17078586 0.011925738 -0.155858 0.15352954
000040 fe 5b 49 3e 28 9e 4d 3e 43 b5 f5 3a fd 70 c1 bd
       0.19663998 0.20079863 0.0018746037 -0.09445379
000050 b6 e9 c9 3d 4e bc 2c be 9d 10 54 bc 90 3d 4d 3e
       0.0985903 -0.16868708 -0.012943414 0.20043015
000060 e4 e0 33 bd c0 33 8e 3e d2 aa 34 bd 03 da 4c 3e
       -0.043915644 0.27773857 -0.04410822 0.2000504
000070 73 1b 66 3d 7e 44 2e 3a 96 af 83 3e 51 df 83 3b
       0.05617852 0.00066477794 0.257199 0.004024424
000080 62 bf ad bd 0d cf 14 3d 17 7e 8e be 5c 90 1d 3e
       -0.08483769 0.03633027 -0.27830574 0.153871
000090 76 73 36 3e 9d 99 a2 3d 86 c6 8a 3d fd 2f 70 be
       0.17817482 0.07939456 0.067761466 -0.23455806
0000a0 39 c2 a5 3d b4 b7 b5 3e 38 0e 7b 3d a0 96 fe 3d
       0.08093686 0.35491717 0.061292857 0.12431073
0000b0 a4 9d ab 3d 56 33 4e be 87 fc 47 3d b9 45 9a be
       0.08379677 -0.2013677 0.048824813 -0.3013132
0000c0 c9 1e b3 3d 41 3f c0 3d 34 f5 8b 3e 6b aa df 3d
       0.08746106 0.09387065 0.27335513 0.109211765
0000d0 04 c7 49 3e 6e 28 4b be bd 6c d4 3d 0c ef 30 3e
       0.19704825 -0.19839641 0.10372303 0.17278689
0000e0 46 4e 82 3d 9e a9 04 3e a2 34 98 bd 1d 48 14 be
       0.06362586 0.12955329 -0.07431914 -0.14480634
0000f0 75 23 70 be b6 6a 24 3e 21 bb ac b9 2a 0d 00 3e
       -0.23451026 0.16056332 -0.00032945818 0.12505022
000100 70 2a 45 3e 32 60 47 3e 42 30 fb bd 1c 93 e0 3b
       0.1925447 0.1947029 -0.12265064 0.0068534743
000110 4e 44 6d bd 77 25 22 3d 6d 2f 36 3e f5 30 be 3e
       -0.05792647 0.03958651 0.17791529 0.37146726
000120 58 22 e1 3c 0c 67 67 bc 92 85 0c 3e 03 14 8e bd
       0.027482197 -0.014123689 0.13722828 -0.06937411
000130 8f db 0d be 1e 6c 13 3e 47 37 c8 3d b4 5d 5b bd
       -0.13853286 0.14396712 0.09776168 -0.05355616
000140 ec e9 5d 3c 3f af 37 3d 22 b8 d1 3d ab 74 80 be
       0.013544541 0.044844862 0.10240199 -0.2508901
000150 13 d6 44 be 65 dd 9a bd 42 b9 35 3d 5b c6 6f 3e
       -0.19222288 -0.07561759 0.04436613 0.2341551
000160 97 6b 4b bc 52 18 8b 3e 2a d5 5a 3e 41 52 af 3d
       -0.012415788 0.27166992 0.21370378 0.085606106
000170 be 2b 05 bd 91 0a f8 3d 7f fb 9e bd de 30 c2 3d
       -0.03251242 0.121113904 -0.07762813 0.09481977
000180 8d e3 00 3e e3 7f 13 be 9d 37 95 3e cf ea 30 bd
       0.12586804 -0.14404254 0.29143992 -0.04319268
000190 ec b5 d6 bd f1 25 2e 3d 67 fe 84 3d 3b 76 b3 bd
       -0.104839176 0.042516652 0.06493836 -0.08762785
0001a0 8b 08 c3 3d e7 58 cf bd 92 65 92 3d a5 9f a6 3e
       0.09523114 -0.10124379 0.07148279 0.32543674
0001b0 d2 33 45 be bb 56 5e bd 6e ce 31 3e 10 ca 7b 3d
       -0.19258049 -0.05428193 0.17363903 0.061472
0001c0 ed da 1b 3e 36 3c f5 3d bd 20 54 3e 49 d5 f8 bd
       0.15220232 0.11974375 0.20715614 -0.12150056
0001d0 59 d8 4d 3e d6 0d 2e bc 2b 9d f6 bd d4 0d c2 3c
       0.20102061 -0.010623416 -0.12041696 0.023688234
0001e0 4e 15 69 3d 5f 39 d5 bd eb 09 03 bd 07 c8 46 bc
       0.056905083 -0.10411333 -0.03199188 -0.012132651
0001f0 76 8c 86 3e af 8e 8d bd aa 1d 53 3d 49 41 f4 3d
       0.26279038 -0.0691198 0.05154196 0.11926515
000200 2f b0 86 be 1e 38 03 be 7c 56 31 3d 05 69 33 be
       -0.26306292 -0.12814376 0.04329537 -0.1752053
000210 5c ef a8 bc 24 dc f8 bc ca a7 b6 bc ef db 66 be
       -0.020621948 -0.030378409 -0.022296805 -0.22544836
000220 e4 19 cf 3d 69 41 db 3c 4d 5d e4 3c 46 92 bf 3e
       0.1011236 0.026764588 0.02787652 0.37416285
000230 13 59 06 bd 4d fb e6 bd ef b0 a1 bd 96 f3 38 3b
       -0.03279979 -0.112784006 -0.078950755 0.002822136
000240 8c 19 12 bd 74 65 9c 3d 62 32 ec bd 78 e5 86 bb
       -0.035668895 0.07636538 -0.11533047 -0.0041167103
000250 cb 84 29 be 00 a1 a0 bd da 32 90 3e 18 33 9c 3e
       -0.16554563 -0.07843208 0.28163797 0.3050773
000260 21 0b 2b be 53 26 00 3e f2 77 5b bd ea f9 f7 3d
       -0.16703464 0.1251462 -0.053581186 0.12108214
000270 a5 a0 c6 3d 3c 1f 10 3e 36 1a 47 bd 6b 6a 73 bd
       0.09698609 0.14074415 -0.04860898 -0.05942766
000280 50 40 35 be 52 f3 6e bd ac 49 2b be d7 45 90 3d
       -0.17700315 -0.058337517 -0.16727322 0.07044571
000290 c4 57 52 3e 4c 08 80 3d a4 fe 10 be 07 d5 1d 3e
       0.20541292 0.062515825 -0.14159638 0.15413295
0002a0 53 75 05 3f 20 83 c3 3d bf 1e 9d be 33 cf 7e be
       0.5213215 0.095464945 -0.3068752 -0.24883728
0002b0 14 ea 9c 3e f7 58 09 be 28 95 e9 3b ef 82 7d bc
       0.30647337 -0.13412844 0.0071283765 -0.0154731115
0002c0 c9 83 c3 3d b9 03 5d 3e 1a 3a 61 be 53 3f 42 be
       0.095466204 0.21583451 -0.2199482 -0.18969469
0002d0 89 ae a0 be 23 e8 b6 3c a6 e3 b1 3d 88 2b 86 be
       -0.3138316 0.022327488 0.086859986 -0.26205087
0002e0 47 32 c3 bd 0b b4 68 3d c6 2b 1e 3e fb 6c ee 3d
       -0.09531074 0.056812327 0.15446386 0.1164188
0002f0 14 8d d7 3d 8f 73 3c be 65 f9 41 bc a3 34 03 bd
       0.105249554 -0.18403457 -0.011839245 -0.03203262
000300 12 82 e6 bc 40 34 6a be 3f db 31 be 5f 8b 27 be
       -0.028138194 -0.22871494 -0.17368792 -0.1636176
000310 ce 8e 1b be ba 2e 38 3d dc 9a b1 3d bc 94 aa bc
       -0.15191194 0.044966437 0.08672115 -0.020822875
000320 37 2b fc 3d 49 2d 62 be 92 a2 e0 3c af 43 40 bd
       0.1231293 -0.22087587 0.02742127 -0.046939548
000330 cd 06 5c be 9b 82 2f 3e 9e 02 83 be f6 b5 9a bd
       -0.2148697 0.17139666 -0.25587934 -0.075542375
000340 9b 15 5c bd ca 77 8c bd d6 4d 99 3e b4 03 cb 3d
       -0.053731542 -0.068587855 0.29942197 0.09912816
000350 9d 88 ea 3d cf bb 9e 3e c1 09 30 3e 0c c4 8d 3d
       0.11451838 0.31002662 0.17191221 0.069221586
000360 a4 cc cc bd e7 93 dc bd 45 ca e1 3d 56 41 d1 3c
       -0.099999696 -0.10770398 0.11024908 0.02554385
000370 a2 62 55 bd 71 bf d0 3e dc af 87 be cb 1d 5d bd
       -0.052096017 0.40771058 -0.26501358 -0.05398349
000380 3c 85 db 3d c2 b1 c1 3d 3b 55 0e bd 88 f2 26 be
       0.10718772 0.09457733 -0.03474925 -0.16303456
000390 b3 8a 63 be 7f 47 39 3d dd 1f 15 3e 87 46 31 be
       -0.22220878 0.0452342 0.14562936 -0.1731206
0003a0 7e 07 b5 bd ff c5 09 3e 79 60 45 bd 94 24 a0 3d
       -0.0883932 0.13454436 -0.048187707 0.07819477
0003b0 66 b7 9a 3d 35 75 01 3a 22 45 d6 bc 0d 51 8d bd
       0.07554512 0.00049384247 -0.026156012 -0.06900225
0003c0 3b 66 f2 3d 74 ee f5 bb 82 e6 0c 3c 04 bb da 3d
       0.11835905 -0.0075052325 0.008599879 0.10680202
0003d0 c8 ce df 3c 5e eb 54 3e 6c 94 14 be 03 6b 0a be
       0.02732028 0.2079291 -0.14509743 -0.13517384
0003e0 1f 06 90 bc 49 9c 1b bb 6e 99 64 be 1d 9f 3d 3d
       -0.017581044 -0.0023744276 -0.22324154 0.04629432
0003f0 bc 15 ae bc da d8 f7 bd 9f 3c 1a 3e 0a 1b ef 3d
       -0.021250598 -0.12101908 0.15062188 0.11675079

value_stream.0.bias f4 [64]
000000 2b 59 80 bd f4 eb 2f bd a3 65 24 3e 30 fb fd bd
       -0.062670074 -0.04294963 0.16054396 -0.12401426
000010 80 17 ae 3d a5 05 17 be c1 1c 3c 3e 68 6e d2 3d
       0.08500576 -0.14748247 0.18370344 0.102749646
000020 ba 9b f2 3d d0 bd b4 3d b2 38 a7 3d 99 e1 61 3e
       0.11846109 0.08825266 0.08165111 0.22058715
000030 2e 99 1c 3e 21 6e b6 3d 3a ca 69 be 7a 54 f2 3d
       0.15292808 0.08907724 -0.2283105 0.11832519
000040 49 53 9b bd 15 31 23 3e 3b 6e 20 bd 88 9b b0 bd
       -0.07584245 0.15936692 -0.039167624 -0.08623415
000050 69 32 27 be 79 36 84 3d 60 34 56 3e 95 23 19 be
       -0.16327824 0.06455702 0.20918417 -0.1495498
000060 91 69 bf bd 40 42 1e bd 7e cc 9a bd bc 46 1f be
       -0.09346307 -0.0386374 -0.07558535 -0.15554327
000070 2b 90 cb 3d fd 3a 78 3d d9 77 c2 3d 04 b4 b3 3d
       0.09939607 0.06060313 0.094955154 0.0877457
000080 f4 99 5b 3e 85 f1 5e 3e 10 0a 0e be b3 25 5d 3e
       0.21445447 0.2177182 -0.13871026 0.21596412
000090 75 a2 13 be 26 ff 24 bd 24 70 c5 bd 8e 15 9e 3d
       -0.14417441 -0.04028239 -0.0964053 0.07718955
0000a0 a0 32 75 3e 24 c0 2b be fc 90 db bd fc 6a 08 be
       0.23945093 -0.16772515 -0.10721013 -0.13322061
0000b0 21 75 0c 3e ef 4b c0 3d 3e f8 d0 bd 28 85 62 3d
       0.13716556 0.09389483 -0.102035984 0.05530277
0000c0 37 94 db bc 71 26 20 3e 97 16 49 3e cf dc 45 be
       -0.026804073 0.15639664 0.19637524 -0.19322513
0000d0 27 a5 19 3e fd 4b e1 3d ac b4 d4 3d ce cb 60 3d
       0.15004407 0.11000822 0.10386023 0.054881863
0000e0 b3 a2 97 bd b0 56 81 3e 97 bc 13 be 81 f9 a9 bd
       -0.07404079 0.2526145 -0.1442741 -0.08299542
0000f0 1f fd 96 bd c5 82 3c bc bd 0f 60 3d 72 15 3a 3e
       -0.07372498 -0.011505787 0.05470251 0.18172243

value_stream.2.weight f4 [1, 64]
000000 73 dd 5a bd b4 37 28 be 03 cd 03 3e c7 f5 83 be
       -0.053433847 -0.16427499 0.12871175 -0.2577345
000010 17 f3 3e 3e 10 a4 bc be 4c 29 1e 3e 26 e9 02 3e
       0.18647419 -0.3684392 0.15445441 0.12784252
000020 d4 f9 58 3e e3 20 1f 3e 5d 41 a5 3d ad 01 c6 3d
       0.21189052 0.15539889 0.08069108 0.096682884
000030 1a 29 27 3e 5e 67 08 3f 3d 4d b8 bd a0 9a f8 3e
       0.16324273 0.53282726 -0.08999107 0.4855547
000040 78 d3 06 be 31 f6 b3 3e b4 dd e7 bd d5 53 c4 be
       -0.13166606 0.35148767 -0.113215834 -0.3834521
000050 e8 31 9b be 5f 2f 9f 3d 85 10 23 3e d1 1a a7 bd
       -0.30311513 0.07772707 0.1592427 -0.08159412
000060 e9 46 80 be 7e 44 36 be b4 27 9e be 18 06 86 be
       -0.250541 -0.17799565 -0.30889666 -0.26176524
000070 19 e0 8c 3e 31 d9 7c 3e 58 c0 20 3e 13 d3 ea 3d
       0.27514723 0.24692227 0.15698373 0.114660405
000080 c9 3c 35 3e a4 60 a9 3d a0 48 b1 be c0 2a 07 3e
       0.17698969 0.08270386 -0.3462572 0.13199902
000090 58 96 54 be e7 4a 92 be cd 65 ef bd 37 95 04 3e
       -0.20760477 -0.2857277 -0.11689339 0.12947546
0000a0 21 25 2e 3e 79 00 97 bd 79 75 e7 bd 3d f4 39 be
       0.17006351 -0.07373137 -0.11301703 -0.18159576
0000b0 87 a8 86 3e b5 64 2e 3e 78 84 fe be 27 1e 6d 3e
       0.2630045 0.17030604 -0.4971044 0.23156033
0000c0 9f ea da bd 92 2a 08 3e e1 f1 30 3e 5d 25 16 be
       -0.10689282 0.1329749 0.1727977 -0.1466269
0000d0 22 1e fd 3e 6b 14 49 3e 12 67 da 3e 9f d5 cc 3e
       0.49437052 0.19636695 0.4265676 0.4000673
0000e0 c4 20 4f be 4d 06 16 3e aa 40 e9 be 80 43 f1 be
       -0.20227343 0.14650841 -0.45557147 -0.4712181
0000f0 a4 36 9f bd 08 58 a4 39 ff c0 ba 3e 1b 65 4f 3e
       -0.07774094 0.00031346106 0.3647537 0.20253412

advantage_stream.0.weight f4 [64, 128]
000000 92 a1 81 bb f0 98 11 bb 29 dd 30 be 62 63 b9 3e
       -0.0039560283 -0.0022216402 -0.17271866 0.36208636
000010 cc 71 14 3e f3 61 e8 bd 44 c0 2c 3c 95 3f 1c 3e
       0.14496535 -0.11346807 0.010543887 0.1525863
000020 3f 87 95 3d 63 9d 9a 3c 6c 9e 1e bd 5c 13 db 3d
       0.07301187 0.018873876 -0.0387253 0.10697052
000030 74 cf f8 3c 5d b9 e2 bd e7 a5 12 3f 99 5f 74 bd
       0.030372359 -0.110705115 0.57284397 -0.05966148
000040 9d 6e 4c 3d 3e 9d 81 be d4 cc 77 3c 17 67 fc bd
       0.049910177 -0.2531528 0.015124518 -0.1232435
000050 df b7 8f be 0d 73 2d be c7 3f 14 3d 4b 2d da be
       -0.2806997 -0.1693842 0.036193635 -0.4261268
000060 38 1a d7 3c 9d c5 8f be c2 90 e5 bd f4 d6 88 bd
       0.02625762 -0.28080454 -0.11209251 -0.06681624
000070 52 d6 55 3e d0 5f ae 3e 1a 6a 9a 3d f8 94 5a bd
       0.20882538 0.34057474 0.075397685 -0.053364724
000080 77 b7 67 3d e8 5f d2 3d 5c 30 38 be 24 91 19 3e
       0.05657145 0.10272199 -0.17987198 0.14996773
000090 b5 ef 3e bd 00 24 01 3d 3c e6 64 bb 90 09 c7 3e
       -0.04661532 0.031528473 -0.003492727 0.38874483
0000a0 b2 f1 4b bd 59 16 2d 3e 29 f4 0d be 3d de 89 3e
       -0.049791045 0.16903056 -0.13862671 0.26927367
0000b0 33 dd 8d bc 1f 2d f9 bd e9 f3 45 3e 2a 17 92 3e
       -0.01731739 -0.12166809 0.19331326 0.28533298
0000c0 36 75 26 3d 28 62 18 be 37 8c 0f 3e 03 96 76 bd
       0.040639125 -0.14881194 0.14018331 -0.060201656
0000d0 4c 1e e4 bd 89 c7 69 3e 8e 83 67 be fd bf 79 be
       -0.11138591 0.22830023 -0.22608778 -0.24389644
0000e0 d3 03 2e 3e d6 ca 0c 3e b3 5d a1 be 25 2a 79 be
       0.16993646 0.13749251 -0.315168 -0.24332483
0000f0 63 e0 86 3e aa 66 cf 3c 72 51 2c be 86 7e 50 3c
       0.26343068 0.025317509 -0.16827944 0.012725478
000100 c1 8e 09 bd b6 f9 4a 3c b0 64 20 3e 05 76 13 3e
       -0.033583406 0.012388637 0.15663409 0.1440049
000110 c2 a1 96 3d b7 b2 a8 bd 59 56 41 bd e8 5f c1 3d
       0.073550716 -0.08237212 -0.04720149 0.09442121
000120 18 7d f4 3d 30 76 60 be d1 be 53 3e d7 68 1c 3c
       0.11937922 -0.21920085 0.2067826 0.00954648
000130 42 5b b4 3b c9 b3 43 bd f5 e4 ab bc 43 ed 14 ba
       0.005504043 -0.04777888 -0.020983199 -0.00056811067
000140 cf af fe bd 62 07 1d be 12 1c 33 3e 29 08 87 3e
       -0.124358766 -0.15334848 0.17491177 0.26373413
000150 54 19 f1 3e 5b 7b 05 3e b9 35 7a 3d 5d 2c 89 3a
       0.47089636 0.13035338 0.06108639 0.0010465492
000160 19 5e d7 3e bb dc 6e be b7 51 ad 3e b9 88 c5 bc
       0.42063978 -0.2332639 0.33851406 -0.024113046
000170 4e 67 bc 3c 02 88 eb 3e 2a 72 cf 3d 38 18 20 3e
       0.022998478 0.46002203 0.10129197 0.15634239
000180 d1 ee 44 3a 26 7f cf bd 82 e8 b9 bd d6 fb 45 3c
       0.0007512393 -0.101316735 -0.090775505 0.012083968
000190 01 9f c9 bd 90 1c ad be fa b6 08 bd 2c 8e 96 be
       -0.09844781 -0.33810854 -0.033377625 -0.29405344
0001a0 aa 81 fd 3c f0 56 c9 bc 36 8c 44 3e 2a b2 69 3d
       0.030945618 -0.024577588 0.19194111 0.057054676
0001b0 52 f1 37 bd c9 41 88 bb 75 52 b4 be dd 58 bf bd
       -0.044907875 -0.004158233 -0.3521916 -0.09343121
0001c0 0d cb 6e 3e 5b 50 aa bd ba 4e a9 bd 73 0b 0d 3e
       0.23319645 -0.08316108 -0.08266969 0.13773899
0001d0 3d c7 c1 3e ef d4 31 3f 7f f4 68 bd 06 1e e6 bd
       0.3784732 0.69465536 -0.056873795 -0.11236195
0001e0 42 95 72 3c 0e a2 57 3d 10 8b 82 be 51 67 78 bd
       0.014806094 0.05264478 -0.2549672 -0.060645405
0001f0 57 1b 40 3e 3c ee 82 be ad 71 ba 3b a4 b7 c8 3d
       0.1876043 -0.25572383 0.0056898207 0.09800652
000200 2c 01 ea 3d c0 52 6d bd bc 7a 39 3d 96 0f 01 be
       0.11426005 -0.057940245 0.045283064 -0.12603602
000210 12 8a 08 3e 74 02 40 be 79 00 4b 3e 7c 39 31 be
       0.1333392 -0.18750936 0.19824399 -0.17307085
000220 75 e2 b7 bd 3f dc 0d be eb 79 f2 bd ce 86 66 3e
       -0.0897874 -0.13853548 -0.1183966 0.22512361
000230 15 34 1e 3e 43 97 2b be 06 36 ac bd 91 95 00 be
       0.15449555 -0.1675692 -0.08408742 -0.12557055
000240 8e f3 a7 3e 03 47 d8 3e 99 b1 85 bd 87 20 35 3d
       0.32803005 0.42241678 -0.06528015 0.044220474
000250 25 78 5b be aa 52 4b 3d 07 f4 d6 bd 94 91 d4 3e
       -0.2143255 0.04963938 -0.10495763 0.41517317
000260 98 65 e2 bd b5 7e 5f 3d 4f 80 af 3e 39 6f 08 be
       -0.11054534 0.054564197 0.3427758 -0.13323678
000270 02 42 ee 3b f1 da 6b 3d 48 a2 27 3e 97 48 83 bd
       0.0072710523 0.057581846 0.16370499 -0.0641033
000280 18 20 53 be a0 9e a5 bb f6 39 28 3d 85 23 f2 3e
       -0.20617712 -0.00505431 0.0410709 0.47292724
000290 29 0a c4 bb 56 f8 a4 be 40 84 94 be 8d 7d 8d 3b
       -0.0059826565 -0.32220715 -0.2900715 0.0043179453
0002a0 6b 40 c8 3e 1e 44 56 be 3c 91 fa bd 6c d2 bf bd
       0.39111647 -0.20924422 -0.122347325 -0.09366307
0002b0 17 41 09 3f f6 6e b9 3d 38 1b 6a 3e d8 56 48 be
       0.53614944 0.09054367 0.22861946 -0.19564378
0002c0 33 d7 84 bb ea d4 d7 be ff 2a 6c bc e2 ae 5e bc
       -0.004053974 -0.42154628 -0.014414548 -0.0135915
0002d0 ff e1 c9 bc f9 bb 03 3f b6 39 12 3e 5b 15 9b 3d
       -0.024643896 0.514587 0.14279827 0.075724326
0002e0 f0 aa 4c 3e 75 14 6b bd 55 c9 e5 be da 4c 23 be
       0.19987082 -0.057392556 -0.44880167 -0.15947285
0002f0 4d 93 37 be 13 ca 08 3e e0 4b e1 3e 88 4b 38 3e
       -0.17927285 0.13358335 0.440032 0.17997563
000300 b9 6e 4f 3d 5d e6 67 3e c7 1b f4 bc f7 8b 23 3c
       0.050642703 0.2264647 -0.029798402 0.009982101
000310 da 7f d2 3a 6c 56 b6 be cf bc e8 bc dc 18 05 be
       0.0016059831 -0.3561281 -0.028410343 -0.12997764
000320 26 20 12 3e c8 da 86 3e 45 ef 17 be 7c e2 15 3c
       0.14270076 0.26338792 -0.14837368 0.009148236
000330 5e 74 84 3d 5a fb b4 3e 2f 39 70 3d 25 25 f5 3d
       0.06467508 0.35348016 0.058648285 0.119699754
000340 0e 24 93 3c ca 5d cb bd 47 31 8a 3e f4 d0 e5 bc
       0.017961528 -0.09929998 0.2699072 -0.028053738
000350 9b 67 83 3d f3 82 9c bc 9f c8 96 be fa eb bb 3f
       0.064162455 -0.01910541 -0.29449937 1.4681389
000360 57 f2 ff bd 0c 03 27 be 06 90 3b 3e cd 5e 86 bc
       -0.124973945 -0.16309756 0.1831666 -0.016402626
000370 6f 8e 55 3d ae 60 78 be 77 3e 81 be 23 0b 95 3d
       0.05213779 -0.2425563 -0.2524297 0.07277515
000380 99 ba c2 3e 6a 26 37 bd 8f 77 10 3f 84 3f 38 be
       0.38032988 -0.04471437 0.5643243 -0.1799298
000390 5a 94 9e 3d 06 e5 0a 3e c9 59 0f bd 46 85 ea 3d
       0.077431396 0.13563928 -0.034997735 0.11451201
0003a0 eb 6d 89 be 14 73 ad 3d 7e 25 e9 3e b9 4f 9d 3c
       -0.26841673 0.08469215 0.45536417 0.019203054
0003b0 c9 d8 39 3d fc 56 93 be 49 5c 4a bb 73 14 50 3e
       0.045372758 -0.287773 -0.003087776 0.20320301
0003c0 39 c3 2f 3f f5 97 9e 3e 42 b7 1f bd 7e 75 a1 3d
       0.6865726 0.3097531 -0.038993128 0.07883738
0003d0 3b 7b f3 3e 02 98 71 be 2f cc 26 3e b5 98 b0 bd
       0.47554955 -0.23593143 0.16288827 -0.086228766
0003e0 44 a4 21 3f 3a b7 04 3e 9c 9a 8f bd d1 66 c8 3d
       0.63141274 0.1296052 -0.07011911 0.09785236
0003f0 f1 69 62 be ab fa 82 3e 3d 80 89 3d 21 4c 5d 3e
       -0.22110726 0.2558187 0.06713913 0.21611072

advantage_stream.0.bias f4 [64]
000000 8d 0f ab bd 12 5b 3b 3d a8 e3 49 3d f0 1d c3 bd
       -0.083525755 0.04574115 0.049289376 -0.095271945
000010 0d 3d 83 3d b2 52 b9 3c b5 d9 7b bd a9 72 07 be
       0.06408129 0.02262244 -0.06148692 -0.13227333
000020 f9 d4 c7 3c f4 34 94 bd db 98 11 3d cb 16 84 3c
       0.024393545 -0.072366625 0.035546165 0.01612415
000030 63 81 d6 bd f7 35 40 3d c1 61 9b bb e6 47 13 3d
       -0.10473897 0.046926465 -0.004741878 0.03595724
000040 4e fe 0a 3d 1a f7 ed bd 2e 55 44 3c 09 cd b3 bc
       0.03393393 -0.116193965 0.011983199 -0.021948354
000050 aa 3b 54 bd 41 70 87 bd 65 f2 a8 3c 89 9c 52 3d
       -0.051814713 -0.066132076 0.020623395 0.051418815
000060 1e 10 b1 bd b4 7a 42 3d 27 31 0f 3d 11 16 c5 bd
       -0.08645652 0.0474803 0.034958985 -0.096233495
000070 a2 c7 b7 bd 5e 40 5f bd b1 9a 49 bd e3 4b 47 bd
       -0.08973624 -0.054504745 -0.04921979 -0.048656356
000080 f7 88 f9 3b 23 8e 88 bc 35 02 7a 3c df 67 ed 3d
       0.0076152044 -0.016669339 0.015259315 0.115920775
000090 92 ca 81 3b 02 dc 91 3d 17 d9 1f bd c2 02 92 3d
       0.003960916 0.07122041 -0.039025392 0.07129432
0000a0 51 51 14 3d 04 40 49 3d 94 9b 2d bd 6c 70 70 3b
       0.036210362 0.049133316 -0.0423847 0.0036688102
0000b0 df f8 de 3c b8 53 94 3b d1 3c 88 3d 5c 3d 07 3d
       0.02721828 0.0045265816 0.06652225 0.0330175
0000c0 95 4a 70 bc af e4 e8 3c 07 95 c8 3c dc 28 4b bd
       -0.014666219 0.028429357 0.024485124 -0.049599513
0000d0 83 9a 61 3d 0d 08 6a 3c 31 cc 1a bc 45 7d bd 3c
       0.055078994 0.014284146 -0.009448097 0.023131022
0000e0 f2 a2 d0 bc 3f a3 ef 3c ca 8f 3b 3d c5 09 31 3d
       -0.025468323 0.029252646 0.045791425 0.043222208
0000f0 a5 1f 20 bc cb 36 2c bc 02 ef 8a bd e0 c5 cc 3d
       -0.00977317 -0.010511111 -0.06783868 0.09998679

advantage_stream.2.weight f4 [4, 64]
000000 8b 9c 00 3f 8a b3 53 be 18 4b ec 3d 6f 51 a1 bd
       0.50238866 -0.20673957 0.115377605 -0.0787686
000010 94 96 0d 3e 69 5d 37 3d 95 37 c6 be 51 ac 75 bd
       0.13826972 0.044766817 -0.3871428 -0.059978787
000020 9a 55 67 be c5 d8 56 3e f7 82 03 bf 06 42 fb be
       -0.22591248 0.20981129 -0.5137171 -0.4907381
000030 08 3e bb 3e 61 26 5e bf 27 11 14 3e ab d4 20 bd
       0.36570764 -0.8677731 0.14459668 -0.039265316
000040 48 5f 3e bd 3e bc 97 3e 2a 64 f0 3d 12 a5 a6 3e
       -0.046477586 0.29635805 0.11737855 0.32547814
000050 1b 21 4c 3e c9 45 9d 3d 28 79 ad 3e 59 55 b0 3e
       0.19934504 0.07679326 0.33881497 0.34440115
000060 c2 19 aa 3e 44 37 bf be b6 3c 0f bf 01 69 37 3e
       0.33222777 -0.37346852 -0.5595201 0.1791115
000070 6d 71 c2 3e 1f 5f 11 3f 8b 02 a7 bd 5c 8d 7c 3e
       0.37977162 0.5678577 -0.08154782 0.246633
000080 04 d3 9d be d5 7e 61 be c0 d4 9c 3e 56 22 c1 be
       -0.30825055 -0.22021039 0.30631065 -0.3772151
000090 84 63 d3 3e e6 f7 1b 3e ae b6 a0 3e 53 5c c0 3e
       0.41286862 0.15231284 0.31389374 0.37570438
0000a0 d9 59 10 3f 76 1a ab 3d 3d 92 df bd e7 d8 93 3c
       0.56387097 0.083546564 -0.109165646 0.018047763
0000b0 e3 87 0d bf c6 a3 52 3e bf 79 c9 be e1 c9 8e 3e
       -0.5528547 0.20570287 -0.39350697 0.27888396
0000c0 d4 6b ee be f1 e5 0f bf f1 f0 71 bd ff cd 56 3e
       -0.4656664 -0.5621024 -0.05906767 0.20977019
0000d0 fc 9a fc 3d 9a a8 36 bd 1b 65 4d 3e 5b 5f f9 3e
       0.123342484 -0.044594385 0.200581 0.48705563
0000e0 50 0e 55 3d c2 cb 81 be 7b 1c 36 bd 92 95 97 3c
       0.052015603 -0.25350767 -0.044460755 0.018503938
0000f0 e5 56 2c be a2 f9 45 3f f6 de 3e 3d 69 d8 1f bf
       -0.16830023 0.77334034 0.04659935 -0.6243959
000100 11 bf 51 3e 27 25 99 bf 67 7f ec 3e 0e 23 40 be
       0.20483042 -1.1964463 0.4619095 -0.18763372
000110 23 21 52 be d5 9f 90 3c c7 68 21 3f be 6a 9b 3e
       -0.20520453 0.017654339 0.630505 0.30354875
000120 bf 53 57 3e ad be 8f 3e 2a 0f 99 3e 07 e4 87 3e
       0.2102804 0.28075162 0.29894382 0.2654116
000130 cf b8 0b bd 61 b2 82 3b 15 fc eb 3d dc ed 8b 3d
       -0.034111794 0.0039885496 0.1152269 0.068324775
000140 61 5a 0c be 2f f5 46 3e 9d 21 1c bf 89 6b 96 bf
       -0.13706352 0.19429468 -0.6098879 -1.1751567
000150 e4 d2 a6 bd 3e e7 00 3e 4b a9 24 3f 48 48 c6 3e
       -0.08145693 0.12588212 0.6432082 0.3872702
000160 0e c0 d4 3e 47 2d ba 3e f5 a5 8f 3e c6 6b 9b be
       0.41552776 0.3636267 0.28056303 -0.30355662
000170 0d f5 15 be 9f 9b bf 3e fa fc 49 3e 28 1b 4b bf
       -0.1464426 0.37423417 0.19725409 -0.7933831
000180 a3 e2 a3 3e ba eb 44 be 08 e1 9b 3e 48 ef 1e bf
       0.32008848 -0.19230548 0.30445123 -0.62083864
000190 f2 67 97 3e 0f 83 10 3f cf fc a0 bf 46 9c d6 3e
       0.2957149 0.5644998 -1.2577151 0.41916102
0001a0 30 78 bb 3e c5 72 59 3e 44 0c 39 3e 1d 2d a3 3e
       0.36615133 0.21235187 0.18071085 0.31870356
0001b0 f8 2d f4 3a 1d e2 46 be 87 0a f6 bd e5 9d dc 3e
       0.0018629422 -0.19422193 -0.12013727 0.43089214
0001c0 fb f8 02 3f 9f cb 52 3e 8d df 95 3e 68 15 74 3e
       0.51161164 0.20585488 0.29272118 0.23836291
0001d0 4e e4 08 be 49 45 a7 3d 94 03 a5 3d c4 af a5 3e
       -0.13368341 0.08167512 0.08057323 0.3236066
0001e0 c6 7b c2 3d fc 6d ff 3e 22 14 fd 3d 26 67 45 be
       0.09496264 0.498886 0.12357356 -0.1927763
0001f0 1c 76 62 3e 3b 49 f8 3e f0 12 3a 3e e9 d7 20 bf
       0.22115368 0.4849337 0.18171287 -0.6282945
000200 18 34 96 be 5b e7 7b 3c 01 00 07 be 4d 5a a3 3c
       -0.2933662 0.015374984 -0.13183595 0.01994052
000210 0a 18 a5 3e a2 5f 92 be 18 c7 a8 3d ff 7f d5 be
       0.32244903 -0.28588587 0.08241099 -0.41699216
000220 7e 4f 3c 3f dc 79 93 3e 47 f0 e2 bd 6d 2e f5 3e
       0.73558795 0.2880391 -0.110809855 0.47886983
000230 65 a2 c0 3c 1f d1 45 3e 44 ea a5 bc b3 5e 13 bf
       0.023514936 0.19318055 -0.020253308 -0.57566375
000240 a4 a8 60 3e 77 d8 6e 3e 8d 3d df be 6f 0b 94 3e
       0.21939331 0.23324762 -0.43601647 0.28914973
000250 ee 24 d0 bd 02 b3 57 bf 2c 84 32 be 3d 56 8c be
       -0.10163294 -0.8425752 -0.17433232 -0.27409545
000260 b0 56 95 3e 67 6e 92 3e 66 b7 09 3e 78 ca 9a 3d
       0.291677 0.28599855 0.13448867 0.07558149
000270 e6 67 6c be 89 ab b5 be ab 5c bd 3e ee b3 89 3e
       -0.23086509 -0.35482433 0.36984763 0.26895088
000280 89 76 25 be c8 6a 99 bd 68 98 f7 be 06 70 05 3f
       -0.16158499 -0.0749107 -0.48358464 0.5212406
000290 ed ca 20 be f4 6e da be eb e1 a3 3e 22 ba 14 bf
       -0.1570241 -0.42662776 0.320083 -0.58096516
0002a0 14 81 e3 3e bb 07 13 bf c0 9d 26 3c 8c e6 5c bc
       0.44434416 -0.5743367 0.0101694465 -0.013482701
0002b0 9d ca d8 3e ba 38 2a be 68 a1 28 3f f8 90 e2 be
       0.42342082 -0.16623202 0.65871286 -0.44251227
0002c0 43 a1 38 3e 10 5e 13 3e 33 62 76 be ae 26 38 bf
       0.18030266 0.14391351 -0.24060898 -0.7193402
0002d0 80 df de 3d 87 00 2b be 04 7d 9b be c1 c8 df bf
       0.10882473 -0.1669942 -0.30368817 -1.748314
0002e0 91 e3 47 3e 20 60 eb 3e f0 6b dd bc 49 ea 16 3e
       0.19520403 0.45971775 -0.027029008 0.1473781
0002f0 37 91 3a 3d 99 ad 02 3f 4c 69 37 be 4e 94 30 3f
       0.045548644 0.5104614 -0.17911261 0.68976295
000300 2f 12 ff bd db cb 4f bc 33 42 76 3e 50 b0 4b be
       -0.1245464 -0.01268288 0.2404869 -0.19891477
000310 41 4c 31 3e 3f 2e 1e 3d 4e e3 5b bd 08 68 2a be
       0.17314245 0.038618322 -0.05368357 -0.16641247
000320 38 a0 00 3e 49 87 8d bf bf 81 2e 3e 11 1e f7 3e
       0.12561119 -1.1056911 0.17041682 0.48265126
000330 09 0f 80 3e 05 5c e9 3e 91 0e e2 be 4c 10 53 3e
       0.2501147 0.45578018 -0.44151738 0.20611686
000340 33 8f 8c be bb fb 8d bc c2 44 3d 3d 40 04 7e 3e
       -0.27453002 -0.017331949 0.04620815 0.24806309
000350 db 7f 0b 3e 9a 3a 38 3e 0f fc 03 bf 8c 22 02 be
       0.13622992 0.17991105 -0.51556486 -0.12708491
000360 59 43 53 bf ea 14 da 3e 71 5d 6e 3e af e4 15 be
       -0.8252464 0.4259408 0.23277833 -0.14638017
000370 bb 35 53 3e 85 75 2e be b3 fe 06 bf 54 10 bb bd
       0.20625965 -0.17037018 -0.5273239 -0.09133974
000380 05 bc 9c 3e cf 4c d1 3d af 55 dd be c1 01 33 3f
       0.30612198 0.10219728 -0.43229434 0.6992455
000390 ed f7 54 be a5 9c 94 be 75 cc b3 3e dd 03 5c bd
       -0.20797701 -0.2902576 0.35116926 -0.05371462
0003a0 c4 b3 72 bf d8 3b 00 3e ff fa 62 3d c5 90 44 3d
       -0.9480555 0.12522829 0.05541515 0.047989625
0003b0 4d a3 db 3e 34 a6 08 3f d9 cd ce 3e 6f 07 87 be
       0.42898026 0.53378606 0.40391424 -0.2637286
0003c0 9c 94 d5 3e e6 41 e7 3c 7a a6 31 bd 82 20 ce 3d
       0.41714942 0.028229665 -0.043371655 0.10064794
0003d0 64 a6 a1 be 44 6f 11 3e d9 37 92 3d 06 a9 04 3f
       -0.31572258 0.142026 0.07139558 0.5182041
0003e0 02 4d 82 3d 5e 82 22 3b 55 b5 93 3e 65 94 26 3e
       0.06362344 0.0024796943 0.28849283 0.16267546
0003f0 17 ea 80 be a3 a8 61 bf 29 4b 8c bd 69 89 23 3f
       -0.25178596 -0.88147944 -0.06850273 0.63881546

advantage_stream.2.bias f4 [4]
000000 41 91 fb 3d 0f bf 44 3d 02 e5 e0 3d 0f 9c 04 be
       0.12283564 0.04803377 0.1098118 -0.12950157
