models/snake_dqn_ep174_score5_20250302_153403.pt (torch, 674466 bytes, 44 tensors)

feature_layers.0.weight f4 [128, 24]
0.032399915 -0.58170444 -0.12293515 -0.08833194 -0.22548313 0.34588563 -0.23215492 0.0335811
-0.17699784 -0.025956895 -0.30561838 0.1673663 -0.15330234 0.29306206 0.09907156 0.261122
-0.3338738 -0.25013903 -0.8827529 0.18219201 0.14681642 -0.20192735 -0.48019698 -0.27818015
-0.48606962 -0.5068567 0.021100756 -0.32246444 -0.3370162 0.5034409 -0.31784287 0.027842764
0.08881919 -0.41773844 0.12780216 0.41101655 0.17824167 -0.44123325 0.123497196 -0.20000857
0.067136675 -0.27131224 -0.21779068 -0.109924726 0.26150358 0.33482525 0.16884618 0.58858657
-0.5928697 0.56326157 -0.3294234 0.061819356 0.07902297 0.21766143 -0.07582063 -0.021194788
-0.34356418 -0.21496625 0.4714563 0.069001235 -0.03892409 -0.33540937 -0.20119947 0.67359364
-0.11543566 0.5133293 0.07610721 -0.5316842 0.33606267 0.5518913 -0.46748802 -0.09452718
-0.20150933 0.041709855 0.0575376 0.059294716 -0.48005593 -0.13787253 0.061984524 -0.35639334
-0.24212822 0.054945573 0.17803815 -0.54555154 -0.29676557 0.14300449 0.0856861 -0.036220625
-0.43151662 -0.830732 0.16032799 0.05751843 0.14609317 0.247235 0.081631646 0.21693732
0.02511248 0.041331638 0.063357554 -0.002075492 0.14718567 0.06546326 -0.1066519 0.31887162
-0.050421685 0.34388945 -0.3759122 0.11477333 0.4033733 -0.03568396 -0.033402584 -0.08183511
-0.81478965 -0.029756345 -0.13506989 0.31367508 0.10146388 -0.07200617 0.50434124 -0.40463844
0.010926269 -0.07061294 -0.323708 -0.04053306 0.069335625 -0.01870137 -0.22819337 0.068279296
-0.5800756 -0.38987666 -0.28447473 -0.03206611 0.18865614 -0.413515 0.079485044 0.5413732
-0.036325544 0.21503024 0.67055565 0.116995804 -0.029107958 0.48302886 -0.0845843 0.4085539
0.29394665 -0.054273035 0.23261645 -0.5049652 -0.16247042 -0.11576794 0.29212773 -0.22198099
-0.03901636 -0.023901463 -0.15342396 0.36212677 -0.024112564 -0.25789726 0.39965758 0.41670874
0.1362548 0.20992957 -0.17478333 0.33324203 -0.59047467 0.36255515 0.8208915 -0.19555351
-0.52526474 0.4610072 -0.39589113 -0.1276355 -0.12344341 -0.117852055 0.124702014 0.08081833
-0.09976681 0.41475677 0.2965896 0.5913086 -0.12114637 -0.31368256 0.11624129 -0.122108124
-0.66235626 0.2359812 -0.020791316 0.024134433 -0.09830978 -0.3036813 0.21432343 -0.0042104814
0.21008557 -0.21581951 0.30974227 0.16069172 -0.10489231 0.11548926 0.15257835 -0.5368516
-0.22143836 -0.048397683 0.280866 0.032722346 0.2749747 0.11238484 0.40146703 0.20162785
-0.16571404 -0.02378162 0.42927435 0.46919358 -0.33096224 -0.14903623 0.5183581 0.13115388
0.011600463 -0.32647064 0.07847179 -0.53086627 -0.37770537 -0.46994892 0.30346802 -0.22818525
0.047557775 -0.14729427 -0.08930068 -0.005219682 -0.6214244 0.19830701 -0.6304967 -0.004934213
-0.46488836 0.23028886 -0.25594693 -0.47132465 -0.26423752 -0.15588619 0.24743879 0.48718262
0.18683092 -0.4405385 0.4818014 -0.48414966 -0.033066332 0.106085226 -0.21258505 -0.16205771
-0.3046596 0.14712489 0.011739727 -0.11599932 -0.25858387 0.0865937 -0.21756142 0.44716534
00000000: c6b5 043d 95ea 14bf 6dc5 fbbd 60e7 b4bd
00000010: 0de5 66be ec17 b13e 05ba 6dbe 568c 093d
00000020: ec3e 35be 8ea3 d4bc 037a 9cbe 1262 2b3e
00000030: 4afb 1cbe 3b0c 963e 08e6 ca3d c8b1 853e
00000040: 82f1 aabe 3912 80be 18fc 61bf 8b90 3a3e
00000050: 0b57 163e 0bc6 4ebe 61dc f5be a16d 8ebe
00000060: 1ede f8be 5cc1 01bf 7edb ac3c 0f1a a5be
00000070: 638d acbe 81e1 003f 4dbc a2be 8216 e43c
00000080: d6e6 b53d d0e1 d5be 92de 023e c370 d23e
00000090: fc84 363e 53e9 e1be 19ec fc3d 0ccf 4cbe
000000a0: f47e 893d 70e9 8abe 8504 5fbe 3720 e1bd
000000b0: cce3 853e 376e ab3e 03e6 2c3e 9cad 163f
000000c0: 4fc6 17bf e931 103f 2faa a8be 4b36 7d3d
000000d0: cbd6 a13d a3e2 5e3e d947 9bbd b1a0 adbc
000000e0: a5e7 afbe 1d20 5cbe b862 f13e 8550 8d3d
000000f0: de6e 1fbd c7ba abbe 3c07 4ebe a270 2c3f
00000100: 8869 ecbd 8d69 033f 19de 9b3d 751c 08bf
00000110: 6810 ac3e c048 0d3f 975a efbe 7797 c1bd
00000120: 7658 4ebe f4d7 2a3d 8cac 6b3d 04df 723d
00000130: e4c9 f5be 752e 0dbe 7ce3 7d3d 3079 b6be
00000140: 76f0 77be 9c0e 613d a24f 363e 44a9 0bbf
00000150: a8f1 97be c56f 123e 327c af3d 145c 14bd
00000160: bfef dcbe daaa 54bf 052d 243e 7298 6b3d
00000170: 7399 153e 2c2b 7d3e 7e2e a73d d124 5e3e
00000180: b0b8 cd3c 5d4b 293d 9bc1 813d fa04 08bb
00000190: d7b7 163e 9a11 863d 506c dabd 2443 a33e
000001a0: f886 4ebd 4712 b03e 9077 c0be 480e eb3d
000001b0: f286 ce3e 5829 12bd 26d1 08bd 2b99 a7bd
000001c0: 0e96 50bf 94c3 f3bc c34f 0abe 059a a03e
000001d0: 4bcc cf3d f977 93bd 821c 013f c52c cfbe
000001e0: 1804 333c 849d 90bd 0ebd a5be fe05 26bd
000001f0: d6ff 8d3d 9e33 99bc 86ab 69be 04d6 8b3d
00000200: d67f 14bf ea9d c7be aca6 91be c157 03bd
00000210: 132f 413e 3db8 d3be 0ec9 a23d 6f97 0a3f
00000220: 18ca 14bd e330 5c3e 89a9 2b3f 7f9b ef3d
00000230: d073 eebc 8f4f f73e 893a adbd fa2d d13e
00000240: 2d80 963e 674d 5ebd 0233 6e3e 6645 01bf
00000250: a55e 26be be17 edbd c491 953e fc4e 63be
00000260: 9ecf 1fbd 00cd c3bc 2c1b 1dbe ae68 b93e
00000270: b687 c5bc 1c0b 84be eb9f cc3e d95a d53e
00000280: 6186 0b3e c7f7 563e 67fa 32be b39e aa3e
00000290: 5929 17bf d4a0 b93e f225 523f 2e3f 48be
000002a0: c077 06bf 2309 ec3e 3eb2 cabe e1b2 02be
000002b0: e6cf fcbd 6b5c f1bd c563 ff3d 1584 a53d
000002c0: 8b52 ccbd 005b d43e 98da 973e 0060 173f
000002d0: 971b f8bd 009b a0be ea0f ee3d d313 fabd
000002e0: 2e90 29bf 0ea5 713e 8d52 aabc 93b5 c53c
000002f0: a356 c9bd 1e7c 9bbe 9a77 5b3e 14f8 89bb
00000300: ac20 573e caff 5cbe 8a96 9e3e 5f8c 243e
00000310: c8d1 d6bd a285 ec3d 803d 1c3e 1b6f 09bf
00000320: bdc0 62be a63c 46bd abcd 8f3e de07 063d
00000330: 7cc9 8c3e 062a e63d 168d cd3e 8877 4e3e
00000340: f1b0 29be acd1 c2bc d9c9 db3e 243a f03e
00000350: e273 a9be f49c 18be 1eb3 043f 344d 063e
00000360: de0f 3e3c 2927 a7be d1b5 a03d dae6 07bf
00000370: 9962 c1be 259d f0be 2960 9b3e 65a9 69be
00000380: f1cb 423d 4fd4 16be 46e3 b6bd de09 abbb
00000390: ab15 1fbf fe10 4b3e 3b68 21bf 2eaf a1bb
000003a0: d905 eebe d8d0 6b3e 7a0b 83be 7751 f1be
000003b0: 244a 87be a1a0 1fbe 9860 7d3e 0070 f93e
000003c0: 9b50 3f3e 438e e1be acae f63e 77e2 f7be
000003d0: 9070 07bd 3643 d93d e5af 59be 75f2 25be
000003e0: 58fc 9bbe e8a7 163e fc57 403c 0d91 edbd
000003f0: 1b65 84be 0a58 b13d 6cc8 5ebe dbf2 e43e

feature_layers.0.bias f4 [128]
0.14431618 -0.10674138 0.064958625 0.16756523 -0.13360344 0.0013273491 -0.036809873 0.1798172
0.21925364 0.12548484 0.0008886844 0.08959792 0.17915314 0.056595698 -0.0961135 -0.118945755
-0.06878453 0.26228824 0.23324408 -0.1104386 0.11929362 0.04681466 -0.15083517 0.028991327
-0.15919296 -0.011932556 0.15495999 0.04613287 0.028311133 -0.06090579 0.033996794 -0.16613144
0.122693084 0.0180594 0.169884 -0.17722394 0.09027268 0.14019431 -0.1800094 -0.26468313
0.117080085 0.07408578 -0.1775713 0.16490304 0.256688 0.24948542 0.065254346 0.07492888
0.111221775 -0.10681583 0.07356143 0.09629543 0.076711856 -0.114254184 0.22458994 0.17021951
-0.083550625 0.036167342 -0.14579518 0.0068466677 0.2283788 -0.14177543 -0.0755817 0.092334434
-0.08176958 0.1075808 -0.26410583 -0.17135744 -0.20154114 0.07204209 0.0679471 -0.25659028
0.27296692 0.20103034 0.18249105 -0.18482432 0.10576454 -0.05585369 0.05715168 0.22527099
0.24629103 -0.1180022 -0.1293589 0.16020702 -0.017275989 0.04212692 0.021335496 0.09723315
0.10454794 0.02633919 0.0322622 0.16356857 0.18250613 -0.048873227 -0.21524608 0.15300333
-0.14636222 0.13410385 0.06953076 0.12091277 -0.117695175 0.13062884 -0.06754132 0.11752411
-0.0915087 0.054692 0.1270379 0.1029957 0.22377604 -0.059953522 0.2936569 0.14583735
0.02867554 0.22722824 0.09565212 -0.013867082 0.16170223 -0.14947832 0.25996095 -0.008662164
-0.12594016 0.20308736 0.032788683 -0.19594152 -0.06832768 0.20451806 -0.05206909 0.013605899
00000000: 9fc7 133e 3a9b dabd 0709 853d 3896 2b3e
00000010: 57cf 08be 72fa ad3a f3c5 16bd 0022 383e
00000020: 0784 603e 197f 003e 9af6 683a 1d7f b73d
00000030: ec73 373e e4d0 673d 28d7 c4bd d599 f3bd
00000040: e7de 8cbd a54a 863e 89d7 6e3e a22d e2bd
00000050: 3750 f43d bbc0 3f3d 8974 1abe 387f ed3c
00000060: 7b03 23be c480 43bc d5ad 1e3e d2f5 3c3d
00000070: c0ec e73c 5a78 79bd 3940 0b3d 5c1e 2abe
00000080: 8346 fb3d 4ff1 933c 12f6 2d3e 317a 35be
00000090: e2e0 b83d 198f 0f3e 6254 38be 8c84 87be
000000a0: afc7 ef3d 49ba 973d 40d5 35be 58dc 283e
000000b0: 9c6c 833e 1b79 7f3e 12a4 853d 5074 993d
000000c0: 3ec8 e33d 42c2 dabd 60a7 963d 8a36 c53d
000000d0: 1b1b 9d3d 19fe e9bd e8fa 653e 064e 2e3e
000000e0: 971c abbd 3524 143d 554b 15be 035a e03b
000000f0: 22dc 693e 942d 11be 94ca 9abd d619 bd3d
00000100: cf76 a7bd 5353 dc3d e138 87be 5378 2fbe
00000110: cd60 4ebe ce8a 933d d927 8b3d cd5f 83be
00000120: 52c2 8b3e e6da 4d3e efde 3a3e 9642 3dbe
00000130: 149b d83d d7c6 64bd e117 6a3d 70ad 663e
00000140: b733 7c3e 23ab f1bd a976 04be 4f0d 243e
00000150: 6086 8dbc 478d 2c3d c7c7 ae3c 2c22 c73d
00000160: 3b1d d63d 49c5 d73c 5e25 043d 857e 273e
00000170: e3e2 3a3e 4b2f 48bd 7869 5cbe e8ac 1c3e
00000180: fadf 15be 8552 093e 2566 8e3d 1da1 f73d
00000190: 2b0a f1bd 91c3 053e 1b53 8abd 7bb0 f03d
000001a0: ea68 bbbd b804 603d 3916 023e 69ef d23d
000001b0: 8c25 653e d391 75bd 325a 963e 6356 153e
000001c0: f7e8 ea3c 85ae 683e 42e5 c33d c232 63bc
000001d0: 4595 253e d810 19be 9a19 853e c0eb 0dbc
000001e0: 75f6 00be 22f6 4f3e 6d4d 063d e5a4 48be
000001f0: 62ef 8bbd 2f6d 513e 6646 55bd 47eb 5e3c

feature_layers.1.weight f4 [128, 128]
0.16539651 0.054031376 0.18530867 0.10288057 -0.052588962 -0.21623905 0.031911682 0.16591229
0.09213889 -0.0041212942 0.269156 0.00695239 -0.18992275 0.033600625 0.11525598 0.21406063
0.12856096 -0.02966714 0.17464346 -0.03514141 0.10822554 -0.15516801 -0.12754434 -0.17265068
0.14752968 0.24314448 -0.20363818 0.13373683 -0.010240052 -0.0037834872 0.013760109 0.12396387
0.09622177 -0.10808839 -0.062077247 -0.2392173 0.08764221 0.10707518 -0.019652486 -0.29873818
0.021893302 -0.050806966 0.18984146 0.03322299 -0.049068246 -0.015737586 0.07462736 0.09139781
-0.25535914 -0.060733244 -0.061161313 0.1949182 -0.03518538 0.1778732 0.22438452 0.0038430272
0.15409714 -0.10738166 -0.15840282 0.09970037 0.28825068 -0.2858718 0.078079775 0.07257925
0.018571347 0.054937594 0.07599173 0.120535694 0.049486928 0.14857103 0.037493113 0.104499035
-0.09623053 0.30576327 0.2061593 0.036872342 0.089482486 0.11984623 -0.055861432 0.08823666
0.0056104423 -0.08075596 -0.17937551 -0.28033438 0.103857346 -0.14762051 -0.14943315 0.12834173
0.13094337 -0.12274517 0.1055702 -0.13054025 0.16640499 -0.03524507 0.046754505 0.22049929
0.076567285 0.13625608 0.18314613 0.0069998484 -0.11549487 0.16311188 0.283425 0.010650329
0.14821891 0.13381667 -0.13275409 -0.15451132 -0.0673422 0.047300998 0.27391824 -0.0020427157
-0.007765851 -0.09175402 0.02769327 0.22426282 0.11578396 0.08204307 -0.084250726 0.0025834925
0.09165224 -0.0022954508 0.077151604 -0.2619826 -0.17083803 0.101892725 -0.028955046 0.15925546
-0.17496279 -0.10341173 -0.16690552 0.26980382 0.0041750665 -0.0073801824 -0.0024906746 0.09736168
-0.09902487 -0.018671958 -0.023183804 0.074798256 0.18635096 0.17382115 0.1488838 0.0217188
-0.18446645 -0.08253236 0.063960604 -0.17638648 0.12308909 0.17165372 0.036830265 0.43332174
-0.056436013 0.046855282 0.039743878 0.17977636 -0.09518236 0.038139906 -0.014527789 -0.15892492
0.10998634 0.028866248 0.048236802 -0.009851325 -0.13000734 -0.0030016992 0.12682384 0.07902768
0.018853065 -0.070401385 -0.05921409 0.12555374 0.31052825 -0.10081212 0.08061594 -0.095843464
-0.07550208 0.08485518 -0.007826383 -0.089231126 -0.0013181625 -0.013557355 0.0669771 0.034585934
-0.118861385 0.02755041 -0.07012034 0.24051471 0.1675957 -0.10563285 0.11752208 -0.071160704
0.096449524 -0.0065552387 -0.1947817 0.25767586 0.06293125 -0.046293404 0.033187855 0.04021187
0.01890065 -0.014337798 -0.010295073 -0.13932543 0.043734528 0.074688144 0.30772018 0.0020024606
0.1066625 -0.087568976 -0.028210843 -0.021891272 -0.03568049 0.076700225 0.12245517 0.10390232
-0.23395675 -0.17151232 -0.103265345 0.018148998 0.04562352 -0.037275087 -0.021586632 -0.06327014
0.024523146 0.29735819 0.013361653 -0.04581045 0.13011196 -0.051300466 0.11521281 -0.098588824
-0.002480927 -0.09834911 0.047057275 0.067694396 -0.107322276 0.14622535 0.11927952 0.11906342
0.056402747 -0.021978417 0.12805942 0.05197567 0.039684094 -0.10777394 0.20374276 -0.008075194
-0.18246408 0.06078663 -0.0011740136 0.22189227 0.0043897713 0.113485165 0.114237495 -0.18817602
00000000: b45d 293e 0150 5d3d 8ec1 3d3e 0cb3 d23d
00000010: 8667 57bd c56d 5dbe d3b5 023d e9e4 293e
00000020: 50b3 bc3d ec0b 87bb d1ce 893e e0d0 e33b
00000030: 1c7b 42be cfa0 093d 540b ec3d b632 5b3e
00000040: 7ca5 033e 8108 f3bc bcd5 323e 70f0 0fbd
00000050: 5aa5 dd3d 5de4 1ebe fc9a 02be 57cb 30be
00000060: 0512 173e defa 783e 8786 50be 4ff2 083e
00000070: e4c5 27bc 62f4 77bb 1572 613c c5e0 fd3d
00000080: eb0f c53d 725d ddbd b644 7ebd 61f5 74be
00000090: c27d b33d 3b4a db3d 40fe a0bc 36f4 98be
000000a0: 9559 b33c f71a 50bd cd65 423e d414 083d
000000b0: c9fb 48bd 1cec 80bc 3bd6 983d c62e bb3d
000000c0: 6fbe 82be 6cc3 78bd 4984 7abd a398 473e
000000d0: 8c1e 10bd 6424 363e 0ec5 653e 4cdb 7b3b
000000e0: a4cb 1d3e eaea dbbd 5934 22be b52f cc3d
000000f0: 9895 933e ca5d 92be 4ae8 9f3d 6ea4 943d
00000100: f022 983c 3e06 613d 8da1 9b3d 6bdb f63d
00000110: ceb2 4a3d 0123 183e 6192 193d 9703 d63d
00000120: 8314 c5bd 018d 9c3e 6c1b 533e 7407 173d
00000130: 9842 b73d f171 f53d f5ce 64bd 6cb5 b43d
00000140: cdd7 b73b 6163 a5bd 37ae 37be fd87 8fbe
00000150: 29b3 d43d d529 17be 0105 19be 046c 033e
00000160: 0516 063e d261 fbbd 3035 d83d 58ac 05be
00000170: 1266 2a3e 225d 10bd a781 3f3d 91ca 613e
00000180: 4fcf 9c3d b786 0b3e a98a 3b3e fc5e e53b
00000190: 9388 ecbd cd06 273e 151d 913e b87e 2e3c
000001a0: b3c6 173e 3d07 093e b0f0 07be 3738 1ebe
000001b0: b5ea 89bd b1be 413d 033f 8c3e 15df 05bb
000001c0: ae78 febb 88e9 bbbd ffdc e23c 27a5 653e
000001d0: 2420 ed3d 3206 a83d a58b acbd d04f 293b
000001e0: 2bb4 bb3d 466f 16bb a901 9e3d 9522 86be
000001f0: 2af0 2ebe 22ad d03d 2233 edbc dd13 233e
00000200: 7229 33be 87c9 d3bd 48e9 2abe ba23 8a3e
00000210: ffce 883b 75d5 f1bb 963a 23bb 8f65 c73d
00000220: 8dcd cabd eff5 98bc f6eb bdbc d42f 993d
00000230: c9d2 3e3e 2cfe 313e ff74 183e a0eb b13c
00000240: c6e4 3cbe ba06 a9bd c7fd 823d a89e 34be
00000250: 2216 fc3d fec5 2f3e 55db 163d 59dc dd3e
00000260: 7329 67bd 53eb 3f3d 7aca 223d 4b17 383e
00000270: f8ee c2bd 9738 1c3d f705 6ebc 37bd 22be
00000280: 8540 e13d e978 ec3c f493 453d 7467 21bc
00000290: a520 05be 28b8 44bb 1cde 013e 44d9 a13d
000002a0: be71 9a3c 9a2e 90bd 798a 72bd 2991 003e
000002b0: 8ffd 9e3e 9676 cebd f819 a53d 9449 c4bd
000002c0: d6a0 9abd 8dc8 ad3d 3b3a 00bc cfbe b6bd
000002d0: 32c6 acba ab1f 5ebc 4a2b 893d fba9 0d3d
000002e0: 996d f3bd 66b1 e13c 419b 8fbd 7d49 763e
000002f0: 359e 2b3e 0956 d8bd 6baf f03d b4bc 91bd
00000300: 5487 c53d 54cd d6bb db74 47be 17ee 833e
00000310: 19e2 803d 279e 3dbd fdef 073d 34b5 243d
00000320: 89d5 9a3c 15e9 6abc aaac 28bc 53ab 0ebe
00000330: fa22 333d 19f6 983d 808d 9d3e b73b 033b
00000340: de71 da3d 5d57 b3bd 6d1a e7bc 5355 b3bc
00000350: b525 12bd 0215 9d3d c7c9 fa3d bdca d43d
00000360: 5c92 6fbe eda0 2fbe c87c d3bd 35ad 943c
00000370: badf 3a3d c3ad 18bd 73d6 b0bc c693 81bd
00000380: c4e4 c83c 553f 983e d6ea 5a3c bda3 3bbd
00000390: 123c 053e 7020 52bd b2f4 eb3d f0e8 c9bd
000003a0: 0c97 22bb 426b c9bd 21bf 403d 5ca3 8a3d
000003b0: c8cb dbbd 19bc 153e d248 f43d 86d7 f33d
000003c0: 9106 673d 150c b4bc 0222 033e 71e4 543d
000003d0: ca8b 223d 95b8 dcbd f1a1 503e d24d 04bc
000003e0: ddd7 3abe 67fb 783d 5ce1 99ba ba37 633e
000003f0: 12d8 8f3b e96a e83d 59f5 e93d 37b1 40be

feature_layers.1.bias f4 [128]
0.055110514 0.15240687 0.005208572 -0.09078541 0.04045695 0.06951012 0.040062856 -0.035067007
-0.013617445 0.123431206 -0.041303806 -0.10102543 0.0061393124 0.019649701 -0.07987515 -0.066399336
0.023514485 -0.074245855 0.11806928 0.09143031 0.09629945 0.028068766 -0.14072223 -0.061258897
0.049591064 0.021784496 -0.008233552 0.060865786 -0.09100746 -0.15420653 0.019731065 0.049365055
-0.022173375 -0.044412073 0.09004327 -0.12596118 -0.017115619 -0.07245007 0.0052661807 0.04141664
0.044272672 -0.048184104 -0.017616443 -0.005564137 -0.10217285 -0.02746685 -0.046052713 -0.08098048
0.06397019 -0.010794578 -0.10392076 0.012578 -0.043298632 -0.042108666 -0.035706565 -0.051690597
0.06887809 0.017410545 -0.004079389 -0.09147921 -0.088794276 -0.04954892 0.09348083 0.094397366
0.070496194 -0.107026 0.06804592 0.07980983 -0.14391065 0.06009072 -0.11466534 -0.1245028
-0.037554592 0.12235108 -0.03521668 0.015979597 -0.020212062 0.027068323 0.07106158 0.10604987
0.016830621 0.1208173 -0.13082975 0.014636345 -0.066491745 -0.0441768 -0.005951528 -0.09663494
-0.005549335 0.11311975 -0.09442064 -0.04366885 0.123391606 -0.03637918 0.0047207586 -0.07151323
0.07444579 0.07886483 -0.102370605 0.016198684 0.008097982 0.052136034 0.07139918 0.06781609
0.07039492 0.0629222 -0.056607183 0.043761063 -0.09008264 0.03924919 0.06107401 0.017639076
-0.08632744 -0.102407575 0.05025322 -0.011347521 0.0007169046 -0.045059107 0.071541764 0.037305456
0.035721973 -0.06593446 0.03430546 -0.043524664 -0.06693302 -0.059841864 -0.11489505 -0.00055079855
00000000: 90bb 613d 8c10 1c3e abac aa3b b3ed b9bd
00000010: 30b6 253d 525b 8e3d f318 243d 6ca2 0fbd
00000020: b41b 5fbc 80c9 fc3d 2e2e 29bd 6ce6 cebd
00000030: 492c c93b 69f8 a03c 9595 a3bd 60fc 87bd
00000040: 73a1 c03c 360e 98bd 4fce f13d d03f bb3d
00000050: a538 c53d 78f0 e53c 7d19 10be 9cea 7abd
00000060: 0020 4b3d 6675 b23c 05e6 06bc 674e 793d
00000070: 1f62 babd 51e8 1dbe 0ba3 a13c 0333 4a3d
00000080: f0a4 b5bc 6fe9 35bd 9b68 b83d f8fb 00be
00000090: 0e36 8cbc b460 94bd ed8f ac3b 7fa4 293d
000000a0: 4357 353d b25c 45bd 5c50 90bc 5d53 b6bb
000000b0: 0040 d1bd 2902 e1bc c5a1 3cbd 18d9 a5bd
000000c0: ce02 833d bedb 30bc 68d4 d4bd f513 4e3c
000000d0: e859 31bd 237a 2cbd 0c41 12bd 85b9 53bd
000000e0: f50f 8d3d 8fa0 8e3c 65ac 85bb 7459 bbbd
000000f0: c6d9 b5bd cff3 4abd e172 bf3d 6853 c13d
00000100: 4f60 903d 7330 dbbd a95b 8b3d 5673 a33d
00000110: 505d 13be b021 763d a9d5 eabd 53fb febd
00000120: d8d2 19bd 3493 fa3d 5e3f 10bd a5e7 823c
00000130: c493 a5bc 63be dd3c bc88 913d ad30 d93d
00000140: 5fe0 893c 106f f73d 3cf8 05be 48cd 6f3c
00000150: d32c 88bd bbf2 34bd 0905 c3bb 8ae8 c5bd
00000160: 32d7 b5bb 54ab e73d 9c5f c1bd 1cde 32bd
00000170: bdb4 fc3d 5602 15bd 98b0 9a3b 8775 92bd
00000180: 0977 983d e283 a13d aea7 d1bd 1ab3 843c
00000190: 66ad 043c 988c 553d bc39 923d 2ae3 8a3d
000001a0: 362b 903d 5bdd 803d efdc 67bd cd3e 333d
000001b0: 3f7d b8bd c2c3 203d be28 7a3d d37f 903c
000001c0: 71cc b0bd 10bb d1bd 52d6 4d3d f4ea 39bc
000001d0: a7ee 3b3a e68f 38bd 7d84 923d 9bcd 183d
000001e0: 3451 123d a508 87bd e283 0c3d eb46 32bd
000001f0: 2e14 89bd be1c 75bd 194e ebbd 7763 10ba

value_stream.0.weight f4 [64, 128]
-0.009211682 -0.09399276 0.2176416 -0.05173406 0.21243043 0.0871226 0.05245666 -0.051135056
-0.008785656 -0.07337244 0.029041238 -0.011755555 -0.14236362 0.025239836 -0.17692181 0.15846348
0.21926637 0.18278734 0.006422971 -0.10382051 0.07730342 -0.1488032 -0.02439312 0.17528589
-0.048633795 0.30245426 -0.009679137 0.23253857 0.035933904 0.04581836 0.2837902 0.025832634
-0.06897798 0.061092775 -0.2550997 0.20393753 0.17140377 0.03660745 0.08483278 -0.20698482
0.047103323 0.26625738 0.07127371 0.14256321 -0.0031425557 -0.1760221 0.041489217 -0.33598945
0.12575749 0.041234374 0.24200688 0.11641416 0.21169811 -0.13065478 0.101339735 0.17898701
0.08933381 0.16932084 -0.096564285 -0.11500878 -0.22532429 0.17560697 -0.006009378 0.106777616
0.19284754 0.15530372 -0.094907746 0.007580536 -0.080117665 0.01439298 0.18686086 0.35633263
0.072383165 -0.0019275246 0.17237991 -0.03972912 -0.16827527 0.15903038 0.11078903 -0.051465157
0.05183377 0.053448845 0.09736381 -0.23487213 -0.16445598 -0.09061714 0.006027789 0.12855765
0.00093112595 0.2687543 0.20299904 0.12025336 -0.032847434 -0.026561948 -0.07855529 0.053777765
0.15131055 -0.11413877 0.28998244 -0.042842902 -0.10268788 0.017494619 0.09721528 -0.008823113
0.17190215 -0.082298845 0.011465918 0.3377542 -0.20943777 -0.062141754 0.19920611 0.07239721
0.11706994 0.16559051 0.21079758 -0.11148428 0.19917578 0.0038232715 -0.08659424 0.04173984
0.069022395 -0.14487635 -0.0041380734 0.0024828205 0.2122306 -0.03441321 -0.028395494 0.17119204
-0.23198378 -0.08067338 0.07300224 -0.16261159 0.026337264 -0.027121851 -0.025037818 -0.18649365
0.0937493 0.028638199 0.056494717 0.20775189 -0.01120856 -0.068649404 -0.13969909 -0.02890598
-0.025433842 0.046149824 -0.07361328 0.027497087 -0.15685983 -0.046557784 0.24400546 0.23079082
-0.13642563 0.09057069 -0.08325171 0.15390946 0.0017458362 -0.0006052506 -0.04943636 -0.03788158
-0.13791016 -0.041636683 -0.12213618 -0.050622392 0.04840322 0.029502688 -0.11488167 0.06945045
0.39770567 -0.06528261 -0.26625624 -0.22171193 0.1743509 -0.08123566 -0.053394537 -0.050744087
0.100311585 0.14508693 -0.2627835 -0.1567757 -0.26282567 -0.10598826 0.11657805 -0.23143859
-0.08544292 0.098270126 0.14187017 0.077272475 0.062161285 -0.19605349 -0.02212895 -0.04366208
-0.025901947 -0.26261556 -0.13467693 -0.13188013 -0.2832296 -0.058586687 0.07660948 -0.047787093
0.1054882 -0.17289075 -0.06457122 -0.032743316 -0.21624273 0.17405385 -0.21991274 -0.052460555
-0.027642999 -0.03459206 0.21763793 0.106933236 0.047162026 0.27526668 0.08066797 -0.14969629
-0.17660287 -0.09186966 0.03434226 0.057260256 -0.039361212 0.17793831 -0.36283782 -0.052729808
0.037073497 0.12777197 -0.07385584 -0.13358036 -0.19393401 0.058090042 0.17755122 -0.07077846
-0.017637117 0.1590177 -0.14665322 0.09300718 0.025411133 0.01784995 -0.077519074 -0.025350727
-0.05635361 0.034485932 -0.010873924 0.012464959 -0.0433527 0.06578216 -0.11705484 -0.09736842
-0.1185586 -0.06298384 -0.17492026 0.037678674 -0.014366592 -0.19089738 -0.041093227 0.001769057
00000000: 98ec 16bc 477f c0bd 71dd 5e3e 18e7 53bd
00000010: 5d87 593e 556d b23d cbdc 563d fe72 51bd
00000020: b6f1 0fbc 4a44 96bd e4e7 ed3c 5f9a 40bc
00000030: c5c7 11be c6c3 ce3c fe2a 35be 4044 223e
00000040: 5d87 603e 9b2c 3b3e c977 d23b d99f d4bd
00000050: 4151 9e3d de5f 18be 15d4 c7bc 257e 333e
00000060: 3b34 47bd 49db 9a3e 3e95 1ebc 971e 6e3e
00000070: 6e2f 133d 08ac 3b3d f34c 913e f69e d33c
00000080: 5444 8dbd 6b3c 7a3d 6e9c 82be 00d5 503e
00000090: 7884 2f3e b2f1 153d cfbc ad3d d4f3 53be
000000a0: 6aef 403d e352 883e f3f7 913d 17fc 113e
000000b0: 56f3 4dbb 233f 34be 99f0 293d cf06 acbe
000000c0: 92c6 003e 60e5 283d a7d0 773e 8c6a ee3d
000000d0: 64c7 583e 5eca 05be 358b cf3d 5f48 373e
000000e0: a5f4 b63d 7162 2d3e 7fc3 c5bd b989 ebbd
000000f0: 69bb 66be 50d2 333e 51ea c4bb 39ae da3d
00000100: d379 453e f007 1f3e fe5e c2bd 2566 f83b
00000110: bb14 a4bd 89d0 6b3c 7458 3f3e 3b71 b63e
00000120: a03d 943d fea4 fcba 5c84 303e 00bb 22bd
00000130: 5a50 2cbe dcd8 223e 5ce5 e23d 21cd 52bd
00000140: a64f 543d 2ded 5a3d ad66 c73d 5282 70be
00000150: 2667 28be 7b95 b9bd c284 c53b 9ea4 033e
00000160: ce16 743a 2a9a 893e fbde 4f3e 6547 f63d
00000170: 088b 06bd 7198 d9bc 99e1 a0bd 1346 5c3d
00000180: 27f1 1a3e 96c1 e9bd 9478 943e 0a7c 2fbd
00000190: 064e d2bd e050 8f3c ce18 c73d d18e 10bc
000001a0: 1e07 303e 4c8c a8bd 8cdb 3b3c 1eee ac3e
000001b0: db76 56be 5a88 7ebd b0fc 4b3e fd44 943d
000001c0: 5dc2 ef3d 8f90 293e 52db 573e df51 e4bd
000001d0: bcf4 4b3e da8f 7a3b 5258 b1bd 65f7 2a3d
000001e0: 9d5b 8d3d 775a 14be ad98 87bb d1b6 223b
000001f0: fa52 593e def4 0cbd ab9d e8bc f74c 2f3e
00000200: 288d 6dbe 1638 a5bd 3382 953d a783 26be
00000210: 3fc1 d73c a52e debc 1c1c cdbc 31f8 3ebe
00000220: a2ff bf3d a89a ea3c 0167 673d e9bc 543e
00000230: 1ca4 37bc 0f98 8cbd 470d 0fbe 3ccc ecbc
00000240: a25a d0bc 9907 3d3d 8fc2 96bd 9241 e13c
00000250: dd9f 20be 60b3 3ebd 91dc 793e 6e54 6c3e
00000260: 29b3 0bbe 207d b93d df7f aabd 719a 1d3e
00000270: 8bd4 e43a aea9 1eba c87d 4abd b729 1bbd
00000280: 5238 0dbe 3a8b 2abd 8922 fabd 6d59 4fbd
00000290: 7442 463d 9faf f13c 1547 ebbd 0a3c 8e3d
000002a0: 14a0 cb3e e4b2 85bd bd52 88be 7408 63be
000002b0: 0b89 323e e25e a6bd 3bb4 5abd 08d9 4fbd
000002c0: 2970 cd3d ab91 143e 8f8b 86be cf89 20be
000002d0: 1691 86be 5f10 d9bd 79c0 ee3d 3dfe 6cbe
000002e0: b3fc aebd d941 c93d 6a46 113e 0841 9e3d
000002f0: d59c 7e3d 3fc2 48be c647 b5bc 02d7 32bd
00000300: 5230 d4bc 8c75 86be c0e8 09be 960b 07be
00000310: 7803 91be 98f8 6fbd 6ee5 9c3d 66bc 43bd
00000320: 330a d83d 460a 31be ea3d 84bd db1d 06bd
00000330: bc6e 5dbe 2c3b 323e ce30 61be e1e0 56bd
00000340: 9273 e2bc 67b0 0dbd 7adc 5e3e d0ff da3d
00000350: f82c 413d c1ef 8c3e 4035 a53d fc49 19be
00000360: 62d7 34be 2926 bcbd 78aa 0c3d bb89 6a3d
00000370: 3939 21bd 7635 363e e1c5 b9be 36fb 57bd
00000380: 61da 173d a8d6 023e bb41 97bd 4ac9 08be
00000390: a396 46be d3ef 6d3d fdcf 353e 4cf4 90bd
000003a0: b77b 90bc 89d5 223e 432c 16be 8c7a be3d
000003b0: 022b d03c 0f3a 923c 52c2 9ebd 54ac cfbc
000003c0: 0bd3 66bd 1f41 0d3d 8b28 32bc d439 4c3c
000003d0: 9a92 31bd ccb8 863d 73ba efbd 1869 c7bd
000003e0: dace f2bd acfd 80bd 4c1e 33be f454 1a3d
000003f0: db61 6bbc 9a7a 43be 5f51 28bd b4df e73a

value_stream.0.bias f4 [64]
0.02018631 0.046389952 0.05570067 -0.08889563 -0.019391665 -0.05265956 0.07876054 -0.00052533566
0.012709777 -0.01340924 -0.021674454 0.12569119 0.04837049 -0.016774485 -0.12504624 0.012652686
0.027339589 0.05380686 0.03930265 0.013054191 -0.05790091 -0.024765687 0.10461138 -0.08658059
-0.014718222 0.033681534 -0.013233539 -0.067255534 -0.0059852237 -0.0447539 -0.009575315 0.036488995
0.10941452 0.11422082 -0.084557734 0.11153277 -0.04006329 0.05048773 -0.04586978 -0.02650126
0.13517337 -0.065105036 -0.020327961 -0.028932404 0.031789854 -0.010776201 -0.008082636 -0.049998477
0.03922626 0.055723533 0.09133861 -0.099188305 0.044221587 0.013159094 -0.001830811 -0.04079
0.022753181 0.14738797 -0.09021811 0.022091236 -0.0007687524 0.012167951 -0.050880436 0.07643328
00000000: c35d a53c 6403 3e3d 6326 643d e90e b6bd
00000010: 45db 9ebc 8db1 57bd 354d a13d aeb6 09ba
00000020: ab3c 503c 6eb2 5bbc a08e b1bc 31b5 003e
00000030: 2320 463d a56a 89bc 1f0c 00be 364d 4f3c
00000040: 46f7 df3c 9564 5c3d d1fb 203d 3fe1 553c
00000050: 8129 6dbd 69e1 cabc 7e3e d63d 2a51 b1bd
00000060: b324 71bc a6f5 093d 7cd1 58bc 45bd 89bd
00000070: b21f c4bb de4f 37bd c8e1 1cbc 7c75 153d
00000080: b814 e03d 9bec e93d 9b2c adbd 4b6b e43d
00000090: 6819 24bd 39cc 4e3d f3e1 3bbd 2c19 d9bc
000000a0: e36a 0a3e ca55 85bd d386 a6bc a603 edbc
000000b0: 1436 023d aa8e 30bc 086d 04bc 34cb 4cbd
000000c0: b7ab 203d 5c3e 643d bd0f bb3d 3d23 cbbd
000000d0: b221 353d 3e99 573c d3f7 efba 6a13 27bd
000000e0: e164 ba3c dfec 163e 46c4 b8bd aef8 b43c
000000f0: 1a86 49ba 165c 473c 0168 50bd 0d89 9c3d

value_stream.2.weight f4 [1, 64]
-0.100648746 -0.12056669 0.09471585 -0.16467908 0.1590083 -0.3322935 0.11526688 0.10426281
0.17924671 0.12123728 0.05051273 0.06453266 0.1326833 0.4964386 -0.058207028 0.45495582
-0.11566117 0.31995678 -0.10425195 -0.3572736 -0.27004158 0.04668191 0.12830319 -0.082133934
-0.29660377 -0.14535117 -0.28107476 -0.22215648 0.24860673 0.21129638 0.12510517 0.23021276
0.14980035 0.04737199 -0.34453595 0.10277969 -0.1835938 -0.34815958 -0.06342706 0.09840798
0.14253265 -0.041729964 -0.12263718 -0.1625592 0.231137 0.13852173 -0.536927 0.1985979
-0.10036883 0.09845415 0.13940458 -0.12859239 0.46241352 0.16436177 0.39589742 0.36288998
-0.12774499 0.107996605 -0.33042878 -0.44159916 -0.12142614 -0.008900212 0.3323432 0.17087674
00000000: ee20 cebd abeb f6bd 62fa c13d a2a1 28be
00000010: 12d3 223e 6022 aabe 0b11 ec3d bd87 d53d
00000020: 738c 373e 404b f83d 70e6 4e3d b329 843d
00000030: 22de 073e 332d fe3e 7e6a 6ebd f8ef e83e
00000040: c3df ecbd 60d1 a33e 0c82 d5bd 91ec b6be
00000050: e442 8abe 8835 3f3d e961 033e d635 a8bd
00000060: 73dc 97be f0d6 14be 08e9 8fbe fd7c 63be
00000070: c392 7e3e 145e 583e 921b 003e e5bc 6b3e
00000080: 4365 193e 2209 423d 0467 b0be 287e d23d
00000090: 0300 3cbe f941 b2be 0ce6 81bd 1f8a c93d
000000a0: 14f4 113e 0aed 2abd 3429 fbbd eb75 26be
000000b0: 2daf 6c3e a4d8 0d3e 0c74 09bf 3f5d 4b3e
000000c0: 2c8e cdbd 54a2 c93d 13c0 0e3e b9ad 03be
000000d0: 77c1 ec3e 744e 283e 11b3 ca3e b7cc b93e
000000e0: 95cf 02be 532d dd3d f62d a9be 4919 e2be
000000f0: 45ae f8bd 32d2 11bc e328 aa3e 50fa 2e3e

advantage_stream.0.weight f4 [64, 128]
-0.010334953 -0.018736439 -0.22462009 0.34196228 0.13578117 -0.06377004 0.006692943 0.1606311
0.053642694 -0.008418075 0.01162784 0.06902027 -0.024085477 -0.11024058 0.57514673 -0.03214195
-0.0647028 -0.18031602 0.010467175 -0.14129756 -0.29584405 -0.1706761 0.05631369 -0.29773438
0.0334738 -0.2409438 -0.18797237 -0.050740406 0.26047322 0.26911527 0.07474039 -0.06979315
0.048415393 0.09253096 -0.20138237 0.09830786 -0.11787289 0.032407545 -0.0034456896 0.28779155
0.0363257 0.124086976 -0.102372326 0.25451294 -0.20380509 -0.17147845 0.107996464 0.3035343
-0.009912699 -0.16343735 0.11352548 -0.10184746 -0.14641526 0.20151305 -0.24599653 -0.21104926
0.10069575 0.14395908 -0.2708225 -0.18870494 0.2293095 0.012554691 -0.20367287 0.04030642
-0.049079783 0.07432199 0.12945203 0.11308113 0.027549641 -0.07284662 -0.11480589 0.23679082
0.06275224 -0.20919472 0.23812348 0.022467427 0.021172602 -0.07973847 -0.01627479 0.089153364
-0.12972477 -0.10393808 0.14513105 0.17779501 0.35449457 0.1644099 0.16272034 0.0017279293
0.3099011 -0.24947779 0.3243411 -0.05267891 0.0035307864 0.4500167 0.1344341 -0.12531412
0.0013425944 -0.11944681 -0.10777225 0.022635141 -0.17182453 -0.28599784 -0.072438024 -0.13772628
0.034027882 -0.019348463 0.17480326 0.027601698 -0.08351599 0.03694666 -0.21755606 -0.07621486
0.115470566 -0.013659098 -0.06630273 0.03404517 0.27542707 0.5984892 -0.10679626 -0.1504141
0.08732186 0.038587414 -0.26615945 -0.06592786 0.24392584 -0.21029906 -0.0057950206 0.058643498
0.11774632 -0.058589045 0.022786785 -0.057317268 0.111373544 -0.058674827 0.13307145 -0.14396983
-0.061007872 -0.14246915 -0.06855575 0.13868594 0.13963123 -0.110844985 -0.012842413 -0.016102243
0.09105823 0.27179793 -0.09302469 -0.010999252 -0.113834426 0.068103395 -0.18195528 0.26146042
-0.06901819 -0.0072277747 0.094813965 -0.11240801 0.041577097 0.05039364 0.15878245 -0.06781807
-0.2157513 -0.055938706 0.07901211 0.11369208 -0.1675496 -0.27540678 -0.2703156 0.02122753
0.17045994 0.041014593 -0.10987711 -0.06003516 -0.21110387 0.11068789 0.1331801 -0.17649493
-0.041387413 -0.23513813 0.0024610932 -0.03550182 -0.03821988 0.2205698 0.12760581 0.05715891
0.048107125 -0.05884567 -0.13711475 -0.029347273 -0.17044556 0.0391071 0.2361496 0.1465918
0.07246154 0.15911372 -0.04872808 -0.006549605 0.0077103935 -0.28034243 -0.03712875 -0.024368485
0.1268682 0.2865988 0.009273724 -0.032044113 0.020204129 0.19637436 0.07525101 0.10604009
-0.009190811 -0.06343064 0.26038548 0.04505504 0.083464 -0.017633611 -0.123040035 0.5284918
-0.09033025 -0.17029819 0.24595496 -0.020900449 0.12035717 -0.061639898 -0.17428844 -0.081485376
0.27218363 -0.022884766 0.3007082 -0.13069229 0.06873093 0.03314883 -0.030181242 0.26604772
-0.2530889 0.042085316 0.09543334 0.022172708 -0.06453514 -0.23672365 0.023776399 0.20234038
0.05462584 0.23312816 -0.080265224 0.011068563 0.26433238 -0.25198686 0.14262886 -0.048453663
0.41287288 0.08313645 -0.027627934 0.0994849 -0.13878518 0.12724638 0.041915257 0.1816255
00000000: ef53 29bc 297d 99bc cf02 66be ae15 af3e
00000010: 380a 0b3e de99 82bd 7a50 db3b 7b7c 243e
00000020: 71b8 5b3d f7eb 09bc b282 3e3c 805a 8d3d
00000030: e84e c5bc d0c5 e1bd d13c 133f 47a7 03bd
00000040: e782 84bd c3a4 38be 847e 2b3c 4fb0 10be
00000050: df78 97be b7c5 2ebe 2fa9 663d a470 98be
00000060: d31b 093d f9b9 76be d47b 40be 2cd5 4fbd
00000070: bf5c 853e 7ac9 893e 7d11 993d b6ef 8ebd
00000080: 384f 463d df80 bd3d 2e37 4ebe a255 c93d
00000090: 5767 f1bd c6bd 043d 14d1 61bb 6a59 933e
000000a0: 42ca 143d 5021 fe3d 95a8 d1bd 854f 823e
000000b0: 48b2 50be 0c98 2fbe 402d dd3d d968 9b3e
000000c0: e068 22bc 1f5c 27be 0c80 e83d 6795 d0bd
000000d0: e2ed 15be 7059 4e3e 84e6 7bbe 4c1d 58be
000000e0: 9339 ce3d 026a 133e 3fa9 8abe de3b 41be
000000f0: 1cd0 6a3e 31b2 4d3c 9f8f 50be 5818 253d
00000100: e207 49bd 2136 983d 138f 043e 1497 e73d
00000110: c9af e13c 9c30 95bd 5a1f ebbd 4b79 723e
00000120: 3f84 803d 2437 56be a4d6 733e 9c0d b83c
00000130: 2a72 ad3c ec4d a3bd b552 85bc 0a96 b63d
00000140: 92d6 04be 7ddd d4bd 3c9d 143e e50f 363e
00000150: 5080 b53e 125b 283e 29a0 263e b07b e23a
00000160: 5bab 9e3e 1b77 7fbe 0910 a63e d7c5 57bd
00000170: c464 673b 9768 e63e 18a9 093e 5852 00be
00000180: fef9 af3a 87a0 f4bd b3b7 dcbd 556d b93c
00000190: c5f2 2fbe 4f6e 92be 635a 94bd 1e08 0dbe
000001a0: d260 0b3d ab80 9ebc a0ff 323e f51c e23c
000001b0: 6e0a abbd 6255 173d 04c7 5ebe 8916 9cbd
000001c0: d57b ec3d 69ca 5fbc bac9 87bd f372 0b3d
000001d0: c704 8d3e 9736 193f ffb7 dabd 2706 1abe
000001e0: ced5 b23d d60d 1e3d 0d46 88be 3005 87bd
000001f0: b2c7 793e a358 57be 28e4 bdbb 2a34 703d
00000200: fc24 f13d 11fb 6fbd 5aab ba3c 83c5 6abd
00000210: d017 e43d 0455 70bd e243 083e d46c 13be
00000220: 64e3 79bd 6fe3 11be f566 8cbd b003 0e3e
00000230: 7dfb 0e3e b202 e3bd fc68 52bc dae8 83bc
00000240: bd7c ba3d 1929 8b3e bb83 bebd 3536 34bc
00000250: 0622 e9bd cb79 8b3d 7c52 3abe 24de 853e
00000260: 6959 8dbd f8d6 ecbb d32d c23d 2c36 e6bd
00000270: bf4c 2a3d 9069 4e3d de97 223e 33e4 8abd
00000280: e9ed 5cbe fc1f 65bd 1ad1 a13d 65d7 e83d
00000290: 1f92 2bbe 1e02 8dbe ce66 8abe 5be5 ad3c
000002a0: 0d8d 2e3e ebfe 273d 4007 e1bd 6ee7 75bd
000002b0: 9d2b 58be 55b0 e23d 5d60 083e 16bb 34be
000002c0: d985 29bd 0dc8 70be 4b4a 213b 5b6a 11bd
000002d0: 738c 1cbd 0ddd 613e 19ab 023e 761f 6a3d
000002e0: fa0b 453d 2808 71bd cf67 0cbe b169 f0bc
000002f0: 4889 2ebe c42e 203d 33d1 713e 291c 163e
00000300: b766 943d b5ee 223e 1897 47bd 129e d6bb
00000310: 78a7 fc3b 0b89 8fbe 5114 18bd 6ba0 c7bc
00000320: bde9 013e 14bd 923e d1f0 173c b040 03bd
00000330: 2183 a53c 5c16 493e 341d 9a3d 8c2b d93d
00000340: 0e95 16bc ece7 81bd 3f51 853e a28b 383d
00000350: 2cef aa3d 5d74 90bc 6afc fbbd 3d4b 073f
00000360: 11ff b8bd a662 2ebe 9edb 7b3e 6b37 abbc
00000370: d27d f63d 1e7a 7cbd ab78 32be cee1 a6bd
00000380: a75b 8b3e d578 bbbc 6df6 993e 33d4 05be
00000390: cdc2 8c3d 11c7 073d a73e f7bc 6837 883e
000003a0: de94 81be a761 2c3d 8e72 c33d 8aa3 b53c
000003b0: 002b 84bd af67 72be b9c6 c23c 5132 4f3e
000003c0: 58bf 5f3d 26b9 6e3e 1862 a4bd eb58 353c
000003d0: 9356 873e 6c04 81be 4d0d 123e 5977 46bd
000003e0: 1364 d33e 7143 aa3d fa53 e2bc bdbe cb3d
000003f0: b41d 0ebe e04c 023e 55af 2b3d 09fc 393e

advantage_stream.0.bias f4 [64]
-0.09831622 0.024567911 0.054449685 -0.054721083 0.064430065 0.044555824 -0.055281725 -0.110278465
-0.012572834 -0.07281136 0.0298882 -0.037728626 -0.09682234 0.0025888204 -0.005484158 0.045954328
0.040207464 -0.08223552 0.010767411 -0.048927676 -0.03777957 -0.044586327 0.013304343 0.0440706
-0.08752734 -0.00627002 -0.0042838613 -0.0767766 -0.081328094 -0.08011915 -0.02069219 -0.058089536
-0.01971037 -0.056944173 -0.0085055465 0.085046895 -0.032357443 0.054344833 -0.041320115 0.038456537
0.025331644 0.0039387126 -0.041816544 0.03742817 -0.024512142 0.0007986771 0.035826437 0.018437946
-0.058812663 0.027365442 0.031497195 -0.032692797 0.066637225 0.02790085 0.00021603209 -0.0013036984
-0.031912904 0.010023645 0.06815805 0.065535665 0.016616667 -0.016406009 -0.0587932 0.07097963
00000000: 045a c9bd a542 c93c a206 5f3d 3723 60bd
00000010: e9f3 833d 2b80 363d 176f 62bd add9 e1bd
00000020: 4afe 4dbc 1f1e 95bd 19d8 f43c 5589 1abd
00000030: ca4a c6bd 33a9 293b 74b4 b3bb 9b3a 3c3d
00000040: 95b0 243d 196b a8bd cc69 303c 6368 48bd
00000050: c0be 1abd 27a0 36bd 76fa 593c 6083 343d
00000060: 8941 b3bd bd74 cdbb a25f 8cbb 0d3d 9dbd
00000070: 588f a6bd 8215 a4bd ab82 a9bc 4bef 6dbd
00000080: a477 a1bc 4b3e 69bd d95a 0bbc 112d ae3d
00000090: 3d89 04bd b098 5e3d 483f 29bd 9a84 1d3d
000000a0: 4f84 cf3c 5110 813b d347 2bbd 484e 193d
000000b0: b0cd c8bc 505e 513a bebe 123d 2d0b 973c
000000c0: 8ce5 70bd 7e2d e03c 3403 013d e2e8 05bd
000000d0: 1979 883d 5390 e43c ac86 6239 dce0 aaba
000000e0: 1bb7 02bd 373a 243c 7396 8b3d 9037 863d
000000f0: ad1f 883c e565 86bc 23d1 70bd c55d 913d

advantage_stream.2.weight f4 [4, 64]
0.48969486 -0.3236785 0.044786554 -0.058080018 0.09921782 -0.03234732 -0.106298484 -0.057707697
-0.10781369 0.105357856 -0.44114065 -0.32602763 0.3325025 -0.7108162 0.11948232 -0.06342875
-0.05396989 0.34315994 0.06988632 0.08858739 0.20471358 -0.006841571 0.29033417 0.3139479
0.15196511 -0.028576398 -0.42017537 0.1841554 0.39974126 0.5293045 -0.11054313 0.04142804
-0.34352234 -0.13816547 0.2603636 -0.32993528 0.38189715 0.10885525 0.079971634 0.2411393
0.50142866 0.052905913 -0.102188155 -0.06531689 -0.3612732 0.1498924 -0.30082947 0.2472668
-0.3031081 -0.19773693 -0.05518639 0.14444749 0.12521434 -0.102505736 0.15709105 0.05761994
0.0015147906 -0.09166733 -0.1122524 -0.08120721 -0.26471376 0.75178576 0.07604272 -0.55571383
0.17356959 -0.59990036 0.41634795 -0.19077775 0.06939384 0.011313242 0.3582376 0.012217569
0.2187094 -0.006221979 0.2568223 0.20426616 0.030082773 -0.0059131826 0.09909563 -0.0358655
-0.12034076 0.23175448 -0.4018615 -0.269425 0.0015810496 0.012089304 0.6251767 0.361705
0.25861028 0.24114197 0.23482953 -0.35015747 -0.11283087 0.34318188 0.19724602 -0.25800046
0.27724203 -0.09965178 0.28088513 -0.4957787 0.25608903 0.5430235 -0.12692356 0.3358355
0.08655428 0.18438053 0.22951737 0.38096136 -0.03091079 -0.09150101 -0.08018161 0.39915952
0.446179 0.031733632 0.33870038 0.033747636 -0.14506495 0.08963074 -0.0014654448 0.0738469
0.07411861 0.44130158 0.07564361 -0.15460443 0.1361041 0.21959779 0.24549253 -0.48533103
-0.27692622 -0.17553702 0.03259089 0.04751182 0.2047305 -0.06458899 0.06132955 -0.1571526
0.65346617 0.026808446 -0.079577826 0.4394549 -0.06926089 0.1586796 -0.038120843 -0.26810145
0.14118272 0.19281058 -0.4485111 0.06107638 -0.09558398 -0.31385776 -0.1860448 -0.23891889
0.117874034 0.254904 0.123560734 0.10983803 -0.20019758 -0.31481898 0.21534656 0.09206051
-0.06767894 -0.09722539 -0.456813 0.4900983 -0.14172263 -0.40286532 -0.06118612 -0.29375485
0.20983613 -0.39380896 -0.014778103 -0.020999158 0.38969812 -0.026934788 0.60989857 -0.42035195
0.17208709 0.081793815 -0.2683579 -0.15437977 0.0903556 -0.17283313 -0.08045608 -0.40053055
0.21582362 0.41169778 -0.005190057 0.19065177 0.14578784 0.30526847 -0.20634185 0.6442857
-0.09440753 -0.15875426 0.18368466 -0.24481945 0.124443606 -0.03917383 -0.067468576 -0.115676135
0.120582804 -0.15781522 0.12899174 0.45712912 0.30635577 0.38845208 -0.3764437 0.08234172
-0.17122698 -0.06394332 -0.10546715 0.038261164 0.040288493 0.00034288748 -0.41802898 -0.10116091
-0.128735 0.30551252 0.19268736 -0.14364803 0.09128949 -0.12476314 -0.31847477 -0.08778793
0.27960607 -0.022408172 -0.37394592 0.5813738 -0.13911223 -0.23384692 0.16020586 -0.048593774
-0.13716803 0.037102174 0.029488774 0.07403731 0.3481379 0.33662254 0.3517019 -0.20953155
0.37560645 -0.0403646 -0.06899203 -0.023857756 -0.2934838 0.19103171 0.0038619451 0.19120602
0.10509249 -0.017647445 0.37309194 0.17279096 -0.19156434 -0.2275583 -0.13706023 0.50874656
00000000: 49b9 fa3e 30b9 a5be 1b72 373d 50e5 6dbd
00000010: b632 cb3d a07e 04bd 05b3 d9bd e85e 6cbd
00000020: 6dcd dcbd dcc5 d73d 30dd e1be 18ed a6be
00000030: c53d aa3e 0df8 35bf 26b3 f43d efe6 81bd
00000040: 880f 5dbd a9b2 af3e 8f20 8f3d 4e6d b53d
00000050: 70a0 513e 422f e0bb aea6 943e c7bd a03e
00000060: be9c 1b3e 0d19 eabc 3a21 d7be 3c93 3c3e
00000070: e3aa cc3e 8080 073f 7064 e2bd 73b0 293d
00000080: 29e2 afbe 407b 0dbe 614e 853e 47ed a8be
00000090: 0688 c33e 80ef de3d 2bc8 a33d 38ed 763e
000000a0: a15d 003f dfb3 583d 0648 d1bd ddc4 85bd
000000b0: cdf8 b8be 657d 193e 5206 9abe 8233 7d3e
000000c0: fc30 9bbe 8d7b 4abe 200b 62bd 0bea 133e
000000d0: 3038 003e 87ee d1bd 7adc 203e e302 6c3d
000000e0: f08b c63a 15bc bbbd 96e4 e5bd f74f a6bd
000000f0: 9088 87be 0875 403f 49bc 9b3d 4343 0ebf
00000100: 3abc 313e 1293 19bf 8f2b d53e 3e5b 43be
00000110: 5c1e 8e3d 2d5b 393c eb6a b73e 332c 483c
00000120: 5bf5 5f3e bee1 cbbb 367e 833e 262b 513e
00000130: 2670 f63c 5fc3 c1bb a6f2 ca3d b4e7 12bd
00000140: 3775 f6bd 0c51 6d3e cac0 cdbe 13f2 89be
00000150: 393b cf3a 3712 463c 950b 203f 6631 b93e
00000160: 9168 843e eced 763e 2777 703e d747 b3be
00000170: df13 e7bd 89b5 af3e dcfa 493e a318 84be
00000180: abf2 8d3e 3c16 ccbd 2dd0 8f3e b5d6 fdbe
00000190: 1a1e 833e 9703 0b3f 40f8 01be a1f2 ab3e
000001a0: 5f43 b13d 40ce 3c3e 9a06 6b3e 5e0d c33e
000001b0: a038 fdbc e264 bbbd 4236 a4bd a35e cc3e
000001c0: 9371 e43e 20fb 013d 236a ad3e f63a 0a3d
000001d0: e88b 14be 5290 b73d 2b14 c0ba 0b3d 973d
000001e0: 7fcb 973d 48f2 e13e 09eb 9a3d a050 1ebe
000001f0: e05e 0b3e 3ede 603e 6562 7b3e 4f7d f8be
00000200: 46c9 8dbe fabf 33be 067e 053d c19b 423d
00000210: dfa4 513e 3b47 84bd b234 7b3d 9cec 20be
00000220: 8f49 273f 639d db3c b3f9 a2bd 3c00 e13e
00000230: a7d8 8dbd e87c 223e 9a24 1cbd 9844 89be
00000240: 3492 103e 2370 453e 3fa3 e5be 3a2b 7a3d
00000250: 89c1 c3bd f7b1 a0be 8782 3ebe 27a7 74be
00000260: f167 f13d c782 823e 690d fd3d c3f2 e03d
00000270: 9800 4dbe f42f a1be cf83 5c3e 388a bc3d
00000280: 429b 8abd 1b1e c7bd 65e3 e9be 2aee fa3e
00000290: bd1f 11be 5d44 cebe 4c9e 7abd 0967 96be
000002a0: 48df 563e 54a1 c9be db1f 72bc 6d06 acbc
000002b0: 8386 c73e 58a6 dcbc 5022 1c3f 5f38 d7be
000002c0: 9937 303e 8483 a73d 3566 89be bb15 1ebe
000002d0: 5b0c b93d 2bfb 30be 28c6 a4bd 5712 cdbe
000002e0: de00 5d3e 0dca d23e 5b11 aabb 383a 433e
000002f0: 6849 153e 264c 9c3e 474b 53be e8ef 243f
00000300: bc58 c1bd 7a90 22be d517 3c3e f3b1 7abe
00000310: 4adc fe3d bd74 20bd f72c 8abd 9ce7 ecbd
00000320: 1ef4 f63d 509a 21be 6916 043e d40c ea3e
00000330: aada 9c3e 31e3 c63e 3bbd c0be c7a2 a83d
00000340: 2056 2fbe b7f4 82bd 29ff d7bd bdb7 1c3d
00000350: 8c05 253d 94c5 b339 e507 d6be 742d cfbd
00000360: 1cd3 03be 236c 9c3e d64f 453e 7818 13be
00000370: fcf5 ba3d d183 ffbd 200f a3be 29ca b3bd
00000380: 8728 8f3e 5891 b7bc d775 bfbe ead4 143f
00000390: 7073 0ebe 9175 6fbe 010d 243e 440a 47bd
000003a0: c775 0cbe 73f8 173d 7192 f13c e0a0 973d
000003b0: 213f b23e ca59 ac3e 4512 b43e 708f 56be
000003c0: 7d4f c03e 5a55 25bd b24b 8dbd 5771 c3bc
000003d0: 8243 96be d19d 433e b018 7d3b 83cb 433e
000003e0: bb3a d73d 6091 90bc e805 bf3e 1df0 303e
000003f0: 7129 44be 0b05 69be 8459 0cbe 373d 023f

advantage_stream.2.bias f4 [4]
0.10535357 0.046627734 0.119922884 -0.11991604
00000000: 9dc3 d73d b9fc 3e3d 219a f53d 8a96 f5bd

feature_layers.0.weight f4 [128, 24]
0.031983074 -0.5814482 -0.12316415 -0.08837913 -0.2252971 0.34543836 -0.23233661 0.033311017
-0.17719059 -0.026370393 -0.30574605 0.16682465 -0.15376708 0.29269952 0.09863045 0.2615994
-0.33402124 -0.24951427 -0.8824715 0.1820021 0.14604023 -0.20213401 -0.4801775 -0.27884632
-0.4855284 -0.5071431 0.021023361 -0.32223612 -0.3369455 0.5035955 -0.3177143 0.028353604
0.08884378 -0.4176087 0.12807749 0.4109742 0.17818044 -0.4411475 0.12361799 -0.20014934
0.06722978 -0.27134335 -0.21800968 -0.109665684 0.26188722 0.3345396 0.16912004 0.58894724
-0.5928839 0.56372726 -0.32898778 0.061884057 0.07928035 0.21772568 -0.07564979 -0.020955062
-0.34305245 -0.21489015 0.47171077 0.06948261 -0.038608443 -0.33510888 -0.20109539 0.6739625
-0.11537858 0.5138477 0.076556794 -0.5317667 0.33604404 0.5523731 -0.4677386 -0.09450266
-0.20139417 0.04164043 0.057963423 0.05893778 -0.48035046 -0.13727368 0.061669163 -0.3565678
-0.24251224 0.055230364 0.17790398 -0.54553896 -0.29694256 0.1429714 0.08559408 -0.03663078
-0.43165702 -0.8309019 0.16002724 0.057258934 0.14635244 0.24699631 0.08154182 0.2173508
0.024311475 0.041214325 0.063102566 -0.0020033868 0.14687274 0.0649675 -0.10668429 0.3186412
-0.050571047 0.34325323 -0.37656528 0.114506766 0.4029919 -0.036320243 -0.033785067 -0.08221058
-0.8149211 -0.029658062 -0.13539378 0.3135282 0.10165851 -0.07265183 0.5040139 -0.40445217
0.010829016 -0.07010486 -0.32369587 -0.04037149 0.069579564 -0.01851653 -0.22782074 0.06819831
-0.5795661 -0.38987714 -0.2841828 -0.031776678 0.18881734 -0.4131918 0.07975607 0.5417949
-0.036615558 0.21563847 0.6710077 0.11667146 -0.029872581 0.483491 -0.08495781 0.40807137
0.29363018 -0.053897664 0.23285888 -0.50473785 -0.16232608 -0.11578341 0.29239795 -0.22239606
-0.03860021 -0.02397827 -0.15324132 0.36224657 -0.023908282 -0.25773928 0.39987272 0.4168012
0.13624634 0.20999528 -0.1746934 0.33329827 -0.5902335 0.3627466 0.82082313 -0.19548105
-0.5252868 0.4607451 -0.39568305 -0.12761046 -0.123603106 -0.117503144 0.12485792 0.080586575
-0.09990428 0.41482863 0.2965435 0.59129447 -0.121152446 -0.31365582 0.116423756 -0.12235285
-0.6626457 0.23577388 -0.021069175 0.024187109 -0.09805391 -0.30402955 0.2143689 -0.003971915
0.20962289 -0.21626818 0.31013197 0.16077566 -0.10513714 0.11557379 0.1524806 -0.53721946
-0.22162168 -0.048518687 0.28063738 0.032689013 0.27468982 0.11230386 0.4012739 0.20095356
-0.16573524 -0.023800008 0.42856154 0.4691029 -0.33092317 -0.14962824 0.51824987 0.13126928
0.011345602 -0.32673076 0.0787957 -0.5308455 -0.37799087 -0.46975094 0.30353832 -0.22830844
0.04768184 -0.14742772 -0.08913784 -0.0053678392 -0.62135947 0.19827381 -0.63041204 -0.005164149
-0.4651513 0.23046027 -0.2562413 -0.47140962 -0.2638812 -0.15622516 0.24729186 0.48719096
0.1868151 -0.44006813 0.48128468 -0.48416758 -0.03314467 0.10572399 -0.2126916 -0.16207278
-0.3047291 0.14684546 0.011650524 -0.11642182 -0.25877884 0.08623605 -0.21764107 0.44704136
00000000: af00 033d cad9 14bf 7c3d fcbd 1e00 b5bd
00000010: 48b4 66be 4cdd b03e a6e9 6dbe 2271 083d
00000020: 7371 35be b906 d8bc bf8a 9cbe 15d4 2a3e
00000030: 1e75 1dbe b6dc 953e c3fe c93d 5bf0 853e
00000040: d504 abbe ab80 7fbe a7e9 61bf c25e 3a3e
00000050: 928b 153e 38fc 4ebe d3d9 f5be f2c4 8ebe
00000060: 2e97 f8be 21d4 01bf 2f39 ac3c 22fc a4be
00000070: 1f84 acbe a2eb 003f 73ab a2be d145 e83c
00000080: baf3 b53d cfd0 d5be bf26 033e 366b d23e
00000090: ef74 363e 16de e1be 6e2b fd3d f3f3 4cbe
000000a0: c4af 893d 84ed 8abe ee3d 5fbe 6798 e0bd
000000b0: 1516 863e c648 ab3e ce2d 2d3e 3fc5 163f
000000c0: 3dc7 17bf 6e50 103f 1671 a8be 237a 7d3d
000000d0: bc5d a23d 7bf3 5e3e 47ee 9abd f3a9 abbc
000000e0: 92a4 afbe 2a0c 5cbe 1384 f13e e64c 8e3d
000000f0: e323 1ebd 6493 abbe f3eb 4dbe ce88 2c3f
00000100: 9b4b ecbd 868b 033f cfc9 9c3d dd21 08bf
00000110: f70d ac3e 5368 0d3f 6f7b efbe 9c8a c1bd
00000120: 463a 4ebe 288f 2a3d 0e6b 6d3d be68 713d
00000130: 7ff0 f5be 7991 0cbe ce98 7c3d 0e90 b6be
00000140: 2155 78be 3c39 623d 762c 363e 71a8 0bbf
00000150: db08 98be 1867 123e f34b af3d 280a 16bd
00000160: 2602 ddbe fdb5 54bf 2ede 233e 5888 6a3d
00000170: 6add 153e 9aec 7c3e 66ff a63d 3591 5e3e
00000180: dc28 c73c 5ad0 283d eb3b 813d 414b 03bb
00000190: cf65 163e ae0d 853d 4b7d dabd f024 a33e
000001a0: 9623 4fbd e3be af3e 2acd c0be 8682 ea3d
000001b0: f454 ce3e 89c4 14bd 3662 0abd 055e a8bd
000001c0: ab9e 50bf 77f5 f2bc aba4 0abe c586 a03e
000001d0: 5632 d03d 7cca 94bd 0e07 013f 5b14 cfbe
000001e0: 2f6c 313c 2393 8fbd 77bb a5be 935c 25bd
000001f0: bb7f 8e3d faaf 97bc d749 69be 8eab 8b3d
00000200: 725e 14bf fa9d c7be 6880 91be 4328 02bd
00000210: 5559 413e e08d d3be 2757 a33d 12b3 0a3f
00000220: 32fa 15bd 55d0 5c3e 29c7 2b3f 72f1 ee3d
00000230: 58b7 f4bc 228c f73e 5cfe adbd bbee d03e
00000240: b256 963e ccc3 5cbd 8f72 6e3e 8036 01bf
00000250: cf38 26be da1f edbd 2fb5 953e cbbb 63be
00000260: 411b 1ebd 146e c4bc 4beb 1cbe 6278 b93e
00000270: 4ddb c3bc 67f6 83be 1ebc cc3e f866 d53e
00000280: 2984 0b3e 0109 573e d4e2 32be 12a6 aa3e
00000290: 8b19 17bf ecb9 b93e 7721 523f 2f2c 48be
000002a0: 3279 06bf c8e6 eb3e f896 cabe 51ac 02be
000002b0: a023 fdbd 7da5 f0bd 82b5 ff3d 930a a53d
000002c0: 9d9a ccbd 6b64 d43e 8dd4 973e 135f 173f
000002d0: c61e f8bd 7f97 a0be 946f ee3d 2294 fabd
000002e0: 26a3 29bf b56e 713e 4399 acbc 0b24 c63c
000002f0: 7dd0 c8bd c3a9 9bbe 8583 5b3e d726 82bb
00000300: 62a7 563e 6875 5dbe 9ec9 9e3e 60a2 243e
00000310: 2452 d7bd f4b1 ec3d e023 1c3e 3787 09bf
00000320: cbf0 62be 88bb 46bd b4af 8f3e eae4 053d
00000330: 25a4 8c3e 91ff e53d c673 cd3e c5c6 4d3e
00000340: 80b6 29be 3cf8 c2bc 6b6c db3e 412e f03e
00000350: c36e a9be 2538 19be 06ac 043f 746b 063e
00000360: e7e2 393c 4149 a7be a45f a13d 7ee5 07bf
00000370: 0588 c1be 3283 f0be 6069 9b3e b0c9 69be
00000380: 084e 433d 4bf7 16be e68d b6bd b3e4 afbb
00000390: 6a11 1fbf 4a08 4b3e af62 21bf 0638 a9bb
000003a0: 5028 eebe c7fd 6b3e 0f32 83be 9a5c f1be
000003b0: 701b 87be 7df9 1fbe 143a 7d3e 1871 f93e
000003c0: 754c 3f3e 9c50 e1be f26a f63e d0e4 f7be
000003d0: b5c2 07bd d285 d83d d4cb 59be 68f6 25be
000003e0: 7405 9cbe a85e 163e d7e1 3e3c 906e eebd
000003f0: a97e 84be 879c b03d 4ddd 5ebe 9be2 e43e
