models/snake_dqn_ep306_score12_20250303_093911.pt (torch, 746786 bytes, 44 tensors)

feature_layers.0.weight f4 [128, 24]
-0.24617736 0.2483879 -0.2893774 0.15389532 0.52351624 -0.66504973 -0.12767996 -0.3575347
-0.07123967 -0.11675342 -0.023672849 -0.28239062 0.26611447 -0.06122185 -0.32348254 0.50897557
-0.4409612 0.74508923 0.52325726 -0.38043055 0.5629614 -0.08544636 0.39098394 0.22441787
-0.041687895 0.050730575 -0.111658946 -0.28469837 -0.32342285 -0.43243167 0.30695054 -0.1255243
-0.2637911 0.071682565 -0.017414836 0.63047385 -0.024352986 0.19066845 0.00143858 0.0051545026
0.21981832 0.72220904 0.09561296 0.00890866 0.007818713 0.078869715 0.59192777 -0.04135441
-0.20409715 -0.37060666 0.09423184 -0.20944586 -0.11090075 -0.3147928 0.18010148 0.28175923
-0.26567417 -0.38391066 -0.18676728 -0.5013274 0.10847436 -0.31233716 0.39779627 0.10093569
-0.46306163 -0.10053765 -0.37196442 -0.29119346 -0.14021839 0.070387594 0.4761176 0.03971163
0.12812407 0.32583973 0.8456665 0.503893 0.15320718 0.32842383 0.07537834 0.25955772
0.28347325 0.27474743 0.15084042 0.83006537 0.17750932 0.13884044 -0.6705144 0.32582697
-0.0031932986 0.09356291 0.12291282 -0.41517264 0.43659917 -0.1745334 0.56021065 -0.20008563
0.0031569698 0.8363158 -0.1568893 -0.28992227 0.2711773 0.18397942 -0.44276628 -0.05208733
-0.15331526 0.43933463 0.25533456 0.19316204 -0.5237524 -0.42886415 -0.40907487 -0.1221974
-0.6058402 0.35239378 0.559426 0.30547205 0.44610605 0.19478095 -0.073546 -0.1460591
0.07413222 0.093249895 -0.1919859 0.17803207 -0.12484031 0.29876235 -0.034838792 -0.049268294
0.27762362 0.15021224 -0.15818654 -0.08443916 -0.5331293 -0.027305221 -0.362716 0.7799426
-0.39313936 0.23119438 -0.148632 0.0641066 0.4281584 -0.14713566 0.31080592 -0.1392036
-0.20850585 0.06813464 -0.27339378 -0.24976122 0.17234911 0.43960682 -0.4590404 0.04454724
0.3141067 0.15753508 0.015876051 0.06361972 0.21276094 0.049786963 -0.34516063 -0.060218237
-0.17514971 -0.1263886 -0.40724266 0.3229214 0.07106382 0.50997365 -0.531185 0.36573836
-0.015405022 -0.0011107357 -0.04060618 -0.056961715 -0.27941746 -0.2100761 0.34642497 0.25195825
0.4891117 -0.09467892 0.022639658 0.25676733 -0.23026794 -0.21489048 -0.43498832 0.20504749
0.4083281 0.22135042 0.0034111592 -0.10638133 0.2229812 -0.035445746 0.31363174 0.56836843
-0.030759854 -0.14993185 -0.19163278 0.3029609 -0.0658042 0.051257744 -0.13343886 -0.043099053
-0.12898059 0.19530451 0.19176131 0.48031414 -0.3096751 0.23241776 -0.20258223 0.027472913
0.12730123 0.27781647 -0.14297041 -0.34882563 -0.5318599 0.4626692 -0.1115523 0.19350938
0.36102536 -0.22399545 -0.033153187 0.2762044 0.2070232 -0.20897649 0.2072517 -0.17172456
-0.42488617 -0.27555782 0.47681788 -0.2183036 -0.08011043 0.16171363 -0.25646067 -0.2451426
-0.1022106 -0.47068527 0.020915648 -0.048173472 -0.16697389 0.42986417 -0.37439167 0.0015768004
0.23504384 0.20975477 0.19685884 -0.22021154 -0.16875622 0.055070147 -0.06315207 -0.22345346
0.11186135 0.34467387 -0.13883439 0.5324207 -0.621439 -0.030148678 -0.34479818 -0.22600032
00000000: eb15 7cbe 6659 7e3e 4629 94be bc96 1d3e
00000010: 2905 063f b340 2abf 89be 02be ca0e b7be
00000020: 1be6 91bd 6b1c efbd 90ed c1bc 8195 90be
00000030: 2840 883e c3c3 7abd 819f a5be 394c 023f
00000040: abc5 e1be 2bbe 3e3f 30f4 053f cbc7 c2be
00000050: 3d1e 103f 80fe aebd 0c2f c83e cccd 653e
00000060: edc0 2abd ddca 4f3d 72ad e4bd fcc3 91be
00000070: ae97 a5be af67 ddbe 9f28 9d3e 7189 00be
00000080: a10f 87be 4fce 923d 8fa9 8ebc bc66 213f
00000090: ea7f c7bc 973e 433e bc8e bc3a 1ae7 a83b
000000a0: 0e18 613e b1e2 383f bad0 c33d a1f5 113c
000000b0: 0f1a 003c 7286 a13d 9488 173f 3e63 29bd
000000c0: d8fe 50be 28c0 bdbe 9ffc c03d fa78 56be
000000d0: ef1f e3bd 862c a1be 866c 383e bf42 903e
000000e0: 7206 88be f08f c4be ec3f 3fbe fe56 00bf
000000f0: ce27 de3d a8ea 9fbe f4ab cb3e 5fb7 ce3d
00000100: 6a16 edbe afe6 cdbd 1f72 bebe 4f17 95be
00000110: 6995 0fbe 5f27 903d b0c5 f33e aaa8 223d
00000120: f532 033e 77d4 a63e 9a7d 583f 22ff 003f
00000130: 58e2 1c3e 2b27 a83e f65f 9a3d c0e4 843e
00000140: 6823 913e b2ab 8c3e e975 1a3e 2a7f 543f
00000150: 01c5 353e 302c 0e3e d5a6 2bbf cbd2 a63e
00000160: a946 51bb e99d bf3d b7b9 fb3d 8291 d4be
00000170: ed89 df3e e2b8 32be f769 0f3f 3fe3 4cbe
00000180: 2ae5 4e3b cb18 563f 97a7 20be b170 94be
00000190: c0d7 8a3e 1a65 3c3e 43b2 e2be 8659 55bd
000001a0: adfe 1cbe 78f0 e03e 36bb 823e 45cc 453e
000001b0: a314 06bf 1594 dbbe 4372 d1be a142 fabd
000001c0: 5818 1bbf f56c b43e 8b36 0f3f d566 9c3e
000001d0: 0368 e43e a874 473e 499f 96bd 8490 15be
000001e0: a2d2 973d cdf9 be3d f497 44be 0a4e 363e
000001f0: 47ac ffbd 61f7 983e 1fb3 0ebd 8dcd 49bd
00000200: af24 8e3e 3dd1 193e a7fb 21be 70ee acbd
00000210: 297b 08bf 33af dfbc e9b5 b9be 51aa 473f
00000220: 9049 c9be 38be 6c3e fd32 18be 524a 833d
00000230: 9437 db3e bbaa 16be f421 9f3e 638b 0ebe
00000240: 8f82 55be 2d8a 8b3d 45fa 8bbe 68c1 7fbe
00000250: 497c 303e 2514 e13e 5807 ebbe 2b77 363d
00000260: 98d2 a03e e050 213e 7e0e 823c 0e4b 823d
00000270: 01de 593e 6aed 4b3d e5b8 b0be 66a7 76bd
00000280: 725a 33be 036c 01be 1c82 d0be f455 a53e
00000290: e889 913d a28d 023f bdfb 07bf 0f42 bb3e
000002a0: 5865 7cbc 1b96 91ba aa52 26bd b050 69bd
000002b0: ce0f 8fbe 301e 57be 9d5e b13e ac00 813e
000002c0: d96c fa3e 06e7 c1bd ce76 b93c 0277 833e
000002d0: 5ccb 6bbe 400c 5cbe cab6 debe f8f7 513e
000002e0: 6110 d13e afa9 623e c18d 5f3b 74de d9bd
000002f0: 2f55 643e 8f2f 11bd 5794 a03e 9880 113f
00000300: 17fc fbbc bc87 19be 623b 44be b11d 9b3e
00000310: 5ac4 86bd a4f3 513d 32a4 08be a288 30bd
00000320: 7d13 04be e8fd 473e 145d 443e bceb f53e
00000330: bc8d 9ebe ecfe 6d3e b771 4fbe e00e e13c
00000340: 415b 023e f63d 8e3e d666 12be 4699 b2be
00000350: f827 08bf fae2 ec3e 8875 e4bd 5327 463e
00000360: 51d8 b83e 105f 65be a3cb 07bd aa6a 8d3e
00000370: e4fd 533e effd 55be ca39 543e 90d8 2fbe
00000380: ae8a d9be ea15 8dbe 7921 f43e fb8a 5fbe
00000390: f010 a4bd 4298 253e d04e 83be a906 7bbe
000003a0: cb53 d1bd a9fd f0be 4b57 ab3c 8c51 45bd
000003b0: 34fb 2abe 2817 dc3e 44b0 bfbe a4ac ce3a
000003c0: 55af 703e f4c9 563e 5d95 493e 227f 61be
000003d0: 6ece 2cbe 3c91 613d df55 81bd fcd0 64be
000003e0: 9017 e53d 1879 b03e 9a2a 0ebe b94c 083f
000003f0: a016 1fbf 5cfa f6bc 6389 b0be a16c 67be

feature_layers.0.bias f4 [128]
-0.18400757 -0.17018889 -0.013851075 0.21605961 0.17583294 -0.034733664 0.21526194 0.24492162
0.29147863 0.24875887 0.20241232 -0.07150549 0.32120228 0.03131891 -0.024620378 0.07690857
0.047998924 0.08669584 -0.0711016 -0.16172144 0.104295194 -0.08916799 0.27499786 -0.168692
-0.15907125 0.023877308 -0.10475096 0.11328838 0.1493632 0.3498712 -0.07620931 -0.26610398
0.0027257565 -0.071932904 0.022266114 0.17524803 -0.0443104 -0.033079173 -0.21489213 0.25599763
0.05950408 -0.09656296 -0.23904699 0.3371253 -0.2064202 0.017242102 -0.24011771 -0.059136618
-0.17293829 -0.17357852 0.08305035 -0.09279976 0.006965978 0.02330742 0.053684525 -0.03337571
-0.18450348 -0.18475263 -0.048906714 0.2591799 -0.08341085 -0.015063948 -0.17222065 0.20451456
-0.0618311 -0.05752091 -0.054745615 0.25229594 0.083872035 0.22675253 -0.03816135 0.08568026
0.25959274 0.26835915 0.17447159 0.22036105 -0.13196424 0.20206644 -0.25483146 -0.20255266
-0.2167658 -0.006408552 0.015859026 -0.17723441 0.007533912 0.24690749 -0.048645142 0.14357966
0.03317401 -0.25040245 -0.10726787 0.26964346 0.05859534 0.047371518 0.09397601 0.047460735
0.11682473 -0.17153616 -0.031087805 0.010468507 -0.11530655 0.26125047 0.13439897 -0.025975104
-0.06572781 -0.1887172 0.28998807 0.05889119 -0.018855637 -0.31704763 -0.05401944 -0.12511949
-0.07894142 -0.053942017 0.06290832 0.17321551 -0.30770072 -0.25468013 0.2754531 0.12590617
-0.22004402 0.09744696 -0.1945469 0.11799997 0.049067568 -0.13245448 -0.0015065153 -0.060260836
00000000: 7b6c 3cbe ff45 2ebe 9fef 62bc bb3e 5d3e
00000010: 8d0d 343e e344 0ebd a06d 5c3e bccc 7a3e
00000020: b03c 953e a5ba 7e3e 2d45 4f3e 7871 92bd
00000030: a074 a43e 4248 003d adb0 c9bc 3e82 9d3d
00000040: 859a 443d 978d b13d b79d 91bd 4e9a 25be
00000050: b898 d53d b59d b6bd 85cc 8c3e 98bd 2cbe
00000060: 93e3 22be 589a c33c ac87 d6bd bd03 e83d
00000070: abf2 183e 5122 b33e a013 9cbd c83e 88be
00000080: 9ba2 323b 8f51 93bd 6d67 b63c 3874 333e
00000090: d27e 35bd 077e 07bd af0c 5cbe 1f12 833e
000000a0: 8dba 733d cdc2 c5bd bcc8 74be b09b ac3e
000000b0: d15f 53be 4f3f 8d3c 6be1 75be 3d39 72bd
000000c0: bc16 31be 91be 31be 4d16 aa3d cd0d bebd
000000d0: dc42 e43b 34ef be3c 4ee4 5b3d f8b4 08bd
000000e0: 7bee 3cbe cb2f 3dbe 6852 48bd 3ab3 843e
000000f0: 4fd3 aabd c7ce 76bc 9c5a 30be 446c 513e
00000100: 9c42 7dbd 0c9b 6bbd f03c 60bd ef2c 813e
00000110: 1ac5 ab3d d131 683e 134f 1cbd 2279 af3d
00000120: 57e9 843e 5f66 893e aea8 323e 54a6 613e
00000130: a221 07be 81ea 4e3e 4579 82be f769 4fbe
00000140: dbf7 5dbe d5fe d1bb caea 813c f07c 35be
00000150: 09df f63b 51d5 7c3e 2140 47bd 8c06 133e
00000160: 79e1 073d c034 80be 42af dbbd b50e 8a3e
00000170: ab01 703d a308 423d 7f76 c03d 3066 423d
00000180: ce41 ef3d 2da7 2fbe daab febc 1a84 2b3c
00000190: d725 ecbd 9fc2 853e e29f 093e bec9 d4bc
000001a0: 4d9c 86bd 153f 41be 5179 943e e337 713d
000001b0: 2377 9abc 1154 a2be 7d43 5dbd 531f 00be
000001c0: 0aac a1bd 4ef2 5cbd 14d6 803d 685f 313e
000001d0: f38a 9dbe 6f65 82be 3008 8d3e 8ced 003e
000001e0: 3853 61be 4692 c73d 4d37 47be f8a9 f13d
000001f0: 13fb 483d 26a2 07be 4476 c5ba 11d4 76bd

feature_layers.1.weight f4 [128, 128]
-0.08703498 0.0965453 0.07636015 -0.1584203 0.015113312 -0.2078371 0.13223888 0.101628415
0.018147383 0.10156741 0.20755515 0.3446469 0.20738037 0.04701512 0.039569955 -0.17518519
0.287954 0.0988835 0.10214235 -0.051778167 0.029020635 -0.30969766 0.049189623 -0.3328973
-0.018324008 -0.115372345 -0.07434476 0.17418818 0.13190562 -0.00037308413 -0.03569231 -0.18181732
0.057320528 -0.028180493 -0.14471996 0.16744658 -0.13403207 -0.086911745 -0.05241633 0.16754705
-0.2024511 0.10575429 -0.3070227 0.015797893 -0.07896059 -0.14608103 0.16504635 0.23497225
0.024726119 -0.34728354 -0.20585914 0.0062192646 -0.03279902 -0.018050764 0.18720467 -0.025141155
0.028475985 -0.09706178 -0.23560138 0.15133189 -0.043342087 0.07138904 -0.058101736 0.039894193
-0.13254558 -0.018333904 0.0060243104 0.10980316 0.13519542 0.04973488 0.0003524932 0.11286468
0.21496484 0.015620703 0.003804991 0.27303728 -0.034620315 0.14291048 0.35102654 0.085482106
-0.1874704 -0.029105218 -0.014380423 0.07361747 -0.17282619 -0.044392187 0.088572286 -0.12637147
0.05601152 -0.35247803 0.21602915 0.06539951 -0.13158356 -0.011692077 0.03136001 -0.0033473736
-0.053662844 0.103599645 -0.23890488 0.119521 -0.036674146 0.18949555 -0.121190906 -0.13885453
0.00013282873 0.0031567044 0.22329722 -0.006518957 -0.06344846 -0.1546941 0.2869014 -0.10668663
0.120552704 -0.14522682 0.13304682 0.13720763 -0.29817554 0.11713963 0.012867543 0.18280502
0.103573196 -0.1949164 0.00892269 -0.06443331 0.10748778 -0.10706107 -0.017498087 -0.19939913
-0.10046993 0.1413074 0.083427526 -0.069759324 0.14480205 -0.07458754 -0.033623498 -0.0030880363
-0.068495646 0.0768784 0.15114771 -0.12292682 0.24706718 -0.12379881 -0.09262705 -0.09003741
0.07991521 0.0799757 -0.03669816 -0.10868581 -0.11804092 0.054324035 -0.14162852 0.0037519957
-0.056725573 0.21721812 -0.23551358 -0.18793489 0.02929927 0.08467507 -0.019360542 0.048570335
0.05474098 0.08152319 -0.20024252 -0.0019686215 0.15579903 0.14455077 0.06594612 0.10081885
-0.056027286 -0.08382221 -0.22430098 0.04459454 -0.09402353 -0.22468574 0.029587612 0.028969256
0.06560796 -0.11568786 0.037471678 -0.021820541 -0.24143717 0.1950026 0.23315386 -0.08941473
0.064118475 -0.10781948 -0.20479086 0.20021509 0.072097264 -0.068448536 -0.18338743 0.18989034
0.25784522 -0.103420004 -0.117623664 -0.086535744 0.039009944 -0.02926612 -0.17880492 0.029018745
0.08916418 0.1609201 -0.057830326 0.22421767 -0.05261581 0.0066544125 -0.08629586 0.039296594
0.16548657 -0.020778874 -0.08715325 0.51088154 -0.21667343 -0.017859539 -0.19806878 0.12622271
-0.145123 -0.1465419 -0.13791534 0.06828849 -0.17999195 0.124699965 -0.124240816 0.022793723
-0.003049812 -0.0259451 -0.072314925 -0.058710184 -0.10387863 0.18709323 -0.21383499 0.16555478
-0.27425027 -0.08806448 0.18360831 -0.016817128 -0.027963234 -0.052684892 -0.015798075 -0.011934332
0.23804535 0.014898847 -0.20991777 -0.114700265 -0.06659373 -0.04829838 -0.0026991202 0.123352
-0.13061957 0.1586101 0.14814398 0.14651035 -0.0063004536 0.0040102755 -0.12773986 -0.11181618
00000000: 653f b2bd 8bb9 c53d b662 9c3d ee38 22be
00000010: d39d 773c 40d3 54be a169 073e 8f22 d03d
00000020: d2a9 943c 9302 d03d 5689 543e 8f75 b03e
00000030: 855b 543e ed92 403d 1b14 223d bf63 33be
00000040: b56e 933e 6f83 ca3d 0230 d13d 5815 54bd
00000050: afbc ed3c b190 9ebe 0f7b 493d 8471 aabe
00000060: 3b1c 96bc 5648 ecbd 1142 98bd 635e 323e
00000070: 4412 073e 819a c3b9 1a32 12bd 522e 3abe
00000080: eec8 6a3d c7da e6bc 7831 14be 1e77 2b3e
00000090: b43f 09be c9fe b1bd 81b2 56bd 7491 2b3e
000000a0: 574f 4fbe b595 d83d 1432 9dbe 956a 813c
000000b0: 17b6 a1bd 4496 15be e901 293e 919c 703e
000000c0: 6e8e ca3c 26cf b1be bdcc 52be f9ca cb3b
000000d0: 4458 06bd 32df 93bc 95b2 3f3e d3f4 cdbc
000000e0: 7846 e93c 54c8 c6bd 7d41 71be bff6 1a3e
000000f0: 7987 31bd 6b34 923d 16fc 6dbd 1868 233d
00000100: 07ba 07be fc30 96bc 9467 c53b 7be0 e03d
00000110: ab70 0a3e cdb6 4b3d d6ce b839 9925 e73d
00000120: be1f 5c3e faed 7f3c 285d 793b 8bcb 8b3e
00000130: 08ce 0dbd 2057 123e c0b9 b33e 3e11 af3d
00000140: 3ef8 3fbe 116e eebc de9b 6bbc c2c4 963d
00000150: 59f9 30be 95d4 35bd 6365 b53d 8667 01be
00000160: 566c 653d 0078 b4be bf36 5d3e 2ef0 853d
00000170: d7bd 06be 2090 3fbc 5b73 003d 9c5f 5bbb
00000180: 92cd 5bbd 0d2c d43d 7ba3 74be 6dc7 f43d
00000190: a137 16bd 1f0b 423e f032 f8bd e22f 0ebe
000001a0: f147 0b39 b6e0 4e3b 07a8 643e fa9c d5bb
000001b0: 44f1 81bd 2168 1ebe bee4 923e 857e dabd
000001c0: 56e4 f63d 57b6 14be 6d3d 083e 2880 0c3e
000001d0: 77aa 98be e7e6 ef3d 63d2 523c 3d31 3b3e
000001e0: 2f1e d43d 2a98 47be 7930 123c 9cf5 83bd
000001f0: 8e22 dc3d d642 dbbd 2658 8fbc 492f 4cbe
00000200: 2ec3 cdbd e3b2 103e 0ddc aa3d fadd 8ebd
00000210: fd46 143e 5ac1 98bd cbb8 09bd a760 4abb
00000220: 7247 8cbd 6c72 9d3d 77c6 1a3e 0ec1 fbbd
00000230: 2eff 7c3e 3b8a fdbd 40b3 bdbd 8965 b8bd
00000240: 96aa a33d 4dca a33d cf50 16bd aa96 debd
00000250: 70bf f1bd e182 5e3d 1107 11be 0be4 753b
00000260: 1359 68bd 6d6e 5e3e 792a 71be 0172 40be
00000270: 0605 f03c 206a ad3d 009a 9ebc b0f1 463d
00000280: 1438 603d a1f5 a63d 600c 4dbe fd03 01bb
00000290: c889 1f3e 1e05 143e c20e 873d 1d7a ce3d
000002a0: de7c 65bd fbaa abbd 28af 65be c4a8 363d
000002b0: 698f c0bd 0514 66be b861 f23c ef50 ed3c
000002c0: 775d 863d c2ed ecbd e77b 193d fec0 b2bc
000002d0: 4e3b 77be c3ae 473e e3bf 6e3e 121f b7bd
000002e0: 8c50 833d 76d0 dcbd b2b4 51be 2f05 4d3e
000002f0: bba7 933d bf2e 8cbd eac9 3bbe 9d72 423e
00000300: 4a04 843e decd d3bd ade4 f0bd a739 b1bd
00000310: e4c8 1f3d 81bf efbc a318 37be b8b8 ed3c
00000320: b69b b63d 3dc8 243e 7edf 6cbd 5199 653e
00000330: ad83 57bd 420d da3b e2bb b0bd 77f5 203d
00000340: 5075 293e 7538 aabc 677d b2bd 22c9 023f
00000350: a4df 5dbe 2b4e 92bc 8bd2 4abe 8740 013e
00000360: 209b 14be 140f 16be ae39 0dbe d6da 8b3d
00000370: cf4f 38be b262 ff3d f871 febd e7b9 ba3c
00000380: 5bdf 47bb d18a d4bc d919 94bd 177a 70bd
00000390: 52be d4bd 5e95 3f3e 8ff7 5abe 3187 293e
000003a0: 886a 8cbe 265b b4bd d103 3c3e 13c4 89bc
000003b0: 2713 e5bc 1dcc 57bd f76a 81bc 3788 43bc
000003c0: 29c2 733e 4b1a 743c aff4 56be f9e7 eabd
000003d0: 4b62 88bd 86d4 45bd b9e3 30bb f99f fc3d
000003e0: 23c1 05be b06a 223e 0eb3 173e cf06 163e
000003f0: 0974 cebb a168 833b 3dce 02be e2ff e4bd

feature_layers.1.bias f4 [128]
0.01019115 0.022498857 0.039472923 -0.03478238 -0.1322429 -0.049395196 0.012571163 -0.09229777
0.13026267 -0.16961165 0.015147035 0.13548362 0.03968284 0.059778597 0.1644058 -0.050393626
0.0670391 -0.11635002 0.16672893 0.08140624 0.020258188 -0.0029508134 0.08746344 -0.10408945
0.050826948 -0.034196824 0.0021685823 0.015318778 -0.0679416 0.023717696 -0.05938154 0.063738406
0.053334698 0.018974269 0.057084467 0.012326662 0.06835424 0.15380755 0.14495447 -0.059432056
0.063072234 0.084653124 -0.060166813 0.09788424 0.12012133 -0.062444374 0.038040914 0.14006898
0.13275807 0.06617773 -0.010828422 -0.022626283 0.07909278 -0.089857094 -0.017434992 -0.04270507
0.03770241 0.010314269 0.034888238 -0.10113387 0.08910215 0.015891768 -0.1041779 0.036381267
0.18608217 0.0728327 0.14814238 -0.08524085 0.092755444 0.10742129 0.09382292 0.0208418
-0.06932019 0.15553154 -0.06307379 -0.031103736 0.0853288 0.0011189568 -0.034035914 -0.12066391
0.035608225 0.07601611 -0.117803186 -0.012906359 0.058999583 -0.13969085 -0.10240991 -0.114262134
-0.12480966 0.13297214 0.044419408 0.024417885 0.082409896 0.07090145 0.04133612 -0.047815662
-0.1898261 0.13018824 -0.05303076 -0.10735392 -0.040337935 -0.08661701 -0.07381348 0.05084835
-0.14137109 -0.04935929 -0.09224575 -0.025837451 -0.04405069 0.008933513 -0.059126098 -0.13074425
0.17569697 0.055405002 0.06555789 0.05454615 0.04523567 0.13807735 -0.14425303 0.0071394774
-0.049853716 0.12456376 -0.121226095 -0.028056538 0.12643337 -0.017605813 0.023809582 0.007263952
00000000: c8f8 263c 864f b83c 5cae 213d f877 0ebd
00000010: af6a 07be 9e52 4abd 47f7 4d3c 9d06 bdbd
00000020: 9463 053e adae 2dbe 452b 783c 38bc 0a3e
00000030: 798a 223d 67da 743d fe59 283e 8c69 4ebd
00000040: cc4b 893d eb48 eebd fdba 2a3e 51b8 a63d
00000050: 80f4 a53c 6f62 41bb 0820 b33d d92c d5bd
00000060: eb2f 503d f811 0cbd c61e 0e3b 9dfb 7a3c
00000070: f724 8bbd 9d4b c23c 0f3a 73bd 4889 823d
00000080: 7c75 5a3d ed6f 9b3c 67d1 693d c5f5 493c
00000090: 4ffd 8b3d ba7f 1d3e f26e 143e 076f 73bd
000000a0: 042c 813d 9e5e ad3d 7a71 76bd 8877 c83d
000000b0: 2c02 f63d acc5 7fbd cad0 1b3d 3e6e 0f3e
000000c0: bbf1 073e 3188 873d b269 31bc c15a b9bc
000000d0: 65fb a13d ff06 b8bd d4d3 8ebc 83eb 2ebd
000000e0: d86d 1a3d 2efd 283c f8e6 0e3d 461f cfbd
000000f0: 307b b63d 742f 823c 395b d5bd 8604 153d
00000100: 538c 3e3e 5029 953d a3b2 173e c192 aebd
00000110: 91f6 bd3d b1ff db3d 3b26 c03d 6cbc aa3c
00000120: bef7 8dbd a943 1f3e d52c 81bd 43cd febc
00000130: dec0 ae3d f6a9 923a 3e69 0bbd a41e f7bd
00000140: eed9 113d 56ae 9b3d cc42 f1bd 3175 53bc
00000150: 8ca9 713d 1e0b 0fbe 49bc d1bd 4402 eabd
00000160: 359c ffbd d929 083e 20f1 353d 0408 c83c
00000170: 85c6 a83d c834 913d 1050 293d 5bda 43bd
00000180: c661 42be 1150 053e c836 59bd 5fdc dbbd
00000190: 6439 25bd 4264 b1bd 862b 97bd 5c46 503d
000001a0: 95c3 10be f82c 4abd 57eb bcbd 10a9 d3bc
000001b0: 7f6e 34bd df5d 123c 352e 72bd d2e1 05be
000001c0: e8e9 333e 5bf0 623d 3743 863d c96b 5f3d
000001d0: 0a49 393d 2664 0d3e 11b7 13be 47f2 e93b
000001e0: 6933 4cbd 491b ff3d 6345 f8bd d3d6 e5bc
000001f0: c077 013e 113a 90bc 500c c33c 7206 ee3b

value_stream.0.weight f4 [64, 128]
0.07996658 -0.05290843 0.099953376 0.18803988 0.030343968 -0.014519418 0.04027621 -0.10243516
-0.006185567 0.17754161 -0.026041882 0.07102721 0.008432172 0.1375044 -0.037044466 -0.042360026
-0.059902757 -0.13250017 -0.20251141 -0.08888071 0.090833224 0.0033529785 0.0389104 0.016164195
0.04974914 0.3830502 0.016667886 -0.008277361 0.017893555 0.01354794 -0.040184684 -0.20473592
0.03896188 0.12290989 -0.09978187 0.024790427 -0.19708483 -0.027280698 -0.14954324 -0.014283701
0.20554218 0.08736865 -0.13037018 0.07717259 0.0050598173 0.1805606 -0.051390648 -0.06722379
-0.16044003 -0.027258942 0.1719822 0.19126405 -0.057533078 0.18707584 0.3563271 -0.010294648
0.03221013 0.043914083 0.23130977 0.000511971 -0.14833221 0.10757603 0.09751937 -0.21783288
-0.13534899 -0.02389716 -0.0969637 -0.08706193 -0.019895982 -0.11377826 -0.051065 -0.16422883
0.036826503 -0.121570446 -0.14926162 -0.124394715 0.047214013 0.31694618 -0.18835425 0.25360456
-0.04937553 -0.28639928 -0.13600235 0.19037294 0.07223609 0.13230273 0.056492127 -0.124334246
0.17966905 -0.13199726 0.009761447 0.047165878 -0.20905302 -0.094235964 -0.32061166 0.06233127
-0.08102662 0.04838937 0.23229079 0.35224313 0.091228485 0.31091142 0.049916804 0.03089526
0.39921266 0.29281348 0.08599652 0.1716052 -0.10252974 0.232121 -0.058014743 0.0031358057
0.16466242 -0.09657848 -0.2669378 0.16742668 0.08144915 0.17686099 0.16862805 0.31642294
0.21316172 0.12654835 0.08506492 -0.111851946 -0.025247848 -0.04854961 -0.2639859 -0.102864146
-0.07595318 -0.24977735 0.17853405 -0.0003594195 -0.20792976 0.14986992 -0.15919052 0.16756144
0.057441734 0.06599183 0.08470823 0.018772915 -0.16193412 -0.29063785 -0.16966194 -0.10776677
-0.15688622 -0.034135114 -0.0064038136 -0.07067229 0.06767011 -0.016500548 -0.19044581 0.0232814
-0.1961165 0.00043816393 -0.24563774 -0.19365163 0.34870723 0.06072413 0.23933893 -0.12703007
-0.12869619 0.112336 0.010415873 0.15934038 -0.20812328 -0.10948407 -0.16513254 0.15831876
-0.025310677 -0.123987846 0.20576613 -0.14316808 -0.24580114 0.10683872 -0.027479295 -0.17889224
-0.07849202 -0.06176004 0.001105319 0.10676355 -0.07282717 0.016365308 -0.017648095 0.28694072
0.071354106 -0.086146854 -0.20559828 0.060001153 0.20629276 0.07252418 0.08451419 -0.11796786
-0.022517411 -0.06575201 0.122021504 -0.05106447 -0.0012373205 -0.1807585 0.03112189 0.25527865
0.16789457 -0.008294337 0.008672369 0.113386035 -0.08614248 -0.044503078 0.12495322 0.03038078
-0.056139763 -0.42315716 0.24040192 -0.18068975 -0.37354422 -0.23863412 -0.2016456 0.19795324
0.09813017 -0.33577198 -0.012826536 0.06390053 -0.27265516 -0.040815666 -0.033430383 -0.3094687
0.30272895 -0.07246818 0.23457116 0.08653859 -0.10840258 0.06308967 -0.04379163 0.09313308
0.0040553845 0.2200121 0.01535046 0.1949663 0.031762943 -0.03691106 0.008377948 0.016529312
0.03333563 0.030616106 0.06735703 -0.09740409 -0.2649467 -0.10632444 0.017406743 0.06570874
-0.14822683 -0.058941223 -0.04194993 0.1530502 0.015013847 0.08805339 -0.29033813 0.0021337057
00000000: 85c5 a33d 83b6 58bd 5bb4 cc3d 878d 403e
00000010: ea93 f83c dae2 6dbc abf8 243d 86c9 d1bd
00000020: 4cb0 cabb 78cd 353e c955 d5bc b776 913d
00000030: 1827 0a3c f4cd 0c3e f0bb 17bd b581 2dbd
00000040: 985c 75bd 20ae 07be 275f 4fbe 1707 b6bd
00000050: c506 ba3d a5bd 5b3b 8360 1f3d c66a 843c
00000060: c1c5 4b3d 281f c43e 178b 883c c59d 07bc
00000070: 8195 923c 2ef8 5d3c b298 24bd 4ba6 51be
00000080: 7e96 1f3d 2eb8 fb3d 705a ccbd 4b15 cb3c
00000090: 9bd0 49be c57b dfbc dd21 19be 2f06 6abc
000000a0: a679 523e 56ee b23d c37f 05be aa0c 9e3d
000000b0: d3cc a53b e1e4 383e 007f 52bd a0ac 89bd
000000c0: 644a 24be 254e dfbc 1a1c 303e b9da 433e
000000d0: cea7 6bbd cf90 3f3e 8170 b63e e2aa 28bc
000000e0: c5ee 033d 41df 333d 78dc 6c3e cb35 063a
000000f0: 66e4 17be d250 dc3d 3cb8 c73d 950f 5fbe
00000100: ed98 0abe fac3 c3bc e894 c6bd 864d b2bd
00000110: e6fc a2bc 9404 e9bd 8929 51bd 9a2b 28be
00000120: 63d7 163d edf9 f8bd 0ad8 18be a8c2 febd
00000130: 7b63 413d c546 a23e f0df 40be 75d8 813e
00000140: ff3d 4abd eda2 92be 3344 0bbe 20f1 423e
00000150: 84f0 933d 5e7a 073e 4a64 673d f4a2 febd
00000160: 2afb 373e 4a2a 07be 7aee 1f3c 0231 413d
00000170: ff11 56be c9fe c0bd 3627 a4be 134f 7f3d
00000180: 49f1 a5bd ef33 463d a3dd 6d3e 3659 b43e
00000190: 00d6 ba3d c82f 9f3e 9075 4c3d 0e18 fd3c
000001a0: 9a65 cc3e a6eb 953e f21e b03d 46b9 2f3e
000001b0: 1dfb d1bd 21b1 6d3e dea0 6dbd 1782 4d3b
000001c0: 449d 283e f0ca c5bd 12ac 88be e671 2b3e
000001d0: d0ce a63d 0c1b 353e d5ac 2c3e 3002 a23e
000001e0: 1147 5a3e e495 013e 8436 ae3d a212 e5bd
000001f0: 93d4 cebc f5db 46bd 2929 87be 70aa d2bd
00000200: 578d 9bbd a2c5 7fbe a1d1 363e 7870 bcb9
00000210: 8aeb 54be 8077 193e d702 23be 3a95 2b3e
00000220: 0648 6b3d b926 873d 827b ad3d a8c9 993c
00000230: 0fd2 25be 7cce 94be dcbb 2dbe d3b4 dcbd
00000240: c8a6 20be 43d1 0bbd 15d7 d1bb a2bc 90bd
00000250: a096 8a3d 282c 87bc 3a04 43be a2b8 be3c
00000260: c4d2 48be 5eb9 e539 7688 7bbe 9d4c 46be
00000270: c189 b23e deb9 783d 4415 753e 2c14 02be
00000280: efc8 03be 6b10 e63d 56a7 2a3c 202a 233e
00000290: 451e 55be 2f39 e0bd 8118 29be 501e 223e
000002a0: 5658 cfbc 57ed fdbd 5bb4 523e a79a 12be
000002b0: 4bb3 7bbe 42ce da3d 421c e1bc 872f 37be
000002c0: 6dc0 a0bd 18f8 7cbd 5ae0 903a d9a6 da3d
000002d0: 6926 95bd 8a10 863c bd92 90bc e5e9 923e
000002e0: 1a22 923d c36d b0bd 5b88 52be c5c3 753d
000002f0: 693e 533e 8f87 943d c715 ad3d 2299 f1bd
00000300: 6f76 b8bc fda8 86bd 69e6 f93d fa28 51bd
00000310: 962d a2ba c218 39be 55f3 fe3c e2b3 823e
00000320: 8eec 2b3e f9e4 07bc 8d16 0e3c f036 e83d
00000330: 786b b0bd dc48 36bd 79e7 ff3d 1de1 f83c
00000340: cff2 65bd 0ea8 d8be ec2b 763e bc06 39be
00000350: 3041 bfbe 815c 74be 2f7c 4ebe 41b4 4a3e
00000360: 78f8 c83d 4eea abbe 6426 52bc 48de 823d
00000370: 7599 8bbe 542e 27bd 4cee 08bd ae72 9ebe
00000380: 4aff 9a3e 326a 94bd 6c33 703e 253b b13d
00000390: 2c02 debd 2835 813d da5e 33bd 8ebc be3d
000003a0: 08e3 843b da4a 613e 7f80 7b3c 3fa5 473e
000003b0: dc19 023d 0d30 17bd a943 093c 7b68 873c
000003c0: f18a 083d a1ce fa3c 7cf2 893d cc7b c7bd
000003d0: 18a7 87be a1c0 d9bd 9698 8e3c 4e92 863d
000003e0: c6c8 17be 5a6c 71bd b1d3 2bbd 31b9 1c3e
000003f0: a3fc 753c 5655 b43d 33a7 94be a4d5 0b3b

value_stream.0.bias f4 [64]
-0.12614942 -0.08344936 -0.014301768 -0.06855835 0.13263889 -0.037677582 -0.11883416 0.016566705
0.05800699 -0.08129654 0.049130835 0.10168272 0.114562474 -0.06367085 0.15116645 0.074928656
0.014767204 -0.14732742 -0.11121665 0.16067465 0.120992206 -0.08986643 0.07635846 0.12208659
-0.068854846 -0.14634529 0.031265493 0.08417482 -0.0035576269 -0.053701326 -0.049151786 -0.0056268773
0.17794052 -0.01243755 0.20431688 -0.17556517 -0.008074872 -0.015910316 -0.12608019 -0.05272646
-0.15906213 0.0065783723 0.10522607 0.08970561 0.09057626 0.020250795 0.08553038 0.16220379
0.01543528 0.018752778 -0.056341812 0.063077375 0.0535866 -0.09494362 0.039504144 -0.13378689
-0.16059975 0.020039134 0.053856757 0.07098103 0.1539693 0.10318932 -0.066953644 0.04127616
00000000: 502d 01be 80e7 aabd f651 6abc 5268 8cbd
00000010: 7dd2 073e cf53 1abd 535f f3bd e6b6 873c
00000020: bd98 6d3d cd7e a6bd 6a3d 493d 083f d03d
00000030: bb9f ea3d dd65 82bd 61cb 1a3e 3274 993d
00000040: 25f2 713c 00dd 16be 8ec5 e3bd e587 243e
00000050: c3ca f73d e40b b8bd d361 9c3d 8908 fa3d
00000060: c503 8dbd 8adb 15be 3f10 003d d963 ac3d
00000070: 1327 69bb ecf5 5bbd 6253 49bd ab61 b8bb
00000080: 0a36 363e dec6 4bbc 7238 513e 5bc7 33be
00000090: 784c 04bc 5a56 82bc 2a1b 01be b3f7 57bd
000000a0: 2fe1 22be 638f d73b c480 d73d 93b7 b73d
000000b0: 0c80 b93d ffe4 a53c 8d2a af3d c018 263e
000000c0: 42e4 7c3c 6d9f 993c acc6 66bd b62e 813d
000000d0: 9f7d 5b3d cd71 c2bd 19cf 213d 6eff 08be
000000e0: 4374 24be 1c29 a43c e798 5c3d 815e 913d
000000f0: 21aa 1d3e ec54 d33d fe1e 89bd 3111 293d

value_stream.2.weight f4 [1, 64]
-0.15831721 -0.3575834 0.0017228951 -0.18859772 0.11601809 -0.17197827 -0.057567686 -0.2405579
0.07392851 -0.044821743 0.03299175 0.15177198 0.3619561 -0.040231034 0.5628125 0.35602432
0.19464323 -0.105572686 -0.09307165 0.534363 0.12814891 -0.2464775 0.20033334 0.17099282
-0.2746 -0.080132656 0.13677935 0.3614108 -0.1477756 -0.18651104 -0.10409501 -0.11471775
0.1793777 -0.21449278 0.1007544 -0.14723644 -0.25295123 -0.035869036 -0.368918 -0.23766807
-0.38301048 -0.15204218 0.42200136 0.32743838 0.42157802 -0.1436097 0.14720528 0.22660743
-0.08769509 -0.13039908 -0.2735889 0.23738593 0.16219853 -0.20199983 -0.18245536 -0.022690319
-0.16466261 0.09254612 0.110818624 0.20526743 0.40438876 0.39013928 -0.17223573 -0.1279784
00000000: e81d 22be 2c15 b7be c4d2 e13a c31f 41be
00000010: e49a ed3d 121b 30be 18cc 6bbd cf54 76be
00000020: d567 973d 0197 37bd 5b22 073d 1d6a 1b3e
00000030: 4f52 b93e 4cc9 24bd 7b14 103f d248 b63e
00000040: 8e50 473e 7e36 d8bd 599c bebd 03cc 083f
00000050: 7839 033e 9964 7cbe 2f24 4d3e be18 2f3e
00000060: 5f98 8cbe 971c a4bd e30f 0c3e d60a b93e
00000070: 7d52 17be c0fc 3ebe c42f d5bd 24f1 eabd
00000080: caae 373e ffa3 5bbe 5358 ce3d 26c5 16be
00000090: d382 81be 69eb 12bd d2e2 bcbe 425f 73be
000000a0: f319 c4be f2b0 1bbe 9010 d83e 01a6 a73e
000000b0: 13d9 d73e 6c0e 13be fbbc 163e c70b 683e
000000c0: 7c99 b3bd 5687 05be d813 8cbe 4c15 733e
000000d0: 5f17 263e 0bd9 4ebe 94d5 3abe 0ce1 b9bc
000000e0: 519d 28be d288 bd3d e0f4 e23d a031 523e
000000f0: 0b0c cf3e 56c0 c73e 905e 30be c50c 03be

advantage_stream.0.weight f4 [64, 128]
0.06417624 -0.018576754 -0.08007725 -0.31375384 -0.32039502 -0.07067979 0.16543278 -0.17650887
0.048965067 -0.113333 0.16498964 0.08466425 -0.3167099 -0.12800588 0.21116474 -0.027745252
0.001751252 -0.01999624 0.1410366 0.15730369 -0.18298507 0.12215478 0.09682882 0.30915025
-0.012220419 0.041673984 0.055219818 0.15390573 0.014548173 -0.14688309 0.6195861 -0.017010927
-0.19776268 -0.3854034 -0.36273688 -0.1109153 -0.1397673 -0.18584612 0.12691426 -0.106687166
0.019424712 -0.13160303 -0.08124669 0.10367389 0.16811715 -0.06748836 -0.19089381 0.002666171
0.15997502 -0.2402535 0.0867764 0.20857851 -0.14572427 0.087161325 -0.121687874 0.08260234
-0.12085014 0.1401389 0.097130395 -0.15490773 0.00024000721 -0.09123085 0.023811512 -0.07956797
-0.08510518 0.06900146 -0.032814544 0.067920014 0.03689025 0.2169524 0.044834286 -0.14700209
-0.25746116 0.0125318365 0.030972177 0.2385186 -0.10916758 0.20991984 -0.1751087 -0.013681757
-0.0077955145 -0.15590692 0.078362346 -0.21205738 0.0063539436 -0.16220537 0.0048453123 -0.096383534
0.0728994 -0.1957017 -0.01901698 -0.6111166 0.019838134 -0.08156349 -0.3058273 0.13431439
0.02641431 -0.084340334 0.05709366 0.09620464 0.20355819 -0.14198324 0.14416045 0.019489223
0.094614744 -0.047326088 -0.07542274 -0.21763235 0.0574455 0.19005485 -0.33746606 0.33669537
0.041512344 -0.17606752 0.2602662 -0.10840862 0.13184133 -0.061757915 0.18022658 -0.018270897
0.22977655 0.1366788 0.23533985 -0.15511131 0.0049255784 -0.034600776 -0.1696251 0.085388504
-0.13254695 -0.15637323 -0.118211284 -0.21870193 0.12330945 0.03237595 -0.025933087 -0.0053026294
-0.07118807 0.0022869343 0.26165873 0.0042359373 -0.054297507 -0.11069858 -0.19752881 0.2553887
-0.057916995 0.3529267 -0.041222274 0.032775447 -0.055028174 -0.11587971 0.054286998 0.29386473
-0.025443066 -0.17599581 0.020043196 0.36928958 -0.10157137 0.019774888 0.15074834 0.13918802
-0.07912576 0.053991627 -0.24734546 -0.042069376 -0.07972647 0.14268139 0.18270127 -0.004476437
-0.011241036 -0.014889486 -0.0993536 0.062969655 -0.053831805 0.17372882 -0.09067496 0.09607073
-0.15681791 -0.16510245 0.4984011 -0.0576217 -0.034373995 0.39720154 0.17529614 0.12647831
0.3528918 -0.10190226 0.13735977 -0.06420396 0.0021785074 0.02323957 0.10930597 -0.19250436
-0.06337865 -0.077630214 -0.022481954 -0.009240621 -0.15653047 0.113686025 -0.08270722 0.022822564
-0.006490605 0.045122396 0.52435714 0.13724276 0.0049850335 0.2999017 0.0038216147 -0.058384024
0.0052730134 0.15128174 0.22275777 -0.2755453 -0.2156086 0.14443356 -0.024023892 -0.5267359
0.02037982 -0.19242907 0.058628432 -0.25720575 0.016415177 -0.09133685 -0.15247142 0.008324711
0.098960616 0.044484172 0.27965322 -0.22480805 0.14611736 -0.13121107 0.07649966 -0.2045515
0.003923586 -0.22633573 -0.10331931 0.21798642 0.10790686 -0.0745345 -0.09610947 0.8619859
0.002793676 -0.16663113 -0.048969306 -0.01766175 -0.00081663777 0.0115658995 0.1170137 0.21671595
-0.13153188 0.11086907 -0.023312818 0.039307393 -0.03409466 -0.031216105 -0.15093145 0.1519493
00000000: d56e 833d 472e 98bc 8bff a3bd 58a4 a0be
00000010: d10a a4be 91c0 90bd 3667 293e bebe 34be
00000020: 988f 483d 221b e8bd 0bf3 283e 7364 ad3d
00000030: cd27 a2be f913 03be 923b 583e 034a e3bc
00000040: 448a e53a 28cf a3bc e66b 103e 3814 213e
00000050: 7060 3bbe 492c fa3d 304e c63d f148 9e3e
00000060: 2738 48bc 57b2 2a3d 2d2e 623d 7799 1d3e
00000070: 765b 6e3c 8568 16be 329d 1e3f 805a 8bbc
00000080: 4d82 4abe 9853 c5be a6b8 b9be 9027 e3bd
00000090: 291f 0fbe 724e 3ebe d0f5 013e cd7e dabd
000000a0: 9320 9f3c f2c2 06be aa64 a6bd fa52 d43d
000000b0: e726 2c3e 5637 8abd ab79 43be edba 2e3b
000000c0: 7ed0 233e 0305 76be d3b7 b13d 9b95 553e
000000d0: be38 15be a381 b23d 7e37 f9bd 6a2b a93d
000000e0: 4780 f7bd 9280 0f3e 4dec c63d 22a0 1ebe
000000f0: 72aa 7b39 3dd7 babd 5c10 c33c 88f4 a2bd
00000100: a04b aebd a350 8d3d 8b68 06bd a619 8b3d
00000110: 3b1a 173d c528 5e3e 28a4 373d b787 16be
00000120: f3d1 83be 5552 4d3c 5db9 fd3c 383e 743e
00000130: 4193 dfbd 3af5 563e b24f 33be 7329 60bc
00000140: 8471 ffbb 10a6 1fbe 707c a03d 9225 59be
00000150: be34 d03b 2a19 26be 6dc5 9e3b bb64 c5bd
00000160: 484c 953d 0766 48be 7fc9 9bbc 2372 1cbf
00000170: 9583 a23c c20a a7bd 6595 9cbe b689 093e
00000180: d362 d83c a0ba acbd 0bdb 693d f006 c53d
00000190: 8f71 503e 0e64 11be cc9e 133e dda7 9f3c
000001a0: 60c5 c13d 00d9 41bd 3d77 9abd 04db 5ebe
000001b0: f94b 6b3d bd9d 423e 5ac8 acbe 5663 ac3e
000001c0: d908 2a3d 0b4b 34be 9d41 853e 5705 debd
000001d0: 6a01 073e def5 7cbd 518d 383e d9ac 95bc
000001e0: 8b4a 6b3e 87f5 0b3e eefc 703e 80d5 1ebe
000001f0: bf66 a13b 8bb9 0dbd 34b2 2dbe 2be0 ae3d
00000200: 63ba 07be 4e20 20be c218 f2bd 66f3 5fbe
00000210: aa89 fc3d a59c 043d a071 d4bc aec1 adbb
00000220: 0dcb 91bd 64e0 153b 22f8 853e 9ecd 8a3b
00000230: 1067 5ebd f0b5 e2bd fe44 4abe 4fc2 823e
00000240: 5f3a 6dbd cfb2 b43e b0d8 28bd 8c3f 063d
00000250: 3965 61bd 5752 edbd 0b5c 5e3d 7075 963e
00000260: fa6d d0bc 3f38 34be a131 a43c 8613 bd3e
00000270: a704 d0bd f2fe a13c c65d 1a3e 4e87 0e3e
00000280: b00c a2bd 5326 5d3d 2148 7dbe f050 2cbd
00000290: a247 a3bd 121b 123e 0b16 3b3e 13af 92bb
000002a0: 522c 38bc 08f3 73bc e679 cbbd 3cf6 803d
000002b0: bd7e 5cbd f8e5 313e cbb3 b9bd bbc0 c43d
000002c0: e094 20be 9e10 29be 6e2e ff3e bb04 6cbd
000002d0: bfcb 0cbd 005e cb3e d580 333e 8883 013e
000002e0: 3cae b43e 22b2 d0bd 0aa8 0c3e 5e7d 83bd
000002f0: 4ac5 0e3b e960 be3c cfdb df3d dd1f 45be
00000300: aacc 81bd 97fc 9ebd 132c b8bc f965 17bc
00000310: 8649 20be 38d4 e83d 6762 a9bd 63f6 ba3c
00000320: 24af d4bb 43d2 383d 453c 063f 5e89 0c3e
00000330: 7e59 a33b b78c 993e 0e74 7a3b 1624 6fbd
00000340: 3ec9 ac3b 9ae9 1a3e 9d1a 643e 4614 8dbe
00000350: 80c8 5cbe 64e6 133e c1cd c4bc 2ad8 06bf
00000360: 95f3 a63c 200c 45be 5e24 703d 79b0 83be
00000370: 1f79 863c d00e bbbd 7821 1cbe 5e64 083c
00000380: ddab ca3d 0935 363d b52e 8f3e 1534 66be
00000390: ca9f 153e 325c 06be dbab 9c3d f375 51be
000003a0: 6d91 803b 8ec4 67be 1399 d3bd d537 5f3e
000003b0: 46fe dc3d 8ba5 98bd 0bd5 c4bd 1cab 5c3f
000003c0: 1b16 373b 5aa1 2abe 0a94 48bd 60af 90bc
000003d0: a213 56ba e67e 3d3c e1a4 ef3d c9ea 5d3e
000003e0: 4bb0 06be 530f e33d 86fa bebc ca00 213d
000003f0: d8a6 0bbd ebb8 ffbc c68d 1abe 9998 1b3e

advantage_stream.0.bias f4 [64]
0.041816108 0.009810716 -0.03718831 -0.017478295 -0.038132533 -0.07933985 -0.056701135 -0.051732704
-0.048125967 0.051260974 -0.06345576 0.0813605 -0.029323809 -0.06593826 0.098290585 -0.017209096
0.10452457 -0.043474305 -0.059865832 -0.038662136 -0.036759913 0.07646153 -0.0035355373 -0.018638194
0.050823472 0.01665385 -0.08638911 -0.055544045 0.0062894574 -0.09087333 -0.0019511062 0.016298857
0.02262676 -0.057715345 -0.017761296 0.06617748 0.0515848 -0.034161996 0.00013178935 -0.00279383
0.0068065184 -0.056177273 0.003403594 -0.026468802 -0.12755941 -0.09754502 0.046605393 -0.0689054
0.11600215 0.08414724 -0.027678663 0.005026996 -0.130747 0.03830223 0.06681318 -0.0696787
0.037668683 -0.11950461 0.100322984 -0.084153555 -0.033059888 -0.08323609 -0.03932389 0.025902087
00000000: 5e47 2b3d 20bd 203c c552 18bd a42e 8fbc
00000010: dc30 1cbd ee7c a2bd 733f 68bd ace5 53bd
00000020: bc1f 45bd 07f7 513d 18f5 81bd 55a0 a63d
00000030: 7c38 f0bc a30a 87bd 934c c93d 17fa 8cbc
00000040: fa10 d63d 1d12 32bd e035 75bd 305c 1ebd
00000050: 9091 16bd dd97 9c3d 79b4 67bb 20af 98bc
00000060: 462c 503d a86d 883c c6ec b0bd 2782 63bd
00000070: cb17 ce3b cc1b babd 43bc ffba 2e85 853c
00000080: c15b b93c ed66 6cbd 2380 91bc 0f88 873d
00000090: 954a 533d 73ed 0bbd ef30 0a39 b018 37bb
000000a0: 3709 df3b 241a 66bd d50e 5f3b 1ad5 d8bc
000000b0: ef9e 02be afc5 c7bd 4ce5 3e3d 461e 8dbd
000000c0: 8992 ed3d 6355 ac3d 5dbe e2bc 80b9 a43b
000000d0: 8be2 05be cde2 1c3d 59d5 883d b5b3 8ebd
000000e0: 7a4a 1a3d d5be f4bd 2376 cd3d b358 acbd
000000f0: ce69 07bd af77 aabd 1612 21bd 9d30 d43c

advantage_stream.2.weight f4 [4, 64]
0.20666386 0.12544098 0.67951715 -0.095417514 0.19379377 0.14670475 -0.097206034 -1.030713
0.2741102 0.22334129 -0.31780744 -0.88099366 0.07495281 -0.17555945 0.37198514 -0.027949734
0.32760432 -0.046741903 0.017816676 -0.25784916 0.054431826 -0.1051332 -0.12981997 0.11946331
-0.09164925 -0.54579055 0.394082 -0.035430748 0.30645344 0.30262148 -0.33041573 0.3404228
0.4123797 0.20019844 -0.07873434 -0.019094197 0.11893734 0.20457454 -0.35398465 0.075295724
0.062816456 0.11246941 -0.8137001 0.41564575 0.3620152 0.54293007 0.6559915 -0.025669917
-0.06802557 0.03982524 -0.79026115 0.20030954 0.37300026 -0.18784049 0.5389004 -0.053671706
0.42362565 -0.18218903 -0.13990922 -0.09359643 0.111498706 -0.09615538 0.30990767 0.20205486
0.15385868 0.0308379 0.11958231 -0.2551373 -0.6027822 -0.080739565 0.047563706 0.16035116
-0.030985093 0.23598337 -0.7541983 0.16817278 -0.19093539 -0.1409026 0.26774782 -0.07646886
-0.058975805 -0.23449056 0.0777901 0.16012931 -0.2789638 0.36394292 -0.67127544 -0.49238944
-0.32248843 0.027009672 0.19630654 -0.32873476 -0.0064147543 -0.17342366 -0.5430901 0.26794225
0.3984427 0.2544674 -0.023812665 -0.034738857 -0.043261327 0.23551631 0.25836056 0.20906772
-0.8220772 -0.034891646 0.024856152 0.1162218 -0.27806428 0.04164883 0.35625884 -0.142688
0.4981133 0.35597897 -0.013854559 -0.13787013 -0.2608589 0.014318816 -0.09489635 0.14531246
0.18708317 -0.112182826 0.73449033 0.024967454 0.27032825 -0.0019364834 0.18832369 0.31744725
0.012955094 -0.40915978 -0.6388657 -0.08220962 -0.13611357 -0.11039144 -0.10200901 0.6464097
-0.12862967 -0.115300916 0.65201735 0.35883516 -0.15788884 -0.15390076 -0.34825692 0.2938542
0.24116692 -0.10931392 -0.807951 -0.27253714 0.58041954 -0.0054948283 0.4748997 0.24271865
0.069391415 0.32091755 -0.20587732 0.4480264 0.34461758 -0.22053024 0.45407754 0.21046218
-0.53491807 -0.026013281 -0.18308811 0.5706147 -0.04897537 -0.56469274 0.31477955 -0.0036703872
0.2834674 0.07792078 0.4253815 -0.012780848 0.12828031 -0.20168842 -0.1403965 -0.12580916
-0.18100426 -0.33873102 0.09627422 0.19803421 0.12711065 -0.5375948 -0.05117536 -0.20009972
-0.6782016 -0.026616301 -0.09406443 0.08942175 -0.0711684 0.5157076 -0.19864838 -0.2677451
0.035725564 0.12162605 0.1941188 -0.45463702 -0.093401976 0.35319826 -0.12249704 0.44925123
0.13786143 0.31683543 0.21098603 0.09337527 0.18305895 0.04292895 -0.12703162 -0.22687832
-0.4857399 0.021205513 0.2835636 0.3827643 -0.032906566 -0.4927929 0.2853005 0.27743596
0.13041176 0.18409066 -0.43827164 -0.46907043 -0.16824302 0.0080042 0.09758296 -0.82597977
-0.049625326 0.16977796 0.054988377 -0.0029248153 -0.71324 -0.38789982 0.09365959 -0.006967999
0.54252887 0.052032597 0.57907784 -0.45466983 0.104238056 -0.491942 -0.0014208193 -0.16554071
-0.2710749 -0.404741 0.24156862 0.1854055 -0.07517334 0.49743703 -0.11451852 0.03630684
0.52958226 0.11696888 -0.20899355 0.3237001 0.06213501 0.114410415 -0.32102802 -0.4088255
00000000: b19f 533e 9a73 003e d6f4 2d3f 426a c3bd
00000010: e071 463e c539 163e f513 c7bd 67ee 83bf
00000020: 2c58 8c3e 94b3 643e a8b7 a2be cd88 61bf
00000030: dc80 993d dbc5 33be d674 be3e d7f6 e4bc
00000040: c1bb a73e 7074 3fbd 47f4 913c ce04 84be
00000050: e8f3 5e3d 1350 d7bd 87ef 04be 2ea9 f43d
00000060: 9ab2 bbbd eeb8 0bbf 1ec5 c93e d51f 11bd
00000070: 77e7 9c3e 34f1 9a3e 402c a9be e64b ae3e
00000080: 6f23 d33e d200 4d3e 783f a1bd 6f6b 9cbc
00000090: 6c95 f33d fd7b 513e 7a3d b5be a534 9a3d
000000a0: eaa5 803d 5d56 e63d a64e 50bf 85cf d43e
000000b0: 0e5a b93e 77fd 0a3f 0fef 273f b849 d2bc
000000c0: fd50 8bbd ca1f 233d 8e4e 4abf f21d 4d3e
000000d0: e4f9 be3e 4259 40be 60f5 093f ddd6 5bbd
000000e0: 76e5 d83e c38f 3abe 5d44 0fbe 7caf bfbd
000000f0: 6f59 e43d 1ded c4bd 38ac 9e3e 78e7 4e3e
00000100: 218d 1d3e c39f fc3c 92e7 f43d 5ba1 82be
00000110: ef4f 1abf c95a a5bd 29d2 423d 1833 243e
00000120: 73d4 fdbc a0a5 713e 2413 41bf 7c35 2c3e
00000130: 9184 43be c548 10be 3e16 893e b59b 9cbd
00000140: 9d90 71bd 4b1e 70be 6a50 9f3d f0f8 233e
00000150: 58d4 8ebe ba56 ba3e b5d8 2bbf 781a fcbe
00000160: 341d a5be 6343 dd3c 9504 493e ec4f a8be
00000170: dc32 d2bb f995 31be f407 0bbf ba2f 893e
00000180: ae00 cc3e 8d49 823e c712 c3bc 554a 0ebd
00000190: ca32 31bd 302b 713e d647 843e d915 563e
000001a0: a773 52bf 8bea 0ebd 219f cb3c b205 ee3d
000001b0: 715e 8ebe f797 2a3d 8f67 b63e ce1c 12be
000001c0: b508 ff3e e042 b63e 3bfe 62bc d42d 0dbe
000001d0: 4c8f 85be 7899 6a3c 0459 c2bd cacc 143e
000001e0: bb92 3f3e 1cc0 e5bd 8f07 3c3f 8c88 cc3c
000001f0: 7768 8a3e 9ad1 fdba edd7 403e 7288 a23e
00000200: 9a41 543c 647d d1be b48c 23bf 845d a8bd
00000210: 5b61 0bbe e814 e2bd 1aea d0bd 1b7b 253f
00000220: 7fb7 03be e322 ecbd 9cea 263f 3eb9 b73e
00000230: 9dad 21be 2998 1dbe bb4e b2be 0f74 963e
00000240: 76f4 763e fadf dfbd e0d5 4ebf fd89 8bbe
00000250: 6096 143f f60d b4bb 0e26 f33e 3d8b 783e
00000260: 161d 8e3d 4e4f a43e 81d1 52be b763 e53e
00000270: b771 b03e aed2 61be da7c e83e 6683 573e
00000280: 64f0 08bf ce19 d5bc 737b 3bbe ce13 123f
00000290: 669a 48bd b48f 10bf c92a a13e e18a 70bb
000002a0: a422 913e ee94 9f3d 9bcb d93e c366 51bc
000002b0: ea5b 033e 6987 4ebe 1ac4 0fbe 1ed4 00be
000002c0: 2e59 39be 276e adbe 6b2b c53d 7bc9 4a3e
000002d0: 4b29 023e d09f 09bf 419d 51bd f1e6 4cbe
000002e0: 9f9e 2dbf 6e0a dabc daa4 c0bd c022 b73d
000002f0: bdc0 91bd 6a05 043f 7b6a 4bbe e315 89be
00000300: f854 123d 1417 f93d 14c7 463e 2fc6 e8be
00000310: 8949 bfbd 67d6 b43e badf fabd 4204 e63e
00000320: 8c2b 0d3e 4138 a23e b90c 583e 893b bf3d
00000330: ce73 3b3e 44d6 2f3d 9414 02be ca52 68be
00000340: e6b2 f8be 2fb7 ad3c 402f 913e aff9 c33e
00000350: 09c9 06bd 5a4f fcbe e812 923e 160c 8e3e
00000360: a98a 053e 4382 3c3e 2465 e0be 002a f0be
00000370: e647 2cbe 0c24 033c 93d9 c73d 6973 53bf
00000380: ed43 4bbd 46da 2d3e 7e3b 613d 42ae 3fbb
00000390: e696 36bf ce9a c6be 99d0 bf3d d053 e4bb
000003a0: 2ce3 0a3f 2220 553d 723e 143f 7cca e8be
000003b0: c37a d53d d2df fbbe c93a baba 8183 29be
000003c0: 54ca 8abe 363a cfbe c45d 773e f0da 3d3e
000003d0: 7bf4 99bd 11b0 fe3e b088 eabd 7bb6 143d
000003e0: b492 073f 618d ef3d 6802 56be 05bc a53e
000003f0: 4881 7e3d 0250 ea3d c95d a4be 9351 d1be

advantage_stream.2.bias f4 [4]
-0.0130788945 -0.04347633 -0.14115176 -0.04984058
00000000: dc48 56bc 3c14 32bd 168a 10be a325 4cbd

feature_layers.0.weight f4 [128, 24]
-0.24598461 0.24877657 -0.28963512 0.15382688 0.5236198 -0.66503346 -0.12758262 -0.3575145
-0.07125236 -0.11661991 -0.023530325 -0.28234836 0.26614973 -0.061058752 -0.32333887 0.5090649
-0.4411091 0.7450763 0.52339613 -0.38049376 0.56301004 -0.08535076 0.39082968 0.22450301
-0.04202371 0.05063228 -0.11151041 -0.28453574 -0.32368618 -0.43246934 0.30684325 -0.12544112
-0.26385257 0.07156772 -0.017739836 0.6304736 -0.024301449 0.19038878 0.0016037598 0.005246457
0.21991374 0.7219641 0.09574734 0.008894766 0.007901349 0.079046406 0.5918381 -0.04125114
-0.2038313 -0.370578 0.09437147 -0.20982255 -0.11074097 -0.31491053 0.17970644 0.28208032
-0.26590118 -0.38365838 -0.18670759 -0.50118804 0.10847799 -0.31217858 0.3978794 0.10075947
-0.46312 -0.100159675 -0.37153724 -0.29123947 -0.14000838 0.070593946 0.47630242 0.039787218
0.12782335 0.3258869 0.845654 0.5043391 0.15319416 0.32865962 0.07604067 0.25927705
0.28386247 0.27457416 0.15095115 0.83007187 0.1777755 0.13879395 -0.67036587 0.32604828
-0.003041758 0.09320155 0.122651 -0.41507787 0.43643156 -0.17461053 0.5600475 -0.20014599
0.0027813881 0.83634317 -0.15694478 -0.28977227 0.27107194 0.18401279 -0.44233003 -0.05242824
-0.15314144 0.43896383 0.25517958 0.19299881 -0.5236345 -0.42914099 -0.40903497 -0.12201986
-0.6057686 0.35197133 0.55910295 0.30567908 0.44590586 0.19464289 -0.07355559 -0.14617491
0.07421183 0.093359865 -0.19215892 0.17839442 -0.12517713 0.29919738 -0.03375063 -0.049627025
0.27793756 0.15035483 -0.15796208 -0.084227234 -0.53275263 -0.027504897 -0.36220688 0.7801567
-0.39310002 0.23095307 -0.14811385 0.0646152 0.42800957 -0.14657943 0.3109308 -0.13900879
-0.20880401 0.068098545 -0.27307278 -0.24944332 0.17227805 0.4398763 -0.45836988 0.044380784
0.31446218 0.15746409 0.01590968 0.063778974 0.21302833 0.04977481 -0.34486926 -0.059949562
-0.17469324 -0.12669966 -0.40749732 0.32332236 0.07086164 0.5099528 -0.53095406 0.3655462
-0.015533117 -0.00097361254 -0.040583193 -0.056516152 -0.2793897 -0.20971975 0.34706196 0.25166595
0.4895334 -0.09466391 0.022893384 0.25690717 -0.22995785 -0.21480952 -0.4346655 0.20528923
0.40847114 0.22084503 0.003470107 -0.10611137 0.22273962 -0.03522193 0.31355706 0.5681845
-0.031163225 -0.1501511 -0.19167396 0.30336776 -0.0659207 0.051259194 -0.1330266 -0.04341422
-0.1288027 0.19497408 0.19176516 0.48011 -0.30964383 0.23218787 -0.20279154 0.027701238
0.12725571 0.27734277 -0.14357778 -0.34905335 -0.5320867 0.462335 -0.112102136 0.19338636
0.36068097 -0.22405523 -0.03293943 0.27663204 0.20688982 -0.2089125 0.20746756 -0.17168733
-0.4247042 -0.27555755 0.47692135 -0.21827966 -0.080152765 0.16186447 -0.25645474 -0.2451704
-0.102144 -0.47086623 0.020715449 -0.04836651 -0.16690363 0.4297108 -0.3747544 0.0014110996
0.23464848 0.20965862 0.1968972 -0.21995237 -0.16907169 0.05516346 -0.06266368 -0.22387508
0.11200429 0.34434754 -0.13901073 0.5323102 -0.6213893 -0.030411642 -0.34484622 -0.22574869
00000000: 64e3 7bbe 49bf 7e3e 0e4b 94be cb84 1d3e
00000010: f20b 063f a23f 2abf 05a5 02be 240c b7be
00000020: c2ec 91bd 6bd6 eebd abc2 c0bc f78f 90be
00000030: c744 883e be18 7abd ac8c a5be 1452 023f
00000040: 0dd9 e1be 52bd 3e3f 4afd 053f 14d0 c2be
00000050: 6d21 103f 61cc aebd d41a c83e 1ee4 653e
00000060: 0e21 2cbd cb63 4f3d 925f e4bd abae 91be
00000070: 32ba a5be 9f6c ddbe 8f1a 9d3e a373 00be
00000080: af17 87be 1992 923d 2253 91bc b866 213f
00000090: d513 c7bc 47f5 423e 4035 d23a 79ea ab3b
000000a0: 1131 613e a4d2 383f 2e17 c43d 5abb 113c
000000b0: a974 013c 15e3 a13d b482 173f f5f6 28bd
000000c0: 27b9 50be 66bc bdbe d445 c13d b9db 56be
000000d0: 29cc e2bd f43b a1be f704 383e d56c 903e
000000e0: 3324 88be df6e c4be 4630 3fbe dc4d 00bf
000000f0: b529 de3d dfd5 9fbe d9b6 cb3e fb5a ce3d
00000100: 111e edbe 8420 cdbd 213a bebe 571d 95be
00000110: 5b5e 0fbe 8f93 903d e9dd f33e ecf7 223d
00000120: 20e4 023e a6da a63e c87c 583f 5e1c 013f
00000130: eede 1c3e 1346 a83e 36bb 9b3d f6bf 843e
00000140: 6c56 913e fc94 8c3e f092 1a3e 977f 543f
00000150: c80a 363e 0020 0e3e 199d 2bbf cdef a63e
00000160: 3b58 47bb 74e0 be3d 7330 fb3d 1685 d4be
00000170: f573 df3e 1acd 32be 465f 0f3f 12f3 4cbe
00000180: f347 363b 961a 563f 22b6 20be 085d 94be
00000190: f1c9 8a3e d96d 3c3e 1579 e2be ffbe 56bd
000001a0: 1cd1 1cbe debf e03e e6a6 823e 7ba1 453e
000001b0: e90c 06bf 5eb8 dbbe 086d d1be 8ce5 f9bd
000001c0: a713 1bbf 9635 b43e 5f21 0f3f f881 9c3e
000001d0: c64d e43e 7750 473e 50a4 96bd e0ae 15be
000001e0: 5ffc 973d 7533 bf3d 4fc5 44be 07ad 363e
000001f0: 6f2e 00be 6630 993e 1a3e 0abd b545 4bbd
00000200: d54d 8e3e 9ef6 193e d0c0 21be 547f acbd
00000210: 7a62 08bf f351 e1bc 2e73 b9be 59b8 473f
00000220: 6844 c9be f67e 6c3e 28ab 17be f954 843d
00000230: 1224 db3e eb18 16be 5232 9f3e 5258 0ebe
00000240: b8d0 55be 4077 8b3d 32d0 8bbe 126e 7fbe
00000250: a869 303e 7737 e13e 75af eabe a0c8 353d
00000260: 3001 a13e 443e 213e 0455 823c 8d9e 823d
00000270: 1924 5a3e ace0 4b3d b492 b0be ac8d 75bd
00000280: c9e2 32be 8ebd 01be 7da3 d0be 828a a53e
00000290: e81f 913d 448c 023f 9bec 07bf df28 bb3e
000002a0: 9d7e 7ebc 083a 7fba 903a 26bd 7b7d 67bd
000002b0: 2b0c 8fbe c6c0 56be 1bb2 b13e 5cda 803e
000002c0: 1fa4 fa3e 27df c1bd e88a bb3c 5689 833e
000002d0: 127a 6bbe 07f7 5bbe 7a8c debe 5737 523e
000002e0: 2123 d13e 3325 623e bc6a 633b eb50 d9bd
000002f0: db15 643e df44 10bd 8d8a a03e 8a74 113f
00000300: 054a ffbc 36c1 19be 2e46 44be 0553 9b3e
00000310: 6f01 87bd 29f5 513d 2038 08be 1cd3 31bd
00000320: dbe4 03be 49a7 473e 165e 443e fad0 f53e
00000330: a389 9ebe a8c2 6d3e 96a8 4fbe b5ed e23c
00000340: 524f 023e dfff 8d3e 0e06 13be 1fb7 b2be
00000350: d536 08bf 2cb7 ec3e ce95 e5bd 1307 463e
00000360: 2dab b83e bc6e 65be 7feb 06bd b7a2 8d3e
00000370: edda 533e 29ed 55be 6072 543e cece 2fbe
00000380: d472 d9be e115 8dbe 092f f43e b484 5fbe
00000390: 2227 a4bd cdbf 253e 094e 83be f30d 7bbe
000003a0: e030 d1bd 6115 f1be 72b3 a93c f61b 46bd
000003b0: c9e8 2abe 0e03 dc3e cfdf bfbe a5f4 b83a
000003c0: b147 703e c0b0 563e 6b9f 493e 323b 61be
000003d0: 2121 2dbe 15f3 613d d155 80bd 823f 65be
000003e0: 8162 e53d 524e b03e d458 0ebe 7b45 083f
000003f0: 5f13 1fbf d621 f9bc af8f b0be aa2a 67be
