models/snake_dqn_ep413_score19_20250302_153403.pt (torch, 875426 bytes, 44 tensors)

feature_layers.0.weight f4 [128, 24]
000000 ca d5 2c bc 20 42 1d bf 21 10 0b be c5 b5 29 3b
       -0.010549018 -0.61429024 -0.13580371 0.0025895697
000010 a3 90 15 bd d6 53 b8 3e 60 0d 88 be 62 d4 b7 3d
       -0.03651489 0.36001462 -0.26572704 0.08976056
000020 a3 3d 2e be f1 2e be bb 1e 75 b2 be 77 61 6e 3e
       -0.170157 -0.0058039357 -0.34854978 0.23279367
000030 f2 3b 2d 3c 38 00 f1 3e 64 b7 7d 3d ea ca e2 3c
       0.010573374 0.4707048 0.061942473 0.027684648
000040 cf df 86 be 97 7b 91 be 5f dc 4e bf 7e 19 3f 3e
       -0.26342627 -0.28414604 -0.8080501 0.18662068
000050 9e 29 b0 3e 34 38 5a be 47 14 0a bf f6 60 53 be
       0.3440675 -0.21310502 -0.5393719 -0.20642456
000060 bc 26 89 be cc b7 02 bf 1c b7 b5 3c cc 80 ec be
       -0.26787364 -0.510617 0.02218204 -0.46192014
000070 8c 3c 07 bf 58 67 1d 3f 1b 9e 8e be e7 26 eb bd
       -0.5282676 0.61485815 -0.27855 -0.114820294
000080 23 cd b9 3d b7 10 bb be 64 37 8f 3e b6 5a b7 3e
       0.0907233 -0.3653619 0.27971947 0.35811394
000090 6a 5c 2f 3e 2c fa 3e bf 38 ac b6 3e 3e 8d 9f be
       0.17125097 -0.7460048 0.35678267 -0.31162447
0000a0 dd 3e bf 3c 23 47 12 bf 38 22 99 be 23 bb 73 bd
       0.023345405 -0.57139796 -0.2990892 -0.05950464
0000b0 9b 40 56 3e 2a 8f 50 3e 06 31 b5 3e 5e ef df 3e
       0.20923083 0.20367113 0.35388964 0.4373731
0000c0 ba f1 29 bf 71 fb 3f 3f c1 a6 78 bf f6 f6 5a 3d
       -0.6638447 0.74993044 -0.97129446 0.053458177
0000d0 4a 37 61 3c 94 1b bc 3d 94 84 08 be d3 9c 87 3d
       0.013746092 0.091849476 -0.13331825 0.06621709
0000e0 39 14 e9 be 0c 6e 66 be 44 13 c5 3e 21 20 49 3d
       -0.4552324 -0.22502917 0.3849126 0.049102906
0000f0 0a 45 f5 bd 0f 5c e0 bd 85 be 75 be 06 83 40 3f
       -0.11976059 -0.10955059 -0.23998459 0.75199926
000100 4f b4 26 bf 1c a7 40 3f 94 c6 38 3e 86 4f ce be
       -0.6511888 0.7525499 0.18044502 -0.40295047
000110 fd 99 d0 3e 0d 3c 16 3f d3 d5 92 be ba cd fa bd
       0.40742484 0.5868538 -0.2867876 -0.122462705
000120 96 2f 08 be 82 b3 a8 3b 62 af 9f 3d 98 67 40 3d
       -0.13299403 0.005148352 0.077971235 0.046973795
000130 8e 4d e0 be c4 66 7a be 51 ed 25 bc 07 e9 b1 be
       -0.4380917 -0.24453264 -0.010127381 -0.34748098
000140 4f 47 8e be 90 f2 dd 3d 45 26 e9 3d 66 ce c2 be
       -0.2778878 0.10837281 0.113842525 -0.38048095
000150 62 49 eb be 29 48 04 3e ea 67 19 3d 6d c7 04 be
       -0.45954424 0.12918152 0.037452616 -0.129667
000160 a8 4d 44 be da db 61 bf 45 ee 60 3e 2c 53 12 be
       -0.19170249 -0.8822609 0.21965893 -0.1428954
000170 8d 45 07 3e cb e9 b2 3e 45 6a d6 bc 57 b4 70 3e
       0.13210125 0.34943995 -0.02617372 0.23506294
000180 0b 51 38 3e 71 a6 9d bd 03 07 cd bc e0 75 a4 3c
       0.17999665 -0.07697762 -0.025027758 0.020075738
000190 40 f0 3d 3e 1e dc 6b 3d cb 66 11 be 90 21 8e 3e
       0.1854868 0.057582967 -0.14199369 0.2775998
0001a0 79 59 d4 bd b3 d1 cf 3e 39 ae a8 be 91 a4 bd 3d
       -0.10368628 0.40589675 -0.3294542 0.09259904
0001b0 12 10 0b 3f 40 6d 42 be e7 6f 45 3e fe 55 6f 3d
       0.54321396 -0.18986988 0.19280969 0.058431618
0001c0 8b e8 87 bf 07 05 9b be aa e8 14 bd 00 9a cb 3e
       -1.0617841 -0.30277273 -0.0363547 0.3976593
0001d0 da 97 64 3e 32 12 a8 bd 45 1b 35 3f 32 2c 79 be
       0.22323552 -0.082065955 0.70744735 -0.24333265
0001e0 68 76 21 3d 3b 53 af bd 4e 40 bc be 6c 4d 2e 3c
       0.03941956 -0.08560797 -0.3676781 0.010638576
0001f0 69 76 bf 3d b2 52 52 bd 38 68 73 be 35 28 07 3e
       0.09348757 -0.051348396 -0.23770225 0.13198932
000200 d9 19 11 bf 28 d2 bb be 4e 33 55 be cf 97 b5 bd
       -0.56680065 -0.36683774 -0.20820352 -0.08866846
000210 21 72 91 3d ed 6c 2b bd 1a 66 00 3e 6d 45 43 3f
       0.071018465 -0.041851927 0.12538949 0.7627781
000220 6b 68 ac bd f8 00 86 3e 62 a8 2f 3f ee 7d a3 3d
       -0.08418354 0.26172614 0.68616307 0.079830036
000230 9e f3 e6 3d a2 ad 03 3f b9 43 50 3a 41 6f 89 3e
       0.11276935 0.5143682 0.0007944662 0.26842692
000240 d0 c0 9f 3e 9e 1e 26 3c 99 b7 7e 3e 31 d2 1f bf
       0.31201792 0.010139136 0.24874724 -0.624301
000250 a7 42 db bd 3a 9f 23 be c2 c1 77 3e 3f ae 66 be
       -0.10706072 -0.15978709 0.24195006 -0.22527407
000260 c0 e1 56 3d 61 e2 68 bd 6d 78 bd bd 2d bd af 3e
       0.052461386 -0.056856517 -0.09251485 0.34324017
000270 9c 25 91 be ac 3c 7c be f3 f7 db 3e c4 83 06 3f
       -0.28349006 -0.2463252 0.42962608 0.5254481
000280 a1 57 9c 3e cd 57 c0 bd ca 2e 57 be 8b bb 72 3e
       0.30535606 -0.09391747 -0.21013942 0.23704354
000290 b1 39 2f bf 64 84 ad 3e 0e b3 36 3f 3d 74 9b bd
       -0.68447405 0.3389007 0.71366966 -0.0759053
0002a0 f6 22 ed be 62 ca 09 3f 4b ed d7 be 3b cd db bd
       -0.46315736 0.53824437 -0.42173228 -0.10732504
0002b0 e6 4d 88 bd 49 a5 2a be 7f b8 ad 3d e1 e2 d0 3d
       -0.06655483 -0.16664614 0.084824555 0.10199524
0002c0 fb 29 57 bd 47 4e f6 3e 09 1b b5 3e 6c 5d 26 3f
       -0.05253027 0.48106596 0.3537219 0.649863
0002d0 ee 4d 3d be b0 d6 0c bf 2d 11 a9 3d 83 2e 77 be
       -0.18486759 -0.5501509 0.08255229 -0.24138837
0002e0 b3 54 2e bf ee b7 b4 3d 48 28 4a bd 08 5f 00 3e
       -0.6809799 0.08824144 -0.04935482 0.12536252
0002f0 d9 e5 de bd 3c 7d 8e be 23 7e 88 3e 12 e0 30 bc
       -0.10883684 -0.2782992 0.26658735 -0.01079561
000300 48 c1 76 3e 2d 36 a6 be cc 83 b5 3e 53 da 60 3e
       0.24097168 -0.32463208 0.35452116 0.21958284
000310 1a 23 94 bd 13 36 f2 3d f3 8e ef 3d 7c 4f 15 bf
       -0.072332576 0.1182672 0.11697187 -0.5832441
000320 12 02 3d be 4b 6c 0c bd 5b d4 96 3e 81 6b 99 3d
       -0.18457821 -0.034282964 0.2945889 0.07491208
000330 17 40 67 3d f3 b0 fa bd 09 46 a1 3e 09 c1 6f 3e
       0.056457605 -0.12240782 0.31498745 0.23413481
000340 69 ae 8c be 17 b4 55 be b1 26 d6 3e f8 83 d5 3e
       -0.27476814 -0.2086948 0.41826394 0.41702247
000350 95 8e 51 be 28 14 af bd e5 7e ec 3e a7 3b 20 3e
       -0.20464547 -0.085487664 0.46190563 0.15647756
000360 c9 26 51 bd b5 b8 af be 6b 6a 9a 3e f5 cb 39 bf
       -0.05106238 -0.34320608 0.30159315 -0.7257684
000370 d3 d9 82 be ff 9f f6 be 1d 54 be 3e 31 4f 65 be
       -0.25556812 -0.48168942 0.37173548 -0.2239349
000380 89 04 de 3d 0d bd c9 bd 7d f4 85 3d b6 d3 22 bd
       0.10840709 -0.09850512 0.06540773 -0.039752685
000390 ef 9a 58 bf db bd e8 3e 97 64 d0 be c2 ba c7 3e
       -0.8461141 0.45457348 -0.40701744 0.39009672
0003a0 fe b9 c2 be 12 ff 35 3f 91 97 b0 be 60 6b 21 bf
       -0.38032526 0.7109233 -0.34490636 -0.63054466
0003b0 6c 45 34 be 82 fa fb bd f6 8d 9e 3c cf b4 e6 3e
       -0.17604607 -0.1230364 0.019354802 0.4505982
0003c0 15 79 d0 3e 15 14 5a bf 01 f8 f0 3e 56 46 51 bf
       0.40717378 -0.8518689 0.47064212 -0.8174795
0003d0 54 a6 ca 3d b9 50 d1 bc ca f2 24 be 21 f4 ee bd
       0.09895006 -0.025551187 -0.16108242 -0.11667658
0003e0 10 2e a9 bd b6 ad 0a 3e 4b 68 2e 3d b2 04 79 bc
       -0.08260739 0.13542828 0.04257993 -0.015198873
0003f0 96 81 f9 be 14 0e 94 3e 8b df 80 bd e3 24 1d 3f
       -0.4873168 0.2891699 -0.062926374 0.6138441

feature_layers.0.bias f4 [128]
000000 9f 44 22 3e 37 1a 9c bd 15 9f 02 bb c9 74 37 3e
       0.1584649 -0.076221876 -0.0019931246 0.17915644
000010 73 29 f8 bd 53 91 ce 3c af 15 17 bc 43 a3 78 3e
       -0.12117281 0.02521578 -0.009221478 0.2428103
000020 33 f3 7e 3e 4b 60 49 3e 14 c1 93 3d 1d 3e 91 3d
       0.2489746 0.19665639 0.07214561 0.07091925
000030 be 82 7e 3e 5a 14 a6 3d 36 65 03 be 46 a6 be bd
       0.24854562 0.081093505 -0.12831578 -0.09309058
000040 fd d0 f5 bd ba ee a9 3e a7 ee 86 3e 0c 71 a5 bd
       -0.12002752 0.33189946 0.26353952 -0.080782026
000050 6d e9 36 3e 08 5f c4 3d c5 9c e6 bd e6 be ca 3d
       0.17862482 0.09588438 -0.1126037 0.09899692
000060 9e 5f d0 bd 0b 72 99 bd 76 ac 4d 3e 49 e1 a0 3b
       -0.101744875 -0.07492455 0.2008532 0.0049096686
000070 94 2f 93 3d e8 33 e3 bc bf 0f f1 39 fc 77 55 be
       0.07186809 -0.027734712 0.00045978834 -0.20846552
000080 db ab 37 3e 7c 95 6a 3d 6d 1e 97 3e 41 b8 6c be
       0.17936651 0.057271466 0.295154 -0.23117162
000090 e5 61 ee 3d 5f 24 32 3e 48 57 01 be 5b 76 82 be
       0.11639766 0.17396687 -0.12630951 -0.25480923
0000a0 fc 2c 62 3e e4 a8 b8 3d c7 3f 1b be 78 0e 37 3e
       0.22087473 0.09016588 -0.15161048 0.17876613
0000b0 16 f3 a9 3e a5 bf 05 3e 5d b3 20 3d 74 6c c7 3d
       0.33193272 0.13061388 0.039233554 0.09737483
0000c0 d1 94 2f 3e cd 0e ab bd 53 dc eb 3c 9d c8 7f 3d
       0.17146613 -0.083524324 0.028791582 0.06244718
0000d0 d5 dc 27 3d 34 10 d1 bd 84 f8 88 3e 1f 80 63 3e
       0.040982086 -0.102081686 0.26752102 0.22216843
0000e0 8b ba fa bd b8 9d a2 3d e2 f6 2d be 82 32 5a 3d
       -0.122426115 0.07940239 -0.1698871 0.053270824
0000f0 9c 0c a7 3e 13 be 1d be 10 4c a8 bd 89 1b 92 3d
       0.32626808 -0.15404539 -0.08217633 0.07134158
000100 e4 f9 25 bd 0c f3 07 3e 71 a1 b8 be f4 63 44 be
       -0.040521517 0.13276309 -0.3606067 -0.19178754
000110 be 94 8e be 29 66 08 3e 1a 75 06 3e cc 9a 56 be
       -0.27847856 0.13320221 0.13130608 -0.20957488
000120 07 de a4 3e 16 15 60 3e d5 c5 69 3e 0c 95 86 be
       0.32200643 0.21883044 0.22829373 -0.2628559
000130 00 d4 2c 3e 1d 6b 15 3d 46 d4 17 3e 6b 4a 87 3e
       0.16877747 0.036479104 0.1482707 0.26423964
000140 7b aa 91 3e 8d c6 23 be f0 ad e6 bd 1c 1d 62 3e
       0.2845038 -0.1599371 -0.11263645 0.22081417
000150 8c d5 eb 3c ca 4a a9 3d 92 67 77 3b e2 98 c9 3d
       0.02878835 0.08266218 0.0037750942 0.09843613
000160 4f 46 31 3d e4 e1 e7 3b 1a ed e0 bc 56 cc 82 3e
       0.043279942 0.007076489 -0.027456809 0.2554652
000170 3c f5 80 3e 2f 35 37 3c 3f fa 6f be cb 4d 5c 3e
       0.251871 0.011182114 -0.23435305 0.2151405
000180 d5 8c 8e bd 8d ff 11 3e a7 ac 98 3c 41 f7 36 3e
       -0.06960455 0.14257641 0.018637015 0.17867757
000190 e8 89 98 bd a8 b5 38 3e 52 49 0d bd 23 e6 10 3e
       -0.074481785 0.18038046 -0.03449375 0.1415029
0001a0 e8 aa 8a bd 17 2d dc 3d 56 4c 1e 3e 3e 6a fe 3d
       -0.06770879 0.10750788 0.15458807 0.12422608
0001b0 c6 77 7e 3e 98 6e bc bd a5 00 9b 3e 02 0c 42 3e
       0.24850377 -0.092007816 0.3027393 0.18949893
0001c0 88 a9 93 3c 80 1f 95 3e 92 91 0b 3e ef b9 14 bd
       0.018025175 0.29125595 0.1362975 -0.036310133
0001d0 05 66 24 3e 86 75 ce bd 73 f9 85 3e 74 d5 72 bd
       0.16054542 -0.100810096 0.26166877 -0.059285596
0001e0 f2 82 22 be 8c 13 8a 3e a6 6b e0 bc dd bf 05 be
       -0.15870264 0.26968038 -0.02739508 -0.13061471
0001f0 63 0d d6 bd 45 6c 9a 3e 64 71 50 3d 21 a5 86 bb
       -0.10451772 0.30160728 0.050889388 -0.0041090404

feature_layers.1.weight f4 [128, 128]
000000 6b c9 6d 3e 5d b0 10 3d f5 f7 53 3e da 94 8e 3d
       0.23221366 0.035324443 0.20700057 0.06961985
000010 66 c2 a3 bd af 60 5a be f5 50 30 3d ae f3 5b 3e
       -0.07996063 -0.21325944 0.043045957 0.21479675
000020 90 8a b1 3d 70 71 41 bc 31 01 8a 3e 66 1e 9a bb
       0.08669007 -0.011806831 0.26954034 -0.004703331
000030 6a 46 3c be 31 cc 55 3c dc 70 75 3d 78 71 5c 3e
       -0.18386236 0.013049171 0.059922084 0.2152766
000040 14 50 f1 3d 7b bf 3c bd 6e 4a 4d 3e f0 1f 0c bd
       0.11782852 -0.046081048 0.20047924 -0.034210145
000050 54 8f 3c 3e 8c d3 4e be 50 83 cc bd be e8 ea bd
       0.1841405 -0.20197886 -0.09985983 -0.11470173
000060 b5 48 21 3e d7 50 56 3e 1a af 36 be bc 46 2c 3e
       0.15750392 0.20929275 -0.17840233 0.16823858
000070 68 55 4c 3d 09 6c 64 bc 1e 7d 20 3d e6 41 74 3d
       0.049886137 -0.013941773 0.03918182 0.05963316
000080 a1 fb 20 3e 15 9a 82 bd f3 92 14 bd 48 c8 90 be
       0.15720989 -0.06377045 -0.036272954 -0.28277802
000090 d4 b6 9a 3d 81 20 e8 3d 05 a2 05 bd 11 a2 83 be
       0.07554403 0.11334325 -0.032625217 -0.25709584
0000a0 35 05 9b 3c 13 8d b8 bc cc 90 53 3e b4 1f 86 3d
       0.018923381 -0.022528207 0.20660704 0.06549016
0000b0 a0 3e 2d 3c e9 7d 56 bb 35 2f 92 3d b3 05 e7 3d
       0.010574013 -0.0032728857 0.0713791 0.11280384
0000c0 be 15 6b be 23 69 2b bc ad dc fb bc 10 f5 57 3e
       -0.22957513 -0.010462078 -0.030744875 0.21089578
0000d0 17 df 96 3d 6e 96 54 3e 71 09 65 3e 1a 23 73 3d
       0.0736677 0.2076051 0.22366883 0.059359647
0000e0 2a 76 0a 3e 55 0f 9b bd ec 2c 5a be 5a 4c 01 3e
       0.13521639 -0.07571284 -0.21306199 0.12626782
0000f0 aa 75 a8 3e c7 c7 80 be 4d 05 45 3d f4 7d b4 3d
       0.3290227 -0.25152418 0.04810076 0.08813086
000100 55 42 8e 3d 86 dc 24 3d 56 ea 58 3d 6f 45 0b 3e
       0.069462456 0.04024937 0.052957855 0.13600706
000110 bd 7a f3 3c b7 25 1e 3e fe 62 3b 3d c1 26 1d 3d
       0.029721612 0.15444075 0.045748703 0.038367037
000120 6d dd 9a bd c1 46 99 3e 2b 56 82 3e cf 9a 48 3b
       -0.07561765 0.29936793 0.25456366 0.0030609851
000130 44 0f 43 3d c4 5d d0 3d 3e 24 16 bd 42 b6 09 3e
       0.04762198 0.101741344 -0.036655657 0.13448432
000140 c5 07 f2 bc 7b 91 79 bd bf f4 2d be b3 c7 5f be
       -0.02954472 -0.060929757 -0.16987894 -0.21853523
000150 ee 5f f5 3d ee 28 1b be 5b 54 1f be 56 6e 04 3e
       0.11981188 -0.15152332 -0.15559523 0.12932715
000160 a4 94 29 3e 1d 6b 30 be 5e 21 ed 3d fc b4 bf bd
       0.16560608 -0.1722836 0.1157863 -0.09360692
000170 ae e7 56 3e 8f ed dd 3b d5 64 3b 3d 90 b4 8c 3e
       0.20986816 0.006772704 0.045750458 0.27481508
000180 95 02 fd 3d 35 7d ee 3d d1 c2 40 3e 7b 3a f0 3b
       0.12354008 0.11644975 0.18824317 0.00733119
000190 4f af b3 bd 39 40 71 3e 68 d6 8b 3e b1 b3 20 3d
       -0.08773672 0.23559655 0.27312016 0.039233867
0001a0 78 b8 0d 3e c8 bc 04 3e 98 fc 0e be 55 71 df bd
       0.138399 0.1296264 -0.13963544 -0.10910288
0001b0 39 15 31 bd f5 bf b4 bc b2 d3 76 3e 53 74 09 3d
       -0.04323313 -0.022064188 0.24104193 0.0335582
0001c0 0d 68 2e bc 3b 91 5e bd 64 a1 49 3d 75 29 4a 3e
       -0.010644925 -0.05433772 0.04922618 0.19742377
0001d0 8d b0 1c 3e e8 af d1 3d 6b 35 9f bd ac 06 97 3b
       0.15301724 0.102386296 -0.077738605 0.0046089496
0001e0 11 e3 c0 3d 30 29 94 3c cd 5a c8 3d c0 25 c2 be
       0.094183095 0.018086046 0.09782944 -0.37919426
0001f0 7d 9b 19 be e6 65 46 3e ab fb b7 ba ab 02 31 3e
       -0.1500072 0.19374809 -0.0014036795 0.17286174
000200 80 da 1d be 29 e0 b3 bd 8b 19 3c be 78 c6 51 3e
       -0.15415382 -0.087829895 -0.18369119 0.20485866
000210 77 96 f2 3c 13 71 ea 3a d3 a1 bd 3c ee d7 20 3e
       0.029612763 0.0017886482 0.023148453 0.1570737
000220 d0 5b 8f bd 08 aa 80 bd f0 cd 2c 3b 2b 9d 71 3d
       -0.06999934 -0.06282431 0.0026367866 0.058987778
000230 5d e9 43 3e f1 8d 3c 3e 2e 98 03 3e f5 69 40 3d
       0.1913199 0.18413521 0.1285102 0.04697605
000240 2b c0 34 be 69 51 88 bd bd 76 bc 3d 00 47 2e be
       -0.17651431 -0.06656153 0.09202335 -0.17019272
000250 78 0e 56 3e 00 4a 26 3e 41 ff 95 3d 5a f1 fa 3e
       0.20903957 0.16239166 0.073240764 0.49012262
000260 e1 fa 7e bc 2a 6a e0 bc 09 7a 41 3d e4 db 57 3e
       -0.015562744 -0.027394373 0.047235522 0.21079975
000270 5d 7e 2b bd fa 38 21 3d fd f3 35 3c d6 91 77 be
       -0.041868556 0.039360978 0.011105535 -0.24176726
000280 1c 67 31 3e 31 7b 9a 3d 80 25 9b 3d 77 e7 92 bd
       0.1732449 0.07543028 0.07575512 -0.07173055
000290 da 84 de bd 38 52 9d 3c 97 5e e3 3d 96 80 d7 3d
       -0.10865183 0.019204244 0.11102026 0.10522573
0002a0 8e 59 0b 3d 39 4f 6d bb ec 0a 42 bd d7 fd 14 3e
       0.034020953 -0.003621055 -0.047373697 0.14549957
0002b0 c2 b1 c1 3e bf 4f 90 bd 45 69 8d 3d 65 f7 94 bd
       0.3783093 -0.0704646 0.06904844 -0.07273749
0002c0 bc 90 94 bd a7 bb 01 3e 2c 68 09 3d bf 0a e7 bd
       -0.072541684 0.1266924 0.03354661 -0.112813465
0002d0 d0 b0 38 3d 8e 3d 64 3c 42 d9 b9 3d 8b c4 ab 3d
       0.045090497 0.013930691 0.09074642 0.08387097
0002e0 2b 09 c7 bd d2 4b 08 3d 3f 86 e3 bd 11 c2 8e 3e
       -0.097185455 0.033275433 -0.1110959 0.27882436
0002f0 a0 4b 52 3e ad 2e ce bd b3 fe 16 3e c7 9d 83 bd
       0.20536661 -0.100674964 0.14745598 -0.06426578
000300 9d 22 1a 3e 21 2e 13 3a 39 1e 44 be 24 70 91 3e
       0.15052266 0.0005614479 -0.19152154 0.2840587
000310 6d 14 98 3c 36 51 32 bd 84 bc b6 3c 38 7d 21 bd
       0.018564427 -0.04353448 0.022306688 -0.03942606
000320 d0 e3 61 3d 65 09 3a bb df 67 b0 3c 23 0c 43 be
       0.0551489 -0.0028386947 0.021533905 -0.19047599
000330 da df 33 3d 9b 02 b8 3c bc e8 91 3e d9 f1 32 3d
       0.043914653 0.02246218 0.28497875 0.043687675
000340 f3 31 d8 3d 3e 43 cb bd 39 85 be 3b c8 49 9a 3a
       0.10556402 -0.09924935 0.005814221 0.0011771256
000350 82 29 5a 3a 98 2a 00 3e 7e ec 0b 3e 3f 96 c9 3d
       0.0008322225 0.12516248 0.13664433 0.0984311
000360 4b d0 4c be d5 e4 46 be 3c 3e b3 bd 4c 6d 9a 3d
       -0.20001332 -0.1942323 -0.08752105 0.07540378
000370 e2 18 c7 3d fe c3 c0 bc 36 39 de bc e1 12 31 bb
       0.09721543 -0.023530956 -0.02712689 -0.002701931
000380 f6 81 af 3d a5 b3 a2 3e a4 d8 01 3c 77 b6 9a bd
       0.0856971 0.31777683 0.007925186 -0.07554334
000390 d4 57 24 3e 6f 3f 68 3c 1a 81 02 3e ff b6 61 bd
       0.16049129 0.01417528 0.12744561 -0.05510616
0003a0 24 bc 40 3b b4 ed ac bd 38 06 5b 3d a0 00 ef 3d
       0.0029409016 -0.08443776 0.053472728 0.11670041
0003b0 8e 5c ba bd 9c f0 5d 3d e4 f7 da 3d 2f 7d 2f 3e
       -0.09099685 0.05418454 0.10691813 0.17137598
0003c0 a2 d6 a2 3d 2d cf 93 bc 3b 7d 2e 3e 21 05 20 3d
       0.07951094 -0.018043125 0.17039959 0.03906739
0003d0 84 43 13 3d ca 08 cb bd 17 71 60 3e ec 4f 7c 3b
       0.03595306 -0.09913786 0.2191814 0.0038499786
0003e0 b5 18 47 be eb e5 9c 3d 77 a8 f2 3c f0 49 43 3e
       -0.19443019 0.07661041 0.029621346 0.19071174
0003f0 7c 9e 1d 3c 26 2f 52 3e 59 f0 0f 3e 3b cd 14 be
       0.009620305 0.20525798 0.14056529 -0.14531414

feature_layers.1.bias f4 [128]
000000 1d 32 0a 3e e8 ca 77 3e dc 48 83 3d 65 f1 94 bd
       0.13495679 0.24198496 0.06410381 -0.07272605
000010 09 e8 f9 3d f4 61 03 3e 55 2d 55 3d bf 15 0e 3d
       0.1220246 0.12830335 0.052045185 0.034688707
000020 0d 2e 9e bc e6 b2 3c 3e 90 f2 26 3c 7f c0 01 be
       -0.019309068 0.1842762 0.010189667 -0.12671088
000030 f1 7c 9c 3d 93 dc cb 3d 9c f3 de bd 88 af 23 bc
       0.07641018 0.099541806 -0.108863086 -0.00999058
000040 b8 b8 6a 3d 08 f7 94 bd 4e 22 3d 3e 41 4c 20 3e
       0.057305068 -0.0727368 0.18470117 0.15654089
000050 3c 4e 10 3e 63 df dc 3d de be 61 be 60 89 93 bd
       0.14092344 0.10784795 -0.22045466 -0.072039366
000060 66 e5 fc 3d bc 69 92 3d 0a a7 c9 3c 6b fd 03 3e
       0.12348442 0.071490735 0.024615783 0.1288964
000070 8e 5a b4 bd 73 34 c5 bd 2b 17 bd 3d 09 e8 f6 3d
       -0.088063344 -0.096291445 0.092329346 0.12055976
000080 0e e4 93 3c cb 7f fa 3c 30 ff 2d 3e 9f 61 d3 bd
       0.01805308 0.030578515 0.16991878 -0.10321354
000090 8e 24 b9 bc ce e7 01 be 71 e2 ac 3d cb c1 43 3d
       -0.022600438 -0.12686083 0.08441628 0.047792237
0000a0 d2 b1 77 bc fa 5a 12 be 9d ea 29 3d b3 0c 63 3d
       -0.015118079 -0.14292517 0.04148351 0.055432033
0000b0 8d 07 13 be 9a fc d3 3c 57 43 a8 bd 83 3b 26 be
       -0.14358349 0.025877286 -0.08215969 -0.1623364
0000c0 5d c5 09 3e 36 42 68 bd 57 6f 0c be c0 9b 94 3d
       0.13454194 -0.05670377 -0.13714348 0.072562695
0000d0 0c d1 95 bb 54 49 29 bd f1 84 ce 3c 45 7d b7 bc
       -0.0045720395 -0.041329697 0.025209876 -0.0223986
0000e0 3b 0a aa 3d 46 80 c6 3d 46 38 c4 bc 53 e2 99 bd
       0.083027326 0.09692435 -0.023952615 -0.07513871
0000f0 a7 ad be bd 4e 8c 5a bc 4d c1 01 3e 42 96 e1 3d
       -0.09310465 -0.013339115 0.12671395 0.110149875
000100 b3 a1 c4 3d 28 f6 36 be 67 da 02 3e 17 6d 22 3e
       0.09601154 -0.17867339 0.12778626 0.15861927
000110 74 27 10 be 30 48 08 3d d8 df 04 be 31 19 16 be
       -0.1407755 0.03327197 -0.12976015 -0.14658047
000120 d4 f8 18 3b 1b 6a 44 3e 63 94 c0 bc a6 1d cb 3d
       0.0023341672 0.19181101 -0.023508256 0.09917764
000130 cf f2 91 3c 55 9f b7 3d 1e c9 02 3e 7e a8 0f 3e
       0.017815975 0.08965937 0.12772033 0.14029118
000140 1c 28 b9 3d 8c 23 2e 3e 7b 42 fd bd e7 87 f6 3c
       0.090408534 0.17005748 -0.12366196 0.0300941
000150 7a 0b 35 bd 47 54 ee bd 64 e2 0d bc 07 01 12 be
       -0.044200398 -0.116371684 -0.008659933 -0.14258204
000160 36 d6 11 bd aa 74 37 3e 11 21 b8 bd e9 95 1a 3d
       -0.035604678 0.17915598 -0.08990682 0.03774062
000170 b5 7e 1a 3e 5d db 03 be d1 e5 13 3d 19 4f 2b bd
       0.15087397 -0.12876649 0.036107842 -0.04182348
000180 8c f8 c9 3d 6e d7 11 3e 0c 2c 2c be b3 ec 9a 3d
       0.0986186 0.14242336 -0.16813678 0.07564678
000190 31 e4 92 3d a1 3a 4d bc 2d 61 1a 3e 7b 7b cd 3d
       0.0717243 -0.012526185 0.15076132 0.10033318
0001a0 ad 33 80 3d 03 c9 e7 3d 00 fa 01 be 58 2c 9d 3d
       0.062598564 0.11317637 -0.12693024 0.076744735
0001b0 d5 e0 f4 bd b3 4e 83 3d fe 99 c6 3d 33 4a af 3d
       -0.11956946 0.06411495 0.096973404 0.08559074
0001c0 ea 2a 0a be 0d 4e f9 bd bf 7e ad 3d 75 d4 ae 3b
       -0.13492933 -0.1217309 0.084714405 0.0053353854
0001d0 8c 5b 2e bc 3e e1 da bd 22 41 15 3e 43 ee 8d 3d
       -0.010641944 -0.10687493 0.14575627 0.069302104
0001e0 48 82 81 3b a4 97 ba bd f2 39 e2 3d 2d a7 c4 3c
       0.0039522983 -0.091109544 0.110462084 0.024005497
0001f0 14 5e 0b be 17 80 f7 bc d0 fb 03 be f7 21 97 3c
       -0.13610107 -0.030212445 -0.12889028 0.018448813

value_stream.0.weight f4 [64, 128]
000000 e5 a3 e7 bc c3 9c 05 be c9 28 47 3e 75 d0 86 bd
       -0.028276393 -0.13048081 0.19449152 -0.06582729
000010 6b 25 38 3e 2d 5a d3 3d 2b 06 77 3d 80 75 7c bd
       0.17983024 0.10319934 0.060308617 -0.061635494
000020 2a 26 38 bb 3d 01 c9 bd f5 72 ab 3c c2 e8 14 3c
       -0.002809892 -0.09814689 0.02092884 0.009088697
000030 ff de 2b be f6 d2 3a 3c 1b 4c 29 be 25 38 1b 3e
       -0.16784285 0.011402836 -0.16532938 0.15158136
000040 e5 7e 46 3e 6f 09 4e 3e d5 2d 7d 3b c4 b8 bb bd
       0.19384344 0.20120786 0.0038632054 -0.091661006
000050 c3 aa c5 3d ab 76 2c be 4b a2 5b bc bb 4e 50 3e
       0.09651711 -0.16842143 -0.013405393 0.20342533
000060 36 c5 1a bd 73 7d 8d 3e e3 d0 37 bd 3d a5 4c 3e
       -0.03778573 0.27634773 -0.044876944 0.19984908
000070 bf 80 80 3d 3b ed 3e 3a e5 e7 80 3e 90 eb a4 3b
       0.06274556 0.0007283275 0.2517692 0.005032964
000080 90 0a a8 bd 7b 80 0f 3d e0 9d 8e be df bf 21 3e
       -0.0820514 0.035034638 -0.27854824 0.1579585
000090 39 66 31 3e 6f b1 b4 3d 5b 3b 88 3d 00 7e 72 be
       0.17324151 0.08822905 0.06651946 -0.23680878
0000a0 36 92 a3 3d 79 31 b6 3e e5 97 84 3d b7 b7 f9 3d
       0.07986872 0.3558462 0.06474284 0.12193244
0000b0 bb b4 c0 3d ef 58 4d be 8b fd 48 3d 59 bb 99 be
       0.094094716 -0.20053457 0.049069922 -0.30025747
0000c0 6e 1a b5 3d 9c 5e af 3d 30 88 8c 3e ea 50 e7 3d
       0.08842932 0.08562967 0.27447653 0.1129473
0000d0 89 6e 4a 3e c4 7d 4d be 44 ab e2 3d e6 b5 32 3e
       0.19768728 -0.20067507 0.110678226 0.17452201
0000e0 df c2 79 3d c5 3c 03 3e a2 57 93 bd 6e 19 1b be
       0.06097686 0.1281615 -0.07194449 -0.1514642
0000f0 5d 51 7c be 02 50 28 3e 5c cb df 3a a9 50 06 3e
       -0.24640413 0.1643677 0.0017074156 0.13116707
000100 47 0b 4b 3e d6 2b 4b 3e 15 65 fe bd d4 5c 18 3c
       0.1982852 0.19840941 -0.124216236 0.009299476
000110 08 13 5a bd 78 08 1c 3d aa da 34 3e 06 9e c1 3e
       -0.053240806 0.038094014 0.17661539 0.37815875
000120 af 34 0d 3d 7d 82 6d bc b4 a4 0f 3e 63 56 8b bd
       0.03447407 -0.014496443 0.14027673 -0.06803586
000130 9a 3d 08 be 21 7e 18 3e 39 84 ce 3d 1d d0 5b bd
       -0.13304749 0.14891864 0.10083813 -0.05366527
000140 d2 62 4c 3c bf 3a 37 3d 8c 95 e0 3d 40 d5 79 be
       0.0124747325 0.04473376 0.10966024 -0.24397755
000150 be d4 49 be 91 2b 9b bd 8b 65 41 3d 2c a7 7f 3e
       -0.19710061 -0.07576669 0.04721598 0.24966115
000160 e3 f6 53 bc c3 68 8b 3e df 31 5b 3e 14 07 ad 3d
       -0.01293728 0.27228364 0.21405743 0.08448616
000170 ee de d0 bc d7 21 e3 3d 7b bd 90 bd e5 56 d2 3d
       -0.025496926 0.11090439 -0.070673905 0.1027048
000180 f6 a4 0a 3e 83 6d 13 be ed ab 92 3e 87 25 0a bd
       0.1353949 -0.14397244 0.28646794 -0.033727195
000190 63 c9 db bd be 09 75 3d a8 8e 80 3d 94 5d ab bd
       -0.10731771 0.059823744 0.062772095 -0.08367458
0001a0 b6 e6 c1 3d b6 2a d1 bd cd ac a1 3d 95 e0 a7 3e
       0.09467833 -0.102132246 0.07894287 0.3278853
0001b0 6d c1 47 be 2b a1 54 bd aa 5a 2f 3e 3a 08 87 3d
       -0.1950738 -0.051911514 0.1712443 0.06593366
0001c0 85 bd 22 3e 0c 9e 02 3e ba 19 55 3e af 8d eb bd
       0.15892608 0.12755603 0.20810595 -0.115016334
0001d0 3b 27 59 3e e4 0e 8b bb 2e bd f2 bd 03 6f ad 3c
       0.21206371 -0.0042437185 -0.118524894 0.021171099
0001e0 d7 fa 5c 3d 7e 2b d4 bd c7 14 01 bd 08 05 3e bc
       0.053950157 -0.10359858 -0.031513955 -0.011597879
0001f0 7d bb 8a 3e 85 e8 81 bd 2e ef 81 3d d3 0b f2 3d
       0.27096167 -0.06343178 0.06344448 0.118186615
000200 0f e3 88 be bb 00 0c be 40 c5 05 3d 99 60 1a be
       -0.26735732 -0.13672154 0.032658815 -0.15075912
000210 05 f0 c4 bc 02 34 02 bd 63 c7 25 bd a8 ff 68 be
       -0.024040231 -0.03178788 -0.040473353 -0.22753775
000220 39 76 a3 3d 90 b9 c6 3c 9e 43 d9 3c 4e 80 c6 3e
       0.079815336 0.024258405 0.0265215 0.38769764
000230 d3 38 3b bd 00 2c ff bd 4a 81 95 bd a6 bf 8a bb
       -0.04570849 -0.12459564 -0.073000506 -0.004234272
000240 da 2c dc bc 24 c4 72 3d c5 ea ff bd 4c a0 d2 bb
       -0.026876856 0.059269086 -0.124959506 -0.0064278003
000250 f7 7f 23 be 41 b2 a9 bd 73 92 a0 3e 8e c4 a1 3e
       -0.15966783 -0.08285952 0.31361732 0.31595272
000260 f1 79 2e be 5e bc 06 3e 27 d6 05 bd 1c 13 e9 3d
       -0.17038704 0.13157794 -0.032674935 0.11380598
000270 85 bb 25 3e d1 4f 2b 3e 9f 4b 5f bd 81 75 86 bd
       0.16184814 0.16729666 -0.054515477 -0.06565381
000280 2e 09 38 be 8f 61 7d bd 7a a3 33 be 57 a0 f2 3d
       -0.17972252 -0.061860617 -0.1754283 0.11846989
000290 1e 3c 76 3e 04 f5 93 3d cb 08 11 be 16 20 25 3e
       0.2404637 0.072244674 -0.1416351 0.16125521
0002a0 95 38 08 3f 87 30 d7 3d 5a ae 9f be 76 0f 81 be
       0.5321134 0.10507303 -0.31187707 -0.25207108
0002b0 b1 cb 91 3e cc f8 1b be 32 fd 66 3c 38 29 73 bc
       0.28475717 -0.15231627 0.014098452 -0.01484137
0002c0 d1 b3 d0 3d 11 2d 6e 3e c8 2d 46 be 14 12 49 be
       0.10190547 0.23259379 -0.19353402 -0.19635803
0002d0 d4 8a ac be 40 10 17 3d e4 dc a9 3d b0 db 8b be
       -0.33699667 0.03688073 0.08294085 -0.27316046
0002e0 7b 51 ec bd 8f 6e 62 3d 6c 2a 13 3e 03 35 09 3e
       -0.11538979 0.05528122 0.14371651 0.13399129
0002f0 05 99 b6 3d 26 7a 27 be 2e b9 24 bd df e6 2e bd
       0.08915905 -0.1635519 -0.040215664 -0.042700645
000300 ce d0 1b bd 9c cb 61 be 9d e4 34 be 44 75 28 be
       -0.03804093 -0.22050327 -0.17665334 -0.16450983
000310 c0 63 0e be 63 5f 4e 3d 5c 5e b6 3d c8 32 9f 3c
       -0.13905239 0.050383937 0.08904716 0.019433394
000320 6c bb 05 3e aa 68 6d be 7d 5b 7d 3d a1 0e 32 bd
       0.13059777 -0.23184457 0.06185483 -0.043470982
000330 6b 35 5c be 57 94 34 3e d4 d7 85 be fb 72 9e bd
       -0.21504752 0.17634712 -0.26141226 -0.077367745
000340 4a 4c 4e bd af ad 9d bd f4 79 a8 3e 5b ee e4 3d
       -0.050365724 -0.07699143 0.32905543 0.11178275
000350 5f 19 fa 3d 06 5c a1 3e 03 e9 50 3e 88 dd e3 3d
       0.122118704 0.3151552 0.20401387 0.11126238
000360 08 f2 c1 bd cb ca d9 bd 0f 68 bd 3d f9 ec e1 3c
       -0.09469992 -0.10634383 0.09248363 0.027578818
000370 a5 3b 5a bd c9 ca d4 3e 66 43 6d be fb aa 4d bd
       -0.053279538 0.41560963 -0.23170242 -0.050211888
000380 a7 43 0f 3e b4 15 bd 3d c1 10 11 bd c8 d9 2b be
       0.13990651 0.09232655 -0.03541637 -0.16782296
000390 26 a1 6b be 11 9e 6c 3d de 24 08 3e c4 81 31 be
       -0.23010692 0.05776793 0.13295314 -0.17334658
0003a0 12 f9 92 bd 3e 58 f7 3d 90 1b 99 3b 3b 9e 9a 3d
       -0.07176413 0.12077378 0.004672475 0.07549711
0003b0 b6 ab 35 3d e1 0a 8b bb d6 20 99 bc cc b0 8f bd
       0.04435321 -0.00424324 -0.018692415 -0.07016143
0003c0 86 24 25 3e 9a a8 ae bc ee 65 97 3c fd 56 0d 3e
       0.16127214 -0.02132063 0.018481221 0.13802715
0003d0 5f f0 07 3d 57 4a 6d 3e 49 90 13 be e3 ef 0c be
       0.03318822 0.2317289 -0.14410509 -0.13763385
0003e0 a2 1d 72 3c bc d3 b5 bb dd 87 67 be 7a b0 4d 3d
       0.014777573 -0.0055489223 -0.22610421 0.05021713
0003f0 6b b9 83 bc e1 95 cb bd 7e b8 06 3e 53 36 08 3e
       -0.016079625 -0.099406965 0.13156316 0.13301973

value_stream.0.bias f4 [64]
000000 92 0a 95 bd ec 7f 6c bd b7 eb 30 3e 45 8d 06 be
       -0.07277407 -0.057739183 0.17277418 -0.13139828
000010 5c b2 c7 3d 21 72 1e be 56 07 49 3e 5a ec ec 3d
       0.09750816 -0.15473224 0.19631705 0.11568518
000020 fa 33 06 3e 8d cb ce 3d be 27 bf 3d 6a 02 6c 3e
       0.13105765 0.10097418 0.09333752 0.23047796
000030 40 53 29 3e 38 e7 d0 3d 11 ee 75 be d4 5f 06 3e
       0.16535664 0.102003515 -0.24016596 0.13122493
000040 a9 60 b5 bd 7a 4d 30 3e 75 59 70 bd 7e 59 d5 bd
       -0.08856327 0.17217055 -0.058679063 -0.1041746
000050 9a 42 34 be c3 c4 97 3d ce c4 62 3e 7b ef 25 be
       -0.17603531 0.07410576 0.22145388 -0.16204636
000060 2f 8e cc bd 49 69 35 bd 3c 91 b2 bd de 85 28 be
       -0.09988057 -0.04428986 -0.087191075 -0.16457316
000070 8c 60 e6 3d 8b 10 96 3d 20 e0 db 3d 52 2a b7 3d
       0.112488836 0.07327374 0.10736108 0.08943619
000080 05 bb 68 3e ef e1 6a 3e 83 36 16 be 41 99 69 3e
       0.22727592 0.2293775 -0.14669232 0.22812368
000090 9b 7d 20 be 5a c5 5b bd 6b 20 cf bd 4d 1b b7 3d
       -0.15672915 -0.053655006 -0.10113605 0.08940754
0000a0 8f f8 80 3e 83 9d 37 be ed 81 f5 bd 66 34 15 be
       0.25189635 -0.1793118 -0.11987672 -0.1457077
0000b0 21 5a 19 3e 89 d4 d9 3d eb 50 d7 bd be 20 8b 3d
       0.14975788 0.10636241 -0.10513481 0.067933545
0000c0 88 c0 12 bd 07 c6 2c 3e b6 da 55 3e f7 ac 51 be
       -0.035828143 0.16872416 0.20884213 -0.20476137
0000d0 00 dc 26 3e 32 77 fd 3d 01 0c ef 3d 69 23 8c 3d
       0.16294861 0.1237625 0.116722114 0.068426915
0000e0 b8 fc ab bd ca ac 87 3e fd e4 19 be b9 76 c4 bd
       -0.08397812 0.26499015 -0.15028758 -0.09592957
0000f0 52 20 b2 bd d7 b2 77 bc 01 48 8a 3d fe bc 46 3e
       -0.08697571 -0.015118322 0.06752015 0.19408032

value_stream.2.weight f4 [1, 64]
000000 63 45 44 bd e1 51 31 be c6 04 04 3e 00 e6 8f be
       -0.047917735 -0.1731639 0.12892446 -0.28105164
000010 33 9f 3e 3e 4d 21 be be b7 72 1f 3e 95 a8 03 3e
       0.18615417 -0.3713478 0.15571104 0.12857278
000020 9d b6 59 3e 4f 46 1f 3e be 2e a5 3d 2f a7 c5 3d
       0.21261068 0.15554164 0.08065556 0.09651028
000030 a3 60 27 3e e0 cb 08 3f a5 fd b8 bd 40 05 f9 3e
       0.16345458 0.5343609 -0.09032754 0.48636818
000040 91 a2 05 be 58 31 b4 3e 18 73 d5 bd 1f 7a c5 be
       -0.13050295 0.35193896 -0.10422343 -0.38569734
000050 7d 9d 9b be d7 ba 9f 3d dc 4b 23 3e 05 a0 98 bd
       -0.30393592 0.07799309 0.15946907 -0.07452396
000060 ce 72 7e be 6e 12 37 be b2 71 9d be f9 f3 88 be
       -0.24848482 -0.17878124 -0.30750805 -0.26748636
000070 55 17 8c 3e 26 c7 7d 3e 8d a8 21 3e b4 dd be 3d
       0.2736155 0.24783 0.15786953 0.0931963
000080 8b 1c 35 3e 9c d5 aa 3d 80 11 b1 be 55 cd 06 3e
       0.1768667 0.08341524 -0.34583664 0.13164265
000090 bf 96 54 be 77 28 8f be 6c f6 07 be a5 63 04 3e
       -0.2076063 -0.2796056 -0.13277596 0.12928636
0000a0 e7 e0 2e 3e bd 0b 99 bd 22 34 e7 bd d7 3e 39 be
       0.17077981 -0.07472942 -0.112892404 -0.18090378
0000b0 df f9 86 3e f1 15 2f 3e 7a 8a fc be ad 15 6d 3e
       0.26362512 0.17098214 -0.493244 0.231528
0000c0 02 3e c2 bd 31 cb 08 3e 8e c6 31 3e 2d 64 15 be
       -0.09484483 0.13358761 0.17360899 -0.14588995
0000d0 61 8f fd 3e 3b 42 48 3e 9f a3 da 3e c4 ed cc 3e
       0.49523452 0.19556515 0.42702958 0.4002515
0000e0 51 c4 4e be b4 0c 18 3e e3 56 f0 be 37 12 f1 be
       -0.20192076 0.14848596 -0.4694129 -0.4708421
0000f0 da 41 9c bd 26 a7 51 3a 6a 3c bb 3e a4 13 50 3e
       -0.07629748 0.00079976243 0.3656953 0.20319992

advantage_stream.0.weight f4 [64, 128]
000000 2a 2a 54 bb 08 2d b6 3a 54 43 2f be 66 67 bb 3e
       -0.0032373765 0.0013898918 -0.17115527 0.36602324
000010 39 7b 11 3e 36 fc e0 bd 74 6a 0a bc 2d 19 23 3e
       0.14207162 -0.109856054 -0.008448232 0.15927573
000020 7f 45 86 3d 28 69 a2 3c 6d 96 23 bd 59 40 d9 3d
       0.06556224 0.019825533 -0.03993838 0.106079765
000030 68 ec 1a 3d 60 4c de bd ff 92 15 3f 27 4a 84 bd
       0.03782311 -0.10854411 0.58427423 -0.06459456
000040 08 ca 83 3d 76 2d 7c be fd b2 66 3c 2b d7 e9 bd
       0.06435019 -0.24626717 0.01408076 -0.11417993
000050 2f f4 95 be 20 3c 2b be e1 69 c8 3c 2a 76 dd be
       -0.2928786 -0.16722155 0.02446455 -0.43254215
000060 97 35 23 3d 48 d9 92 be 8a fe e6 bd 63 e6 8d bd
       0.03984603 -0.28681397 -0.11279018 -0.069287084
000070 31 b0 46 3e d0 90 af 3e 6a 7e 88 3d 95 22 61 bd
       0.19403149 0.3429017 0.066647366 -0.05496462
000080 55 f8 8b 3d 6d df cc 3d 57 bb 32 be e4 80 0f 3e
       0.06834475 0.100035526 -0.17454277 0.14014012
000090 93 7a 6f bd e1 1a 85 3c 1e 04 45 bb a4 42 ca 3e
       -0.058466505 0.016248168 -0.0030062268 0.39503968
0000a0 c4 7f 99 bd 68 6a 28 3e 71 6f 0e be 7f 1d 89 3e
       -0.074950725 0.16446841 -0.13909699 0.26780316
0000b0 62 e3 e2 bb dd cd e3 bd 8d c5 54 3e 3f ba 90 3e
       -0.006924079 -0.1112325 0.20778485 0.28267094
0000c0 22 d5 2e 3d 3d 8a 25 be 88 35 16 3e 74 7c 59 bd
       0.042683728 -0.16166015 0.14668858 -0.053097203
0000d0 12 ab bc bd 4e a2 68 3e a9 eb 5c be 17 0e 7a be
       -0.092123166 0.22718164 -0.21574272 -0.24419437
0000e0 d3 70 35 3e 92 d5 0c 3e b5 70 a8 be 1f 25 88 be
       0.1771882 0.13753346 -0.3289849 -0.2659082
0000f0 73 40 8e 3e 0f ca 83 3c b5 47 28 be 06 de a5 3c
       0.27783546 0.01608756 -0.16433604 0.02024747
000100 d4 b2 0a bd a3 c1 f7 3b 6d 2d 20 3e 79 3d 21 3e
       -0.03386195 0.007560925 0.15642329 0.15746106
000110 d4 a1 97 3d 90 de cc bd ae 56 09 bd a0 93 84 3d
       0.07403913 -0.10003388 -0.03352993 0.0647347
000120 63 1c 01 3e 5f e8 58 be 75 9b 50 3e 1a 62 5a 3c
       0.12608485 -0.21182393 0.20371802 0.013329053
000130 a8 92 2a 3c 8f 1d 32 bd ee b4 73 bc 20 c8 75 3c
       0.010410942 -0.04348522 -0.01487468 0.015001327
000140 0f 96 00 be bb 18 25 be d7 e4 2e 3e d2 f4 87 3e
       -0.12557243 -0.16122715 0.17079483 0.2655397
000150 61 36 f3 3e a7 1a 06 3e 38 8d ea 3c f0 37 87 bc
       0.47502425 0.13096105 0.028631791 -0.016506165
000160 68 2e da 3e b6 01 71 be f4 f3 aa 3e 71 f9 d6 bc
       0.4261353 -0.23535809 0.33389246 -0.02624199
000170 52 c2 e7 3c 5f fb e1 3e 86 35 b3 3d 38 37 36 3e
       0.028290901 0.44137093 0.08750443 0.17794502
000180 2b 63 bf b9 f3 71 c8 bd a9 b8 c7 bd 4c 07 77 3c
       -0.00036504245 -0.09787359 -0.09752018 0.015077423
000190 74 2b cf bd 07 43 b4 be 0c d5 cc bc eb 0d 8f be
       -0.1011571 -0.35207388 -0.025003932 -0.27940306
0001a0 45 68 e0 3c ed 74 9b bc b3 f2 26 3e be a1 57 3d
       0.02739347 -0.018976653 0.1630352 0.052644484
0001b0 d1 9b 4d bd cb a0 5a 3b a3 e8 bd be dc 2f ad bd
       -0.050197426 0.003336 -0.3709155 -0.08456394
0001c0 8e 8f 63 3e ac c2 af bd 38 b5 c8 bd 6a b9 13 3e
       0.2222273 -0.085820526 -0.0980019 0.14426199
0001d0 3b 63 c9 3e e1 70 33 3f 19 a5 61 bd 61 e0 cc bd
       0.3933352 0.70094115 -0.05508909 -0.100037344
0001e0 59 6e 20 ba 40 6a 83 3d 89 c7 80 be 0b 87 89 bd
       -0.00061199587 0.0641675 -0.25152233 -0.067152105
0001f0 bc f7 40 3e 06 5e 8b be de 9b 0a 3c 3f 39 b7 3d
       0.18844503 -0.27220172 0.008460013 0.08946466
000200 5d 45 e6 3d 6e d8 76 bd e4 2b 54 3d 57 9e 15 be
       0.11243699 -0.060264997 0.05179967 -0.14611183
000210 87 3f ff 3d 1f 07 45 be c0 b5 56 3e 28 e5 37 be
       0.12463289 -0.19240998 0.2096777 -0.1795851
000220 8d 91 8d bd e9 92 10 be c6 6f 06 be 19 bb 6a 3e
       -0.06912527 -0.14118542 -0.13128576 0.22922935
000230 2b 7f 1e 3e e8 89 2f be 78 bc ab bd f6 c8 00 be
       0.15478198 -0.17142451 -0.08385557 -0.1257666
000240 84 c2 a5 3e fe 6e d7 3e 89 3b 83 bd e8 04 3f 3d
       0.32374966 0.42076868 -0.0640784 0.04663554
000250 e0 1f 57 be 1a b9 31 3d 7a 7a d1 bd 6e f9 d3 3e
       -0.21008253 0.043389417 -0.10228439 0.41401237
000260 5d d9 f0 bd f2 16 63 3d d1 56 b1 3e d5 94 05 be
       -0.11760209 0.055441804 0.34636548 -0.13045056
000270 e6 48 97 bb 7c 6c 6f 3d 0e db 2a 3e a6 d6 83 bd
       -0.0046168445 0.058453068 0.16685125 -0.06437425
000280 ba 1e 5c be 8a fa 38 bb 96 b5 10 3d 9c f9 f9 3e
       -0.21496096 -0.0028225505 0.035329424 0.4882325
000290 97 35 d8 3b e1 02 aa be 7e 00 98 be b2 3a 26 3b
       0.0065981853 -0.3320532 -0.29687876 0.0025364575
0002a0 a7 22 c9 3e d7 a6 44 be 46 d0 fe bd 99 32 b3 bd
       0.3928425 -0.1920427 -0.12442069 -0.08749885
0002b0 ff c1 0a 3f 14 08 a8 3d 86 6f 65 3e a3 ac 41 be
       0.54202265 0.08204666 0.22405824 -0.18913512
0002c0 40 24 cf bb 29 c1 d4 be 1d 99 ae bc 36 b6 c2 bc
       -0.00632146 -0.4155362 -0.021313244 -0.023768526
0002d0 a4 67 1a bd 11 4c 03 3f 5f f1 0b 3e 1e 1f 97 3d
       -0.037696496 0.51287943 0.13666295 0.07378982
0002e0 63 30 4d 3e 8a 3b 8c bd 12 8a e4 be 5c f7 13 be
       0.2003799 -0.06847294 -0.4463659 -0.14449829
0002f0 4c ed 4b be 76 88 10 3e 6e 69 e7 3e 3a b5 30 3e
       -0.1991474 0.14114556 0.45197624 0.17256632
000300 64 28 8c 3d 39 67 67 3e 52 5c 03 bd c4 9b 8f 3b
       0.068436414 0.2259797 -0.032070465 0.0043825824
000310 c4 f5 aa 3a 88 55 b7 be 85 0f c3 bc 80 f5 ef bd
       0.0013043215 -0.35807443 -0.023811111 -0.11716747
000320 a9 cc 19 3e 4e 45 80 3e 49 d0 15 be 15 dc a2 3a
       0.15019478 0.25052875 -0.14630236 0.0012425209
000330 f4 a1 88 3d 29 0d b4 3e 23 4f 69 3d 21 d0 e5 3d
       0.06671515 0.3516629 0.056960236 0.11221338
000340 d8 d4 e6 3b 02 39 ca bd 6a ba 87 3e af a2 2c bd
       0.007044416 -0.098741546 0.2650941 -0.042147335
000350 d4 37 76 3d 36 40 4d bc 0a 57 90 be b3 9d bd 3f
       0.060111836 -0.012527516 -0.28191406 1.4813751
000360 d2 5d 02 be 85 26 2b be ce ba 1d 3e cc 89 ba bc
       -0.12731102 -0.16713913 0.15403292 -0.022770785
000370 d7 29 16 3d 3d 75 75 be cc 04 81 be 2a 6e 78 3d
       0.036660995 -0.23970504 -0.25198972 0.060651936
000380 9d 38 bf 3e ad bf 37 bd 98 02 15 3f af 05 41 be
       0.3734788 -0.04486053 0.5820708 -0.18849824
000390 e9 01 98 3d 88 3c 35 3e ef b3 2b bd 18 0a b8 3d
       0.07422239 0.17698872 -0.041919645 0.089863
0003a0 19 d9 8b be 40 98 b2 3d 4b 9d fe 3e a3 80 79 3c
       -0.2731407 0.08720446 0.4972938 0.015228423
0003b0 15 90 0d 3d 42 5d 93 be f5 1c 08 bd a1 72 48 3e
       0.034561235 -0.28782088 -0.03323074 0.19574977
0003c0 26 e6 3d 3f 9b 62 a0 3e e8 96 27 bd 5d 62 92 3d
       0.74179304 0.3132523 -0.0409154 0.071476676
0003d0 f9 15 f3 3e ef b0 73 be d0 82 2b 3e ab 65 e0 bd
       0.474777 -0.23797964 0.1674912 -0.109568916
0003e0 0b 53 24 3f 24 14 05 3e 7c 7a 9d bd a9 30 b9 3d
       0.64189214 0.12995964 -0.07689378 0.09042484
0003f0 23 44 6d be c4 18 82 3e 7e 89 0d 3d 47 c2 4b 3e
       -0.23170523 0.2540952 0.03455495 0.1989833

advantage_stream.0.bias f4 [64]
000000 29 51 a6 bd 5d 82 31 3d 64 c8 35 3d b2 43 c9 bd
       -0.08120949 0.043337215 0.04438056 -0.09827365
000010 83 52 80 3d 58 76 c0 3c 46 d7 8f bd 5e ad 00 be
       0.06265738 0.02349393 -0.07023482 -0.12566134
000020 28 12 f1 3c 99 ed 84 bd d1 11 27 3d a9 b0 7e 3c
       0.029427603 -0.06490631 0.040788475 0.015545049
000030 9f 79 d7 bd 5b ad 66 3d 18 59 b3 bb ff b1 0c 3d
       -0.10521244 0.05631767 -0.0054732673 0.034349438
000040 39 71 00 3d cc 4c fb bd c3 ac b9 3b 3b 3e 60 bc
       0.031357978 -0.12270507 0.0056663468 -0.013686712
000050 5e bd 22 bd 03 0f 90 bd 1d 34 96 3c 61 89 5f 3d
       -0.039731376 -0.07034113 0.018335396 0.054574374
000060 f2 84 ae bd a4 44 5a 3d ad 15 2b 3d 06 9e c9 bd
       -0.08521451 0.053288117 0.04176872 -0.09844594
000070 52 26 af bd a8 d7 51 bd 20 a7 49 bd e6 23 41 bd
       -0.08552231 -0.051231056 -0.04923165 -0.047153376
000080 0b 6c 42 3b 40 85 9e bc da cd b0 3c d4 0e f3 3d
       0.002966645 -0.019350648 0.021582533 0.118680626
000090 de 00 11 3c b9 66 95 3d 9e 5e 2e bd ab 59 a3 3d
       0.008850304 0.072949834 -0.042570703 0.07976087
0000a0 7e f9 40 3d 4f 3d 6e 3d f1 15 27 bd d3 3c b0 3b
       0.047112934 0.058163937 -0.04079241 0.0053783446
0000b0 69 33 ea 3c 02 bd 97 3b d3 c1 8b 3d 30 f3 0e 3d
       0.028588967 0.004630686 0.068240784 0.03489989
0000c0 a2 fe 1e bc 21 e1 d9 3c 97 3b cc 3c 16 78 38 bd
       -0.009704264 0.026596608 0.024930758 -0.045036398
0000d0 dc 73 3f 3d dd e2 0d 3c 93 01 db bb 4b 77 02 3d
       0.04674135 0.008660045 -0.0066835373 0.031852048
0000e0 22 42 dc bc 10 04 23 3d 31 c0 0e 3d 05 54 1c 3d
       -0.026887003 0.039798796 0.034851257 0.038166065
0000f0 8f 6f 2e bc da f4 1c bc 4e 3f 84 bd 74 aa ca 3d
       -0.010646715 -0.009579862 -0.06457387 0.098957926

advantage_stream.2.weight f4 [4, 64]
000000 dc 43 fe 3e af ab 4b be a1 56 f5 3d 2e 69 8a bd
       0.49661148 -0.19889711 0.11979414 -0.06758343
000010 76 f7 15 3e c7 ca 45 3d 75 55 d0 be 73 e9 5a bd
       0.1464518 0.048289087 -0.406902 -0.05344529
000020 7b b3 6b be 23 c5 5d 3e c2 10 07 bf 0f 71 00 bf
       -0.23017685 0.21657233 -0.52759945 -0.50172514
000030 8c 76 b5 3e 96 3c 63 bf ab 65 0d 3e 4c ec ff bc
       0.35442007 -0.8876432 0.13808315 -0.031240605
000040 a9 99 11 bd 69 ee 99 3e ce d9 e1 3d 54 ce ab 3e
       -0.035546932 0.30064705 0.11027871 0.33555853
000050 fb f0 3b 3e 03 5e 9f 3d 06 cb ac 3e eb 06 ae 3e
       0.18353646 0.07781603 0.33748645 0.33989653
000060 c9 e0 a8 3e d0 1c ca be 1f f4 13 bf 7d f4 2e 3e
       0.32983997 -0.39475107 -0.57794374 0.17085452
000070 ea 22 bd 3e fc 71 10 3f f5 38 5d bd 72 b4 81 3e
       0.369407 0.56423926 -0.054009397 0.2533298
000080 b3 f2 9b be 78 47 61 be e9 e4 9a 3e 86 2f bf be
       -0.30458602 -0.2199992 0.3025277 -0.37340945
000090 2c 93 d1 3e af 9d 1a 3e 2c 23 a5 3e 20 de bf 3e
       0.40932596 0.15099214 0.32253397 0.37474155
0000a0 b1 dc 10 3f a3 f7 a8 3d 3b 82 de bd 97 33 e4 3c
       0.5658675 0.08250358 -0.10864683 0.027856631
0000b0 2f bf 11 bf d2 cb 4c 3e 7d df cc be ed c9 8c 3e
       -0.5693235 0.19999626 -0.40014258 0.27497807
0000c0 bf bd fa be 90 9e 14 bf 01 fd 76 bd ed 56 58 3e
       -0.4897289 -0.5805445 -0.060299877 0.2112691
0000d0 60 3c cf 3d 16 f0 e3 bc fe d5 45 3e a6 34 fd 3e
       0.101189375 -0.027824443 0.19319913 0.4945423
0000e0 44 3a 7a 3d cd 11 8b be 75 65 0e bd e1 10 f3 3c
       0.061090723 -0.27162018 -0.034764726 0.029671134
0000f0 72 e3 35 be 83 b6 41 3f 02 b4 3a 3d 03 27 20 bf
       -0.17762545 0.75669116 0.045581825 -0.6255953
000100 de d1 52 3e 31 df 99 bf 98 46 e6 3e 25 c2 2b be
       0.2058787 -1.2021238 0.44975734 -0.16773279
000110 fb ff 5e be 29 d8 0c 3d 07 30 1f 3f 08 a1 8f 3e
       -0.21777336 0.034385834 0.6218266 0.28052545
000120 a9 3b 62 3e 6c b6 91 3e 96 26 97 3e 8a 14 8b 3e
       0.22093071 0.2845949 0.29521626 0.27164108
000130 ac 26 16 bd 3d de 77 3c 19 07 ec 3d b4 1d a1 3d
       -0.036657974 0.015128669 0.11524791 0.078669935
000140 ce cd 0c be 34 86 4d 3e ea 92 19 bf 3c 80 99 bf
       -0.13750383 0.20070726 -0.599898 -1.1992259
000150 7d ec 9e bd 68 17 0c 3e 50 47 24 3f 2d d7 c3 3e
       -0.0775995 0.13680804 0.64171314 0.38250104
000160 34 ee db 3e 42 5a be 3e 9d a7 91 3e bf 80 8b be
       0.42955172 0.37178236 0.2844819 -0.27246663
000170 65 50 19 be 67 bf c0 3e df b3 44 3e 71 74 4f bf
       -0.14972074 0.37646028 0.1920924 -0.8103705
000180 1b 09 a4 3e 5a e5 40 be 57 18 9d 3e 1a 61 1b bf
       0.32038197 -0.1883749 0.30682632 -0.6069504
000190 9b 11 99 3e 6d 3b 10 3f 9a 79 a4 bf c7 c4 d9 3e
       0.29896244 0.56340677 -1.284961 0.42532942
0001a0 55 3f bf 3e 91 66 62 3e 1b c0 22 3e e6 5b 9d 3e
       0.37353006 0.22109438 0.15893595 0.30734175
0001b0 87 3e 83 3c 2b 82 36 be 4b f2 e4 bd 07 8f dd 3e
       0.016021026 -0.17823093 -0.11179026 0.43273184
0001c0 4d 01 04 3f a7 36 55 3e af cc 8d 3e f7 d9 82 3e
       0.51564485 0.2082163 0.27695224 0.2555692
0001d0 b5 59 fe bd f0 43 a2 3d 0d 02 b5 3d a8 77 ac 3e
       -0.12419454 0.07923114 0.08838282 0.3368504
0001e0 c3 1b ce 3d 22 81 ff 3e 48 10 f2 3d 2b d3 48 be
       0.10063889 0.49903208 0.11819512 -0.19611804
0001f0 11 48 6f 3e 8c de fb 3e f4 39 29 3e e5 fe 1f bf
       0.23367335 0.49193227 0.16526014 -0.62498313
000200 31 c8 94 be ee 1b 46 3c 30 7a 01 be 8a 31 08 bb
       -0.29058984 0.01209162 -0.12644267 -0.002078148
000210 a5 90 a3 3e 8d 19 a5 be 37 1c c8 3d d0 b5 d9 be
       0.31946293 -0.32246056 0.097710066 -0.42521524
000220 59 2d 39 3f 22 45 96 3e ad 0e cc bd e6 79 f3 3e
       0.7233482 0.2934962 -0.09963737 0.4755394
000230 56 34 64 3d b6 2c 4a 3e d0 94 9b bc e8 25 19 bf
       0.055713974 0.19743618 -0.018991858 -0.59823465
000240 9c 63 66 3e 26 7e 6d 3e 43 fb d9 be ed 9a 94 3e
       0.22498935 0.23192653 -0.4257451 0.2902445
000250 eb c3 b0 bd 9b c3 5e bf 8f 34 35 be f0 27 8c be
       -0.086311184 -0.8701722 -0.17695831 -0.2737422
000260 c6 e4 99 3e aa 78 93 3e 44 4b 11 3e 08 b9 5b 3d
       0.30057353 0.28802997 0.14188868 0.053643256
000270 c2 9b 5a be 1a 9e b6 be fb d0 b5 3e 2e 15 88 3e
       -0.2134848 -0.35667497 0.35511002 0.2657866
000280 7a ba 1b be c9 d4 97 bd 30 97 f9 be 44 e7 03 3f
       -0.15207854 -0.074136324 -0.4874816 0.5152476
000290 d7 12 24 be 4e f8 db be 56 5c a8 3e c9 6d 18 bf
       -0.16022812 -0.4296288 0.32882947 -0.5954252
0002a0 ff c9 e5 3e b5 29 1a bf 31 0d ae 3c 51 d3 78 bb
       0.44880673 -0.6021989 0.021246525 -0.0037967751
0002b0 dd 70 d6 3e 64 52 23 be b7 e0 26 3f 2f 4e e2 be
       0.41882983 -0.15949398 0.6518664 -0.44200274
0002c0 cf 07 43 3e 55 3e 15 3e 84 26 6a be 0b ad 42 bf
       0.19045947 0.14574559 -0.22866255 -0.7604529
0002d0 8f 9a dd 3d da 9a 28 be 0b 0a 9b be b3 5c e5 bf
       0.10820495 -0.16465321 -0.302811 -1.7918915
0002e0 24 8d 33 3e 54 43 eb 3e b2 8b 8e bc 1b 29 19 3e
       0.1753431 0.45949805 -0.017400596 0.14957087
0002f0 53 1a ef 3c 99 1a 05 3f 35 aa 24 be 25 5b 30 3f
       0.029187357 0.5199371 -0.16080554 0.68889076
000300 16 82 f4 bd 70 12 62 bc 74 c0 7c 3e 34 3d 4d be
       -0.119388744 -0.013798341 0.2468279 -0.20042878
000310 6f 8a 35 3e d2 01 29 3d 78 28 28 bd 96 82 14 be
       0.1772859 0.0412615 -0.04105422 -0.1450294
000320 e5 fd 06 3e 65 26 91 bf d1 99 30 3e 53 9a f9 3e
       0.1318279 -1.1339842 0.17246176 0.48750553
000330 a3 df 6f 3e 68 9f e8 3e 18 08 dd be 07 41 50 3e
       0.23425154 0.45434117 -0.43170238 0.20337306
000340 9c 5d 98 be 06 0e 04 bd 04 92 12 3d ea da 80 3e
       -0.29758918 -0.032239936 0.035783783 0.25167018
000350 db d5 0a 3e eb c0 3d 3e 5c ea 01 bf b0 70 e5 bd
       0.13558142 0.18530624 -0.5074823 -0.11203134
000360 21 19 5c bf ad ac dc 3e 7d dc 6e 3e 77 47 10 be
       -0.85975844 0.4310049 0.23326297 -0.14089762
000370 61 a4 4e 3e c0 0d 29 be 03 d2 07 bf 9d 91 ab bd
       0.20179893 -0.16509151 -0.5305483 -0.08377383
000380 ed 77 96 3e 32 05 c8 3d 66 73 d9 be 3a 95 31 3f
       0.2938837 0.09766616 -0.42470855 0.69368327
000390 7e c9 4f be 7a c2 90 be d3 ef b3 3e a0 93 46 bd
       -0.20291707 -0.28273374 0.3514391 -0.04848063
0003a0 9a e6 78 bf 48 02 0c 3e 57 34 7f 3d d9 92 26 3d
       -0.9722687 0.13672745 0.062305775 0.04066739
0003b0 a5 db dd 3e e3 d2 04 3f 45 68 d2 3e 76 29 85 be
       0.43331638 0.5188429 0.41095176 -0.26008195
0003c0 8c 72 d6 3e b8 6a 1a 3d 3f b5 18 bd cd 48 de 3d
       0.41884267 0.03769943 -0.037282225 0.108537294
0003d0 4c 8a 99 be a6 a8 01 3e d1 80 94 3d 8d 46 06 3f
       -0.29988325 0.1266199 0.07251132 0.524514
0003e0 15 f7 9a 3d ad 89 6f 3c e4 46 8b 3e f4 05 1c 3e
       0.075666584 0.014620227 0.27202523 0.15236646
0003f0 57 16 76 be e4 b7 62 bf a7 9e 8e bd da 53 23 3f
       -0.2403196 -0.88561845 -0.06963854 0.6379982

advantage_stream.2.bias f4 [4]
000000 d8 cc 06 3e 23 10 5b 3d 88 8a d4 3d ee 24 0d be
       0.13164079 0.053482186 0.10377985 -0.13783619
