models/snake_dqn_ep23_score2_20250302_153403.pt (torch, 617250 bytes, 44 tensors)

feature_layers.0.weight f4 [128, 24]
00000000: dc6a b63c 5893 1ebf 3a58 d7bd 2c33 9dbd
00000010: a675 78be 9c73 b13e 0218 70be 531d 763b
00000020: 446e 45be 07b9 18bb a5cb 95be e280 2f3e
00000030: 92e8 04be c430 933e f444 e63d a66f bf3e
00000040: 25fd 1bbe 7a74 bbbe 7829 5dbf 8834 7d3e
00000050: 3338 163e 9deb 92be 669b c5be d5c3 a8be
00000060: a4b4 dbbe 6a94 00bf fef7 a639 6752 8ebe
00000070: ae1b 81be df62 f93e 6ce0 b9be 4498 433d
00000080: 2b14 043e fa30 cbbe df5a 863e d9a2 ac3e
00000090: f1bf 7a3e 283b d0be aed7 1b3e 2658 c6bd
000000a0: 8e5a 023e 60e6 4fbe 83b7 71be 66cc 3bbe
000000b0: d1ad 823e ae1f 933e 9029 f53d 45c3 203f
000000c0: 140f 0ebf c49a 163f b4cb 81be 0780 023e
000000d0: 330e 423e 6737 823e 055d 0e3d 032b 393d
000000e0: 306c 84be 712e e7bd bfdd 163f ee6c 0b3e
000000f0: a8d2 e3bc d9e1 6dbe e478 61be e03e 9d3e
00000100: b946 943c 4f60 f63e 270f f73d da36 02bf
00000110: b3dc 6f3e 19f6 283f 3098 edbe 4eb3 453c
00000120: ae1b ebbd f06f 213d 5181 893d a40c 1e3d
00000130: 9fcc e9be 7381 60be d84a 9c3d ee53 8dbe
00000140: 4af0 42be 4262 003d 769f 623e 3eae 15bf
00000150: aa32 b2be 901d 303e b7b5 1e3e 4c09 02be
00000160: f36f 9fbe 0366 50bf 725f 233e 85ea d73d
00000170: 1c49 9e3d 3bdb 7b3e ad42 f73d 2462 c93d
00000180: 66a0 09bd 6f30 ac3d 3a10 cb3d b118 c0bc
00000190: 6f86 143e e968 1c3e 9d95 2cbe 5ecf b53e
000001a0: 5f2c 9dbd 7df8 b23e bdf3 cabe 3a2d f63d
000001b0: 023c c83e dff7 1ebd 8280 55b9 5380 e0ba
000001c0: 077e 2fbf 7dec 8e3d cb3f e9bd febd 6d3e
000001d0: e581 893e 4975 afbd 704b d63e a753 57be
000001e0: e47c 053d 0722 0fbd 8c66 b3be 5bf7 2cbb
000001f0: 7ada 183e fef0 dcbd e494 4dbe d051 d33d
00000200: 4c7a 15bf 513e a1be ac96 82be 2da3 cf3b
00000210: 0a1b 313e b72e c1be b33d d93b 5912 b43e
00000220: bc3a fabd 1587 253d ffc3 3b3f 66e2 003e
00000230: e1d1 a1be 5523 083f 0b39 0fbd f0e6 df3e
00000240: d064 a43e 0b39 90bd 3b6e 853e 54fa eebe
00000250: 3963 07be 64bd a8bd 3f4d b43e 2cbd 38be
00000260: 5822 e9bc e94c df3c 6486 dbbd 6411 c63e
00000270: 910a 3c3c 39ab 6abe cf10 d53e 78ac 9c3e
00000280: 6211 943d 3dad e83d fba9 1bbe ad92 dd3e
00000290: 3b39 07bf ac28 cd3e ec49 603f c80d 1dbe
000002a0: d03d 05bf e664 f83e 6f80 d3be f25f 19be
000002b0: d9cd f7bd 58e7 d8bd 3cf7 0a3e 6c81 7b3d
000002c0: 6d77 a0bd eeee c23e 3bbf 963e 0b8d 163f
000002d0: 2d5b f2bd f7c5 a4be cb56 153e f0ee 673b
000002e0: 26a8 4dbf e7b0 7a3e 1c3e 6fbd fa83 f4bc
000002f0: 6e94 53bd 765e bebe 9573 393e eb92 9f3c
00000300: c280 693e 22ae 33be 38a4 a13e 1913 2b3e
00000310: ea40 adbd e6a9 0c3e 4a70 3e3e 18c7 05bf
00000320: 56b8 49be 496b 80bc c884 9e3e 56ff 863d
00000330: f460 903e a969 173e 2ecc fd3e dbb3 8a3e
00000340: fd77 09be fece aebc 0329 d83e fd93 fe3e
00000350: b2b6 afbe 04d7 bebd 3c02 083f de2c b23d
00000360: 7387 ae3c c8b1 8cbe 016f d03d 9c32 0abf
00000370: 8a88 d1be 5940 c3be b9cd 9c3e 8b5e 51be
00000380: 3fc8 c93d 2b40 0bbe 4ce7 bdbd f762 ad3d
00000390: 1b6b 0cbf a5ec 4c3e 3c0f 1abf e8cf 93bd
000003a0: 54dc efbe b179 8d3e 3f26 87be b468 e7be
000003b0: cae0 57be 5188 16be a3c4 883e 3cb1 0f3f
000003c0: 639e 343e 7395 f0be 8d94 0b3f 465c c9be
000003d0: bcb4 123d 3e79 2f3e 13d9 69be e80d 0dbe
000003e0: d12e 92be d607 413e d9d8 c23d 5e8c eebd
000003f0: bb50 86be 51f7 f03d ad34 11be 16f3 e93e
0.022267751 -0.6194358 -0.10514875 -0.07675776 -0.2426363 0.34658515 -0.23446658 0.00375541
-0.19280344 -0.0023303644 -0.2925693 0.17139009 -0.12979344 0.28748143 0.112436205 0.37389868
-0.15233286 -0.36612302 -0.863914 0.2472707 0.14669876 -0.28695384 -0.38595122 -0.32961908
-0.42911255 -0.5022646 0.00031846756 -0.27797243 -0.2521643 0.48708245 -0.36304033 0.047752634
0.12898318 -0.39685804 0.26241204 0.33717993 0.24487282 -0.40670133 0.15218994 -0.09684782
0.12729856 -0.20302725 -0.2360516 -0.1833969 0.25523236 0.28735107 0.11970818 0.6279796
-0.5549176 0.58829904 -0.25350726 0.12744151 0.18950729 0.25432894 0.03475668 0.045207035
-0.2586379 -0.11288155 0.5893211 0.13615772 -0.02781041 -0.23230685 -0.22018772 0.30712032
0.01810013 0.48120353 0.12063437 -0.50864947 0.23424034 0.66000515 -0.46405172 0.012066675
-0.11479889 0.039413393 0.06714118 0.038586274 -0.45663926 -0.21924381 0.07631463 -0.27603096
-0.19036976 0.031343706 0.22131142 -0.58469 -0.3480428 0.17198777 0.15499006 -0.12698859
-0.31140098 -0.8140566 0.15954378 0.10542778 0.07728788 0.24595349 0.12073264 0.09833172
-0.033600233 0.084076755 0.09915204 -0.023449274 0.14504407 0.15274395 -0.16853948 0.3550977
-0.07674479 0.34955207 -0.39639083 0.12020345 0.39108282 -0.038810607 -0.00020361136 -0.0017128087
-0.6855168 0.069787 -0.11389121 0.23217008 0.26856914 -0.08567292 0.4185443 -0.21028005
0.032589808 -0.03494456 -0.35039175 -0.0026392553 0.14927092 -0.10788153 -0.20076329 0.10318339
-0.58389735 -0.31492856 -0.2550558 0.0063365907 0.17295471 -0.37730953 0.0066296696 0.35170248
-0.12218234 0.040412027 0.7334594 0.12586364 -0.31605437 0.5317891 -0.03496651 0.4373088
0.32108164 -0.0704213 0.26060662 -0.4667536 -0.13221444 -0.082392484 0.35215184 -0.18040913
-0.02845876 0.027258353 -0.10718992 0.38685143 0.011477129 -0.22916879 0.41614386 0.30600333
0.07229878 0.113611676 -0.15201561 0.43275967 -0.528217 0.40070093 0.87612796 -0.15337288
-0.52047443 0.4851448 -0.41308925 -0.14978006 -0.12099809 -0.10591 0.13570875 0.061402723
-0.07835279 0.38072914 0.29442772 0.58808964 -0.11833797 -0.32182285 0.1458389 0.003539022
-0.803347 0.24481545 -0.05840884 -0.029848088 -0.051655225 -0.37181443 0.18110497 0.019479236
0.22803023 -0.17546895 0.315706 0.16706504 -0.08459647 0.13736686 0.18597522 -0.5225692
-0.19699225 -0.015676158 0.3096068 0.0659167 0.2819897 0.147864 0.4956984 0.27090344
-0.13424678 -0.021338936 0.4221879 0.4972228 -0.34319073 -0.09318355 0.5312841 0.08699964
0.021304822 -0.27479386 0.10177422 -0.53983474 -0.40924484 -0.3813503 0.30625704 -0.20446222
0.09852647 -0.13598697 -0.09272632 0.08466142 -0.5485093 0.20012148 -0.60179496 -0.07217389
-0.46847785 0.27631906 -0.26396367 -0.4519707 -0.21081844 -0.14700438 0.26712522 0.56129813
0.17638545 -0.4698902 0.54523546 -0.39328212 0.035816893 0.17136094 -0.22836713 -0.13774836
-0.28551343 0.18850645 0.09514017 -0.11647867 -0.26233467 0.11765922 -0.1418025 0.45693272

feature_layers.0.bias f4 [128]
00000000: 8f9a 1b3e 45ed 90bd 2687 303e 5bec 463e
00000010: 43bd 14be e8be 203d 4265 253b 972b 353e
00000020: 156c 803e 334b 2d3e f5aa 503d 3b1d f53d
00000030: 4589 483e d4ee 363d 0df3 9cbd 453e 85bd
00000040: aa3a 6ebd 46b4 7c3e 0b1d 6e3e a934 4fbd
00000050: 8ed1 093e afb5 9c3d a30e a2bd 3bf0 f93c
00000060: 07e2 f6bd f247 4a3d cf6c 303e 6689 3ebd
00000070: c812 6f3c 44e5 01be dd1b ac3c 70e4 33be
00000080: 49de e63d 7f06 4b3d 1ee3 e83d e16f 25be
00000090: 28a1 263e 1459 063e baa1 12be 278b 7fbe
000000a0: 4c00 023e f3ff 9b3d f3f7 31be c6ca 1d3e
000000b0: 2409 823e ee72 4d3e 5a15 b63d 60ec a13d
000000c0: 4da9 323e c5d3 0bbc 183a b23c e1a6 a93d
000000d0: b141 1b3e 8e10 cbbd 9c50 103e a4f0 2e3e
000000e0: 0bb5 5dbd a49e b73c 59a9 fabd 2250 93bc
000000f0: 02c1 473e c9a9 32be ca0e e1bc 0c17 d83d
00000100: 9104 70bd 3d1e 893d 8d2e 84be e65b f3bd
00000110: 01db 2dbe 0323 c13d c838 163e 7971 25be
00000120: cd19 6e3e 1f9a 353e 24a3 473e 8fe0 1dbe
00000130: e0d7 7a3d 7e3c acbd dee3 d33d eb04 713e
00000140: 8374 533e 005c dfbd 3e34 d6bd a7a4 383e
00000150: 6258 1bbb a9fc 3f3d f8e1 2a3d 179c cc3d
00000160: 7150 fa3d 5506 adbc 67d5 1f3d 5b5a 283e
00000170: c2f0 553e 3091 2b3d 8f85 3ebe 08ae 1e3e
00000180: e55d 15be a432 073e 83d2 513d f6de 1c3e
00000190: 2e96 0dbe 316c 133e ca30 3dbd b9fd 043e
000001a0: a10f c4bd 5b29 eb3d 30bd 173e a56f de3d
000001b0: 12ec 603e 5b4d 2abd 6d2c 8e3e 7145 293e
000001c0: 6a67 793d 6eb4 6b3e 3a64 013e 8c47 363c
000001d0: be1b 0e3e b582 e3bd 5d1f 853e b9b6 c03c
000001e0: 1f24 1bbe 55b0 593e 35e1 3d3b 8f77 68be
000001f0: 06f6 c8bd 1d1c 2f3e 1ea6 99bc f7c7 0e3d
0.15195678 -0.070765056 0.17239055 0.194261 -0.14525323 0.039244562 0.0025237356 0.1769241
0.2508246 0.16923217 0.050944287 0.11968466 0.19583614 0.044661358 -0.07663546 -0.065060176
-0.058161415 0.24678144 0.23253267 -0.05058733 0.13458845 0.07651841 -0.07912948 0.030510059
-0.1205483 0.04938502 0.17229007 -0.046517752 0.01459188 -0.12685114 0.02100938 -0.1756761
0.11272866 0.049566742 0.11371444 -0.1615596 0.16272414 0.13119918 -0.14319506 -0.24955426
0.12695426 0.07617178 -0.17379741 0.15409383 0.253976 0.20063373 0.08890791 0.07906413
0.17447396 -0.0085343765 0.021756217 0.08283783 0.15161778 -0.09915267 0.1409325 0.17083985
-0.054127734 0.022414513 -0.12239332 -0.017982546 0.1950722 -0.1744758 -0.027472872 0.10551271
-0.058598105 0.066952206 -0.25816765 -0.118827626 -0.16978075 0.09430506 0.14670098 -0.16156568
0.2325203 0.17734574 0.19495827 -0.15417694 0.06124103 -0.084099755 0.103461966 0.23537032
0.20649914 -0.109062195 -0.10459183 0.1803156 -0.0023703803 0.046871815 0.041719407 0.09990709
0.12222374 -0.021121183 0.039021876 0.16440718 0.20892623 0.04188651 -0.18605636 0.15496075
-0.14586599 0.13202912 0.05122615 0.15319428 -0.1382682 0.1439674 -0.046189107 0.12987413
-0.095732935 0.11482497 0.14818263 0.10861138 0.21965054 -0.04157768 0.2776827 0.16530396
0.06088964 0.23018047 0.1263589 0.011125457 0.1387777 -0.11108915 0.2600049 0.023524629
-0.15150498 0.21258672 0.0028973345 -0.22701858 -0.0981255 0.17100568 -0.018755969 0.03485867

feature_layers.1.weight f4 [128, 128]
00000000: b3aa 043e 58ad 1e3d 3b81 553e ff97 eb3d
00000010: d907 0cbd ad0b 84be fd57 8d3d 1634 3b3e
00000020: 05b8 f73d bbfb 3bbd a47d 9d3e e0b2 c73c
00000030: 5c44 1bbe 1ac2 85bc 18f6 d53d a71a 613e
00000040: a3d6 2e3e 68d5 72bb 79c1 583e 8be3 63bd
00000050: fe11 0b3e ffdb a9bd 4cda 45be c9d1 15be
00000060: 9d83 143e 2e2c 6c3e d0b2 42be c17d d03d
00000070: 3437 bb3c bf56 84bc aab8 0dbd 5d7a c63d
00000080: 7530 d33d 0603 9cbd d002 80bd 45c3 86be
00000090: 393b e03d 709a 003e ac34 51bd 925d adbe
000000a0: a3fd e13b e6c2 b6bc 6f45 4b3e 64cc 8a3d
000000b0: e075 fcbc acea 05bb ef2b ce3d 5794 cc3d
000000c0: 4194 83be 905e 5bbd a17d 83bd f4fd 3a3e
000000d0: ba3b 99bd 7dc8 4f3e 5ea4 583e 0f42 df3b
000000e0: 5862 273e 2375 b0bd 1511 23be 6190 0f3e
000000f0: fe49 943e fd45 92be 5b18 ae3d f79b 8a3d
00000100: dee0 123d 0985 853d e60a 513d 110d 003e
00000110: 4cac 143c af51 213e dd28 2b3d c2c1 3a3c
00000120: bc01 92bd 3193 b23e 933d 6d3e a124 b13d
00000130: c9fc b33d de5b c73d 28b5 7ebd 0fc7 ef3d
00000140: 458d 333d eb77 5cbc 340d 3bbe ffba afbe
00000150: 0782 fb3d cb1c 25be 4ef5 09be 28fa f93d
00000160: 49bd 103e ce4e f4bd ba82 fe3d 97e2 c2bd
00000170: ea66 2a3e a327 b1bc bbba 9b3d 2604 5c3e
00000180: 412e c33d d660 253e c553 003e 8678 2bbd
00000190: 8789 5bbd 9333 403e 594d a93e 87a0 ff3c
000001a0: f201 2e3e ff94 203e 9e05 e1bd 428b 00be
000001b0: 62e4 30bd 5fca cb3c 93be 9b3e 1bdd c43c
000001c0: 37a1 2b3d 6c52 09bd fff8 6f3d 5b1e 853e
000001d0: 5c96 193e 4195 023e b25f 6cbd 31d3 8c3c
000001e0: fec6 9f3d 90a4 e93c efcb 033e 70f6 95be
000001f0: a8fa 22be 0a51 313e 056d 27bd 4e01 413e
00000200: 5de6 35be c436 fdbd f7a6 2fbe 554c 753e
00000210: ec07 193c 1d7a 91bd 0605 e43b 4808 da3d
00000220: 4b22 a5bd b1d9 a7ba dd58 383d 5042 b43d
00000230: d95e 673e b3d8 ea3d 80b6 be3d 6a67 a13c
00000240: 71aa 44be 8b63 a3bd 57d8 bf3d af06 92be
00000250: af2d 073e 94e7 503e 6ff7 84bd d7aa e83e
00000260: de4f 5fbd 717f 723d e9fa 173d 232a 543e
00000270: d393 5abd acd1 913d 79dc febd 2de5 31be
00000280: 2434 f33d 85c5 753d 9d03 423d 30bb dabb
00000290: f4d2 e4bd c666 c43c 8de0 1f3d 44eb 5b3d
000002a0: a184 97bb 27db 4bbd 17a5 abbd f71b 143e
000002b0: 1b71 a23e e34d 82bd 22c1 fc3d 45ac aabd
000002c0: aa27 b1bd 3dd0 ec3d 1bbf 1cbd 6ee2 0cbd
000002d0: 1805 77bc 0f0d fd3b 44da 483d c63b 3d3d
000002e0: fa06 09be cbf2 db3d b17c 43bd 1b85 8d3e
000002f0: 5420 423e 66f7 d9bd 7d7a 183e bd88 c8bd
00000300: af1d ef3d 9ac3 98bc 3c30 43be bbf4 803e
00000310: 0692 d93c d062 e0bc c231 083d afe6 23bd
00000320: 0e7b 623d 092e 553c bf58 95bb d3c3 ecbd
00000330: 8a9b a93d 1cba 973d 4ec4 a53e 7ada c23c
00000340: bfd5 c73d 4e77 3fbd ccd2 8fbc b26b 41bd
00000350: 6e91 17bd 20f5 b43d a4cb 013e 05c4 ad3d
00000360: bd5f 67be aa16 3ebe 43b0 e2bd 29d1 173d
00000370: 1c98 1a3d 81da 1cbd b955 c7bc cfa1 76bd
00000380: 89cf e83c fdf0 9e3e 9e21 e7bc 986d d1bd
00000390: a1ca 2f3e daaf 14bd 0aa1 0d3e 2729 b2bd
000003a0: 216d 153d 52d8 e0bd 2110 853d ab15 a13d
000003b0: 78bb b6bd 37ff 073e 395f 0b3e dd10 043e
000003c0: e3d9 bc3d a42b a53b 9f85 203e de82 c13d
000003d0: e5f4 9b3c 7d62 c5bd 9d52 483e b057 2d3c
000003e0: 07a8 0bbe dda2 db3d 467d 6d3a 53be 573e
000003f0: 6aaf 223d 1c44 2b3e 2dc6 d33c 0377 5ebe
0.12955742 0.038739532 0.20850079 0.115036 -0.03418717 -0.25790158 0.06901548 0.18281588
0.12095646 -0.045894366 0.3075992 0.024377286 -0.15162796 -0.016327906 0.10447329 0.21982823
0.17074065 -0.003705347 0.21167554 -0.055636924 0.13581082 -0.08293914 -0.19321555 -0.14630808
0.14503331 0.23063728 -0.19013524 0.10180236 0.022853471 -0.016154645 -0.034599937 0.09691308
0.10311977 -0.07617764 -0.062505364 -0.26320854 0.10948796 0.12558913 -0.051075622 -0.3386045
0.006896691 -0.022309732 0.19850706 0.06777266 -0.030817926 -0.0020434065 0.100669734 0.09989231
-0.25699046 -0.05355698 -0.06420446 0.18260938 -0.07482095 0.20291324 0.21156451 0.0068132947
0.16346109 -0.08616092 -0.15924485 0.1401992 0.28962702 -0.28569022 0.08500739 0.06768029
0.03585898 0.06519515 0.051035784 0.12504984 0.009074282 0.15753816 0.041787017 0.0113987345
-0.07129237 0.34877923 0.2316802 0.086495645 0.08788449 0.09734319 -0.062184483 0.11707889
0.043835897 -0.013456325 -0.18266755 -0.34322354 0.1228066 -0.16124265 -0.13472483 0.12205917
0.14134707 -0.11929093 0.12427278 -0.09515875 0.16640821 -0.021625346 0.076039754 0.21485958
0.095303066 0.16150221 0.12531956 -0.041862987 -0.053597953 0.18769674 0.33066824 0.031204475
0.1699293 0.15681837 -0.109873995 -0.12553123 -0.043186553 0.024876771 0.30418834 0.024031213
0.041901793 -0.03352587 0.05858707 0.25999722 0.14998764 0.12752248 -0.05770845 0.017190548
0.078016266 0.028520852 0.12870763 -0.2928958 -0.1591593 0.1731607 -0.040875454 0.18848154
-0.17763658 -0.12363961 -0.17153536 0.239549 0.009340268 -0.071033694 0.0069586067 0.10646111
-0.080631815 -0.0012805966 0.04500662 0.088017106 0.22594775 0.11467113 0.09312153 0.019702632
-0.19205643 -0.07977971 0.093674354 -0.28520724 0.1320102 0.2040084 -0.06492507 0.4544284
-0.054519527 0.05920357 0.03710452 0.20719199 -0.053363632 0.0712007 -0.124443956 -0.1737258
0.118751794 0.060002822 0.047366727 -0.0066751465 -0.111730486 0.023974787 0.039032508 0.053691164
-0.004623965 -0.049769547 -0.08381098 0.14463793 0.31726918 -0.06362512 0.12341525 -0.08333639
-0.086501434 0.11563156 -0.03826819 -0.034395628 -0.015076898 0.007722504 0.04903628 0.046199583
-0.13381568 0.107396685 -0.047726337 0.27640614 0.18957645 -0.10642891 0.14890476 -0.09791706
0.116755836 -0.018647958 -0.19061369 0.25186715 0.026558887 -0.027390867 0.033250578 -0.04001492
0.055293135 0.013011464 -0.0045576985 -0.11560788 0.0828162 0.074085444 0.3237633 0.023785818
0.09757566 -0.046744637 -0.01755657 -0.047221847 -0.037003927 0.088358164 0.12675339 0.084846534
-0.22595115 -0.18563333 -0.110687755 0.037064705 0.03774272 -0.03829432 -0.024332868 -0.060212906
0.028419273 0.31043234 -0.028214272 -0.102259815 0.1716714 -0.036300518 0.13830963 -0.086992554
0.036481027 -0.1097876 0.06497217 0.07865461 -0.089224756 0.1328095 0.13610543 0.12897058
0.09221246 0.0050406028 0.15675972 0.09448789 0.019037673 -0.09637926 0.19562764 0.010579988
-0.13638316 0.10724423 0.00090595 0.21068697 0.03971807 0.167252 0.025851334 -0.21725087

feature_layers.1.bias f4 [128]
00000000: a4c2 933d 17f6 243e ac5f e13c e310 a8bd
00000010: 9f18 763d a083 b23d 664d 1e3d 1f66 92bc
00000020: 0bc8 30bc 365c 083e 25e9 e0bc 081e 89bd
00000030: 99c6 da3c 9dd0 273d 4f0f e3bc e3a1 49bd
00000040: 9017 e93c 07ef 08bd 1539 043e 8416 ea3d
00000050: 2751 e33d 819e 353d c685 ccbd cab4 f6bc
00000060: c03e 8e3d 1379 863d 4b80 9dbb bafa 993d
00000070: 7a64 5bbd ca0a c0bd 0d04 273d 9d55 863d
00000080: bead d0b8 abc4 adbc 9cc1 d73d 2555 94bd
00000090: 5ef0 33ba fc8e adbd 16b4 c03c d6ee d83d
000000a0: 154d 583d 7381 64bd 281c 00bc 30bb 473c
000000b0: 80ef 04be 62d7 62bc 22ea 7dbc aeea cbbd
000000c0: 25af a83d 6d44 0abc a89b 81bd 2726 c43c
000000d0: bc2d bdbc 6d5a 6fbc 87cd a4bc 31dc abbc
000000e0: e259 c63d 572d e33c 4c15 10ba 33dc 6bbd
000000f0: 667b 20bd 6b12 8bbd b49b cf3d 678d db3d
00000100: ea29 be3d 872c 00be 4152 be3d 384b ce3d
00000110: fee3 6bbd 945f 693d 6a5a cfbd dfb3 afbd
00000120: c3f2 37bc 5db7 173e 4935 0abc 400c 053d
00000130: dc67 163b a679 113d c0f1 b93d 5570 e13d
00000140: f6a9 163d a52f fb3d de3d bfbd bf93 713b
00000150: 95ee b1bb 9feb 5ebd 8f11 093d 1fba 43bd
00000160: 03e9 393d 7a99 013e ea5c 78bd f19a babc
00000170: 4e99 0b3e 9012 57bc 1d84 31bc 7ec4 d1bd
00000180: 47ee a33d 2665 c43d 0c70 28bd deb7 003d
00000190: c3be df3c d9fe 543d 3214 b33d 360d fc3c
000001a0: d761 933d d330 a03d 7ef4 36bd 2add 6c3d
000001b0: aece a3bd ec68 873d 5ea8 9d3d eca6 163d
000001c0: 6d94 43bd 15dc e6bd 1816 993d 58e3 8d3c
000001d0: 8720 003d f8b3 2fbc 1a3a bf3d 730c 123d
000001e0: 95d3 933d b8a3 ddbc e533 533d 1ffd bcbc
000001f0: adfb 90bd 52f6 16bd 4711 d9bd fdab c53c
0.07214859 0.16109501 0.02751144 -0.08206346 0.060082074 0.08716512 0.03864803 -0.01787096
-0.010789881 0.13316426 -0.027454922 -0.06695181 0.026706027 0.040970434 -0.02771726 -0.049226653
0.028453618 -0.03343108 0.129124 0.11430076 0.11099463 0.044340614 -0.09986453 -0.030115504
0.06945562 0.06566062 -0.0048065535 0.075185254 -0.05356262 -0.09377058 0.040775348 0.06559298
-9.950575e-05 -0.021211943 0.10534975 -0.072428025 -0.00068641256 -0.08474538 0.023523372 0.10592429
0.052807886 -0.055787515 -0.007819213 0.012190625 -0.12981987 -0.013845297 -0.015497716 -0.09956871
0.08236531 -0.008439166 -0.06328517 0.023943974 -0.023093097 -0.0146089615 -0.020117534 -0.020979019
0.096851125 0.02773158 -0.00054963375 -0.057583045 -0.039180182 -0.06790622 0.1013712 0.1072033
0.09285338 -0.12516986 0.092930324 0.100729406 -0.057590477 0.056975916 -0.10124667 -0.085792296
-0.0112273125 0.14816041 -0.008435556 0.032482386 0.0022950089 0.035516404 0.09079313 0.11007754
0.03678318 0.12264947 -0.09337972 0.0036861745 -0.0054300525 -0.054423925 0.03346401 -0.04778492
0.045388233 0.12656203 -0.060635485 -0.02277896 0.136327 -0.013126984 -0.010834721 -0.10242556
0.08004432 0.09589605 -0.04112248 0.03142535 0.027312642 0.052000854 0.08744086 0.030768018
0.07196396 0.078218125 -0.04466676 0.057828106 -0.079984054 0.06611809 0.07698129 0.036780283
-0.04774897 -0.11272446 0.07474917 0.01732032 0.03128102 -0.01072406 0.09337254 0.035656404
0.072180904 -0.027055606 0.051563162 -0.023069916 -0.07079253 -0.036856003 -0.105989985 0.024129862

value_stream.0.weight f4 [64, 128]
00000000: bbb1 99bd 1bbb 18be 3b5e 0d3e f77e 07bd
00000010: d90a 2b3e 55b1 063d 5147 cc3d ef96 91bd
00000020: 8cce 973c b7fa f9bd 00dd 343c 68aa 3fbd
00000030: bc06 4ebe 8286 e4bc c695 23be a61b a63d
00000040: 62b7 0e3e 2a5e 873d a2ed 87bd 1375 34be
00000050: 60b9 453d c1de 5cbe e958 acbd 50f0 afb9
00000060: 4726 f8bd 788a 793e a1c3 1abd 72d0 343e
00000070: 745a 553d 73ec 563c 9522 663e a8dd d6bc
00000080: 9ea1 05be 427c f33a 8be9 92be 5171 3c3e
00000090: 3392 1a3e 1bcc f33d bcb9 103d 60f5 04be
000000a0: 18cb 96bb 02ea 8f3e 6fe5 963c 6ab9 983d
000000b0: 7921 003d cc02 55be bb14 bd3c e0fb 8dbe
000000c0: b0aa a73d 09a6 453d 8d82 1b3e 287e 873d
000000d0: a24a f93d dae4 32be 7bc0 8d3d 64ed 043e
000000e0: 0a8a 2dbc bf74 df3d e844 2cbe 797d a0bd
000000f0: 0bcd eabd fdef d93c c420 b5bd e2d1 1d3d
00000100: cfab d73d 7826 663e b003 21be 85e6 49bd
00000110: d423 1dbd 4e1c 21bd bc38 493e 570f bd3e
00000120: 7e54 6dba 4b14 7fbd e7eb 0a3e 48a9 9ebd
00000130: c9ae 87be 474a b53d 8292 223d 5846 fcbd
00000140: cb94 03bd b137 ee3a af62 ee3c 3d75 85be
00000150: abef e6bd 5999 11bd 1078 ca3c 7721 d03d
00000160: c7f4 453d 6351 353e c5ab 093e 7b5d 6f3d
00000170: e57d d4bd 8ada 25bc ab98 03bd 04e8 833d
00000180: 08e3 d93d 3c20 44be 117b 7e3e 1282 e1bd
00000190: 1143 3abe e05d 02bd da51 893d 75d7 953d
000001a0: d339 2e3e 9501 33be 5437 9bbc ef79 993e
000001b0: a57e 15be 935d 1cbe 43cf 1a3e 8219 b73c
000001c0: acfb 0f3e 58d9 fc3d 7a29 183e 0729 cabd
000001d0: b905 023e d1d0 893d 0a5a 0ebe 0b98 b13b
000001e0: b114 b8bc 63d8 77bd ca93 cdbd 32ec a0bd
000001f0: e986 643e b47d 00bd cb89 bcbc f325 f83d
00000200: d838 7abe 9fc3 dabd db82 813d 9750 15be
00000210: 92a5 d2b9 d6d1 86bd 7b95 6ebc f0a2 54be
00000220: 6a30 c53d c4fa 893c cbd7 1c3d 32dc 573e
00000230: 0edd f3bc a5d8 b4bd e1fb a8bd 9cb3 41bd
00000240: 8908 8ebd 4678 21bc 7824 c8bd 751a a63b
00000250: a48f 21be 32c5 80bd 3afe 703e 9a15 323e
00000260: aaa6 2ebe 4bc9 f93d be92 96bd 5a77 fb3d
00000270: ee4c 203d 5fac b13b df15 60bd 74bb 89bd
00000280: d914 1abe 472a 5dbd cdcd 04be 54f5 a43c
00000290: 1504 f53d 8d8a 443d 024c f6bd 5ac0 b93d
000002a0: e185 703e 2bb8 78bd 5c28 9abe 35f2 6dbe
000002b0: a2c4 283e 0fd8 b1bd bd17 6abd 5343 d7bc
000002c0: bf02 b33d e220 1b3e 1d5a 73be 5d32 3ebe
000002d0: d535 90be fd00 05be e89f a83d 1137 86be
000002e0: 2778 c2bd c410 b83d c7a8 013e 8dae a93d
000002f0: 3237 d13d b8b0 60be b0d3 ffbb 3702 7abd
00000300: de47 84bd 77db 7abe 0e7d 0fbe 6407 1dbe
00000310: c32b 6fbe 982c 79bc e256 2e3d 3ba8 febc
00000320: e89b 523d 2f49 51be 7255 90bd a185 7ebd
00000330: 5701 82be 7b02 0e3e a36f 72be 082b e7bd
00000340: b135 3cbd eba3 a2bd e15d 803e 8b39 853d
00000350: 0984 983d dd7b 8c3e 9ada d23d 1db2 0fbe
00000360: 749d f8bd 5b08 edbd 2544 95bc f253 3f3d
00000370: a67f 98bd 099c 123e 3b26 a3be 139b c93c
00000380: 573d a13d b8b9 b23d 82b8 ccbd adb6 32be
00000390: 2095 62be 17b1 193b 9702 373e 8588 82bd
000003a0: 84f5 10bb 3313 ea3d bb8a 28be 05c5 ca3d
000003b0: 7405 623d 2eb3 bfbb 0496 ccbd 3a53 83bd
000003c0: 2c10 35bd 6b5e 4e3d 9db2 86bc 7dcf 363d
000003d0: 7eeb 84bd 7b8b 9f3d 2fae 1bbe e8be 32be
000003e0: 4254 19be 201a 4abd a37c 49be 14fd 8b3c
000003f0: 9c8b b0bd ca52 3dbe 9b9f 6f3d 25d3 7cbc
-0.075046025 -0.14915125 0.13805477 -0.033080067 0.16703357 0.03288396 0.0997454 -0.071088664
0.018531106 -0.12206023 0.011039019 -0.04679337 -0.20119756 -0.02789617 -0.15975103 0.08110742
0.13937142 0.06609757 -0.06637122 -0.17622785 0.04827249 -0.21569349 -0.08415396 -0.00033557648
-0.12116676 0.24369228 -0.037784223 0.1765764 0.052088216 0.013117897 0.2247413 -0.02622874
-0.13049933 0.001857646 -0.28693804 0.18402602 0.15094833 0.119041644 0.03533338 -0.12984228
-0.0046018474 0.2810822 0.01841995 0.0745724 0.031281922 -0.20801848 0.023081174 -0.27731228
0.08186853 0.048254047 0.1518652 0.06615859 0.12172438 -0.17470112 0.06921478 0.12981182
-0.010591993 0.109109394 -0.1682316 -0.07836432 -0.1146489 0.026603693 -0.0884414 0.038530238
0.10530817 0.22475612 -0.15724063 -0.049292106 -0.038364246 -0.039333634 0.19650549 0.36925766
-0.0009053423 -0.062275212 0.13566552 -0.077471316 -0.26500538 0.08852058 0.039690502 -0.123181045
-0.032124322 0.0018174556 0.02909979 -0.26066008 -0.11276182 -0.035546634 0.024715453 0.10162633
0.04832914 0.17706828 0.13444431 0.05843876 -0.10375575 -0.010122905 -0.032128017 0.06440738
0.10639006 -0.19152921 0.24851634 -0.11011137 -0.18189646 -0.031827807 0.06705065 0.07316486
0.17014246 -0.17481072 -0.018947281 0.2997584 -0.14599092 -0.1527007 0.15118127 0.02235103
0.14060849 0.123461425 0.14859572 -0.098711066 0.12697496 0.06729282 -0.13901535 0.0054197363
-0.022470804 -0.060509097 -0.10037954 -0.07857551 0.22317089 -0.03136988 -0.023014924 0.12116613
-0.24435747 -0.10681843 0.06323787 -0.14581524 -0.0004017768 -0.06582992 -0.014562006 -0.2076528
0.09628375 0.016843207 0.038291734 0.21080092 -0.029768493 -0.08830384 -0.08251167 -0.04729043
-0.06935222 -0.009855336 -0.09772581 0.005069072 -0.15777451 -0.06287612 0.2353448 0.17391053
-0.17055765 0.12196597 -0.073522076 0.12278624 0.039135866 0.0054221596 -0.054708358 -0.06725207
-0.15047015 -0.053995397 -0.12969132 0.020136513 0.11963669 0.047983695 -0.12026216 0.09069891
0.23488571 -0.06072251 -0.30108917 -0.23236926 0.1648126 -0.08683788 -0.057151545 -0.02627722
0.08740758 0.15149263 -0.23764844 -0.185739 -0.2816607 -0.12988658 0.08233625 -0.26213887
-0.094955735 0.08987573 0.1266204 0.08285246 0.10215606 -0.21942413 -0.0078072175 -0.06103727
-0.0645902 -0.24497782 -0.14012548 -0.1533485 -0.23356538 -0.015208386 0.042563327 -0.031086078
0.051418215 -0.20438074 -0.070475474 -0.062139157 -0.25391647 0.13868134 -0.23675399 -0.112875044
-0.04594964 -0.07941421 0.25071624 0.06505116 0.07447059 0.2743825 0.10295601 -0.14032789
-0.12139407 -0.11573859 -0.01822097 0.046710916 -0.07446222 0.14317335 -0.31865105 0.024610078
0.07873028 0.08726829 -0.099961296 -0.17452498 -0.22127199 0.00234515 0.17872082 -0.06373695
-0.0022118995 0.11429443 -0.16459171 0.0990086 0.05518098 -0.0058502173 -0.09989551 -0.064123586
-0.044204876 0.050383013 -0.016442591 0.04463147 -0.06490229 0.07790276 -0.15203165 -0.17455637
-0.14973548 -0.04934132 -0.19676451 0.01708845 -0.086203784 -0.18488613 0.05850182 -0.0154312

value_stream.0.bias f4 [64]
00000000: 7ae3 36bb 0798 623d d293 833d 0613 3fbd
00000010: fdab 4dbc 887e 78bd f925 b13d 7a5a 9c3b
00000020: 2602 b23c dc30 a7bb 588d 85bc 2a6d 123e
00000030: 7a61 603d d5b3 15bc 6cce f7bd fb1b b33c
00000040: c925 ae3c a84c 7a3d 34bf 803d d46f a03c
00000050: a7d7 85bd 81ca 50bc 121a e43d 74a1 67bd
00000060: 56af ffbc b043 ba3b b21d 8ebc ffcb 66bd
00000070: 1bd6 673a fb25 1abd 2eb8 3bbb 0f0f 643c
00000080: 51df f23d 981f f33d e57b 74bd ef56 f03d
00000090: 0fcc 25bd 807b 063d 5623 0bbd 0bdb 8fbc
000000a0: 3f6e 113e 0a80 8fbd 5a1a 0ebd f10d 13bd
000000b0: 7c4b 223d 2a5f 89bb 8f86 723c 351e 2ebd
000000c0: 1a60 293d 7edb 8e3d d6dc ca3d 68ea c4bd
000000d0: 640a 5a3d a0c8 e63c d2a1 b73b 3795 e8bc
000000e0: 4e92 553d 8b61 1d3e 97f4 8cbd ee26 b73c
000000f0: 0add 863c 83e5 e73c 388f 2fbd 0133 b03d
-0.0027906583 0.055320766 0.06424679 -0.046649 -0.012553212 -0.060667545 0.08649821 0.004771528
0.02172954 -0.00510226 -0.01630275 0.14299455 0.05478046 -0.009137114 -0.12099919 0.021863928
0.021258252 0.06110826 0.06286469 0.019584574 -0.06535273 -0.012743593 0.11137785 -0.056550458
-0.031211536 0.0056843385 -0.017348144 -0.05634689 0.0008843855 -0.037633877 -0.0028643715 0.013919606
0.118590005 0.118712604 -0.059688468 0.11735331 -0.04047781 0.032832623 -0.033969246 -0.017560503
0.14202212 -0.070068434 -0.0346931 -0.035901967 0.03962277 -0.0041922526 0.014802589 -0.042509276
0.041351415 0.069754586 0.09905402 -0.09615022 0.053232566 0.028171837 0.0056040073 -0.028391464
0.05214148 0.15369241 -0.06882589 0.02235743 0.016462822 0.028307682 -0.042861193 0.08603478

value_stream.2.weight f4 [1, 64]
00000000: 15d8 7ebd 1bde 19be cbcc 063e 4301 23be
00000010: 483e 423e 1a6b b3be f9bf 183e 0393 093e
00000020: cd8e 583e 82e7 1c3e 4463 ab3d e06a c53d
00000030: a120 273e be52 073f 356c afbd 1053 f93e
00000040: 7760 1abe 4d38 b23e f670 e4bd 53bd cabe
00000050: ddaf 98be fa3a a73d b611 253e 2625 91bd
00000060: dbc1 99be 35ef 1fbe ca1e 98be ab26 86be
00000070: 3459 913e 3884 763e bbf5 203e 040b 833e
00000080: 93cb 3a3e 228c a03d a68b bdbe dc1c 0e3e
00000090: 0045 60be 065c 94be 5267 84bd 9804 093e
000000a0: 0184 333e 6f26 98bd eb88 cdbd b4e4 46be
000000b0: ddd4 873e 5fe0 2d3e 74ea febe 960c 693e
000000c0: ce81 efbd 15d1 013e 1ca3 2e3e 33a6 28be
000000d0: 606a fe3e a9c7 4f3e 5f91 db3e e8f3 ca3e
000000e0: 67fe 28be 7085 0f3e 175c afbe ef45 f2be
000000f0: 6289 15be 0c76 85bd ae24 bb3e b0e9 503e
-0.06221779 -0.15026133 0.1316406 -0.1591845 0.18969071 -0.3504265 0.14916982 0.13434987
0.21148224 0.15322688 0.08368543 0.096395254 0.1632104 0.5286063 -0.08565561 0.48696184
-0.15075861 0.3480858 -0.11154358 -0.39597568 -0.29821673 0.08165546 0.16120037 -0.070871636
-0.30030712 -0.15618594 -0.2971099 -0.26201376 0.2838837 0.24073875 0.15718739 0.25594342
0.1824172 0.07839228 -0.37020606 0.13878196 -0.21901321 -0.28976458 -0.06465019 0.13380659
0.17530824 -0.074292056 -0.10035881 -0.19423181 0.2652959 0.16980122 -0.4978825 0.22758707
-0.1169468 0.12677415 0.17054409 -0.1646965 0.49690533 0.20291008 0.42884347 0.3963921
-0.16503297 0.14015746 -0.34249946 -0.4731898 -0.14603189 -0.06516656 0.36551422 0.20401645

advantage_stream.0.weight f4 [64, 128]
00000000: 10ba 383c 7ac2 063d ea82 35be 46d9 2d3e
00000010: 1e04 193e bea0 10bd 7f2f ac3b c679 4f3e
00000020: 3654 693d 3fc5 c03c 7d74 603d f9b2 78bb
00000030: f807 b13b b7e6 85bd f76e f53e 4a4d 2cbc
00000040: b0f6 17be 55c0 88bd 9c37 4e3d 418f c7bd
00000050: c971 88be 9c57 10be 13ed 15ba 136d a3bd
00000060: e640 5b3d 8abf 9fbe 1555 25be 1197 42bc
00000070: 6c55 283e 919e bd3d eb3a d73d b212 39bc
00000080: a075 8b3d 05cd c53d a58d 2ebe 473c 203c
00000090: 7e33 2dbe e7b7 b6bc b96d d43b dc85 3f3e
000000a0: 6716 3a3d a3e4 f53d 2a8e 8cbd 28f3 7b3e
000000b0: f40a 32be 6da1 0dbe 3472 1c3d 6ffd 8d3e
000000c0: cf00 fcbb 1339 62be 066c ecbd d86c 28bd
000000d0: 7311 adbd 06d7 313e 9c8c 4dbe 0f1f 18be
000000e0: a4c1 ef3d 2d3c 293e fb6e 54be 66e8 95be
000000f0: 0d70 e23d c761 4a3d 8fbf 18be 5b1f d73d
00000100: 59eb b7bc 3b8a 5a3d 36f1 073e b697 0f3e
00000110: 7b9b 0ebd 1c26 23be ad0b 21be b289 3a3e
00000120: 0775 dc3d bcbc 4fbe 2d6a eb3d baaa 383d
00000130: 7012 9e3d 65c0 fdbc 2caa 1a3d 86b6 103e
00000140: 8833 d9bd aa5c 46bd 9efa d83c ac94 663e
00000150: 772b 9c3e 962a 0b3e 5fab ef3c f5b5 c63b
00000160: 7efd 3b3e 862c 4dbe 4c2c 583e cb60 e4bc
00000170: d4b7 a53d 535d 943e 4ba2 2c3d 8563 18be
00000180: 4c4d a33d 5eea d5bd e5ed d0bd d28d a53d
00000190: fdbb 0cbe 58a2 75be f61e 83bd dfe6 efbd
000001a0: cb53 a93a be27 163b 72f9 323e 61b4 dc3c
000001b0: 7058 5fbd 03d4 943d af76 2bbe a25d 9abd
000001c0: 5786 9a3d c643 1cbd b8e7 09bd 6ecc 9fbc
000001d0: 19c1 7a3e 9b71 e33e 3661 58bd c8a9 bdbd
000001e0: 40f4 c13d 4186 34bd 6439 75be 1de4 5ebd
000001f0: b7da 763e dddf 93bd 32dc b9bd 39a3 1a3d
00000200: 4b04 ec3d 6855 11bd f793 983c 1eed 213c
00000210: ca66 013e a623 c9bb 2c96 f03d 09b1 e2bd
00000220: 96a0 54bc c5c7 19be f590 4ebd 5d6d 0a3e
00000230: 33eb de3d 13d5 88bd 677f bd3b bfb3 903b
00000240: 2be6 913d da87 5d3d 81bf c1bd 8be4 ac3c
00000250: 15b3 c0bd 2b12 733d edfd 1bbe e9e2 d93b
00000260: 53be 6bbd d558 06be c09e 39bb 59ab e9bd
00000270: 7f96 133e 0d95 95bd e4ee 223e 376e c6bd
00000280: 50f2 68be bbb8 9fbd 964d bf3d d958 df3d
00000290: d45f 25be 9cf4 85be 7d2b 85be 2d49 98bc
000002a0: f076 833d 3c48 183d 16f5 95bd f8fe 30bd
000002b0: 1df5 87be 5113 d93d b586 023d 75e3 3fbe
000002c0: c75e bebd 3970 8fbb ba54 cc3d d510 a13c
000002d0: cfdd 6cbc c8f4 d43d 3bab 273e d987 8f3d
000002e0: 260b 013d d550 cbbc a6dc 62bd 9b3c c53d
000002f0: 3c1f 19be 4b60 8cbd 9f72 4c3e a7dc 1f3e
00000300: acc2 773d be68 013e 23a7 84bd d53f 57bc
00000310: 6ea0 a9bd 2d02 31be 4ec5 4f3c cf6b 073e
00000320: 9c0a a53d 4632 a73e acd4 e93d f5e3 0fbd
00000330: 44e1 d03c e0bb 163e 2152 a73d 65aa 133e
00000340: 2e97 5abb 13ad 45bd aabf 303e 5308 323d
00000350: fee5 20bd 3474 acbc 7838 873c 5483 2c3e
00000360: 5b41 00be f494 15be a0e7 3d3e 6aab 62bc
00000370: 593b 003e da2b 7bbd 64cb 493d 026c 13be
00000380: a724 213e 1866 16bc 66df 0d3e d95a e8bd
00000390: dd11 cb3d 913c e9bc 6f2e 9dbc 2f3f 883e
000003a0: 77ab ebbd 1936 2b3d 8e1f 833d cb29 083c
000003b0: e425 4c3d 4db2 5bbe b07c a83c cea6 643e
000003c0: 2eb9 a33d 9d8f 923e 4aef ecbd d466 adbd
000003d0: c543 363e dc54 34be 1cbd f73d b3be c4bd
000003e0: d393 993e 6ea8 003e 74da 42ba 9e39 c83d
000003f0: c6a0 3abd bad7 1f3e 745b af3c 8a08 3f3e
0.0112748295 0.03290031 -0.17725721 0.16977414 0.14942977 -0.035309546 0.0052546854 0.20261297
0.056965075 0.023531554 0.054798592 -0.0037948473 0.0054025613 -0.06538146 0.47936222 -0.010516474
-0.14840198 -0.066773094 0.050346002 -0.097441204 -0.2664931 -0.1409592 -0.0005719226 -0.07979789
0.05352869 -0.3120082 -0.16145737 -0.011876837 0.16438836 0.0925876 0.105092846 -0.011295961
0.068095446 0.09658245 -0.1704622 0.009779996 -0.16914174 -0.022304488 0.0064828065 0.18703407
0.04543152 0.120064996 -0.06863053 0.24604475 -0.17386991 -0.1383111 0.03819485 0.27732417
-0.007690526 -0.22092085 -0.11544041 -0.041119426 -0.08450594 0.17367181 -0.2007317 -0.14855598
0.11706856 0.16526861 -0.2074546 -0.29278868 0.11056528 0.049409654 -0.14916824 0.105040275
-0.02245109 0.053354483 0.13275608 0.14022717 -0.034816246 -0.15932506 -0.1572711 0.18216589
0.10764509 -0.2028684 0.11494861 0.045084693 0.077183604 -0.03097553 0.037759945 0.14132127
-0.10605532 -0.048428215 0.026486691 0.22517651 0.3050191 0.13590464 0.02925652 0.0060641714
0.18358418 -0.20036516 0.21110648 -0.027878186 0.08091703 0.2897745 0.042146962 -0.14881714
0.079737276 -0.104450926 -0.10201625 0.08083691 -0.13743587 -0.2398771 -0.0640239 -0.11713957
0.0012918649 0.0022911872 0.17477968 0.02694148 -0.0545277 0.072670005 -0.16744493 -0.0753739
0.075451545 -0.03815057 -0.03366825 -0.01950666 0.24487723 0.44422612 -0.052827083 -0.09260899
0.09470415 -0.044073347 -0.23947674 -0.054416765 0.2410687 -0.07220433 -0.09075202 0.037753318
0.11524256 -0.03548184 0.018625243 0.009883193 0.12636867 -0.006138283 0.11747393 -0.11068923
-0.01297774 -0.15017612 -0.05043121 0.13518281 0.108847044 -0.06681266 0.00578301 0.0044159587
0.07123979 0.054084636 -0.094603546 0.021105072 -0.09409157 0.0593435 -0.15233584 0.0066493643
-0.057554554 -0.13119824 -0.0028323382 -0.11409635 0.14412878 -0.0730382 0.15911442 -0.096889906
-0.22748685 -0.077989064 0.0934097 0.10905618 -0.16149837 -0.26163185 -0.2600974 -0.01858958
0.0641917 0.037178263 -0.07322137 -0.043211907 -0.26554194 0.105993874 0.031866748 -0.18739112
-0.09295421 -0.0043773917 0.09977098 0.019661346 -0.01445718 0.10398251 0.16373913 0.07008333
0.031504773 -0.024818817 -0.055386208 0.096307 -0.14953321 -0.06854304 0.199656 0.15611516
0.060488388 0.12637612 -0.06477191 -0.013137777 -0.08282553 -0.17285986 0.012681318 0.1322472
0.08058664 0.32655543 0.11417517 -0.035129506 0.02549804 0.14720106 0.08169962 0.14420469
-0.003335427 -0.04826076 0.17260614 0.04346497 -0.039281838 -0.021051504 0.016506419 0.16846973
-0.12524931 -0.14607602 0.18545389 -0.013834814 0.1252264 -0.061321117 0.049266234 -0.1439667
0.15736638 -0.0091796145 0.13854751 -0.11345453 0.099155165 -0.028471263 -0.01918718 0.26610705
-0.11507314 0.04179964 0.06402503 0.0083107455 0.049840823 -0.21454735 0.020567268 0.22329256
0.079943046 0.28625193 -0.11569078 -0.084668785 0.1779929 -0.17610496 0.120966166 -0.096066855
0.29995593 0.12564251 -0.0007433065 0.097766146 -0.04556348 0.15609637 0.021405913 0.18655601

advantage_stream.0.bias f4 [64]
00000000: 711f aabd 070c d53c 2300 b33d c5d6 44bd
00000010: 30b0 b13d 9a1e 7c3d fc66 1ebd 0aab a8bd
00000020: a0bb 573c 4ca5 60bd efab 1a3d dc4b 97bc
00000030: 98f7 b0bd 6748 633c 187f ec3b e42a 863d
00000040: 7e38 433d 8c1b 9fbd c947 a93b 9efc 39bd
00000050: fe5e d1bc cedd 0abd 1c21 e23c b4b1 763d
00000060: 8d8e 9dbd 40ee 193d 4774 cc3c 1be7 a2bd
00000070: bd9a 8bbd c675 41bd 2534 76bb 95f1 18bd
00000080: dd54 60bb f2af e1bc cfb6 883c fe79 933d
00000090: f681 8b3b 9358 a23d 10a5 52bd 2dc6 443d
000000a0: c609 c13c fce1 d93c 5635 6cbc 5cff 5b3d
000000b0: 5687 17bc 1929 953b 6500 2d3d 7af7 0c3d
000000c0: 65a6 09bd 1a11 443d 58fc f23c eeb1 d7bc
000000d0: 7de3 a33d 9475 303d 7dbf 943c cea5 9d3c
000000e0: dfe1 b0bc a84a 573d 3f02 913d f563 983d
000000f0: da04 a83c b0f5 9abc 3b08 6bbd d6f5 783d
-0.08306778 0.026006712 0.087402605 -0.048056383 0.08676183 0.06155262 -0.038672432 -0.08235748
0.013167292 -0.05484514 0.037761625 -0.01846879 -0.08640975 0.0138722425 0.007217299 0.065511495
0.047661297 -0.07768926 0.005166028 -0.04540693 -0.025557991 -0.033902936 0.027603678 0.060228065
-0.07693205 0.03758073 0.02495779 -0.07954236 -0.06816623 -0.047231458 -0.0037567702 -0.037339766
-0.003423027 -0.027549718 0.016688732 0.072010025 0.004257436 0.079270504 -0.051426947 0.048040558
0.02356423 0.026597016 -0.014417013 0.053710327 -0.009248575 0.0045520184 0.042236704 0.0344157
-0.03360595 0.04786787 0.029661343 -0.02632996 0.08002374 0.04308088 0.018157715 0.0192441
-0.021592079 0.052561432 0.070805065 0.0744094 0.020510126 -0.018915981 -0.057380896 0.060781322

advantage_stream.2.weight f4 [4, 64]
00000000: 17ba a13e a195 ccbe 0d1a 913d b318 8ebd
00000010: 5bf7 0a3d 6377 fdba 542c 8fbb 6147 883c
00000020: 3492 acbd 90a6 283e 17c3 9bbe 2cfb 96be
00000030: 7a9a b33e 658c 19bf 14aa 693d 4bcc 9ebd
00000040: 012a b5bd 5481 c83e 6776 40bc 51c8 c83d
00000050: 6b7c 723e f9b7 de3c d4c3 5c3e b7ae 8c3e
00000060: c186 f63d 3b74 92bd e617 93be fe68 513e
00000070: 5ae2 c03e 49f6 d03e 48b1 2cbe b363 ccbc
00000080: 73d0 72be fa37 45be e617 383e c57d 5dbe
00000090: 2952 8b3e b73f 8c3d 1198 2d3d 2793 1d3e
000000a0: 9306 ce3e c889 1e3d 567f debd 2d38 b3bd
000000b0: a8cd 75be 197c 073e cfc8 82be 6da2 263e
000000c0: 5437 51be 0df1 7bbe 9ac2 06bd 68ac 473e
000000d0: e12f 3a3d c08a 28be 1fee 5e3e 3205 0a3c
000000e0: acc3 d3bd 9495 0abd e120 1abe 09ca e7bd
000000f0: 2d87 9cbe 861a 303f 2be0 013e ef44 e1be
00000100: 796a 333d 9700 f8be cb30 ed3e 15c5 3dbe
00000110: c066 b63d 5ba5 263d 7719 833e 52a2 99bc
00000120: 3a6f c53e cf84 25bd 8af4 1e3e 4286 6e3e
00000130: de7a ef3c 9db8 253e bced 4d3d c59b 2ebd
00000140: 66b3 0abe fd6f 743e e989 b2be c5f1 83be
00000150: 9a74 3ebd 48b7 173d c251 cb3e 3028 863e
00000160: b971 5f3e 9c98 903e 89ed 453e 2872 c3be
00000170: 1348 e4bd 7631 513e bbbc 913e 3abe 19be
00000180: 88ca 0c3e de96 8fbd fbfb e03d 811d b6bd
00000190: 9ca2 103e 5c55 c73e 891b 2ebd b1de 153e
000001a0: 8f0d c13d 7791 bb3d d3fd 813e 84fe c83e
000001b0: 738a 2e3e 086b dfbd 5bd6 453e c36a 533e
000001c0: 9444 b63e 575b 9f3c 716c b23e 460e 5d3c
000001d0: 061e fcbd acfd df3d 7d6c 53bc 92c1 1b3c
000001e0: 3b0b 243d c87c c63e d75a bb3d e9af 29be
000001f0: dcb9 3f3e d1a9 013e eb8d 813e c624 5bbd
00000200: b0f5 42be 05a8 0fbe f348 36bd 9c0e 8d3d
00000210: c1f0 823e 6aa0 a4bd 0215 a1b9 fef6 6cbe
00000220: 9195 133f bc94 63bc fa43 a0bd 9fa1 d03e
00000230: 438f 01be 8518 8f3d 9b61 c1bc 48f1 95be
00000240: f267 473e a129 223e 2f95 debe 5695 b03d
00000250: d0c8 a7bd e7c1 cebe de33 c7bd 7492 3ebe
00000260: 58aa a53d 8917 813e 86c5 9d3d 1a34 003e
00000270: f6e5 0fbe 48d2 57be f02d 563e 23d5 9f3d
00000280: 2f78 07bd 8492 8fbd 5d35 c0be 0fa9 843e
00000290: 3a57 50bd bda6 a1be bd6a 6bbd e692 27be
000002a0: 01e7 6e3e 3d26 cfbe 16da 20bd b1c1 49bd
000002b0: df5d 943e 95e0 923c a97e ea3e 2b4d a7be
000002c0: 0af6 293e e755 fe3d c255 9cbe ecc1 4fbe
000002d0: 3074 643d 2410 3abe 7a6e cebd 1193 77be
000002e0: 3655 913e 74c7 bf3e d1f9 453c 0b1e 733e
000002f0: 6b46 143e 0ce0 963e 45a4 81be 252b c83e
00000300: e2d3 c23d 7c47 75be d42a 433e ef19 85be
00000310: a470 e23d 4af7 a5bd 7d97 6ebc 072b a6bd
00000320: a22c b6bc 7f59 0fbe 6096 de3d 8139 d33e
00000330: d259 b23e e64c 213e 47d0 97be 51ee 033e
00000340: 89e8 36be cfb6 aebd ba0e bfbd edd6 2dbc
00000350: 04bd 0d3d fd6b 153d 4655 73be 1b8b dbbc
00000360: 2212 d9bc 7a14 993e e57c 183e 4bea 17be
00000370: d4c8 083d 199b 673c 595b b3be 13eb 03be
00000380: 47b9 983e 3f00 08bd 39d6 6abe 1d69 7d3e
00000390: c69d 87bc 8153 12be 3e9e 033e 4911 ad3d
000003a0: 60a8 9cbd 0b29 0b3e 5815 143d 2f06 ea3d
000003b0: 4909 ea3d b90c a33e 5550 1b3e fa69 6abd
000003c0: 6ad2 c13e f48f cabc 0e47 7fbd ce35 27bb
000003d0: ce8f 51be e69e 783e 729a bebc c8e8 183e
000003e0: e51b 2c3e 099b a53c 3b61 c23e f6e7 2b3e
000003f0: eef0 51be 2021 12bd d5cf 16be 8c35 4d3e
0.31587288 -0.39957908 0.07085047 -0.06938305 0.033927303 -0.0019337948 -0.004369298 0.016635599
-0.084263235 0.16469789 -0.3042228 -0.29488504 0.35078794 -0.5997985 0.057046965 -0.077538095
-0.08845902 0.3916117 -0.011746979 0.09803832 0.23680274 0.027187334 0.21559078 0.27477047
0.12037421 -0.071510755 -0.2872917 0.20450208 0.37672693 0.408129 -0.16864502 -0.024949884
-0.2371233 -0.19259635 0.17977867 -0.21630009 0.2721112 0.0684809 0.04238135 0.15388165
0.4023939 0.038705617 -0.10864131 -0.08750949 -0.24004233 0.13230933 -0.2554383 0.16272898
-0.20431262 -0.24603672 -0.03290043 0.19499362 0.045455817 -0.16459179 0.21770523 0.00842409
-0.10340056 -0.033834055 -0.15051605 -0.11317832 -0.3057188 0.6879047 0.1268317 -0.43997905
0.043802712 -0.4843795 0.4632629 -0.18532212 0.08906317 0.04068504 0.25605366 -0.018754158
0.38561422 -0.04040986 0.15522972 0.23293403 0.029233392 0.16183706 0.05027555 -0.042629022
-0.13544998 0.23870845 -0.34870842 -0.25770393 -0.04649792 0.037040025 0.39710814 0.26202536
0.21820726 0.28241432 0.19328894 -0.38173032 -0.111465596 0.20429024 0.28464302 -0.15013972
0.13749135 -0.070111975 0.109855615 -0.08892346 0.1412453 0.38932312 -0.04250673 0.14635731
0.09426414 0.091586046 0.25388965 0.3925668 0.17045002 -0.109090865 0.19320051 0.20646195
0.35599196 0.019452734 0.3484836 0.013492173 -0.12310414 0.10937056 -0.012904284 0.0095066
0.040049773 0.38767076 0.09148186 -0.1657101 0.18723243 0.12662436 0.25303587 -0.053501867
-0.19039035 -0.14028938 -0.044503164 0.06887552 0.25574306 -0.08038409 -0.00030723965 -0.23141095
0.57650095 -0.0138904415 -0.078254655 0.40748307 -0.12652306 0.069870986 -0.023606112 -0.29285645
0.19473246 0.15836193 -0.43473193 0.086222336 -0.08192599 -0.4038231 -0.0972669 -0.18610555
0.08089131 0.25213268 0.0770369 0.12519875 -0.14052567 -0.2107631 0.20915961 0.078043245
-0.0330736 -0.070103675 -0.37540713 0.2591023 -0.050864436 -0.31572524 -0.05747484 -0.16364631
0.23330308 -0.4045886 -0.039270483 -0.049256984 0.28977868 0.017929355 0.4579976 -0.32676062
0.16597763 0.12418728 -0.30534178 -0.20288819 0.055774868 -0.1817022 -0.100796655 -0.24177195
0.28385323 0.37456858 0.012083487 0.23741929 0.14479987 0.2946781 -0.2532064 0.39095417
0.0951307 -0.2395305 0.19059306 -0.25996348 0.11056641 -0.08103807 -0.014562485 -0.081136756
-0.02223808 -0.13998984 0.108685255 0.4125481 0.34834152 0.1575199 -0.2965109 0.12883879
-0.17862143 -0.08530962 -0.09328981 -0.010610324 0.034604087 0.03647994 -0.23762998 -0.02679973
-0.026497904 0.29898435 0.14891393 -0.1483547 0.03339465 0.014136099 -0.3503063 -0.12882642
0.29828855 -0.03320336 -0.22933282 0.24747129 -0.016554724 -0.14289667 0.12853333 0.084505625
-0.076493025 0.13589875 0.036153167 0.11426961 0.11427552 0.31845644 0.15167363 -0.057229973
0.37855846 -0.024726845 -0.062323622 -0.0025514248 -0.20465013 0.24279365 -0.023267005 0.14932549
0.16807516 0.020215528 0.37964806 0.16787705 -0.20502064 -0.03567612 -0.14727719 0.20039958

advantage_stream.2.bias f4 [4]
00000000: 0803 c53d ccf8 543d 1ca2 f13d 7906 e8bd
0.09619719 0.051995084 0.11798498 -0.113293596

feature_layers.0.weight f4 [128, 24]
00000000: 08e4 b23c fea8 1ebf b923 d5bd e122 9dbd
00000010: 6e52 78be a68f b13e 04ae 6fbe 2ea0 803b
00000020: b71a 45be 7b5e 09bb 04a2 95be 1db9 2f3e
00000030: deb8 04be 2a56 933e 9947 e73d 9e89 bf3e
00000040: 81a1 1abe 7ce0 bbbe 930f 5dbf 5c27 7e3e
00000050: f9d3 153e b110 93be c421 c5be 6ef2 a8be
00000060: 2c21 dcbe 3da0 00bf 5903 863a fd5b 8ebe
00000070: 81ce 80be a943 f93e 54df b9be a572 433d
00000080: 2354 043e d648 cbbe 365b 863e 75a7 ac3e
00000090: c299 7a3e bb38 d0be a01a 1c3e e8b8 c6bd
000000a0: ecce 023e f912 50be 88f1 71be 4b62 3bbe
000000b0: 1a87 823e d114 933e efb6 f53d 9ba5 203f
000000c0: 7bfb 0dbf 209f 163f e1ea 81be bf32 023e
000000d0: 69dc 413e 1923 823e 3147 0d3d c159 393d
000000e0: a77d 84be fd56 e7bd 33d7 163f 9651 0b3e
000000f0: 3575 e4bc 2901 6ebe 9f96 61be 02e9 9c3e
00000100: c8e2 933c fe80 f63e b73c f63d d43a 02bf
00000110: 7a23 703e 7c1a 293f eb7b edbe 5c3e 453c
00000120: 7709 ebbd c567 203d 2146 893d c11c 203d
00000130: 3dbc e9be d07e 60be 80c8 9c3d d644 8dbe
00000140: 76ac 42be e4dd 003d cde3 623e e3b1 15bf
00000150: 6a1a b2be 8659 303e fac9 1e3e 4816 02be
00000160: 5d7a 9fbe 984c 50bf a96a 233e ebd6 d73d
00000170: 6aeb 9d3d 0c3b 7c3e 5087 f73d f714 c93d
00000180: 0c5b 09bd 5b3a ac3d 27cb ca3d a7bd c1bc
00000190: 7c62 143e 8963 1c3e 9c92 2cbe d8ba b53e
000001a0: 374f 9dbd f0e1 b23e f907 cbbe dffc f53d
000001b0: 0b3d c83e fc88 1fbd 3606 ebb9 bb86 c5ba
000001c0: 678d 2fbf 90b4 8f3d d93d e9bd c8be 6d3e
000001d0: 1890 893e 673a afbd 1f48 d63e e33d 57be
000001e0: 4a48 053d a9ad 0dbd 3666 b3be ac06 27bb
000001f0: b12d 193e 8045 ddbd 1a89 4dbe 63a2 d33d
00000200: 7a6b 15bf a931 a1be 9181 82be 1004 d43b
00000210: 062e 313e 6718 c1be a12f de3b 45ec b33e
00000220: 212a fabd 43f3 243d c4ce 3b3f 80cf 003e
00000230: c306 a2be d52a 083f c9a8 0fbd c2e1 df3e
00000240: 1369 a43e a489 8fbd 6038 853e 49d4 eebe
00000250: f28c 07be 1758 a8bd aa6a b43e 95fc 38be
00000260: 9894 e9bc 0cfe de3c c05a dbbd 73f7 c53e
00000270: 8039 3f3c 52b9 6abe d8f4 d43e 9573 9c3e
00000280: 2c01 933d 3c65 e93d cae5 1bbe 0770 dd3e
00000290: 6619 07bf 0b1b cd3e 1c3b 603f 688d 1cbe
000002a0: 9447 05bf 7683 f83e 0ba1 d3be 72a7 19be
000002b0: fa27 f8bd a52a d9bd 99ec 0a3e 3e90 7a3d
000002c0: 68fa a0bd 03d6 c23e f0ac 963e 4278 163f
000002d0: b2cb f2bd 76e4 a4be bb12 153e 1dc2 693b
000002e0: bfa9 4dbf 2017 7b3e 80c8 6fbd 3567 f3bc
000002f0: f24a 53bd b88f bebe 4465 393e e6d0 9f3c
00000300: 1878 693e 5d39 33be ea7f a13e bcc6 2a3e
00000310: f97f adbd 108f 0c3e ab61 3e3e 62d8 05bf
00000320: bebf 49be caa3 82bc 9a82 9e3e a147 863d
00000330: 0f4b 903e fb3f 173e bdbc fd3e e6bb 8a3e
00000340: 5c7e 09be 1c28 acbc 5605 d83e daa3 fe3e
00000350: fbab afbe 1fe7 bebd 8901 083f 0558 b23d
00000360: 657c ae3c 36a7 8cbe d128 d03d 2940 0abf
00000370: 6aaa d1be c426 c3be 56c3 9c3e 938e 51be
00000380: 5ca3 c93d 5a5f 0bbe 7e55 bebd a571 ad3d
00000390: a26f 0cbf a8d0 4c3e a718 1abf ddd4 93bd
000003a0: 88d6 efbe 7f64 8d3e 0f42 87be 8259 e7be
000003b0: 8aba 57be d6da 15be d99a 883e cdbd 0f3f
000003c0: 47e3 343e c17e f0be 1f7b 0b3f 764b c9be
000003d0: 7c04 133d c550 2f3e 20be 69be 3e43 0dbe
000003e0: 3245 92be a7f6 403e 90f4 c23d 221f efbd
000003f0: f244 86be beb5 f03d 129b 11be 9a10 ea3e
0.02183725 -0.6197661 -0.10407204 -0.07672668 -0.24250194 0.34679908 -0.23406225 0.003925345
-0.19248472 -0.0020960856 -0.2922517 0.17160459 -0.12961146 0.28776675 0.11292953 0.3740968
-0.15100671 -0.36694705 -0.8635189 0.24819702 0.14631642 -0.28723672 -0.38502324 -0.3299746
-0.42994058 -0.50244504 0.0010224386 -0.27804556 -0.2515755 0.48684433 -0.36303198 0.047716755
0.1292272 -0.39704007 0.26241463 0.3372151 0.24472716 -0.40668282 0.15244532 -0.09703237
0.12774247 -0.20319737 -0.23627293 -0.18299215 0.254937 0.2872682 0.119977824 0.62752694
-0.55461854 0.58836555 -0.2537451 0.1271467 0.18931736 0.25417402 0.03449172 0.04525161
-0.25877115 -0.112958886 0.5892212 0.13605341 -0.02788792 -0.2324263 -0.22030114 0.3064652
0.018052474 0.48145288 0.12023299 -0.50871015 0.23451033 0.66056037 -0.46383604 0.012038793
-0.11476415 0.039161462 0.06702829 0.03908992 -0.45651427 -0.21923375 0.0765543 -0.2759158
-0.19011101 0.03146161 0.22157212 -0.5847456 -0.34785777 0.1722165 0.15506735 -0.12703812
-0.31148043 -0.8136687 0.15958656 0.10539039 0.07710917 0.246319 0.12086356 0.09818452
-0.033534095 0.08409568 0.099020295 -0.023650004 0.14490694 0.15272345 -0.16852802 0.35494113
-0.07681125 0.34938002 -0.3965452 0.12011122 0.39109072 -0.038948998 -0.0004482732 -0.001507006
-0.6857514 0.070168614 -0.1138875 0.23217309 0.26867747 -0.08556061 0.418519 -0.21019702
0.032539643 -0.034589443 -0.35038918 -0.0025486154 0.14958836 -0.10804272 -0.20071831 0.10333707
-0.5836712 -0.314832 -0.25489476 0.006470211 0.17302713 -0.3771393 0.00678058 0.35141197
-0.12215067 0.040271055 0.73362374 0.12579155 -0.31645784 0.53190356 -0.035073075 0.43726927
0.32111415 -0.07008675 0.26019573 -0.46646336 -0.1323736 -0.08219927 0.35237628 -0.18065102
-0.028513238 0.027220748 -0.107106686 0.3866535 0.011671424 -0.22922257 0.4159305 0.30556932
0.07177958 0.11396262 -0.15224376 0.43249533 -0.5277313 0.40059695 0.87590194 -0.15288317
-0.52062345 0.48537797 -0.41333804 -0.15005282 -0.12117 -0.10603837 0.13566817 0.061172716
-0.07860261 0.38053903 0.29428816 0.5877725 -0.11855258 -0.32205552 0.14557926 0.003566868
-0.80337137 0.2452054 -0.05854082 -0.029712299 -0.051585145 -0.37219024 0.18105036 0.01950879
0.22799718 -0.17502351 0.31542903 0.16677374 -0.084716745 0.13726449 0.18591945 -0.522833
-0.1970205 -0.015947241 0.30959016 0.06556631 0.28182265 0.147705 0.49558058 0.2709648
-0.13427109 -0.02101522 0.4219157 0.49734384 -0.34310898 -0.093214266 0.5312734 0.08708195
0.02129955 -0.27471322 0.10164035 -0.5400415 -0.40950328 -0.38115513 0.3061778 -0.20464544
0.098456115 -0.13610592 -0.0929365 0.084689416 -0.5485784 0.20001471 -0.60193866 -0.07218335
-0.46843362 0.27615735 -0.26417586 -0.45185477 -0.21067253 -0.1463426 0.2668064 0.5614899
0.17664824 -0.46971706 0.5448474 -0.39315385 0.03589295 0.17120655 -0.22826433 -0.13795182
-0.28568417 0.1884409 0.09519303 -0.1167586 -0.26224476 0.117534146 -0.14219311 0.4571579
