models/snake_dqn_ep2_score1_20250302_153403.pt (torch, 606178 bytes, 44 tensors)

feature_layers.0.weight f4 [128, 24]
00000000: 46e9 923c d9e4 16bf 9810 bdbd 96ae 32bd
00000010: 0f2f 6dbe 2783 b53e 77b6 44be c178 dcbc
00000020: c3a7 26be b350 f53b b9b4 86be e1a4 363e
00000030: 9401 f0bd cae2 9d3e fd9a e23d ec08 963e
00000040: e59b 42bd f626 c5be 5c62 60bf d1a2 aa3e
00000050: aacd fd3d 764c 84be 51dd a4be ef0d aebe
00000060: 8472 d7be 10f6 f1be e30f 2ebd 8bec 65be
00000070: a817 5bbe 871f fc3e 86c9 9cbe b666 913c
00000080: 7ed2 203e 3a62 c2be 39aa ab3e 7dff 983e
00000090: 7998 443e 7c00 c4be d6bd fc3d 8979 cd3c
000000a0: ddde 9f3d b8c9 bcbd 9a83 63be 1023 28be
000000b0: 4d17 ae3e add7 953e 511e 373e 1fee 233f
000000c0: c20e fbbe d478 033f aa7d 9dbe ad70 1b3e
000000d0: 892d 0f3e 8768 873e 9443 4e3d 81cd a23d
000000e0: 8741 8abe 4eb2 d5bd 7b75 183f 4222 033e
000000f0: edfa aebc 53d8 79be 585c 3cbe 5452 8e3e
00000100: 2334 f63c 9808 dc3e 0110 043e 2458 f2be
00000110: d2ba 633e 79c3 353f 162f c3be 39ba 52bd
00000120: 34f8 39be 6134 3c3d cf14 e43d 55ea 22bb
00000130: a4c3 cfbe 5490 53be e3a8 9b3d 8f53 83be
00000140: 10b8 34be 1f44 3bbd 86f1 2c3e 3528 04bf
00000150: 9788 80be 61be 133e 9d94 a93d a9b9 1ebd
00000160: 659d 8ebe 00fa 53bf 1ad6 ee3d 420b bebd
00000170: 061a 2c3e 712a 483e 5029 073b 92a5 0f3e
00000180: 5b0b 9ebd 4fac ad3d b0d2 8b3d f131 e43c
00000190: d1e8 2f3e d249 003e ac72 d9bd f360 b53e
000001a0: 9c6f 02be 22e5 b83e 2401 cbbe 57e4 c93d
000001b0: cb49 c73e 6664 42bd 74f5 a53c a98d 84bd
000001c0: 10c6 19bf 00a5 1d3e 1294 1dbe eefa 863e
000001d0: 1c2d 513e 835c ccbd 0649 e83e 8029 fdbd
000001e0: a758 453d ba0d e33b 229a 8cbe 3a9a c4bc
000001f0: 4663 183e 94f6 babd fc85 9ebe e183 313e
00000200: 5f8b 01bf 5f2d 97be 1882 71be 0dd4 813d
00000210: 5882 2a3e 9159 a5be 209f cabc 203d 2f3e
00000220: 1a74 1b3d ddeb 92bd fa21 223f abcc ae3d
00000230: 60c2 54be b201 e63e facb 9cbd 6b30 aa3e
00000240: 42f7 9f3e b874 cebd 8056 483e e915 b0be
00000250: e4fe 27be f917 42bd b3be c23e 0de7 4bbe
00000260: defa 05bd 1eda e4bb 4d75 09be d228 c13e
00000270: a2eb 673d 2391 83be 4462 cc3e a972 623e
00000280: 8321 08bd f5c1 143e abf0 28be 69be ce3e
00000290: ff8a 03bf 7208 cf3e e662 5d3f e4d9 d4bd
000002a0: 11cb 1bbf 6427 e33e afe2 efbe ad6c 0ebe
000002b0: f31a 32be e66e 11be dec2 c93d 5c67 483d
000002c0: 83c2 26be 82d8 ae3e 1d6a 753e a2ef 053f
000002d0: 11ae e2bd d4d5 c6be 52cb e93d 0708 a03d
000002e0: e36e 48bf cf03 8a3e 1e78 183c e2ff 24bc
000002f0: 0783 00be cf45 91be b305 4a3e 64bb 2f3d
00000300: c1c3 503e dd32 4bbe bf93 903e 50ba 1d3e
00000310: 4496 dbbd d3d5 ee3d 1f46 3e3e d8be 00bf
00000320: a9c4 62be 2800 84bd ea52 8c3e d742 fa3c
00000330: 7915 993e 61bb d53d 5e85 fd3e 6155 b43e
00000340: 01e3 13be 2ae2 c1bc 4693 e43e 5b57 e13e
00000350: f753 abbe c174 debd 3c1d 043f 784d 253e
00000360: 67bc 5dbb ed60 93be dc04 163e c137 0cbf
00000370: 9f92 b6be 37c0 e6be a995 9a3e 21ac 18be
00000380: ca5e f63d 1d0a 19be a69a 8fbd 04f1 903d
00000390: da9c 00bf 77ac 623e 5d42 1abf 87fa ab3d
000003a0: 0b84 dfbe 125e 4a3e cbf4 21be ac6d debe
000003b0: 7e95 35be eda3 8d39 4739 893e aa9c 133f
000003c0: 4c8f 1f3e 191b e6be 3fc2 023f 280c 3abe
000003d0: a82a 46bc 561d 7c3e d628 4abe 9268 dcbd
000003e0: 4f15 9dbe dff9 373e f778 d53d aab7 20be
000003f0: 4dea 6dbe df72 c23d 2940 5bbe 322b ce3e
0.017933499 -0.58942944 -0.09231681 -0.04362353 -0.23162483 0.35451624 -0.1921023 -0.026913049
-0.16274934 0.0074864267 -0.26309755 0.17836334 -0.11719051 0.3083709 0.11064718 0.29303682
-0.047511954 -0.38506287 -0.87650084 0.33327344 0.12392743 -0.25839585 -0.322001 -0.33995005
-0.42079556 -0.47258043 -0.04249562 -0.22453515 -0.21395743 0.49242803 -0.306225 0.017749172
0.15705296 -0.37965566 0.33528307 0.29882422 0.19198789 -0.3828162 0.12340896 0.025082367
0.0780618 -0.09218162 -0.22218171 -0.16419625 0.34002152 0.2926611 0.17882659 0.6403522
-0.49034697 0.51356244 -0.30759937 0.15179701 0.13982214 0.26446936 0.050357416 0.07949353
-0.27003118 -0.104343995 0.5955426 0.12806037 -0.021359885 -0.24398927 -0.18394601 0.27797186
0.030054158 0.42975307 0.1289673 -0.4733287 0.22239235 0.7100139 -0.3812186 -0.051447127
-0.18161088 0.04594839 0.111367814 -0.002485891 -0.4057895 -0.20660526 0.07600572 -0.25649688
-0.1764834 -0.045719262 0.16889009 -0.5162385 -0.2510421 0.14428093 0.08280299 -0.038751278
-0.27854457 -0.82803345 0.116619304 -0.09279491 0.16806802 0.1954744 0.002062399 0.14028004
-0.0771701 0.08480131 0.06827295 0.027855845 0.17178656 0.1252816 -0.10617575 0.3542553
-0.12737888 0.36112314 -0.39649308 0.098580055 0.38923487 -0.04745903 0.020258643 -0.06472332
-0.60067844 0.15394974 -0.15388516 0.2636332 0.20427364 -0.09978583 0.45368212 -0.12361431
0.04818025 0.0069291266 -0.27461344 -0.023999322 0.1488162 -0.09129062 -0.30961597 0.17335464
-0.5060329 -0.29526803 -0.23584783 0.063392736 0.16651285 -0.32294896 -0.02473408 0.17113161
0.03795252 -0.071738936 0.63333094 0.08535131 -0.20777273 0.44923168 -0.07656093 0.33240065
0.3124333 -0.10080856 0.19564247 -0.34391716 -0.16405827 -0.047386143 0.38036117 -0.19912358
-0.03270995 -0.0069840094 -0.13423653 0.37726456 0.0566212 -0.25696668 0.3991872 0.22114052
-0.033235084 0.14527114 -0.16498058 0.40379646 -0.51383966 0.4043613 0.8647903 -0.10393122
-0.6085673 0.4436599 -0.46852633 -0.13908644 -0.17393093 -0.1420246 0.09851621 0.048926696
-0.16285138 0.34149557 0.2396626 0.52318776 -0.11068357 -0.38835013 0.114157334 0.07814031
-0.782942 0.2695603 0.009305982 -0.010070773 -0.12549983 -0.28373572 0.19728737 0.04290332
0.20387174 -0.19843622 0.2823772 0.15403104 -0.1072202 0.116618775 0.18581437 -0.50291204
-0.22145332 -0.06445342 0.27407008 0.03054945 0.29899195 0.1043613 0.49515814 0.3522139
-0.14442064 -0.023667414 0.4464361 0.4401196 -0.33462498 -0.10862113 0.5160711 0.16142833
-0.003383422 -0.28784886 0.14650291 -0.54772574 -0.35658738 -0.45068523 0.30192307 -0.14909412
0.12029798 -0.14945264 -0.07011919 0.0707722 -0.50239336 0.22136103 -0.6025751 0.08397394
-0.43655428 0.19762447 -0.15816037 -0.43443048 -0.17732808 0.0002701575 0.26801512 0.57660925
0.15582007 -0.4494255 0.51077646 -0.181687 -0.012095131 0.24620566 -0.1974214 -0.10762133
-0.3068032 0.17966412 0.10423463 -0.15695062 -0.2323391 0.09494566 -0.21411194 0.4026733

feature_layers.0.bias f4 [128]
00000000: 6de2 2e3e 619d 3fbd 57b9 2f3e 811f 273e
00000010: ad25 20be f794 a73d f2fa 99bc 74c6 e73d
00000020: 7f6e 583e ce6c 363e a294 0f3d b59a b13d
00000030: 6aea 083e cea4 933d a4c1 b6bd 9f45 25bd
00000040: 1144 85bd 304c 423e 432b 553e 6232 91bd
00000050: bf8d cd3d 92fa df3c 326c 84bd f9c2 0ebc
00000060: 9a1a 12be 68a3 0d3d 50b7 183e 59d6 b7bc
00000070: 83ac 01bd 0809 8dbd 91c5 553d f9e9 07be
00000080: faca 313d 32a2 a43c 1fba ec3d 808c fabd
00000090: 276f ff3d b231 a73d 4c3b 2ebe c67b 51be
000000a0: b3f0 983d aa9d f33c e5f0 51be de36 f23d
000000b0: 5dbb 523e b6cf 3a3e 0fca 9a3d 187b 633d
000000c0: 8b19 e03d 3f9b 993c 7558 893d f303 723d
000000d0: 2011 2d3e 81cf 0cbe 680b fd3d 7467 0a3e
000000e0: 5901 85bd 672f ecbb d4b3 dfbd f946 c0bd
000000f0: 044a 203e c8f7 1abe fd13 4dbd 9146 993d
00000100: 9e49 b9bd f039 a23c 1750 4abe 3ea8 0ebe
00000110: 6efb 3dbe 0610 dc3d 8343 cd3d feb1 ecbd
00000120: d3fa 3e3e 69bf 153e 1f79 233e da18 f3bd
00000130: c2ec 843c 42ff 7cbd 7c8b b43d a3d5 4e3e
00000140: 76cd 483e d606 09be 9afb 00be b042 463e
00000150: 92db 1cbd 655c bd3d a5f4 683c b11c 5a3d
00000160: 853b dc3d 26ce 64bc bc73 263d aa1b e13d
00000170: f8ac 293e b0bc c13c a706 46be 4145 d83d
00000180: 3bbb 31be e3d2 bb3d 0cb8 923d 6e48 2b3e
00000190: c5e5 3abe 6f31 ce3d 210b c3bd 8272 ac3d
000001a0: 5e90 17be c38a b53d 9087 d63d 14b1 5c3d
000001b0: 283c 243e ae16 403c f7e1 4d3e 54e7 023e
000001c0: 4c3d d53b 8c63 3e3e b5ff 423d 6cc2 acbc
000001d0: 8eae b43d a4ff febd dfbf 653e 90a4 a13b
000001e0: 9097 3ebe c2b3 1b3e 8b6e d4bc ce23 3dbe
000001f0: fe19 2cbd af30 813d 46e4 cabc b67d 773d
0.17078562 -0.046780948 0.17160545 0.16320612 -0.15639372 0.0818271 -0.018796418 0.11317149
0.21135901 0.17814943 0.035053857 0.08672086 0.13370672 0.072091684 -0.08923653 -0.0403496
-0.06507123 0.18974376 0.20817284 -0.07089688 0.100368015 0.02734116 -0.06465949 -0.008713477
-0.1426796 0.034579664 0.14913678 -0.022441076 -0.03165866 -0.06886488 0.052190367 -0.13272847
0.043406464 0.020096872 0.11558937 -0.122338295 0.124723725 0.081637755 -0.17014807 -0.20457372
0.07467785 0.029738266 -0.2050205 0.11826871 0.20579286 0.18243298 0.07558071 0.055537313
0.10942372 0.018750785 0.06706325 0.059085798 0.16901064 -0.13751031 0.12355691 0.13516027
-0.06494398 -0.0072077992 -0.10922971 -0.09388537 0.15653235 -0.15133584 -0.05006789 0.074841626
-0.090472445 0.019803017 -0.19757114 -0.13931367 -0.18552944 0.10745244 0.100226425 -0.11557387
0.1865037 0.14623798 0.15964173 -0.118699744 0.016226176 -0.06176687 0.08815667 0.20198683
0.19609627 -0.13381514 -0.12595978 0.19361377 -0.038295336 0.092461385 0.014218484 0.05325002
0.1075354 -0.013965165 0.040637717 0.109916046 0.16569889 0.023649544 -0.19338475 0.10560084
-0.17356579 0.09171083 0.071640104 0.16726848 -0.18251713 0.100680225 -0.09523607 0.08420278
-0.14801165 0.08864357 0.10475075 0.053879812 0.16038573 0.011724157 0.2010573 0.12783557
0.0065075513 0.18592662 0.047607142 -0.021088801 0.08822356 -0.12451103 0.22436474 0.0049329475
-0.18612504 0.15205291 -0.025931617 -0.1847069 -0.042016976 0.06308114 -0.024767052 0.06042262

feature_layers.1.weight f4 [128, 128]
00000000: 6f71 2a3e 3acf 5c3d 015c 4d3e b20f 8f3d
00000010: be0f 32bd 593b 3fbe a387 513d 5b0f 1e3e
00000020: 527f d33d 240b 8dbd fec0 7f3e fe44 a03b
00000030: 535b 3bbe 3da5 afbc 1653 ba3d de7a 583e
00000040: 7320 243e ae1b 09bd 813d 3a3e bb9e 67bd
00000050: 9320 e53d 1592 03be 395c e7bc bcc0 36be
00000060: 5edf 023e 4e0e 343e 8978 52be 9a03 fc3d
00000070: 3367 aabc 1476 643c 66fb 923b d585 fe3d
00000080: 6b26 963d f413 abbd 4c07 43bd 3ed6 69be
00000090: f614 bc3d 730d 9f3d 6a75 a3bc 59dc 6bbe
000000a0: 6a05 44bd 6ae8 27bd 8c74 3f3e 1c47 4e3d
000000b0: 8ec0 65bd e4b4 d3bc da99 b03d 7d35 8f3d
000000c0: 50a1 8fbe 20a8 47bd bb82 ddbc 85d8 153e
000000d0: 0b6a d8bc 8b17 413e 1cdd 673e b3ba c5bb
000000e0: 8e0c 2d3e 5fad f1bd 87c0 1cbe 3312 c93d
000000f0: 471f 893e 411a 8abe afc3 be3d 7783 cb3d
00000100: e618 793c b41d 083d 603b 2d3d b74b 043e
00000110: da46 6a3d b8e2 003e 34fe a43b 2bbc 9a3d
00000120: 8aac 0cbe 04d0 a53e d272 503e ea16 823d
00000130: a064 333d 796a ba3d f21c 9dbd 9dde b73d
00000140: bb37 d63c 1354 8dbd 553b 47be 48a5 a8be
00000150: 54c4 d33d a513 1cbe 61c8 07be 9cc2 f03d
00000160: 3e41 093e 34f6 dcbd 3348 f63d b643 05be
00000170: 34e9 0f3e ffb2 fcbb 14fe a73d bef8 303e
00000180: c8d8 9d3d a0f9 ee3d 1eaf 313e 90f3 79bd
00000190: f715 d2bd d993 253e ba0a 973e e465 a33b
000001a0: ac5e fd3d 0262 0b3e 0947 15be f341 1dbe
000001b0: 9121 99bd 71a6 603d b146 7c3e 5b7f 31bc
000001c0: 00c4 b9b8 5708 a8bd e25d a43c a411 703e
000001d0: 114a d33d bba4 be3d 7e0b 8cbd 2c62 0a3b
000001e0: cb02 643d a00f c3bc f955 da3d 4549 8abe
000001f0: d753 44be 21c4 cd3d 119c 2dbd 66fb 363e
00000200: cb55 2ebe 00a6 09be 43cd 5bbe e825 323e
00000210: f22a 833b 43ba 033d 4de5 3c3c 060d a23d
00000220: 2e14 f2bd 33e5 a8bc 735e 1fbd 05be 8f3d
00000230: 28a7 353e fb5b 113e db45 db3d a5b3 c3ba
00000240: 36d5 45be 8568 dbbd ab57 433d 634d 63be
00000250: 4e59 c03d e798 0f3e 6faf 1e3c 2c3a c93e
00000260: a595 cabd 8184 d93c f210 fd3c 72f4 683e
00000270: c306 babd ffc5 de3d a48f 22bd 55d1 fdbd
00000280: 266e b43d ce98 03ba e9ab 8b3d a71d 423c
00000290: ee2d 23be 928b e3bc bdd3 bd3d facf 1f3d
000002a0: 1328 39bd e6ea d2bd bde5 30bd 570d dc3d
000002b0: dea7 8e3e 4446 d3bd 687e bd3d 5005 9abd
000002c0: d254 fcbd ab15 973d c78f c93c 540f 78bd
000002d0: cf9e ce3d 8d7f cfbc 6b68 6e3d 968f 053c
000002e0: 0745 01be 7897 c83a ba8e 28bd ff6f 4f3e
000002f0: ed68 223e ae36 a4bd ed0e 173e 2cd4 aebd
00000300: b0a1 af3d 8ef1 a7bc bafb 4cbe 68f1 823e
00000310: 4edc cb3d 956a d8bd 04e3 e0bb cdf8 3c3d
00000320: 57a4 64bd 18f3 fdbc e6a3 73bd 0222 22be
00000330: 6125 623d ccef 923d 06d4 8b3e db21 aebc
00000340: 4ca7 c93d d418 c4bd bea3 99bd 6eba 9bbc
00000350: 491a 6cbd 5f5f e03d f377 d93d c71d cc3d
00000360: bdea 78be 7c56 12be c2e5 e3bd f339 38bd
00000370: 3fb4 debb 7818 79bd aa32 79bc e0d6 edbd
00000380: cb50 65bc 4bb0 853e 7a05 023d 70bc fabd
00000390: 2fa3 0c3e 3722 a9bd 03fe e63d a0b5 08be
000003a0: 6019 06bd 8689 fabd 905a f23c 5c7b a83c
000003b0: fc66 17be 6475 2f3e 5eec 433d 27b7 ba3d
000003c0: d2e9 263d 2d68 40bd 48d7 e93d 38e7 713d
000003d0: 3405 77bc 9944 00be 9bc3 413e 63c9 89bc
000003e0: 83a0 2ebe 6493 393d c22e 4bbc 3c84 7f3e
000003f0: 07ae 2e3d fc7c cc3d 16a9 a03d 15fd 5fbe
0.16644834 0.053908564 0.20054628 0.069854155 -0.043472044 -0.18674983 0.051154744 0.15435545
0.10327019 -0.068868905 0.24975964 0.004891037 -0.18296556 -0.021441096 0.09097879 0.2114062
0.16028003 -0.033473663 0.18187524 -0.05654786 0.11187854 -0.12848695 -0.028242217 -0.1784696
0.1278052 0.17583582 -0.20553793 0.123053744 -0.020801162 0.013944168 0.0044855354 0.1242787
0.073315464 -0.08353415 -0.04761438 -0.22835633 0.091836855 0.07766237 -0.019953448 -0.23033275
-0.047856726 -0.04099313 0.18696803 0.050360784 -0.056091838 -0.025843091 0.08623095 0.06992624
-0.2805276 -0.04874432 -0.027039876 0.14633377 -0.026417753 0.18856637 0.2264294 -0.006034219
0.1689932 -0.11800646 -0.15307818 0.09817924 0.26781675 -0.26973155 0.093146674 0.09937184
0.01520369 0.033231452 0.042292953 0.12919508 0.057196476 0.12586486 0.005035186 0.075554214
-0.13737693 0.32385266 0.203563 0.06352027 0.043797135 0.09102339 -0.076715365 0.08978007
0.026149621 -0.069008015 -0.19456227 -0.329386 0.10340181 -0.15241869 -0.13260032 0.11755869
0.13403794 -0.10789147 0.1202549 -0.13014111 0.14053804 -0.0077117677 0.082027584 0.17282388
0.07707363 0.11668706 0.17351958 -0.061023295 -0.10258096 0.1616968 0.2950037 0.0049865115
0.12371573 0.13611606 -0.14577879 -0.15357189 -0.074771054 0.05484623 0.24636342 -0.010833587
-8.857995e-05 -0.08204716 0.020064298 0.2344423 0.103168614 0.093087636 -0.068381295 0.0021115644
0.055666726 -0.023811162 0.10660929 -0.27009025 -0.19172607 0.10047174 -0.042385165 0.17869338
-0.17024915 -0.1344223 -0.2146502 0.17397273 0.004002922 0.032160055 0.011529279 0.0791264
-0.11820255 -0.020617103 -0.038908433 0.07018665 0.17739546 0.14195244 0.10706683 -0.0014930858
-0.19319615 -0.10713295 0.04769103 -0.2219749 0.093920335 0.14023171 0.009685381 0.39302194
-0.09891824 0.02655244 0.03089187 0.22749498 -0.09083321 0.108776085 -0.039687768 -0.123934425
0.08810072 -0.0005020023 0.06819899 0.01184789 -0.1593549 -0.027776513 0.092689015 0.0390167
-0.045204233 -0.102987096 -0.043187845 0.10744732 0.27862448 -0.103161365 0.09252626 -0.075205445
-0.12320866 0.0737718 0.024604691 -0.060561493 0.10088884 -0.025329376 0.05820505 0.008151909
-0.12623988 0.001530393 -0.04115174 0.20257567 0.15860339 -0.08018242 0.14751787 -0.08536562
0.08575761 -0.020500924 -0.20017901 0.25574803 0.09954129 -0.10567204 -0.006863 0.046135712
-0.05582079 -0.030999705 -0.059482478 -0.15833285 0.05521143 0.07174644 0.273102 -0.021256378
0.098463625 -0.09575048 -0.075019345 -0.019009795 -0.057642255 0.109556906 0.106185816 0.09966617
-0.24308296 -0.14290804 -0.11127807 -0.04497714 -0.0067963894 -0.06081435 -0.015209833 -0.1161325
-0.013996313 0.26111063 0.031743504 -0.12242973 0.13734125 -0.08258479 0.11278918 -0.13350534
-0.032739043 -0.12233262 0.0295842 0.020566635 -0.14785379 0.17134625 0.04783284 0.09116965
0.040750332 -0.04697435 0.11418015 0.059058398 -0.015076924 -0.12526168 0.18922274 -0.016819661
-0.17053418 0.04530658 -0.012401285 0.24952787 0.042646434 0.099847764 0.078447506 -0.21873887

feature_layers.1.bias f4 [128]
00000000: 0fd6 303d a1c3 e43d d506 28bb 29b4 9bbd
00000010: fe67 c03c 3cb4 473d ba7e db3c 66d3 3fbd
00000020: a997 b0bc b635 e33d 764b 71bd 3ec5 5abd
00000030: f9f2 6cba 59a3 013c cf6a 27bd 5ae1 90bd
00000040: 430b 603b acb8 e9bc 1994 c03d 25b2 bb3d
00000050: e0ca 913d 782e 863c ca35 aebd 8d18 b6bc
00000060: f4bb d23c fe9a 903d 9806 bfbc 6ae2 2e3d
00000070: e34c 2abd 87cb acbd a0c9 5b3c a78a 023d
00000080: 86ea e6bc db94 3fbd d670 713d 1bc5 a2bd
00000090: 116f e33b a36e 82bd 3719 6bbc 6ecd b83d
000000a0: 541a 493d debf 0fbd 7eb2 5dbd 9ca8 b9bc
000000b0: fe82 dabd 2f7f 29bd 8d66 47bb 5755 92bd
000000c0: bea2 783d 58ee f0bb f36b 52bd ff9d debc
000000d0: ea2c 70bd 09a5 8dbc c5d0 51bd 23c3 4dbd
000000e0: 3707 7e3d 6a92 98bb d2db 9cbc e69f 35bd
000000f0: 1709 06bd 72e0 acbd 1d19 9c3d 1bec a73d
00000100: a462 763d 1568 bdbd 9f9a 8e3d 940a 8b3d
00000110: 38cb 22bd 099c 413d 11fe babd de63 aabd
00000120: 6553 3dbd 0db5 df3d 0ae4 c5ba 3db0 37bb
00000130: e59c 32bd 42fe 4a3c 93fc 673d a32f 9c3d
00000140: 4c92 95bc e9db a63d ad73 b3bd fc00 edbc
00000150: 8496 843c 3543 ecbc 4bc5 233d 620c eebc
00000160: 706b 743d ca0a bb3d 6399 8dbd 137c 3abd
00000170: 2a29 d03d 4f43 773b 03b9 9ebc ce3f adbd
00000180: 9f13 893d 63b7 873d 2c59 c7bc c33d 893b
00000190: 45fe d4bb 258b 333d 7a5f 7e3d 0e6c 393d
000001a0: c444 3d3d 16d4 533d c833 c6bc bffd d03c
000001b0: bd99 a2bd f275 e93c 792b 723d 8267 84bc
000001c0: 582e 9abc 302a c3bd ab58 543d 13bd 143d
000001d0: 31f0 213c 5e29 293a 90eb 673d 20f5 933c
000001e0: 851e 823d 7dc6 7cbc 40da d03b 1bf4 6cbd
000001f0: cbea 5ebd 520b d5bc 6110 afbd 0aae c03b
0.043172892 0.11170126 -0.0025638838 -0.07602722 0.023487087 0.04875587 0.026793826 -0.046832465
-0.021556692 0.11094229 -0.058909856 -0.05341076 -0.00090388913 0.00791248 -0.040873345 -0.070742324
0.00341864 -0.028530441 0.094032474 0.09164838 0.071187735 0.01637958 -0.08506353 -0.022228504
0.025724389 0.070608124 -0.023318574 0.042696394 -0.04157723 -0.08437257 0.01341477 0.03187051
-0.028188001 -0.04677282 0.0589455 -0.07947751 0.0069407304 -0.063687585 -0.014349273 0.090235576
0.049097374 -0.03509509 -0.0541253 -0.022663407 -0.10669516 -0.041381057 -0.0030426115 -0.071451835
0.060702078 -0.0073526315 -0.05137248 -0.027174948 -0.058636583 -0.017290609 -0.05122449 -0.050234925
0.0620186 -0.004656126 -0.019147787 -0.044341944 -0.032723513 -0.08441247 0.076219775 0.081993304
0.060152665 -0.09248368 0.069630854 0.06789127 -0.039744586 0.047267947 -0.091304906 -0.083198294
-0.04622211 0.109232046 -0.0015097868 -0.002802863 -0.043606658 0.012389721 0.056637358 0.076262735
-0.018258236 0.08147413 -0.08762298 -0.028931133 0.016185053 -0.02884064 0.039983075 -0.029058639
0.059672773 0.09132917 -0.06914022 -0.045528483 0.101641014 0.0037729328 -0.01937533 -0.084594354
0.066931956 0.06626775 -0.024334513 0.004188271 -0.006500038 0.04383387 0.062102772 0.045269065
0.046208158 0.051715933 -0.024194613 0.02551162 -0.079394795 0.028498624 0.05912349 -0.016162638
-0.018820927 -0.09529531 0.051842373 0.036313128 0.009883926 0.00064530026 0.056621134 0.01806122
0.063534774 -0.015428183 0.0063736737 -0.057849985 -0.054423135 -0.026006375 -0.08548046 0.005880122

value_stream.0.weight f4 [64, 128]
00000000: c56d 97bd b690 b4bd e329 1f3e fd52 a83b
00000010: 1d84 2d3e e49d 173d 5f24 a23d b5da 84bd
00000020: 9468 f03c 2ad4 edbd 0660 393c ba40 c0bd
00000030: 9014 2abe a405 3bbc 5435 05be aa47 b53d
00000040: 628d 183e efb2 803d b8cd 18bd fc62 22be
00000050: 30d2 893d f6eb 4bbe 6538 40be 0dbe 0cba
00000060: 3fcc dcbd 4034 5e3e 3d6b 06bb 0f0b 213e
00000070: 0616 0c3d 1a69 0dbd d511 653e 0806 abbc
00000080: 7e2a 01be 6140 003d 8c0d 8fbe f371 043e
00000090: 2767 033e 9f39 de3d ac87 243d ce5b cebd
000000a0: 058a e0bc c996 8c3e 582c 433d 5063 993d
000000b0: 2788 bc3c 6dc3 43be 3acc 8bbc 9fb5 92be
000000c0: 7e7b b63d 6068 353d 7aa1 1a3e 0d63 bb3d
000000d0: d8b8 d43d 6fb5 3fbe 03ad d73d d5c0 113e
000000e0: 6aa0 eabc 78a7 db3d 958f 1cbe dfc9 9dbd
000000f0: 0105 e7bd c7bc 113e 45ae 90bd 3982 473d
00000100: 6993 563d dfb5 5c3e 332d 1ebe 643b c1bc
00000110: 628e 40bd ef7b ebbb 82d9 4f3e 9752 c43e
00000120: 4643 a93a ee19 12bd 421b d53d 2ad5 9abd
00000130: 2338 80be 015e a63d b8ab f43c 6a5f bebd
00000140: 9f38 23bd b8b2 333d 0e83 a03c 9bd2 80be
00000150: 204e ccbd 58d7 f4bc 4395 363c 6baa 22bd
00000160: 4716 dcbb 1c12 4d3e a630 ef3d 0df5 723d
00000170: a286 fdbd 0ab3 8cbc 3082 793d 9a1d 843d
00000180: a476 113e bace 40be eeca 9e3d 5d51 c8bd
00000190: 1cbc 28be afd9 12bd bd20 a23d 1fec 7b3d
000001a0: 1117 343e 09ad 22be 5c94 e3bc e885 843e
000001b0: 7b13 14be ff42 0bbe 4e04 3e3e 2f1b 7f3d
000001c0: 4630 ce3d dce2 bcbc c459 173e c5c6 d3bd
000001d0: 6d4b 073e 0c0c 263d eb41 13be 4cba 0f3d
000001e0: 189a ce3a 2047 7abd 0328 08be 7208 b4bd
000001f0: fd3f 603e 2109 88bc 2461 85bc 6138 e53d
00000200: 0771 64be 44cd eabc cf35 b13d b1df 1bbe
00000210: a151 033d 260e bebc 9e47 493b 57c9 3abe
00000220: be91 ec3d c480 073d 84e5 8e3d fa61 283e
00000230: da5a d93a 56cc 15bd 4355 d2bd 9a4c 00bd
00000240: 5acb a8bc 2787 17bb fbe1 27bd 4546 133d
00000250: e43d 0ebe 9bf8 b5bc e357 2e3e 3868 213e
00000260: 0d5d eabd 511d f63d 708f b3bc 6fcd 313e
00000270: 5323 ba3c 01eb ddbc f3e2 26bd eb79 e5bc
00000280: 3caf 0abe ca16 f2bc c02f 98bd 62b1 39ba
00000290: 41bc e73d ce11 053d 64ad b8bd 065a 133e
000002a0: 01ed 1c3e 234a 9dbd a899 7bbe 3bf5 4dbe
000002b0: a6df 0b3e 9c81 8ebd ff35 b6bd ca01 6cbd
000002c0: 559a dd3d a033 e83d c6d8 84be 8a92 21be
000002d0: 0154 7cbe 5df6 03be 7069 003e 15ac 71be
000002e0: 53e9 8abd 3649 ef3d 0319 0a3e ae91 bc3d
000002f0: d054 e03d 165e 07be 5a8c 723c 164b 08bd
00000300: d57a fabc 6e83 88be 581f f6bd d838 e8bd
00000310: 7f0c 7cbe bf10 a7bb c3a6 213d 0c39 50bd
00000320: 7334 d63d c967 29be 621f 88bd 5fd3 c8bc
00000330: 31f6 3ebe 8c1f 4b3e cf33 4fbe 39df 87bd
00000340: 749c 613c 600e 23bc 49c4 723e 9706 b63d
00000350: ae1f d83d 7798 823e a7d4 a43d ed35 6dbe
00000360: 42e7 4bbe abdc 9cbd 6771 eebc 3321 8a3d
00000370: 3b8d 26bd d540 a63d 3086 97be f7a7 2a3c
00000380: c774 df3d 3e88 ef3d 86f5 47be 0381 06be
00000390: 5da3 39be 6f00 5fbc 5d8b 453e 7223 a6bd
000003a0: 7977 f6bc 8e58 1c3e 6f04 31be d2c7 013e
000003b0: 6b0a 233d 73a9 b43c 6ea1 acbc ea5e aabb
000003c0: 7c63 74bd 9d04 a7bd 62c0 683b 816e ca3c
000003d0: ab31 3abd ce53 fcbc fed0 fabd c325 93bd
000003e0: 82ae eebd 375f 44bd 7f0b 0cbe c52f 4f3d
000003f0: a97e c5bd 72e0 02be 7114 fd3c e11e 5abc
-0.07393984 -0.08816664 0.15543322 0.005136846 0.16944928 0.03701581 0.079170935 -0.064870276
0.029346742 -0.11612733 0.011314398 -0.093873456 -0.16609406 -0.011414919 -0.13008624 0.088515595
0.14897683 0.06284129 -0.037305564 -0.15858072 0.06729543 -0.1991423 -0.18771513 -0.0005368896
-0.10781144 0.2169962 -0.0020510696 0.15726875 0.03420069 -0.03452406 0.22370084 -0.0208769
-0.12613866 0.031311397 -0.27940023 0.12934093 0.12832318 0.10850834 0.04016845 -0.10076104
-0.027409563 0.2745879 0.04764971 0.074896455 0.023014141 -0.19117518 -0.017065156 -0.2865419
0.08910273 0.044288993 0.15100661 0.09149752 0.10386819 -0.18721555 0.10531046 0.14233716
-0.028640945 0.107253015 -0.15289147 -0.077045195 -0.11280251 0.14232169 -0.07064489 0.048708174
0.052386675 0.21553753 -0.1544693 -0.02358789 -0.047010787 -0.007186405 0.20297816 0.3834426
0.0012913726 -0.03566926 0.1040559 -0.07560189 -0.2504283 0.081233986 0.029867038 -0.092955425
-0.03984892 0.04387161 0.019593742 -0.2516068 -0.09975839 -0.02988784 0.011143985 -0.039713304
-0.006716523 0.2002644 0.11679201 0.05931573 -0.12379195 -0.017175216 0.060915172 0.064509585
0.14205414 -0.1882886 0.077535495 -0.09781144 -0.16478008 -0.03585213 0.079164006 0.06150448
0.17586924 -0.1588632 -0.027780704 0.25883412 -0.14460556 -0.13599776 0.1855633 0.062281784
0.10067801 -0.023057394 0.14780337 -0.10340647 0.13212366 0.040538833 -0.14380614 0.035089776
0.0015762476 -0.061102986 -0.13296513 -0.08790673 0.2189941 -0.016605916 -0.016281672 0.11192394
-0.22308742 -0.028662331 0.08652841 -0.1522205 0.03206027 -0.023200106 0.0030712853 -0.18240868
0.115512356 0.033081785 0.069773704 0.16443625 0.0016582862 -0.036571823 -0.10270169 -0.031323053
-0.020604778 -0.0023121329 -0.040986996 0.035955686 -0.13890797 -0.02221327 0.17025714 0.15762413
-0.11443529 0.120173104 -0.021918982 0.17363523 0.022721922 -0.027089598 -0.04074378 -0.028012237
-0.13543409 -0.029551882 -0.074309826 -0.0007083622 0.113152035 0.032487683 -0.09017447 0.1438981
0.15324785 -0.07680156 -0.24570334 -0.20113079 0.13659534 -0.06958315 -0.08897018 -0.057618894
0.10820452 0.11337972 -0.25946635 -0.15778556 -0.2464142 -0.12886949 0.12540221 -0.236008
-0.06782784 0.11683886 0.13486104 0.09207474 0.10953677 -0.13219485 0.01480397 -0.033274733
-0.030576149 -0.26662773 -0.12017697 -0.11338967 -0.24614142 -0.005098432 0.039465677 -0.050835654
0.10459223 -0.16543497 -0.06646611 -0.024514852 -0.18648602 0.19836253 -0.20234607 -0.06634373
0.0137702115 -0.009952158 0.2370769 0.08887976 0.105529174 0.25506946 0.08048373 -0.23165102
-0.19912437 -0.076592766 -0.029106809 0.067446135 -0.04066203 0.081178345 -0.29594564 0.0104160225
0.109109454 0.11695908 -0.19527254 -0.13135152 -0.18128724 -0.013610943 0.19291444 -0.081122294
-0.030086266 0.15268156 -0.17286848 0.12673882 0.039804857 0.022053456 -0.02107307 -0.005199303
-0.05966519 -0.08155177 0.003551506 0.024710895 -0.045457523 -0.03080168 -0.12246893 -0.07184937
-0.116543785 -0.047942366 -0.1367626 0.050582666 -0.09643299 -0.12780932 0.030893536 -0.013313026

value_stream.0.bias f4 [64]
00000000: 233f 12bb b0b7 8f3d f19f be3c 4589 3fbd
00000010: a759 0abd 7b81 46bd 0ac3 713d 35c4 ecbc
00000020: ee95 d238 474c f9bc 460d 6abd 408f bc3d
00000030: 1123 fc3c 0213 edbc eab6 cfbd 1998 b9ba
00000040: 7cab 213d 656b 223d 624b 813d 0747 d03c
00000050: 7e6f 40bd 0a28 7abd c42c b53d c49f 89bd
00000060: dfc0 e7bc 9f44 de3b 05d5 30bd d79a 3bbd
00000070: a686 a3bc 7edb 70bd 5c7d dbbc b99a 9c3b
00000080: 61a9 c33d 4470 9f3d 6fbb 82bd c040 b03d
00000090: 22c8 f5bc 92c4 e63c 0b0d 03bd dff8 6bbd
000000a0: f7e0 e63d ec01 0abd cb48 1abd 1308 78bc
000000b0: 60a2 db3b 9eba eabc c00e 993c dafc 81bd
000000c0: b315 303d 4552 2d3d 6e5b 9c3d 0b23 babd
000000d0: 8055 043d 0a0a 83bc 9070 81bc 0365 7ebd
000000e0: b6ce 4f3d 1c8e e43d c243 99bd f83b f63c
000000f0: 4e58 9b3c 2601 fc3c 6ced 81bd c7f1 623d
-0.0022315464 0.070174575 0.023269625 -0.04676177 -0.033776905 -0.048463326 0.059023894 -0.028902153
0.00010041507 -0.03043188 -0.057141565 0.0920701 0.03077844 -0.028939728 -0.1014231 -0.0014159709
0.03947018 0.0396532 0.06313206 0.025424493 -0.046981327 -0.06107334 0.08846429 -0.06719926
-0.02829021 0.0067830826 -0.0431719 -0.045801964 -0.019961666 -0.058803074 -0.026793174 0.0047791866
0.09553791 0.07785085 -0.06383406 0.086061 -0.030002657 0.028169904 -0.03199486 -0.05761039
0.112733774 -0.03369324 -0.037667077 -0.015138644 0.006702706 -0.02865344 0.018683791 -0.06347056
0.042989444 0.042314786 0.07634626 -0.09088715 0.0323081 -0.015995998 -0.015800744 -0.06210805
0.050734244 0.11159918 -0.07483627 0.030057892 0.018963005 0.030762266 -0.06344113 0.055406358

value_stream.2.weight f4 [1, 64]
00000000: 6844 17bd 2cc9 cebd 497c 763d 30ce 89bd
00000010: 0d46 1b3e b477 a1be 8d83 c73d 48f2 973d
00000020: 6208 2b3e d9e6 cd3d c120 023d 7f98 f13c
00000030: d658 ed3d 6997 f83e 9c2b 16bd 683e dd3e
00000040: bfcb ebbd 2204 9b3e 03ef b9bd a7ac b5be
00000050: 2a2f 81be 2bf1 503c 5f80 f43d bd97 51bc
00000060: 22a1 2abe 8429 c3bd a4b1 59be e56f 58be
00000070: 3944 733e b3a6 4a3e 41df e13d 7e76 6f3e
00000080: a804 093e 3df7 e73c b236 94be acdf a43d
00000090: c47b 31be aeaf 7abe da72 23bd 9d4f 863d
000000a0: 9883 f33d 25a1 c8bc ab44 18bd 108c 21be
000000b0: 0544 523e 506b f73d 6aa9 e6be 29c0 403e
000000c0: 0726 c5bd d873 9a3d fc0e fe3d e71b 09be
000000d0: 88e1 e33e 2364 eb3d 43f6 c13e a8ce a73e
000000e0: 8cd0 12be ca99 923d 38a6 98be a6b9 dabe
000000f0: adc1 04be fb35 4dbd f131 a33e 506e 163e
-0.03693047 -0.10096964 0.06017712 -0.0672878 0.15163441 -0.3153664 0.09741888 0.07419258
0.16702417 0.10053796 0.031769518 0.029491661 0.1158921 0.48553017 -0.036662683 0.43211675
-0.11513471 0.3027659 -0.09078791 -0.35483286 -0.25231296 0.012752811 0.11938547 -0.012792525
-0.1666303 -0.09529403 -0.21259171 -0.21136434 0.23756494 0.19790153 0.110289104 0.23385045
0.13380682 0.028316135 -0.2894798 0.080504745 -0.17332369 -0.24481079 -0.039904453 0.06558154
0.11890334 -0.024490902 -0.037174862 -0.15776086 0.2053376 0.12081015 -0.45051128 0.18823303
-0.09626394 0.07541627 0.12405202 -0.1338955 0.44508004 0.11493709 0.37883195 0.32774854
-0.14337367 0.07158239 -0.29814315 -0.42719764 -0.12964506 -0.050100308 0.3187404 0.14690518

advantage_stream.0.weight f4 [64, 128]
00000000: cc69 89bb 9c40 a93c ca40 43be 9bab 063e
00000010: 3cf2 123e 1759 11bd a496 d4ba c4d4 5b3e
00000020: efd2 4c3d edbf 223c 2dfb 6e3d c8bb 5bbd
00000030: 45be 21bc 0d34 9cbd bb1a ae3e db22 bf3b
00000040: 773d 0ebe 4b6e 9e3c f917 0f3d f543 a8bd
00000050: 996f 8ebe c529 23be ba30 f7bc e7e4 7b3d
00000060: 6593 883d 1738 94be 17c7 57be e1b4 c9bb
00000070: 3039 2b3e 9ba7 d93d 3bac bf3d 3927 08bd
00000080: 0001 593d 6292 ba3d 9179 41be 22fb a1bc
00000090: 89fe 3dbe 75e2 7bbc 645b 9dbc c308 8f3d
000000a0: 7d1e 393d d2cc e93d 6745 72bd 225b 763e
000000b0: bbbd 1ebe 2d38 19be 8e87 af3c 3863 8e3e
000000c0: eab6 ecbc 78d0 58be bdeb f0bd be46 d13b
000000d0: 9b1f 23bd 093c 363e b8f1 4ebe 1457 23be
000000e0: 225a de3d 083a 363e bfed 3cbe cd87 9abe
000000f0: 39a1 213d b224 29bd b078 4dbe 1d16 d33d
00000100: c0c2 21bc 1bf7 273d d140 013e 5554 fb3d
00000110: 8198 2ebe 528b 34be 0c74 07be 2d8b 343e
00000120: 10cd e53d 5a48 3ebe 1df0 db3d d404 8e3d
00000130: a62b 9b3d 95b5 f4bc 1058 0c3d c71b 2e3e
00000140: c037 dabd ed45 acbd 9382 593d 6a1c 6d3e
00000150: 7f27 743e 4a24 183e c67a f93c 0c67 a53c
00000160: 52d2 b0bc 3f2c 54be cdb0 603e 572d e6bc
00000170: 4812 903d 5a32 3d3e eb8f 893d b9aa 22be
00000180: a7e1 123e c57f c6bd 848e 0dbe cbc4 bb3d
00000190: da53 05be 2882 62be 9fc2 77bd 5108 d3bd
000001a0: e662 8f3c 5bb0 4e3c 3c4b 433e 59e1 f53b
000001b0: aff2 fdbc 982c 713d 2eb8 e9bd 59be c0bd
000001c0: 0ae3 793d 5add b3ba b81f 38bd 3154 c5bc
000001d0: 3859 6d3e da23 253e 44aa 2ebd f32e efbc
000001e0: 6a6c 7c3d 340a 42bd 686c 61be 5c27 1dbd
000001f0: 947d 873e caa6 9f3c 1877 c0bd 4246 283d
00000200: 60c1 e93d 4470 fdbc 6003 8c3c 238a 063d
00000210: eb04 ef3d b3dd 00bc 6bcb a83d fc9c eabd
00000220: 9ece 0b3c 2785 2dbe 72b5 34bd e393 e93d
00000230: 0605 df3d f35c 84bd aa0d ff3c 42cf 253c
00000240: 1a14 b83d 7a7e 713b bab5 c3bd 9cbb 1b3d
00000250: f398 a2bd b675 743d 6913 2dbe 1901 29be
00000260: 59bd 72bd a957 14be c9e4 eabb 95d0 e4bd
00000270: 4261 123e 47d2 d7bd 4fc6 233e 4102 e2bd
00000280: 6da6 6fbe 360b acbd e6af bb3d e57e e33d
00000290: 2fe9 16be e4b8 85be eba7 84be 7e19 ad3c
000002a0: 20e0 523d 9bc0 473d 3d14 96bd 7052 0dbd
000002b0: b49e 89be 67bb c53d 7a76 f9bb cdd8 38be
000002c0: a1b6 e1bd b311 0b3d 0cf2 b63d 1957 853b
000002d0: 92da 8cbc 3df8 a93d db18 1f3e 9e09 933d
000002e0: 89e4 cd3c 45a2 f6bc 9a00 0dbd 71aa d83d
000002f0: b393 10be a93a c5bd ae11 4f3e 3d18 223e
00000300: 707f 553d 7c42 013e 0064 83bd a684 e3bc
00000310: 0892 d6bd a82f e9bd b343 113d d04a 073e
00000320: 3160 b23d 9aa2 a63e 1828 d53d e79a 08bd
00000330: 8134 013d 4e0d 043e c7f8 a63d 803e 1d3e
00000340: 68aa cd3b 9ab1 74bb 64a8 073e fe39 a4bc
00000350: 2850 8fbd e82a a1bc 7664 263d dd29 b83d
00000360: 28ea 0cbe 2eed 15be 86a3 d63d 7004 42bc
00000370: 93fd f83d 8fc5 29bd c919 ca3d aa10 09be
00000380: e062 163e 477c 0ebb cbf9 f63d 0188 d5bd
00000390: dcce c43d 840f f0bc 195c 82bc 10bf 853e
000003a0: 2636 e7bd e763 f53c d7cd 8e3d a8c0 00bd
000003b0: a103 713d 000e 52be c210 ab3d cca3 4b3e
000003c0: 932e 823d 9d22 243e 25db edbd a56a cdbd
000003d0: 2c1e 1f3e 225f eebd aeaf e83d 5bac 0abe
000003e0: e35e 7a3e ef1f ed3d 63e3 a73b 20e6 c43d
000003f0: 726e 2bbd ce22 063e 30c3 013d 7a36 383e
-0.00419352 0.020660691 -0.19067684 0.131514 0.14350218 -0.035485353 -0.0016219211 0.21467882
0.05000585 0.009933454 0.05834501 -0.05364588 -0.009872024 -0.076271154 0.3400477 0.0058330125
-0.13890634 0.019339701 0.03493497 -0.08216087 -0.27819517 -0.15933903 -0.030174602 0.061497595
0.06668738 -0.28949043 -0.2107204 -0.0061555956 0.16721034 0.10627671 0.09359022 -0.03324053
0.05297947 0.091099516 -0.1889403 -0.01977307 -0.18554129 -0.015373816 -0.019208618 0.06984093
0.04519509 0.114160195 -0.05914822 0.24058202 -0.15502064 -0.14962836 0.021426942 0.27810073
-0.028895814 -0.21173275 -0.117637135 0.006386607 -0.039825063 0.17796339 -0.20209396 -0.15951186
0.10857035 0.17795575 -0.18450068 -0.30181733 0.039460395 -0.04129476 -0.2006557 0.10306952
-0.009873092 0.041007143 0.12622382 0.122719444 -0.17050363 -0.17631271 -0.13227862 0.17631216
0.11220753 -0.18582287 0.10739157 0.06934515 0.07576685 -0.029871741 0.03426367 0.17002784
-0.10655165 -0.08411775 0.05310304 0.2315537 0.23843192 0.14857593 0.03045405 0.020190738
-0.021584664 -0.20720004 0.21942444 -0.028097792 0.07034737 0.18476239 0.06716903 -0.15885438
0.14343892 -0.09692339 -0.13823897 0.09168395 -0.13020268 -0.22119963 -0.06048834 -0.103043206
0.017503213 0.012615289 0.19071668 0.00750367 -0.03099951 0.05888042 -0.114120826 -0.09411306
0.061007537 -0.0013722584 -0.044952124 -0.024087997 0.23178566 0.16126958 -0.042642847 -0.029197192
0.06162683 -0.04737301 -0.2201401 -0.038367614 0.26462996 0.01948871 -0.09397715 0.041082628
0.114138365 -0.030937321 0.017091453 0.03284658 0.1167086 -0.007865357 0.08241924 -0.11455724
0.008533148 -0.16945325 -0.044118352 0.1140516 0.1088963 -0.06463041 0.031134445 0.010120215
0.08988209 0.0036849068 -0.09556146 0.038020715 -0.07939329 0.05968257 -0.16901936 -0.16504325
-0.059262607 -0.14486565 -0.0071683866 -0.11172596 0.14294913 -0.10538154 0.15993617 -0.11035586
-0.2340333 -0.08400576 0.09164409 0.111081876 -0.1473739 -0.26117623 -0.2590936 0.02113032
0.051483274 0.048767667 -0.07328079 -0.034502447 -0.26878893 0.09654885 -0.0076130005 -0.18051453
-0.11021162 0.033952426 0.089328855 0.0040692207 -0.017194066 0.08299301 0.15536825 0.07179569
0.025133388 -0.030106673 -0.0344244 0.10579384 -0.14118843 -0.09630329 0.20221588 0.15829559
0.052123487 0.12623018 -0.06415558 -0.027773213 -0.10477072 -0.11386043 0.035464954 0.13212132
0.08709753 0.3254593 0.10408038 -0.03335085 0.031544212 0.128957 0.08152919 0.15355873
0.0062764175 -0.0037337304 0.1324783 -0.020047184 -0.069977105 -0.01967378 0.04062315 0.0899236
-0.13761199 -0.14641258 0.10480408 -0.011841878 0.121577404 -0.041448172 0.098681994 -0.13385263
0.14686155 -0.0021741556 0.12059363 -0.10426331 0.09609768 -0.029304273 -0.015913056 0.26122332
-0.11289625 0.029954864 0.069728546 -0.03143373 0.05884135 -0.20513153 0.08352806 0.19886702
0.063565396 0.16028829 -0.11614064 -0.100301065 0.15538853 -0.11639239 0.11361633 -0.13542311
0.24450259 0.115783565 0.005123542 0.09614205 -0.041853376 0.13099214 0.031680286 0.17989531

advantage_stream.0.bias f4 [64]
00000000: 47b3 b2bd 9568 ba3c 748e ab3d 55ef 40bd
00000010: 209c b03d 012f 3e3d e4ee 05bd 044e a7bd
00000020: 1069 a2bb bf16 77bd 3e1f 0e3d 9790 92bc
00000030: 02ac adbd a117 30bc 8ec6 293c 9572 833d
00000040: 944d 433d aa62 9ebd 79fd f3bb f4b5 4bbd
00000050: 0e68 dfbc eaf8 0bbd e68e e13c 17c5 7e3d
00000060: ba99 98bd df6c e93c a60d b23c e95e a6bd
00000070: 003d 91bd 1fbf 37bd 401e 3bbb 641c d2bc
00000080: 8673 bdbb 0867 bdbc 9729 9c3c f9c4 873d
00000090: 0337 1f3c 20fa 9e3d d2e0 58bd 90e3 1d3d
000000a0: dc11 d03c eceb ed3c f340 7dbb e359 5d3d
000000b0: e386 85bc 5104 8b3b d141 9e3c 0e9e eb3c
000000c0: 466b 3fbd 7165 253d b85f ea3c 0828 d3bc
000000d0: 9e63 b93d 50bc 383d 2959 613c a155 a73c
000000e0: 5ebe 1bbd 457a 613d bcdf 763d c2b6 993d
000000f0: ce0c 093c 0c85 76bc d378 69bd fac8 483d
-0.08725601 0.022754947 0.0837678 -0.047103245 0.086235285 0.046431545 -0.032698527 -0.08169177
-0.004956372 -0.060324427 0.034697764 -0.017891211 -0.084800735 -0.010747821 0.0103622805 0.06418339
0.047681406 -0.077336624 -0.007445988 -0.04973407 -0.027271297 -0.03417293 0.02753396 0.06219968
-0.07451196 0.028494297 0.021735024 -0.081235714 -0.07091713 -0.04486 -0.0028551966 -0.025648303
-0.0057815937 -0.023120418 0.0190628 0.066293664 0.009717706 0.07762551 -0.05294878 0.0385471
0.025399141 0.02904316 -0.003864345 0.0540408 -0.01629967 0.004242458 0.019318493 0.02876189
-0.046733163 0.040379945 0.028610095 -0.025775924 0.090522036 0.045101464 0.013754168 0.020426573
-0.038023345 0.055048246 0.060271963 0.075055614 0.008364869 -0.015046369 -0.056999993 0.04901979

advantage_stream.2.weight f4 [4, 64]
00000000: bb11 893e dc8e c2be 8364 f53d eb67 91bd
00000010: c07e 393d 78db 7a3a ff2b d93c 514e 283b
00000020: 3e36 b63d d031 083e e3b7 f2bd cf44 14be
00000030: 1843 a03e d574 c2be c598 25bd 61c8 9fbd
00000040: 406d a1bd e39e b03e d523 c6bd 99f0 5c3d
00000050: 230d 243e f306 c2bb f460 a93c 8302 483e
00000060: f361 c83d dbdf 46bc c4b2 47bd 4a46 323e
00000070: cae0 923e 1f39 9b3e 9996 73bd 5767 48bd
00000080: e1e6 dfbc 7a08 1ebe fbcb b6bc 1e22 9cbd
00000090: 8aa5 d63d 4735 de3c d1a0 cf3c f8a5 bb3d
000000a0: 532b 863e c8d0 7d3c e8ca 94bd eabf a4bd
000000b0: ac5f a4bc e978 f83d e43b 7dbd 6868 373d
000000c0: 4412 633d b165 37be 5640 31bd 1c37 343e
000000d0: 47d0 62bc 7cfe 04be 9a5a 403e e75d 3a3c
000000e0: e3a1 77bd 1b85 493d ade5 fabd 7013 c6bd
000000f0: f137 4fbe 6250 0f3f 7137 b73d d965 85be
00000100: 7eaa febc 5824 f6be b95c e33e abf7 3bbe
00000110: c8ff b63d 393a 5b3b 2c1d 823e 912e 85bc
00000120: 57d7 a83e ac72 fabc 3d54 943c 3728 353e
00000130: 5c6a 253d 9659 093d 9cbc 1b3d 4638 66bd
00000140: 6ed6 06be 34da 813e bc6c d0be fe35 70be
00000150: 7d81 94bc 9b58 e23c 2c24 7a3e b3b6 283e
00000160: e074 613e 3eb4 883e c7ad d23d 34e4 babe
00000170: 15f5 99bd ceb5 113e 94d6 6c3e 82f2 d8bd
00000180: acb3 363d 249d b2bd 6992 81bc 57b2 983c
00000190: 27d8 b33d 9c9c 833e 466b 0dbd eac4 2c3d
000001a0: c674 153e 41e6 a33d 04eb 773e 49b5 c53e
000001b0: 05df 303d c429 dbbd 11c2 373e a27b 6a3d
000001c0: 8110 513e 95aa 71bc c5d0 ae3e ced2 423c
000001d0: abc2 51be 342e b53d 78d4 32bb f6ff cdbc
000001e0: a08d 5f3d 3fff b63e 3a05 923d 09f4 31be
000001f0: acc4 cf3d 6fa8 653e ae6d 863e 6198 fa3d
00000200: db25 01be 0f66 1abe 0f96 77bd 565b aa3d
00000210: 76ed 723e 51d6 88bd e182 30bd 15c8 67be
00000220: e55f bd3e 4647 71bb ae3d c1bd c8c3 9c3e
00000230: 6ee2 fcbd b856 243d 6bb8 8abc 3aea 96be
00000240: c296 3b3e 5a09 283e c6ae a0be a53e b13d
00000250: bf8f c3bd 664f bbbe cd3d 9e3d 4260 a1bd
00000260: 4f49 983d b953 653e f1f5 1d3d 59c5 033e
00000270: 81c2 15be 2fde c8bd e765 503e 6c29 5c3d
00000280: 5c6f 6fbd 6f52 b6bd 68dd 5bbe 89ce 803d
00000290: 562c 043e 45c7 5cbe 5544 51bd f997 57bd
000002a0: 698c 593e e5d7 c8be a9f0 28bd 2c08 7abd
000002b0: d2c0 8b3e 22a9 a73c 3c80 883e ffd3 1fbe
000002c0: 7235 d43d 3a2b c43d 51e7 9abe b12e 50be
000002d0: 7274 013e 9315 42be 7ce5 d2bd 0901 7abe
000002e0: 4101 7d3e 5fc9 aa3e 4f31 a63c f811 6d3e
000002f0: ef34 153e eb7e 7e3e 4b04 82be 4f23 293e
00000300: e288 1a3e bac9 7ebe 053a 3c3e d944 8bbe
00000310: 5ed9 f13d 2acb 86bd ddc9 063c 715b 99bd
00000320: ccf9 aeb8 da97 05be 20f3 933d 5133 b13e
00000330: 5cbd bb3e 2df9 d83d 61a5 4bbe 3bd9 113e
00000340: 82df 36be 6f6d 81bd 758d 7ebd 6b14 fd3b
00000350: 3372 b43d a78c 1d3d 9e5d bebd 1759 153d
00000360: afb6 9b37 e07c 913e a2be 993d 4ef4 0ebe
00000370: 3be4 a03d dfa6 9a3d 74b5 cabe 14db 02be
00000380: cbd7 263e 0896 02bd 54d2 86bd 272a 323e
00000390: 808a 383d 79d3 83bd f317 053e 1275 fe3d
000003a0: 6879 bb3c b3b5 1f3e c2e9 d63c 0165 003e
000003b0: c518 753d e46b a63e 2387 bf3d 80bb d93b
000003c0: cf3c 833e ef33 f2bc 1f81 4abd 86c8 8e3c
000003d0: 145a 0bbe 5cbd 753e ba55 8bbb dc84 393e
000003e0: d058 183e ce41 2b3c 7976 ba3e 9ab4 2b3e
000003f0: 5915 7cbe 94f6 233d 64e9 fcbd 429f c13d
0.2677134 -0.37999618 0.11982062 -0.07099899 0.045286894 0.00095694466 0.026510237 0.0025681446
0.088970646 0.13300252 -0.1185148 -0.14479373 0.31301188 -0.3797976 -0.040428896 -0.07801891
-0.07882166 0.3449622 -0.09674803 0.05394039 0.16020636 -0.0059212386 0.020676114 0.19532208
0.09784307 -0.012138332 -0.04875447 0.17409626 0.28687125 0.30317017 -0.059469793 -0.048926678
-0.027331771 -0.15432921 -0.022314062 -0.07623695 0.10480793 0.027125014 0.025345238 0.091625154
0.2620493 0.015491672 -0.07265264 -0.08044417 -0.020065151 0.12132437 -0.061824694 0.044777304
0.05543734 -0.17909886 -0.043274246 0.17599148 -0.0138436025 -0.12987703 0.18784562 0.011374927
-0.06045712 0.049199205 -0.122508384 -0.09671676 -0.20236184 0.5598203 0.089461215 -0.26054266
-0.031087156 -0.48074603 0.4440668 -0.18356197 0.08935505 0.0033451451 0.2541288 -0.016257556
0.3297679 -0.030572258 0.018106574 0.17691122 0.040384635 0.0335327 0.03802167 -0.05620601
-0.13167736 0.25361788 -0.40707958 -0.23458096 -0.018128151 0.027630141 0.24427861 0.16475944
0.2201724 0.26700014 0.10287052 -0.3650223 -0.07517449 0.14229509 0.2312873 -0.1059313
0.044604942 -0.087213784 -0.015816884 0.018639727 0.08781462 0.2570542 -0.034526132 0.04217998
0.14595327 0.08002902 0.24210745 0.38614872 0.043181438 -0.107013255 0.17945124 0.05724681
0.20416452 -0.014750143 0.34143654 0.01189108 -0.20484416 0.08846703 -0.0027287286 -0.025146466
0.054578424 0.35741612 0.07129903 -0.17378248 0.10144934 0.22427534 0.26255554 0.12236095
-0.12612097 -0.15077995 -0.06044584 0.08318202 0.23723397 -0.066815026 -0.043093566 -0.22634919
0.36987224 -0.0036816164 -0.094355926 0.3061812 -0.123478755 0.040121764 -0.01693364 -0.29475576
0.18319228 0.16409817 -0.31383342 0.086545266 -0.09548902 -0.36584014 0.07726631 -0.07879688
0.074358575 0.22395219 0.038564626 0.12868251 -0.14624979 -0.09808003 0.20351373 0.05375044
-0.05845581 -0.08902442 -0.21471179 0.062893935 0.12907538 -0.2156039 -0.051090557 -0.052635167
0.21244968 -0.39227214 -0.041245136 -0.06104295 0.27295548 0.020466391 0.26660335 -0.15608214
0.103617564 0.09578557 -0.30254605 -0.20330311 0.12642077 -0.18953542 -0.10297677 -0.24414457
0.2470751 0.3335676 0.020287184 0.23151386 0.14570974 0.24853103 -0.253939 0.16517375
0.15091279 -0.2488164 0.18381508 -0.27200964 0.118090376 -0.06581719 0.008226839 -0.07488144
-8.343495e-05 -0.13046208 0.07224107 0.34609464 0.36667907 0.105944015 -0.19887306 0.14243023
-0.17858699 -0.06319701 -0.062146623 0.0077233813 0.08810844 0.038464215 -0.092952 0.036461916
1.8562509e-05 0.28415585 0.075070634 -0.13960382 0.078560315 0.075513594 -0.39591563 -0.12778884
0.16293256 -0.031881362 -0.06583086 0.17398892 0.04505396 -0.064368196 0.12997417 0.12424673
0.02288504 0.15596657 0.026234511 0.1253853 0.059838075 0.3250419 0.09351947 0.006644666
0.2563233 -0.02956578 -0.049439546 0.017429601 -0.13608581 0.23998016 -0.0042521628 0.18117088
0.1487763 0.010452701 0.36418512 0.16768113 -0.24617518 0.040030077 -0.12349203 0.09454204

advantage_stream.2.bias f4 [4]
00000000: 8477 cb3d 0676 4e3d 796d ed3d 60bd e5bd
0.09934905 0.050405525 0.11593146 -0.11217761

feature_layers.0.weight f4 [128, 24]
00000000: 635b 963c 56cf 16bf f0ac bcbd b7b9 32bd
00000010: 9bfa 6cbe 6976 b53e 87a1 44be 934b d9bc
00000020: 1a43 26be c21b 003c 4e7f 86be 44f1 363e
00000030: 6f6e efbd 3417 9e3e 7408 e33d 52aa 953e
00000040: 13cd 42bd 9d25 c5be 5372 60bf f888 aa3e
00000050: 7e23 fe3d a15e 84be 40d5 a4be 7aef adbe
00000060: 2159 d7be 1714 f2be f41d 2ebd 15e6 65be
00000070: e733 5bbe 3e1f fc3e d1cb 9cbe b05a 913c
00000080: 37b4 203e af61 c2be d199 ab3e 0b0a 993e
00000090: 558d 443e 480d c4be 9b4f fc3d 7f66 cd3c
000000a0: 10a3 9f3d 7f8d bcbd ff5c 63be c70b 28be
000000b0: ee11 ae3e 52e8 953e ec45 373e 76de 233f
000000c0: 2b20 fbbe eb71 033f 3f79 9dbe 9a64 1b3e
000000d0: 3709 0f3e e06a 873e 7694 4e3d 9948 a23d
000000e0: ff49 8abe 300c d6bd 026b 183f 580e 033e
000000f0: bc42 b0bc c001 7abe 5cad 3cbe 1304 8e3e
00000100: 7549 f63c ff34 dc3e db7e 033e a955 f2be
00000110: 71b1 633e dea1 353f 7031 c3be 36a1 53bd
00000120: 7820 3abe 2a7f 3c3d 8d20 e43d c854 19bb
00000130: ebaf cfbe a787 53be 4fcf 9b3d d245 83be
00000140: 678f 34be 214b 3bbd f715 2d3e 0728 04bf
00000150: 2e77 80be b2e1 133e 0cc9 a93d ced6 21bd
00000160: 5096 8ebe 86ef 53bf 0c20 ef3d 6844 bebd
00000170: 3c43 2c3e d347 483e 367e f43a 02ae 0f3e
00000180: 169e 9dbd 3582 ad3d b87e 8b3d 2f90 e23c
00000190: 49ef 2f3e 1a4a 003e d8d7 d8bd 1f5b b53e
000001a0: c54b 02be e8e4 b83e 4cf1 cabe bccb c93d
000001b0: cc4f c73e 9722 42bd 01bc a63c c8d3 83bd
000001c0: 03c4 19bf 8efb 1d3e f636 1dbe c909 873e
000001d0: 9834 513e 8ed2 cbbd 1049 e83e 1a17 fdbd
000001e0: e2f1 433d 09be eb3b 6a9e 8cbe cc35 c1bc
000001f0: e167 183e b7e0 babd 1b4f 9ebe 4972 313e
00000200: b674 01bf c23c 97be cb6b 71be 2fc5 813d
00000210: 6f61 2a3e 1252 a5be 6ddd c9bc 2294 2e3e
00000220: cb06 1c3d 49b9 92bd 7d07 223f d6a0 ae3d
00000230: 0192 54be 08d6 e53e f7e5 9cbd c640 aa3e
00000240: b3bd 9f3e 6192 cebd 2e27 483e 4b20 b0be
00000250: 6236 28be 9bf9 41bd 65a6 c23e 7939 4cbe
00000260: 8e6b 07bd a172 f0bb f5df 09be f502 c13e
00000270: 0dcb 663d 32c2 83be a641 cc3e c6f0 623e
00000280: 3b84 09bd a5ce 143e e0e0 28be d8a3 ce3e
00000290: 8a96 03bf 5804 cf3e 7154 5d3f afb1 d3bd
000002a0: b2f2 1bbf 9a08 e33e d20e f0be 3aa8 0ebe
000002b0: a05d 32be 6978 11be 0c4b c93d 2be6 463d
000002c0: f51d 27be d4a7 ae3e 7d11 753e 30d5 053f
000002d0: 5c3c e3bd 1d06 c7be c220 e93d 9545 a03d
000002e0: 2886 48bf 9b22 8a3e 1fef 173c 8e3a 1fbc
000002f0: 7289 00be cc65 91be 3d0a 4a3e be43 313d
00000300: 8362 503e 0559 4bbe 0f7b 903e 0dab 1d3e
00000310: b2e5 dbbd 00d5 ee3d f819 3e3e 81c7 00bf
00000320: 6213 63be eb83 84bd 522c 8c3e 250b f83c
00000330: 7000 993e 0e25 d53d 6875 fd3e 9e96 b43e
00000340: 0b03 14be 62ee c1bc 7bb8 e43e 255f e13e
00000350: 1061 abbe 0a15 debd d313 043f 1e59 253e
00000360: 30d1 7dbb 1174 93be acd1 153e 7b29 0cbf
00000370: da97 b6be 2fba e6be d35a 9a3e f6c4 18be
00000380: 146d f53d 6a7e 19be ef85 90bd 16f9 8f3d
00000390: f4ad 00bf 4832 623e 4a5f 1abf 8e79 ac3d
000003a0: cb8b dfbe d642 4a3e 03af 21be 9066 debe
000003b0: 64c9 35be f4de 1d3a 5d04 893e 838b 133f
000003c0: 93b2 1f3e 84fc e5be 9bc8 023f 04f0 39be
000003d0: a1f5 46bc 6a22 7c3e c2d7 49be a7b0 dcbd
000003e0: 0bcd 9cbe b8e7 373e 0156 d63d 5fca 20be
000003f0: 7cf2 6dbe bad7 c23d e485 5bbe a2dc cd3e
0.018354123 -0.5891012 -0.09212673 -0.043634143 -0.23142473 0.35441902 -0.19202243 -0.026525294
-0.16236535 0.007819118 -0.26269 0.17865473 -0.116909854 0.30877078 0.11085597 0.29231507
-0.047558855 -0.3850526 -0.87674445 0.33307624 0.12409113 -0.25853446 -0.32193947 -0.3397177
-0.42060187 -0.47280952 -0.042509034 -0.2245105 -0.21406518 0.49242586 -0.3062425 0.017743438
0.15693747 -0.37965152 0.3351579 0.29890475 0.19194539 -0.38291383 0.12319871 0.025073288
0.077947736 -0.09206676 -0.22203444 -0.16410743 0.33998054 0.2927881 0.17897767 0.64011323
-0.4904798 0.513457 -0.30756566 0.15175095 0.13968359 0.26448727 0.050434552 0.07924003
-0.2700958 -0.10451543 0.5953828 0.1279844 -0.021516196 -0.2441473 -0.18425506 0.27737483
0.030064324 0.43009183 0.1284136 -0.4733098 0.22235657 0.70950115 -0.38123655 -0.051667415
-0.18176448 0.04601971 0.11139021 -0.002339648 -0.40563902 -0.20657216 0.076079 -0.25639206
-0.17632829 -0.045725945 0.1690291 -0.51623577 -0.25090927 0.14441565 0.082903 -0.039511494
-0.27849054 -0.8278736 0.11676034 -0.09290391 0.16822523 0.19558649 0.0018653336 0.14031222
-0.07696168 0.08472101 0.06811279 0.027656643 0.17181124 0.12528268 -0.10588044 0.35421082
-0.12724216 0.36112142 -0.3963722 0.098533124 0.38928068 -0.04739627 0.02035332 -0.064368784
-0.60064715 0.15427992 -0.15352997 0.26374653 0.20430219 -0.099522695 0.45368242 -0.12357922
0.0478381 0.007194285 -0.2746461 -0.023585223 0.14883377 -0.09124892 -0.30919728 0.17328753
-0.5056871 -0.29538542 -0.23576276 0.06336438 0.1663873 -0.32289177 -0.024641717 0.17048696
0.038092416 -0.071642466 0.63292676 0.08526771 -0.20758821 0.44889855 -0.0766105 0.33252543
0.31199417 -0.10086513 0.19546196 -0.34399638 -0.16426995 -0.047357183 0.38017574 -0.19943799
-0.033061557 -0.0073378836 -0.13464339 0.3769757 0.056345988 -0.25734097 0.39893836 0.2216216
-0.03357337 0.14531954 -0.16492033 0.40359378 -0.5140158 0.40433002 0.8645697 -0.10336625
-0.609172 0.443425 -0.46886307 -0.13931361 -0.17418528 -0.14206089 0.09828767 0.04855935
-0.16320021 0.34112418 0.23932452 0.52278423 -0.11095497 -0.38871852 0.11383201 0.07825772
-0.78329706 0.26979527 0.0092733195 -0.00971855 -0.12552431 -0.28397977 0.19730468 0.043277495
0.20350079 -0.19858177 0.28218886 0.15397282 -0.1073717 0.1166172 0.18564594 -0.5030442
-0.22175363 -0.06470474 0.27377564 0.030278752 0.29883146 0.10407458 0.49503636 0.35271162
-0.14454286 -0.02367324 0.44671997 0.44017902 -0.3347249 -0.10843857 0.5159275 0.16147277
-0.0038729422 -0.2879949 0.14630765 -0.54750794 -0.3566273 -0.45063922 0.30147418 -0.14918885
0.119836956 -0.1498963 -0.07056796 0.07029931 -0.5026543 0.22089493 -0.6030165 0.08421622
-0.4366134 0.19752058 -0.15789418 -0.43437624 -0.17752606 0.00060222973 0.2676114 0.57634753
0.15595464 -0.44919217 0.5108735 -0.18157965 -0.012143523 0.24622503 -0.19711211 -0.10775881
-0.30625185 0.17959487 0.10465623 -0.15702198 -0.23237032 0.09513803 -0.21437794 0.40207392
