models/snake_dqn_ep465_score23_20250302_153403.pt (torch, 942114 bytes, 44 tensors)

feature_layers.0.weight f4 [128, 24]
-0.038588725 -0.5555549 -0.069992065 -0.008801083 0.018519932 0.39420223 -0.27631843 0.115383886
-0.1932489 0.029759256 -0.30678502 0.2244119 0.032689765 0.5105931 0.10670508 0.18113717
-0.23742396 -0.25363514 -0.8261423 0.24219045 0.39264923 -0.31337935 -0.4890625 -0.18575929
-0.25658488 -0.5214046 0.015112387 -0.45014372 -0.53050166 0.6241411 -0.27732766 -0.14524704
0.10649269 -0.37966105 0.36259857 0.3066159 0.19112307 -0.8797359 0.4766719 -0.32426035
0.031586327 -0.55669266 -0.3205425 -0.040535737 0.18052416 0.15955138 0.37864673 0.4200118
-0.64825445 0.7519004 -1.0363021 0.021222753 -0.032860216 0.073290706 -0.11716434 0.045971066
-0.45977747 -0.25494793 0.36303803 0.03431659 -0.12823096 -0.042058744 -0.24730186 0.76671445
-0.6538638 0.8162977 0.19548081 -0.34067804 0.415885 0.5504456 -0.27538842 -0.1292374
-0.15523407 -0.028118784 0.08164897 0.09365733 -0.46421945 -0.23937088 -0.018656066 -0.3091001
-0.256776 0.1020561 0.095665984 -0.33996245 -0.42862627 0.31152976 -0.008401966 -0.09424505
-0.15037434 -0.8923642 0.24625805 -0.11442656 0.07720913 0.38684708 -0.030612763 0.19766098
0.22309388 -0.0746149 -0.03917434 -0.0066492255 0.16139978 0.13326114 -0.18571916 0.2957252
-0.15092883 0.4493802 -0.29117987 0.06566944 0.60079366 -0.33879894 0.21037428 0.08073852
-1.021384 -0.36660707 -0.0510029 0.40463036 0.29122353 -0.10636219 0.7201452 -0.16162072
0.011748786 -0.09287782 -0.36162832 0.030567152 0.09796369 -0.038674716 -0.25957975 0.13230051
-0.5560523 -0.3862146 -0.19827308 -0.11262698 0.09225521 -0.035008553 0.15672761 0.79353255
-0.018974932 0.32018453 0.6776817 0.123148985 0.14814003 0.5027255 0.050084654 0.24042383
0.30726635 -0.016364895 0.2576555 -0.67781216 -0.124405034 -0.17565094 0.2298388 -0.22428201
0.032151498 -0.07027341 -0.10247305 0.31597462 -0.3231066 -0.18154179 0.40253904 0.5428198
0.31167883 -0.08061142 -0.18891126 0.19494665 -0.68679255 0.35378388 0.6667936 -0.085410364
-0.46913487 0.54088926 -0.40902403 -0.09994368 -0.07458457 -0.16580465 0.08724702 0.093691304
-0.038576096 0.48152313 0.36856112 0.64927495 -0.19528164 -0.51419324 0.058421202 -0.26858085
-0.6756361 0.086926766 -0.062686294 0.1268191 -0.115215026 -0.28559205 0.25017878 -0.011835706
0.24637568 -0.33337528 0.34989962 0.20767148 -0.087354474 0.12082102 0.113224536 -0.58680975
-0.17929685 -0.0578904 0.27315968 0.080265254 0.06283244 -0.060658228 0.29074726 0.23036157
-0.3179266 -0.21611308 0.43407157 0.39725462 -0.2068583 -0.066751026 0.4323016 0.15013804
-0.085005306 -0.43067557 0.3484856 -0.847083 -0.2596342 -0.49984175 0.37578171 -0.17403382
0.09715413 -0.12338504 0.05230964 -0.061088197 -0.8949167 0.58905685 -0.38211152 0.39110664
-0.30707145 0.72353387 -0.37911716 -0.6160875 -0.11782676 -0.17371821 -0.038849417 0.42155048
0.42419973 -0.8429417 0.4671667 -0.88495463 0.089773566 -0.021764426 -0.15083353 -0.11562417
-0.075162314 0.13088956 0.037889864 -0.010117951 -0.5253288 0.39324436 -0.0533952 0.628764
00000000: 360f 1ebd d938 0ebf 0058 8fbd 6b32 10bc
00000010: 1db7 973c e0d4 c93e 9c79 8dbe 634e ec3d
00000020: 0ae3 45be afc9 f33c ed12 9dbe 3ccc 653e
00000030: b4e5 053d 3bb6 023f 3188 da3d 067c 393e
00000040: 441f 73be 77dc 81be 107e 53bf c600 783e
00000050: 5209 c93e 4273 a0be 6666 fabe af37 3ebe
00000060: 185f 83be c67a 05bf f299 773c 3d79 e6be
00000070: f5ce 07bf b6c7 1f3f e4fd 8dbe a4bb 14be
00000080: d718 da3d ef62 c2be 85a6 b93e c2fc 9c3e
00000090: c4b5 433e 5f36 61bf 570e f43e 7405 a6be
000000a0: aa60 013d 6983 0ebf 261e a4be cd08 26bd
000000b0: 53db 383e 7061 233e fcdd c13e c90b d73e
000000c0: 01f4 25bf 8b7c 403f 8ca5 84bf 57db ad3c
000000d0: 6f98 06bd 7019 963d dcf3 efbd 284c 3c3d
000000e0: f467 ebbe 8988 82be 1fe0 b93e 8d8f 0c3d
000000f0: fa4e 03be ca45 2cbd b33c 7dbe 6647 443f
00000100: 9e63 27bf e3f8 503f 1f2c 483e 5a6d aebe
00000110: e1ee d43e 01ea 0c3f b6ff 8cbe cf56 04be
00000120: aef5 1ebe 5d59 e6bc 9337 a73d 6acf bf3d
00000130: 2cae edbe a41d 75be 9bd4 98bc 5e42 9ebe
00000140: 2578 83be ca02 d13d 87ec c33d 8f0f aebe
00000150: e774 dbbe d480 9f3e 66a8 09bc 8c03 c1bd
00000160: bbfb 19be fb71 64bf 122b 7c3e 7958 eabd
00000170: d21f 9e3d d210 c63e 9ec7 fabc a467 4a3e
00000180: b972 643e b2cf 98bd 4675 20bd bfe1 d9bb
00000190: fc45 253e 9c75 083e 2a2d 3ebe 4b69 973e
000001a0: 168d 1abe 2915 e63e 8715 95be b37d 863d
000001b0: 9dcd 193f 0e77 adbe 5b6c 573e 3d5a a53d
000001c0: b6bc 82bf ecb3 bbbe 6be8 50bd b62b cf3e
000001d0: 401b 953e 6bd4 d9bd 705b 383f e77f 25be
000001e0: fb7d 403c ba36 bebd 5927 b9be f767 fa3c
000001f0: 30a1 c83d 6169 1ebd a3e7 84be c979 073e
00000200: 7259 0ebf ecbd c5be 1908 4bbe f9a8 e6bd
00000210: 4df0 bc3d 2165 0fbd 347d 203e f324 4b3f
00000220: 5171 9bbc 3aef a33e 8c7c 2d3f 8935 fc3d
00000230: 05b2 173e 9eb2 003f 9125 4d3d aa31 763e
00000240: 0452 9d3e ac0f 86bc 6ceb 833e 1985 2dbf
00000250: 11c8 febd d7dd 33be dd5a 6b3e 2faa 65be
00000260: 4ab1 033d 81eb 8fbd 64dd d1bd 6dc7 a13e
00000270: 3a6e a5be 17e6 39be 9919 ce3e 3df6 0a3f
00000280: 5e94 9f3e 9a17 a5bd f471 41be 18a0 473e
00000290: a3d1 2fbf 2923 b53e fcb2 2a3f a1eb aebd
000002a0: 7232 f0be b877 0a3f 996b d1be 46af ccbd
000002b0: ccbf 98bd b2c8 29be 91ae b23d 3ae1 bf3d
000002c0: f801 1ebd 338a f63e 0bb4 bc3e e236 263f
000002d0: e9f7 47be 2ba2 03bf 124b 6f3d 6e83 89be
000002e0: 7df6 2cbf a906 b23d ac61 80bd dedc 013e
000002f0: dbf5 ebbd 1f39 92be 6f17 803e 8dea 41bc
00000300: e849 7c3e 2ab0 aabe 0b26 b33e d5a7 543e
00000310: e7e6 b2bd 0371 f73d 44e2 e73d 2a39 16bf
00000320: 9899 37be 7c1e 6dbd 96db 8b3e 1c62 a43d
00000330: 4bae 803d c374 78bd d3dc 943e e7e3 6b3e
00000340: 46c7 a2be bf4c 5dbe a13e de3e f564 cb3e
00000350: aad2 53be c3b4 88bd a356 dd3e c9bd 193e
00000360: 4317 aebd 8281 dcbe b46c b23e 6eda 58bf
00000370: c6ee 84be 42eb ffbe 7666 c03e ec35 32be
00000380: bff8 c63d 4cb1 fcbd a242 563d 9e37 7abd
00000390: 4319 65bf 6ecc 163f 1fa4 c3be 213f c83e
000003a0: 7838 9dbe 8439 393f a51b c2be e9b7 1dbf
000003b0: 284f f1bd 30e3 31be 9120 1fbd 77d5 d73e
000003c0: b530 d93e 07cb 57bf 7930 ef3e 638c 62bf
000003d0: 34db b73d 4f4b b2bc 1b74 1abe 5dcc ecbd
000003e0: b3ee 99bd ea07 063e 6732 1b3d c3c5 25bc
000003f0: f37b 06bf 5357 c93e edb4 5abd adf6 203f

feature_layers.0.bias f4 [128]
0.1730839 -0.07429258 -0.024096001 0.18567273 -0.11936174 0.018862693 -0.029739901 0.25105533
0.23909059 0.17731957 0.07233427 0.039115857 0.26090312 0.08759048 -0.12441754 -0.09694323
-0.12265725 0.33339262 0.27089867 -0.076897666 0.18542083 0.08751733 -0.12177414 0.10758019
-0.0939228 -0.08802192 0.20827112 0.012613104 0.0820175 -0.042225152 -0.00014870803 -0.22851154
0.18646352 0.053272273 0.28086004 -0.23331645 0.1165634 0.18171045 -0.13811298 -0.2545282
0.22737597 0.10044843 -0.1359898 0.18747282 0.340181 0.108075194 0.032240607 0.092832945
0.17281942 -0.07773331 0.002839047 0.040937375 0.028400732 -0.08939532 0.274981 0.22620153
-0.13374244 0.0781283 -0.1717931 0.07336929 0.34010375 -0.16204424 -0.057846766 0.0743009
-0.03670837 0.13048501 -0.36375952 -0.18713653 -0.27032298 0.1299441 0.12767023 -0.2106649
0.33236703 0.20025143 0.22933643 -0.27115837 0.16926856 0.052203342 0.1645484 0.27123204
0.26700807 -0.17735107 -0.093947075 0.20899074 0.035799418 0.09308958 -0.012774623 0.08179531
0.042262148 0.003129996 -0.020810297 0.259337 0.26408577 0.02456906 -0.23797004 0.22034706
-0.06920815 0.14405587 0.0068686265 0.17794462 -0.0766373 0.19002911 -0.03136196 0.14881025
-0.06856077 0.10706995 0.14033389 0.13897587 0.24613383 -0.10981523 0.29609516 0.19689892
0.013881139 0.29201603 0.1326557 -0.066144496 0.16552459 -0.10415285 0.26778382 -0.074387036
-0.14598411 0.27870104 -0.04287181 -0.11290622 -0.09995306 0.31666464 0.062995434 -0.024410056
00000000: e83c 313e b526 98bd fa64 c5bc fe20 3e3e
00000010: ee73 f4bd ef85 9a3c 18a1 f3bc 538a 803e
00000020: 2ad4 743e 4393 353e fd23 943d f337 203d
00000030: 1895 853e a362 b33d a0ce febd 2c8a c6bd
00000040: b933 fbbd 70b2 aa3e 3bb3 8a3e 867c 9dbd
00000050: f5de 3d3e 493c b33d b864 f9bd 0153 dc3d
00000060: 995a c0bd d644 b4bd 0645 553e 31a7 4e3c
00000070: cbf8 a73d 48f4 2cbd 82ee 1bb9 eefe 69be
00000080: 4bf0 3e3e 0734 5a3d e3cc 8f3e 82ea 6ebe
00000090: cbb8 ee3d 4e12 3a3e 7d6d 0dbe 8551 82be
000000a0: 3fd5 683e e8b7 cd3d e940 0bbe e0f8 3f3e
000000b0: 342c ae3e 8756 dd3d ba0e 043d 331f be3d
000000c0: 93f7 303e a432 9fbd 4e0f 3a3b f3ad 273d
000000d0: a7a8 e83c e514 b7bd 4fca 8c3e 60a1 673e
000000e0: c7f3 08be bb01 a03d 88ea 2fbe a342 963d
000000f0: 1422 ae3e edee 25be bbf0 6cbd 122b 983d
00000100: 845b 16bd dd9d 053e b03e babe b8a0 3fbe
00000110: c667 8abe 1110 053e fcbb 023e 8ab8 57be
00000120: 032c aa3e b60e 4d3e 2bd7 6a3e 45d5 8abe
00000130: bd54 2d3e 2cd3 553d 607f 283e edde 8a3e
00000140: 48b5 883e 859b 35be 5367 c0bd ab01 563e
00000150: 69a2 123d c0a5 be3d a74c 51bc 4d84 a73d
00000160: 131b 2d3d 9e20 4d3b 5b7a aabc d2c7 843e
00000170: 4036 873e 0e45 c93c 6bae 73be a9a2 613e
00000180: 01bd 8dbd 6283 133e 3712 e13b 1d37 363e
00000190: 04f4 9cbd fe96 423e 6675 00bd b761 183e
000001a0: 9769 8cbd 7d47 db3d b0b3 0f3e b14f 0e3e
000001b0: 820a 7c3e cfe6 e0bd c999 973e df9f 493e
000001c0: b86d 633c 2083 953e e5d6 073e c476 87bd
000001d0: 477f 293e 174e d5bd f61a 893e 3b58 98bd
000001e0: dc7c 15be e7b1 8e3e 5a9a 2fbd 603b e7bd
000001f0: 31b4 ccbd de21 a23e c003 813d 99f7 c7bc

feature_layers.1.weight f4 [128, 128]
0.22548865 0.0283811 0.21035191 0.040840726 -0.07344738 -0.22656544 0.036399305 0.21405238
0.09151994 -0.0028656495 0.2759276 -0.004663324 -0.18039739 -0.009552752 0.07018973 0.22294243
0.12105768 -0.047978945 0.19695644 -0.035644718 0.19717306 -0.19644861 -0.09318443 -0.10476593
0.1594207 0.20908223 -0.17518035 0.18342787 0.05437692 -0.01788642 0.049004167 0.03233955
0.16241942 -0.059013028 -0.038629524 -0.28885448 0.06962757 0.11731391 -0.038271405 -0.23480147
0.013901965 -0.025463965 0.21492657 0.070523985 0.01859626 0.003263983 0.06920167 0.11191083
-0.2328663 -0.0069572297 -0.020773811 0.21248972 0.091556646 0.20592645 0.2214165 0.058486518
0.1443962 -0.082729876 -0.22398211 0.12803528 0.32926494 -0.24825889 0.051519606 0.08696854
0.07205337 0.04000004 0.04623096 0.13708325 0.02393839 0.14420947 0.02681829 0.056829993
-0.076201566 0.29525065 0.24992605 0.0025261338 0.0345819 0.10189854 -0.04433858 0.14130591
-0.04111381 -0.039901808 -0.1778885 -0.21053213 0.12323376 -0.16774546 -0.15216585 0.1249229
0.17221116 -0.1842626 0.12779105 -0.10198232 0.20695828 0.0012363503 0.0509363 0.2730278
0.12615025 0.11533002 0.18655139 -0.005604566 -0.08360528 0.24272531 0.2644635 0.042864177
0.13658659 0.1321253 -0.13367105 -0.1036986 -0.059827697 -0.030854322 0.23605996 0.038507637
-0.016771115 -0.057670403 0.05025106 0.20433462 0.14574458 0.10450945 -0.08088689 -0.0021472732
0.101706564 0.00096593174 0.09895237 -0.3631389 -0.13625406 0.20506953 -0.0052549164 0.17753524
-0.15560398 -0.09027012 -0.17856187 0.19217297 0.034646586 -0.01322637 0.021842422 0.15825433
-0.06555329 -0.05210229 0.007815264 0.057607427 0.19342175 0.17458244 0.13192205 0.053032648
-0.17126259 -0.06362835 0.089122325 -0.17453249 0.2224844 0.16488494 0.0725004 0.502314
-0.0091187935 -0.03287213 0.04756948 0.22160521 -0.038100876 0.036859024 0.009899588 -0.27308246
0.18281865 0.077415355 0.078490995 -0.079230644 -0.108422294 0.022089982 0.111184224 0.11274163
0.033652235 -0.0021109274 -0.036285587 0.1453388 0.38948488 -0.06039576 0.07429959 -0.073314466
-0.074527055 0.13619235 0.03633577 -0.10484946 0.057750437 0.009047718 0.08819005 0.090387136
-0.09056233 0.03444696 -0.120816864 0.2777206 0.2105631 -0.093447514 0.15788251 -0.06565693
0.15739062 0.0004349529 -0.18937263 0.28771052 0.009408462 -0.041313827 0.009851108 -0.022965958
0.06449454 -0.0015044919 0.021766955 -0.18998887 0.044474788 0.03441881 0.28388366 0.051835686
0.09107698 -0.0873235 0.007757509 0.015895722 0.004933191 0.11629842 0.1334497 0.0951288
-0.19513889 -0.20349322 -0.0782471 0.069307365 0.1013847 -0.023098487 -0.026993474 -0.0016301676
0.091376066 0.3203981 0.003328174 -0.08295624 0.15920453 0.022855379 0.11708326 -0.051309522
0.004736831 -0.08335501 0.06080217 0.12435788 -0.09100549 0.042106185 0.10917956 0.17804532
0.082235575 -0.01712496 0.17260508 0.04536792 0.033959027 -0.09531652 0.21445373 -0.0026083263
-0.18871629 0.06902037 0.03445709 0.20893508 0.013331004 0.21526037 0.1354795 -0.1441014
00000000: 7fe6 663e 7b7f e83c 7e66 573e 9b48 273d
00000010: 946b 96bd c500 68be 7017 153d 8c30 5b3e
00000020: ce6e bb3d 9fcd 3bbb 6246 8d3e ccce 98bb
00000030: 18ba 38be 2583 1cbc a2bf 8f3d 054b 643e
00000040: 17ed f73d 9285 44bd f3ae 493e 3200 12bd
00000050: bce7 493e d329 49be 7ad7 bebd 858f d6bd
00000060: 2e3f 233e a719 563e 7a62 33be 84d4 3b3e
00000070: 55ba 5e3d 8b86 92bc 98b8 483d 7a76 043d
00000080: 4751 263e a5b7 71bd fe39 1ebd bce4 93be
00000090: e698 8e3d 4642 f03d 7ac2 1cbd cc6f 70be
000000a0: 11c5 633c ce99 d0bc b615 5c3e e16e 903d
000000b0: 2f57 983c 8ce8 553b 9bb9 8d3d 8131 e53d
000000c0: 8174 6ebe 79f9 e3bb d72d aabc e896 593e
000000d0: 0d82 bb3d 62de 523e 02bb 623e 8f8f 6f3d
000000e0: 99dc 133e 486e a9bd 915b 65be ae1b 033e
000000f0: 6a95 a83e 9437 7ebe 3906 533d 901c b23d
00000100: b890 933d 15d7 233d ad5c 3d3d 8d5f 0c3e
00000110: 711a c43c a6ab 133e 08b2 db3c 91c6 683d
00000120: 910f 9cbd 182b 973e 9dec 7f3e 7e8d 253b
00000130: c0a5 0d3d 2fb0 d03d 5f9c 35bd 7fb2 103e
00000140: f466 28bd 1470 23bd 6728 36be bc95 57be
00000150: fb61 fc3d 77c5 2bbe 5dd1 1bbe 94d7 ff3d
00000160: 1f58 303e 56af 3cbe a8db 023e 1bdc d0bd
00000170: dfec 533e 080d a23a 95a2 503d 4dca 8b3e
00000180: 882d 013e 2532 ec3d 5407 3f3e 82a6 b7bb
00000190: 3f39 abbd fc8c 783e c367 873e 5992 2f3d
000001a0: 5bdd 0b3e db4b 073e 10e1 08be ee5f d4bd
000001b0: e30d 75bd 34c2 fcbc b4b9 713e 2fba 1d3d
000001c0: 9463 89bc cd37 6cbd 0ed4 4d3d 183d 513e
000001d0: 113e 153e 0d09 d63d 07a8 a5bd 44b9 0cbb
000001e0: 884b d03d 9536 7d3a 8aa7 ca3d 58ed b9be
000001f0: 2f86 0bbe bffd 513e 6f31 acbb cccb 353e
00000200: a656 1fbe 8adf b8bd ecd8 36be fec8 443e
00000210: 94e9 0d3d 6bb3 58bc e1ee b23c 6c0d 223e
00000220: ce40 86bd 3669 55bd 980b 003c c4f5 6b3d
00000230: 5a10 463e bdc5 323e 9316 073e c338 593d
00000240: 765f 2fbe 954f 82bd c485 b63d a5b8 32be
00000250: f3d2 633e 99d7 283e 177b 943d a697 003f
00000260: fe66 15bc eda4 06bd 37d8 423d 7aec 623e
00000270: aa0f 1cbd 7df9 163d e231 223c 77d1 8bbe
00000280: d034 3b3e f18b 9e3d e3bf a03d ad43 a2bd
00000290: 820c debd 0df6 b43c 8eb4 e33d 15e5 e63d
000002a0: edd6 093d 7c57 0abb 32a0 14bd b2d3 143e
000002b0: 906a c73e 8b61 77bd 622a 983d e525 96bd
000002c0: a4a1 98bd 0276 0b3e d1d4 143d 50bb d6bd
000002d0: b98b 6c3d e13c 143c fc9c b43d e41c b93d
000002e0: be78 b9bd 4118 0d3d d56e f7bd 6531 8e3e
000002f0: da9d 573e 6961 bfbd f4ab 213e 2477 86bd
00000300: 022b 213e 640a e439 e6ea 41be cb4e 933e
00000310: f325 1a3c b038 29bd 8b66 213c 1b23 bcbc
00000320: b715 843d 5f32 c5ba 9d50 b23c 718c 42be
00000330: 322b 363d bdfa 0c3d 3359 913e a851 543d
00000340: 9186 ba3d aad6 b2bd b432 fe3b bf37 823c
00000350: 9ba6 a13b de2d ee3d 0aa7 083e e3d2 c23d
00000360: 7dd2 47be 8760 50be 0440 a0bd 05f1 8d3d
00000370: c8a2 cf3d 0a39 bdbc 6b21 ddbc 59ab d5ba
00000380: 6023 bb3d 380b a43e 7e1d 5a3b f6e4 a9bd
00000390: 8306 233e 343b bb3c 59c9 ef3d ef29 52bd
000003a0: 6b37 9b3b 08b6 aabd b20b 793d 58af fe3d
000003b0: 1661 babd 8977 2c3d 8899 df3d 8351 363e
000003c0: 206b a83d a549 8cbc 63bf 303e b6d3 393d
000003d0: 9f18 0b3d 4f35 c3bd c299 5b3e 74f0 2abb
000003e0: d83e 41be 8d5a 8d3d e122 0d3d 14f3 553e
000003f0: 496a 5a3c 376d 5c3e 23bb 0a3e 518f 13be

feature_layers.1.bias f4 [128]
0.15005755 0.2596935 0.07543574 -0.072129436 0.13533564 0.13926859 0.05157579 0.045497622
-0.022642853 0.1965276 0.019984493 -0.13620913 0.08286607 0.11383941 -0.12122255 -0.0040272377
0.061311632 -0.07949337 0.19819154 0.16553213 0.15225397 0.12290338 -0.23170024 -0.07293677
0.13387042 0.07947156 0.028110763 0.14118794 -0.086443454 -0.095651604 0.106416374 0.13416173
0.016573302 0.04550119 0.18382187 -0.09980123 -0.020876601 -0.13262725 0.09943335 0.055902883
-0.013911592 -0.14278892 0.049750756 0.064994976 -0.15068433 0.02947061 -0.09411569 -0.17766248
0.14355396 -0.055453084 -0.15475081 0.07805533 0.002109238 -0.036142252 0.029468408 -0.027891302
0.085988306 0.11122987 -0.03082521 -0.08334407 -0.09114276 -0.0054408107 0.12829676 0.09701071
0.09756396 -0.1927282 0.13922323 0.17207527 -0.14273013 0.038298916 -0.14213578 -0.15962411
0.005268402 0.20145585 -0.03368632 0.1145916 0.018494114 0.09770185 0.13343096 0.14169003
0.10487472 0.18085799 -0.11823876 0.037038375 -0.041359745 -0.12965366 -0.012559765 -0.15042526
-0.048944127 0.1895286 -0.09316622 0.05271457 0.15221758 -0.13754568 0.04025056 -0.036127344
0.102647476 0.15241723 -0.17805696 0.08660028 0.0829691 -0.02498885 0.16594493 0.10471286
0.068754084 0.1195822 -0.14347027 0.079839334 -0.13778874 0.05627391 0.109176606 0.09681633
-0.14864464 -0.13240483 0.07925285 0.00043228327 -0.020253796 -0.113246545 0.1521615 0.07813932
0.0027929654 -0.10320984 0.11994956 0.031902928 -0.16187018 -0.032013413 -0.14088836 0.022692306
00000000: b0a8 193e 8cf6 843e 0e7e 9a3d 99b8 93bd
00000010: 6d95 0a3e 6d9c 0e3e 2341 533d b75b 3a3d
00000020: 817d b9bc 883e 493e 85b6 a33c 687a 0bbe
00000030: b0b5 a93d a324 e93d 8743 f8bd ebf6 83bb
00000040: e821 7b3d 6ccd a2bd b9f2 4a3e 4181 293e
00000050: 77e8 1b3e c4b4 fb3d d442 6dbe e05f 95bd
00000060: 5415 093e fcc1 a23d 8b48 e63c 9293 103e
00000070: 4409 b1bd fde4 c3bd d4f0 d93d b161 093e
00000080: bcc4 873c 755f 3a3d cd3b 3c3e 9664 ccbd
00000090: 6805 abbc 70cf 07be b6a3 cb3d 6cfa 643d
000000a0: 72ed 63bc 4237 12be 73c7 4b3d 161c 853d
000000b0: fe4c 1abe 596c f13c babf c0bd 27ed 35be
000000c0: cfff 123e c622 63bd ff76 1ebe 79db 9f3d
000000d0: 243b 0a3b e609 14bd bb67 f13c 4d7c e4bc
000000e0: a31a b03d 7ccc e33d 2785 fcbc 4cb0 aabd
000000f0: 0ea9 babd d448 b2bb 3a60 033e 8dad c63d
00000100: 9dcf c73d 8b5a 45be 8990 0e3e 8034 303e
00000110: d927 12be 53df 1c3d 0b8c 11be 8174 23be
00000120: 8fa2 ac3b 714a 4e3e abfa 09bd 00af ea3d
00000130: f880 973c e817 c83d 20a2 083e 3117 113e
00000140: 8fc8 d63d d632 393e 2a27 f2bd 8db5 173d
00000150: d668 29bd eec3 04be 79c7 4dbc 1409 1abe
00000160: a379 48bd c913 423e eecd bebd 3ceb 573d
00000170: edde 1b3e c6d8 0cbe c5dd 243d 44fa 13bd
00000180: d738 d23d 4313 1c3e 9054 36be 7d5b b13d
00000190: b4eb a93d 6bb5 ccbc 78ed 293e b273 d63d
000001a0: f1ce 8c3d 83e7 f43d dfe9 12be ce82 a33d
000001b0: 7e18 0dbe 797f 663d fc97 df3d a447 c63d
000001c0: 4d36 18be 2295 07be 514f a23d 14a4 e239
000001d0: 4aeb a5bc ceed e7bd 39d0 1b3e 8207 a03d
000001e0: 2f0a 373b ae5f d3bd 1da8 f53d a5ac 023d
000001f0: 4cc1 25be 7f20 03bd 0a45 10be 37e5 b93c

value_stream.0.weight f4 [64, 128]
-0.043796934 -0.14726652 0.18099222 -0.08895918 0.16678509 0.0928342 0.06425483 -0.0702115
-0.015814194 -0.10762062 0.0154689215 0.01225339 -0.17511146 0.00073446473 -0.19153729 0.14303383
0.18649496 0.2167845 -0.005390443 -0.1004617 0.09246798 -0.17906132 0.0006704426 0.21306378
-0.04495011 0.26943982 -0.05523393 0.18823849 0.080657795 -0.015174902 0.23399039 -0.005893168
-0.08614585 0.02044637 -0.28947562 0.14736797 0.15205663 0.11593356 0.05168017 -0.2341095
0.08406587 0.3692899 0.055859424 0.10668466 0.09543423 -0.21071096 0.053868823 -0.28410465
0.082613334 0.08517658 0.27721912 0.11000978 0.1859522 -0.198304 0.105728 0.1691841
0.043632653 0.1148475 -0.06505018 -0.1527532 -0.2849949 0.15416345 -0.007966053 0.13086434
0.19902803 0.21423091 -0.13734692 0.00016314554 -0.042342424 0.04816888 0.17691648 0.38561514
0.030494304 -0.024808059 0.1413493 -0.077737555 -0.1346747 0.14922436 0.09117043 -0.054631192
-0.0029634002 0.031120911 0.11907463 -0.2433443 -0.19885612 -0.061502665 0.05574648 0.26669315
-0.0065575955 0.263629 0.20966005 0.072152786 -0.024992242 0.12624681 -0.068224244 0.10117936
0.14929418 -0.15695412 0.29696205 -0.037009984 -0.1202663 0.08944457 0.045132514 -0.08731347
0.10374937 -0.11202407 0.10234035 0.33225694 -0.19468917 -0.05745891 0.16524746 0.06167426
0.17150567 0.13344862 0.20879331 -0.10213024 0.21991147 0.011019027 -0.12784831 0.008815378
0.04461622 -0.09973923 -0.042656466 -0.016419213 0.29468787 -0.034884684 0.07787991 0.10865206
-0.28064048 -0.15177885 -0.0005241182 -0.13500062 -0.033695225 -0.036805023 -0.018592702 -0.24609454
0.035924915 0.008051272 0.027124701 0.3858939 -0.074697874 -0.13967438 -0.06294597 -0.0071987943
0.00041989755 -0.005079753 -0.1374991 -0.006459636 -0.14306602 -0.091547735 0.3691383 0.31259343
-0.172479 0.124459654 -0.023813853 0.10256226 0.24450201 0.1850922 -0.079890266 -0.080297366
-0.17556049 -0.08141364 -0.18342648 0.14978406 0.2546205 0.10834819 -0.15012462 0.18265967
0.5672463 0.08827963 -0.32639807 -0.26819184 0.26912564 -0.17430544 -0.009753418 -0.0062853484
0.10259302 0.3065389 -0.18786441 -0.19872424 -0.37235188 0.06744015 0.078881025 -0.28514677
-0.15717208 0.056366786 0.12329933 0.10357432 0.06581223 -0.12467052 -0.10352965 -0.05978226
-0.04756087 -0.20536663 -0.1759058 -0.16020215 -0.14463809 0.05464302 0.101948485 0.051782854
0.13773149 -0.24029112 0.067735635 -0.04140895 -0.21362838 0.19073002 -0.28636461 -0.066728406
-0.05195099 -0.08100749 0.36350787 0.12067204 0.13535559 0.32469472 0.21060057 0.22725196
-0.09874255 -0.08963021 0.0737902 0.026615571 -0.042967662 0.41903004 -0.18427768 -0.036511775
0.21902187 0.084666625 -0.04460783 -0.17693774 -0.23651971 0.070640385 0.09704741 -0.18044761
-0.043719105 0.10062148 0.10957042 0.10120009 0.012846752 -0.004982947 0.011155784 -0.06615522
0.21962069 -0.046286218 0.032705944 0.15110172 0.062469393 0.26047796 -0.13947366 -0.1169318
0.06927666 -0.013821183 -0.23005776 0.04903547 0.0030782071 -0.13149402 0.12586819 0.15445463
00000000: 6a64 33bd 09cd 16be 0656 393e 3b30 b6bd
00000010: b6c9 2a3e db1f be3d 0998 833d 0ccb 8fbd
00000020: c58c 81bc 3368 dcbd 5c71 7d3c 71c2 483c
00000030: 6b50 33be 1889 403a 5a22 44be 7677 123e
00000040: 89f8 3e3e c2fc 5d3e 50a2 b0bb ddbe cdbd
00000050: da5f bd3d da5b 37be a4c0 2f3a 642d 5a3e
00000060: 9b1d 38bd 04f4 893e f93c 62bd 97c1 403e
00000070: ea2f a53d 27a0 78bc 2d9b 6f3e 7a1b c1bb
00000080: 3c6d b0bd 257f a73c 2636 94be a1e7 163e
00000090: bcb4 1b3e 936e ed3d 96ae 533d 67ba 6fbe
000000a0: ba2a ac3d 9113 bd3e dacc 643d 7d7d da3d
000000b0: 0673 c33d 9dc4 57be 8ea5 5c3d 2a76 91be
000000c0: 2e31 a93d 0f71 ae3d aaef 8d3e cf4c e13d
000000d0: 416a 3e3e 3410 4bbe ec87 d83d 993e 2d3e
000000e0: 27b8 323d 2b35 eb3d 0739 85bd 566b 1cbe
000000f0: daea 91be 06dd 1d3e 0c84 02bc 4d01 063e
00000100: 01ce 4b3e 595f 5b3e aca4 0cbe 0c12 2b39
00000110: 406f 2dbd bb4c 453d 9829 353e 596f c53e
00000120: 31cf f93c 453a cbbc dfbd 103e de34 9fbd
00000130: 2ae8 09be 45ce 183e 90b7 ba3d f5c4 5fbd
00000140: 9b35 42bb 48f1 fe3c 66dd f33d 402f 79be
00000150: f0a0 4bbe 38ea 7bbd 6c56 643d 018c 883e
00000160: 19e1 d6bb 61fa 863e 20b1 563e d7c4 933d
00000170: 88bc ccbc d846 013e 27b9 8bbd 2037 cf3d
00000180: 93e0 183e 95b8 20be 690b 983e c897 17bd
00000190: 2e4e f6bd b72e b73d dfdc 383d 68d1 b2bd
000001a0: 8d7a d43d e06c e5bd d197 d13d 951d aa3e
000001b0: 995c 47be 095a 6bbd a136 293e 269e 7c3d
000001c0: 2f9f 2f3e c1a6 083e eacd 553e a929 d1bd
000001d0: 7930 613e 2689 343c abea 02be 606e 103c
000001e0: 7fbf 363d 1544 ccbd 8cb8 2ebd 9681 86bc
000001f0: 54e1 963e 3ee3 0ebd 817f 9f3d f984 de3d
00000200: 1cb0 8fbe ea6b 1bbe fa64 09ba 9a3d 0abe
00000210: 0104 0abd ddc0 16bd b94f 98bc 3500 7cbe
00000220: 0126 133d 7be9 033c 9f34 de3c e393 c53e
00000230: 33fb 98bd cd06 0fbe d1e9 80bd dde3 ebbb
00000240: b225 dc39 0f74 a6bb 90cc 0cbe 5bab d3bb
00000250: e67f 12be 617d bbbd b2ff bc3e 3f0c a03e
00000260: 569e 30be b4e4 fe3d 4515 c3bc 2a0c d23d
00000270: bc5e 7a3e cf88 3d3e 829d a3bd f272 a4bd
00000280: 21c6 33be 32bc a6bd 27d4 3bbe fe60 193e
00000290: 9e5d 823e a8e5 dd3d 45ba 19be 230b 3b3e
000002a0: 0e37 113f f3cb b43d a61d a7be 7150 89be
000002b0: d6ca 893e 207d 32be cdcc 1fbc 53f5 cdbb
000002c0: 4a1c d23d abf2 9c3e 875f 40be 5e7e 4bbe
000002d0: e8a4 bebe 101e 8a3d 608c a13d c2fe 91be
000002e0: b8f1 20be dce0 663d 5c84 fc3d c61e d43d
000002f0: 90c8 863d 4253 ffbd 5a07 d4bd 3ede 74bd
00000300: 30cf 42bd a14b 52be a620 34be 080c 24be
00000310: 021c 14be 5cd1 5f3d 5eca d03d 421a 543d
00000320: 7c09 0d3e e00e 76be fbb8 8a3d 6e9c 29bd
00000330: 66c1 5abe bb4e 433e 629e 92be e7a8 88bd
00000340: 90ca 54bd 41e7 a5bd b41d ba3e e722 f73d
00000350: a89a 0a3e 633e a63e ada7 573e bdb4 683e
00000360: 8939 cabd 0b90 b7bd 511f 973d e608 da3c
00000370: dcfe 2fbd 1b8b d63e 4ab3 3cbe 5f8d 15bd
00000380: 4547 603e b265 ad3d b3b6 36bd 2b2f 35be
00000390: 3932 72be e8ab 903d cbc0 c63d 42c7 38be
000003a0: ce12 33bd a212 ce3d 7566 e03d fe41 cf3d
000003b0: 2f7b 523c fd47 a3bb c0c6 363c 637c 87bd
000003c0: 3fe4 603e 9e96 3dbd abf6 053d 69ba 1a3e
000003d0: e8df 7f3d 5e5d 853e 2fd2 0ebe f179 efbd
000003e0: ece0 8d3d 3e72 62bc 4394 6bbe 6bd9 483d
000003f0: bfbb 493b 5ea6 06be 97e3 003e 5b29 1e3e

value_stream.0.bias f4 [64]
-0.10614489 -0.08848955 0.19670248 -0.14538844 0.12181824 -0.1899929 0.2206628 0.14019573
0.15558025 0.12647901 0.115899354 0.25226465 0.18956001 0.1272394 -0.2630171 0.1564057
-0.1139482 0.19714466 -0.07847415 -0.13485397 -0.20090698 0.094836466 0.24549685 -0.17712209
-0.12149056 -0.07086207 -0.11189237 -0.1931969 0.13805683 0.09796333 0.13147731 0.0851619
0.25257513 0.25167146 -0.16457985 0.25142127 -0.18119895 -0.07898587 -0.118425585 0.11315099
0.27611643 -0.20164585 -0.1400672 -0.16998097 0.17489798 0.13059169 -0.13935862 0.0925374
-0.05764377 0.19252454 0.23308234 -0.22588748 0.18814094 0.14581008 0.14183132 0.092849016
-0.1186591 0.28903747 -0.1671684 -0.11929023 -0.104290605 -0.021520795 0.09253928 0.21872604
00000000: 7e62 d9bd 023a b5bd 606c 493e b5e0 14be
00000010: d77b f93d 808d 42be 6ef5 613e 788f 0f3e
00000020: 6e50 1f3e b783 013e a45c ed3d d528 813e
00000030: 051c 423e 0c4b 023e 2daa 86be d128 203e
00000040: ad5d e9bd 4ae0 493e 0eb7 a0bd 2917 0abe
00000050: 8fba 4dbe 9f39 c23d 8763 7b3e 7e5f 35be
00000060: 0bd0 f8bd 2220 91bd d427 e5bd 68d5 45be
00000070: c55e 0d3e 00a1 c83d fda1 063e 5d69 ae3d
00000080: 8751 813e 15db 803e 9f87 28be 4aba 803e
00000090: 388c 39be 58c3 a1bd 1d89 f2bd b5bb e73d
000000a0: 225f 8d3e 407c 4ebe c76d 0fbe 7e0f 2ebe
000000b0: 7518 333e d4b9 053e 07b4 0ebe 4084 bd3d
000000c0: e01b 6cbd 2725 453e 23ad 6e3e 0c4f 67be
000000d0: 05a8 403e 3d4f 153e 3b3c 113e a027 be3d
000000e0: 8b03 f3bd b8fc 933e 312e 2bbe 704e f4bd
000000f0: 5096 d5bd 614c b0bc 3c85 bd3d b8f9 5f3e

value_stream.2.weight f4 [1, 64]
-0.03721237 -0.1886143 0.1270398 -0.29302594 0.18262574 -0.38543785 0.15539418 0.12544501
0.2113018 0.15176287 0.078638546 0.095032424 0.16120434 0.5344373 -0.087307855 0.48518854
-0.12528276 0.34938025 -0.09243689 -0.3903739 -0.30255497 0.077470355 0.15696126 -0.08079445
-0.243348 -0.18266147 -0.32295063 -0.2830254 0.2697535 0.24677399 0.15658677 0.06880373
0.17386532 0.08106165 -0.33888718 0.12816696 -0.20488435 -0.28478938 -0.15978466 0.12757263
0.16890153 -0.073287256 -0.12745725 -0.17616999 0.26097548 0.16929588 -0.49625605 0.22888882
-0.06698533 0.13217065 0.17223094 -0.14857043 0.49407482 0.19279781 0.4259129 0.40047774
-0.21293518 0.1478689 -0.4933269 -0.46776274 -0.06117727 0.0027107627 0.3655856 0.20123017
00000000: 006c 18bd 1b24 41be b916 023e 7f07 96be
00000010: 3e02 3b3e 1c58 c5be a71f 1f3e a874 003e
00000020: 805f 583e ba67 1b3e 3f0d a13d 5ca0 c23d
00000030: c012 253e e2d0 083f 76ce b2bd a26a f83e
00000040: 204a 00be f8e1 b23e 8d4f bdbd 16df c7be
00000050: 7ce8 9abe c7a8 9e3d 74ba 203e 9077 a5bd
00000060: 3830 79be 9c0b 3bbe c959 a5be b5e8 90be
00000070: 211d 8a3e 52b2 7c3e 4858 203e f8e8 8c3d
00000080: c009 323e a603 a63d 9f82 adbe 333e 033e
00000090: 34cd 51be eacf 91be 979e 23be 66a2 023e
000000a0: 86f4 2c3e a117 96bd 2784 02be e865 34be
000000b0: 949e 853e e65b 2d3e 4615 febe d561 6a3e
000000c0: 9b2f 89bd be57 073e 4f5d 303e d922 18be
000000d0: 60f7 fc3e ca6c 453e 4111 da3e 6b0b cd3e
000000e0: ae0b 5abe f26a 173e 5895 fcbe 997e efbe
000000f0: 0495 7abd 0da7 313b 092e bb3e 480f 4e3e

advantage_stream.0.weight f4 [64, 128]
-0.0007568913 0.0039069406 -0.17455779 0.38250673 0.14905138 -0.13287947 -0.041802384 0.15459338
0.05607524 0.012963203 -0.050399303 0.09846886 0.054039273 -0.114019625 0.5777334 -0.087205306
0.065844 -0.21691875 0.016466863 -0.106933594 -0.31534785 -0.16863228 0.0070738248 -0.4325847
0.04419348 -0.2906799 -0.11173489 -0.07474028 0.1403236 0.3745992 0.059734255 -0.05531917
0.08324903 0.098669454 -0.1678791 0.14392078 -0.043984108 -0.008242515 -0.0014890492 0.40209883
-0.07609936 0.17537917 -0.14171103 0.2740075 0.030088732 -0.09190686 0.22952604 0.2786736
0.042860463 -0.16651069 0.14329132 -0.046109248 -0.063502856 0.22832705 -0.20949244 -0.2710005
0.18012781 0.13818954 -0.35360727 -0.27878264 0.27948317 0.021795318 -0.16137552 0.007721989
-0.049082857 0.013339807 0.16326872 0.15917851 0.07259848 -0.09667223 0.005135091 0.03871525
0.14087021 -0.20133401 0.22049482 0.017060235 -0.008381866 -0.027832393 -0.014091811 0.02264657
-0.11990445 -0.17925024 0.19926201 0.26579076 0.48282593 0.12687561 -0.00011693764 -0.045540337
0.4324508 -0.24884297 0.35124362 -0.030034466 0.022067208 0.3771907 0.07174735 0.22428374
0.015625777 -0.091148056 -0.0765681 0.013785331 -0.11682467 -0.37068895 -0.010910977 -0.25504547
0.017229041 -0.02902371 0.14336453 0.035078138 -0.06886654 0.0020437976 -0.39225906 -0.08265403
0.2194035 -0.077813156 -0.12662031 0.17807211 0.44068372 0.71109205 -0.047304977 -0.10013812
-0.013731713 0.075359434 -0.25512007 -0.076091655 0.18364039 -0.2930239 -0.028388627 0.0736761
0.11405486 -0.059954513 0.05984233 -0.17157389 0.11738451 -0.20145668 0.21064353 -0.18418361
-0.013561449 -0.14062387 -0.1507475 0.25022024 0.15346462 -0.17276414 -0.0902876 -0.12715396
0.31354123 0.4335308 -0.069277704 0.022839757 -0.20241903 0.038665034 -0.09683242 0.42539322
-0.128125 0.060807474 0.34398288 -0.13274902 -0.0047963825 0.05782567 0.17693663 -0.067429185
-0.23726533 0.002364355 0.028196864 0.51521903 0.041630495 -0.3550417 -0.29628882 0.0022857285
0.39045528 -0.17806597 -0.14388587 -0.07360348 0.56207275 0.07621585 0.23487619 -0.18438478
-0.004134572 -0.4167691 -0.02111153 -0.0416853 -0.045215737 0.50445384 0.11870752 0.061844368
0.18003856 -0.075698495 -0.44102493 -0.13246238 -0.2191035 0.13963519 0.45953485 0.16218007
0.043869365 0.22211248 -0.031261675 -0.009524638 0.013629095 -0.39162746 -0.030430855 -0.09255553
0.13732043 0.23101415 -0.16488859 -0.008584985 0.045490116 0.32659128 0.052276295 0.09413326
0.007438843 -0.08635221 0.26438713 -0.06735281 0.062075157 -0.01070364 -0.2673471 1.5174208
-0.121492475 -0.1648711 0.1570487 -0.029764326 0.021630595 -0.23466836 -0.2585223 0.03802247
0.34660476 -0.049672276 0.5922573 -0.19653264 0.06953523 0.20824392 -0.038436364 0.08630364
-0.31017694 0.070710264 0.5475375 0.011679736 0.06018674 -0.28644028 -0.05143073 0.1754285
0.81370187 0.3047832 -0.034809135 0.08104942 0.47953606 -0.23526192 0.15822403 -0.10432423
0.65619665 0.12534365 -0.08094533 0.08055313 -0.24418166 0.26937264 0.020230033 0.18536983
00000000: 1e6a 46ba cb05 803b 47bf 32be ecd7 c33e
00000010: eda0 183e 8e11 08be fa38 2bbd ba4d 1e3e
00000020: 27af 653d 9d63 543c 806f 4ebd 0baa c93d
00000030: 4958 5d3d 1f83 e9bd 56e6 133f b298 b2bd
00000040: 38d9 863d f31f 5ebe 84e5 863c 0000 dbbd
00000050: 4675 a1be f1ad 2cbe 8bcb e73b be7b ddbe
00000060: 3904 353d ffd3 94be 43d5 e4bd 6f11 99bd
00000070: fdb0 0f3e 77cb bf3e e8ab 743d 5b96 62bd
00000080: 787e aa3d 3613 ca3d 80e8 2bbe f85f 133e
00000090: ae28 34bd 9d0b 07bc 332c c3ba e6df cd3e
000000a0: fbd9 9bbd 9996 333e b21c 11be b64a 8c3e
000000b0: a57c f63c aa39 bcbd e008 6b3e 4eae 8e3e
000000c0: 748e 2f3d c781 2abe f6ba 123e 0ddd 3cbd
000000d0: c90d 82bd 91ce 693e 3085 56be 94c0 8abe
000000e0: 6d73 383e 8f81 0d3e 030c b5be 99bc 8ebe
000000f0: 6b18 8f3e 188c b23c a03f 25be bd08 fd3b
00000100: 1b0b 49bd 358f 5a3c ea2f 273e b1ff 223e
00000110: 83ae 943d 17fc c5bd 4444 a83b e293 1e3d
00000120: 4840 103e 812a 4ebe 65c9 613e e8c1 8b3c
00000130: 1854 09bc c200 e4bc 57e1 66bc 4d85 b93c
00000140: 7790 f5bd 608d 37be 570b 4c3e ba15 883e
00000150: f634 f73e aeeb 013e 6b3c f5b8 8188 3abd
00000160: 316a dd3e b1d0 7ebe 34d6 b33e d70a f6bc
00000170: 4ac6 b43c 241f c13e 46f0 923d a3aa 653e
00000180: a101 803c d5ab babd bccf 9cbd dedb 613c
00000190: c641 efbd f1ca bdbe f4c3 32bc 5295 82be
000001a0: eb23 8d3c 22c3 edbc 27ce 123e 18ae 0f3d
000001b0: e709 8dbd 3cf1 053b 2ed6 c8be 8446 a9bd
000001c0: 50ab 603e 815c 9fbd c1a8 01be 8958 363e
000001d0: 4ca1 e13e 210a 363f ddc2 41bd 3715 cdbd
000001e0: fbfa 60bc 0c56 9a3d 199f 82be f1d5 9bbd
000001f0: 3a0c 3c3e 3b07 96be 448f e8bc 7fe3 963d
00000200: 9895 e93d dd92 75bd 3b1d 753d 11b1 2fbe
00000210: 4a67 f03d a94a 4ebe f0b2 573e a19a 3cbe
00000220: d730 5ebc b4ff 0fbe 8d5d 1abe de1c 803e
00000230: d425 1d3e 15e9 30be b5e8 b8bd a634 02be
00000240: 7a88 a03e c0f7 dd3e 78e1 8dbd 711a bb3c
00000250: ef46 4fbe 3a5f 1e3d 1350 c6bd 24cd d93e
00000260: 3333 03be 4211 793d 861e b03e 5cef 07be
00000270: f92a 9dbb 9cda 6c3d e02e 353e 5018 8abd
00000280: aff5 72be 4bf3 1a3b 1cfd e63c 65e5 033f
00000290: bd84 2a3d 07c8 b5be 2bb3 97be 29cc 153b
000002a0: c1e9 c73e ed56 36be d156 13be 6cbd 96bd
000002b0: 00e4 0f3f 0e17 9c3d 6283 703e 5dcf 3cbe
000002c0: 4e7b 87bb c262 d5be 16f2 acbc 35be 2abd
000002d0: 2334 39bd e323 013f ee1c f33d 8550 7d3d
000002e0: 075c 383e d007 9bbd 05ce e1be 38a4 07be
000002f0: ab5c 60be 87fc 0e3e 2748 eb3e 8812 263e
00000300: 5db0 333d 7471 633e 3e0c 00bd 3a0d 1cbc
00000310: 914c 5f3c 6583 c8be 214a f9bc c18d bdbd
00000320: ba9d 0c3e f98e 6c3e 8ed8 28be 09a8 0cbc
00000330: d853 3a3d f936 a73e ab1f 563d f0c8 c03d
00000340: 8ac1 f33b 6dd9 b0bd c05d 873e 45f0 89bd
00000350: 8542 7e3d 525e 2fbc b8e1 88be d83a c23f
00000360: 0cd1 f8bd f8d3 28be 60d1 203e 51d4 f3bc
00000370: a532 b13c e74c 70be 095d 84be 73bd 1b3d
00000380: 2e76 b13e 2875 4bbd 2d9e 173f da3f 49be
00000390: 7d68 8e3d e53d 553e 736f 1dbd f6bf b03d
000003a0: 83cf 9ebe 8bd0 903d 6b2b 0c3f 5d5c 3f3c
000003b0: 5f86 763d 4da8 92be 07a9 52bd 87a3 333e
000003c0: c44e 503f 8b0c 9c3e 0694 0ebd 3dfd a53d
000003d0: c085 f53e 80e8 70be 7b05 223e f1a7 d5bd
000003e0: 81fc 273f 165a 003e aac6 a5bd 0af9 a43d
000003f0: c20a 7abe 36eb 893e 74b9 a53c 97d1 3d3e

advantage_stream.0.bias f4 [64]
-0.07631146 0.04469117 0.04471841 -0.07913208 0.06328531 0.026623832 -0.08324587 -0.12760307
0.03821008 -0.04556419 0.03855225 0.02766587 -0.10922786 0.055480704 -0.0045868787 0.029358393
0.03209364 -0.12033258 0.015766202 -0.0058561647 -0.03178365 -0.071750626 0.024635898 0.067062415
-0.07613637 0.06126366 0.05394814 -0.093430914 -0.09009048 -0.042837597 -0.05107239 -0.031375956
0.0038604916 -0.019284641 0.031979837 0.10782372 0.020869581 0.077220336 -0.03616398 0.08297882
0.05998035 0.0631829 -0.039145775 -0.0045095035 0.038607225 0.0038199574 0.07965928 0.046084665
-0.0022208574 0.044713233 0.02812569 -0.034943387 0.064803846 0.007470338 0.0012544879 0.042599984
-0.030207368 0.04518579 0.028860252 0.041347027 -0.0048120823 0.002656384 -0.06937494 0.102393724
00000000: 2f49 9cbd 170e 373d a72a 373d 0010 a2bd
00000010: bb9b 813d 391a da3c d07c aabd 61aa 02be
00000020: 2c82 1c3d 84a1 3abd f7e8 1d3d 89a3 e23c
00000030: dbb2 dfbd bc3f 633d 874d 96bb 0381 f03c
00000040: 9f74 033d ed70 f6bd 1f28 813c 12e5 bfbb
00000050: 932f 02bd fef1 92bd 39d1 c93c 0558 893d
00000060: 63ed 9bbd 9bef 7a3d baf8 5c3d b558 bfbd
00000070: 5c81 b8bd 7a76 2fbd 4831 51bd 1384 00bd
00000080: 4d00 7d3b d3fa 9dbc 4afd 023d afd2 dc3d
00000090: aff6 aa3c b225 9e3d ae20 14bd cdf0 a93d
000000a0: f5ad 753d 0966 813d 5257 20bd 75c4 93bb
000000b0: 9c22 1e3d 4058 7a3b 6824 a33d 46c3 3c3d
000000c0: ce8b 11bb 3925 373d d967 e63c cc20 0fbd
000000d0: e1b7 843d bdc9 f43b a16d a43a 527d 2e3d
000000e0: 7175 f7bc bc14 393d 566c ec3c 805b 293d
000000f0: acae 9dbb ba16 2e3b 7314 8ebd cdb3 d13d

advantage_stream.2.weight f4 [4, 64]
0.4925671 -0.1946696 0.14274898 -0.04932639 0.16113326 0.051045146 -0.4208473 -0.05027754
-0.22970499 0.23116347 -0.54485875 -0.51374316 0.31669423 -0.91395545 0.13246982 -0.027291508
-0.039740708 0.30098695 0.08667721 0.3396277 0.16628432 0.074867 0.34278005 0.3359315
0.3255758 -0.41794938 -0.60870117 0.15248477 0.36070013 0.5609548 -0.030624278 0.2587008
-0.28794947 -0.21936566 0.30252197 -0.35747907 0.4061702 0.15340269 0.3268378 0.37823746
0.5750586 0.0905035 -0.07163001 0.04933407 -0.58763313 0.20023857 -0.39706716 0.27119362
-0.5275401 -0.5925783 -0.06297395 0.21735704 0.07731168 -0.005438594 0.17023471 0.50654215
0.0902077 -0.2931789 -0.026561856 0.054320253 -0.1789097 0.7466949 0.025016956 -0.61026573
0.19544752 -1.2140785 0.42273164 -0.1487886 -0.2357522 0.05693981 0.5814633 0.25946233
0.22013494 0.29633602 0.28960967 0.28248245 -0.028713502 0.020317512 0.10355743 0.08855862
-0.12785162 0.22107501 -0.595671 -1.2355206 -0.07876586 0.1453232 0.625843 0.36479077
0.43292314 0.3721397 0.28878474 -0.2505968 -0.15669426 0.36943644 0.18648021 -0.84818304
0.31615612 -0.19344436 0.2979556 -0.6064966 0.29553005 0.55197144 -1.3288848 0.41918418
0.38719296 0.21842992 0.12192136 0.2562203 0.02627254 -0.17908627 -0.10317686 0.4224441
0.5166792 0.19490431 0.24665488 0.26701257 -0.123945944 0.06591451 0.104581155 0.3463927
0.1051359 0.49795684 0.10860924 -0.2256189 0.21641415 0.50614095 0.118995145 -0.64282554
-0.2758909 0.0075270156 -0.09674965 -0.033342753 0.30733663 -0.31945774 0.12470636 -0.4115372
0.71026736 0.30515045 -0.08131551 0.4678285 0.09900192 0.20609508 -0.0064101126 -0.59881765
0.22674575 0.22450313 -0.37227306 0.2930854 -0.064247996 -0.879903 -0.1685763 -0.26560307
0.32321268 0.2920522 0.153201 0.04302132 -0.19178095 -0.35296845 0.34125596 0.26519975
-0.1321633 -0.062417697 -0.4840146 0.50918955 -0.15819824 -0.4295067 0.34184736 -0.58896446
0.45842212 -0.6063726 0.027400317 0.03757333 0.41510293 -0.114634216 0.6433476 -0.43729472
0.20718527 0.15105346 -0.19082066 -0.7847956 0.10813756 -0.1427377 -0.28681242 -1.8209989
0.13550699 0.45799214 -0.00426949 0.15119742 0.008688948 0.5337568 -0.1127878 0.6880321
-0.112479866 -0.006960857 0.23083977 -0.19920433 0.18736853 0.013184423 -0.01695071 -0.14123978
0.14558828 -1.1958497 0.16935888 0.4923984 0.2238865 0.45638943 -0.41706654 0.19041255
-0.3081095 -0.051691543 0.009968648 0.26516554 0.13345721 0.18494336 -0.49808434 -0.08550346
-0.89580435 0.43925026 0.23554042 -0.12688512 0.19389781 -0.1508218 -0.53085905 -0.066912346
0.2678157 0.087393366 -0.41250047 0.68866396 -0.19319008 -0.26680472 0.3596494 -0.051548652
-1.024491 0.13345286 0.0483494 0.032263026 0.4403167 0.47562674 0.41224423 -0.24130999
0.42343065 0.05004807 -0.039236836 0.10626567 -0.27408493 0.100281976 0.07467953 0.52028
0.09451164 0.029692613 0.2576968 0.14858176 -0.19950089 -0.9166452 -0.0460829 0.6399092
00000000: c131 fc3e 7857 47be ca2c 123e 780a 4abd
00000010: 1e00 253e b714 513d 4c79 d7be d2ef 4dbd
00000020: c937 6bbe 1eb6 6c3e dd7b 0bbf ac84 03bf
00000030: bf25 a23e fcf8 69bf 2ba6 073e 7192 dfbc
00000040: 27c7 22bd f61a 9a3e d283 b13d afe3 ad3e
00000050: 7046 2a3e df53 993d de80 af3e 37ff ab3e
00000060: dfb1 a63e 76fd d5be d7d3 1bbf f824 1c3e
00000070: b0ad b83e bc9a 0f3f c4df fabc 6e74 843e
00000080: 1d6e 93be 64a1 60be 29e4 9a3e 7f07 b7be
00000090: 8af5 cf3e 9815 1d3e 4957 a73e 57a8 c13e
000000a0: 0a37 133f e659 b93d c1b2 92bd 8612 4a3d
000000b0: 206f 16bf 570b 4d3e 634c cbbe e4d9 8a3e
000000c0: de0c 07bf 36b3 17bf 7cf8 80bd d892 5e3e
000000d0: 9655 9e3d 3c36 b2bb 0252 2e3e bfac 013f
000000e0: d1be b83d 8b1b 96be 4098 d9bc ea7e 5e3d
000000f0: 1b34 37be 6627 3f3f 5cf0 cc3c 603a 1cbf
00000100: 6523 483e ed66 9bbf 4870 d83e 0a5c 18be
00000110: 0669 71be b839 693d c7da 143f 3fd8 843e
00000120: 0e6b 613e 5bb9 973e b847 943e 8aa1 903e
00000130: 9438 ebbc e970 a63c eb15 d43d 395e b53d
00000140: 89eb 02be 7d61 623e e57d 18bf 8a25 9ebf
00000150: ff4f a1bd 9bcf 143e 3f37 203f dbc5 ba3e
00000160: 1aa8 dd3e 1889 be3e 98db 933e 394e 80be
00000170: 7674 20be c626 bd3e abf4 3e3e 8622 59bf
00000180: 37df a13e 4716 46be a38d 983e 5c43 1bbf
00000190: b74f 973e 004e 0d3f e618 aabf 4f9f d63e
000001a0: 283e c63e 18ac 5f3e e8b1 f93d 4f2f 833e
000001b0: 8339 d73c 6462 37be 644e d3bd 984a d83e
000001c0: 1745 043f ff94 473e 1993 7c3e dfb5 883e
000001d0: 5fd7 fdbd 30fe 863d a52e d63d 625a b13e
000001e0: 7e51 d73d 33f4 fe3e 856e de3d a408 67be
000001f0: ac9b 5d3e 7492 013f bab3 f33d 3790 24bf
00000200: 9241 8dbe 2fa5 f63b ae24 c6bd 6992 08bd
00000210: 3a5b 9d3e f78f a3be 0c66 ff3d 01b5 d2be
00000220: 15d4 353f ae3c 9c3e bf88 a6bd 3887 ef3e
00000230: 85c1 ca3d 970a 533e ec0b d2bb 1d4c 19bf
00000240: 0a30 683e 26e4 653e 939a bebe 4a0f 963e
00000250: 7494 83bd 5341 61bf 449f 2cbe 20fd 87be
00000260: 227c a53e de87 953e b9e0 1c3e 2037 303d
00000270: 3a62 44be 48b8 b4be 1ab9 ae3e 43c8 873e
00000280: d155 07be b3a9 7fbd c3d0 f7be 3f5a 023f
00000290: b8fe 21be 4de8 dbbe 9e06 af3e 60c6 16bf
000002a0: 4eb6 ea3e 3c3b 1bbf a176 e03c 7ee6 193d
000002b0: 5f88 d43e 58c5 eabd 6eb2 243f 18e5 dfbe
000002c0: 6028 543e c2ad 1a3e 7e66 43be 5de8 48bf
000002d0: 3a77 dd3d d529 12be 14d9 92be 7e16 e9bf
000002e0: 58c2 0a3e f27d ea3e 14e7 8bbb 7fd3 1a3e
000002f0: 175c 0e3c 49a4 083f 4afd e6bd df22 303f
00000300: d85b e6bd e717 e4bb 4361 6c3e 38fc 4bbe
00000310: 89dd 3f3e 7a03 583c 37dc 8abc 29a1 10be
00000320: 1815 153e 9a11 99bf 6a6c 2d3e a51b fc3e
00000330: 8142 653e e0ab e93e bf89 d5be 82fb 423e
00000340: 87c0 9dbe 83ba 53bd 8a53 233c c7c3 873e
00000350: 02a9 083e cb61 3d3e e904 ffbe 701c afbd
00000360: 6f53 65bf 69e5 e03e 8231 713e 2cee 01be
00000370: 268d 463e 0871 1abe 61e6 07bf 5709 89bd
00000380: 241f 893e 4bfb b23d 4333 d3be 484c 303f
00000390: 9fd3 45be a19a 88be f723 b83e ae24 53bd
000003a0: 8522 83bf dea7 083e 050a 463d 3c26 043d
000003b0: 3171 e13e 5985 f33e ad11 d33e f719 77be
000003c0: e7cb d83e 34ff 4c3d ceb6 20bd d1a1 d93d
000003d0: dc54 8cbe a360 cd3d 95f1 983d 1231 053f
000003e0: 528f c13d ec3d f33c d6f0 833e d125 183e
000003f0: f649 4cbe 43a9 6abf 6cc1 3cbd 17d1 233f

advantage_stream.2.bias f4 [4]
0.13681586 0.06515819 0.09777731 -0.1495237
00000000: 7519 0c3e a871 853d 783f c83d be1c 19be

feature_layers.0.weight f4 [128, 24]
-0.038413167 -0.55558336 -0.07001021 -0.008748407 0.018676342 0.39419904 -0.27642575 0.11548252
-0.19302651 0.029766016 -0.3067499 0.22454153 0.03280724 0.51067185 0.10661135 0.1811703
-0.23726435 -0.25359002 -0.8257966 0.24218468 0.39278686 -0.31317368 -0.48910546 -0.18575981
-0.2561976 -0.52156717 0.014856555 -0.45059538 -0.5305348 0.6238648 -0.27749476 -0.14529076
0.106105335 -0.37966898 0.36233014 0.3064401 0.19103605 -0.8799399 0.47674534 -0.32444277
0.03137006 -0.5569675 -0.32084024 -0.04072072 0.18050869 0.15922354 0.378564 0.4197262
-0.6484015 0.75158703 -1.0363423 0.021152727 -0.03302248 0.07294628 -0.11731234 0.045669936
-0.45998403 -0.25527743 0.36281115 0.033977497 -0.12857649 -0.04248001 -0.24736713 0.7662883
-0.65398026 0.8158968 0.19509347 -0.34078127 0.41573644 0.5502146 -0.2754872 -0.12939855
-0.15551747 -0.027889859 0.08161338 0.093573384 -0.46408015 -0.23944074 -0.018835085 -0.30906844
-0.25673842 0.10182731 0.09566523 -0.34022945 -0.4286631 0.31141448 -0.008471961 -0.09420305
-0.15021515 -0.89221835 0.24632156 -0.11435125 0.07701214 0.38682908 -0.030542113 0.1973836
0.22340691 -0.07443848 -0.038673002 -0.0065011773 0.16187266 0.13347384 -0.18549031 0.29629368
-0.15053698 0.44988126 -0.29061836 0.06602484 0.6012352 -0.33818203 0.2105876 0.08107531
-1.0212653 -0.36595052 -0.050690584 0.4048024 0.29129496 -0.106084175 0.72030765 -0.16148964
0.01165354 -0.09298531 -0.36145017 0.030045617 0.09788048 -0.0392521 -0.2600675 0.13230093
-0.55650187 -0.38628387 -0.19862533 -0.11277965 0.09188187 -0.035315525 0.15662323 0.79316413
-0.019550595 0.32020015 0.6771966 0.122724995 0.14804466 0.5023059 0.049663864 0.24033163
0.30681527 -0.016460242 0.25750622 -0.67767537 -0.124552704 -0.17582835 0.22983317 -0.22485098
0.031929784 -0.07063154 -0.10258494 0.31542453 -0.3232137 -0.18192445 0.40224737 0.5425692
0.3113102 -0.080561414 -0.18906401 0.19465327 -0.68710995 0.35337278 0.6664716 -0.08567959
-0.4692259 0.54084 -0.40908146 -0.100085676 -0.0746405 -0.16564265 0.08710674 0.09341591
-0.0387458 0.48138765 0.3685257 0.6489951 -0.19528471 -0.5143974 0.058147326 -0.26838517
-0.6756004 0.08690595 -0.062490653 0.12684955 -0.11529366 -0.2856099 0.25017196 -0.011674385
0.24604705 -0.3330889 0.34986058 0.20778966 -0.08712625 0.12085082 0.112988934 -0.5867871
-0.17927288 -0.057990994 0.2732795 0.08006138 0.06286195 -0.06084992 0.29057825 0.23039727
-0.31794477 -0.21597186 0.43423292 0.3971929 -0.2068916 -0.0668061 0.43223476 0.1501769
-0.08516641 -0.43074468 0.34834096 -0.84690744 -0.25985447 -0.49974194 0.37573466 -0.1748112
0.097104326 -0.12375241 0.051994268 -0.061105553 -0.895041 0.5887474 -0.38222933 0.39110905
-0.30675176 0.7233743 -0.3789875 -0.61602616 -0.117798686 -0.17335184 -0.038867787 0.42153066
0.42398635 -0.843021 0.4669373 -0.8848979 0.08978941 -0.022170594 -0.15103649 -0.11593428
-0.0756365 0.1307483 0.03783834 -0.010629495 -0.52551943 0.39296493 -0.053891126 0.6283888
00000000: 2057 1dbd b63a 0ebf 8361 8fbd 7a55 0fbc
00000010: 21ff 983c 75d4 c93e ad87 8dbe 1982 ec3d
00000020: bea8 45be dcd7 f33c 530e 9dbe 37ee 653e
00000030: e260 063d 64bb 023f 0d57 da3d b584 393e
00000040: 6df5 72be 8dd6 81be 6867 53bf 43ff 773e
00000050: 5c1b c93e 4d58 a0be 086c fabe d237 3ebe
00000060: 552c 83be 6d85 05bf e868 733c 70b4 e6be
00000070: 21d1 07bf 9bb5 1f3f cb13 8ebe 1ac7 14be
00000080: c14d d93d f963 c2be 5683 b93e b7e5 9c3e
00000090: f49e 433e be43 61bf f717 f43e 5d1d a6be
000000a0: e47d 003d 6c95 0ebf 2c45 a4be c5ca 26bd
000000b0: 45d7 383e 7f0b 233e 24d3 c13e 5ae6 d63e
000000c0: a4fd 25bf 0268 403f dda6 84bf 7c48 ad3c
000000d0: 9442 07bd dc64 953d 7441 f0bd 6610 3b3d
000000e0: 0783 ebbe b9b3 82be 62c2 b93e fd2b 0b3d
000000f0: 8ea9 03be 85ff 2dbd cf4d 7dbe 782b 443f
00000100: 406b 27bf 9dde 503f 95c6 473e e27a aebe
00000110: 68db d43e ddda 0c3f a90c 8dbe 0e81 04be
00000120: f93f 1fbe 4679 e4bc ea24 a73d 67a3 bf3d
00000130: ea9b edbe f42f 75be 094c 9abc 383e 9ebe
00000140: 3873 83be d68a d03d 22ec c33d 8e32 aebe
00000150: bb79 dbbe b871 9f3e fbcd 0abc 87ed c0bd
00000160: 00d2 19be 6c68 64bf b83b 7c3e fd30 eabd
00000170: 8ab8 9d3d 760e c63e 7433 fabc ed1e 4a3e
00000180: c8c4 643e 3473 98bd 9567 1ebd d407 d5bb
00000190: f2c1 253e 5ead 083e 2cf1 3dbe ceb3 973e
000001a0: 5e26 1abe d656 e63e eecb 94be 0838 873d
000001b0: 8dea 193f 3226 adbe 47a4 573e d00a a63d
000001c0: d2b8 82bf de5d bbbe eea0 4fbd 4342 cf3e
000001d0: 9d24 953e a942 d9bd 1566 383f 8a5d 25be
000001e0: 7dee 3e3c 156f bebd ff0f b9be 3a22 f63c
000001f0: 9075 c83d cfc6 20bd 9127 85be e579 073e
00000200: e876 0ebf 00c7 c5be 7064 4bbe 04f9 e6bd
00000210: 902c bc3d 03a7 10bd d761 203e ce0c 4b3f
00000220: 9228 a0bc 46f1 a33e c25c 2d3f 3e57 fb3d
00000230: 0599 173e 1f97 003f 566c 4b3d 7f19 763e
00000240: e416 9d3e a1d7 86bc dbd7 833e 227c 2dbf
00000250: 7d15 ffbd 590c 34be 6359 6b3e 563f 66be
00000260: cec8 023d 45a7 90bd 0e18 d2bd 537f a13e
00000270: 447c a5be 674a 3abe 5ef3 cd3e d1e5 0a3f
00000280: 0d64 9f3e 62fd a4bd ff99 41be 3053 473e
00000290: 70e6 2fbf 47ed b43e e29d 2a3f c878 afbd
000002a0: 613e f0be 7e74 0a3f 2073 d1be b8f9 ccbd
000002b0: 1edd 98bd 3a9e 29be 0565 b23d d750 bf3d
000002c0: eab3 1ebd 7178 f63e 67af bc3e 8b24 263f
000002d0: b7f8 47be 8caf 03bf e42b 6e3d c869 89be
000002e0: 26f4 2cbf bffb b13d 33f6 7fbd d9e4 013e
000002f0: 151f ecbd 763b 92be 8a16 803e eb45 3fbc
00000300: c2f3 7b3e a18a aabe ed20 b33e d0c6 543e
00000310: 3f6f b2bd a280 f73d be66 e73d ae37 16bf
00000320: 4f93 37be f787 6dbd 4aeb 8b3e 39f7 a33d
00000330: c4bd 803d c43d 79bd acc6 943e 43ed 6b3e
00000340: a8c9 a2be ba27 5dbe c753 de3e de5c cb3e
00000350: 64db 53be a3d1 88bd e04d dd3e f9c7 193e
00000360: ba6b aebd 918a dcbe bf59 b23e edce 58bf
00000370: a50b 85be 2dde ffbe 4b60 c03e b501 33be
00000380: a2de c63d e771 fdbd f1f7 543d d149 7abd
00000390: 6821 65bf 26b8 163f 90b3 c3be 723f c83e
000003a0: 910e 9dbe 0f2f 393f a60a c2be e4b3 1dbf
000003b0: 7040 f1bd 2583 31be d433 1fbd ded2 d73e
000003c0: bd14 d93e 39d0 57bf 6812 ef3e ab88 62bf
000003d0: 83e3 b73d 1b9f b5bc 4fa9 1abe f46e edbd
000003e0: 4fe7 9abd e2e2 053e 60fc 1a3d 5527 2ebc
000003f0: 7188 06bf b332 c93e f1bc 5cbd 17de 203f
