models/snake_dqn_ep400_score19_20250303_093911.pt (torch, 828962 bytes, 44 tensors)

feature_layers.0.weight f4 [128, 24]
000000 13 b1 b3 be 3c 94 cf 3e b6 da df be 04 89 4e 3e
       -0.35096034 0.4054278 -0.4372155 0.20169455
000010 e0 9a f0 3e c4 a2 2a bf 67 ec b9 bd ed 67 cc be
       0.4699316 -0.6665461 -0.09078293 -0.3992304
000020 7c 6d 33 bd 91 23 06 be 40 c0 40 bd f7 7d 81 be
       -0.043805584 -0.13099505 -0.047058344 -0.25291416
000030 11 de 04 3e 3f e4 ba 3d 98 ae a6 be 5f bb 0e 3f
       0.12975337 0.09125566 -0.3255508 0.55754656
000040 b2 21 fc be 64 63 58 3f ea b9 ed 3e 6a 1d a7 be
       -0.49244457 0.8452666 0.46430904 -0.3263963
000050 74 b8 18 3f 3c 81 fe bd d1 46 b6 3e 2f e0 1a 3e
       0.59656453 -0.12426993 0.35600904 0.15124582
000060 29 ae 8f bc c3 fc 64 3d 70 98 ad bd f3 e7 aa be
       -0.0175391 0.055905115 -0.08476341 -0.33380088
000070 2d 6d 85 be 6f 5a e7 be 14 68 99 3e a8 57 b6 bd
       -0.26059857 -0.45186183 0.29962218 -0.08903438
000080 54 b5 56 be b7 06 7a 3d f1 0c 07 3d 54 25 20 3f
       -0.20967609 0.06104156 0.032971326 0.6255696
000090 83 1c 3a bd 26 0e 71 3e 62 f3 83 3c 4f 3f cc bc
       -0.045437347 0.23540553 0.016107265 -0.024932532
0000a0 05 b6 82 3e 51 22 4b 3f 9d 93 4f 3d 7e d5 97 bc
       0.25529495 0.7934924 0.050677884 -0.018534418
0000b0 c7 80 34 3d 4a 36 79 3c 09 9c ef 3e f0 cf 40 bd
       0.044068124 0.015210697 0.46798733 -0.047073305
0000c0 83 23 83 be b4 13 c3 be 2b 59 df 3d 24 28 3b be
       -0.2561303 -0.3810097 0.10905679 -0.18277031
0000d0 13 b9 d7 bd c8 c4 a4 be a3 45 56 3e 85 c7 92 3e
       -0.10533347 -0.32181382 0.20925002 0.28667846
0000e0 3d 1a 50 be fd 0f d8 be c2 92 2c be f6 83 06 bf
       -0.20322509 -0.42199698 -0.16852859 -0.52545106
0000f0 bf 2a 0e 3e fc 0b 49 be ca 5e bd 3e 8b b7 9f 3d
       0.13883494 -0.19633478 0.3698638 0.0779868
000100 8c aa ee be 37 87 b8 bd 2d 34 b6 be 6f 49 a2 be
       -0.46614492 -0.09010165 -0.35586682 -0.3169665
000110 de 70 eb bd e7 75 2e 3d 66 50 d4 3e 9f 1e 40 3d
       -0.11496137 0.04259291 0.4146759 0.046904203
000120 f5 59 08 3e 30 fd a3 3e c9 ea 5b 3f f9 b8 04 3f
       0.13315566 0.32029104 0.8590513 0.51844746
000130 66 07 12 3e dd 20 a4 3e 49 06 a6 3d 18 ca 83 3e
       0.14260635 0.32056323 0.081066675 0.25740123
000140 6f 23 9a 3e f4 95 91 3e 55 e6 30 3e c6 f3 55 3f
       0.3010516 0.28434718 0.17275365 0.83575094
000150 b1 5c 0a 3e 34 c9 0e bd ed ab 21 bf b7 98 a5 3e
       0.13511921 -0.03485985 -0.6315296 0.32343075
000160 5a b9 fd bb e8 dd b4 3d 81 b8 e1 3d 93 98 d8 be
       -0.007743043 0.08831388 0.110215195 -0.42303905
000170 e9 2d df 3e a3 07 37 be a4 1a 0e 3f fa 99 60 be
       0.43589714 -0.17874007 0.555094 -0.21933737
000180 b5 c5 41 3d 75 5d 5a 3f 1f 0d 38 be 62 ad 9a be
       0.04730769 0.85298854 -0.17973755 -0.30210406
000190 36 65 88 3e 74 e5 0a 3e ca 1f d3 be d3 cc 73 bd
       0.26639718 0.13564092 -0.4123519 -0.059521507
0001a0 04 0b e8 bd cf 17 e1 3e 05 52 a4 3e 2d fb 2e 3e
       -0.11330226 0.43963477 0.32093826 0.17088003
0001b0 c2 95 15 bf bd e0 08 bf 8a 8b a7 be c7 11 18 be
       -0.5843164 -0.53467923 -0.32723647 -0.14850532
0001c0 21 33 17 bf a6 e4 be 3e e4 ea 0e 3f 8d 79 98 3e
       -0.5906239 0.3728382 0.55827165 0.29780236
0001d0 26 11 da 3e e6 15 52 3e a5 6c 8c bd 59 eb f9 bd
       0.42591208 0.20516166 -0.0685666 -0.12203092
0001e0 41 5d d1 3d 2f 4e e5 3d cb e5 33 be de 8d 1c 3e
       0.10222865 0.11196553 -0.17568128 0.15288493
0001f0 95 ac 43 be 7e d2 a3 3e 99 f9 5c bd 78 0b 61 bd
       -0.19108804 0.3199653 -0.053948972 -0.054942578
000200 aa f0 b0 3e 70 30 00 3e b3 4a 22 be f0 87 7a bd
       0.34558612 0.12518477 -0.15848808 -0.061164796
000210 7b 77 1b bf 41 c0 12 bb ed 19 bf be af f0 47 3f
       -0.6072919 -0.0022392424 -0.37324467 0.7810163
000220 ed 5f 9e be c4 e7 8e 3e 0f 82 47 be e7 00 4c bd
       -0.3093256 0.27911198 -0.19483207 -0.049805548
000230 f7 5e f7 3e 7d 21 2b be d0 08 7c 3e 1a 5c 33 be
       0.4831464 -0.16711994 0.24612737 -0.17515603
000240 f2 78 4b be a0 e4 db 3d 3b df 98 be e1 a5 8f be
       -0.19870356 0.10736966 -0.2985781 -0.28056243
000250 2d 1d 35 3e 94 d7 db 3e 6d 77 eb be ba e3 0f 3d
       0.17686911 0.4293791 -0.45989552 0.035129286
000260 cc 7b aa 3e 39 b0 0e 3e 07 74 b9 3c 39 6e 5c 3d
       0.33297575 0.13934411 0.022638334 0.053816054
000270 72 0e 20 3e 30 7f de bd c9 c5 a3 be 4f 55 5e bd
       0.1563051 -0.10864103 -0.31986836 -0.054280575
000280 ef 3c 81 be 85 c7 26 be 0c 33 e2 be 03 e7 ad 3e
       -0.252418 -0.16287048 -0.4417957 0.3396531
000290 9d 38 a3 3d 4d a5 f6 3e d7 19 00 bf 19 e0 b3 3e
       0.079697825 0.4817299 -0.5003943 0.3513191
0002a0 0a 08 33 bc 22 d8 d9 ba 21 bf c5 bc e1 bb 77 bd
       -0.01092721 -0.0016620199 -0.024138989 -0.06048191
0002b0 f8 45 98 be ca 55 67 be 52 bd b0 3e ec 11 7b 3e
       -0.29740882 -0.2259132 0.3451944 0.24518555
0002c0 65 49 fc 3e 51 81 ab bd d6 6f 08 3d c0 d5 85 3e
       0.49274746 -0.083742745 0.03330978 0.2613964
0002d0 8e 25 91 be 57 5e c0 be 34 30 d5 be 72 b7 61 3e
       -0.28348964 -0.37571976 -0.4163834 0.22042635
0002e0 ec 6d d6 3e bd 67 7b 3e 74 c7 34 bc 74 65 c8 bd
       0.4188074 0.24551292 -0.011033881 -0.09784976
0002f0 8f a9 63 3e ec 94 64 bc c9 bc 98 3e fd e0 09 3f
       0.2223265 -0.013951521 0.29831532 0.5385893
000300 6f 37 ac bc f1 b5 19 be 46 c1 49 be 77 e0 a1 3e
       -0.021022527 -0.15010811 -0.19702634 0.31616566
000310 83 ee e1 bd 0c 56 64 3d 6a 67 14 be 8c 3b 15 bd
       -0.110318206 0.055746123 -0.14492574 -0.03643374
000320 b3 c1 06 be a2 7a 59 3e 35 82 56 3e f5 83 f6 3e
       -0.13159828 0.21238187 0.20948108 0.4814755
000330 9f 4d b4 be 64 49 9c 3d da d2 2c be ac 53 51 ba
       -0.3521547 0.07631186 -0.16877308 -0.00079851854
000340 36 e8 1d 3e 64 04 9a 3e b4 ca 24 be d2 28 bc be
       0.15420613 0.30081475 -0.1609295 -0.36749893
000350 2f 8d f8 be 3e 27 e9 3e 58 4d 1c be a8 9b 5b 3e
       -0.48545215 0.45537752 -0.1526388 0.21446097
000360 96 21 bf 3e a9 cc 9b be b0 43 aa bd 9b f1 9c 3e
       0.37330312 -0.3042958 -0.083136916 0.3065308
000370 d6 01 36 3e d2 ac 88 be a9 03 52 3e 03 e6 34 be
       0.17774138 -0.2669435 0.20509209 -0.17665868
000380 dd f2 d2 be fd 0c 99 be a2 83 e5 3e 42 39 4e be
       -0.41200915 -0.29892722 0.4482699 -0.2013903
000390 ab 08 cf bc b4 a7 0e bc 28 5c 80 be 48 32 9d be
       -0.025272688 -0.008706976 -0.2507031 -0.30702424
0003a0 ad e9 92 bc 2d 1f f9 be 37 f5 63 3d 62 33 ec b9
       -0.01793369 -0.48656598 0.055653777 -0.0004505171
0003b0 15 0c 47 be d1 ba ea 3e 09 a5 bf be bd 06 5b 3d
       -0.19438203 0.45845655 -0.374306 0.053473223
0003c0 50 0e 74 3e 7b fd 46 3e 7c b2 5d 3e a3 7b 7f be
       0.23833585 0.19432633 0.21650118 -0.24949507
0003d0 f5 26 3a be cf b1 03 3d bf 66 c5 bd c2 99 62 be
       -0.18178923 0.032151993 -0.09638738 -0.22128966
0003e0 58 46 0d 3e 10 42 a1 3e 26 0c f5 bd 5e 3a 02 3f
       0.13796365 0.31495714 -0.11965208 0.5087031
0003f0 d9 42 36 bf 82 04 50 be 37 3d 93 be 09 cf a4 be
       -0.7119575 -0.2031422 -0.2875764 -0.32189205

feature_layers.0.bias f4 [128]
000000 c1 85 39 be d2 10 1e be 70 3d 8e bc dd 4a 6c 3e
       -0.1811743 -0.15436104 -0.01736328 0.23075433
000010 1b 34 47 3e 8a 1e 99 bc e6 14 5a 3e 78 e7 81 3e
       0.1945347 -0.01869132 0.21297035 0.2537191
000020 86 09 9a 3e 01 7c 74 3e 11 81 48 3e bb 29 38 bd
       0.3008539 0.23875429 0.19580485 -0.044961672
000030 3e a4 a2 3e 7f bb 70 bc b2 d7 a9 bc 5f 93 bf 3d
       0.31765932 -0.01469314 -0.020732734 0.09354281
000040 6d e7 17 3d f5 44 cc 3d a2 16 93 bd 29 0b 25 be
       0.03708594 0.0997409 -0.07182051 -0.16117539
000050 57 c3 d1 3d 94 3d 78 bd 3b d5 86 3e 47 7e 35 be
       0.10242336 -0.0606056 0.26334557 -0.17723952
000060 d4 04 2e be 26 17 1d 3d 47 68 04 be fa 15 ed 3d
       -0.1699403 0.038352154 -0.12930404 0.11576457
000070 a7 38 1b 3e 58 a2 b9 3e 0b e2 ab bd f5 32 85 be
       0.1515833 0.3625667 -0.08392724 -0.2601544
000080 76 d8 4a bd 5d 29 6b bd 2b c6 1f bc 65 2f 51 3e
       -0.04952284 -0.057412494 -0.009751837 0.20428236
000090 26 41 ae bc b7 3f ef bd 1b 61 52 be 9f 96 8c 3e
       -0.0212713 -0.116820745 -0.20544855 0.27458665
0000a0 e1 6f 02 3d b2 e6 d4 bd ce c4 86 be 90 bf b6 3e
       0.031844977 -0.10395564 -0.26322025 0.35693026
0000b0 09 0c 76 be a0 08 81 bc 74 be 63 be b8 cf 0c bd
       -0.24028029 -0.015751183 -0.22240621 -0.034377784
0000c0 a2 2f 34 be ba 81 2a be 5b 38 c8 3d b6 5e e1 bd
       -0.17596295 -0.1665105 0.09776374 -0.11004393
0000d0 ae ba 98 bb b5 4a e8 3c 1b d7 75 3c 05 bb 5a bd
       -0.004660926 0.028355936 0.015004898 -0.053401012
0000e0 f7 ea 54 be 43 46 21 be 72 b0 a2 bd 93 ec 90 3e
       -0.20792757 -0.15749459 -0.079438105 0.28305492
0000f0 0c ef 92 bd 1b 50 8f bc 89 c9 27 be 31 c7 58 3e
       -0.07174501 -0.017494252 -0.16385473 0.21169735
000100 22 95 8e bd 26 96 22 bd 52 c8 2e bd 78 e6 84 3e
       -0.069620386 -0.039693974 -0.04267151 0.25957084
000110 d7 4e e0 3d 4b 6c 69 3e e1 b9 ea bc 45 33 cd 3d
       0.109525375 0.22795217 -0.028653087 0.100195445
000120 56 0c 97 3e 55 6c 85 3e f7 5f 32 3e 21 48 74 3e
       0.295016 0.26059213 0.1741942 0.2385564
000130 c3 71 04 be 3f 1d 6a 3e a8 4e 92 be 0e c2 5b be
       -0.12934022 0.22862719 -0.28575635 -0.21460745
000140 fc 9e 62 be 47 b3 b2 3c 73 98 68 3c a2 a1 45 be
       -0.2213096 0.021814002 0.014196503 -0.1929994
000150 e7 22 36 3c 13 67 8b 3e da f7 d1 bb fc 21 17 3e
       0.01111672 0.27227077 -0.00640772 0.14759058
000160 d8 5d e5 3c 4d ca 97 be d0 c8 ba bd f3 c3 85 3e
       0.02799885 -0.2964653 -0.09120333 0.2612606
000170 96 db 6e 3d e7 56 a0 3d fc be c8 3d 89 c4 58 3d
       0.058314882 0.07829075 0.098020524 0.052921806
000180 da c3 11 3e d3 e8 30 be 46 95 8f 3c 17 e2 5f bc
       0.14234868 -0.17276315 0.017527234 -0.013664744
000190 d7 56 d4 bd 80 71 90 3e 3c 47 fa 3d 7b a7 28 bc
       -0.10368126 0.28211594 0.12220618 -0.010293837
0001a0 35 10 51 bd b5 83 55 be 22 01 95 3e 28 26 25 3d
       -0.051040847 -0.20851023 0.29102427 0.04031959
0001b0 a8 19 be bc fb 50 a3 be f9 1a c0 bd 96 99 19 be
       -0.023205593 -0.3189772 -0.093801446 -0.14999995
0001c0 d0 be ba bd 16 a5 21 3c d9 70 98 3d 4a c4 41 3e
       -0.09118426 0.00986602 0.07443399 0.18922535
0001d0 2a c4 9b be 60 82 82 be 51 3e 91 3e a9 41 0d 3e
       -0.304231 -0.25490093 0.28367856 0.13794579
0001e0 eb 67 75 be 20 20 b8 3d 0c da 4a be 7f 00 08 3e
       -0.23965423 0.08990502 -0.19809741 0.13281439
0001f0 42 70 4d 3d f6 8e 21 be 97 4c 4a 3b fa 78 bc bd
       0.050155886 -0.15777192 0.0030868405 -0.09202762

feature_layers.1.weight f4 [128, 128]
000000 20 ca 31 bd dc 64 c1 3d 8f 7c b2 3d d7 ac 0f be
       -0.043405652 0.094430655 0.08715164 -0.14030777
000010 9b f3 47 3d 3e bf 4c be d7 6f 1c 3e 4f 61 00 3e
       0.048816305 -0.19994828 0.15277039 0.1253712
000020 8c 4d b1 3c ac 01 c8 3d 75 d9 67 3e 8c a0 aa 3e
       0.021643423 0.09765944 0.22641547 0.33325613
000030 89 93 4a 3e 11 04 e3 3c a4 0f 3e 3d dc 1a 4a be
       0.19782843 0.0277119 0.046401635 -0.19736809
000040 b1 04 9c 3e 71 9b ef 3d 2d ee d8 3d f9 2f 62 bd
       0.3047233 0.1169957 0.105923034 -0.05522153
000050 59 36 1d 3d dd 59 c1 be 44 48 b5 3d 34 9c b0 be
       0.038381908 -0.37763873 0.08851674 -0.34494174
000060 0f c8 84 bb 9a 97 ff bd c4 db 91 bd 93 a9 30 3e
       -0.004052169 -0.124800876 -0.07121995 0.17252187
000070 77 93 0b 3e 12 5d d9 3a c5 eb 19 bd d4 10 3f be
       0.13630472 0.0016583523 -0.037578363 -0.18658763
000080 b8 33 bd 3d 35 ff 15 bd 30 49 e5 bd ff 33 2f 3e
       0.0923838 -0.036620338 -0.111956 0.17109679
000090 1e 6d 0e be fe a9 bb bd 9a 8a c9 bd 4b b8 49 3e
       -0.13908812 -0.09163283 -0.09840889 0.19699208
0000a0 43 e2 54 be 83 b0 a9 3d a4 8c 82 be 5c ee 26 3d
       -0.20789437 0.0828562 -0.25497925 0.04075466
0000b0 3e 96 9a bd 70 28 17 be b7 d4 1b 3e 45 35 5b 3e
       -0.07548188 -0.1476152 0.15217863 0.2140704
0000c0 0b 1e e8 3a 34 ff c0 be 8c 97 54 be 33 54 c4 3c
       0.0017709149 -0.37694705 -0.20760936 0.02396593
0000d0 b0 32 bd 3c 39 e2 26 bd 2a 8b 42 3e 4d 28 ad bc
       0.023095459 -0.040743086 0.189984 -0.021137381
0000e0 58 36 15 3d f9 86 e4 bd 23 df a3 be 7d bd 24 3e
       0.03642878 -0.111585565 -0.32006177 0.16087909
0000f0 a3 cc 6e bd 08 df 9e 3d 4e 24 e1 bc c8 bd 21 3d
       -0.058300626 0.077573836 -0.027483132 0.03948763
000100 5a 04 16 be eb 49 c5 bc d6 32 a2 bc 82 28 f5 3d
       -0.14650097 -0.024083098 -0.019799631 0.11970617
000110 17 38 00 3e ca 78 4a 3d 5e 76 3d bb e3 86 c5 3d
       0.12521397 0.0494316 -0.0028909664 0.09644868
000120 e9 39 49 3e fe 79 00 3d dc e3 9a bc 6b a6 93 3e
       0.19650997 0.03136634 -0.01890748 0.28837904
000130 d6 46 d3 bc 05 e8 1d 3e 39 72 b0 3e 2d 19 b2 3d
       -0.025790613 0.1542054 0.34462145 0.08696208
000140 15 e6 4e be 6b b5 bd bc 2c 01 2a bd fd 49 52 3d
       -0.20204957 -0.023157796 -0.041505024 0.051340092
000150 15 5d 38 be 6b f0 54 bd 22 c8 52 3d 76 f7 2d be
       -0.18004258 -0.051987093 0.051460393 -0.1698893
000160 71 33 48 3d f2 74 b0 be 49 dc 56 3e 13 0b 90 3d
       0.048877183 -0.34464222 0.2098247 0.07033362
000170 fe f0 fe bd 20 d9 49 bd 2c 67 07 3d 99 b0 d7 3b
       -0.12448309 -0.049279332 0.033057377 0.0065823314
000180 ee 57 48 bd 66 04 6e 3d d3 e3 99 be 65 9a 1e 3e
       -0.04891198 0.058109663 -0.3005663 0.15488584
000190 7b 52 e6 bd 9e 9f 39 3e 0b 45 60 be 0f 03 0d be
       -0.11246201 0.18127295 -0.21901338 -0.13770698
0001a0 0c 30 0b 3b d1 5a 48 3c cf 49 7b 3e b1 fe 2f bd
       0.0021238355 0.012228684 0.24539874 -0.042967502
0001b0 9f 8d 49 bd 72 08 26 be 7e 9e 97 3e 13 f4 cc bd
       -0.049207326 -0.16214159 0.29613107 -0.10007491
0001c0 d5 13 e1 3d 29 85 49 be 1d e3 16 3e 1f 25 ef 3d
       0.10990111 -0.19679703 0.14735074 0.11677002
0001d0 41 9d a4 be 57 fb 23 3e 12 51 73 3c e9 c3 38 3e
       -0.32151225 0.16013847 0.014850872 0.18043484
0001e0 8f a1 9a 3d fd 7c 31 be 11 2d ca 3b 60 66 7b bc
       0.07550346 -0.17332835 0.006169923 -0.015344232
0001f0 e5 bf d6 3d 11 d1 c7 bd 3d 53 a8 bc 87 08 44 be
       0.1048582 -0.09756673 -0.020547504 -0.19143878
000200 53 3b 0c be f5 e0 22 3e 70 13 c9 3d 15 7c 9f bd
       -0.13694505 0.15906127 0.098181605 -0.07787339
000210 38 28 0f 3e 7b 2d 48 bd e0 6d ec bc 9d b6 e3 3b
       0.13980186 -0.0488715 -0.028860986 0.0069492594
000220 59 d1 ca bd 60 04 f3 bc 3e 3e 35 3e 15 db f0 bd
       -0.09903211 -0.029665172 0.17699525 -0.117605366
000230 a2 b7 7a 3e 84 df 1e be 64 af f1 bd 6d 64 d8 bd
       0.24484113 -0.15514952 -0.11801031 -0.1056603
000240 d9 7e 98 3d 1b b1 9b 3d 94 67 e6 bc 33 f1 07 be
       0.07446069 0.076021396 -0.028125562 -0.13275604
000250 73 1d fe bd e1 58 81 3d 01 1d db bd 27 e0 30 3c
       -0.12407961 0.063157804 -0.106988914 0.01079563
000260 7b d0 c4 bd e5 46 6a 3e 94 fb 6c be cc 9e 7e be
       -0.09610077 0.22878607 -0.23142844 -0.24865264
000270 f8 49 c9 3c 3e 4c c3 3d 66 cf ad bc a2 00 b5 3d
       0.024571404 0.095360264 -0.02121706 0.08838011
000280 f8 52 2a 3d 8b 17 b4 3d d3 4c 43 be dc c4 81 bc
       0.04158303 0.08793553 -0.19072275 -0.01584094
000290 6d 0a fe 3d 48 0d 2b 3e 1e d3 c7 3d 6d 0c e6 3d
       0.12404332 0.16704285 0.09757064 0.11232839
0002a0 7f 14 6e bd 0f d8 a4 bd 5a f9 45 be 05 77 33 3d
       -0.058125015 -0.080490224 -0.19333401 0.043814678
0002b0 70 18 f3 bd eb 67 5e be 60 53 b5 bd 79 bf 31 bc
       -0.118698955 -0.21719329 -0.08853793 -0.010848873
0002c0 02 39 e6 3d d8 ce 1e be fc 14 fa 3c 11 f3 55 bd
       0.11241342 -0.15508592 0.030527584 -0.05223376
0002d0 24 d7 76 be 49 63 30 3e c8 b2 89 3e 1c b8 a8 bd
       -0.24105507 0.17225374 0.26894212 -0.08238241
0002e0 75 e9 66 3c db b8 29 be 08 af 6a be 40 f4 5d 3e
       0.014093746 -0.16574423 -0.22918332 0.21675205
0002f0 5a a9 1a 3d 65 eb b8 bd a6 5a 1e be 2d 53 3c 3e
       0.037759162 -0.09029273 -0.15464267 0.18391104
000300 84 ff 80 3e 7d 9a c6 bd 30 08 0d be 00 67 9e bd
       0.25194943 -0.09697435 -0.13772655 -0.077344894
000310 b0 1f 30 3d ec 00 a8 bc 9b 08 6e be cf 02 bc 3d
       0.04299897 -0.020508252 -0.2324547 0.09180223
000320 44 f4 a4 3d ad 4a 18 3e 7d 51 ae bd 78 6a 49 3e
       0.080544025 0.14872237 -0.085116364 0.19669521
000330 4f 52 7e bd 54 ec 80 3b 6c 39 10 be 27 c1 8b bc
       -0.062090214 0.0039344225 -0.14084405 -0.017059876
000340 db 7c 0f 3e 8c ac ab bc 1d b6 99 bd 65 3c 08 3f
       0.14012472 -0.0209563 -0.075054385 0.53217155
000350 ff 39 8e be f6 f8 a7 bd bd 55 52 be c0 95 a5 3d
       -0.27778623 -0.082017824 -0.20540519 0.08085203
000360 b7 d6 08 be bc 45 18 be c4 60 d4 bd 8a 48 c5 3d
       -0.13363157 -0.14870352 -0.10370019 0.09632976
000370 ca 0d 33 be 1c 0b 7e 3d df e1 e7 bd 5c 0a ab bc
       -0.17485729 0.062022313 -0.11322378 -0.020878963
000380 e1 6e 86 bc c5 67 69 bd 77 f0 30 bd 21 46 11 bd
       -0.016410293 -0.056983728 -0.043198075 -0.03546727
000390 09 2d 42 be af f0 3a 3e 62 26 43 be 90 56 27 3e
       -0.18962492 0.18255876 -0.1905761 0.16341615
0003a0 54 ee 83 be 20 c8 eb bd 13 4f 41 3e ed 37 45 bc
       -0.25767767 -0.1151278 0.1887782 -0.0120372595
0003b0 0a 20 b4 3b 07 f8 71 bd b3 a6 bf bc 44 4a 9c bc
       0.0054969834 -0.059074428 -0.023394918 -0.019078381
0003c0 d1 64 4c 3e 2d cd 37 bd 41 99 58 be 03 08 09 be
       0.19960333 -0.044873405 -0.21152212 -0.13381962
0003d0 8c 06 8b bd 11 9a f1 bc 54 e5 08 bd 15 14 09 3e
       -0.06788358 -0.02949241 -0.03342183 0.13386567
0003e0 0c 49 02 be a4 33 20 3e f1 05 1d 3e a7 b5 7f 3e
       -0.12723178 0.156447 0.15334298 0.24971639
0003f0 53 9b e9 bc e3 ef a9 bc 89 30 e8 bd c2 91 9b bd
       -0.028516447 -0.02074427 -0.11337382 -0.075961605

feature_layers.1.bias f4 [128]
000000 ef e2 ff 3c c4 70 d3 3c 62 ad d7 3c 92 65 bc bc
       0.03123614 0.025810607 0.026327793 -0.022997651
000010 fa 2b 12 be d2 0e 99 bd 00 2c 4b 3a a2 62 ce bd
       -0.14274588 -0.0747353 0.0007750392 -0.100774065
000020 c1 e5 20 3e 88 68 46 be 77 2a 12 3d c6 c3 28 3e
       0.15712644 -0.19375813 0.03568503 0.16480932
000030 a8 01 c2 3c e8 54 89 3d 58 11 45 3e 50 3c 5b bd
       0.02368243 0.06705648 0.19244897 -0.053524315
000040 25 14 bd 3d 4b f1 ea bd 79 19 4c 3e 09 6a be 3d
       0.09232358 -0.11471804 0.19931592 0.09297568
000050 97 38 f1 3c 36 c5 1c 3c 26 e0 e8 3d eb f3 c4 bd
       0.02944593 0.009568503 0.11370878 -0.09616836
000060 ff 48 91 3d 5f 5d 78 bd ed d6 ac 3c d3 d7 0f 3d
       0.07094001 -0.06063592 0.021098578 0.035117935
000070 67 6f bf bd d6 94 2e bb c3 f0 61 bd 19 9b ae 3d
       -0.0934742 -0.0026639006 -0.05516125 0.08525676
000080 53 e2 6a 3d b7 4c 86 3c d4 26 1d 3d e6 bf 33 bb
       0.057344746 0.016394002 0.038367108 -0.0027427613
000090 62 f9 ab 3d d8 b8 2c 3e c9 77 0e 3e 99 3e b6 bd
       0.08397175 0.16867387 0.13912882 -0.08898658
0000a0 07 06 a2 3d 1b bd d0 3d c9 30 b3 bd d8 58 ff 3d
       0.07911306 0.10192319 -0.087495394 0.124681175
0000b0 dc dd 17 3e 04 40 60 bd 20 4b 5f 3d 99 c4 2c 3e
       0.14830726 -0.05474855 0.054515004 0.16871871
0000c0 e0 c1 21 3e 30 e8 a0 3d 6b 97 28 bd 35 81 a8 bc
       0.15796614 0.07856786 -0.04116003 -0.020569423
0000d0 d8 b0 b5 3d 71 4c cc bd 5f 34 31 bd 6e aa 72 bd
       0.08871621 -0.099755175 -0.043262836 -0.059244566
0000e0 f9 51 c6 3c bf 87 ae 3c 86 aa 1b 3d 12 94 cf bd
       0.02420901 0.021304963 0.03800442 -0.10135664
0000f0 79 8f dc 3d fd 5c 25 3d bf f1 e5 bd 3e c1 75 3d
       0.10769553 0.040371884 -0.1122775 0.059998743
000100 7d b2 5a 3e b0 51 84 3d 7f a8 30 3e 76 4d ad bd
       0.2135715 0.06460893 0.17251776 -0.0846204
000110 ea 4b ca 3d 1d cb e9 3d 1d 90 d2 3d c5 a0 67 bb
       0.09877761 0.11415694 0.10281394 -0.003534363
000120 2c db 83 bd c5 ba 34 3e eb b3 7a bd 39 1b b8 bc
       -0.06438288 0.17649372 -0.06120674 -0.022473918
000130 3a a8 e0 3d b1 32 b1 bc 49 9e 8f bc 73 7a 1a be
       0.10969587 -0.021630617 -0.017531531 -0.15085773
000140 ef bd 67 3b 18 12 c6 3d 69 35 d8 bd 54 d6 f8 bb
       0.0035361012 0.0967142 -0.10557062 -0.0075939093
000150 9e 7f b9 3d 59 0e 40 be 53 5b c0 bd fe c4 f8 bd
       0.09057544 -0.18755473 -0.09392419 -0.12146948
000160 c9 bd ff bd a1 86 15 3e fa 2c 81 3d a1 94 65 3c
       -0.124873705 0.14602138 0.06307407 0.014012487
000170 4c 36 d9 3d 01 d7 bb 3d 22 40 ae 3c 6f 7d 22 bd
       0.106060594 0.09171868 0.021270815 -0.039670404
000180 be 3a 46 be 27 ea 1f 3e 7c ed 8a bd 8d 5f 08 be
       -0.19358346 0.15616666 -0.06783578 -0.133177
000190 dd 13 ce bc d9 8e e8 bd 1e c8 81 bd eb 06 c4 3c
       -0.025155956 -0.11355371 -0.063369974 0.02392908
0001a0 17 49 30 be 4a 85 7e bd f5 58 e1 bd 6a 68 1e bd
       -0.17215382 -0.062138833 -0.11003295 -0.038673796
0001b0 12 f4 6c bd be 65 ab 3c a0 37 fd bc b3 10 00 be
       -0.05784995 0.020922538 -0.030910313 -0.1250637
0001c0 b1 53 50 3e 5b f4 88 3d ed af 9a 3d b8 18 8a 3d
       0.20344426 0.06687232 0.075530864 0.06742996
0001d0 e9 03 92 3d ea f8 23 3e 3e 92 2f be 16 29 5b 3c
       0.07129652 0.16012922 -0.1714563 0.013376495
0001e0 8c c3 a6 bd 58 04 10 3e 5a 36 11 be cc 09 22 bd
       -0.08142766 0.14064157 -0.1418089 -0.039560124
0001f0 52 38 12 3e 7f f6 28 39 7b c2 b9 3c 13 1e b4 3c
       0.14279297 0.00016113555 0.022675743 0.021986997

value_stream.0.weight f4 [64, 128]
000000 f7 02 a0 3d 85 8b 9c bc 7f 4b 9b 3d 3d 70 5e 3e
       0.078130655 -0.019109497 0.07582759 0.21722503
000010 99 19 7b 3c a2 28 ca bb 15 09 23 3d a2 52 05 be
       0.015325927 -0.0061693946 0.039803583 -0.13019803
000020 50 4f 3f bb 94 41 3f 3e 9a 5c d6 bc 98 50 61 3d
       -0.002919156 0.1867736 -0.026167203 0.0550085
000030 93 f6 bd bb 66 13 1e 3e 3a af 14 bd 78 4f a6 bc
       -0.005797216 0.15437087 -0.03629992 -0.020301566
000040 28 f9 88 bd 11 ac 04 be f0 23 5a be 1f d8 d3 bd
       -0.06688148 -0.12956263 -0.21302772 -0.10343956
000050 53 88 cc 3d cd 1b 67 3d a2 11 9a 3b 16 c8 4c 3c
       0.09986939 0.056422997 0.004701809 0.012498876
000060 3f 71 3a 3d 6c 98 cd 3e b9 31 9e bc ca a1 d0 bc
       0.045518156 0.4015535 -0.019310819 -0.025467772
000070 60 60 90 3c bd 3e 4a bd 3a 7d 63 bd a1 cb 68 be
       0.01762408 -0.04937624 -0.055539347 -0.22733928
000080 40 88 93 3c ae 20 cf 3d 83 6e 19 be e5 05 08 3d
       0.018009305 0.10113655 -0.14983563 0.033208746
000090 0a e6 4b be 33 2c 79 bd bf dd f0 bd 7e 18 a7 3d
       -0.19911972 -0.060833167 -0.11761045 0.081589684
0000a0 f0 0b 57 3e b1 e8 e7 3d ea 69 07 be 27 4e 8a 3d
       0.21000648 0.11323679 -0.13223997 0.067531876
0000b0 5c af b7 3b bb 26 ee 3d f2 8b 5e bd 70 90 49 bd
       0.0056056213 0.11628481 -0.05433268 -0.049210012
0000c0 4b d3 22 be e3 26 90 bd 9d de 6e 3e f9 1b 4d 3e
       -0.15900914 -0.07038667 0.23327108 0.20030202
0000d0 0d 9e 8f bd 03 e9 3f 3e 09 d7 ab 3e 79 ef 8e bd
       -0.07012568 0.1874123 0.33562496 -0.069792695
0000e0 f3 a4 66 3c d2 d1 61 3d f3 e1 81 3e 05 5e a1 bb
       0.014077413 0.05513174 0.25367698 -0.004924538
0000f0 e5 74 52 be c6 ff c6 3d d7 10 c9 3d e8 9e 72 be
       -0.20552404 0.09716754 0.09817665 -0.2369343
000100 38 f5 05 be 31 0c 99 bc 51 85 a7 bd 7b 43 71 bd
       -0.13081825 -0.018682571 -0.08179725 -0.058902245
000110 1d a1 77 bc 4a dc 03 be 55 73 08 bd e9 5b 48 be
       -0.015114096 -0.12877002 -0.033313114 -0.19566311
000120 3c 26 b0 3c e3 f8 06 be 5f 51 1c be 89 0b cc bd
       0.021502607 -0.1318088 -0.15265416 -0.09963138
000130 a4 80 39 3d a9 35 29 3e 0e ef 14 be f9 ae 18 3e
       0.045288697 0.16524376 -0.14544317 0.14910497
000140 76 c1 3f bd 99 af 9b be 2a f7 f1 bd 70 87 7a 3e
       -0.046815358 -0.30407408 -0.11814721 0.24465728
000150 ea 1d 57 3d 8f 0a 66 3d 64 8d 8c 3d 5d f3 0b be
       0.052518763 0.056162413 0.068629056 -0.13667054
000160 45 e7 3d 3e 6f a7 1a be 70 09 08 3d 4d 54 e3 3d
       0.18545254 -0.15102933 0.033212125 0.111000635
000170 18 6d 60 be 6d 1e b5 bd b3 94 a8 be 52 c8 0c 3d
       -0.21916616 -0.08843694 -0.32925949 0.034370728
000180 b0 f2 96 bd cc 64 71 3d 18 06 9a 3e d6 28 bc 3e
       -0.07370508 0.058934018 0.30082774 0.36749905
000190 f9 b5 d2 3d aa 2b a8 3e cc 3c 12 3d 3f 81 4d bd
       0.10288615 0.32845813 0.03570251 -0.050172087
0001a0 0a a2 cd 3e 6c 47 8e 3e 69 2d d7 3d c3 c0 1d 3e
       0.40162688 0.27788866 0.10506708 0.15405564
0001b0 62 b5 f9 bd 41 35 54 3e b6 f1 2d bd e3 04 c1 bc
       -0.12192799 0.2072344 -0.04246684 -0.0235619
0001c0 8d ef 3d 3e a0 16 09 be b0 7a 9f be 04 0d 49 3e
       0.18548413 -0.13387537 -0.3114829 0.19633871
0001d0 59 ef a2 3d d1 3e 28 3e c0 48 33 3e a8 d4 a1 3e
       0.07955808 0.16430213 0.1750822 0.31607556
0001e0 f3 92 62 3e 9e 8d ef 3d 87 b9 eb 3d 83 a5 cb bd
       0.22126369 0.11696933 0.11509996 -0.09943678
0001f0 f0 05 6e bc 14 e9 b0 bd 7c 36 9b be 75 da c8 bd
       -0.014527783 -0.08638206 -0.30315006 -0.09807292
000200 2e 54 a7 bd dc 4e 80 be 1f 5b 19 3e 0b 4b 36 bc
       -0.08170353 -0.25060165 0.14976166 -0.01112629
000210 38 36 51 be 2a 59 1d 3e 90 e6 1a be 18 d7 4c 3e
       -0.20430839 0.15366045 -0.15127015 0.20003927
000220 78 1c 35 3d c2 6c aa 3d 04 ec c8 3d d3 c7 b7 3b
       0.044216603 0.08321525 0.098106414 0.0056085377
000230 89 fc 1e be 7a 10 97 be 2b b9 37 be a0 37 a6 bd
       -0.15526022 -0.29504758 -0.1794173 -0.081160784
000240 a1 f8 2d be 86 8d f2 bc e3 a9 ae bc 62 cc 94 bd
       -0.16989376 -0.0296085 -0.021321243 -0.072655454
000250 95 f3 5d 3d c9 6a 46 3b 55 b9 4a be b1 7e f8 3c
       0.054187376 0.0030276051 -0.19797261 0.030333849
000260 be de 53 be 39 b3 8c 3c 17 14 84 be c7 50 52 be
       -0.20690438 0.017175304 -0.25796577 -0.20538627
000270 74 a2 b7 3e 18 4b 29 3d 45 62 6f 3e 8c a4 08 be
       0.3586613 0.04133138 0.2337733 -0.1334402
000280 26 34 07 be ad 55 e8 3d 97 d0 3f bc db 27 34 3e
       -0.13203487 0.11344466 -0.011707447 0.17593329
000290 07 67 53 be 33 93 fd bd 1b 6c 1c be 50 ad 36 3e
       -0.2064477 -0.12381592 -0.15275614 0.17839551
0002a0 4d 76 08 bd de 83 00 be 03 43 63 3e 7e 70 23 be
       -0.033315945 -0.12550303 0.22193532 -0.15960881
0002b0 db be 85 be e7 8d 88 3d e2 e5 1f bd 1b 75 3f be
       -0.26122174 0.06667691 -0.039037593 -0.18697016
0002c0 ee e7 a6 bd dd fe 22 bd 7e bb 09 3d c4 f0 fd 3d
       -0.08149706 -0.039793838 0.033626072 0.12399438
0002d0 34 26 68 bd 38 c6 00 3d 5a d0 c6 bc e5 07 92 3e
       -0.05667706 0.031439036 -0.024269272 0.28521648
0002e0 5d 19 9e 3d 09 de a9 bd fb a4 5e be f1 63 64 3d
       0.077196814 -0.08294303 -0.21742623 0.055759374
0002f0 84 b1 5b 3e ed 42 79 3d b7 a3 d3 3d 7b 2e fe bd
       0.21454436 0.06085484 0.103339605 -0.12411209
000300 37 72 0d bd 79 9a ba bd 17 8d f7 3d d2 e3 5a bd
       -0.034532752 -0.091114946 0.120874576 -0.053439923
000310 ed a6 42 3b ab ba 29 be c3 bd a5 3c 20 77 8f 3e
       0.0029701546 -0.16575114 0.020232087 0.28020573
000320 33 cb 45 3e 63 60 92 bc cb 7c 03 3d ac e0 11 3e
       0.19315796 -0.017868226 0.032101434 0.14245862
000330 2b e1 c8 bd 18 23 76 bd 83 74 f2 3d 19 a7 5e 3d
       -0.098085724 -0.06009206 0.11838629 0.054358575
000340 28 82 89 bd c5 11 dc be b6 6d 6f 3e 6d 5f 1c be
       -0.067142785 -0.42982307 0.23381695 -0.15270777
000350 79 06 c6 be 1a 97 3c be 8d 1a 45 be 31 70 64 3e
       -0.38676813 -0.18417016 -0.1924841 0.22308423
000360 75 65 e8 3d 59 30 aa be 55 8a 81 bc 37 e0 aa 3d
       0.113474764 -0.3324001 -0.015813032 0.08343547
000370 b6 33 8e be 77 7c 1d bd 8d 3e 22 bd 25 ac 9d be
       -0.27773827 -0.038448777 -0.039610434 -0.30795398
000380 35 ac a6 3e 65 07 a3 bd 47 43 7b 3e b7 7e c5 3d
       0.3255326 -0.07960395 0.24537383 0.096433096
000390 94 f0 b1 bd 77 de 7d 3d 72 34 48 bd 22 78 01 3e
       -0.08688465 0.061979737 -0.04887814 0.12643483
0003a0 59 9a 85 3c fc 56 5b 3e 42 10 5b 3d 9d 6f 44 3e
       0.01630895 0.214199 0.0534823 0.19183202
0003b0 6b 50 c0 3b 4a 7d e5 bc 7a 32 52 bb 83 4d 13 3d
       0.0058689616 -0.028013844 -0.0032073543 0.035962593
0003c0 a2 47 e6 3c 77 ab f9 3c 96 68 7b 3d a5 9a a3 bd
       0.028110329 0.030477269 0.061379038 -0.079884805
0003d0 45 75 8e be ee a1 e6 bd 83 0d 00 3d 62 42 91 3d
       -0.27823845 -0.112613544 0.031262886 0.0709274
0003e0 8d 9c 0a be 9c 8b 8a bd 8f 6c 7d bc d4 78 13 3e
       -0.13536282 -0.067649096 -0.015467777 0.14401561
0003f0 ae 45 f8 3b cf e4 b3 3d 74 87 95 be 1c 3d 2f 3c
       0.007576666 0.08783876 -0.29204905 0.010695722

value_stream.0.bias f4 [64]
000000 f1 7b 2e be de b8 01 be 54 e0 f7 bc 93 0c c9 bd
       -0.17039467 -0.12668177 -0.030258335 -0.098168515
000010 db d8 31 3e c6 2c a4 bd 7f 8b 22 be 26 dc 77 bb
       0.1736788 -0.08016352 -0.15873526 -0.0037820428
000020 4c 1a ca 3d 93 9f f6 bd 9a 58 61 3d 7e 2f 13 3e
       0.09868297 -0.12042155 0.055016138 0.14373586
000030 48 96 21 3e 8e 5b c3 bd 43 57 47 3e 1f 07 f2 3d
       0.15779984 -0.09538947 0.19466881 0.118177645
000040 52 81 69 3d a6 82 45 be 84 bf 1b be bd 0d 51 3e
       0.057008095 -0.1928812 -0.15209776 0.20415397
000050 fd e6 26 3e 94 9f e8 bd 34 f7 e7 3d 15 9e 28 3e
       0.16299053 -0.11358562 0.11326447 0.16466554
000060 1a d3 dd bd 28 c7 3f be 8c 78 96 3d 36 80 02 3e
       -0.1083128 -0.18728316 0.07347211 0.12744221
000070 20 98 2f bd 98 c5 9b bd 29 69 b6 bd c9 11 08 bd
       -0.042869687 -0.076060474 -0.089067765 -0.033220086
000080 62 dd 61 3e 4c 38 fc bc 35 ee 7b 3e 2a 80 60 be
       0.22057107 -0.030788563 0.24602588 -0.2192389
000090 f6 e8 24 bd 2b 0a 75 bd 05 0f 2e be d0 b4 c3 bd
       -0.04026123 -0.05982415 -0.16997917 -0.095559716
0000a0 05 20 4f be 68 e1 09 bd 2e 21 18 3e 62 13 08 3e
       -0.20227058 -0.03366223 0.14856407 0.13288644
0000b0 a7 80 08 3e f5 f4 03 bc 3e ec 02 3e 06 0b 52 3e
       0.13330327 -0.008054008 0.12785432 0.20512018
0000c0 01 1f 26 bc bb 36 85 bc 4b 9c a8 bd 98 19 d9 3d
       -0.010139228 -0.01626145 -0.082329355 0.10600585
0000d0 66 dc c4 3d 60 62 db bd 68 64 0e ba 5c 12 33 be
       0.0961235 -0.10712123 -0.0005431832 -0.17487472
0000e0 5a 14 50 be 22 7a 7b 3d b1 af c3 3d 9f c5 e8 3d
       -0.20320264 0.06139577 0.09554995 0.11365818
0000f0 b7 0c 4a 3e 3a 5c 11 3e ae f7 df bd c0 0c 59 3c
       0.19731413 0.14195338 -0.10935913 0.013247669

value_stream.2.weight f4 [1, 64]
000000 87 9b 00 be 1a f6 b8 be ea 4a 06 bb a0 d4 2f be
       -0.12559329 -0.3612526 -0.002049143 -0.17170954
000010 8e 5e ef 3d fb 06 32 be c6 19 76 bd f6 c2 79 be
       0.11687957 -0.17385475 -0.060083173 -0.24390778
000020 c3 99 9a 3d e8 5f 3c bd 0f b6 a1 3a 90 36 20 3e
       0.07548859 -0.0459899 0.0012337583 0.15645814
000030 a6 46 bd 3e 3e 1a 21 bd 40 f3 11 3f b5 ff b8 3e
       0.36967963 -0.039331667 0.57011795 0.3613259
000040 48 85 4b 3e 97 4d de bd d5 75 b9 bd 03 b1 0a 3f
       0.19875062 -0.10854643 -0.09055678 0.5417635
000050 ef 27 05 3e f4 1a 63 be 0c 22 54 3e f0 80 33 3e
       0.13003515 -0.2217825 0.20716113 0.17529655
000060 9d a3 88 be 8b c2 a7 bd 25 c9 0f 3e 9b 3c bc 3e
       -0.26687327 -0.08191403 0.14041574 0.36764988
000070 c6 5e 0f be e0 08 20 be 1a cf b6 bd 0f 66 ec bd
       -0.14000997 -0.15628386 -0.0892622 -0.11542904
000080 47 07 3c 3e 91 0a 7a be 11 17 d9 3d 56 08 1d be
       0.18362151 -0.24418093 0.10600103 -0.15335211
000090 20 1b 80 be ea a0 19 bd 25 e2 b7 be c7 41 73 be
       -0.25020695 -0.037506975 -0.35914722 -0.23755561
0000a0 62 37 c4 be 2e 55 f5 bd 16 a9 da 3e eb 03 aa 3e
       -0.38323504 -0.11979137 0.42707127 0.33206114
0000b0 09 e7 da 3e 5a 19 1b be 8a 80 1a 3e eb 50 6d 3e
       0.4275439 -0.1514639 0.15088096 0.23175399
0000c0 5f fd 9d bd 37 62 98 bd fc ed 90 be 36 15 79 3e
       -0.07714342 -0.07440608 -0.28306568 0.24324498
0000d0 fd 7d 2b 3e 62 4d 70 be 0b 71 1b be a3 0f 08 3a
       0.1674728 -0.23467019 -0.15179841 0.00051903183
0000e0 da 7d 30 be c6 c2 c3 3d 6a 45 e8 3d 76 88 57 3e
       -0.17235509 0.095586345 0.11341365 0.2104815
0000f0 45 7d d2 3e cc 80 ca 3e be 37 30 be 23 c8 fb bd
       0.41111198 0.3955139 -0.17208764 -0.122940324

advantage_stream.0.weight f4 [64, 128]
000000 2d 15 31 3d 7d 59 c0 bc e9 38 3b 3d 56 20 b7 be
       0.043233085 -0.023480171 0.04570857 -0.35766858
000010 05 b8 97 be 51 b0 40 bd 63 04 3c 3e 3c af 3a be
       -0.29632583 -0.04704315 0.18361048 -0.18230909
000020 32 d1 59 3d 31 94 d9 bd c5 f7 23 3e c5 f8 a4 3d
       0.05317802 -0.106239684 0.16012485 0.080552615
000030 22 b7 b2 be 46 1f 02 be 3d 96 4c 3e 0b ec 7b 3b
       -0.34905344 -0.12707242 0.19979186 0.0038440253
000040 22 43 a3 3c df 3c 91 bd 64 3c 10 3e 1d 58 e4 3d
       0.019929472 -0.07091688 0.14085537 0.11149619
000050 00 73 04 be 2f d0 fb 3d bc f1 c7 3d de 5a 9f 3e
       -0.12934494 0.12295567 0.09762904 0.31124014
000060 16 0c 40 3d cc a8 72 3d 8e 6e df 3c 5e df 00 3e
       0.046886526 0.05924301 0.027274396 0.12585208
000070 c5 5c 1c 3d 9a 43 7a be 94 72 21 3f de 84 79 bd
       0.03817441 -0.2443985 0.6306546 -0.060917728
000080 a8 40 7e be d2 8f d6 be 87 d9 ac be 9b 21 a5 bd
       -0.24829352 -0.419066 -0.3375971 -0.0806305
000090 78 64 25 be 0f c2 56 be 46 99 11 3e 5d ad 1e be
       -0.16151607 -0.20972465 0.14218625 -0.1549582
0000a0 5c 0d d4 3c 57 e6 02 be c0 c7 88 bd 11 16 ee 3d
       0.025885276 -0.1278318 -0.06678724 0.116253026
0000b0 a5 0b 41 3e 83 cf 63 3c 27 b2 31 be 08 22 15 bd
       0.18852098 0.013904455 -0.17353116 -0.036409408
0000c0 4c 18 ff 3d 23 8a b0 be ec 60 f5 3c ea 67 58 3e
       0.12455806 -0.3448039 0.029953443 0.2113339
0000d0 1f 49 80 bd fa ed b2 3d 5e 72 ba bd 32 dc c5 3b
       -0.06263947 0.08736797 -0.09103845 0.006038212
0000e0 49 a8 ab bd 29 97 21 3e 73 f0 bf 3d 3c e9 45 be
       -0.08381707 0.1578032 0.09372034 -0.19327253
0000f0 68 b5 f9 bc 6e ff 9f bd a1 15 67 3e 67 0a ea bd
       -0.030482009 -0.07812391 0.22566845 -0.11427765
000100 96 b5 dd bd 5e ba 60 3d d9 67 35 bd 4a d5 cb 3d
       -0.108256504 0.054865234 -0.04428849 0.09952791
000110 92 cd 0a 3e 23 40 4e 3e f2 62 3e 3d 71 cf 1d be
       0.13554981 0.20141654 0.04648108 -0.15411164
000120 36 60 4b be d6 ca 50 3b d5 1e b6 3c 81 e2 5a 3e
       -0.1986092 0.003185918 0.022231499 0.21375467
000130 e1 b4 f9 bd 0c d6 79 3e ac 7c 63 be 1b ea 79 bd
       -0.12192703 0.24398059 -0.22215527 -0.061014276
000140 83 35 2e bb a6 38 33 be f8 ac a4 3d f9 19 eb bd
       -0.0026582188 -0.17502078 0.08040804 -0.11479563
000150 23 27 90 bc 60 49 48 be 58 10 b1 bd c9 30 a5 bd
       -0.017596787 -0.1955924 -0.086456954 -0.08065946
000160 7f 2e 8e 3d f7 3d 80 be 8f 78 bd bb a7 52 23 bf
       0.06942462 -0.25047275 -0.005782194 -0.6379799
000170 d6 e7 5a 3d 68 5c 2e be 4a 5a c7 be fb 18 53 3d
       0.053443752 -0.17027438 -0.38936073 0.051537495
000180 d2 55 b9 3d 3c 0a f7 bd 16 8d 6d 3d cd 3f f5 3d
       0.09049572 -0.12062499 0.05799588 0.1197506
000190 4d a5 38 3e 67 da 06 be 26 f3 11 3e e6 ea b1 bd
       0.18031807 -0.13169251 0.1425291 -0.086873814
0001a0 d5 5c d9 3d 0e 43 44 bd fa b1 09 be e2 8a 57 be
       0.106134094 -0.04791551 -0.13446799 -0.21049073
0001b0 81 ba e6 3c 7f 2b 30 3e 32 72 ea be 0c f4 ad 3e
       0.028165104 0.17204092 -0.4579025 0.33975255
0001c0 29 fe 37 3b 5d c7 40 be b9 e6 9f 3e 03 86 49 be
       0.0028075075 -0.18826051 0.31230715 -0.19680028
0001d0 97 ab 05 3e fe ec a9 bd 53 cb 34 3e 50 2e d9 bc
       0.13053738 -0.08297156 0.17655687 -0.026511341
0001e0 2e a8 75 3e 6a 9d 24 3e 08 4b b1 3e b0 2e 5c be
       0.23989937 0.16075674 0.34627557 -0.21502185
0001f0 05 5d 10 bb 99 c4 fe bd b5 2a 89 be 20 01 ac 3d
       -0.00220281 -0.12439842 -0.26790395 0.08398652
000200 ac 28 4a be e7 47 16 be 2c ab a5 bd 6b 42 79 be
       -0.19742078 -0.14675866 -0.08089289 -0.24341743
000210 91 15 26 3e 08 71 5a 3d fb 47 83 bc 07 53 66 bd
       0.16219164 0.05333045 -0.016025534 -0.056231525
000220 ef c0 7b bd bf 7a 99 3b e1 fe 81 3e 8e 90 9c 3c
       -0.061463293 0.004683822 0.2538977 0.019111898
000230 ff 23 27 bd de d0 b3 bd d7 48 4b be c4 a1 69 3e
       -0.040805813 -0.08780073 -0.19852005 0.22815615
000240 86 bd b5 bc a2 89 dd 3e 2d 81 3c bd e9 eb 0b 3d
       -0.022185098 0.43269068 -0.04602163 0.03416053
000250 ca 12 5e bd 6a 6a fd bd a8 47 68 3d 89 cc a2 3e
       -0.054217137 -0.123738125 0.05670896 0.31796673
000260 06 d0 89 bc fd 38 40 be 82 be 12 3c ae 95 b8 3e
       -0.016822826 -0.1877174 0.008956553 0.36051697
000270 43 a5 d7 bd 72 77 25 3d 04 e2 fc 3d 2b bb 24 3e
       -0.10529568 0.040397115 0.123477966 0.16087024
000280 2a 7c 1a be f0 44 29 3d 98 f3 63 be ab 96 71 bd
       -0.15086427 0.04132551 -0.22260892 -0.05898158
000290 21 7b a4 bd 12 49 20 3e 06 d3 65 3e 04 4f e0 bd
       -0.080312975 0.15652874 0.2244378 -0.10952571
0002a0 e3 36 82 bb b9 7a 22 bd 6c 93 e3 bd 9d 3d 90 3d
       -0.003973828 -0.03966782 -0.11112103 0.07043002
0002b0 66 b4 60 bd de d3 60 3e 6f ae e0 bd 1c 57 c6 3d
       -0.05485954 0.21955821 -0.109707706 0.096845835
0002c0 17 d1 17 be bf 5f 0e be e4 02 1a 3f 7a 20 2b bd
       -0.14825855 -0.13903712 0.6016066 -0.04177902
0002d0 33 35 4e bc fe 6c db 3e e2 86 37 3e 50 a2 38 3e
       -0.012585926 0.42856592 0.17922547 0.18030667
0002e0 fb 8f b9 3e 59 e6 c6 bd 81 b2 04 3e b4 76 92 bd
       0.3624266 -0.09711904 0.12958719 -0.07151547
0002f0 6f 1d bf 3c bc f4 83 3c 6a fc fa 3d c1 fa 3f be
       0.023329465 0.01610791 0.122551754 -0.18747999
000300 a3 11 7e bd e1 81 6f bd 27 3e 1c bd e3 f0 73 bb
       -0.06202854 -0.05847347 -0.03814521 -0.0037222437
000310 36 54 fc bd 2e f5 fb 3d 09 a7 84 bd db c3 58 bd
       -0.123207495 0.12302624 -0.06477172 -0.052921157
000320 50 46 66 3d a3 a2 13 3d 68 bd 16 3f ab ae 13 3e
       0.0562194 0.036043774 0.5888276 0.144221
000330 9f 29 4c 3c 64 1b d5 3e 57 1c 11 3c b1 f7 60 be
       0.012461095 0.4162246 0.008856854 -0.21969487
000340 bc 71 94 bc de cf 16 3e 5f c5 7c 3e a4 9b a3 be
       -0.018120639 0.14727733 0.24684666 -0.31954682
000350 c7 41 5d be 09 4a 0f be b6 ea 2e bc 46 a1 12 bf
       -0.21607123 -0.13993086 -0.010676077 -0.57277334
000360 85 39 ea 3c 5e f9 59 be b6 c5 58 3d bd fd 55 be
       0.02859188 -0.21286532 0.052922927 -0.20897575
000370 2e da db 3c 50 27 f9 bd ba 65 0e be 9c 8c 0f 3d
       0.026837435 -0.121657014 -0.13905993 0.035046205
000380 a0 47 15 3e 98 cf 0e 3d 57 25 91 3e 87 e9 67 be
       0.14578104 0.034865946 0.283488 -0.22647677
000390 be 46 27 3e b2 f1 1a be 6b 07 b2 3d b7 be 97 be
       0.1633558 -0.15131262 0.08692821 -0.2963769
0003a0 aa 4f f3 3b e3 62 98 be df 44 bf bd f3 4a 6f 3e
       0.007425268 -0.29762945 -0.09339308 0.23368435
0003b0 bc ba 00 3d 2f 23 3e bd f4 74 f6 bd 23 d5 6e 3f
       0.031428084 -0.046420272 -0.12034026 0.9329397
0003c0 09 93 cc bb 4e 1d fb bd 09 18 38 bd 8e 40 5b 3b
       -0.006243114 -0.12261449 -0.044944797 0.0033455226
0003d0 90 e9 7e 3b 56 92 1b 3d 6b 74 e0 3d 5c 95 6d 3e
       0.0038896538 0.037981354 0.10959705 0.23201507
0003e0 fe 67 07 be 47 0b 03 3e 64 a9 4e be a3 0b 86 3d
       -0.13223264 0.1279727 -0.20181805 0.06545188
0003f0 37 d6 52 bc af 38 c4 bd 5d 2b 40 be 3d de 33 3e
       -0.012868456 -0.09581124 -0.18766542 0.17565246

advantage_stream.0.bias f4 [64]
000000 34 8d c8 3c 65 31 e5 3b db 70 16 bd 59 ee cf bc
       0.024481393 0.0069944137 -0.03672872 -0.025382208
000010 41 40 29 bd a3 40 c7 bd db 72 12 bd 8f 54 01 bd
       -0.041321043 -0.09729125 -0.035754066 -0.031574782
000020 47 04 2d bd 51 ba 3a 3d b3 eb 3d bd 2d c2 b5 3d
       -0.042240407 0.04558784 -0.04636736 0.08874927
000030 36 8e ea bc a8 6d 92 bd 93 9c e0 3d b6 7b b0 bc
       -0.028632265 -0.071498215 0.10967364 -0.021543365
000040 d0 9c e1 3d 85 4d 11 bd 7d 4c 59 bd 76 8d 14 bd
       0.11016238 -0.03547432 -0.05305146 -0.03626772
000050 69 e5 e4 bc 6c 4e c7 3d 21 5d 30 3c 66 57 19 bd
       -0.027941423 0.09731755 0.010764391 -0.037436865
000060 ce 7c 56 3d de 8b c1 3c e1 f7 8e bd 79 75 56 bd
       0.052365117 0.023626264 -0.06980873 -0.052358124
000070 95 52 d8 bb d4 94 bc bd dd 55 ac 3c d8 41 ec 3c
       -0.0066016414 -0.09208074 0.021037037 0.02883999
000080 31 25 29 3d ad dc 96 bd db 5a 64 bd 04 42 75 3d
       0.041295234 -0.07366309 -0.05575071 0.05987741
000090 b8 37 2c 3d 1e fd 97 bc 75 90 83 3c df 17 91 3b
       0.042045325 -0.018553313 0.016060093 0.0044278945
0000a0 f4 5b 0d bc f7 76 8a bd 47 42 01 3c 19 59 72 bc
       -0.00862788 -0.06760972 0.007889337 -0.01479175
0000b0 d1 da 02 be 13 f5 bc bd 19 9c 73 3d ad b2 57 bd
       -0.12778784 -0.09226432 0.05947504 -0.052660633
0000c0 92 ae 0d 3e 6f d4 af 3d 5b f2 68 bc 3f ea 8a 3b
       0.13836125 0.0858544 -0.014217938 0.00423935
0000d0 b3 e9 0d be 35 71 0b 3d 2d ba 7b 3d 08 08 41 bd
       -0.1385868 0.03404351 0.061456848 -0.0471268
0000e0 92 e3 4e 3d a0 f1 09 be 8a 18 e3 3d 73 1a b3 bd
       0.050509997 -0.13471079 0.11088665 -0.08745279
0000f0 db 9c 07 bd fb 3f 9b bd c2 71 6c bc f1 f5 64 3d
       -0.033108573 -0.07580563 -0.014431419 0.05589861

advantage_stream.2.weight f4 [4, 64]
000000 4c 3f 4e 3e 1f b2 00 3e d7 d0 2e 3f 92 38 d6 bd
       0.20141333 0.12567948 0.68287414 -0.10460009
000010 ab 0b 60 3e 97 61 51 3e 0b 59 ba bd 07 26 8e bf
       0.21879451 0.20447384 -0.09099015 -1.1105355
000020 46 82 90 3e de e2 6b 3e 16 3e a6 be f0 f1 78 bf
       0.2822439 0.23035762 -0.32469243 -0.9724417
000030 24 ee bc 3d 76 f4 3f be ab 5b c1 3e e9 21 4e 3d
       0.09225109 -0.18745598 0.3776525 0.050325308
000040 97 59 bb 3e e9 9a 78 bd 65 48 be 3c 77 48 89 be
       0.3659179 -0.06069461 0.02322788 -0.268131
000050 d1 af 10 3e fc d4 f5 bd c2 8a 17 be a5 43 42 3e
       0.14129569 -0.12003514 -0.14799026 0.18971117
000060 0b 8e a3 bd 4d 2b 1d bf 4d b9 c9 3e 9a 50 ce 3c
       -0.07986077 -0.61394197 0.39399186 0.025184918
000070 0a 58 b4 3e 50 65 96 3e 60 6b ab be 3d f1 bb 3e
       0.35223418 0.2937417 -0.33480358 0.36707488
000080 02 9d d4 3e 4b 5e 47 3e 87 5b ae bd 6a f8 36 bc
       0.41526037 0.19469564 -0.08513551 -0.011167625
000090 6d 1c 43 3e 7c 99 58 3e 12 b9 e4 be 33 4c e7 3d
       0.19053812 0.211523 -0.44672447 0.11293831
0000a0 55 30 5e 3d c0 15 0a 3e 14 04 61 bf fa 4a d1 3e
       0.05424531 0.1348486 -0.8789685 0.40877515
0000b0 d8 1f a5 3e 33 44 f0 3e c4 96 24 3f a1 41 a5 bc
       0.32250857 0.46927032 0.6429255 -0.020172896
0000c0 ce 8d 9d bd 80 a7 fb 3c 5e 9a 55 bf 61 d3 73 3e
       -0.07693063 0.030719519 -0.8343867 0.23811103
0000d0 19 5a bd 3e 83 a2 2c be f3 2c 0c 3f b2 70 72 bd
       0.36982802 -0.16858868 0.5475609 -0.059189506
0000e0 46 2c d8 3e b0 eb 93 be c1 4e 24 be 46 52 12 be
       0.42221278 -0.28890753 -0.16045667 -0.14289197
0000f0 4a ab b7 3d 5d 4d bc bd 01 0b 9f 3e aa 30 53 3e
       0.08968218 -0.091944434 0.31063083 0.20624033
000100 ca 8b fc 3d f5 6e 29 3d f0 f3 06 3e 86 f2 88 be
       0.1233135 0.041365582 0.13178992 -0.2674753
000110 cd c7 38 bf df 3c b9 bd eb fe 86 3d 85 c4 4a 3e
       -0.7217987 -0.09044813 0.065915905 0.19801529
000120 ee 17 5e bd 11 5d 8d 3e 13 c5 52 bf 90 04 56 3e
       -0.05422204 0.27610067 -0.8233196 0.20900178
000130 59 3d 46 be f9 1e 3a be af f3 8d 3e 92 6d 90 3a
       -0.1935934 -0.18175878 0.27724978 0.0011018983
000140 9d b8 76 3c 87 60 dd be 91 59 c1 3d 11 93 27 3e
       0.015058664 -0.43237707 0.094409116 0.16364695
000150 17 32 d9 be 9e 8a bb 3e 46 f5 34 bf 7e c6 65 bf
       -0.42421028 0.36629194 -0.7068676 -0.89756
000160 96 02 06 bf 9c 5d 6f 3d b4 79 47 3e c3 56 8c be
       -0.52347696 0.058438882 0.1948002 -0.27409944
000170 78 81 1b 3c c9 07 35 be 3a e0 15 bf f0 82 cb 3e
       0.009491317 -0.17678751 -0.5854527 0.39748335
000180 1d e7 d3 3e d0 97 84 3e fb 8b 09 bd ce 91 78 bc
       0.41387263 0.25897074 -0.03358076 -0.015171481
000190 6d 63 27 bd af 54 79 3e 51 01 9a 3e e1 ce fb 3d
       -0.040866304 0.2434871 0.3007913 0.122953184
0001a0 7f a3 57 bf 7e 54 d9 bd 80 31 52 3d 67 f3 3a 3e
       -0.8423385 -0.10611819 0.051316738 0.18256913
0001b0 96 8c 80 be d8 49 a8 3d f0 87 ba 3e 69 b0 13 be
       -0.2510726 0.082172096 0.36431837 -0.14422764
0001c0 40 9f 08 3f b0 56 b9 3e 38 0e 96 3b 8e 01 a5 be
       0.53367996 0.3619895 0.0045793317 -0.3222775
0001d0 95 36 b6 be 87 c8 b5 3c cb 41 b9 bd c8 78 12 3e
       -0.35588518 0.022190345 -0.09045752 0.14303887
0001e0 4b f0 54 3e 14 d1 12 be 4c d2 46 3f 28 19 98 bb
       0.2079479 -0.1433757 0.7766464 -0.0046416707
0001f0 9b 89 82 3e f6 d1 e7 3c 7b df 43 3e f6 2a a3 3e
       0.2549561 0.02829836 0.1912822 0.31868714
000200 78 c3 43 3d 8a 32 f2 be cd f2 32 bf 72 83 e7 bd
       0.047793835 -0.47304183 -0.69901735 -0.11304368
000210 7d 1f b4 bd 7b a5 18 be 4e 39 6d bd 32 ec 27 3f
       -0.087950684 -0.14906876 -0.057915978 0.6559478
000220 db 40 32 be a9 35 23 be 5c 69 26 3f 2c 35 bb 3e
       -0.17407553 -0.15938438 0.65004516 0.36564004
000230 9e a6 41 be 8d ab 04 be 03 18 b2 be 43 2b 9f 3e
       -0.18911216 -0.12956066 -0.34783944 0.31087694
000240 99 d0 85 3e 09 cb 9a bd fb 25 62 bf d0 e9 96 be
       0.2613571 -0.07558257 -0.88339204 -0.2947526
000250 e8 f1 13 3f a1 99 1d bc 3d 4e f3 3e 33 92 94 3e
       0.57790995 -0.0096191475 0.4752063 0.2901779
000260 c1 80 da 3d 9d 6f a5 3e 98 8b 51 be 43 52 ee 3e
       0.10669089 0.32311717 -0.20463407 0.46547136
000270 fa 58 9c 3e 94 92 86 be de 35 e7 3e aa 24 99 3e
       0.30536634 -0.26283705 0.45158285 0.29910785
000280 1f 11 17 bf e3 f7 01 b9 bf 72 22 be 01 7b 0e 3f
       -0.590105 -0.00012394744 -0.15864085 0.5565644
000290 bc 5f 89 bd da 51 11 bf e6 f2 9d 3e ce 3a b1 3d
       -0.06707713 -0.5676552 0.3084938 0.08653794
0002a0 b4 68 90 3e 78 1e c6 3d 98 f4 d7 3e a1 90 2e 3d
       0.28204882 0.0967378 0.42178798 0.042618398
0002b0 f3 9b fc 3d d3 f0 51 be 1e b6 12 be 2e 95 13 be
       0.123344325 -0.20502023 -0.14327285 -0.14412376
0002c0 02 85 27 be c2 f2 b0 be 26 3e b9 3d 25 d6 84 3e
       -0.16359332 -0.3456021 0.09045057 0.2594463
0002d0 df 9d 22 3e c8 fb 19 bf 56 1a 55 bd 34 0b 68 be
       0.15880536 -0.6014981 -0.05202707 -0.22660524
0002e0 66 01 42 bf ae 56 12 3d e4 58 74 bd 5b a3 ed 3d
       -0.75783384 0.035727195 -0.059655085 0.11603423
0002f0 14 55 a1 bc 65 5b ec 3e 84 5e 49 be 4c 06 8b be
       -0.019693889 0.46163478 -0.19664961 -0.27153242
000300 ed 5c 2d 3d 53 94 1c 3e 55 16 61 3e 66 9a cb be
       0.04232495 0.15290956 0.21981175 -0.39766234
000310 5a 29 9e bd ed 44 af 3e d3 c2 4d be 71 10 ec 3e
       -0.07722731 0.34232274 -0.20093851 0.46106294
000320 a0 db 39 3e 22 6d 9c 3e 28 d5 89 3e 3b e7 e5 3d
       0.18150187 0.30552012 0.26920438 0.11225744
000330 c3 87 4c 3e 8b 4e 6b 3d fb bb 1a be 3a a0 de be
       0.19973664 0.05744795 -0.15110771 -0.43481618
000340 c2 7d 2c bf b7 41 15 3e 2e 99 9f 3e 7f cc cf 3e
       -0.6737939 0.1457585 0.31171554 0.40585706
000350 d8 34 c4 3a 41 f9 f3 be ea 5a a6 3e 0a 23 f3 3e
       0.0014969362 -0.47651103 0.32491237 0.4748767
000360 7d 6e 61 3e 9d 0b 50 3e 14 03 e0 be 31 63 2b bf
       0.22014804 0.2031693 -0.43752348 -0.6694823
000370 cf 4f 38 be af 26 58 3d e6 df 0a 3e e4 81 93 bf
       -0.17999195 0.052771267 0.13561973 -1.1524014
000380 1f bd f3 bc 75 be 16 3e 74 8c 47 3d 69 12 75 bc
       -0.029753266 0.14721091 0.04871793 -0.014958003
000390 bb 5e 49 bf 97 9e d0 be 6d 0c 00 3e 3f 3b 5a bd
       -0.7866017 -0.40745994 0.1250474 -0.053279158
0003a0 6f c8 10 3f cd 4d a2 3d d3 be 1a 3f e9 39 1c bf
       0.5655584 0.079249956 0.60447425 -0.61025864
0003b0 a8 18 fa 3d da 27 db be 9a 19 b9 3b 80 65 1b be
       0.12211734 -0.42803842 0.005648804 -0.15175438
0003c0 44 01 a4 be a6 35 ca be 00 c9 85 3e 71 17 74 3e
       -0.32032216 -0.39494056 0.26129913 0.23837067
0003d0 86 89 83 bc 32 e3 04 3f c5 89 05 be 7e c9 85 3d
       -0.016056787 0.5190917 -0.13040836 0.06532572
0003e0 74 1c 10 3f 6f 5e 23 3e 6c c8 89 be db b7 b4 3e
       0.56293416 0.15953992 -0.26910722 0.3529652
0003f0 bb de 3d 3d eb e3 15 3e 4c 92 a8 be b7 55 d3 be
       0.04635499 0.14637725 -0.32924116 -0.41276333

advantage_stream.2.bias f4 [4]
000000 60 ef a3 bb 57 3d 9e bc bb 15 1c be aa 62 90 bd
       -0.005002901 -0.019316358 -0.15242665 -0.07050069
