models/snake_dqn_ep240_score15_20250302_153403.pt (torch, 716386 bytes, 44 tensors)

feature_layers.0.weight f4 [128, 24]
000000 ca 8b cc 3a 29 7e 11 bf 95 31 29 be a8 c7 34 bd
       0.0015605625 -0.5683313 -0.1652282 -0.04413572
000010 55 df 67 be af e1 ae 3e 9b df 56 be de 57 6e 3d
       -0.22643788 0.34156558 -0.20983736 0.058189265
000020 69 ac 6d be cf 16 39 3a 51 2b b4 be 12 4c 47 3e
       -0.232103 0.00070605887 -0.35189298 0.19462612
000030 b9 14 ba bd 48 6d ba 3e fc 11 e1 3d 06 1a 51 3e
       -0.09085984 0.364115 0.10989758 0.20420083
000040 c6 11 c4 be d8 28 df be ec e0 5c bf 06 1a 33 3e
       -0.3829481 -0.4358585 -0.86280704 0.17490396
000050 00 6f 1a 3e c8 c8 fb bd 6e 57 f0 be c7 31 93 be
       0.15081406 -0.12294155 -0.46941704 -0.28748915
000060 a8 79 e8 be 31 b5 07 bf 30 92 5a 3d cf 1f c8 be
       -0.45405316 -0.5301085 0.05336207 -0.39086768
000070 c1 b5 ba be fb cc 08 3f 19 7b 98 be f4 9e e8 3c
       -0.36466792 0.53437775 -0.29781416 0.028396107
000080 18 5b d8 3d 81 e0 da be 15 59 31 3e 76 27 c4 3e
       0.1056425 -0.42749408 0.17319138 0.38311356
000090 f2 c0 1b 3e 1b e6 02 bf 4d 27 2f 3e 9d 06 6c be
       0.15210322 -0.51132363 0.17104836 -0.23049398
0000a0 9c 14 57 3d 5d 62 d5 be 72 ec 53 be bc 20 f1 bd
       0.05250989 -0.41676608 -0.20695665 -0.11773822
0000b0 5b 51 59 3e 6b bf af 3e ee 65 32 3e 81 68 0c 3f
       0.21222441 0.34325728 0.17421696 0.5484696
0000c0 4f 13 1c bf 17 24 1b 3f eb a9 0c bf 76 17 70 3d
       -0.6096696 0.60601944 -0.54946774 0.058616124
0000d0 64 9f 87 3d e8 be 51 3e 83 49 cb bd 28 33 ed bc
       0.06622198 0.20482981 -0.099261306 -0.028955057
0000e0 39 ac bf be 89 a8 6b be af 95 e0 3e 05 c1 6e 3d
       -0.37436083 -0.2301351 0.438642 0.058289547
0000f0 3b 1f a2 bd 7c 0a b8 be d5 86 38 be 37 5b 38 3f
       -0.07916113 -0.359455 -0.18020184 0.7201418
000100 5d a4 bc be 95 e1 04 3f 25 26 f7 3d f2 31 07 bf
       -0.3684415 0.5190671 0.12067822 -0.52810585
000110 07 be b8 3e 21 3b 17 3f 27 d0 ce be 83 c2 0e be
       0.3608248 0.590746 -0.40393183 -0.13941388
000120 1d e7 18 be 1c 0a ff 3c a5 17 6e 3d 1b dd 17 3d
       -0.14931913 0.03113275 0.058128018 0.037076097
000130 81 51 fd be 90 d9 d2 bd 3e e4 7c 3d a7 0e d0 be
       -0.49476245 -0.10295403 0.061741106 -0.4063618
000140 4a a8 70 be 37 bb 51 3d 95 77 20 3e 71 38 f9 be
       -0.23501697 0.051203933 0.15670617 -0.48675874
000150 a0 e2 af be 39 d3 15 3e 49 d4 ad 3d c6 a2 44 bd
       -0.3435259 0.14631356 0.08487756 -0.048006795
000160 24 dd d8 be e8 93 5c bf f6 8d 1a 3e 5d c0 de bd
       -0.42356217 -0.8616319 0.15093216 -0.10876534
000170 3b 24 d7 3d 40 4d 95 3e a9 0d 1b bd c1 ea 66 3e
       0.10504957 0.291605 -0.037854824 0.22550489
000180 25 29 a8 3d 00 14 9b 3c e2 a6 d0 bb 4a 5d 0e bd
       0.08210973 0.018930435 -0.00636755 -0.034756936
000190 aa 4b 15 3e 0b 64 23 3d d7 31 f9 bd 75 da 93 3e
       0.14579645 0.03989033 -0.12167709 0.28877607
0001a0 97 56 bf bd 23 9a aa 3e 79 f7 ce be a8 e4 c5 3d
       -0.093426876 0.33320722 -0.40423182 0.09662753
0001b0 84 82 d6 3e 88 db 7a bc 33 b4 0e 3d 74 c6 38 bc
       0.4189645 -0.015311129 0.03483982 -0.011277784
0001c0 18 76 67 bf bf c5 26 be 9b f2 e4 bd 44 fe a8 3e
       -0.9041457 -0.16286372 -0.11179086 0.3300649
0001d0 a2 55 bc 3c 5a b3 24 3c a0 f0 0b 3f 93 07 e6 be
       0.022990052 0.010052526 0.5466404 -0.44927654
0001e0 10 f4 a4 3c 32 d8 5a bd 4a 01 bd be c5 5a 23 bd
       0.02013591 -0.053428836 -0.36915046 -0.039881486
0001f0 ec fe 8e 3d ec f5 e6 ba 19 94 6c be e6 bf a8 3d
       0.06982216 -0.0017620898 -0.2310337 0.08239727
000200 91 45 17 bf eb 39 c0 be 9f 3e 8e be e3 f6 13 bd
       -0.59090525 -0.37544188 -0.2778215 -0.03612412
000210 c1 b1 10 3e d3 9f bf be 67 bd a4 3d 1f f3 1f 3f
       0.14130308 -0.37426624 0.08043938 0.6248035
000220 71 64 12 bd 25 d9 60 3e 4a b3 32 3f 25 f4 05 3e
       -0.03574032 0.21957834 0.69804823 0.13081415
000230 20 92 3a bb c0 e2 02 3f 8b 22 cc bd 94 ef ae 3e
       -0.0028468445 0.51127243 -0.09967526 0.3416716
000240 53 ac 8a 3e f2 8c af bb 62 87 88 3e 29 15 19 bf
       0.27084598 -0.005357378 0.2666579 -0.5979791
000250 d6 06 f0 bd 8a 7d 12 be 52 92 9e 3e 27 60 78 be
       -0.11720054 -0.14305702 0.3097101 -0.24255429
000260 7a 09 0e 3c 8f a6 41 bd 61 97 f8 bd d3 59 ae 3e
       0.008669252 -0.047277983 -0.12138248 0.34052905
000270 8f dd df bd a9 15 9b be 32 de d9 3e 23 30 ef 3e
       -0.10930931 -0.30289963 0.42552334 0.46716413
000280 9c 20 4c 3e 16 39 7c 3d 90 97 26 be f4 07 a0 3e
       0.19934314 0.06157788 -0.16268754 0.31256068
000290 ac 10 1d bf 0e 04 a7 3e 90 9f 4c 3f 77 04 5f be
       -0.61353564 0.3262028 0.79930973 -0.21779047
0002a0 66 ac ee be 7f 50 00 3f fc 03 d4 be 72 75 0a be
       -0.46615905 0.5012283 -0.4140929 -0.13521364
0002b0 94 8d c1 bd 07 66 ff bd de 48 f4 3d 24 cb da 3d
       -0.09450832 -0.12470632 0.11927961 0.10683277
0002c0 1d 18 a0 bd 27 13 e6 3e 63 46 a7 3e dd 41 1e 3f
       -0.07817099 0.44936487 0.32670888 0.6181925
0002d0 c3 91 19 be fb 34 a9 be bd 70 cd 3d 08 b7 44 be
       -0.1499701 -0.33048233 0.10031269 -0.19210446
0002e0 b3 6e 1d bf cf 6c 3b 3e 21 83 55 bd f0 40 6e 3d
       -0.6149704 0.18303226 -0.052127007 0.058167398
0002f0 1c f3 08 be 0a 69 a1 be fa f3 7e 3e d1 cf 17 bd
       -0.13373989 -0.3152545 0.24897757 -0.037063424
000300 9a 03 6d 3e 23 58 92 be 80 86 b1 3e c7 f5 38 3e
       0.23145905 -0.28582868 0.34672928 0.18062507
000310 8f 6f ff bd 61 40 14 3e 93 b2 1a 3e 7a 27 0d bf
       -0.1247245 0.14477684 0.15107183 -0.5513836
000320 12 14 69 be cc cf b7 bc 80 92 93 3e 3c 9c 3c 3d
       -0.22761562 -0.022437952 0.28822708 0.046047434
000330 f5 d5 26 3e 4a f0 68 3d 45 bc c7 3e c1 8d 6a 3e
       0.16292556 0.056869783 0.39010826 0.22905637
000340 79 85 3b be be 9f ca bd de a7 df 3e 0b 86 df 3e
       -0.18312635 -0.0989375 0.4368276 0.43656954
000350 3b 23 b3 be 1d 6e 27 be 3f e4 f4 3e 46 c6 10 3e
       -0.34987816 -0.16350599 0.47830388 0.14138135
000360 2b be dd bc 8c 87 c3 be 93 4c 24 3e ff 0a d3 be
       -0.027068218 -0.38189352 0.16044836 -0.41219327
000370 d6 ca a5 be 31 4c e3 be 48 a9 b2 3e 7f 63 70 be
       -0.32381314 -0.44394067 0.34894776 -0.23475455
000380 31 76 53 3d be f5 5b bd 96 f5 cb 3c d6 2b 1a bd
       0.051626388 -0.053701155 0.024897378 -0.03763946
000390 cd 8e 35 bf 82 16 52 3e 9d 04 09 bf 34 4b 25 bc
       -0.7092102 0.20516399 -0.53522664 -0.010088731
0003a0 30 3e e3 be df 8a be 3e b7 d1 a3 be 23 c4 0f bf
       -0.44383383 0.37215325 -0.31995937 -0.56158656
0003b0 fd 1a 54 be d6 d1 13 be 0f 16 68 3e 5c b1 03 3f
       -0.2071342 -0.14435515 0.22664665 0.51442504
0003c0 48 19 7f 3e c1 e2 06 bf 03 37 e4 3e 48 e5 f8 be
       0.24911988 -0.5268975 0.4457322 -0.48612428
0003d0 df 36 37 3d 29 71 2a 3d 84 e2 43 be 03 a7 1d be
       0.044730064 0.041611824 -0.19129378 -0.15395741
0003e0 2c 93 94 be cc 30 2a 3e 97 ed ea bb 6e 1f 58 bd
       -0.29018533 0.16620177 -0.007169436 -0.05276435
0003f0 f0 cf 9c be a3 22 07 3e 7c 8d e4 bd bf ce 08 3f
       -0.30627394 0.13196807 -0.111597985 0.5344047

feature_layers.0.bias f4 [128]
000000 7d d7 08 3e 7f 97 d6 bd c7 f7 1d 3d d6 ef 2d 3e
       0.13363452 -0.10478114 0.038566377 0.16986021
000010 c5 2e 24 be 4d 25 98 3b af 17 e7 bc ce 77 57 3e
       -0.16033466 0.0046431185 -0.028209535 0.21041796
000020 c8 21 6b 3e 13 da 32 3e 71 82 b5 3c 65 a9 c0 3d
       0.22962105 0.17466001 0.022156926 0.094073094
000030 d7 d1 53 3e 8d 1f 96 3d 51 65 9f bd 5d 66 fb bd
       0.20685516 0.073302366 -0.077829964 -0.122753836
000040 44 24 c1 bd 8c b0 9b 3e 41 46 7e 3e 3a 87 b6 bd
       -0.09430745 0.30408132 0.24831487 -0.08912511
000050 0b 7d 17 3e 74 27 9f 3d 68 73 04 be b9 c0 55 3d
       0.14793794 0.07771197 -0.12934649 0.052185748
000060 0b ef db bd 84 eb 68 bc 01 e3 43 3e 12 19 7b 3d
       -0.10738953 -0.014216308 0.19129564 0.061303206
000070 df 50 81 3d 02 99 9e bd 84 4c 2c 3d 5e 7e 4e be
       0.06314253 -0.07744028 0.04206516 -0.20165393
000080 6a be 19 3e 98 d9 68 3d b1 5c 84 3e 98 60 47 be
       0.15014043 0.05684814 0.25851968 -0.19470441
000090 48 5c e2 3d 59 96 24 3e 9b dd 1c be 57 b6 88 be
       0.110527575 0.16072978 -0.15318911 -0.26701614
0000a0 15 cd 1b 3e 11 cd ba 3d a0 3c 31 be f3 9e 3c 3e
       0.15214951 0.091211446 -0.17308283 0.1842001
0000b0 6e a7 97 3e 4b 58 39 3e 16 a5 47 3d c9 0a e2 3d
       0.29619926 0.18100087 0.048741423 0.11037213
0000c0 d3 9b 12 3e cd e2 bc bd ef f5 86 3d 03 bd b2 3d
       0.14317255 -0.09222946 0.06589877 0.087274574
0000d0 1b 85 3e 3d f4 91 e5 bd e2 dd 84 3e ee 44 42 3e
       0.046513658 -0.11209479 0.25950533 0.18971607
0000e0 a7 ab c3 bd b4 6f 58 3d 76 92 18 be e6 7d 07 3d
       -0.095542245 0.052840903 -0.1489962 0.03307905
0000f0 5f d9 88 3e 7a 7a 07 be a7 6d af bd 18 65 cb 3d
       0.2672834 -0.13230315 -0.085658364 0.099313915
000100 9b f0 76 bd 23 e7 00 3e c9 33 96 be e6 a1 3f be
       -0.060288053 0.12588172 -0.29336384 -0.18714103
000110 8f e5 81 be ee b4 d6 3d 43 f7 a0 3d 87 dd 7f be
       -0.25370452 0.10483728 0.078596614 -0.2498685
000120 d7 9d 91 3e 43 72 69 3e 1f 38 4b 3e 57 d8 59 be
       0.28440735 0.22797494 0.19845627 -0.21273933
000130 ab 40 07 3e a0 a4 dc ba 7f 77 a2 3d 12 f0 77 3e
       0.13208263 -0.001683373 0.07932948 0.24212673
000140 59 b8 96 3e d9 da 13 be 99 61 06 be ab 52 39 3e
       0.2943752 -0.14438953 -0.13123168 0.18097942
000150 a6 97 b1 ba 2a 65 9e 3d 0d 67 18 3d 32 96 b7 3d
       -0.0013549223 0.07734139 0.037207652 0.08964194
000160 a0 ea bd 3d a5 51 07 3d 2b 4a 80 3c fc e0 48 3e
       0.09273267 0.033036847 0.015660366 0.19617075
000170 0c b9 58 3e 2a a6 27 bc 5e c2 52 be 6a 7e 37 3e
       0.2116434 -0.010232488 -0.20581958 0.17919317
000180 07 76 e2 bd a2 fe 0f 3e b2 29 3d 3d e1 c3 16 3e
       -0.11057668 0.14061978 0.046182342 0.1472316
000190 74 c6 c6 bd 81 8c 1a 3e cb 2c 1d bd 83 98 03 3e
       -0.09705821 0.1509266 -0.038372796 0.12851147
0001a0 18 7d aa bd 76 97 89 3d ce 48 23 3e b1 ee f5 3d
       -0.08324641 0.06718342 0.15945742 0.120084174
0001b0 9a 5f 78 3e 5c fa b8 bd 92 01 a0 3e 6d 47 26 3e
       0.24255219 -0.09032127 0.31251198 0.16238184
0001c0 bc 12 27 3d 27 56 83 3e 2b 38 f0 3d e2 04 42 3c
       0.04078935 0.25651667 0.11729463 0.0118419845
0001d0 97 d2 18 3e 82 91 0a be 57 0a 88 3e 7e fe 09 bd
       0.14924084 -0.1353207 0.2657039 -0.03368997
0001e0 5d 3a 00 be 3c 18 63 3e d1 f2 91 3c 5f 45 d6 bd
       -0.12522264 0.22177213 0.01781598 -0.1046245
0001f0 f9 21 b6 bd 30 95 7a 3e c0 52 4f 3c dc ee 89 3b
       -0.088931985 0.24470973 0.0126540065 0.0042093825

feature_layers.1.weight f4 [128, 128]
000000 dd c3 1e 3e 73 07 84 3d 89 15 35 3e 3b 85 a0 3d
       0.15504403 0.06446733 0.17683996 0.07837912
000010 93 73 88 bd 2b e9 67 be b1 cc 08 3d 11 7c 3d 3e
       -0.06662669 -0.2264754 0.033398334 0.18504359
000020 00 40 d1 3d e2 84 1a bc 06 eb 84 3e 82 3a 80 3c
       0.10217285 -0.009431096 0.2596056 0.015652899
000030 bd 77 34 be 70 c6 ea 3c c6 17 ce 3d 4e dc 48 3e
       -0.17623802 0.028659075 0.10063128 0.1961529
000040 89 f2 f7 3d d2 ad cf bc 3d 0f 50 3e 9f a3 6f bd
       0.12106807 -0.025351439 0.20318313 -0.05850565
000050 34 06 16 3e 0d 6e 3d be 30 93 e6 bd 82 ef 0c be
       0.14650804 -0.18499012 -0.112585425 -0.1376324
000060 04 40 1d 3e 90 0f 7a 3e 1a 9f 3d be a7 5d 05 3e
       0.15356451 0.24419999 -0.18517724 0.13024007
000070 77 b2 e7 3c 00 65 b7 bc 72 0c 50 3c 55 5f c4 3d
       0.02828334 -0.022387028 0.01269828 0.09588496
000080 9e dc 00 3e eb 7f 89 bd 48 b7 12 bd 4e 1b 88 be
       0.12584159 -0.067138515 -0.035819322 -0.26583332
000090 62 69 b8 3d 7b 4b 05 3e 2f c5 38 bc 63 7f 90 be
       0.09004475 0.13017075 -0.011277481 -0.28222188
0000a0 3a 3e 3e 3d f6 ce 00 bd 5a 91 54 3e b0 20 6d 3d
       0.046446063 -0.031447373 0.20758572 0.0578925
0000b0 00 7c 90 bc 29 fa fe bb 03 9a b3 3d 1f b7 f2 3d
       -0.017637253 -0.0077812863 0.0876961 0.11851334
0000c0 b1 9d 6c be 8a cd 26 bd b2 72 30 bd 1a b3 45 3e
       -0.2310703 -0.04072336 -0.043078132 0.19306603
0000d0 13 9c 2b bc 79 10 45 3e df 95 7c 3e 0a 6d 1e 3d
       -0.010474223 0.19244565 0.24666546 0.038678207
0000e0 e1 58 10 3e 5d 2c b7 bd 66 cf 30 be 35 71 ff 3d
       0.14096405 -0.089440085 -0.17266616 0.124727644
0000f0 a2 05 9f 3e 9d 0e a1 be 1a 46 a3 3d d0 0b 93 3d
       0.31058985 -0.31456462 0.07972355 0.071799874
000100 42 7e 39 3d 41 c7 56 3d f7 a1 ab 3d 15 62 ff 3d
       0.045286424 0.052436117 0.08380502 0.124698795
000110 9e 60 0f 3d fd b1 17 3e 85 c5 50 3d 81 3c 52 3d
       0.03500425 0.14813991 0.05096962 0.051327232
000120 6c 5d 80 bd 7e ba 9d 3e e3 9d 68 3e 51 87 04 3d
       -0.06267819 0.30806345 0.22716479 0.03235561
000130 87 01 c8 3d 90 52 0c 3e 35 e2 18 bd 14 a7 f0 3d
       0.09765916 0.1370337 -0.037325103 0.117506176
000140 cd 5c 24 3c d8 9a af bd ea a4 25 be 1e 2f 94 be
       0.010031891 -0.08574456 -0.16176191 -0.28942198
000150 14 71 e7 3d e7 da 1f be 4c 3e 0d be be 65 10 3e
       0.11300865 -0.15610848 -0.13793296 0.14101312
000160 6e 18 1f 3e 94 b0 04 be e7 12 dc 3d 82 1a c7 bd
       0.15536663 -0.12957984 0.10745793 -0.09721853
000170 a9 a2 4e 3e 67 34 a2 bb 4b be 51 3d 2f 71 86 3e
       0.20179237 -0.0049500945 0.05120687 0.26258227
000180 9d ea de 3d 60 c1 1c 3e 7e 04 44 3e 14 cf 2b bc
       0.10884593 0.15308142 0.19142339 -0.010486383
000190 a6 3b c4 bd d1 20 4d 3e 68 30 95 3e 62 51 fb 3c
       -0.095816895 0.2003205 0.29138494 0.030678455
0001a0 de 33 24 3e 4e ea 14 3e ba 00 fd bd f5 a9 01 be
       0.16035411 0.14542505 -0.12353654 -0.1266249
0001b0 84 d7 38 bd f2 ad 22 3c 39 7c 93 3e 91 28 bd 3c
       -0.045127407 0.009929167 0.28805712 0.023090633
0001c0 20 90 5e bb 70 9f 9b bd 40 cc 56 3d 58 56 5e 3e
       -0.0033960417 -0.0759877 0.05244088 0.21712625
0001d0 b3 b8 03 3e e8 e5 bc 3d f7 d4 b4 bd 6a b4 aa 3b
       0.12863426 0.09223539 -0.08829682 0.0052094953
0001e0 21 b9 a9 3d 18 6a 4e 3d b3 b7 c2 3d 00 23 96 be
       0.08287264 0.050394148 0.09507694 -0.29323578
0001f0 82 00 28 be 0f cf 22 3e 09 3e 1d bd c1 bf 17 3e
       -0.16406444 0.15899299 -0.03838924 0.14819242
000200 06 e8 53 be ac 26 a1 bd 86 5a 2a be 0a 6f 7d 3e
       -0.20693979 -0.07868704 -0.16636094 0.2474939
000210 66 58 cd 3a 1c b9 24 bc df d0 1e 3c ae b6 ef 3d
       0.0015666604 -0.010053899 0.009693353 0.11704765
000220 d7 c4 ac bd 88 f5 69 bd c0 f9 d6 bc 77 88 b4 3d
       -0.08435982 -0.057118922 -0.026242137 0.08815091
000230 c3 e7 46 3e 94 81 44 3e bc b8 1a 3e 12 4d a6 3c
       0.19424348 0.19190055 0.15109533 0.020300422
000240 c1 02 33 be 10 a7 8b bd 03 69 ab 3d 4d b8 3b be
       -0.1748152 -0.06818974 0.08369639 -0.18332024
000250 f8 a5 23 3e 5c c9 34 3e 27 eb 66 3d bc 29 ee 3e
       0.15981281 0.17654938 0.056376603 0.46516216
000260 aa 1e 23 bd 8d a9 44 3d 91 85 6a 3d 62 7c 30 3e
       -0.039824165 0.04801326 0.057256285 0.17234948
000270 45 11 80 bd c6 c8 13 3d da 16 92 bc 74 74 40 be
       -0.06253294 0.036080144 -0.017833162 -0.18794423
000280 03 76 0c 3e b6 3d 93 3d 4f 82 87 3d b3 55 22 bd
       0.13716893 0.07189505 0.06616651 -0.03963251
000290 6e 80 e6 bd df 81 51 3c 12 5f 0a 3e 23 4f bd 3d
       -0.11254965 0.012787311 0.13512829 0.0924361
0002a0 18 e4 48 3d 7b 91 4b bd 05 0e 3b bd 07 0b 1c 3e
       0.049045652 -0.049699288 -0.045667667 0.15238582
0002b0 1c d2 ad 3e e8 13 bf bd 32 5a 9b 3d fe cb 9f bd
       0.33949363 -0.09329969 0.07585563 -0.0780258
0002c0 c0 06 52 bd 5a 30 c3 3d 96 d1 6b 3c a6 76 d9 bd
       -0.05127597 0.09530707 0.014393231 -0.106183335
0002d0 b1 b1 e8 3b bf 3a b7 bb 41 33 a2 3d 55 21 6e 3d
       0.0071012606 -0.00559172 0.07919932 0.058137257
0002e0 cf cf fe bd 81 99 fe 3c 56 79 91 bd ab 53 88 3e
       -0.1244198 0.031079056 -0.07103221 0.26626334
0002f0 fe 42 3b 3e c6 05 05 be 80 a2 e4 3d a5 7c 87 bd
       0.18287274 -0.12990484 0.11163807 -0.06615571
000300 af d9 f1 3d 6a 6f 33 3b d4 77 46 be ef 03 87 3e
       0.11809098 0.002737964 -0.19381648 0.2637019
000310 12 3b 3e 3d d2 be 1c bd a6 19 19 3d 59 af bd 3c
       0.046443053 -0.038267918 0.037377976 0.023154901
000320 4d 66 65 3d 5c 94 c5 bb 61 dd 11 3c 86 d8 06 be
       0.056005765 -0.0060296487 0.0089028785 -0.13168535
000330 5b ef 77 3d a8 38 aa 3d b2 d3 99 3e 24 6b fc 3c
       0.060531 0.083115876 0.30044323 0.030812807
000340 08 94 e7 3d fb c8 d0 bd b4 c6 a2 bb b6 0a 51 bd
       0.113075316 -0.10194584 -0.004967535 -0.051035605
000350 57 da 8c bc b4 0f ae 3d 91 26 0a 3e d3 29 f2 3d
       -0.017193956 0.08499089 0.13491274 0.118243836
000360 b6 55 61 be 80 2a 31 be 92 15 cf bd 03 cc 7b 3d
       -0.22005352 -0.17301369 -0.10111536 0.061473858
000370 27 f1 a7 3d 44 21 0c bd c5 92 31 bd 42 1d bc bc
       0.08200293 -0.034211412 -0.04335286 -0.02296317
000380 69 fe 54 3d 5c d7 a2 3e fc 00 4d bc 32 31 81 bd
       0.052000437 0.3180493 -0.012512442 -0.063082114
000390 84 4f 18 3e e8 12 92 bc 5d d4 07 3e 64 8b 9a bd
       0.14874083 -0.01783128 0.13264604 -0.07546118
0003a0 b9 bb 22 3c e2 4e 9f bd 7a 8f 92 3d 29 20 c8 3d
       0.009932452 -0.077787176 0.07156272 0.09771759
0003b0 22 70 b9 bd 99 e1 d7 3d fb 12 0c 3e 62 9a 17 3e
       -0.09054591 0.10541076 0.13679115 0.14804986
0003c0 6e bd 93 3d 1b a6 b6 bc 42 88 1f 3e 33 b8 36 3d
       0.07213865 -0.022296002 0.15579322 0.04460926
0003d0 40 e8 4f 3d cf 53 d0 bd f4 22 4e 3e fe 3c 9a b9
       0.0507586 -0.10172235 0.20130521 -0.00029418612
0003e0 fc 08 3f be bf 56 bc 3d 7b 94 bb 3c a0 d6 48 3e
       -0.18655771 0.09196233 0.02289795 0.19613123
0003f0 b4 d9 0d bc 60 ef 27 3e 1c 51 f2 3d 83 ac 36 be
       -0.0086578615 0.16399908 0.11831877 -0.17839245

feature_layers.1.bias f4 [128]
000000 94 d7 bb 3d c9 83 40 3e 9d 7a 0a 3d e1 e4 b6 bd
       0.09171978 0.18800272 0.03380834 -0.08930374
000010 bb 15 a1 3d 2c 40 ce 3d 6d 9f ff 3c 2a 3d 9e 38
       0.07865473 0.100708336 0.03120395 7.54542e-05
000020 d0 ef 53 bc 26 d7 1b 3e 6f ec 7f bc f3 0f dd bd
       -0.012935594 0.15218791 -0.015620335 -0.10794058
000030 84 17 35 3d 4d a6 61 3d 49 5d b8 bd 6e 33 3a bd
       0.04421188 0.055090237 -0.09002168 -0.045459203
000040 8d 85 ec 3c e2 2c 81 bd 1e 12 17 3e 03 8f ff 3d
       0.028872276 -0.06307389 0.14753005 0.12478449
000050 97 60 d8 3d b8 ce 82 3d 68 8e 15 be 34 a2 7c bd
       0.10565298 0.06387085 -0.14605105 -0.061678126
000060 27 00 a9 3d 53 89 63 3d 4a 4f af 3b f9 3e b6 3d
       0.08251982 0.055550884 0.005350028 0.0889873
000070 d9 72 aa bd 9d df f8 bd 78 e2 5c 3d af bd aa 3d
       -0.08322687 -0.12152026 0.053926915 0.083369605
000080 00 d5 a9 39 6d be 1e bc 66 92 02 3e 78 79 fc bd
       0.0003239289 -0.009688956 0.12751159 -0.12327856
000090 78 ff d9 3b 90 1b d4 bd 1d 59 2f 3d 2d b5 6b 3d
       0.0066527687 -0.1035682 0.042809594 0.05754583
0000a0 ae bb af 3c 3b 9d 94 bd 9f 3c 4d 3b 96 c4 d9 3c
       0.021451797 -0.07256552 0.003131665 0.026582997
0000b0 da 9a 03 be 4c 2f ca ba 66 25 5d bd 1e 57 f1 bd
       -0.1285204 -0.0015425473 -0.053990744 -0.117841944
0000c0 72 ad ce 3d ed ce dd bc e6 0c ef bd 87 6d 15 3d
       0.10091676 -0.027076209 -0.11672382 0.036481407
0000d0 ed a7 02 bd dc 6c 4b bd 3b 14 da bb be e7 06 bd
       -0.031898428 -0.049664363 -0.0066552437 -0.03293585
0000e0 0c fa 9e 3d f7 bf 57 3d 94 3c 8c bb 73 ed ad bd
       0.077625364 0.052673306 -0.0042796824 -0.084925555
0000f0 aa 51 a4 bd e1 0a 11 bd eb 10 d6 3d af 6a e2 3d
       -0.08023389 -0.035410766 0.104524456 0.110555045
000100 0b 2c ba 3d 2f 61 11 be 70 99 c5 3d 4c 92 e2 3d
       0.09090432 -0.14197229 0.096484065 0.1106306
000110 43 d5 fb bd 56 52 8b 3d 36 6e e6 bd ed 33 0a be
       -0.12296536 0.06802814 -0.1125149 -0.1349637
000120 87 61 ab bc 8c 32 1f 3e 32 5e 2a bd 41 4a 50 3d
       -0.020920528 0.15546626 -0.041593738 0.050852064
000130 e3 17 d3 bb 6e 8a 5b 3d 28 ea ca 3d 3d 2a f9 3d
       -0.0064420565 0.053598814 0.09907943 0.121662594
000140 eb 54 5b 3d e4 ee 07 3e a9 88 f8 bd 0a 24 9d 3c
       0.05354778 0.13274723 -0.12135441 0.019182224
000150 d7 41 1e bd 6a d1 a1 bd 78 fe 9e bc cf a1 0c be
       -0.03863701 -0.07901271 -0.01940845 -0.137336
000160 f7 2c 11 bc e9 82 15 3e c8 2c 88 bd dc 54 60 bb
       -0.008860818 0.1460072 -0.06649166 -0.0034230268
000170 f0 7e 14 3e dc be 8a bd bd 74 3b 3c 8a 76 6f bd
       0.14501548 -0.06774685 0.011441407 -0.058462657
000180 c6 a0 b4 3d ad c6 d9 3d 00 f7 05 be 84 fc 45 3d
       0.088197276 0.106335975 -0.13082504 0.04833652
000190 e7 5a 06 3d 15 82 2c 3d 23 a4 d6 3d c0 61 a2 3d
       0.032801535 0.042116243 0.10480525 0.079288006
0001a0 d3 e9 6b 3d 56 45 a9 3d 64 e7 ac bd 5b 53 75 3d
       0.05759604 0.08265178 -0.08442572 0.059893947
0001b0 04 8a b2 bd 89 39 83 3d f0 35 a3 3d 5a c1 38 3d
       -0.08717731 0.06407458 0.07969272 0.04510627
0001c0 18 9c bc bd 50 53 c8 bd 0a 85 99 3d 22 94 96 3b
       -0.0920946 -0.097815156 0.07496078 0.0045952955
0001d0 34 d0 7c 3c fc 0c 8a bd c0 69 cd 3d 80 9c 56 3d
       0.015430499 -0.06740758 0.10029936 0.052395344
0001e0 f4 c1 a0 3c 0e c9 6c bd d0 a9 8e 3d 86 20 07 bc
       0.019623734 -0.05780893 0.06965983 -0.0082475
0001f0 4b 94 a8 bd 67 82 5f bd c5 95 08 be 51 8b 1d bb
       -0.0823141 -0.05456772 -0.13338383 -0.0024039338

value_stream.0.weight f4 [64, 128]
000000 fe 56 c6 bc 87 e6 fb bd a7 05 49 3e 7d 05 69 bd
       -0.024211403 -0.12299829 0.19631062 -0.05689
000010 dd 38 3c 3e c8 e7 a0 3d b4 9e 62 3c 5a ce 8c bd
       0.18381067 0.07856709 0.013831783 -0.06875296
000020 95 73 8c bc 58 8c c7 bd 36 a8 4b 3c ba 87 89 ba
       -0.017144958 -0.09743565 0.012430241 -0.001049272
000030 61 fd 27 be 9b c0 3d 3b 6e e9 12 be 6d 7a 16 3e
       -0.1640525 0.0028953913 -0.14346859 0.14695139
000040 b4 37 42 3e 81 8f 4a 3e 52 91 2f bc cc c4 e9 bd
       0.18966562 0.19781305 -0.010715799 -0.11414489
000050 56 ee 84 3d c0 6e 2f be 73 40 49 bc 12 08 40 3e
       0.064907715 -0.17132092 -0.012283432 0.18753079
000060 99 65 77 bd dc 76 9a 3e 97 cd 65 bc 0c ed 50 3e
       -0.060399625 0.30168808 -0.014026067 0.20402926
000070 f7 2d 81 3d 62 97 49 3d 15 b2 88 3e c5 60 71 3b
       0.06307595 0.049216636 0.26698366 0.003683136
000080 96 4c b6 bd 54 13 1e 3d e5 ca 8d be 66 a2 36 3e
       -0.08901326 0.03859265 -0.2769386 0.17835388
000090 15 04 39 3e 3d 21 75 3d 5b 90 88 3d b9 33 5d be
       0.18067963 0.05984615 0.066681586 -0.21601762
0000a0 00 b6 b4 3d 30 63 88 3e 45 2a 4c 3d d7 c9 f7 3d
       0.08823776 0.26638174 0.049845 0.12099045
0000b0 90 1e 14 3c b4 40 49 be 1a 04 0c 3d e4 e4 9d be
       0.00904049 -0.19653589 0.0341836 -0.30838692
0000c0 a4 40 c4 3d 26 2c 74 3d c6 91 8a 3e 66 2d c5 3d
       0.09582642 0.059612416 0.2706434 0.096278
0000d0 a9 ec 45 3e ad 37 f4 bd 81 38 a3 3d 93 58 24 3e
       0.1932856 -0.11924682 0.07969762 0.16049413
0000e0 ba 3c aa 3d f3 e1 0d 3e e0 01 d9 bd e4 30 fb bd
       0.08312364 0.13855724 -0.10596061 -0.122651845
0000f0 b8 da 5c be 61 96 2f 3e e1 85 2e bc 0b 0b c9 3d
       -0.2156781 0.17147209 -0.010652036 0.098165594
000100 e2 e7 34 3e 7f 4f 3a 3e ed f1 eb bd a0 ec 0e bc
       0.17666581 0.18194388 -0.11520753 -0.008723408
000110 ad be 6e bd 46 64 23 3c 84 ee 3c 3e fa ec ba 3e
       -0.05828731 0.0099726375 0.18450361 0.36508924
000120 77 4e 0d 3d fa 0c d6 bc c0 cf 2c 3e 41 80 85 bd
       0.034498658 -0.026129235 0.16876125 -0.06518603
000130 23 20 35 be 78 59 0c 3e bc 2d b3 3d 7b 9e 8c bd
       -0.1768804 0.13706005 0.087489575 -0.06866165
000140 2c 00 d5 3c e9 ec c6 3c 44 ee d8 3d 31 a5 7f be
       0.026001059 0.02428289 0.105923206 -0.2496536
000150 47 bf 21 be 5e 17 9d bd b6 ba 83 3c 4c 52 3a 3e
       -0.15795623 -0.076704726 0.016080242 0.18195456
000160 76 85 18 3c c0 45 82 3e 72 ba 73 3e 83 ac be 3d
       0.009309163 0.2544384 0.23801592 0.09310248
000170 6f 3d 54 bd ac 8b 97 3d 3b c4 9a bd 5e 5e 52 3d
       -0.0518164 0.07399687 -0.07556959 0.051359527
000180 7f 28 00 3e e5 89 08 be 6d 7b a0 3e 1b dc 6f bd
       0.12515448 -0.13333853 0.31344166 -0.05855952
000190 1e 74 f4 bd 5a 10 f5 3c 54 30 8d 3d e5 1b 59 bd
       -0.1193621 0.029915024 0.068939835 -0.053005118
0001a0 a6 06 e5 3d 52 8f d8 bd 4a 67 85 3d c6 8c a6 3e
       0.11182909 -0.10574211 0.065138415 0.32529277
0001b0 55 48 5d be d1 ee a1 bd c7 32 11 3e b7 17 2e 3d
       -0.21609624 -0.07906879 0.14179526 0.042503085
0001c0 78 25 17 3e d7 38 1c 3e bd 12 4b 3e 75 e2 ec bd
       0.14760387 0.15256058 0.19831367 -0.11566631
0001d0 5e 81 4e 3e 97 f5 9f 3b 4e 2c e7 bd d9 ef cd 3c
       0.20166537 0.0048815715 -0.11287747 0.025138782
0001e0 cc 21 c2 3d 5d 86 eb bd f5 3a 13 bd 7d 22 42 bc
       0.094791025 -0.11500237 -0.035944898 -0.011849043
0001f0 8b fd 7a 3e 55 9f 7d bd 52 2a a2 39 44 b6 23 3e
       0.24510781 -0.06191953 0.0003093058 0.15987498
000200 34 25 81 be f9 57 ed bd 92 ec 1b 3d 2c f5 2e be
       -0.25223696 -0.11589045 0.038067408 -0.17085713
000210 7a ca a1 ba 7b 9d 2e bd 2a 48 81 bd 4a 26 56 be
       -0.0012343668 -0.042630654 -0.06312592 -0.20913044
000220 10 61 b1 3d 5c 00 4a 3c 28 e6 fd 3c c2 a5 7f 3e
       0.08661091 0.012329187 0.030993536 0.24965575
000230 72 b6 d9 bc 33 43 cc bd 60 b0 db bd 01 fe 15 bd
       -0.026576255 -0.09973755 -0.10727 -0.03661919
000240 5f 31 6d bd 5a 1f b7 3d 76 b0 d1 bd 12 04 98 3b
       -0.057908412 0.08941527 -0.102387354 0.004639157
000250 01 7d 36 be 4e ad 9e bd 27 5d 83 3e 52 18 91 3e
       -0.17821123 -0.07747899 0.25657007 0.28338867
000260 fb 0d 1d be 6a 4b df 3d 79 5d be bd 6f 59 04 3e
       -0.15337364 0.10903056 -0.09295172 0.12924741
000270 40 4f ef 3c a4 f5 0c 3d 3b 24 87 bd 27 af 6e bd
       0.029212594 0.03441395 -0.06598707 -0.058272507
000280 3c d8 21 be 81 f3 9b bd db d4 1f be 09 ed 77 bd
       -0.15805143 -0.07614804 -0.15608542 -0.06052879
000290 7c a4 3b 3d ae dc 56 3d 23 e4 14 be e0 84 29 3d
       0.04581116 0.05245655 -0.14540152 0.041386485
0002a0 cb 6d 02 3f 43 5f 82 bd 5d f9 97 be b4 d5 80 be
       0.5094878 -0.06365826 -0.29682437 -0.25163043
0002b0 e3 66 54 3e 11 27 de bd 08 7d 1e bd 0b 95 af bc
       0.20742373 -0.10847295 -0.038693458 -0.021433374
0002c0 da f4 a4 3d 00 2f 2b 3e de 25 6e be 7e f7 3c be
       0.08054514 0.16717148 -0.23256633 -0.18453786
0002d0 6a 71 92 be f0 a1 8b bd 22 07 b0 3d 5c 27 83 be
       -0.28602153 -0.068179965 0.085951105 -0.25615966
0002e0 0e 3d d1 bd 13 7c 83 3d 44 51 0b 3e 55 e4 a4 3d
       -0.102167234 0.0642015 0.13605219 0.080513634
0002f0 3e 8f a7 3d 0a f3 52 be 2f 4c fe bc dd f3 79 bd
       0.08181618 -0.20600525 -0.031042187 -0.06102358
000300 e9 50 0b bd 9c 3e 73 be 20 5c 23 be fe 4d 28 be
       -0.03401271 -0.23754352 -0.15953112 -0.16436002
000310 c5 30 88 be 0d 21 4d bd c6 9d a6 3d bf 7d 16 bd
       -0.26599708 -0.050080348 0.08135562 -0.036741015
000320 a6 e9 e5 3d a5 3b 4b be 55 04 97 bd e7 9d 45 bd
       0.112262055 -0.19846971 -0.07373873 -0.04824629
000330 c1 6d 71 be a8 5b 1e 3e 57 dd 80 be 32 24 7d bd
       -0.23577024 0.15464652 -0.2516887 -0.061802097
000340 59 3a 5c bd 41 eb 83 bd c1 cf 72 3e df 2f a9 3d
       -0.053766582 -0.064413555 0.23712064 0.08261084
000350 fd 5e 87 3c 36 8d 99 3e cd 67 c8 3d 58 34 86 bc
       0.016524786 0.29990548 0.097854234 -0.016382381
000360 9a cb 3e be 11 79 e7 bd f7 1f c9 3d ed ad e7 3c
       -0.18632355 -0.113023885 0.0982055 0.028281176
000370 c3 d9 78 bd 43 83 75 3e cd 88 b5 be 69 90 8c bd
       -0.06075455 0.23975854 -0.35455933 -0.068634816
000380 2e 76 fb ba 3e f6 ef 3d 08 2e 33 bd ff af 1c be
       -0.0019185 0.11716889 -0.04374507 -0.15301512
000390 ce fe 5d be bf f5 63 3d 2c 33 1c 3e 8f 2c e8 bd
       -0.21679232 0.055654284 0.15253896 -0.11336624
0003a0 a6 71 ae bd c4 5b fd 3d f2 fc bd bd de ac 7c 3d
       -0.085177705 0.123710185 -0.09276761 0.061688296
0003b0 24 00 d9 3c 96 20 43 bb af 50 c1 bd 79 21 7a bd
       0.026489325 -0.0029774061 -0.09439217 -0.06106708
0003c0 18 c4 f6 bc 53 77 51 3d 5e 1b bf bc 29 75 d9 3c
       -0.030122802 0.051139187 -0.02332848 0.026545124
0003d0 be b6 20 bd 53 ec 8c 3d 41 6d 0b be 1e ec bf bd
       -0.039236777 0.06881013 -0.13615896 -0.09371208
0003e0 1c 1e b8 bd bd d9 c0 bc 1d 34 54 be 64 97 d9 3c
       -0.08990118 -0.023541326 -0.20723005 0.026561446
0003f0 46 20 b5 3c c9 a6 7b be 23 ad 86 bc 17 f1 85 3c
       0.022110116 -0.24575342 -0.01643998 0.016350312

value_stream.0.bias f4 [64]
000000 f7 72 63 bc 81 60 af 3b 09 06 cf 3d 0c c7 bb bd
       -0.01388239 0.0053520803 0.10108573 -0.091688246
000010 eb 94 ca 3c 72 5d aa bd 58 2a fd 3d f1 a0 38 3d
       0.024729213 -0.083186045 0.12361592 0.04507536
000020 3b 0e 6d 3d 36 6d e8 3c 4c 7c c3 3c 62 35 25 3e
       0.0578749 0.028372388 0.02386298 0.16133645
000030 30 54 be 3d 42 90 e0 3c d4 44 2e be c0 7b 68 3d
       0.09293401 0.027412537 -0.17018443 0.056758642
000040 6e eb 81 bc 8c f3 c8 3d d4 21 be 3c 4b 0f d7 bc
       -0.015859332 0.09812078 0.02320949 -0.02625241
000050 91 55 d1 bd c8 42 3a 3c 31 d7 18 3e 4e 3b d3 bd
       -0.102213986 0.011368461 0.14925839 -0.10314046
000060 37 9e 2e bd 9d 00 1d 3c 6c 24 d7 bc df df d2 bd
       -0.042631354 0.009582666 -0.026262484 -0.10296606
000070 bb 30 1e 3d 7a 43 80 b9 c3 7e 0f 3d b5 a4 4d 3d
       0.03862069 -0.00024464336 0.035033 0.050205905
000080 30 1c 1e 3e 4a aa 23 3e c5 71 cc bd 38 31 20 3e
       0.1544044 0.15982929 -0.09982637 0.15643775
000090 27 84 ab bd 09 38 11 3c 57 77 73 bd cf dd 91 3c
       -0.083748154 0.0088634575 -0.059439983 0.017805962
0000a0 27 ad 37 3e 1b 29 e2 bd 8f 1c 67 bd 56 be 95 bd
       0.17937146 -0.110429965 -0.05642372 -0.07311694
0000b0 79 12 9c 3d 3d 82 0a 3d 85 08 ba bc 9c 2a b2 bb
       0.07620711 0.03381561 -0.02270914 -0.0054372083
0000c0 e6 0e be 3c 34 39 c5 3d 7a 87 0b 3e 9a 9c fd bd
       0.023200464 0.09630051 0.13625899 -0.12383385
0000d0 6e 25 b5 3d ec d6 56 3d 24 b8 2d 3d 67 bf 2f bb
       0.0884503 0.05245106 0.04241194 -0.0026816966
0000e0 8d f1 9a 3b 4a 6b 45 3e ec 14 cd bd f6 f7 af bc
       0.004728502 0.19279209 -0.10013756 -0.021480542
0000f0 f6 6e b8 bc f3 74 3e 3c a1 6d d8 bb e7 19 f8 3d
       -0.022513848 0.011624563 -0.0066048657 0.121143155

value_stream.2.weight f4 [1, 64]
000000 dc 97 95 bd 55 ef 1a be f3 62 fc 3d 1b bd 37 be
       -0.073043555 -0.1513036 0.123235606 -0.17943232
000010 18 d1 3a 3e 39 06 be be 2b 2a 17 3e 55 62 05 3e
       0.18243825 -0.37114123 0.1476218 0.13025792
000020 9b a0 55 3e be 34 1d 3e 37 21 a6 3d de b4 c3 3d
       0.20862047 0.15352151 0.08111804 0.09555982
000030 ca 88 23 3e 9f af 06 3f ed a3 b0 bd c6 c3 f7 3e
       0.1597015 0.52611727 -0.08625016 0.4839155
000040 25 1a 0c be 27 a9 b2 3e a5 9c 2c be 40 00 c5 be
       -0.13681848 0.34894678 -0.1685663 -0.38476753
000050 23 7a 98 be 13 3c 97 3d 3d 5e 21 3e 9e 2c 1c be
       -0.29780683 0.07384505 0.15758605 -0.15251395
000060 2f 52 90 be 75 2e 0e be fc 5c 98 be 63 00 80 be
       -0.281877 -0.1388491 -0.2975844 -0.25000295
000070 ef 84 8d 3e e4 c2 77 3e 4e 3c 1d 3e a6 48 6a 3e
       0.27640483 0.24195439 0.15355036 0.22879276
000080 7e 32 36 3e 14 b0 9a 3d 0f 0d b3 be aa 41 09 3e
       0.17792699 0.075531155 -0.349709 0.13403955
000090 92 c1 55 be 9f ee ab be 80 d7 9c bd 3e 5b 03 3e
       -0.20874622 -0.3358049 -0.07658291 0.12827775
0000a0 12 53 30 3e 8e f7 8e bd 00 c0 e2 bd f2 82 3d be
       0.17219189 -0.06980811 -0.11071777 -0.18506983
0000b0 9a d6 85 3e 28 82 2b 3e 45 18 08 bf 3f 23 6a 3e
       0.2614029 0.1674887 -0.5316203 0.22865008
0000c0 a2 c3 ea bd e4 c4 05 3e 57 91 2c 3e 77 85 25 be
       -0.11463095 0.13063389 0.16852318 -0.16164194
0000d0 91 9c fb 3e 5d b3 46 3e 1b 74 d9 3e fc 88 c9 3e
       0.49142888 0.19404359 0.42471394 0.39362323
0000e0 95 37 3c be 8c d7 0f 3e cc d2 c9 be 91 0e f1 be
       -0.18380578 0.14047068 -0.39418638 -0.47081426
0000f0 ef e5 02 be b3 af 42 3b 9c ee b8 3e 3d 51 4a 3e
       -0.12783025 0.0029706776 0.36119545 0.19757552

advantage_stream.0.weight f4 [64, 128]
000000 a0 ec 43 bc b5 9a d1 bb 3f f1 51 be 8b fe b7 3e
       -0.011958271 -0.0063966163 -0.20502184 0.35936388
000010 1c d0 0a 3e 63 3f bb bd 18 79 b4 3c 60 f4 21 3e
       0.1355595 -0.091429494 0.022030398 0.15815878
000020 60 40 f5 3d 3d 67 87 3c ec 40 81 bc d4 83 e7 3d
       0.11975169 0.01652872 -0.015778027 0.11304441
000030 51 82 0b 3c 92 e4 c3 bd e5 ef 1a 3f db f6 2a bd
       0.008514957 -0.09565081 0.605223 -0.041739326
000040 9f bb 1d bd f2 64 70 be 77 35 24 3c f8 07 07 be
       -0.038509008 -0.23476008 0.010022513 -0.13186634
000050 ca 28 9d be 57 c9 30 be b7 9f 3f 3d 0e 0b b5 be
       -0.30695182 -0.17264305 0.046783175 -0.35359997
000060 37 55 d3 3c fc 4e 8a be e2 0a 07 be eb 62 53 bd
       0.02579747 -0.27013385 -0.13187745 -0.051608007
000070 7c 71 62 3e 68 7a 95 3e 43 5c b9 3d 89 3e 8d bd
       0.22113603 0.2919495 0.09050801 -0.06896693
000080 f4 c4 69 3d 83 95 b6 3d 11 52 4a be 04 38 c1 3d
       0.057072595 0.08915236 -0.19757868 0.09434512
000090 e8 da bd bd 68 96 31 3d 89 b0 82 bc e0 0d b9 3e
       -0.09270269 0.04335633 -0.01595332 0.36143398
0000a0 96 ba ba bd 59 c3 fd 3d 26 6b fa bd 77 de 89 3e
       -0.0911762 0.12390775 -0.12227468 0.2692754
0000b0 0c c5 4b be f4 08 1a be ce dd 16 3e c7 12 9b 3e
       -0.19899386 -0.15042478 0.1473305 0.30287763
0000c0 6f e7 b4 3c 4b be 46 be 35 25 f6 3d 87 76 b0 bd
       0.022083012 -0.19408529 0.120188154 -0.08616357
0000d0 3a 2b 18 be bb 57 54 3e f1 1f 71 be d0 30 65 be
       -0.1486024 0.20736592 -0.23547341 -0.22381902
0000e0 16 9b 1b 3e d7 f1 0a 3e 20 32 77 be 84 cb 47 be
       0.1519588 0.13568817 -0.24140215 -0.19511229
0000f0 bb dc 7b 3e 92 b0 62 3b 58 74 46 be de b1 d4 3c
       0.2459592 0.0034590107 -0.19380319 0.02596372
000100 0a c4 02 bd 82 c1 34 3d bd ad 0f 3e 5b bf ec 3d
       -0.03192524 0.044129856 0.1403112 0.11559936
000110 6f a0 9b 3d 62 72 c0 bd 7b f8 de bd 4a b1 3a 3e
       0.0759896 -0.09396817 -0.10887238 0.18231693
000120 3c bc bc 3d b2 0c 5d be e6 f1 4c 3e 14 5d 85 3a
       0.0921559 -0.21586874 0.20014152 0.0010174834
000130 ba 9b e2 3c cf 8c 53 bd 19 28 6c bc 71 f4 37 3d
       0.027662147 -0.051647957 -0.014413857 0.044910852
000140 88 63 12 be 6f 28 f2 bd 27 e6 ee 3d 93 65 4b 3e
       -0.1429578 -0.11824118 0.11664992 0.19862966
000150 22 6b df 3e 75 38 0e 3e 40 6f fa 3d 58 38 86 3c
       0.43636423 0.13888724 0.122282505 0.016384289
000160 8f 8f c7 3e f5 cf 85 be 57 2b ae 3e cc 46 42 bd
       0.38976714 -0.2613522 0.3401744 -0.0474308
000170 18 42 01 3c df c6 eb 3e 21 e8 d9 3d 0e 66 f7 bc
       0.007889293 0.46050164 0.10639978 -0.03020003
000180 10 99 ba 3b 77 67 00 be d7 84 96 bd 52 ee 18 3d
       0.005694516 -0.12539469 -0.07349556 0.037336655
000190 b8 bd fd bd 57 2f af be 6d 6d 29 bd 3f 44 3d be
       -0.123897016 -0.34215805 -0.041364122 -0.18483065
0001a0 50 24 ab bb 57 09 38 bd a9 a5 05 3e 09 dd 3e 3d
       -0.0052228346 -0.044930782 0.13051476 0.046597514
0001b0 07 9b 29 bd 14 05 6c 3c 3a 9b 93 be 2b 49 c6 bd
       -0.04140761 0.014405508 -0.28829366 -0.096819244
0001c0 47 42 1d 3e fd b5 b7 bc 28 34 ac bd 55 82 8e 3d
       0.15357314 -0.022425646 -0.084083855 0.069584526
0001d0 0e 90 a6 3e 0b 2a 28 3f 6d c7 ab bd dd a7 16 be
       0.3253178 0.6568915 -0.08387647 -0.14712472
0001e0 de b6 24 3d 90 95 25 3d 34 7a 84 be f4 4f 9b bd
       0.04021346 0.040425837 -0.25874484 -0.07583609
0001f0 26 2a 6b 3e 1e 80 83 be 83 77 e5 bb c9 ad 8d 3d
       0.22965297 -0.25683683 -0.0070027723 0.069179125
000200 53 ab f7 3d fb 18 62 bd f0 06 a7 3c 6c ba ac bd
       0.120932244 -0.055199604 0.02038905 -0.08433995
000210 2f 62 31 3e 6e 7d 20 be 6f 47 26 3e c1 d1 2c be
       0.1732261 -0.15672848 0.16238187 -0.1687689
000220 76 8e 2b be 56 ea 0a be ac bf d1 bd 7e da 44 3e
       -0.16753563 -0.13565955 -0.10241637 0.19223973
000230 54 cc 21 3e 82 c3 25 be e3 40 a3 bd 95 0b da bd
       0.15800601 -0.16187862 -0.079713605 -0.1064674
000240 06 4c 56 3e 7d ef b5 3e fa 2e b5 bd 2e de 95 ba
       0.20927438 0.35534278 -0.08846851 -0.0011434013
000250 01 b5 53 be ac de 6c 3d 4e 2f 35 be 0d 4f b1 3e
       -0.20674516 0.057829544 -0.17693827 0.34630623
000260 ee c8 8c bd c5 cf 3f 3d b8 e9 67 3e 84 0c ee bd
       -0.06874262 0.046829004 0.2264775 -0.11623481
000270 38 1d 21 3d 9f de 91 3d 87 83 10 3e 74 06 3c bd
       0.039334506 0.0712254 0.14112674 -0.04590459
000280 e5 65 3b be ed f2 f9 bc 62 60 71 3d fd 3d a2 3e
       -0.18300588 -0.030511344 0.05892981 0.31687918
000290 8f 6e bc bd b7 22 94 be 4f e9 92 be cb 18 b8 3a
       -0.09200775 -0.28932735 -0.28693625 0.0014045475
0002a0 37 7f 9e 3e 24 37 e9 bd 48 8e fa bd 8b f3 98 bd
       0.30956432 -0.1138747 -0.12234169 -0.07468327
0002b0 93 97 a0 3e 84 e1 f2 3d 41 51 4d 3e 7e b9 44 be
       0.31365642 0.1185942 0.20050527 -0.19211385
0002c0 40 5c f6 bb 5a 2f 93 be d0 50 45 3b 40 99 bc bc
       -0.0075183213 -0.28747064 0.0030107982 -0.023022294
0002d0 10 b7 41 bc ad 34 cd 3e eb 1b 05 3e af 12 ae 3d
       -0.011823431 0.4007925 0.12998931 0.08499657
0002e0 a2 b6 b4 3d 64 6c 3d bd 31 1c c5 be 1a 6c af bd
       0.08823897 -0.046245947 -0.3849807 -0.085655406
0002f0 58 c4 49 be d0 f9 bd 3d 8f 3c b1 3e f7 da 25 3e
       -0.19703805 0.092761636 0.34616515 0.1619681
000300 4a e8 85 3d 8c 12 54 3e 4b f9 a3 bc b5 3d 6d bc
       0.06538446 0.207102 -0.020016333 -0.014480044
000310 1a b8 b0 bb bb b7 a6 be 22 fe 3a bd 1f 39 a6 bd
       -0.0053930404 -0.3256205 -0.045652516 -0.08116364
000320 be e1 4e 3e a0 a4 94 3e 66 73 b9 bd b4 c6 6b bb
       0.20203301 0.2903185 -0.09055214 -0.003597659
000330 11 61 df 3c a2 0f 99 3e 1e 42 7c 3d 5b 57 f2 3d
       0.027267965 0.2989474 0.06158649 0.11833068
000340 c3 46 ae 3c 0b dd 34 bd 93 12 9a 3e b1 2b 36 3c
       0.021273976 -0.044156116 0.30092296 0.011118815
000350 e3 0b 8e 3d 23 a9 86 bc cb 7e 46 be 0e af 95 3f
       0.06935861 -0.016438073 -0.19384305 1.1694047
000360 c0 18 c6 bd 0b de 33 be 0d 41 86 3e da 68 63 bc
       -0.096726894 -0.17565171 0.26221505 -0.013879979
000370 19 48 dd 3d 3d 68 3b be 22 ed 84 be f7 02 0b 3d
       0.10804767 -0.18301482 -0.25962168 0.033938374
000380 8c 86 b5 3e c3 34 62 bc 30 27 bb 3e 6c 06 10 be
       0.35454214 -0.013806525 0.36553335 -0.1406495
000390 fe 2b 81 3d 01 57 46 3d 1d 9d 1e bd a5 a3 37 3e
       0.06307219 0.048422817 -0.038724054 0.17933519
0003a0 a9 2c 77 be ba c5 4e 3d c8 b9 53 3e 38 a9 a4 3c
       -0.2413813 0.050481535 0.20676339 0.020100221
0003b0 36 28 d2 bc 07 40 89 be 6e cc 07 3d 9e ae 6c 3e
       -0.02565394 -0.2680666 0.033153944 0.23113486
0003c0 de 4e 7c 3e dd 9a a3 3e 14 1c b6 bd de 29 76 3d
       0.2463946 0.3195409 -0.08892074 0.06009852
0003d0 d8 56 bd 3e 73 fa 84 be ea f2 34 3e 5c 83 24 3d
       0.3698032 -0.25972328 0.1767079 0.040164337
0003e0 93 26 0e 3f 22 26 f5 3d 32 5e 06 bd 4e b5 cf 3d
       0.5552761 0.11970164 -0.032804675 0.10142003
0003f0 f4 a9 27 be db ed a1 3d 27 d7 33 3d 9e c1 58 3e
       -0.16373426 0.079066955 0.043906357 0.21167609

advantage_stream.0.bias f4 [64]
000000 e5 23 b4 bd 2d f1 10 3d be 58 54 3d cd 23 81 bd
       -0.08795909 0.035386253 0.051842444 -0.063056566
000010 e0 28 8f 3d 2f 47 b3 3c 4d bf 3b bd 5b e1 ea bd
       0.06990218 0.021884529 -0.045836736 -0.114687644
000020 7e 09 54 3c 41 bb a9 bd 77 57 0c 3d b0 d5 b7 38
       0.012941716 -0.08287669 0.0342631 8.7659224e-05
000030 63 b2 ca bd 7e 98 15 3d 51 b3 69 bb 07 c7 45 3d
       -0.09897306 0.03652238 -0.003565986 0.04828551
000040 70 d3 0c 3d 45 64 ba bd d9 04 89 3c a2 5a 2d bd
       0.03438133 -0.09101156 0.016725944 -0.042322762
000050 f2 da 25 bd f2 5e 5f bd 13 d8 35 3c 9b 82 5e 3d
       -0.040492006 -0.054533906 0.011098879 0.054323774
000060 c6 5a c6 bd 4b d1 e1 3c 31 00 72 3c 60 d6 9a bd
       -0.096852824 0.027565619 0.014770553 -0.0756042
000070 79 0f 9c bd 2f e2 67 bd 4d ba f0 bc 5e 32 5e bd
       -0.07620139 -0.05661219 -0.02938571 -0.054247253
000080 1d 7d 50 bb 3c 98 41 bd ce f1 d8 3b cf a0 d1 3d
       -0.0031812855 -0.047264323 0.0066206222 0.1023575
000090 8b 00 c1 bb 10 77 7a 3d 90 48 67 bd ad 70 5b 3d
       -0.0058899573 0.061148703 -0.056465685 0.053574253
0000a0 99 1e 0a 3d 7d 6e 8e 3c 6d b1 1d bd 13 9a fd 3c
       0.033720586 0.01738667 -0.038499285 0.030957257
0000b0 0a 60 03 3c b7 cd ce 3b a2 a4 57 3d ee 38 ed 3c
       0.008018503 0.006311144 0.05264724 0.02895781
0000c0 f4 4f 36 bd 97 7b b2 3c 7d 35 0f 3d ac f0 64 bd
       -0.044509843 0.021787448 0.03496312 -0.055893585
0000d0 1f 53 93 3d 9a ec c9 3c b9 63 5a bc 0a d4 3b bb
       0.071935885 0.024648953 -0.01332944 -0.002866032
0000e0 d8 ec da bc a9 53 f0 3c 04 1b 96 3d 35 03 88 3d
       -0.026724264 0.029336767 0.073293716 0.06641237
0000f0 92 a2 da 3b d2 b6 49 bc d8 8a 8b bd b5 ea ac 3d
       0.006672212 -0.012311654 -0.06813592 0.08443204

advantage_stream.2.weight f4 [4, 64]
000000 48 0c 04 3f aa 23 69 be 9d 8e 97 3c 23 37 0d bd
       0.5158124 -0.22767511 0.01850062 -0.03447641
000010 c8 6f d3 3d e2 db 3e bc 0a c9 93 be b7 48 46 bd
       0.10324055 -0.011649104 -0.28864318 -0.04840919
000020 04 2c 1f be fb 81 03 3e 2c c6 fc be 72 2d c4 be
       -0.15544134 0.12842552 -0.49369943 -0.38315922
000030 63 67 cf 3e f2 fa 45 bf fc e8 16 3e 90 80 4e bd
       0.40508565 -0.7733604 0.14737314 -0.050415576
000040 db b6 79 bd 7f 1d a5 3e 8e b1 a4 3d 44 8b 85 3e
       -0.0609654 0.32249066 0.08041678 0.26082814
000050 b7 84 4e 3e 3d d5 0e bd 18 20 a9 3e e2 cf b0 3e
       0.20167814 -0.03487133 0.33032298 0.34533602
000060 9d 1b 3a 3e 35 b7 31 be 92 c2 ed be 79 05 5a 3e
       0.18174596 -0.17355044 -0.46437508 0.2129115
000070 26 8d cb 3e aa 29 11 3f 67 c6 08 be 51 9b 31 3e
       0.39756125 0.567042 -0.13356934 0.17344405
000080 b7 54 be be 35 17 34 be 94 7b 9a 3e 45 53 bd be
       -0.37174007 -0.17586978 0.30172408 -0.36977592
000090 c7 7c d3 3e 70 b9 17 3e d7 30 93 3e 05 78 90 3e
       0.41306135 0.14816833 0.287482 0.28216568
0000a0 af 9a fe 3e e1 24 96 3d 43 d6 09 be c2 d6 88 bd
       0.4972739 0.07331253 -0.1346064 -0.06681587
0000b0 2e 1e e2 be ba b7 4e 3e a9 29 b2 be 4c ce 8d 3e
       -0.4416365 0.20187274 -0.3479741 0.27696455
0000c0 05 10 b5 be 40 04 d5 be 10 a0 8a bd 11 2c e7 3d
       -0.35363784 -0.41604805 -0.06768811 0.11287702
0000d0 8f 8b 0c 3e c4 64 dd bd c8 a4 71 3e 66 85 43 3e
       0.13725112 -0.10810235 0.23598015 0.19093856
0000e0 ab 6e e8 3b bf 99 12 be 63 8b dc bd f5 6c 6f bd
       0.007093271 -0.14316462 -0.107687734 -0.05845352
0000f0 d0 3a 8a be 9c 29 44 3f d2 24 62 3d 14 8a 19 bf
       -0.26997995 0.7662599 0.055210896 -0.59976315
000100 46 03 51 3e f3 34 7b bf 2a b5 ee 3e 68 56 53 be
       0.20411405 -0.9812767 0.46622592 -0.2063843
000110 32 da 5a bc 32 39 52 bc 89 03 fb 3e 24 af 15 3e
       -0.013357686 -0.012831019 0.49026135 0.14617592
000120 07 ed 4c 3e 44 87 f6 3d 76 7d 92 3e 41 1a 68 3e
       0.20012294 0.120375186 0.28611344 0.22666265
000130 04 8f 9c bd 8e 7d 82 bc d1 8d f5 3d 2b 95 81 bd
       -0.076444656 -0.01592901 0.1198994 -0.0632728
000140 cc 57 0b be 27 87 69 3e 83 01 06 bf fd 85 4d bf
       -0.1360771 0.22805463 -0.52346057 -0.80282575
000150 24 1d a8 bc 6e 06 02 3b c2 2d 24 3f 6a 59 c7 3e
       -0.020521708 0.0019840258 0.6413232 0.38935405
000160 f4 52 ab 3e 72 8d 93 3e 4f ef 84 3e f9 f0 c1 be
       0.33461726 0.28818852 0.25963828 -0.3787916
000170 56 48 f2 bd fc 7f ba 3e 2f b8 85 3e 8c 05 07 bf
       -0.11830203 0.3642577 0.26117083 -0.5274284
000180 87 08 9e 3e 73 eb 18 be 04 00 9b 3e ae dd 0f bf
       0.3086588 -0.14933567 0.3027345 -0.5619763
000190 45 4e 93 3e 8c 06 10 3f 60 5e 62 bf bc 6c b9 3e
       0.28770652 0.5625999 -0.88425255 0.3621577
0001a0 82 06 39 3e c5 49 35 3e cc 11 84 3e 60 95 cc 3e
       0.18068889 0.17703922 0.25794828 0.39957714
0001b0 dc 75 13 bd 5e 99 47 be a0 a5 f0 bd ee 94 da 3e
       -0.03600107 -0.19492099 -0.117503405 0.4269175
0001c0 15 78 f4 3e b7 87 1b 3e ca 8a ae 3e 16 6c d8 3c
       0.47747865 0.1518849 0.34090263 0.026418727
0001d0 dc 4c 09 be 65 03 a7 3d a0 ca 73 3c 1f 73 47 3d
       -0.13408226 0.08154944 0.0148798525 0.048693772
0001e0 86 71 af 3d 1e 49 f2 3e b0 f1 89 3d 76 f3 3b be
       0.08566575 0.4732141 0.06735551 -0.18354592
0001f0 ac 34 34 3e 90 67 9d 3e a4 26 78 3e 98 1c 10 bf
       0.17598218 0.30743074 0.2423349 -0.5629363
000200 c3 29 9c be 40 26 44 bd 6b fe ed 3a 17 99 30 3d
       -0.30500612 -0.04788804 0.0018157488 0.043114748
000210 4a 1d 86 3e c1 25 ab bd 46 96 05 3e 07 89 56 be
       0.2619422 -0.0835681 0.13045606 -0.2095071
000220 0d ca 32 3f 26 c9 fb 3d f3 67 d0 bd 72 f4 ed 3e
       0.69839555 0.122942254 -0.10176077 0.4647556
000230 77 a6 cb bc 5d 3e 2e 3e ff b3 41 bd 5c 95 93 be
       -0.02485965 0.17015977 -0.0472908 -0.2882489
000240 de 22 2b 3e 1a 26 67 3e 2f 7e dd be 17 b4 34 3e
       0.1671252 0.22573128 -0.43260333 0.17646824
000250 6b b4 8c bd cd 47 a4 be b9 eb 45 be 2e 69 88 be
       -0.068703495 -0.3208603 -0.19328202 -0.26642746
000260 d8 48 0c 3e 0c 6a 84 3e 1d 1a e6 3d 6b be d1 3d
       0.13699663 0.25862157 0.112354495 0.102413975
000270 f2 52 36 be 3b 65 b4 be 10 9e 85 3e b5 47 2f 3e
       -0.17805079 -0.35233483 0.26097155 0.17117198
000280 e8 00 d2 bd cf 2d b0 bd 39 fb f7 be c4 bc 03 3f
       -0.10254079 -0.08602487 -0.48433855 0.5145991
000290 3e 71 2d be ba d7 dd be 28 c5 30 3e fd 4c b4 be
       -0.1693773 -0.4332865 0.17262709 -0.35214987
0002a0 86 51 a4 3e 35 52 c7 be 61 39 bb bc 62 99 07 bd
       0.32093447 -0.38929906 -0.022854509 -0.03310526
0002b0 15 05 d0 3e 7c 28 6d bd 93 54 27 3f c5 cb e4 be
       0.40628877 -0.057899937 0.65363425 -0.44686714
0002c0 80 c8 20 3e e2 bf 1b 3e bd 52 86 be de 28 20 be
       0.15701485 0.15209916 -0.26235 -0.1564059
0002d0 ec db c7 3d 6a e5 26 be 5a 3c 2c be 9d 94 2e bf
       0.09758744 -0.16298452 -0.16819897 -0.68195516
0002e0 50 82 6a 3e 02 50 db 3e a6 d9 e4 3b 1f 83 46 3e
       0.22901273 0.4283448 0.0069839535 0.19385956
0002f0 d8 80 0e 3e 2e a5 da 3e 47 09 4c be 1f 0d 2c 3f
       0.13916337 0.42704147 -0.19925414 0.6720752
000300 ab 14 0a be 41 a0 9f bd 10 49 3e 3e 47 be 80 be
       -0.13484447 -0.07794238 0.18582559 -0.2514517
000310 50 a4 02 3e 0d d0 9d bc 0a 7d 99 bd a9 9e 5d be
       0.12757993 -0.019264245 -0.074945524 -0.21642555
000320 47 f9 fd 3d be 99 e9 be 6b 46 24 3e 49 f0 e9 3e
       0.124010615 -0.45625108 0.16042487 0.45691136
000330 2c 90 93 3e 71 32 dd 3e bb 13 db be 8e fe e6 3d
       0.28820932 0.43202546 -0.4278849 0.11279021
000340 6f b3 3a be 16 85 8f bd 26 62 ca b8 1d d9 2d 3e
       -0.18232511 -0.07007806 -9.650392e-05 0.16977353
000350 ab a8 1d 3d 2d 16 32 3d 0f 44 f7 be 5b b8 16 be
       0.038490932 0.04347818 -0.48294112 -0.14718764
000360 a4 14 8f be 5e 86 bd 3e e0 06 5a 3e a0 ec 10 be
       -0.27945435 0.37016577 0.21291685 -0.14152765
000370 7a 8a 95 3d a3 6b 25 be 0e e9 cf be ba 7b d7 bd
       0.07301803 -0.16154341 -0.40607494 -0.10521646
000380 fe da 9a 3e 22 68 29 3d b4 8f da be 7e 69 25 3f
       0.30245203 0.041359074 -0.42687762 0.64614093
000390 5b 73 41 be da 66 8e be 5a 15 86 3e 0e 47 9a bd
       -0.18891661 -0.27812845 0.26188165 -0.07533084
0003a0 71 9d c1 be 8e c4 86 3c 1a f5 38 3d c6 d6 8e 3d
       -0.3781543 0.016451146 0.045155622 0.069745585
0003b0 fc a1 cb 3e b2 1e d7 3e 8e 60 bb 3e 4c b8 82 be
       0.39772022 0.42015606 0.36597103 -0.25531232
0003c0 69 56 cb 3e d6 a2 3e bd a9 83 82 bd ec 1c b2 3c
       0.39714363 -0.04654201 -0.063727684 0.021742307
0003d0 d5 e3 a5 be 07 fa 48 3e 17 f0 ca bc 49 fb ab 3e
       -0.32400385 0.19626628 -0.024772687 0.33590153
0003e0 b8 b3 93 3d 33 43 a4 bc b1 f0 ba 3e bc 1c 31 3e
       0.07212013 -0.020051574 0.36511758 0.17296118
0003f0 f9 6f 5e be a8 f2 00 bf 89 2b f3 bd 9d 02 15 3f
       -0.21722402 -0.50370264 -0.11873538 0.5820711

advantage_stream.2.bias f4 [4]
000000 1f 53 de 3d ea e1 19 3d 2d 2e ff 3d c6 28 f4 bd
       0.10855698 0.037568964 0.12459979 -0.119218394
