models/snake_dqn_ep461_score29_20250303_093911.pt (torch, 896034 bytes, 44 tensors)

feature_layers.0.weight f4 [128, 24]
-0.45723122 0.5324934 -0.45732749 0.16626449 0.37574747 -0.62014294 -0.119037 -0.3152292
-0.057142895 -0.12919395 -0.06630034 -0.24208918 0.12416026 0.12157802 -0.41582102 0.5441824
-0.76637125 1.0132567 0.4694554 -0.3709193 0.5746155 -0.11442882 0.32587212 0.011842341
-0.020524116 0.11215244 -0.049171656 -0.4323977 -0.20153885 -0.47946602 0.26987797 -0.02418603
-0.18310319 0.066377774 0.14424981 0.5810368 -0.02596545 0.36577436 -0.00040386728 -0.042990293
0.23545942 0.89955837 0.116477 -0.052545764 0.040631577 0.0014988622 0.41823804 -0.112590976
-0.22798671 -0.38661945 0.082081914 -0.16576603 -0.114787765 -0.34174106 0.25066966 0.26981688
-0.18119673 -0.43700114 -0.16747452 -0.5262358 0.15411222 -0.20711648 0.36068484 0.05871564
-0.47013444 -0.12333509 -0.35305157 -0.2960719 -0.15065575 0.060614858 0.4168072 -0.036740873
0.13221043 0.3179586 0.8696948 0.5250276 0.13797133 0.32773018 0.07100095 0.25918704
0.31320176 0.2866354 0.18746513 0.8354807 0.1354609 -0.06932888 -0.5975401 0.3300084
-0.013107143 0.082084246 0.09796652 -0.42499593 0.43178412 -0.18552373 0.5527211 -0.22123715
0.041631423 0.8843549 -0.20384291 -0.3130264 0.26350757 0.10075086 -0.37683457 -0.079615854
-0.10606206 0.43087485 0.36216244 0.13160439 -0.61596304 -0.53242576 -0.24865603 -0.16482584
-0.6364434 0.402885 0.55370796 0.26898724 0.3948949 0.21310255 -0.07733651 -0.14115728
0.10819469 0.1518743 -0.26111355 0.16749017 -0.2221327 0.28986132 -0.04716027 -0.091684654
0.36111385 0.11246175 -0.14343204 -0.073998764 -0.5790082 0.039253846 -0.37189847 0.7751531
-0.3073182 0.31055075 -0.23465557 -0.10228624 0.47232753 -0.20788525 0.22814247 -0.26013142
-0.21705067 0.11991127 -0.31065428 -0.2815167 0.15112436 0.42243168 -0.4717535 0.04384882
0.34408286 0.11629517 0.026079807 0.037373472 0.17235513 -0.10514407 -0.2992093 -0.0027319023
-0.2799076 -0.19208407 -0.38595182 0.34533507 0.10765114 0.50819916 -0.46019545 0.3399397
0.0019125459 -0.017393524 -0.014872387 -0.05087747 -0.30188948 -0.22933413 0.33541724 0.2450892
0.49968788 -0.0741666 0.056789972 0.25562152 -0.2995102 -0.37922338 -0.36385667 0.24151726
0.42895085 0.2403257 -0.00868455 -0.08614481 0.20837025 -0.008077324 0.2895905 0.5255812
-0.011025642 -0.15700004 -0.20202672 0.324199 -0.11990701 0.063886896 -0.14351249 -0.04150739
-0.1167938 0.20669337 0.22557333 0.4741939 -0.35799325 0.05181717 -0.1359316 -0.02277193
0.122870855 0.3014846 -0.15859081 -0.39143133 -0.4763022 0.4502116 -0.1514845 0.18500517
0.3791599 -0.3020977 -0.091525465 0.3050231 0.19893637 -0.30257225 0.18569396 -0.17043304
-0.38150045 -0.3231016 0.4346757 -0.18190776 -0.097541474 -0.01937858 -0.2571122 -0.3140308
-0.07425082 -0.50759333 0.066843234 0.019288784 -0.17479333 0.4599031 -0.33304146 0.09567185
0.24733372 0.18255423 0.22406167 -0.2547262 -0.1736879 0.012624807 -0.07955098 -0.24239765
0.14996888 0.30777207 -0.06709382 0.4713659 -0.71074045 -0.21106581 -0.21648654 -0.39559197
00000000: 361a eabe 7d51 083f d426 eabe 3d41 2a3e
00000010: f961 c03e b0c1 1ebf acc9 f3bd b965 a1be
00000020: ab0e 6abd 6b4b 04be 79c8 87bd 3ae6 77be
00000030: bc47 fe3d e6fd f83d 7ee6 d4be 8a4f 0b3f
00000040: e830 44bf 65b2 813f 755c f03e 22e9 bdbe
00000050: 001a 133f a859 eabd b6d8 a63e 6106 423c
00000060: 3122 a8bc 2eb0 e53d 3868 49bd 3b63 ddbe
00000070: 3360 4ebe 927c f5be 722d 8a3e c821 c6bc
00000080: 677f 3bbe 12f1 873d 39b6 133e d4be 143f
00000090: 7fb5 d4bc c746 bb3e 26be d3b9 9716 30bd
000000a0: 461c 713e 7549 663f 7e8b ee3d 3a3a 57bd
000000b0: 4c6d 263d 7875 c43a 4c23 d63e 1996 e6bd
000000c0: 5975 69be fcf2 c5be 901a a83d 92be 29be
000000d0: d915 ebbd aff8 aebe c657 803e 7025 8a3e
000000e0: a38b 39be 9dbe dfbe 717e 2bbe 64b7 06bf
000000f0: 98cf 1d3e 5816 54be afab b83e d07f 703d
00000100: 76b5 f0be 1c97 fcbd 2dc3 b4be bc96 97be
00000110: 8045 1abe 4947 783d c167 d53e 997d 16bd
00000120: 2c62 073e 78cb a23e 52a4 5e3f 3568 063f
00000130: 5b48 0d3e 40cc a73e f268 913d 2ab4 843e
00000140: fb5b a03e e0c1 923e dcf6 3f3e 10e2 553f
00000150: 43b6 0a3e 4dfc 8dbd 63f8 18bf dcf6 a83e
00000160: 58bf 56bc c91b a83d aca2 c83d 1199 d9be
00000170: cf12 dd3e eff9 3dbe 217f 0d3f fe8b 62be
00000180: b685 2a3d 1565 623f 32bc 50be ff44 a0be
00000190: 77ea 863e 7856 ce3d 76f0 c0be a30d a3bd
000001a0: 1137 d9bd a19b dc3e 5b6d b93e 4dc3 063e
000001b0: c1af 1dbf 0e4d 08bf b09f 7ebe 1bc8 28be
000001c0: f4ed 22bf f146 ce3e cebf 0d3f b2b8 893e
000001d0: aa2f ca3e 8e37 5a3e 9b62 9ebd 898b 10be
000001e0: 2d95 dd3d f084 1b3e adb0 85be 8b82 2b3e
000001f0: c176 63be b468 943e 212b 41bd 2ac5 bbbd
00000200: eae3 b83e 5952 e63d d9df 12be aa8c 97bd
00000210: e239 14bf a4c8 203d 7a69 bebe 6f70 463f
00000220: d058 9dbe 8200 9f3e 8d49 70be 737b d1bd
00000230: ead4 f13e dfdf 54be 2e9e 693e f22f 85be
00000240: 8842 5ebe 0a94 f53d 140e 9fbe f522 90be
00000250: 58c0 1a3e f748 d83e ad89 f1be d29a 333d
00000260: a12b b03e 292c ee3d 52a5 d53c ed14 193d
00000270: dd7d 303e c655 d7bd f631 99be b709 33bb
00000280: 0d50 8fbe b0b1 44be 7a9b c5be c2cf b03e
00000290: 3378 dc3d 5719 023f bd9e ebbe 940c ae3e
000002a0: 64ae fa3a dd7c 8ebc 50ab 73bc e564 50bd
000002b0: 4291 9abe 91d6 6abe cfbb ab3e aaf8 7a3e
000002c0: 17d7 ff3e a9e4 97bd 9a9c 683d d3e0 823e
000002d0: 6759 99be 9129 c2be 6c4b babe 4d50 773e
000002e0: 729f db3e f117 763e a549 0ebc b16c b0bd
000002f0: 035f 553e c156 04bc 3545 943e 7d8c 063f
00000300: e5a4 34bc 9ec4 20be 18e0 4ebe 69fd a53e
00000310: ce91 f5bd 22d7 823d f0f4 12be a703 2abd
00000320: 9631 efbd 6da7 533e b2fc 663e 8bc9 f23e
00000330: e44a b7be 3e3e 543d a731 0bbe 338c babc
00000340: b7a3 fb3d 315c 9a3e a165 22be b069 c8be
00000350: e2dd f3be 2382 e63e c11e 1bbe ff71 3d3e
00000360: 3f21 c23e 8dac 9abe b471 bbbd fd2b 9c3e
00000370: fab5 4b3e c0ea 9abe 8f26 3e3e 0086 2ebe
00000380: 0754 c3be 936d a5be d08d de3e 0746 3abe
00000390: d3c3 c7bd d4bf 9ebc 36a4 83be a5c8 a0be
000003a0: d010 98bd a3f1 01bf 1be5 883d 8303 9e3c
000003b0: 06fd 32be 6b78 eb3e 6984 aabe 9aef c33d
000003c0: 0d45 7d3e 7fef 3a3e 6c70 653e 796b 82be
000003d0: 3edb 31be 47d8 4e3c a0eb a2bd 1737 78be
000003e0: 7191 193e 4d94 9d3e 7c68 89bd df56 f13e
000003f0: 16f3 35bf a321 58be a6ae 5dbe 088b cabe

feature_layers.0.bias f4 [128]
-0.18743269 -0.13908713 -0.017286874 0.23859262 0.19252183 -0.018721921 0.20453316 0.26327613
0.30491972 0.23894149 0.19763523 -0.022094399 0.33182302 -0.012258047 -0.023925992 0.07064012
0.030995874 0.11242756 -0.073567875 -0.17802326 0.08882943 -0.032485966 0.27926487 -0.18718609
-0.1606368 0.04470427 -0.13539264 0.10767554 0.15660013 0.37674648 -0.08692404 -0.261544
-0.06875238 -0.061539512 -0.01943681 0.22563411 -0.031038696 -0.12171444 -0.21114318 0.29217532
0.017252315 -0.13154677 -0.27088824 0.366079 -0.25774032 -0.03828073 -0.21637939 -0.02006474
-0.1524956 -0.13580135 0.11253037 -0.112274766 -0.0027598166 0.052397683 0.00068299845 -0.039160762
-0.21986473 -0.14276156 -0.080728225 0.28892326 -0.07198251 -0.011730958 -0.17876029 0.21246931
-0.07803826 -0.02663622 -0.040927574 0.25095683 0.13714327 0.23904696 -0.019487757 0.09329918
0.31442297 0.262407 0.17527482 0.24940056 -0.11079539 0.23765992 -0.28317043 -0.21716712
-0.22577219 0.027440274 0.02474798 -0.20574602 0.015868954 0.28076914 -0.006115432 0.13797134
0.013404292 -0.30974552 -0.08979561 0.26175636 0.06512773 0.105518185 0.11353509 0.042798866
0.14956859 -0.1738113 0.034275074 -0.01935289 -0.08043719 0.29457086 0.12944561 -0.0008528938
-0.03884794 -0.19379829 0.29796538 0.035074417 -0.027969223 -0.3412112 -0.097103044 -0.16459624
-0.10441042 0.0077197393 0.07526837 0.21563692 -0.33011478 -0.28721082 0.28229544 0.1419648
-0.24469724 0.065515876 -0.19705658 0.17628588 0.06818653 -0.15763174 0.0016680325 -0.12034026
00000000: 5bee 3fbe db6c 0ebe 349d 8dbc a051 743e
00000010: 7124 453e b75e 99bc 2471 513e 21cc 863e
00000020: 701e 9c3e 14ad 743e e460 4a3e 50ff b4bc
00000030: b5e4 a93e fad5 48bc 7100 c4bc c4ab 903d
00000040: 0feb fd3c 6c40 e63d c1aa 96bd bb4b 36be
00000050: 34ec b53d 0110 05bd cefb 8e3e b6ad 3fbe
00000060: f97d 24be d31b 373d 5ea4 0abe fe84 dc3d
00000070: c95b 203e eae4 c03e 3b05 b2bd 18e9 85be
00000080: 0cce 8cbd db10 7cbd f239 9fbc a10c 673e
00000090: dd44 febc 6c45 f9bd eb35 58be 0198 953e
000000a0: ba54 8d3c 32b4 06be ddb1 8abe b56e bb3e
000000b0: 8af6 83be 41cc 1cbd 8f92 5dbe cf5e a4bc
000000c0: ce27 1cbe 820f 0bbe 5376 e63d 50f0 e5bd
000000d0: 0ade 34bb f49e 563d 400b 333a 0967 20bd
000000e0: 3824 61be 1630 12be d754 a5bd c0ed 933e
000000f0: 916b 93bd 3433 40bc f00c 37be 8e91 593e
00000100: 86d2 9fbd 3434 dabc aca3 27bd 6a7d 803e
00000110: 496f 0c3e bac8 743e caa4 9fbc a413 bf3d
00000120: 0cfc a03e 365a 863e 3e7b 333e dc62 7f3e
00000130: b2e8 e2bd 1f5d 733e b7fb 90be 0f61 5ebe
00000140: d330 67be 6dca e03c 47bc ca3c 16af 52be
00000150: 9cff 813c f9c0 8f3e f663 c8bb 5c48 0d3e
00000160: ad9d 5b3c f796 9ebe c3e6 b7bd ee04 863e
00000170: b061 853d eb19 d83d 1685 e83d dd4d 2f3d
00000180: 8228 193e 97fb 31be 0564 0c3d f489 9ebc
00000190: 41bc a4bd fed1 963e 648d 043e bc94 5fba
000001a0: 041f 1fbd 0f73 46be eb8e 983e 31aa 0f3d
000001b0: b61f e5bc 3cb3 aebe f6dd c6bd eb8b 28be
000001c0: 21d5 d5bd def5 fc3b 4e26 9a3d edcf 5c3e
000001d0: ce04 a9be 4c0d 93be 0789 903e 385f 113e
000001e0: ea91 7abe 302d 863d 33c9 49be 4984 343e
000001f0: 61a5 8b3d 376a 21be e2a1 da3a f474 f6bd

feature_layers.1.weight f4 [128, 128]
-0.041741926 0.10014998 0.10529741 -0.13840425 0.055691935 -0.23744991 0.13297285 0.13205336
-0.001590167 0.099749565 0.21685076 0.34247646 0.1867469 0.029155267 0.04454382 -0.20892309
0.31083703 0.12203243 0.094782755 -0.070413545 0.041820724 -0.4150316 0.12508374 -0.32561505
-0.0070007225 -0.12377093 -0.06837872 0.16804345 0.1384479 0.013726293 -0.050448805 -0.22047049
0.13699605 -0.017682595 -0.09258872 0.17561653 -0.124818034 -0.08772568 -0.11785668 0.21691501
-0.20071183 0.09372416 -0.24229214 0.033878695 -0.08983257 -0.137423 0.13968094 0.21613112
0.008042986 -0.41606683 -0.21253894 0.05936477 0.040255047 -0.032541797 0.1984871 0.009775974
0.034346335 -0.1273522 -0.3438085 0.15721348 -0.05683457 0.070628665 -0.014434606 0.04164753
-0.16113956 -0.010331601 -0.039211147 0.12011972 0.14471982 0.04448449 -0.00747108 0.058296945
0.18957572 0.035702005 -0.044025987 0.28772435 -0.031892937 0.152579 0.32159638 0.07188217
-0.20801558 -0.047961146 -0.057870157 0.062766574 -0.1786264 -0.06399076 0.03829118 -0.1992963
0.030551216 -0.34146836 0.23950379 0.06320918 -0.13491635 -0.053509235 0.027669596 0.0091210175
-0.057353906 0.042620033 -0.34997654 0.16071694 -0.10451989 0.17991929 -0.2593911 -0.10839983
-0.008213941 0.013037598 0.25499782 -0.07182616 -0.027213495 -0.1763621 0.3168479 -0.07665279
0.11406077 -0.22947487 0.15189394 0.12546599 -0.32359254 0.168471 -0.01604083 0.16575769
0.072350346 -0.1671777 0.0048215147 -0.0007447321 0.10564543 -0.10340877 -0.021616979 -0.19101582
-0.21399936 0.17985532 0.09311123 -0.0986813 0.11656954 -0.02864538 -0.049842797 0.028452452
-0.12743755 -0.033031598 0.21271582 -0.091700025 0.26255354 -0.14844576 -0.12896045 -0.13177083
0.027534721 0.07377134 -0.014622916 -0.16026773 -0.14001554 0.08279268 -0.08386845 0.011443183
-0.10284785 0.18861818 -0.19148822 -0.23853938 0.02183629 0.12871967 -0.007707269 0.09156155
0.056164734 0.11247205 -0.18747784 -0.0022258132 0.13509564 0.21598293 0.11092991 0.10718822
-0.022107381 -0.06470325 -0.16589929 0.04217034 -0.11241371 -0.20130622 -0.09109986 0.00502493
0.13346346 -0.15149435 0.022890374 -0.043188643 -0.26090285 0.18247621 0.3036734 -0.096539296
-0.00989498 -0.110660166 -0.1894439 0.21937948 0.056026842 -0.1049561 -0.13455881 0.18441188
0.28435847 -0.07428481 -0.11538911 -0.08151545 0.050268315 -0.049233753 -0.2505904 0.11035753
0.08486893 0.13922603 -0.07715737 0.17268424 -0.06422704 0.0035922935 -0.07764327 0.02980524
0.13105717 -0.04589544 -0.10157876 0.61004585 -0.30320978 -0.11333768 -0.18085444 0.06951145
-0.108603716 -0.124822795 -0.046863344 0.12854005 -0.18859836 0.1021886 -0.13188146 -0.052575316
-0.03176586 -0.04547861 -0.045661453 -0.023808999 -0.17016515 0.18590942 -0.18176618 0.19119743
-0.23238876 -0.12008084 0.17467944 0.06580223 0.013019199 -0.067907825 -0.02115376 -0.03713241
0.2151236 -0.115167044 -0.19975632 -0.12727267 -0.054282267 0.06201211 -0.054634206 0.1329819
-0.09521498 0.14015895 0.14511813 0.29114544 -0.006496215 0.009007763 -0.09734666 -0.062253416
00000000: 95f9 2abd 6f1b cd3d 2ba6 d73d d8b9 0dbe
00000010: 3a1d 643d 1226 73be 092a 083e ff38 073e
00000020: 276d d0ba 8049 cc3d 200e 5e3e 1359 af3e
00000030: 943a 3f3e 07d7 ee3c 9573 363d efef 55be
00000040: 0826 9f3e 23ec f93d 761d c23d fa34 90bd
00000050: 354c 2b3d 067f d4be f415 003e 04b7 a6be
00000060: 5166 e5bb 9d7b fdbd 240a 8cbd 9513 2c3e
00000070: 49c5 0d3e 3fe4 603c 68a3 4ebd 04c3 61be
00000080: b148 0c3e 17db 90bc 289f bdbd d2d4 333e
00000090: 99a0 ffbd 85a9 b3bd d85e f1bd f81e 5e3e
000000a0: 6787 4dbe 74f2 bf3d 6e1b 78be 63c4 0a3d
000000b0: 23fa b7bd 9db8 0cbe 8508 0f3e 7a51 5d3e
000000c0: bac6 033c b606 d5be cfa3 59be 7928 733d
000000d0: 7ae2 243d 8c4a 05bd 3440 4b3e 682b 203c
000000e0: beae 0c3d 9d68 02be ab07 b0be 92fc 203e
000000f0: 5ecb 68bd c3a5 903d 207f 6cbc 9a96 2a3d
00000100: c501 25be e045 29bc de9b 20bd 5401 f63d
00000110: 6f31 143e 5e35 363d f6cf f4bb c7c8 6e3d
00000120: 2320 423e 443c 123d 9854 34bd 9b50 933e
00000130: 2ba2 02bd ab3d 1c3e 48a8 a43e f636 933d
00000140: 0902 55be e872 44bd 4209 6dbd c38b 803d
00000150: d7e9 36be 960d 83bd 36d7 1c3d 5414 4cbe
00000160: 8b46 fa3c f1d4 aebe 7b40 753e d173 813d
00000170: 8327 0abe 802c 5bbd 59ab e23c 5270 153c
00000180: eeeb 6abd 5892 2e3d 2030 b3be fb92 243e
00000190: 860e d6bd c33c 383e e9ce 84be bb00 debd
000001a0: c493 06bc a69b 553c 138f 823e 9819 93bd
000001b0: d6ee debc 4498 34be e339 a23e 23fc 9cbd
000001c0: b198 e93d 76fb 6abe 168a 1b3e 287a 003e
000001d0: ecad a5be a983 2c3e 0f68 83bc 62bc 293e
000001e0: 6b2c 943d a230 2bbe ccfd 9d3b 203a 43ba
000001f0: a25c d83d fac7 d3bd 1716 b1bc a799 43be
00000200: a622 5bbe fe2b 383e 1ab1 be3d 6c19 cabd
00000210: 03bc ee3d b7a9 eabc f627 4cbd 1e15 e93c
00000220: fd7e 02be 244c 07bd 2dd2 593e 39cd bbbd
00000230: 6b6d 863e 2a02 18be 350e 04be efee 06be
00000240: 7f90 e13c 6e15 973d f494 6fbc 391d 24be
00000250: 3c60 0fbe 358f a93d 39c3 abbd 307c 3b3c
00000260: e5a1 d2bd 2025 413e 7d15 44be ab43 74be
00000270: 05e2 b23c 17cf 033e 428d fcbb 9f84 bb3d
00000280: fe0c 663d bf57 e63d 31fa 3fbe f3de 11bb
00000290: 8356 0a3e a12a 5d3e 382f e33d 7f85 db3d
000002a0: 8a1a b5bc 2383 84bd 81e1 29be ceba 2c3d
000002b0: 2939 e6bd 3823 4ebe 9092 babd 2ba8 a43b
000002c0: a5aa 083e 5621 1bbe 9884 bb3c 93e6 30bd
000002d0: 0f95 85be 0bdb 3a3e 147b 9b3e 65b6 c5bd
000002e0: 8e1e 22bc cca1 e2bd 95fd 41be 04a5 603e
000002f0: 677c 653d 39f3 d6bd c9c9 09be 78d6 3c3e
00000300: 6f97 913e a222 98bd 2051 ecbd 92f1 a6bd
00000310: 26e6 4d3d 55a9 49bd 634d 80be 2103 e23d
00000320: c3cf ad3d 4591 0e3e af04 9ebd 23d4 303e
00000330: 7789 83bd af6c 6b3b 6f03 9fbd 1e2a f43c
00000340: da33 063e dbfc 3bbd 8608 d0bd f72b 1c3f
00000350: 503e 9bbe 961d e8bd e831 39be 055c 8e3d
00000360: a06b debd 18a3 ffbd c7f3 3fbd 01a0 033e
00000370: ee1f 41be 4248 d13d ef0b 07be 3759 57bd
00000380: eb1c 02bd c747 3abd 8107 3bbd 170b c3bc
00000390: c63f 2ebe 0a5f 3e3e ea20 3abe 42c9 433e
000003a0: 52f7 6dbe f2ec f5bd 2bdf 323e 52c3 863d
000003b0: 7a4e 553c 4213 8bbd a64a adbc 2718 18bd
000003c0: 5c49 5c3e b3dc ebbd ec8c 4cbe c453 02be
000003d0: 1557 5ebd 6900 7e3d 1ec8 5fbd 682c 083e
000003e0: 1200 c3bd d485 0f3e d999 143e 0411 953e
000003f0: 33de d4bb 4c95 133c b05d c7bd 70fd 7ebd

feature_layers.1.bias f4 [128]
0.041299712 0.028844789 0.032533675 -0.011361001 -0.14583607 -0.09013365 -0.01809941 -0.11076641
0.17560427 -0.21417996 0.041445065 0.18505481 0.022124385 0.084455006 0.20826314 -0.047253836
0.1105223 -0.10233326 0.22057524 0.08922226 0.05031028 0.018552667 0.12838021 -0.095147826
0.09032769 -0.08135639 0.032452255 0.04451572 -0.108018614 -0.012954744 -0.056678623 0.09575841
0.060732022 0.015499661 0.03355167 -0.011051127 0.09209818 0.18265304 0.14786966 -0.092897505
0.09200554 0.11519185 -0.10244714 0.14193445 0.16672254 -0.047692757 0.06891722 0.18752357
0.17251669 0.09177003 -0.049664505 -0.015269014 0.0960039 -0.111649476 -0.060488526 -0.06550061
0.016752196 0.015690245 0.046464507 -0.08969736 0.11899769 0.054841965 -0.13877928 0.074560344
0.22586946 0.08316368 0.18030398 -0.082633734 0.09553664 0.12183038 0.11353644 -0.02473818
-0.07017039 0.19199735 -0.051888365 -0.028198414 0.12643988 -0.01592118 0.0046346006 -0.16051583
-0.021915453 0.11162388 -0.112012714 -0.009933363 0.1097492 -0.19200636 -0.093793504 -0.12484799
-0.1328285 0.15680064 0.07089378 0.007213188 0.12200934 0.11047369 0.007217661 -0.034766
-0.21163051 0.17239061 -0.08049336 -0.15079011 -0.017495777 -0.11489338 -0.07415373 -0.0030956059
-0.19294135 -0.07117795 -0.12566535 -0.03801892 -0.07688619 0.025151214 0.0020895689 -0.11235751
0.21791214 0.07630356 0.086484395 0.0518021 0.08945223 0.17390287 -0.18836617 0.021274835
-0.1025366 0.15048328 -0.17797686 -0.03045559 0.14449395 -0.0015764722 0.030707784 0.031042565
00000000: e329 293d e84b ec3c 0842 053d 7e23 3abc
00000010: 0d56 15be fe97 b8bd 3745 94bc 80d9 e2bd
00000020: 9bd1 333e fe51 5bbe 4dc2 293d 027f 3d3e
00000030: 333e b53c bff6 ac3d ef42 553e 3d8d 41bd
00000040: 8459 e23d 1a94 d1bd 7ade 613e 29ba b63d
00000050: 2712 4e3d c3fb 973c 1a76 033e dddc c2bd
00000060: b9fd b83d 2e9e a6bd a8ec 043d 1e56 363d
00000070: dd38 ddbd 2240 54bc d827 68bd fc1c c43d
00000080: 24c2 783d 4af2 7d3c 7a6d 093d c90f 35bc
00000090: f89d bc3d 6609 3b3e 256b 173e 0c41 bebd
000000a0: 676d bc3d b4e9 eb3d cecf d1bd 4457 113e
000000b0: 50b9 2a3e 7b59 43bd 7924 8d3d 2e06 403e
000000c0: 37a8 303e edf1 bb3d 026d 4bbd e32a 7abc
000000d0: b19d c43d 7ba8 e4bd d1c2 77bd 2f25 86bd
000000e0: e73b 893c d488 803c 9151 3e3d 40b3 b7bd
000000f0: 10b5 f33d f8a1 603d 281c 0ebe 18b3 983d
00000100: 534a 673e b851 aa3d 9ba1 383e e03b a9bd
00000110: b7a8 c33d 3582 f93d cb85 e83d b9a7 cabc
00000120: 7eb5 8fbd f49a 443e e588 54bd 5c00 e7bc
00000130: 7579 013e 226d 82bc d9dd 973b 435e 24be
00000140: 0988 b3bc 109b e43d ec66 e5bd 8bbf 22bc
00000150: 30c4 e03d 519d 44be cf16 c0bd 4eb0 ffbd
00000160: 3204 08be 5990 203e c230 913d 9b5c ec3b
00000170: 08e0 f93d 0840 e23d 2182 ec3b cb66 0ebd
00000180: abb5 58be 2a87 303e b4d9 a4bd b968 1abe
00000190: 4e53 8fbc 384d ebbd e9dd 97bd a6df 4abb
000001a0: 6b92 45be bfc5 91bd 6bae 00be bab9 1bbd
000001b0: 8276 9dbd eb09 ce3c 26f1 083b b21b e6bd
000001c0: 5c24 5f3e 0a45 9c3d bb1e b13d 702e 543d
000001d0: bb32 b73d 9813 323e 10e3 40be 9048 ae3c
000001e0: b5fe d1bd 4a18 1a3e 913f 36be 007e f9bc
000001f0: 39f6 133e a1a1 ceba e48e fb3c fa4c fe3c

value_stream.0.weight f4 [64, 128]
0.07304446 -0.04391346 0.10624455 0.20050111 -0.0039955224 -0.013203577 0.04871366 -0.11650318
-0.0037050766 0.18733907 -0.0036931655 0.048793748 -0.0053781485 0.15366171 -0.03978568 -0.0036744613
-0.08239814 -0.118599296 -0.22680114 -0.09536466 0.09673464 0.06767761 -0.029205238 0.017770154
0.053593945 0.44036746 -0.024717748 -0.04010653 0.010130623 -0.10309957 -0.06349493 -0.22225188
0.026303157 0.09338932 -0.11497504 0.043381944 -0.20123848 -0.0696946 -0.13452779 0.1792306
0.20488198 0.13840686 -0.13948362 0.06070497 0.012740953 0.059127823 -0.06284486 -0.04597834
-0.16623726 -0.08522123 0.22707647 0.19790047 -0.07940285 0.12876119 0.3940141 -0.13386555
0.011069608 0.025245907 0.27225795 0.026468407 -0.22096096 0.09490297 0.080712646 -0.26359186
-0.12057764 -0.009305326 -0.06008303 -0.04162458 -0.02666934 -0.17409992 -0.00077099854 -0.20312284
0.0029082557 -0.13390177 -0.21014296 -0.07196389 0.044938523 0.18601295 -0.12496321 0.14978392
-0.02361093 -0.3010255 -0.10999491 0.2641338 0.0458056 -0.0025294109 0.063471414 -0.1577798
0.19229718 -0.17140044 0.040371265 0.1307406 -0.22829421 -0.08922022 -0.32827184 0.00031561835
-0.12332408 0.06625568 0.30018455 0.37655202 0.10604756 0.3660492 0.02372269 -0.028672533
0.40766916 0.27019748 0.14504229 0.14627029 -0.14857483 0.1905059 -0.03232946 -0.07782765
0.2007801 -0.12615985 -0.34035593 0.21694776 0.07797839 0.15551655 0.17930172 0.3058773
0.21685441 0.10805219 0.1779378 -0.14952098 -0.009979291 -0.105545714 -0.3528349 -0.10638729
-0.08121464 -0.25174832 0.1625282 -0.010006955 -0.1796523 0.17103587 -0.12986526 0.23007013
0.042920575 0.089474544 0.12183574 0.0049200393 -0.17864627 -0.29410097 -0.18336923 -0.057022676
-0.15422787 -0.011154512 -0.030856952 -0.05233534 0.080229566 -0.0021479125 -0.20427725 0.054688744
-0.2007039 0.02220701 -0.26086617 -0.20583305 0.35897723 0.0141230645 0.21065763 -0.13697821
-0.09443951 0.14309399 0.0062666712 0.20217703 -0.20260817 -0.118117504 -0.14339648 0.22725421
-0.03412296 -0.124388434 0.22358532 -0.16624826 -0.25958484 0.085788034 -0.04645839 -0.18920122
-0.08088304 -0.013938416 0.06902849 0.12570941 -0.0419931 0.044726938 -0.009448217 0.30289927
0.13021904 -0.06736584 -0.20656276 0.11710807 0.22652192 0.06289882 0.098131 -0.12461912
-0.036698386 -0.08940639 0.11997933 -0.054869663 0.009938007 -0.15236783 0.015705144 0.2769886
0.21070662 -0.018951068 0.03874191 0.20060682 -0.10194597 -0.046981066 0.12715828 0.13255353
-0.07146098 -0.43147093 0.25547126 -0.15031818 -0.3957167 -0.1345659 -0.20771596 0.2510069
0.12227241 -0.3299568 -0.014843584 0.05946215 -0.26874506 -0.023536451 -0.029059138 -0.31144086
0.3397317 -0.08082533 0.25392208 0.097640745 -0.048430145 0.07818964 -0.02650629 0.20047174
0.019991945 0.16976668 0.14998552 0.21266314 -0.010947977 -0.0030145596 -0.04136433 0.03651626
0.0319103 0.039554786 0.06412206 -0.05574512 -0.2828412 -0.10692303 0.034818575 0.10734103
-0.1367875 -0.06293899 0.08253112 0.13665147 0.005075147 0.08971296 -0.28532448 0.02586402
00000000: 5598 953d 9ade 33bd be96 d93d 2a50 4d3e
00000010: dfec 82bb d153 58bc fa87 473d 3899 eebd
00000020: dfd0 72bb d0d5 3f3e 0909 72bb f4db 473d
00000030: 2e3b b0bb 7f59 1d3e 4ff6 22bd 3bcf 70bb
00000040: 5bc0 a8bd 30e4 f2bd 8f3e 68be 8c4e c3bd
00000050: d01c c63d 8f9a 8a3d d33f efbc b792 913c
00000060: 5385 5b3d d877 e13e e07c cabc bf46 24bd
00000070: eafa 253c de25 d3bd a109 82bd ff95 63be
00000080: b879 d73c e642 bf3d 0978 ebbd 44b1 313d
00000090: 7611 4ebe 0bbc 8ebd a7c1 09be 3a88 373e
000000a0: 95cc 513e 87ba 0d3e cbd4 0ebe c6a5 783d
000000b0: 6ebf 503c 0430 723d ceb4 80bd c953 3cbd
000000c0: 1a3a 2abe 7888 aebd bc86 683e 6ca6 4a3e
000000d0: f69d a2bd f9d9 033e 37bc c93e 0d14 09be
000000e0: 4d5d 353c 81d0 ce3c 6565 8b3e 46d4 d83c
000000f0: 9743 62be 7d5c c23d ac4c a53d 83f5 86be
00000100: 69f1 f6bd 5e75 18bc a019 76bd 897e 2abd
00000110: a979 dabc 4047 32be d61c 4aba 6fff 4fbe
00000120: 6f98 3e3b 8c1d 09be b72f 57be ce61 93bd
00000130: 7511 383d 2e7a 3e3e b6ec ffbd f560 193e
00000140: b66b c1bc 0420 9abe 0345 e1bd 8c3c 873e
00000150: a79e 3b3d 79c4 25bb 4dfd 813d 0791 21be
00000160: 8de9 443e 9983 2fbe 575c 253d dde0 053e
00000170: f5c5 69be 17b9 b6bd 3f13 a8be 9479 a539
00000180: 5691 fcbd 0fb1 873d cab1 993e 6dcb c03e
00000190: 772f d93d cd6a bb3e 1656 c23c a9e2 eabc
000001a0: 03ba d03e 5357 8a3e f785 143e e1c7 153e
000001b0: 0024 18be fb13 433e e56b 04bd 1a64 9fbd
000001c0: 4c99 4d3e 0c30 01be 2243 aebe 8e27 5e3e
000001d0: 22b3 9f3d bb3f 1f3e df9a 373e f39b 9c3e
000001e0: 150f 5e3e 774a dd3d 5435 363e 071c 19be
000001f0: 2e80 23bc 5a28 d8bd c7a6 b4be 94e1 d9bd
00000200: dc53 a6bd 28e5 80be cb6d 263e 36f4 23bc
00000210: c6f6 37be 0724 2f3e 66fb 04be 8197 6b3e
00000220: 7ccd 2f3d 6e3e b73d 0485 f93d 4838 a13b
00000230: 0cef 36be 6794 96be 25c5 3bbe 9c90 69bd
00000240: e9ed 1dbe 6ac1 36bc b8c7 fcbc 955d 56bd
00000250: 664f a43d fec3 0cbb 0e2e 51be 4e01 603d
00000260: 5385 4dbe 7aeb b53c 4090 85be e6c5 52be
00000270: ddcb b73e 6d64 673c a2b6 573e 0444 0cbe
00000280: 8069 c1bd 3b87 123e a658 cd3b 7f07 4f3e
00000290: 8478 4fbe 97e7 f1bd 87d6 12be 54b5 683e
000002a0: 84c4 0bbd 5dbf febd 8df3 643e fc3c 2abe
000002b0: 4ee8 84be a3b1 af3d 274b 3ebd f7bd 41be
000002c0: 02a6 a5bd f45d 64bc cf5e 8d3d f8b9 003e
000002d0: f500 2cbd 9833 373d b2cc 1abc 9d15 9b3e
000002e0: 2458 053e 1af7 89bd 3085 53be 5bd6 ef3d
000002f0: 5df5 673e 19d1 803d e8f8 c83d 4f38 ffbd
00000300: 0c51 16bd b31a b7bd b9b7 f53d 03bf 60bd
00000310: 06d3 223c 5006 1cbe 13a8 803c 73d1 8d3e
00000320: 7ac3 573e 453f 9bbc d6af 1e3d e06b 4d3e
00000330: 0cc9 d0bd 386f 40bd c835 023e 1dbc 073e
00000340: 225a 92bd c2e9 dcbe 21cd 823e 02ed 19be
00000350: 619b cabe a5cb 09be 7eb3 54be fa83 803e
00000360: f569 fa3d 19f0 a8be 8132 73bc 958e 733d
00000370: f498 89be 84cf c0bc 6e0d eebc 2d75 9fbe
00000380: 50f1 ad3e c087 a5bd 1302 823e dff7 c73d
00000390: b05e 46bd e421 a03d b823 d9bc 7748 4d3e
000003a0: 26c6 a33c 51d7 2d3e ce95 193e 5ec4 593e
000003b0: 255f 33bc eb8f 45bb a56d 29bd 1392 153d
000003c0: 60b4 023d 3304 223d 6d52 833d ff54 64bd
000003d0: 90d0 90be 76fa dabd ec9d 0e3d 9dd5 db3d
000003e0: 0612 0cbe 28e6 80bd 1306 a93d 5dee 0b3e
000003f0: 6b4d a63b 6ebb b73d 0d16 92be c8e0 d33c

value_stream.0.bias f4 [64]
-0.20179081 -0.15379894 -0.032789186 -0.11168799 0.20246767 -0.108620614 -0.18400551 -0.024718912
0.12501457 -0.15022936 0.03617652 0.17229718 0.1868863 -0.12550357 0.22460546 0.14751504
0.08646976 -0.22150843 -0.17903645 0.23384646 0.19097826 -0.13631406 0.13941571 0.19321635
-0.11797187 -0.21391438 0.101593055 0.15688708 -0.06686354 -0.10131409 -0.1092259 -0.051545672
0.24918412 -0.055694774 0.27377245 -0.24400282 -0.06882986 -0.084534116 -0.18865468 -0.124528125
-0.23164332 -0.07817325 0.17802213 0.16216977 0.16272886 -0.023082972 0.1561631 0.23405953
-0.032208107 -0.04616059 -0.10455055 0.13613755 0.12518139 -0.12675849 -0.041994113 -0.16059253
-0.23169813 0.08862511 0.12376834 0.14297557 0.22736906 0.17277744 -0.13783187 -0.0032774038
00000000: 40a2 4ebe 787d 1dbe f44d 06bd acbc e4bd
00000010: af53 4f3e 7c74 debd f16b 3cbe 517f cabc
00000020: d203 003e bad5 19be d52d 143d ac6e 303e
00000030: 1f5f 3f3e 0284 00be f9fe 653e 2f0e 173e
00000040: 0f17 b13d 1bd3 62be 5555 37be 7275 6f3e
00000050: ce8f 433e ea95 0bbe fec2 0e3e 82da 453e
00000060: 3c9b f1bd 5f0c 5bbe 0510 d03d 02a7 203e
00000070: c0ef 88bd c37d cfbd d4b1 dfbd 8e21 53bd
00000080: 1f2a 7f3e 3420 64bd e72b 8c3e e0db 79be
00000090: abf6 8cbd 3920 adbd b12e 41be 9a08 ffbd
000000a0: e833 6dbe 4c19 a0bd 6f4b 363e d50f 263e
000000b0: 65a2 263e 8018 bdbc 38e9 1f3e 4dad 6f3e
000000c0: a6ec 03bd e312 3dbd 991e d6bd a467 0b3e
000000d0: 8d2f 003e facc 01be 0502 2cbd 5e72 24be
000000e0: 4642 6dbe 1581 b53d 417a fd3d 3068 123e
000000f0: 6fd3 683e 92ec 303e cc23 0dbe b6c9 56bb

value_stream.2.weight f4 [1, 64]
-0.12194235 -0.36254296 -0.0023361538 -0.16962454 0.112641975 -0.1693791 -0.055140316 -0.233713
0.07195629 -0.049064294 -0.0010997086 0.15559596 0.3708443 -0.05092041 0.5712566 0.35992348
0.19886783 -0.108492516 -0.08624667 0.5430916 0.12869261 -0.23721056 0.2065553 0.17389682
-0.24450547 -0.07829276 0.13814683 0.36881167 -0.13474679 -0.16983442 -0.059305742 -0.11108046
0.18275903 -0.24464898 0.10497327 -0.15827931 -0.21709292 -0.03698463 -0.36999446 -0.23778419
-0.38094196 -0.12376747 0.4256733 0.33098376 0.42665836 -0.14028844 0.14947015 0.23142694
-0.10608409 -0.047297075 -0.28102306 0.24301298 0.16713595 -0.23032539 -0.13153216 0.0007880939
-0.17084712 0.09352551 0.11239682 0.21158871 0.41156393 0.39465338 -0.16970208 -0.10806075
00000000: e9bc f9bd 3b9f b9be 281a 19bb 0eb2 2dbe
00000010: d6b0 e63d b771 2dbe d0da 61bd 7652 6fbe
00000020: d25d 933d a4f7 48bd 1924 90ba 8c54 1f3e
00000030: 4edf bd3e eb91 50bd df3d 123f e447 b83e
00000040: 02a4 4b3e 5331 debd 18a2 b0bd 0d08 0b3f
00000050: ffc7 033e 53e7 72be 3c83 533e 0212 323e
00000060: a45f 7abe f457 a0bd 5d76 0d3e e2d4 bc3e
00000070: 10fb 09be 13e9 2dbe 94ea 72bd 277e e3bd
00000080: 2f25 3b3e 4385 7abe 3afc d63d f913 22be
00000090: 9b4d 5ebe 327d 17bd ea6f bdbe b37d 73be
000000a0: d30a c3be cd79 fdbd daf1 d93e b476 a93e
000000b0: f772 da3e c6a7 0fbe b40e 193e 2ffb 6c3e
000000c0: 9e42 d9bd 94ba 41bd 41e2 8fbe 65d8 783e
000000d0: b025 2b3e 6bda 6bbe 5eb0 06be 1698 4e3a
000000e0: 8cf2 2ebe 4d8a bf3d 4e30 e63d b6aa 583e
000000f0: 82b8 d23e 0210 ca3e 62c6 2dbe f44e ddbd

advantage_stream.0.weight f4 [64, 128]
0.050042573 -0.05800983 0.13231593 -0.37466633 -0.2904176 -0.04990425 0.21366166 -0.20494317
0.06166932 -0.12114207 0.13737953 0.08062107 -0.33634913 -0.06480506 0.19686426 0.003040211
0.027223915 -0.07009155 0.14106369 0.07056949 -0.055750247 0.13509995 0.124787115 0.30146495
0.07352749 0.08107779 0.022309061 0.13290969 0.048727453 -0.26280463 0.5290903 -0.12922668
-0.26163355 -0.456127 -0.34719923 -0.07719179 -0.19201785 -0.20520155 0.086363845 -0.1816789
0.053154886 -0.13083395 -0.06635126 0.12674217 0.21069843 0.034575604 -0.16030756 -0.06659503
0.10634552 -0.3321862 0.044601094 0.2059657 -0.08620235 0.06300965 -0.054348882 -0.02770266
-0.08863145 0.1737067 0.03196248 -0.21829134 -0.051553335 -0.07285201 0.32612452 -0.110388435
-0.11666718 0.04035361 -0.06273661 0.037606232 0.14128454 0.19640066 0.10410142 -0.14664327
-0.23316734 -0.018692827 0.014901195 0.19519787 -0.13630348 0.2544417 -0.23637645 -0.06253663
-0.0076932325 -0.19097087 0.117634185 -0.12821868 -0.019701824 -0.20214136 -0.12780143 -0.11458712
0.052873332 -0.29031935 0.0392112 -0.64151984 0.052521415 -0.19159123 -0.41285628 -0.013461743
0.083455935 -0.13677266 0.037803557 0.11401957 0.15619102 -0.07350405 0.13521251 -0.13054731
0.11569762 0.074304946 -0.10273555 -0.2028231 -0.051011726 0.15356728 -0.43644324 0.32964998
-0.028105516 -0.20443477 0.3493653 -0.22444943 0.12370549 -0.1244298 0.17565256 -0.027121086
0.24317224 0.17493196 0.4484724 -0.31923333 0.010697563 -0.11586994 -0.3250075 0.075997375
-0.21504344 -0.16946043 -0.093037836 -0.25149766 0.14507543 0.0639293 0.01453168 -0.15554293
-0.059322767 0.008098073 0.22330688 0.012507361 -0.03286605 -0.09232164 -0.20135175 0.19112392
-0.035617307 0.4568923 -0.04003062 0.060302902 -0.06999052 -0.12834315 0.0653388 0.32755563
-0.015465636 -0.17860767 0.012567923 0.36187187 -0.101655535 0.032784395 0.11312711 0.18145448
-0.17948422 -0.0071487427 -0.16861643 -0.09800235 -0.08212189 0.14748617 0.25786245 -0.10871998
-0.013780501 -0.05137213 -0.118696995 0.06827491 -0.05520325 0.24091308 -0.06727583 0.09484635
-0.1494289 -0.12585974 0.62530774 -0.027975725 -0.012811934 0.4577169 0.19264533 0.24782899
0.33772072 -0.09614198 0.116618864 -0.12797129 0.04994645 0.017101416 0.12906747 -0.19583274
-0.05888981 -0.041938074 -0.044757385 -0.0025490855 -0.13215265 0.13312104 -0.05429411 -0.13748206
0.03422897 0.037719034 0.6325887 0.12500973 0.004245521 0.48283306 0.0066930926 -0.30383673
-0.0048318496 0.14864855 0.23313086 -0.3755869 -0.22072326 -0.22845076 0.009153014 -0.6222858
0.037774038 -0.2116458 0.05573946 -0.25041634 0.0130106695 -0.11689809 -0.19243401 0.050641693
0.14853953 0.024048867 0.27853614 -0.2222997 0.16608705 -0.16582291 0.08257051 -0.3108679
0.013928861 -0.27832165 -0.13868356 0.2389771 -0.0022747917 -0.049825095 -0.11340881 0.9954901
-0.00680934 -0.080443844 -0.025584735 -0.0015211647 -0.0018475503 0.037913922 0.11198037 0.21838123
-0.1309068 0.122385226 -0.37273973 0.08044749 0.0057870364 -0.09119777 -0.23140572 0.1902448
00000000: 71f9 4c3d b79b 6dbd d47d 073e 44d4 bfbe
00000010: 9eb1 94be 6668 4cbd 1fca 5a3e 9fdc 51be
00000020: f898 7c3d 5519 f8bd 38ad 0c3e a91c a53d
00000030: f435 acbe 84b8 84bd c996 493e 473e 473b
00000040: b004 df3c 298c 8fbd 0073 103e bd86 903d
00000050: 5f5a 64bd a457 0a3e 6390 ff3d 9d59 9a3e
00000060: 9595 963d 1d0c a63d 7ec1 b63c 7a19 083e
00000070: 7096 473d 548e 86be 7672 073f 0054 04be
00000080: d5f4 85be 7a89 e9be 19c4 b1be bb16 9ebd
00000090: 54a0 44be 5b20 52be 87df b03d 090a 3abe
000000a0: f0b8 593d 56f9 05be 2be3 87bd b3c8 013e
000000b0: 54c1 573e 269f 0d3d aa27 24be fa62 88bd
000000c0: aecb d93d 4f14 aabe a3af 363d ace8 523e
000000d0: dc8a b0bd 340b 813d ef9c 5ebd b0f0 e2bc
000000e0: 6884 b5bd 2be0 313e 17eb 023d c487 5fbe
000000f0: 9729 53bd 6f33 95bd cbf9 a63e 5513 e2bd
00000100: 34ef eebd d449 253d 0d7c 80bd fe08 1a3d
00000110: e5ac 103e 411d 493e 2033 d53d a729 16be
00000120: 6bc3 6ebe b321 99bc 2424 743c f3e1 473e
00000130: 2493 0bbe 2f46 823e ab0c 72be 3413 80bd
00000140: 8317 fcbb de8d 43be 31ea f03d c24b 03be
00000150: b865 a1bc 25fe 4ebe 61de 02be a7ac eabd
00000160: b591 583d bda4 94be ec9b 203d a53a 24bf
00000170: b220 573d 7e30 44be e661 d3be a48e 5cbc
00000180: f2ea aa3d 220e 0cbe e7d7 1a3d 1883 e93d
00000190: 8af0 1f3e 4b89 96bd 2675 0a3e 32ae 05be
000001a0: e0f2 ec3d 312d 983d 0467 d2bd dcb0 4fbe
000001b0: acf1 50bd be40 1d3e 7d75 dfbe e2c7 a83e
000001c0: 8a3d e6bc 5957 51be 02e0 b23e 12d6 65be
000001d0: 4e59 fd3d 0dd5 febd 44de 333e 0a2d debc
000001e0: 2502 793e 5d21 333e 2d9e e53e 8d72 a3be
000001f0: d544 2f3c 384d edbd 6267 a6be 83a4 9b3d
00000200: 5934 5cbe 0987 2dbe 9f8a bebd 4dc4 80be
00000210: a78e 143e 5ded 823d 4916 6e3c a546 1fbe
00000220: 6efc 72bd c8ad 043c 8faa 643e adeb 4c3c
00000230: 8d9e 06bd 2113 bdbd 272f 4ebe fdb5 433e
00000240: 74e3 11bd caed e93e 26f7 23bd 2d00 773d
00000250: 3157 8fbd 636c 03be 59d0 853d 5fb5 a73e
00000260: 9463 7dbc eee4 36be b1e9 4d3c 4547 b93e
00000270: c730 d0bd ee48 063d 30af e73d 34cf 393e
00000280: b6ca 37be 0040 eabb c9a9 2cbe 75b5 c8bd
00000290: 852f a8bd 9d06 173e 8c06 843e 95a8 debd
000002a0: 9cc7 61bc 956b 52bd 6917 f3bd b7d3 8b3d
000002b0: ce1c 62bd ebb1 763e e9c7 89bd ce3e c23d
000002c0: e403 19be 60e1 00be 2b14 203f 592d e5bc
000002d0: 25e9 51bc df59 ea3e d144 453e e2c6 7d3e
000002e0: bbe9 ac3e 16e6 c4bd dfd5 ee3d e80a 03be
000002f0: a694 4c3d 4518 8c3c 432a 043e 6188 48be
00000300: 7136 71bd 42c7 2bbd 8553 37bd 8f0e 27bb
00000310: 0653 07be e250 083e 8063 5ebd 19c8 0cbe
00000320: ad33 0c3d 467f 1a3d 55f1 213f 8d02 003e
00000330: 031e 8b3b e535 f73e bb51 db3b 7d90 9bbe
00000340: 7e54 9ebb 5337 183e dbb9 6e3e ed4c c0be
00000350: 4705 62be ffee 69be 86f6 153c 1f4e 1fbf
00000360: f3b8 1a3d adb9 58be 0f4f 643d 9236 80be
00000370: b42a 553c 4468 efbd 6c0d 45be aa6d 4f3d
00000380: bf1a 183e 2102 c53c 4a9c 8e3e 88a2 63be
00000390: b912 2a3e 7bcd 29be ba1a a93d 142a 9fbe
000003a0: e135 643c 2d80 8ebe 1003 0ebe 6ab6 743e
000003b0: ac14 15bb 6615 4cbd e142 e8bd 70d8 7e3f
000003c0: e220 dfbb bebf a4bd 1497 d1bc d161 c7ba
000003d0: 8029 f2ba a14b 1b3d f755 e53d 549f 5f3e
000003e0: 6f0c 06be 1ba5 fa3d bed7 bebe a7c1 a43d
000003f0: 2ea1 bd3b e5c5 babd 9ff5 6cbe 88cf 423e

advantage_stream.0.bias f4 [64]
0.022492528 7.776009e-06 -0.028017184 -0.013219923 -0.039080393 -0.102772795 -0.03202734 -0.02175816
-0.044494413 0.03709453 -0.03307542 0.110516705 -0.02421266 -0.08041817 0.11702419 -0.0139727155
0.12271377 -0.023037912 -0.044923425 -0.044082984 -0.00152089 0.10175074 0.03361883 -0.015334138
0.06779908 0.031161947 -0.045895644 -0.045431368 -0.0059856204 -0.1064112 0.027695395 0.049584392
0.049463447 -0.06927977 -0.06379776 0.065860026 0.04552269 -0.009187914 0.04065486 0.016354006
0.0069529284 -0.05937723 0.029970465 0.017135726 -0.12695175 -0.10151182 0.0571 -0.050038107
0.14704558 0.08311021 -0.013400867 0.013736507 -0.11981928 0.03099746 0.07466326 -0.042702273
0.046963234 -0.1466072 0.12417653 -0.0947456 -0.05795403 -0.06051563 -0.001320285 0.0704307
00000000: 4042 b83c b475 0237 4b84 e5bc 6098 58bc
00000010: c312 20bd 8b7a d2bd 1a2f 03bd 2b3e b2bc
00000020: c63f 36bd 6ff0 173d 177a 07bd 9556 e23d
00000030: a159 c6bc 48b2 a4bd 61aa ef3d d1ed 64bc
00000040: 5b51 fb3d 01ba bcbc a001 38bd 5c90 34bd
00000050: 9a58 c7ba b162 d03d e6b3 093d 093c 7bbc
00000060: 3eda 8a3d 5747 ff3c 12fd 3bbd 3e16 3abd
00000070: 0623 c4bb 1dee d9bd 74e1 e23c 0119 4b3d
00000080: 2f9a 4a3d 8de2 8dbd 66a8 82bd 9fe1 863d
00000090: 0076 3a3d e888 16bc b685 263d d6f8 853c
000000a0: 64d5 e33b 8a35 73bd 9f84 f53c 3960 8c3c
000000b0: a4ff 01be 6ee5 cfbd b1e1 693d c2f4 4cbd
000000c0: 1e93 163e b035 aa3d 4f8f 5bbc 160f 613c
000000d0: d063 f5bd 63ee fd3c 0de9 983d 94e8 2ebd
000000e0: 855c 403d 3320 16be 4450 fe3d fb09 c2bd
000000f0: 3461 6dbd 3ddf 77bd 6a0d adba f93d 903d

advantage_stream.2.weight f4 [4, 64]
0.16908255 0.12415299 0.68919134 -0.11752416 0.25927955 0.237118 -0.06452428 -1.1675062
0.30752972 0.21694006 -0.32373846 -1.0278263 0.084402 -0.15663184 0.37635463 0.08654977
0.37633574 0.009303968 0.029075308 -0.25775734 0.22779974 -0.11417809 -0.15157643 0.2678133
0.0004833228 -0.64820063 0.39113325 0.06775274 0.32229257 0.31604072 -0.33139482 0.38994572
0.42190006 0.21092094 -0.057889774 0.024146134 0.20235911 0.20504709 -0.5084794 0.101355895
0.030569904 0.18676639 -0.9296256 0.42453402 0.37404558 0.4562551 0.62615377 -0.05015449
-0.066395305 0.032611303 -0.8603888 0.29556304 0.40812758 -0.1423176 0.5294453 -0.054023255
0.4299058 -0.29065546 -0.15556484 -0.10434451 0.1024308 -0.024032913 0.3014774 0.20402993
0.14726277 0.0630759 0.13812368 -0.27510998 -0.8425069 -0.10761148 0.0568134 0.22511956
-0.058481116 0.28548306 -0.84834313 0.23743923 -0.22138138 -0.18228644 0.28227696 0.049741868
0.03863249 -0.6706276 0.11655438 0.17387202 -0.54933226 0.3728768 -0.70861363 -1.1480813
-0.73623013 0.08572364 0.19463052 -0.23739517 0.016972985 -0.22452389 -0.60856354 0.4252053
0.422559 0.24472377 -0.01775188 -0.019481322 -0.030724611 0.24569035 0.33960223 0.08105658
-0.8326419 -0.27007556 0.07101422 0.20522751 -0.3143021 0.040617645 0.3697764 -0.12850022
0.5204808 0.35429415 0.019423984 -0.5433397 -0.5830386 0.027779212 -0.076213755 0.14480016
0.22308876 -0.15778987 0.7633484 -0.040567424 0.20854297 0.01390677 0.19604018 0.31860828
0.07970176 -0.5183742 -0.7309156 -0.12109345 -0.053415116 -0.1564053 0.006866892 0.66157526
-0.18248364 -0.15754712 0.6430236 0.36029854 -0.17244303 -0.115317374 -0.36169285 0.3653523
0.30147082 -0.03438669 -0.9411808 -0.3085813 0.5591664 0.013312326 0.46726704 0.333592
0.15238221 0.3239928 -0.21242654 0.48419598 0.3209228 -0.25136673 0.44350627 0.34054258
-0.63035274 0.0014964149 -0.16422817 0.5441006 -0.06177812 -0.57363313 0.29717925 0.09379469
0.2851081 0.1361616 0.42662922 0.08015826 0.09960537 -0.15348457 -0.11087099 -0.1272525
-0.12373592 -0.34931257 0.09041393 0.3190635 0.26376384 -0.6285999 -0.055839695 -0.23072888
-0.81614524 0.039751623 -0.035841163 0.12980886 0.024075827 0.42078823 -0.19737293 -0.27923903
0.030811675 0.16121876 0.2283575 -0.3622894 -0.08148816 0.33434892 -0.3108184 0.46768942
0.16569306 0.30926105 0.29350504 0.12967159 0.21548413 0.019573005 -0.14274916 -0.6399803
-0.78525347 0.18051162 0.3201872 0.39905864 0.026109993 -0.5177032 0.3375065 0.5105781
0.22595932 0.20180087 -0.42469594 -0.8188838 -0.18125074 0.06813107 0.15820144 -1.292269
-0.01901818 0.14382859 0.012254959 -0.02975774 -0.8306409 -0.39492333 0.1440618 0.0011294711
0.5708134 0.0987635 0.6147969 -0.7218557 0.16037872 -0.41755363 -0.00851254 -0.14462727
-0.3552634 -0.38259915 0.26479897 0.2529458 -0.023718866 0.5090887 -0.12091977 0.06149931
0.57694095 0.16858898 -0.28475758 0.3371652 0.036835067 0.15521117 -0.3216763 -0.40148467
00000000: fa23 2d3e ec43 fe3d d86e 303f 82b0 f0bd
00000010: 4ac0 843e 10cf 723e 4e25 84bd d870 95bf
00000020: 8974 9d3e 8925 5e3e 0cc1 a5be d08f 83bf
00000030: f5da ac3d 1964 20be 8eb1 c03e 0141 b13d
00000040: 14af c03e ac6f 183c 572f ee3c c5f8 83be
00000050: 5644 693e 34d6 e9bd da36 1bbe d31e 893e
00000060: 7d66 fd39 7af0 25bf 9e42 c83e f3c1 8a3d
00000070: 8803 a53e 17d0 a13e 95ac a9be f7a6 c73e
00000080: 4903 d83e a9fb 573e d41d 6dbd 1dce c53c
00000090: 3a37 4f3e ddf7 513e b52b 02bf ae93 cf3d
000000a0: bc6d fa3c b03f 3f3e f1fb 6dbf 865c d93e
000000b0: e782 bf3e 459a e93e 9d4b 203f cb6e 4dbd
000000c0: 43fa 87bd 6e93 053d 7142 5cbf 0a54 973e
000000d0: 19f6 d03e b4bb 11be ba89 073f 7d47 5dbd
000000e0: 9d1c dc3e cbd0 94be 644c 1fbe 93b2 d5bd
000000f0: 3dc7 d13d ace0 c4bc 3f5b 9a3e 39ed 503e
00000100: 0dcc 163e f02d 813d 4b70 0d3e 37db 8cbe
00000110: 88ae 57bf 6863 dcbd 2bb5 683d be85 663e
00000120: e589 6fbd d62a 923e 042d 59bf 4523 733e
00000130: cdb1 62be 4ca9 3abe 9b86 903e 21be 4b3d
00000140: 1a3d 1e3d 40ae 2bbf 10b4 ee3d 820b 323e
00000150: 0aa1 0cbf b5e9 be3e b467 35bf 54f4 92bf
00000160: 9479 3cbf e08f af3d 394d 473e b817 73be
00000170: ee0a 8b3c 97e9 65be d2ca 1bbf 82b4 d93e
00000180: a759 d83e de98 7a3e 646c 91bc 4b97 9fbc
00000190: 2eb2 fbbc 4096 7b3e 58e0 ad3e fe00 a63d
000001a0: 0528 55bf 5847 8abe e76f 913d 2927 523e
000001b0: 34ec a0be b05e 263d 5553 bd3e 9095 03be
000001c0: 3b3e 053f 0b66 b53e 0c1f 9f3c 5018 0bbf
000001d0: 0542 15bf 3b91 e33c f515 9cbd 7e46 143e
000001e0: 6171 643e ab93 21be cd6a 433f 072a 26bd
000001f0: 4a8c 553e 39d9 633c c2be 483e a020 a33e
00000200: ad3a a33d 2cb4 04bf 491d 3bbf d8ff f7bd
00000210: cfc9 5abd b628 20be aa03 e13b ff5c 293f
00000220: fedc 3abe 0854 21be 329d 243f 0d79 b83e
00000230: e894 30be 842b ecbd ce2f b9be 750f bb3e
00000240: 625a 9a3e 0fd9 0cbd 3af1 70bf 5efe 9dbe
00000250: 8725 0f3f f11b 5a3c a03d ef3e 92cc aa3e
00000260: 150a 1c3e 62e2 a53e 5886 59be 89e8 f73e
00000270: fe4f a43e 24b3 80be 4113 e33e 995b ae3e
00000280: cc5e 21bf 5a23 c43a 6e2b 28be 2d4a 0b3f
00000290: 0e0b 7dbd 9fd9 12bf e127 983e 6e17 c03d
000002a0: b0f9 913e f26d 0b3e 256f da3e 042a a43d
000002b0: e6fd cb3d 0f2b 1dbe 5410 e3bd 7b4e 02be
000002c0: 4269 fdbd 19d9 b2be f02a b93d 4b5c a33e
000002d0: 0e0c 873e eceb 20bf 2ab8 64bd 3144 6cbe
000002e0: e5ee 50bf 99d2 223d 2fce 12bd 9dec 043e
000002f0: ab3a c53c 8e71 d73e 211c 4abe 6bf8 8ebe
00000300: c468 fc3c 8816 253e 8cd6 693e ff7d b9be
00000310: 44e3 a6bd c82f ab3e 9723 9fbe fd74 ef3e
00000320: 71ab 293e 7757 9e3e 4b46 963e a1c8 043e
00000330: dfa7 5c3e 9157 a03c d62c 12be c0d5 23bf
00000340: 5f06 49bf 0ad8 383e 94ef a33e 6a51 cc3e
00000350: a0e4 d53c 3288 04bf a7cd ac3e 3fb5 023f
00000360: e161 673e e3a4 4e3e bf71 d9be 5ea2 51bf
00000370: cb99 39be 4d88 8b3d 8fff 213e 1269 a5bf
00000380: 04cc 9bbc cd47 133e 06c9 483c 81c6 f3bc
00000390: e2a4 54bf 6433 cabe f084 133e c30a 943a
000003a0: d420 123f 8544 ca3d 5463 1d3f 89cb 38bf
000003b0: 523a 243e 97c9 d5be 2e78 0bbc 2c19 14be
000003c0: 16e5 b5be 09e4 c3be bb93 873e 1d82 813e
000003d0: 114e c2bc a353 023f c9a4 f7bd b3e6 7b3d
000003e0: 67b2 133f 97a2 2c3e bfcb 91be eba0 ac3e
000003f0: 5ee0 163d adef 1e3e c2b2 a4be 668f cdbe

advantage_stream.2.bias f4 [4]
0.03272323 -0.042995 -0.14333469 -0.09845795
00000000: cb08 063d 861b 30bd 54c6 12be 52a4 c9bd

feature_layers.0.weight f4 [128, 24]
-0.45724586 0.53244317 -0.45739055 0.16640101 0.37575603 -0.619865 -0.1192312 -0.31511027
-0.057223067 -0.12909524 -0.06628464 -0.24207349 0.1242114 0.121456735 -0.41557196 0.5442253
-0.76633286 1.0133836 0.4694709 -0.37064886 0.57461923 -0.11442282 0.32600456 0.011845695
-0.02025969 0.111980006 -0.048826728 -0.4323137 -0.20137908 -0.4791981 0.2697625 -0.023847017
-0.18317981 0.06680416 0.1444311 0.5812572 -0.025888734 0.36617756 2.6494734e-05 -0.042498514
0.23549402 0.8995572 0.11707907 -0.05205024 0.040670704 0.0020052637 0.41875196 -0.112552606
-0.22776438 -0.3867501 0.082410425 -0.16582008 -0.11447725 -0.34142193 0.2503151 0.2704152
-0.18146147 -0.43642038 -0.16742589 -0.52580893 0.15426758 -0.20697579 0.36087134 0.059119973
-0.469672 -0.123324305 -0.35287437 -0.29539117 -0.15087123 0.06052456 0.41722563 -0.036815256
0.13197055 0.31805497 0.86960346 0.52507985 0.13782328 0.327494 0.07137041 0.2586766
0.3135758 0.28613862 0.18748537 0.83527887 0.13543193 -0.069378145 -0.5973802 0.32974768
-0.01374679 0.082086675 0.09792467 -0.42563888 0.4320647 -0.18546149 0.5521082 -0.22106552
0.041228835 0.88449997 -0.20401736 -0.3127927 0.26338845 0.10046434 -0.3766171 -0.0800404
-0.10586874 0.43049765 0.36201507 0.1315023 -0.6161828 -0.532681 -0.2487491 -0.16487762
-0.6365798 0.40298036 0.5537568 0.26847327 0.39509958 0.2132219 -0.07774859 -0.14114384
0.10840871 0.15222944 -0.26094338 0.16746308 -0.22197382 0.29000542 -0.04686214 -0.09155648
0.36147347 0.11268374 -0.1431489 -0.073693365 -0.57894367 0.039515976 -0.37138155 0.7756724
-0.30733544 0.3107689 -0.23424467 -0.10205966 0.47251177 -0.20745456 0.22846903 -0.26001608
-0.21740161 0.11998435 -0.31044734 -0.2814226 0.15140013 0.42204878 -0.4715706 0.043692883
0.3443592 0.11604963 0.026270598 0.037206072 0.17226303 -0.10517575 -0.29933944 -0.0031557302
-0.2801028 -0.19225466 -0.38605103 0.345068 0.1076813 0.5082478 -0.4604061 0.3399042
0.0016981423 -0.017262928 -0.01486359 -0.050866254 -0.3020218 -0.22949556 0.33572063 0.24470103
0.50004274 -0.07455917 0.05685168 0.25548443 -0.299455 -0.3792386 -0.36364657 0.24150418
0.42838436 0.24042694 -0.008562848 -0.086660236 0.20870389 -0.00785896 0.2891352 0.5257676
-0.011280882 -0.15693296 -0.20192128 0.3242415 -0.120012894 0.06368393 -0.14323004 -0.041861806
-0.116462156 0.20634827 0.22557987 0.4741243 -0.3580359 0.051737677 -0.13575836 -0.022858363
0.122363515 0.30152783 -0.15855671 -0.3918791 -0.47609952 0.45035547 -0.15191984 0.18510012
0.3792334 -0.3021659 -0.09126348 0.30530825 0.19908236 -0.30273825 0.18616661 -0.17051044
-0.38102424 -0.32302886 0.43489212 -0.1815966 -0.09737133 -0.019072143 -0.25702643 -0.31402504
-0.07430996 -0.5075339 0.06691291 0.019314276 -0.17459528 0.4599686 -0.3329303 0.09581278
0.24716914 0.18260756 0.22417545 -0.25497282 -0.17380805 0.012328636 -0.07919413 -0.24292499
0.15029877 0.3073455 -0.06716632 0.47127455 -0.7107698 -0.21111411 -0.21630315 -0.39562568
00000000: 211c eabe 324e 083f 182f eabe 0765 2a3e
00000010: 1863 c03e 79af 1ebf 7d2f f4bd 2256 a1be
00000020: bc62 6abd 8b31 04be 3ec0 87bd 1de2 77be
00000030: 8c62 fe3d 4fbe f83d d9c5 d4be 5952 0b3f
00000040: 642e 44bf 8eb6 813f 7d5e f03e b0c5 bdbe
00000050: 3f1a 133f 8356 eabd 12ea a63e 7214 423c
00000060: a6f7 a5bc c655 e53d 89fe 47bd 3958 ddbe
00000070: 5136 4ebe 7459 f5be 4f1e 8a3e d25a c3bc
00000080: 7d93 3bbe 9fd0 883d bfe5 133e 46cd 143f
00000090: 9c14 d4bc a07b bb3e 0241 de37 ec12 2ebd
000000a0: 5825 713e 6149 663f 27c7 ef3d a232 55bd
000000b0: 5396 263d be6a 033b a866 d63e fb81 e6bd
000000c0: 113b 69be 1c04 c6be ccc6 a83d bdcc 29be
000000d0: 0c73 eabd dbce aebe 4d29 803e dc73 8a3e
000000e0: 09d1 39be 7e72 dfbe b171 2bbe 6a9b 06bf
000000f0: 52f8 1d3e 76f1 53be 21c4 b83e c927 723d
00000100: d978 f0be 7491 fcbd f3ab b4be 833d 97be
00000110: fd7d 1abe 9ae8 773d 999e d53e 98cb 16bd
00000120: 4a23 073e 1ad8 a23e 559e 5e3f a26b 063f
00000130: 8c21 0d3e 4bad a73e a62a 923d 4271 843e
00000140: 028d a03e c380 923e 2afc 3f3e d6d4 553f
00000150: abae 0a3e 2116 8ebd e9ed 18bf b0d4 a83e
00000160: 373a 61bc 0f1d a83d bb8c c83d 57ed d9be
00000170: 9637 dd3e 9ee9 3dbe f756 0d3f 005f 62be
00000180: 91df 283d 976e 623f ede9 50be 5d26 a0be
00000190: dada 863e 3fc0 cd3d f5d3 c0be 39ec a3bd
000001a0: b6d1 d8bd 306a dc3e 0a5a b93e 8aa8 063e
000001b0: 28be 1dbf c85d 08bf 16b8 7ebe aed5 28be
000001c0: e5f6 22bf 7153 ce3e 01c3 0d3f 5475 893e
000001d0: 7e4a ca3e d756 5a3e a73a 9fbd 0388 10be
000001e0: 6305 de3d 09e2 1b3e 5f9a 85be 717b 2b3e
000001f0: 1b4d 63be 977b 943e 84f2 3fbd f781 bbbd
00000200: 0d13 b93e bcc6 e63d a095 12be 8cec 96bd
00000210: a735 14bf 81db 213d b925 bebe 7792 463f
00000220: 125b 9dbe 1a1d 9f3e d6dd 6fbe a804 d1bd
00000230: 10ed f13e f86e 54be c9f3 693e d420 85be
00000240: 879e 5ebe 5bba f53d f4f2 9ebe 9f16 90be
00000250: a308 1b3e c716 d83e b471 f1be 4ff7 323d
00000260: d94f b03e 6eab ed3d 7035 d73c 6565 183d
00000270: b865 303e 6266 d7bd 0543 99be 5ed0 4ebb
00000280: a269 8fbe 68de 44be 7ba8 c5be c1ac b03e
00000290: 0388 dc3d 871c 023f 59ba ebbe ec07 ae3e
000002a0: 3394 de3a fc6a 8dbc 6a86 73bc 2259 50bd
000002b0: 9aa2 9abe e200 6bbe 93e3 ab3e e892 7a3e
000002c0: cd02 003f 7ab2 98bd 4fdd 683d dbce 823e
000002d0: 2a52 99be 902b c2be e22f babe df4c 773e
000002e0: 3255 db3e 7b32 763e 304b 0cbc ec7a b1bd
000002f0: 79b6 553e dec2 00bc 8709 943e b598 063f
00000300: 73d3 38bc 09b3 20be 74c4 4ebe fb02 a63e
00000310: 52c9 f5bd b86c 823d e5aa 12be 4977 2bbd
00000320: b683 eebd f64c 533e 69fe 663e 6cc0 f23e
00000330: 7b50 b7be e3ea 533d 3d04 0bbe 7641 bbbc
00000340: b999 fa3d db61 9a3e b15c 22be 61a4 c8be
00000350: 51c3 f3be fe94 e63e e090 1bbe e38a 3d3e
00000360: e12a c23e 7db5 9abe 59e8 babd 5d51 9c3e
00000370: 3fdc 4b3e 8200 9bbe 76a2 3e3e 4a9a 2ebe
00000380: 9c15 c3be 0a64 a5be 2eaa de3e 76f4 39be
00000390: 9f6a c7bd 2f3d 9cbc f898 83be e4c7 a0be
000003a0: d22f 98bd beed 01bf a309 893d f938 9e3c
000003b0: 1bc9 32be 0181 eb3e d775 aabe 7e39 c43d
000003c0: e819 7d3e 7afd 3a3e 408e 653e cc8b 82be
000003d0: bdfa 31be 0cfe 493c 8830 a2bd 54c1 78be
000003e0: ece7 193e 645c 9d3e 7f8e 89bd e64a f13e
000003f0: 02f5 35bf 4c2e 58be 937e 5dbe 738f cabe
